RNN_models/close_raw_cci_hma_22_t3.pth (torch, 15236 bytes, 5 tensors)

weight_ih_l0 f4 [50, 5]
0.09693092 0.19783571 0.16591404 0.13098937 0.026358336 0.13936149 -0.0075565116 -0.03511462
-0.015941635 0.12440477 0.0612281 -0.06668868 0.10271818 -0.06666125 -0.08577839 -0.28876826
-0.2716699 0.007876008 -0.13416314 0.035457164 0.17407425 0.11710487 0.16759634 -0.03925451
0.11512971 -0.16403335 -0.09322477 0.00040131705 0.06910203 -0.12687813 -0.019788 -0.015998812
-0.01590947 -0.093676545 -0.014897006 -0.09690172 -0.11623741 0.080398515 0.051391136 -0.0065411245
0.083302505 0.08449495 -0.12635617 -0.06027552 -0.064432904 0.073004745 0.038677342 0.025394034
0.16974379 -0.08825313 -0.15368709 -0.119313195 0.0404366 0.0025579194 0.09280228 -0.09437606
-0.18222125 -0.09606496 0.0081786625 0.059378773 0.1675622 0.13300169 0.03627195 0.09263762
0.15318954 0.07201479 0.105327114 0.09741705 -0.015435997 0.032727882 -0.1521276 0.035396926
-0.004099383 -0.075404085 -0.15039082 0.083218925 0.06565387 -0.10975175 -0.0022853287 -0.08544325
0.19613396 0.12583709 0.04541283 0.046644516 0.10507245 0.23590451 -0.011600443 0.16329724
0.004310918 0.06115081 -0.16259877 -0.11399474 -0.2339033 0.037526287 -0.19461602 -0.12691163
-0.12119303 -0.06673487 0.045717977 -0.16353105 -0.034303043 -0.048722506 -0.12130906 0.09960778
0.05946983 -0.22193064 0.03214479 0.07443863 0.00047715064 0.06459847 0.110803925 -0.022049934
0.14912593 0.003888121 0.16419235 -0.017046656 0.063773245 -0.037040573 0.109604895 0.06592816
0.050448548 0.13495655 0.12962343 0.10727156 -0.059444293 -0.16894293 -0.09924377 -0.07848941
-0.16790645 -0.0792108 -0.40745246 -0.09226261 -0.11201824 0.01578443 -0.07398372 0.013231562
-0.035101112 -0.14991096 0.08349076 -0.11923069 0.11782155 0.04740398 0.164557 0.056185238
-0.020513264 0.17940857 0.046560373 0.15688552 0.09822821 0.019319015 0.0063933977 0.009972976
-0.04140505 0.12218257 -0.10062332 -0.030026006 -0.057176594 0.019290207 -0.09566447 -0.08497064
0.022067297 -0.052425247 -0.09676637 -0.06754177 -0.12612689 -0.03354526 0.06493432 -0.08147246
-0.10526399 0.055725764 0.20759125 0.11816473 0.13283727 0.08658753 0.10829003 0.27629524
0.084678136 0.06081772 0.01079389 -0.054801885 0.056828026 0.18082513 -0.035149604 0.01924461
0.1441881 -0.007857604 0.015906593 0.08363101 -0.009589558 0.09281282 0.13053367 0.16779105
-0.00087043946 -0.069261074 0.12819394 -0.08829209 0.048653416 0.08927158 0.050039142 0.06523545
0.21518926 0.16037649 -0.043215275 0.035195332 0.14525872 -0.082101814 -0.009518708 0.0008269051
0.0037147622 0.020220352 -0.022629483 -0.08361087 -0.08435001 -0.15044792 0.0904724 0.016952422
0.10774715 0.012455595 -0.0768718 -0.0343283 -0.09827167 -0.071360804 -0.018711492 0.13180694
-0.07036508 0.018814147 -0.12902501 0.046683915 -0.008212524 0.13404636 0.15358655 -0.07818006
0.06788495 0.03582446 -0.032323584 -0.01447315 0.00065255817 -0.014500128 -0.06371974 -0.018755877
0.108162805 0.089680746 0.0029117772 0.07523106 0.09229456 0.09423616 0.011357486 0.018341187
0.019533498 0.11282964
00000000: b883 c63d 7295 4a3e 5fe5 293e 1422 063e
00000010: 70ed d73c c7b4 0e3e 9d9c f7bb 59d4 0fbd
00000020: 0898 82bc eec7 fe3d 51ca 7a3d 1394 88bd
00000030: e95d d23d b285 88bd 95ac afbd 6fd9 93be
00000040: 5118 8bbe 5f0a 013c 1062 09be 883b 113d
00000050: 8540 323e aed4 ef3d 609e 2b3e 56c9 20bd
00000060: 20c9 eb3d 5cf8 27be a1ec bebd dd67 d239
00000070: 5d85 8d3d 57ec 01be 721a a2bc f10f 83bc
00000080: 9454 82bc 7dd9 bfbd 9212 74bc 6974 c6bd
00000090: e10d eebd faa7 a43d 837f 523d ee56 d6bb
000000a0: 819a aa3d b00b ad3d 8363 01be 77e3 76bd
000000b0: 66f5 83bd 8383 953d 226c 1e3d 2607 d03c
000000c0: 51d1 2d3e 0fbe b4bd 2660 1dbe 7a5a f4bd
000000d0: d9a0 253d c4a2 273b 1f0f be3d 3c48 c1bd
000000e0: 3598 3abe b5bd c4bd ccff 053c 2837 733d
000000f0: 6d95 2b3e 9831 083e e591 143d cbb8 bd3d
00000100: b8dd 1c3e 7d7c 933d beb5 d73d 9782 c73d
00000110: 44e7 7cbc ac0d 063d 56c7 1bbe 5efc 103d
00000120: 1e54 86bb 756d 9abd 0d00 1abe af6e aa3d
00000130: 8975 863d 87c5 e0bd 74c5 15bb dffc aebd
00000140: 57d7 483e 70db 003e ce02 3a3d 520e 3f3d
00000150: 3a30 d73d f490 713e c90f 3ebc 6437 273e
00000160: 9a42 8d3b 4679 7a3d 4b80 26be 1376 e9bd
00000170: 5984 6fbe 2ab5 193d 6c49 47be 1ff5 01be
00000180: 0d34 f8bd 4bac 88bd c642 3b3d af74 27be
00000190: 5981 0cbd 4091 47bd e270 f8bd 2aff cb3d
000001a0: a396 733d c941 63be 41aa 033d 4873 983d
000001b0: 132a fa39 344c 843d 2bed e23d 10a2 b4bc
000001c0: 78b4 183e d9cf 7e3b 0a22 283e 6ea5 8bbc
000001d0: 8c9b 823d dbb7 17bd 8878 e03d 5805 873d
000001e0: 23a3 4e3d 0d32 0a3e 01bc 043e 31b1 db3d
000001f0: dc7b 73bd 60ff 2cbe 5140 cbbd 0ebf a0bd
00000200: abef 2bbe 4639 a2bd 9c9d d0be 2ef4 bcbd
00000210: d269 e5bd 594e 813c c784 97bd 32c9 583c
00000220: 2fc6 0fbd 4282 19be 34fd aa3d 382f f4bd
00000230: 6d4c f13d ad2a 423d a181 283e 7e22 663d
00000240: 6f0b a8bc e1b6 373e 17b6 3e3d 99a6 203e
00000250: df2b c93d e942 9e3c b57f d13b b165 233c
00000260: 5798 29bd db3a fa3d 9913 cebd 19f9 f5bc
00000270: 0132 6abd 7f06 9e3c bceb c3bd 1605 aebd
00000280: 7ac6 b43c dbbb 56bd 722d c6bd 5753 8abd
00000290: 6827 01be c166 09bd 49fc 843d 08db a6bd
000002a0: a694 d7bd b340 643d cd92 543e 5a00 f23d
000002b0: 7e06 083e ce54 b13d 2ac7 dd3d 9276 8d3e
000002c0: bb6b ad3d 001c 793d dbd8 303c f177 60bd
000002d0: 81c4 683d 392a 393e 08f9 0fbd dfa6 9d3c
000002e0: 0ca6 133e 2ebd 00bc 8b4e 823c bc46 ab3d
000002f0: 851d 1dbc a614 be3d 9eaa 053e 6bd1 2b3e
00000300: 342e 64ba c0d8 8dbd 4645 033e 7cd2 b4bd
00000310: ce48 473d 05d4 b63d d8f5 4c3d 2a9a 853d
00000320: 935a 5c3e bc39 243e 8002 31bd fb28 103d
00000330: b4be 143e ff24 a8bd 5bf4 1bbc a9c4 583a
00000340: 5e73 733b 27a5 a53c 7761 b9bc 2d3c abbd
00000350: b3bf acbd 050f 1abe 9849 b93d cedf 8a3c
00000360: 8aaa dc3d 8d12 4c3c f66e 9dbd d59b 0cbd
00000370: a842 c9bd 9d25 92bd d848 99bc 66f8 063e
00000380: 911b 90bd 2020 9a3c 221f 04be a237 3f3d
00000390: d28d 06bc 7343 093e cb45 1d3e de1c a0bd
000003a0: 4407 8b3d abbc 123d bc65 04bd ca20 6dbc
000003b0: 7010 2b3a f291 6dbc 7f7f 82bd eda5 99bc
000003c0: 7684 dd3d 8aaa b73d 84d3 3e3b be12 9a3d
000003d0: ee04 bd3d e3fe c03d c014 3a3c 4240 963c
000003e0: b704 a03c 3a13 e73d

weight_hh_l0 f4 [50, 50]
0.018534316 0.04895331 -0.14417821 -0.055828605 -0.14732443 -0.019231563 0.03084981 0.03293948
0.038761795 0.035793062 0.05268121 -0.03504343 0.0063756346 0.0246718 0.06596789 0.09593271
0.065415986 -0.13379738 -0.0918301 -0.078280434 -0.110699855 -0.10174917 0.05974303 -0.070934884
-0.10397465 -0.013633604 0.022979664 0.07070368 -0.06788908 -0.04359265 -0.022975389 -0.0769208
0.011786607 -0.13430727 -0.15089059 0.014320073 -0.16217397 -0.13227445 0.06666543 0.028746324
-0.11927594 -0.1735652 -0.03669986 -0.09468395 -0.10380056 0.07795162 -5.6352555e-06 0.07394431
0.09718468 -0.07603946 -0.12727793 0.097227074 -0.07538185 -0.06778767 -0.122335345 -0.07457326
-0.06478554 0.10939691 -0.049457822 -0.014602981 -0.040771138 -0.034361213 -0.12185032 0.049500667
0.08561239 -0.0027098681 -0.096656114 -0.015201558 0.09859451 0.09041527 0.052084755 0.08180092
-0.3640253 0.07882963 0.11826978 -0.1343069 0.15298396 0.07682835 0.03653932 -0.11563764
0.09872403 -0.08352963 -0.08545951 -0.0092763575 0.07377797 0.07523684 -0.07660619 -0.14612347
0.14589068 -0.10473294 -0.06860572 -0.10228606 -0.045433074 -0.15037182 -0.15765463 -0.09999395
-0.013267806 0.10991095 0.034289286 -0.010434139 0.087836675 0.14422381 -0.029417735 -0.03963476
0.109911755 -0.17096072 0.03011805 -0.061643023 0.14170678 0.038461562 0.12388298 0.016557833
0.15641743 -0.041921586 0.09743415 0.0863 -0.11663723 -0.11062322 -0.051148456 0.13181283
-0.11247043 0.08653879 -0.120793164 0.09506319 -0.0745064 0.078284465 -0.11541342 0.113650605
-0.02234701 0.054832302 0.06276026 -0.105564795 -0.07692325 0.08217251 0.016754294 0.13335343
0.16439989 -0.096347585 -0.08128144 -0.12984386 -0.047570743 -0.08183349 0.010468615 0.10943303
-0.041659918 0.0034139373 0.13066566 -0.036772013 -0.029973822 0.044463877 0.06884554 0.13071533
-0.02001201 -0.17603944 0.033332773 0.078480355 0.075611874 -0.12461046 -0.10308945 0.14663497
-0.042186245 -0.064606346 -0.03510035 0.1201586 0.025327869 0.03001044 -0.07207517 0.044059303
-0.08595391 -0.0133143645 0.012213115 0.13230722 0.5339264 -0.08349559 -0.1062764 0.037370335
-0.2025181 -0.1679337 -0.11107815 0.16085549 -0.066294506 -0.022562023 -0.0060148193 -0.084559605
0.004885091 0.023671761 -0.055749085 -0.07903351 0.11032238 -0.079486705 0.11433316 0.07145319
-0.13343358 -0.0751091 -0.104221255 -0.048076224 0.07259797 0.14260696 0.023433995 0.12923971
-0.13233225 0.03224737 -0.1299626 0.0489526 -0.11275101 0.11467188 0.0035345966 0.114050455
-0.042939153 -0.04587844 0.092851706 -0.0724065 0.028119233 0.11875226 -0.021696499 -0.035847165
0.12598819 -0.033471793 -0.09212676 -0.013193488 0.0046855253 0.024042087 0.021858012 -0.042282354
-0.092285305 -0.1079177 0.08149726 0.03398965 0.087497525 0.03572604 0.09640114 -0.00033089967
0.08704103 -0.09852119 -0.0647035 -0.14380386 -0.08355545 -0.07200516 -0.05214111 0.12773897
0.039042406 -0.14136939 0.057012297 -0.008207766 0.023291443 -0.09556285 -0.018114693 0.0046286853
-0.01854371 0.07469077 0.046143115 -0.08302461 -0.12448007 0.019875709 -0.118076354 0.012826593
00000000: 47d5 973c 4483 483d 74a3 13be 89ac 64bd
00000010: 37dc 16be 838b 9dbc beb8 fc3c 8ceb 063d
00000020: b0c4 1e3d bf9b 123d 41c8 573d b389 0fbd
00000030: b3ea d03b 841c ca3c 2c1a 873d 5e78 c43d
00000040: d1f8 853d 2e02 09be 6b11 bcbd 7e51 a0bd
00000050: 9bb6 e2bd de61 d0bd 1cb5 743d 4f46 91bd
00000060: a9f0 d4bd 7b5f 5fbc d93f bc3c 17cd 903d
00000070: 6e09 8bbd 358e 32bd e236 bcbc a788 9dbd
00000080: 9d1c 413c d887 09be 1083 1abe bd9e 6a3c
00000090: ef10 26be f472 07be e387 883d 697d eb3c
000000a0: f246 f4bd 13bb 31be 9852 16bd a9e9 c1bd
000000b0: 6395 d4bd 19a5 9f3d 7a16 bdb6 1d70 973d
000000c0: c308 c73d 94ba 9bbd 2555 02be fd1e c73d
000000d0: cd61 9abd 43d4 8abd f48a fabd deb9 98bd
000000e0: 48ae 84bd 7d0b e03d 4994 4abd 5741 6fbc
000000f0: a3ff 26bd 58be 0cbd a98c f9bd 36c1 4a3d
00000100: 8c55 af3d 0b98 31bb a4f3 c5bd f50f 79bc
00000110: ebeb c93d a42b b93d d356 553d 3e87 a73d
00000120: 8661 babe 6e71 a13d 6d37 f23d bf87 09be
00000130: d4a7 1c3e 2f58 9d3d 41aa 153d 6dd3 ecbd
00000140: d32f ca3d 9511 abbd 6505 afbd ddfb 17bc
00000150: e818 973d c615 9a3d b5e3 9cbd 64a1 15be
00000160: 5e64 153e 397e d6bd 2881 8cbd 5b7b d1bd
00000170: 0818 3abd 12fb 19be 3770 21be a1c9 ccbd
00000180: 3661 59bc fe18 e13d ec72 0c3d f3f3 2abc
00000190: b7e3 b33d 68af 133e 76fd f0bc 0f58 22bd
000001a0: 6a19 e13d 5410 2fbe 21ba f63c 657d 7cbd
000001b0: 951b 113e df89 1d3d 5cb6 fd3d 4ba4 873c
000001c0: e42b 203e f8b5 2bbd 8e8b c73d 0ebe b03d
000001d0: 80df eebd 6d8e e2bd 0b81 51bd f1f9 063e
000001e0: e656 e6bd 403b b13d 6862 f7bd 7db0 c23d
000001f0: d096 98bd 9b53 a03d df5d ecbd a6c1 e83d
00000200: 1411 b7bc d697 603d 7488 803d 5b32 d8bd
00000210: f089 9dbd 104a a83d 4d40 893c cd8d 083e
00000220: 7258 283e e251 c5bd e276 a6bd caf5 04be
00000230: 8ad9 42bd 5198 a7bd 8e84 2b3c 6d1e e03d
00000240: 97a3 2abd 5dbc 5f3b 38cd 053e 409e 16bd
00000250: a98b f5bc c11f 363d e4fe 8c3d 3dda 053e
00000260: 3af0 a3bc af43 34be f287 083d 4fba a03d
00000270: 66da 9a3d c533 ffbd 9020 d3bd 7a27 163e
00000280: 7ccb 2cbd 5550 84bd 62c5 0fbd b615 f63d
00000290: 647c cf3c 74d8 f53c 269c 93bd 8777 343d
000002a0: 9b08 b0bd 7e24 5abc 8419 483c 8b7b 073e
000002b0: 67af 083f bcff aabd 71a7 d9bd a311 193d
000002c0: e860 4fbe d0f6 2bbe f17c e3bd 4db7 243e
000002d0: 6ac5 87bd fed3 b8bc f617 c5bb 962d adbd
000002e0: 1d13 a03b 48eb c13c 2759 64bd 52dc a1bd
000002f0: b3f0 e13d edc9 a2bd 8127 ea3d 0d56 923d
00000300: d0a2 08be cdd2 99bd f471 d5bd 93eb 44bd
00000310: 3fae 943d 8f07 123e a6f8 bf3c 6a57 043e
00000320: 1b82 07be d115 043d ea14 05be 8682 483d
00000330: 00ea e6bd 17d9 ea3d b1a4 673b 4993 e93d
00000340: f7e0 2fbd 08eb 3bbd 0929 be3d dc49 94bd
00000350: 4e5a e63c 6334 f33d dbbc b1bc 7ad4 12bd
00000360: 0c03 013e b819 09bd f4ac bcbd 8029 58bc
00000370: 0989 993b e9f3 c43c 930f b33c 4330 2dbd
00000380: 1400 bdbd f503 ddbd 09e8 a63d bb38 0b3d
00000390: e731 b33d 7855 123d f66d c53d 9a7c adb9
000003a0: 9142 b23d 7ac5 c9bd 4583 84bd 5241 13be
000003b0: 1f1f abbd 7177 93bd eb91 55bd 01ce 023e
000003c0: eeea 1f3d 23c3 10be ba85 693d de79 06bc
000003d0: b2cd be3c 75b6 c3bd 4465 94bc 3aac 973b
000003e0: fae8 97bc 79f7 983d 9000 3d3d cf08 aabd
000003f0: 68ef febd 62d2 a23c 04d2 f1bd a126 523c

bias_ih_l0 f4 [50]
0.076065056 0.021570835 0.014057318 -0.087576546 -0.023960628 0.12757462 0.092954375 0.062613375
-0.02526957 -0.0018925187 0.023276746 -0.003663564 -0.027274994 -0.048161596 -0.028968574 -0.12091208
0.07794271 0.08871486 -0.08705957 0.04217817 0.073926575 0.035098374 -0.11596809 0.010969607
0.03892721 -0.13548896 -0.0023943237 0.104863845 0.020353358 0.05205917 -0.125813 -0.14855805
-0.043717198 -0.07928799 0.0067494423 -0.03572697 0.0029178124 0.009917229 0.10169843 -0.086704835
-0.068646766 0.074231066 -0.07353212 -0.12020367 -0.08381187 -0.027744472 0.15129448 -0.028194927
0.13587978 -0.049246456
00000000: ffc7 9b3d 52b5 b03c aa50 663c 555b b3bd
00000010: 1449 c4bc eca2 023e dd5e be3d 713b 803d
00000020: 2102 cfbc 640e f8ba e0ae be3c 6818 70bb
00000030: cf6f dfbc 1845 45bd 814f edbc c1a0 f7bd
00000040: 6da0 9f3d 23b0 b53d 4a4c b2bd 04c3 2c3d
00000050: d166 973d 50c3 0f3d ae80 edbd deb9 333c
00000060: 2372 1f3d 9ebd 0abe 16ea 1cbb dbc2 d63d
00000070: 16bc a63c ff3b 553d 20d5 00be 9a1f 18be
00000080: ce10 33bd be61 a2bd 6d2a dd3b 7156 12bd
00000090: c538 3f3b e07b 223c 4447 d03d 4e92 b1bd
000000a0: ad96 8cbd 7506 983d 0298 96bd 572d f6bd
000000b0: 8fa5 abbd 6048 e3bc f1ec 1a3e 0cf9 e6bc
000000c0: 1224 0b3e a7b6 49bd

bias_hh_l0 f4 [50]
0.04185328 0.062102977 0.02093563 0.03126771 0.1370016 0.017633623 0.053809274 0.07018393
0.062646136 -0.056619767 -0.105422534 -0.09443152 -0.15566055 0.053989395 -0.04661669 -0.025855893
0.13601415 0.0053236396 0.05934166 0.04690659 0.05418322 0.086778514 0.059778415 -0.083565444
0.034444463 0.014303631 0.029708702 -0.14199601 -0.011888658 0.036110397 0.105501 0.049836017
0.097725324 0.020004015 -0.02425353 -0.05642993 0.10301709 -0.03636544 0.076244965 0.0027213565
-0.12291036 -0.027446121 0.05853915 -0.08400696 -0.08563595 0.13366541 0.024563927 0.11745191
0.14362994 0.04032449
00000000: 586e 2b3d b15f 7e3d 3381 ab3c 9212 003d
00000010: 264a 0c3e 6374 903c 1d67 5c3d 98bc 8f3d
00000020: 9e4c 803d 21ea 67bd c5e7 d7bd 5065 c1bd
00000030: 7b65 1fbe fc23 5d3d 24f1 3ebd bdcf d3bc
00000040: 4b47 0b3e ed71 ae3b 3e10 733d 2021 403d
00000050: 39ef 5d3d efb8 b13d 36da 743d 5c24 abbd
00000060: a315 0d3d c759 6a3c aa5f f33c 6767 11be
00000070: a5c8 42bc 7fe8 133d e910 d83d da20 4c3d
00000080: 3724 c83d 76df a33c 57af c6bc 1223 67bd
00000090: a0fa d23d edf3 14bd 5226 9c3d c958 323b
000000a0: 6db8 fbbd b0d6 e0bc bfc6 6f3d d70b acbd
000000b0: e761 afbd 96df 083e 4a3a c93c a18a f03d
000000c0: ba13 133e 4b2b 253d

weight f4 [1, 50]
0.117499165 0.07844224 -0.009357329 -0.109211266 0.1490204 -0.14495897 0.078014456 0.023564994
-0.081022084 0.1271323 -0.12166475 -0.1458161 0.10707982 0.0540456 -0.14506191 0.036095224
0.11615436 0.15143429 -0.1459641 -0.059287135 -0.015561645 -0.12924556 0.13789277 0.06958941
0.04777411 -0.15752244 -0.18091582 -0.014420406 0.1210146 0.14902356 0.011923134 -0.12328288
-0.14127132 -0.0794005 0.34009162 0.059911218 0.12348661 0.058981296 0.099632464 0.108570226
0.12313655 0.046492916 -0.18006182 -0.009168125 -0.009838046 0.018312646 0.1003184 0.012534202
0.03761597 0.12228731
00000000: 67a3 f03d 53a6 a03d 7c4f 19bc 28aa dfbd
00000010: ce98 183e 2070 14be 0bc6 9f3d 600b c13c
00000020: e8ee a5bd f82e 023e 5e2b f9bd d150 15be
00000030: aa4c db3d eb5e 5d3d 1c8b 14be 96d8 133d
00000040: 56e2 ed3d 9711 1b3e 9d77 15be 11d7 72bd
00000050: 45f6 7ebc f358 04be c333 0d3e e584 8e3d
00000060: c9ae 433d 904d 21be ff41 39be 9143 6cbc
00000070: 81d6 f73d a299 183e 4059 433c bc7b fcbd
00000080: 6ea9 10be bb9c a2bd 7d20 ae3e 7765 753d
00000090: 8ce6 fc3d 5f96 713d 1b0c cc3d 115a de3d
000000a0: 042f fc3d 5b6f 3e3d 2062 38be e735 16bc
000000b0: c12f 21bc 6704 963c bc73 cd3d 415c 4d3c
000000c0: 3413 1a3d c571 fa3d
