RNN_models/close_slope_25_5_zscore_15min_t2.pth (torch, 114930 bytes, 20 tensors)

stacks.0.blocks.0.fc1.weight f4 [50, 56]
0	0xbc556f43	-0.013027015
1	0xbafd370d	-0.0019318775
2	0xbcbcbe61	-0.023039998
3	0xbd998b43	-0.07497265
4	0xbdbda887	-0.0926066
5	0xbd072b9a	-0.033000566
6	0x3d943c22	0.07238032
7	0x3d90bb73	0.07067003
8	0xbdba062d	-0.09083209
9	0x3dd7c468	0.105355084
10	0xbbc8a30d	-0.006122953
11	0xbe06b10f	-0.1315348
12	0x3de33932	0.110948935
13	0x3d34bc64	0.044124976
14	0x3da4f41c	0.08054373
15	0xbd8a185d	-0.06742928
16	0x3d642ebd	0.055708636
17	0xbd038a5f	-0.032114383
18	0xbd54110c	-0.05177407
19	0xbdf43679	-0.11924452
20	0x3da7b314	0.08188453
21	0xbce2aa62	-0.027669135
22	0xbdc7b60f	-0.09751522
23	0x3d1e31c5	0.038621683
24	0x3db3efbf	0.08785962
25	0x3d973dd8	0.07384843
26	0x3e1066df	0.14101742
27	0x3d4693b4	0.048480704
28	0xbdebf74e	-0.11521779
29	0x3d2cd753	0.042197537
30	0x3d528093	0.05139215
31	0x3d92af6d	0.07162366
32	0x3d8cce79	0.06875319
33	0xbd0018f6	-0.031273805
34	0x3dcaa871	0.09895409
35	0x3cbfe56a	0.023424823
36	0x3ccc0bae	0.024907913
37	0x3da74765	0.08167914
38	0x3dd4da5a	0.1039321
39	0xbca40b59	-0.020024942
40	0x3d4561dc	0.04818903
41	0x3d9a73f1	0.07541645
42	0xbd2633df	-0.040576812
43	0x3b8acae6	0.004235613
44	0x3e1370f9	0.14398564
45	0xbc9de358	-0.019273445
46	0x3ded8bfc	0.115989655
47	0x3d042f4f	0.03227168
48	0xbdaebeb7	-0.0853247
49	0x3e0d8669	0.13820805
50	0xbbb03b75	-0.0053781816
51	0x3be6443e	0.007027178
52	0x3de5b689	0.112164564
53	0x3cbc039e	0.022950944
54	0x3d1f8f77	0.038955178
55	0xbda624a9	-0.08112461
56	0xbddc7c19	-0.10765857
57	0x3d24c8e5	0.04023065
58	0xbdf2225b	-0.11822959
59	0xbdd7ecc1	-0.10543204
60	0xbd8face9	-0.07015402
61	0xbdc6402f	-0.09680211
62	0xbdef1e7f	-0.116757385
63	0xbd1d5f51	-0.03842098
64	0xbd39c87a	-0.045357205
65	0xbc634561	-0.013871522
66	0xbdcfbfa4	-0.101439744
67	0xbcba5518	-0.022745654
68	0x3dac3aca	0.084096506
69	0x3dc53d4f	0.09630834
70	0xbd1aa47d	-0.037754524
71	0x3e07a4ab	0.1324641
72	0xbd0b318d	-0.033982802
73	0xbe0c2f18	-0.1368984
74	0x3c3d5064	0.011554811
75	0xbd18dfc9	-0.037322793
76	0x3d8c01c4	0.06836274
77	0xbd268411	-0.040653292
78	0x3cec39f6	0.028836232
79	0xbd4ad56e	-0.04951995
80	0x3d9965ac	0.074900955
81	0xbd8befc1	-0.06832839
82	0x3dc520cc	0.09625396
83	0x3b65ed59	0.0035084097
84	0x3d793047	0.060837056
85	0xbc27d1e8	-0.010242917
86	0x3cc9065c	0.024539165
87	0x3d295273	0.041338395
88	0x3d3ff0e0	0.046860576
89	0x3d3176b0	0.04332608
90	0xbc5fc247	-0.013657159
91	0xbc2469f0	-0.010035023
92	0xbda954fd	-0.08268163
93	0xbe033889	-0.12814535
94	0xbdda4240	-0.106571674
95	0xbab701ec	-0.0013962365
96	0xbdbc2406	-0.091865584
97	0x3d65ff8d	0.056151915
98	0x3e09cc5f	0.13456868
99	0xbcc2a91d	-0.02376228
100	0x3d9a3e40	0.075314045
101	0x39e4da6f	0.00043650295
102	0xbce390da	-0.027779032
103	0xbd8ddf24	-0.06927326
104	0xbd00d345	-0.031451482
105	0x3e234e57	0.15947853
106	0x3e3a13ff	0.1817169
107	0xbcac8ece	-0.021064188
108	0x3dfaa7be	0.122390255
109	0xbd180a3c	-0.037119135
110	0x3d186d6a	0.03721372
111	0xbcd59e4c	-0.026076458
112	0xbce4cc3b	-0.027929416
113	0x3da3956c	0.07987484
114	0xbd197998	-0.037469476
115	0xbc9d8ccc	-0.019232176
116	0x3dcb1055	0.099152245
117	0xbdcbaca3	-0.09945037
118	0xbd83dfa6	-0.06439142
119	0xbd28ebc0	-0.041240454
120	0xbca9f267	-0.02074547
121	0x3da2618e	0.07928763
122	0x3cb80116	0.022461455
123	0x3e213836	0.15744099
124	0xbdf42dde	-0.11922811
125	0xbd5513d5	-0.052020866
126	0xbc49bf8f	-0.0123137375
127	0xbdf73e97	-0.12072485
128	0xbcf573ec	-0.029962502
129	0xbdb24827	-0.08705168
130	0x3d1a8412	0.03772361
131	0x3dc8bdfe	0.09801863
132	0xbccdb548	-0.025110856
133	0xbd72d82e	-0.059288196
134	0xbdb0d8a8	-0.08635074
135	0x3dbb075e	0.091322646
136	0xbdcde7a7	-0.1005395
137	0xbdad618c	-0.08465871
138	0x3d72e886	0.059303783
139	0x3dddaa64	0.10823515
140	0x3e09ce75	0.13457663
141	0x3c89b769	0.01681109
142	0xbd80e5e3	-0.062938474
143	0xbc2fcfbb	-0.010730679
144	0x3dfb9fb2	0.12286319
145	0x3d85b14a	0.06527956
146	0x3d1a76e5	0.037711043
147	0xbda3dc7b	-0.08001038
148	0xbdc25160	-0.09488177
149	0x3c571613	0.0131278215
150	0x3d89e9da	0.06734057
151	0xbdb5a76d	-0.088698246
152	0xbde567f4	-0.11201468
153	0x3e1062ff	0.14100264
154	0xbd4be82a	-0.049781956
155	0xbda415a4	-0.0801194
156	0xbdd2f5c6	-0.10300784
157	0x3e1350af	0.14386247
158	0xbdefe9f5	-0.11714546
159	0xbd947cee	-0.07250391
160	0xbd5d969d	-0.054098714
161	0x3d8f29d8	0.06990403
162	0xbdc2b073	-0.09506311
163	0xbd8a9a93	-0.06767764
164	0xbe11a20e	-0.14221975
165	0xbd8f2646	-0.06989722
166	0xbdc9cb01	-0.09853173
167	0xbdfd889d	-0.123795725
168	0x3d6567ba	0.056007124
169	0xbdb758f2	-0.08952512
170	0xbda1254e	-0.078684434
171	0x3d580904	0.052742973
172	0xbe02d617	-0.12776981
173	0x3c8dbe88	0.017302766
174	0x3d723c4b	0.05913953
175	0xbd2b3ac2	-0.041804083
176	0x3e2d2252	0.16907623
177	0x3bfe5a42	0.0077622244
178	0xbd8b1887	-0.067917876
179	0xbd7f8bf2	-0.06238932
180	0xbdbfe211	-0.093692906
181	0xbdc17d3d	-0.094477154
182	0x3d418cdb	0.04725347
183	0x3c0e2b96	0.008677384
184	0xbda9dca6	-0.082940385
185	0xbd3957d1	-0.045249764
186	0xbd700a71	-0.058603708
187	0xbd66f9a1	-0.05639041
188	0xbcab0b8b	-0.020879528
189	0x3dbd0534	0.09229508
190	0xbdbb0298	-0.09131354
191	0xbd0b0b10	-0.033946097
192	0x3d2562a1	0.040377263
193	0x3dabeb9b	0.083945476
194	0xbdeac019	-0.11462421
195	0xbdb61e26	-0.08892469
196	0xbd4f4632	-0.050604053
197	0xbdc70784	-0.0971823
198	0xbc90fc5b	-0.017698457
199	0xbdb6cedc	-0.08926174
200	0xbb360394	-0.0027773129
201	0x3cab0a2b	0.020878872
202	0x3d029e15	0.03188904
203	0x3d14fb4a	0.03637246
204	0xbb9a9b34	-0.0047182087
205	0x3d324d40	0.043530703
206	0xbd240561	-0.040044192
207	0xbd8846f5	-0.06654159
208	0x3e0ae114	0.13562423
209	0xbd90e5d8	-0.07075089
210	0xbd47a08f	-0.048737105
211	0x3e1d18b0	0.15341449
212	0x3d6ba387	0.057529
213	0x3ce0a71b	0.027423432
214	0x3d86670d	0.06562624
215	0x3dd14f8a	0.10220249
216	0x3dfa4d5d	0.12221787
217	0x3d91d2db	0.071202956
218	0x3dc7081f	0.09718346
219	0xbc03993c	-0.008032139
220	0x3d7daff9	0.0619354
221	0xba4a18f8	-0.0007709409
222	0x3d1cb6e9	0.038260374
223	0xbd86b83b	-0.06578108
224	0x3dc20449	0.094734736
225	0x3d45512a	0.048173107
226	0xbe00416a	-0.12524953
227	0xbcfb7bcf	-0.030698685
228	0x3dc80369	0.097662754
229	0x3cd9558c	0.02653005
230	0x3d22c81d	0.039741624
231	0x3d0db512	0.03459651
232	0xbdaecb34	-0.08534852
233	0xbdc4f50c	-0.096170515
234	0xbda0d600	-0.07853317
235	0x3d902b1c	0.070394725
236	0xbcecf0fe	-0.028923508
237	0x3db0802f	0.08618199
238	0xbdde9a4b	-0.10869273
239	0xbe0f762d	-0.14009924
240	0xbc173941	-0.009229959
241	0x3bdae7d0	0.0066804662
242	0xbd2225f2	-0.03958697
243	0x3dac3796	0.0840904
244	0x3d317ca6	0.043331765
245	0xbccbc26e	-0.024872985
246	0xbc5c06ed	-0.013429386
247	0x3d63fb1d	0.055659402
248	0xbd8ad38b	-0.0677863
249	0xbd74fb82	-0.05981017
250	0x3d019829	0.03163925
251	0x3d1ce04d	0.038299847
252	0xbce965b8	-0.028490886
253	0xbbaa9e49	-0.0052068573
254	0xbdefe90a	-0.117143705
255	0x3dc91b7a	0.09819694

stacks.0.blocks.0.fc1.bias f4 [50]
0	0xbd8665a3	-0.065623544
1	0x3dfef257	0.124485664
2	0xbdfeb52d	-0.124369
3	0x3e28072b	0.16408984
4	0x3dd7852d	0.10523448
5	0x3d00f651	0.031484906
6	0x3c4e3f39	0.012588316
7	0xbd8c3997	-0.06846922
8	0xbd9ef3a0	-0.077613115
9	0x3de356b2	0.1110052
10	0x3d01bd53	0.031674694
11	0x3de245af	0.11048447
12	0x3d3bfd6b	0.045895975
13	0xbdfccb40	-0.12343454
14	0x3da5163f	0.08060884
15	0xbd2b2d7a	-0.041791417
16	0xbd939fa1	-0.07208181
17	0xbc1ca765	-0.009561394
18	0xbca65010	-0.020301849
19	0x3e1b16f2	0.15145472
20	0xbc69780f	-0.014249816
21	0x3d818a5c	0.06325218
22	0x3d83de98	0.06438941
23	0xbd97c1ae	-0.07409988
24	0x3e2dff7a	0.16991988
25	0x3d85f7c9	0.06541402
26	0x3dc5e6a5	0.096631326
27	0x3da8fca5	0.08251313
28	0x3d80f809	0.06297309
29	0xbce673ee	-0.028131451
30	0x3d7d4fa0	0.061843514
31	0x3e0d3d58	0.13792932
32	0x3e1436f7	0.14474092
33	0xbdbaf78c	-0.09129247
34	0x3b0dfecd	0.0021666766
35	0xbcfa8fac	-0.030586086
36	0x3e060403	0.13087468
37	0x3e357e04	0.17723852
38	0xbccd6250	-0.025071293
39	0xbd5739eb	-0.05254547
40	0x3e416769	0.18887104
41	0xbd171e22	-0.03689397
42	0x3ddff7b9	0.10935921
43	0x3c57d025	0.013172184
44	0x3e53793f	0.2065172
45	0xbd884f43	-0.06655743
46	0x3d8f756a	0.07004817
47	0xbbce2258	-0.006290715
48	0x3d61dd7e	0.055142872
49	0x3c6108ac	0.013734978

stacks.0.blocks.0.fc2.weight f4 [50, 50]
0	0x3ce20c82	0.027593855
1	0x3d34cfaa	0.044143356
2	0xbd6da0ac	-0.058014557
3	0xbdb355e7	-0.08756619
4	0x3e1a5a44	0.15073496
5	0xbd8997fc	-0.06718442
6	0x3dbcc26e	0.09216772
7	0x3d505798	0.050864786
8	0x3d3ff4be	0.046864264
9	0x3bccdb35	0.0062517175
10	0xbcbb4190	-0.022858411
11	0x3e13d83c	0.14437956
12	0x3d74db66	0.059779547
13	0xbc4aa859	-0.012369239
14	0xbd812f0a	-0.063078
15	0xbd15927c	-0.03651665
16	0x3e46dc40	0.19419956
17	0x3e2f19d9	0.17099704
18	0x3da139ba	0.078723386
19	0x3d5591a8	0.05214086
20	0x3d7dac9a	0.061932184
21	0xbdb2ad2b	-0.087244354
22	0xbd8a8940	-0.067644596
23	0x3d7be376	0.06149622
24	0x3d2624d4	0.040562466
25	0x3b3f5dea	0.0029200264
26	0x3d7836ea	0.060599245
27	0xbd1c73e4	-0.03819646
28	0x3e03dfb5	0.12878306
29	0xbcc82341	-0.024430873
30	0xbde0cbd5	-0.10976378
31	0x3cb03270	0.021508425
32	0x3d5a8f19	0.053359125
33	0x3d85b00a	0.065277174
34	0x3d052d81	0.0325141
35	0xbde309d2	-0.110858575
36	0xbd4bb12d	-0.049729515
37	0x3a9cc92f	0.0011961813
38	0x3e252a45	0.16129406
39	0xbc804727	-0.015658928
40	0xbd54d246	-0.051958345
41	0x3e0404ba	0.12892428
42	0xbd90bf68	-0.07067758
43	0xbd9f66ad	-0.07783256
44	0x3e1a1e50	0.15050626
45	0x3dfd664d	0.12373028
46	0xbc2e845a	-0.010651672
47	0xbdc41ed0	-0.095761895
48	0x3e0738c2	0.13205245
49	0x3d7a0e2a	0.061048664
50	0xbe1652a4	-0.14679962
51	0xbd9127d2	-0.07087673
52	0xbd02d09c	-0.031937227
53	0x3e0925ef	0.13393377
54	0x3d9adfa0	0.07562184
55	0xbd8b210e	-0.06793414
56	0xbe00c56f	-0.12575315
57	0xbcc9100c	-0.024543785
58	0xbd4b6c27	-0.04966369
59	0xbcc4ec5d	-0.024038488
60	0xbd9d6de1	-0.07686973
61	0xbe28e272	-0.16492632
62	0xbdc9df0c	-0.09856996
63	0xbdd1dedf	-0.102475874
64	0x3c8e7b53	0.01739279
65	0x3e72664b	0.23671834
66	0x3d593139	0.053025458
67	0xbd0255a4	-0.031819955
68	0xbdb3c2b3	-0.0877737
69	0xbd4c67d8	-0.04990372
70	0x3dd4699e	0.103717074
71	0xbd58ab00	-0.052897453
72	0x3e5b4de8	0.21416438
73	0xbd59240a	-0.053012885
74	0xbda51a9d	-0.08061717
75	0x3a26b3d5	0.00063591945
76	0x3e0ca73f	0.13735674
77	0xbe16d024	-0.14727837
78	0x3dc598a3	0.09648254
79	0x3d1e9d7f	0.03872442
80	0x3dac22a0	0.08405042
81	0x3d819737	0.0632767
82	0x3d99a945	0.07502989
83	0xbd9098c8	-0.07060391
84	0xbd9ce7cb	-0.076613985
85	0xbdc201ac	-0.09472975
86	0x3db10730	0.08643949
87	0x3d99fb03	0.0751858
88	0x3dec00ad	0.115235664
89	0xbd222b59	-0.03959212
90	0x3c876d73	0.016531682
91	0xbccd9b16	-0.025098365
92	0x3d6e396f	0.05816024
93	0xbdb1bb32	-0.08678283
94	0x3d707b60	0.05871141
95	0xbd1dc263	-0.03851546
96	0x3dec9218	0.11551303
97	0xbdd565b5	-0.1041979
98	0xbe19babf	-0.15012644
99	0xbde96c3f	-0.113975994
100	0x3cc09956	0.023510616
101	0x3d012e52	0.031538315
102	0x3d8db3d0	0.06919062
103	0xbb75badf	-0.0037495417
104	0x3ca7ae5c	0.020468883
105	0xbc98b9d3	-0.018643295
106	0xbdd0e1a9	-0.10199291
107	0xbd5f29a4	-0.05448307
108	0x3dd27223	0.10275676
109	0x3d6c0639	0.057623122
110	0x3e2f0603	0.17092137
111	0x3d243ce0	0.040097117
112	0x3d0b3087	0.033981826
113	0xbdb3f5e1	-0.08787132
114	0xbd5c033e	-0.05371403
115	0x3e25ed24	0.16203743
116	0x3dd3e158	0.10345715
117	0xbdb3fd29	-0.08788521
118	0x3df78440	0.120857716
119	0xbdca5190	-0.09878838
120	0x3e2b01f3	0.16699962
121	0x3de8d7c6	0.113692805
122	0x3dccb8e2	0.09996201
123	0x3ddcd1d8	0.10782212
124	0x3b6de518	0.003629988
125	0x3e0baf37	0.13641058
126	0x3c01ddeb	0.0079264445
127	0x3dbe1cba	0.09282823
128	0x3d89c4b6	0.06726973
129	0xbd25c4d8	-0.040470928
130	0x3e084e67	0.13311158
131	0x3de8f285	0.11374382
132	0x3e066a0b	0.1312639
133	0xbd289d9f	-0.041165944
134	0xbd95398c	-0.07286367
135	0x3e13634f	0.14393352
136	0x3d1e2382	0.03860808
137	0x3e1dbe68	0.15404665
138	0x3d9a0f9a	0.07522507
139	0x3e073496	0.13203654
140	0x3dd96cbc	0.106164426
141	0x3e17cd76	0.14824471
142	0xbdf1097a	-0.11769386
143	0xbb9d647a	-0.0048032375
144	0x3d633158	0.05546698
145	0x3dd88465	0.10572127
146	0xbe0839d3	-0.13303308
147	0xbbebf825	-0.007201212
148	0x3e1e77fc	0.15475458
149	0xbbe374eb	-0.006941428
150	0x3c85589d	0.016277606
151	0xbd8338a3	-0.06407287
152	0xbd9c0eff	-0.07620048
153	0xbd883ddd	-0.066524245
154	0x3c49c545	0.012315099
155	0xbca130c2	-0.01967657
156	0x3ce55e70	0.027999133
157	0x3de20db3	0.11037769
158	0x3d808468	0.062752545
159	0x3dc25004	0.09487918
160	0xbd4dca88	-0.050241977
161	0x3dbd8a58	0.092549026
162	0x3d1b16d0	0.037863553
163	0x3d7a0a70	0.06104511
164	0x3dd2f90f	0.103014104
165	0x3df4103e	0.119171605
166	0x3d9ce968	0.07661706
167	0x3e382ef2	0.17986658
168	0x3dc19f8e	0.09454261
169	0x3e34761f	0.17623185
170	0x3e166fcc	0.14691085
171	0x3e0fc381	0.14039423
172	0x3bdfb791	0.0068273027
173	0xbe2e2bb4	-0.17008859
174	0xbd919284	-0.07108024
175	0xbe000db7	-0.12505232
176	0xbd4fad6b	-0.050702494
177	0xbd547e6b	-0.051878374
178	0x3d67feda	0.05663953
179	0x3e15e05a	0.14636365
180	0xbdbf47ac	-0.09339842
181	0x3de2f1d6	0.11081283
182	0xbd62b9a7	-0.055352833
183	0x3e024d49	0.12724794
184	0x3d7a08e3	0.06104363
185	0x3d9c3475	0.07627193
186	0x3e113064	0.14178616
187	0x3d73a7da	0.059486248
188	0xbddc0847	-0.10743766
189	0x3bbd2e6d	0.0057733567
190	0xbd88747f	-0.06662845
191	0x3a4f0071	0.0007896489
192	0xbd02ff55	-0.031981785
193	0x3e2ce834	0.16885453
194	0x3d180255	0.0371116
195	0x3e11dcfa	0.14244452
196	0x3d6400c0	0.055664778
197	0xbdde9dc2	-0.10869934
198	0x3d741bd1	0.05959684
199	0x3cdd080e	0.02698138
200	0xbd1ad055	-0.037796337
201	0x3d083ec0	0.033262968
202	0x3dbc67d5	0.09199492
203	0xbcf4df0e	-0.029891517
204	0xbd9c99d9	-0.076465316
205	0x3e1d1bd4	0.15342647
206	0xbd957798	-0.07298201
207	0xbdfbe4e7	-0.12299519
208	0xbd4c2580	-0.04984045
209	0x3de6f2f8	0.11276811
210	0x3d903232	0.07040824
211	0x3e0557d6	0.13021788
212	0x3e04b66d	0.12960215
213	0xbd6f61bc	-0.058442816
214	0x3d529886	0.05141499
215	0x3e09de0a	0.13463607
216	0xbdb79b78	-0.089652
217	0xbd181ffe	-0.037139885
218	0xbd19f184	-0.037583843
219	0xbc9724d3	-0.018450176
220	0x3e0c6a66	0.13712463
221	0x3dc3605e	0.09539865
222	0xbd9ace02	-0.07558824
223	0xbdf1890b	-0.11793717
224	0xbdb4ad22	-0.08822085
225	0x3d5ba6a9	0.053625736
226	0x3d591f81	0.05300856
227	0x3e166e12	0.14690426
228	0x3e2b97b8	0.16757095
229	0x3cdb63e5	0.026781032
230	0xbde689ef	-0.112567775
231	0x3df4237a	0.11920829
232	0x3e17e476	0.14833245
233	0xbc8e7fed	-0.017394984
234	0x3be1039e	0.0068668863
235	0x3d192ff8	0.037399262
236	0x3d0091d5	0.031389076
237	0x3d8dabbe	0.06917523
238	0x3db0ead7	0.08638542
239	0x3e09d5e1	0.13460495
240	0x3e18420a	0.14868942
241	0x3d8d8b86	0.069113776
242	0x3d1eeddd	0.038801063
243	0xbd8fac0d	-0.07015238
244	0xbc2b4439	-0.010453277
245	0xbde84f0e	-0.113432035
246	0x3d3222ab	0.043490093
247	0xbd13f443	-0.036121618
248	0x3e0c9d3c	0.13731855
249	0x3c491a37	0.0122743165
250	0xbc6e6532	-0.014550494
251	0xbd072e38	-0.033003062
252	0x3ca0fb85	0.019651184
253	0x3dce73ce	0.10080682
254	0xbcdfdb48	-0.027326241
255	0xbc784b65	-0.015154694

stacks.0.blocks.0.fc2.bias f4 [50]
0	0x3d51e02c	0.051239178
1	0x3d6e38c5	0.05815961
2	0xbda1b6ba	-0.078961805
3	0x3d60ef30	0.054915607
4	0x3d907d51	0.07055152
5	0x3c9b1bde	0.018934187
6	0x3d464ee7	0.04841509
7	0xbe0be881	-0.13662912
8	0xbdae0733	-0.08497467
9	0xbd4d525b	-0.05012737
10	0x3c73cd38	0.014880471
11	0x3d0407ac	0.03223388
12	0xbda8923f	-0.08231019
13	0x3d656bc8	0.05601099
14	0x3cef09c8	0.029179469
15	0xbd2dc42e	-0.04242342
16	0x3e33968f	0.17537902
17	0x3db08de2	0.08620812
18	0x3bbaef5c	0.0057048034
19	0x3d216736	0.03940507
20	0x3d957a01	0.07298661
21	0xbd92eaa2	-0.07173659
22	0xbcce490e	-0.02518132
23	0xbcdab6b6	-0.026698451
24	0x3e2b4f2d	0.16729422
25	0xbdcb405e	-0.099243864
26	0x3de1c573	0.110239886
27	0xbdaaf75f	-0.083479635
28	0x3c03a40c	0.008034717
29	0xbd812196	-0.06305234
30	0x3cd3a598	0.025835797
31	0xbdd08110	-0.10180867
32	0x3b64f251	0.003493447
33	0x3d9d8ddd	0.07693074
34	0xbd928790	-0.07154763
35	0x3d1a62fe	0.037692063
36	0x3e14a616	0.14516482
37	0x3c7b26a7	0.01532904
38	0xbd99f99b	-0.075183116
39	0x3acee69d	0.0015785281
40	0x3e14253e	0.14467332
41	0xbdc9aa2b	-0.0984691
42	0x3e0c5689	0.13704886
43	0xbccf7ead	-0.025328958
44	0x3dad7448	0.084694445
45	0xbdb5d1ca	-0.08877905
46	0xbdab070d	-0.08350954
47	0x3d833114	0.06405845
48	0x3e0d757d	0.1381435
49	0x3c1e67d8	0.009668313

stacks.0.blocks.0.fc3.weight f4 [50, 50]
0	0x3d4a50d2	0.049393483
1	0xbcbdfee2	-0.023192827
2	0x3d93eddf	0.07223105
3	0x3dac074a	0.08399828
4	0xbda5cea1	-0.08096052
5	0xbdc4758f	-0.09592735
6	0x3dadf36b	0.08493694
7	0x3ddfdb57	0.10930508
8	0x3df98bdf	0.121848814
9	0xbcbf734d	-0.02337041
10	0x3ddd27ac	0.107985824
11	0xbd254244	-0.0403464
12	0xbdfbf12d	-0.1230186
13	0x3d7021cf	0.058625992
14	0xbe0badf3	-0.13640575
15	0x3dd416f9	0.10355944
16	0x3d814188	0.06311327
17	0xbc60da80	-0.013723969
18	0x3ddfafd3	0.10922208
19	0xbe1eb388	-0.15498173
20	0x3dcca074	0.099915415
21	0x3d87b1e9	0.066257305
22	0x3dc9ce47	0.098537974
23	0x3d718792	0.05896718
24	0x3d2f96fe	0.042868607
25	0xbcf3abbb	-0.029744973
26	0x3d30d357	0.0431703
27	0x3d8044dd	0.06263135
28	0x3dbd9a5c	0.09257957
29	0xbd8d887a	-0.069107965
30	0xbd3361d8	-0.043794483
31	0xbde42bbc	-0.11141154
32	0xbd7ff128	-0.062485844
33	0x3cc49aa7	0.023999525
34	0x3de0cb17	0.10976236
35	0x3d4a76ea	0.04942981
36	0x3de08ca4	0.10964325
37	0x3c1a4c75	0.009417643
38	0xbd4d0ac0	-0.05005908
39	0x3de596c1	0.11210395
40	0xbb853c9d	-0.0040660636
41	0xbe1dadcf	-0.15398334
42	0x3d86aca6	0.06575899
43	0x3e0274dc	0.12739891
44	0x3da9e546	0.082956836
45	0xbd9e350f	-0.07724964
46	0x3de9affa	0.11410518
47	0x3da50b1f	0.08058762
48	0xbd3c2783	-0.04593612
49	0xbca6ed38	-0.020376787
50	0xbaba8c43	-0.0014232475
51	0x3d3b7641	0.045767073
52	0xbd84dcf6	-0.064874575
53	0xbd96c036	-0.0736088
54	0xbe07a8dc	-0.13248008
55	0x3c5690ad	0.013096017
56	0xbd752ae2	-0.05985535
57	0xbe152374	-0.14564306
58	0x3dc0f894	0.094224125
59	0xbdf9ba65	-0.12193755
60	0x3dcc1bf1	0.09966267
61	0xbd41247e	-0.047153942
62	0xbc6781a2	-0.014130028
63	0xbd82a889	-0.06379802
64	0x3c86f048	0.016471997
65	0x3d9422ec	0.07233223
66	0x3d63f722	0.055655606
67	0x3dccd425	0.10001401
68	0xbd2e985b	-0.042625766
69	0x3dfbe995	0.123004116
70	0xbd494204	-0.049135223
71	0x3db5060b	0.08839043
72	0xbd9e11d3	-0.077182434
73	0x3cdefa47	0.02721895
74	0x3d761974	0.060082868
75	0xbd976312	-0.07391943
76	0xbde57fc7	-0.11206012
77	0xbc807a6d	-0.015683377
78	0xbd8db14f	-0.069185846
79	0x3d1db0bf	0.038498636
80	0xbb0760ff	-0.002065718
81	0x3d491903	0.04909612
82	0x3d4a0ac3	0.04932667
83	0xbe21f464	-0.15815884
84	0xbd842ae8	-0.06453496
85	0xbdb71f30	-0.089414954
86	0x3d81f615	0.063457645
87	0x3c2c895a	0.010530794
88	0x3db9cc97	0.090722255
89	0xbde9d840	-0.114181995
90	0x3db44011	0.08801282
91	0x3d5bfb35	0.053706367
92	0xbb7e2b72	-0.003878322
93	0xbd4d3ce7	-0.05010691
94	0xbb4ce8a2	-0.003126659
95	0xbe13a32b	-0.14417712
96	0x3d35938a	0.044330157
97	0xbcbc85fa	-0.023013104
98	0xbcb572cb	-0.022149464
99	0x3cf05ed4	0.029342093
100	0xbde26346	-0.11054091
101	0xbdbfff4a	-0.093748644
102	0x3dbd1ef9	0.09234423
103	0xbd8c929d	-0.06863902
104	0x3d678760	0.056525588
105	0xbd3e4b5d	-0.04645859
106	0xbdfda761	-0.123854406
107	0x3dd2c6ea	0.10291846
108	0x3c2911e6	0.010319209
109	0x3e15d30d	0.1463129
110	0x3e19807a	0.14990416
111	0x3e3389ef	0.17533086
112	0x3dfe8f71	0.12429703
113	0x3d845fbe	0.06463574
114	0x3ddefc09	0.10887916
115	0x3c774ba3	0.015093717
116	0x3e29a6df	0.16567563
117	0x3dc098c7	0.0940414
118	0xbd92f303	-0.07175257
119	0xbd07e2a2	-0.03317512
120	0x3d68b278	0.056810826
121	0x3cdbdd78	0.026839003
122	0xbde8f8e3	-0.113755964
123	0x3dd64b33	0.10463562
124	0xbd983599	-0.07432098
125	0x3cce7298	0.025201127
126	0x3dbf5e81	0.09344197
127	0xbd859526	-0.065225884
128	0x3d73fca4	0.05956711
129	0xbdfc822f	-0.12329518
130	0x3d93081b	0.0717928
131	0x3e0829a3	0.13297133
132	0x3df28e5e	0.11843561
133	0xbcc25622	-0.023722712
134	0x3db88ad4	0.09010854
135	0x3aa04724	0.0012228233
136	0x3c40c3ba	0.011765415
137	0x3ca65aec	0.020307027
138	0x3e18b88d	0.1491415
139	0x3d1fddd1	0.0390299
140	0x3ca834cf	0.020532994
141	0xbc171661	-0.009221644
142	0x3d1f7942	0.038934
143	0xbdd80522	-0.10547854
144	0x3c83b4a2	0.016077343
145	0x3e1efb7e	0.15525624
146	0x3e07961d	0.13240857
147	0xbd7a1ae7	-0.061060812
148	0xbb009a14	-0.0019623088
149	0xbd098edc	-0.033583507
150	0xbe056d35	-0.1302994
151	0xbd9147fc	-0.07093808
152	0x3e26314d	0.16229744
153	0x3dbf7a95	0.093495525
154	0x3d6acd67	0.057324793
155	0xbdc56f0e	-0.096403226
156	0xbc62890b	-0.013826619
157	0xbdae8e2e	-0.085232124
158	0x3d7477bc	0.0596845
159	0x3d85d81c	0.0653536
160	0xbb0a2e29	-0.0021084643
161	0x3e1ce4c3	0.1532164
162	0xbc8e1e09	-0.017348306
163	0x3e32c21b	0.17456858
164	0xbcb5c999	-0.022190856
165	0x3e22c7bf	0.1589651
166	0x3d6008cd	0.054695893
167	0xbd94ac6e	-0.07259451
168	0xbdecc121	-0.11560274
169	0x3bfc936b	0.0077080033
170	0x3b50e8ed	0.0031877116
171	0x3d59ca1c	0.053171262
172	0xbda03256	-0.07822101
173	0xbcd62f6f	-0.026145665
174	0x3cd40706	0.025882255
175	0x3dd6680b	0.10469063
176	0x3e10e90b	0.14151399
177	0x3d8ada83	0.06779959
178	0xbdd06c89	-0.101769514
179	0xbda1ba23	-0.07896831
180	0x3b2a551b	0.0025990668
181	0x3d94e3a1	0.07269979
182	0x3e28682e	0.16445991
183	0xbbe459d2	-0.006968715
184	0x3d7727d9	0.060340736
185	0x3dcb8bb8	0.099387586
186	0xbd4307f2	-0.047615
187	0x3dd937ed	0.1060637
188	0xb92de7a8	-0.00016584864
189	0xbd4ede8d	-0.05050521
190	0x3de0b83c	0.1097264
191	0xbc4767c4	-0.012170736
192	0x3c8c252f	0.017107574
193	0xbd0ce67a	-0.034399487
194	0xbddf1f5d	-0.10894654
195	0x3dabb04e	0.08383237
196	0xbdaa5ec1	-0.08318854
197	0xbd9a89b9	-0.075458
198	0x3db86909	0.09004409
199	0x3dc040d1	0.09387363
200	0x3cc1eddc	0.02367299
201	0x3d0cb3b2	0.03435106
202	0xbdbdd7e7	-0.09269696
203	0xbcf650ae	-0.030067768
204	0x3dc94c2d	0.098289825
205	0xbbf20699	-0.0073860404
206	0x3da31de7	0.07964688
207	0x3e74e600	0.23915863
208	0x3de32375	0.11090747
209	0xbcbd76df	-0.023127971
210	0x3cd38194	0.025818624
211	0x3e603966	0.21896896
212	0xbd007d65	-0.031369586
213	0xbc838dce	-0.016058829
214	0xbcda676e	-0.026660647
215	0x3c67e19d	0.0141529115
216	0xbddd9ee7	-0.10821324
217	0x3e354f33	0.17705993
218	0x3d4d8865	0.050178904
219	0xbcf8c871	-0.030369015
220	0xbd99b05a	-0.075043395
221	0xbd050823	-0.032478463
222	0xbdcfda8a	-0.10149105
223	0x3de6e950	0.112749696
224	0xbe242457	-0.16029488
225	0xbdb5124a	-0.08841379
226	0x3e277a5a	0.16355267
227	0x3defb59b	0.1170456
228	0x3e35906b	0.17730872
229	0x3e040c49	0.12895311
230	0x3dd77014	0.10519424
231	0xbe183db6	-0.14867291
232	0x3e27cd11	0.1638682
233	0xbd4ae1b2	-0.049531646
234	0xbd80f61e	-0.06296943
235	0x3e18f868	0.1493851
236	0x3dbe90b7	0.09304946
237	0x3d9cded8	0.076596916
238	0xbe0c74ae	-0.13716385
239	0x3d8bb616	0.068218395
240	0xbddea4b0	-0.108712554
241	0x3df6bcff	0.12047767
242	0x3e109d0b	0.14122407
243	0xbe04ce79	-0.12969388
244	0x3d94b636	0.072613165
245	0xbdcf3e28	-0.10119277
246	0xbe5edd46	-0.21764097
247	0x3e0bbf22	0.1364713
248	0xbdfb7cff	-0.122797005
249	0xbe3669a3	-0.17813735
250	0xbe09211c	-0.13391536
251	0xbd200bb1	-0.03907365
252	0x3d3ce749	0.04611901
253	0xbe140ac7	-0.14457236
254	0xbdc9dd8b	-0.09856709
255	0xbc02f8cc	-0.007993888

stacks.0.blocks.0.fc3.bias f4 [50]
0	0x3c056292	0.008141177
1	0xbcf50ae1	-0.029912414
2	0xbde312d0	-0.110875726
3	0x3de2c6b5	0.110730566
4	0xbdcff01c	-0.10153219
5	0xbe05398f	-0.13010238
6	0xbe07f5a1	-0.13277294
7	0xbe19cf1c	-0.15020412
8	0xbde80f43	-0.11331036
9	0xbd82be67	-0.063839726
10	0x3dd52e59	0.10409231
11	0x3e117549	0.14204897
12	0xbe05361b	-0.13008921
13	0xbdaa1f57	-0.08306759
14	0x3dac0e1b	0.08401128
15	0xbe063683	-0.13106732
16	0x3d145119	0.036210153
17	0xbdeeb36e	-0.11655317
18	0xbb89d488	-0.004206244
19	0x3dff0408	0.12451941
20	0xbd703b07	-0.058650043
21	0x3ddf82df	0.109136336
22	0xbe096cb3	-0.13420372
23	0x3d76e803	0.060279857
24	0x3de64bd8	0.11244935
25	0xbe161b27	-0.14658795
26	0x3c78d426	0.015187299
27	0xbd1b39e4	-0.037897006
28	0xbc862d2d	-0.016378963
29	0xbc1449aa	-0.009050766
30	0xbe119a9b	-0.14219134
31	0x3d162355	0.03665479
32	0x3e2213ed	0.15827914
33	0xbda6c738	-0.08143467
34	0xbaaf3c3a	-0.0013369389
35	0xbd9ddb7c	-0.07707879
36	0xbd839ae2	-0.06426026
37	0xbdb8e23a	-0.09027524
38	0x3d9392d8	0.072057426
39	0x3df32e1d	0.1187403
40	0xbdf12b61	-0.11775852
41	0xbda9be78	-0.08288282
42	0xbd83d236	-0.06436579
43	0x3da48e05	0.080349006
44	0xbd7f250f	-0.0622912
45	0x3b6366dc	0.003469876
46	0x3db1a248	0.08673531
47	0xbdd927cb	-0.10603293
48	0x3d84fc56	0.06493442
49	0x3e001b9e	0.12510535

stacks.0.blocks.0.fc4.weight f4 [50, 50]
0	0xbd831226	-0.06399946
1	0x3e1fd456	0.15608343
2	0x3dbc71d7	0.09201401
3	0x3df94d06	0.12172894
4	0x3dd19c9e	0.102349505
5	0xbd80a7d1	-0.062820084
6	0xbd1c32f2	-0.038134523
7	0xbd86eaa1	-0.06587721
8	0x3cb66b0d	0.022267843
9	0x3e29cccc	0.1658203
10	0xbd86c9ba	-0.06581445
11	0xbd974e96	-0.07388036
12	0x3d90886d	0.07057271
13	0xbdf83f1b	-0.121214114
14	0x3db412ba	0.08792634
15	0xbcdc6b48	-0.026906624
16	0xbd57086a	-0.05249826
17	0x3db0824f	0.086186044
18	0x3dda9adc	0.10674068
19	0xbcd66742	-0.026172284
20	0xbda3f545	-0.08005766
21	0x3d88f1f5	0.06686775
22	0xbde9e90c	-0.11421403
23	0x3e05eb15	0.13077958
24	0x3d648480	0.055790424
25	0xbde62e7c	-0.11239335
26	0x3e032224	0.12805992
27	0x3d832af3	0.06404676
28	0xbdede06a	-0.11615069
29	0x3c75c5e1	0.015000791
30	0x3ca07459	0.019586729
31	0x3e205aff	0.15659712
32	0x3dee45a5	0.116343774
33	0x3dede8b6	0.11616652
34	0xbdb22d32	-0.087000266
35	0xbda01690	-0.078168035
36	0x3d04ded9	0.032439087
37	0x3d54ae19	0.051923845
38	0x3d2cd674	0.042196706
39	0xbdb00d23	-0.08596256
40	0x3e0bf425	0.13667352
41	0x3d2246ff	0.03961849
42	0x3d1494b0	0.036274612
43	0x3d49acb7	0.04923698
44	0x3dd5f47c	0.10447022
45	0xbd0f819c	-0.035035715
46	0xbda8104b	-0.08206233
47	0x3d93df56	0.07220332
48	0xbbc1d142	-0.005914838
49	0xbd92d9f5	-0.07170478
50	0xbdf4e6cd	-0.11958084
51	0xbd24ee7f	-0.04026651
52	0xbcb64d1d	-0.022253567
53	0x3bc85831	0.006114029
54	0xbdb355d0	-0.08756602
55	0x3de2b0d6	0.11068885
56	0xbe0ad488	-0.13557637
57	0xbe0131fe	-0.12616727
58	0xbd3ac374	-0.045596555
59	0xbc8c86e8	-0.017154172
60	0x3d5882ee	0.05285924
61	0xbd260eef	-0.040541586
62	0x3d88d5be	0.06681393
63	0xbd994b55	-0.074850716
64	0x3db044c4	0.08606866
65	0x3d7b9881	0.061424736
66	0x3dc76e54	0.0973784
67	0xbd8b70f6	-0.06808655
68	0xbdda3a46	-0.10655646
69	0xbd47365e	-0.048635833
70	0xbd3e95a0	-0.046529412
71	0x3c9730b8	0.018455848
72	0x3de3607e	0.11102389
73	0x3deb2322	0.114813104
74	0xbd8c5d0e	-0.06853686
75	0xbdb72bae	-0.08943878
76	0x3cf23138	0.029564485
77	0x3c021748	0.007940121
78	0x3c6355be	0.013875423
79	0xbc6b98de	-0.014379708
80	0x3ddf7b42	0.109121814
81	0x3c3ec7cb	0.011644314
82	0xbddf39f1	-0.10899723
83	0xbc7b3f6a	-0.015334943
84	0x3d03394a	0.032037057
85	0xbdc0a7a4	-0.09406975
86	0xbc87e378	-0.016587958
87	0xbdfac0e6	-0.12243824
88	0xbd3c456c	-0.045964643
89	0x3ccd2400	0.02504158
90	0x3de8214c	0.11334476
91	0xbdac6c04	-0.0841904
92	0xbd90e18e	-0.07074271
93	0xbc364c38	-0.01112657
94	0x3da2939d	0.07938311
95	0xbd850481	-0.06495
96	0x3dc6d9f4	0.0970954
97	0xbb2e8680	-0.0026630461
98	0x3ddf9f7e	0.109190926
99	0xbcb85526	-0.02250154
100	0xbd88111e	-0.0664389
101	0x3c945118	0.018105075
102	0x3d065f08	0.032805473
103	0x3dc63dec	0.096797794
104	0xbe024e86	-0.12725267
105	0x3d5feaf8	0.054667443
106	0xbe02ca42	-0.12772468
107	0x3d4a7c48	0.04943493
108	0x3da18bcc	0.07887992
109	0xbc1efe90	-0.009704247
110	0xbdeffd27	-0.11718207
111	0xbc84a890	-0.016193658
112	0x3d981792	0.07426371
113	0xbe046e25	-0.12932642
114	0x3df80f12	0.121122494
115	0xbd809f80	-0.06280422
116	0x3dc4bcc2	0.09606315
117	0xbd35fa96	-0.04442843
118	0x3caa3f68	0.020782188
119	0xbdf36536	-0.11884539
120	0x3d8842d8	0.066533744
121	0x3cbb9768	0.022899345
122	0x3e07ceb3	0.13262443
123	0xbda07201	-0.078342445
124	0x3dfe88e6	0.12428455
125	0x3d66e200	0.056367874
126	0x3d39b944	0.0453427
127	0x3d9514d2	0.07279362
128	0xbdaf9fce	-0.08575402
129	0xbda9e16a	-0.082949474
130	0x3d7cee9c	0.061750993
131	0x3d64fac0	0.055903196
132	0x3da24c02	0.079246536
133	0xbca1df88	-0.019759908
134	0xbd7a55a4	-0.06111683
135	0xbdbfdd07	-0.093683295
136	0x3dc803a8	0.097663224
137	0xbc6e0910	-0.014528528
138	0xbcff761c	-0.031184249
139	0x3d752fb4	0.059859946
140	0x3d5497f4	0.051902726
141	0xbd46d1d4	-0.04853995
142	0xbc7989c0	-0.015230596
143	0xbe03879d	-0.12844701
144	0xbd4ee47e	-0.050510876
145	0xbd507192	-0.05088956
146	0xbce161e8	-0.027512506
147	0x3d964cc4	0.07338861
148	0x3b991600	0.004671812
149	0x3d83e2a8	0.064397156
150	0x3df6dad0	0.12053454
151	0xbdd69910	-0.10478413
152	0xbe2142e1	-0.15748169
153	0x3c5a60c9	0.013328739
154	0x3db6d2ec	0.08926949
155	0x3b81fb80	0.0039667487
156	0x3db9b575	0.09067813
157	0xbd925ad7	-0.071462326
158	0xbd808641	-0.06275607
159	0xbe005a2d	-0.125344
160	0xbbff05f0	-0.00778269
161	0xbd073fbe	-0.033019774
162	0x3e05ecde	0.13078639
163	0xbdd3b7f8	-0.10337824
164	0x3b9e07c3	0.0048227026
165	0xbdea2476	-0.114327356
166	0x3d3095ab	0.043111484
167	0x3da30e3e	0.07961701
168	0x3d558253	0.05212624
169	0x3b4e8131	0.003151011
170	0xbca961e8	-0.020676568
171	0xbdd1986e	-0.10234152
172	0xbd468696	-0.048468195
173	0x3df98389	0.121832915
174	0xbd05d395	-0.032672483
175	0xbc10c24b	-0.008835386
176	0xbd96b256	-0.07358234
177	0x3d486e24	0.048933163
178	0xbddb21b7	-0.1069979
179	0x3cdad9ba	0.026715148
180	0x3cd61d30	0.026136965
181	0x3c8aec0c	0.016958259
182	0x3ba0b1c3	0.0049040033
183	0xbda98051	-0.082764275
184	0x3d51205a	0.051056243
185	0xbcefc6e3	-0.029269641
186	0x3d8a4b18	0.06752604
187	0xbca5a056	-0.020218056
188	0xbdca305c	-0.09872505
189	0xbdfab5bf	-0.122416966
190	0x3df43aae	0.11925255
191	0x3d91b17d	0.07113931
192	0xbdeb3e34	-0.11486474
193	0x3d93595e	0.0719478
194	0x3dac5095	0.08413807
195	0xbdc7679d	-0.097365595
196	0x3b68e1a7	0.003553489
197	0xbde8ac45	-0.11360983
198	0x3d34b327	0.044116165
199	0xbe1bfa8e	-0.15232298
200	0xbc814e70	-0.015784472
201	0xbd788aa0	-0.060679078
202	0xbd9c73f9	-0.076393075
203	0x3cb00c42	0.02149022
204	0x3e09a136	0.13440403
205	0xbd2a4ca8	-0.04157701
206	0xbe068534	-0.1313675
207	0x3da35a39	0.07976193
208	0xbe21b5d2	-0.15792015
209	0xbce1a8bd	-0.027546281
210	0x3e11162a	0.14168611
211	0x3d114cb9	0.03547356
212	0x3c265348	0.010151692
213	0xbb77bf95	-0.00378034
214	0xbc72bf5f	-0.014816134
215	0xbdc37e5c	-0.095455855
216	0x3e0f622f	0.14002298
217	0x3e06f231	0.13178326
218	0xbdc04383	-0.09387877
219	0x3bfe3e77	0.0077589112
220	0x3d6c3fb0	0.057677925
221	0xbd9b3ee8	-0.07580358
222	0xbdd16eba	-0.102261975
223	0x3d8b609b	0.068055354
224	0xbd3283c7	-0.043582704
225	0x3df511be	0.11966275
226	0xbc2ecf63	-0.010669562
227	0x3dc91791	0.09818948
228	0x3d83b67b	0.0643129
229	0x3c851534	0.016245462
230	0x3e71082b	0.23538272
231	0xbd6cb3d9	-0.057788704
232	0x3dc8aba4	0.09798363
233	0xbdb26ac0	-0.08711767
234	0x3e07c8d3	0.13260202
235	0xbd05a468	-0.032627493
236	0xbdc545c4	-0.09632447
237	0xbe27f1b6	-0.16400799
238	0x3ba91d63	0.005160974
239	0xbe02a01a	-0.12756386
240	0x3d1aaed6	0.037764393
241	0x3df2fc76	0.11864559
242	0x3e1f7036	0.15570149
243	0xbd766fc8	-0.060165197
244	0x3db2260c	0.08698663
245	0xbc2bcf4f	-0.010486438
246	0x3d02059d	0.031743634
247	0x3da068b6	0.07832472
248	0x3e01ebfc	0.12687677
249	0xbd89b65a	-0.06724234
250	0x3cfa3c4d	0.030546332
251	0x3df1bd30	0.11803663
252	0x3a5bfe56	0.0008392086
253	0xbd2c0076	-0.041992627
254	0xbd0adeec	-0.033904
255	0xbd37dad9	-0.044886444

stacks.0.blocks.0.fc4.bias f4 [50]
0	0x3daba418	0.08380908
1	0xbe070702	-0.13186267
2	0xbe01c71c	-0.1267361
3	0xbc923b36	-0.0178505
4	0x3d8de9c4	0.06929353
5	0xbe31d3c8	-0.17365944
6	0xbdcbb623	-0.09946849
7	0xbd640b51	-0.055674855
8	0xbdbc2c79	-0.0918817
9	0x3d8cb3d5	0.06870238
10	0x3d95ab00	0.07308006
11	0x3cd6ff7b	0.02624487
12	0x3cfa1d72	0.030531619
13	0xbbe32cd1	-0.0069328328
14	0xba956bbd	-0.0011399906
15	0xbda2ce18	-0.079494655
16	0xbd4ce409	-0.05002216
17	0x3ddca324	0.10773304
18	0xbd8ba8c6	-0.068193
19	0xbbf0b6cc	-0.00734601
20	0xbd32265a	-0.043493606
21	0x3d54f0be	0.051987402
22	0xbc6d8990	-0.0144981295
23	0x3b79fb1d	0.003814406
24	0xbdd6534f	-0.104651086
25	0xbdcfc3d9	-0.10144777
26	0xbd8c1c8b	-0.06841382
27	0xbcda402b	-0.026641926
28	0x3c17f3ec	0.009274464
29	0x3d0632b2	0.03276319
30	0x3e101db9	0.14073838
31	0xbdbafd42	-0.09130336
32	0xbdabca1e	-0.0838816
33	0x3e23ba07	0.15988933
34	0x3dd3f74e	0.10349904
35	0xbdea29a5	-0.11433724
36	0x3c9a05d4	0.018801607
37	0xbd0eaed2	-0.03483469
38	0x3da04182	0.078249946
39	0x3d8ec289	0.069706984
40	0xbdc164b6	-0.09443037
41	0x3e14da4a	0.14536396
42	0xbd1d6f27	-0.03843608
43	0xbd5d8be7	-0.0540885
44	0xbc1816ef	-0.009282812
45	0xbda38a95	-0.07985417
46	0x3d232c7c	0.039837345
47	0xbb350d11	-0.0027626196
48	0x3dfd8a8b	0.123799406
49	0xbda5eb06	-0.08101468

stacks.0.blocks.0.theta_layer.weight f4 [57, 50]
0	0xba9589fd	-0.0011408922
1	0x3dbb2745	0.091383494
2	0xbe00e444	-0.12587076
3	0xbd7c3eef	-0.061583456
4	0xbd4808db	-0.04883657
5	0xbd9becf1	-0.07613552
6	0xbd204dc5	-0.039136667
7	0xbde2d55f	-0.110758536
8	0x3da99dde	0.08282064
9	0xbd914d66	-0.07094841
10	0xbb9855fc	-0.004648922
11	0xbe12dbb0	-0.14341617
12	0xbe2743f3	-0.16334514
13	0xbe076719	-0.13222922
14	0xbc9d7860	-0.019222438
15	0xbddde00d	-0.1083375
16	0x3e2b60bf	0.16736124
17	0xbe0a2cac	-0.13493603
18	0xbd092d17	-0.033490267
19	0x3c22c729	0.009935179
20	0x3d8322d8	0.0640313
21	0x3e0ff1b1	0.14057042
22	0x3d508f68	0.050918013
23	0xbda75fcd	-0.081725694
24	0x3e1babdf	0.15202282
25	0x3b741ede	0.0037249844
26	0xbdaa11cc	-0.08304176
27	0xbd9ab95e	-0.07554887
28	0x3e00f1c4	0.12592226
29	0x3deefda6	0.11669473
30	0xbe123577	-0.14278208
31	0x3dd23684	0.10264304
32	0x3e0bf637	0.13668142
33	0x3d65ec3b	0.05613349
34	0x3daa01b5	0.08301107
35	0xbc8ba050	-0.017044216
36	0x3dc72242	0.09723331
37	0x3cac3d78	0.021025404
38	0x3c2e1092	0.010624068
39	0xbc47e0ab	-0.012199561
40	0xbdc110e0	-0.09427047
41	0x3e0669bd	0.13126273
42	0xbdf83a09	-0.12120444
43	0x3dd5dffb	0.104431115
44	0x3cf25815	0.029583016
45	0xbd74ad5a	-0.059735633
46	0xbdfaab64	-0.122397214
47	0xbe1a1f5d	-0.15051027
48	0xbe05f98a	-0.13083473
49	0x3ddf1786	0.108931586
50	0xbdd8645e	-0.105660185
51	0x3dc4582b	0.09587129
52	0x3dfaa9fe	0.12239455
53	0x3e10f160	0.14154577
54	0x3dea8f7b	0.11453148
55	0xbc96ee59	-0.0184242
56	0xbdebf7aa	-0.115218475
57	0xbd6ad634	-0.057333186
58	0x3d713e85	0.058897514
59	0xbd8ac2e5	-0.067754544
60	0x3c6ddcec	0.014518004
61	0x3d59ce78	0.05317542
62	0xbdce2ace	-0.10066758
63	0xbdc1cbfa	-0.094627336
64	0x3d778aef	0.06043523
65	0xbcb5803a	-0.02215587
66	0xbcedbc21	-0.02902037
67	0x3dcf0877	0.101090364
68	0x3b0779eb	0.0020672034
69	0xbdc59caa	-0.09649022
70	0xbdcf8194	-0.10132137
71	0x3d263e9e	0.04058706
72	0x3d799928	0.060937077
73	0xbcabab4f	-0.02095571
74	0x3c8bb39e	0.017053422
75	0x3d05d573	0.032674264
76	0x3df7742a	0.120827034
77	0xbdcdb66a	-0.10044558
78	0xbca9f293	-0.020745551
79	0x3dd965cc	0.10615119
80	0x3c8af981	0.016964676
81	0xbe0e37f5	-0.13888533
82	0x3c933b81	0.01797271
83	0xbbb1d71c	-0.0054272544
84	0xbd187889	-0.037224326
85	0x3c8e126f	0.017342774
86	0x3dfdf3d5	0.12400023
87	0xbd8735ad	-0.06602035
88	0x3c2b83a0	0.010468394
89	0xbde333cc	-0.11093864
90	0xbde0cc78	-0.10976499
91	0xbddbeaa5	-0.10738114
92	0x3d9bc0d8	0.076051414
93	0x3da145c4	0.07874635
94	0x3db3ef13	0.08785834
95	0xbe189e15	-0.14904054
96	0xbd67fb1b	-0.056635957
97	0xbe197096	-0.14984354
98	0xbe17e1bb	-0.14832203
99	0xbc550290	-0.013001099
100	0xbe154a29	-0.14579071
101	0xbde0c271	-0.10974587
102	0x3d6d3110	0.057908118
103	0xbe1e0562	-0.15431741
104	0x3c70b039	0.014690452
105	0xbcc513bf	-0.024057267
106	0x3d41c031	0.04730243
107	0x3d70344a	0.058643617
108	0x3dc6b6bf	0.09702825
109	0x3e1ef50a	0.15523162
110	0x3de8e9db	0.113727294
111	0xbdea999d	-0.11455081
112	0x3cbbf697	0.022944732
113	0xbdcc0b9c	-0.09963152
114	0x3d800786	0.06251435
115	0xbdf81a42	-0.12114383
116	0xbc9b5cb7	-0.018965108
117	0xbd5650ff	-0.052323338
118	0x3da072de	0.07834409
119	0xbd99bf16	-0.0750715
120	0xbca01172	-0.019539569
121	0xbd37017d	-0.044679154
122	0xbb00da40	-0.0019661337
123	0xbd963eb6	-0.0733618
124	0x3e44bf3d	0.19213577
125	0x3d8a22e4	0.06744936
126	0xbc8a4e84	-0.016883142
127	0x3d9a0081	0.07519627
128	0x3d943843	0.072372936
129	0x3e08eb9d	0.1337113
130	0xbd35e025	-0.044403214
131	0x3c49a9f0	0.012308583
132	0x3db4549c	0.088052005
133	0x3dd3065a	0.10303946
134	0xbdd25eef	-0.102720134
135	0x3de1b33e	0.11020516
136	0x3dd3976c	0.10331616
137	0x3d629f3c	0.05532764
138	0x3be3b205	0.006948712
139	0x3d39ffae	0.04540985
140	0x3e03a86d	0.12857218
141	0xbe153e06	-0.14574441
142	0xbd261a06	-0.04055216
143	0x3e18bd5d	0.14915986
144	0xbcefae2e	-0.02925786
145	0xbdba0ea0	-0.09084821
146	0x3d95e01c	0.07318136
147	0x3d3ab0ec	0.045578882
148	0xbe0e957f	-0.13924216
149	0xbe011aea	-0.12607923
150	0x3c4ee7d3	0.012628513
151	0xbe02e090	-0.12780976
152	0xbb7b9700	-0.0038389564
153	0xbdd8b713	-0.10581794
154	0xbd9e8bfd	-0.077415444
155	0xbd884c99	-0.06655235
156	0xb963d2b5	-0.00021726901
157	0x3e0e8fc8	0.13922036
158	0xbde20c76	-0.11037533
159	0xbbc6d6c8	-0.0060680844
160	0x3cb1d3a8	0.02170737
161	0xbc8df25c	-0.01732748
162	0xbd40407f	-0.04693651
163	0xbe0e324d	-0.13886376
164	0x3d9a0a27	0.07521468
165	0xbdfb647b	-0.122750245
166	0x3e1fef2d	0.15618582
167	0x3d9c0174	0.07617465
168	0x3dfbac27	0.12288695
169	0xbd542c94	-0.051800326
170	0xbca74c40	-0.020422101
171	0xbc210fd6	-0.009830436
172	0x3d11c8cc	0.035591885
173	0xbd4d633c	-0.050143465
174	0xbb0ae611	-0.002119426
175	0xbddc3694	-0.107525975
176	0x3e1d7819	0.15377845
177	0xbda8b12a	-0.08236916
178	0x3dad27bb	0.084548436
179	0xbd806fe0	-0.062713385
180	0xbdf73343	-0.12070324
181	0xbd23dce2	-0.040005572
182	0xbd791ed7	-0.060820427
183	0x3cbbd9ef	0.022931067
184	0xbd5915d3	-0.05299933
185	0x3d014915	0.031563837
186	0xbdd12df7	-0.10213845
187	0xbd88b0ba	-0.06674333
188	0xbdd55e0d	-0.104183294
189	0x3e08f47a	0.1337451
190	0x3e0ee4cf	0.13954471
191	0x3df08e4c	0.11745891
192	0x3e055b05	0.13023002
193	0xbcf6288a	-0.030048627
194	0x3deff937	0.11717456
195	0xbc66be5f	-0.014083474
196	0xbd295198	-0.04133758
197	0x3da96927	0.08272009
198	0x3d89ada7	0.06722575
199	0x3ce44978	0.027867064
200	0xbe0bccb6	-0.1365231
201	0x3dfd2bee	0.123618945
202	0xbd3665c4	-0.044530645
203	0x3dfd5ed5	0.123716034
204	0xbdc76319	-0.09735698
205	0xbe0c141b	-0.13679545
206	0xbcd8dbc1	-0.026471974
207	0xbdb0908c	-0.0862132
208	0x3cc04526	0.023470473
209	0xbc361080	-0.011112332
210	0xbda64d7e	-0.08120249
211	0x3dd14e60	0.10220027
212	0x3df74c13	0.12075057
213	0xbd830567	-0.06397515
214	0xbd853303	-0.0650387
215	0xbddff22b	-0.10934862
216	0xbca63fd0	-0.0202941
217	0xbdea80ab	-0.11450323
218	0x3c012334	0.007881928
219	0x3dd2c33f	0.102911465
220	0xbd3c5299	-0.04597721
221	0x3e3273b0	0.17426944
222	0x3dd5804a	0.1042486
223	0x3dc6d06d	0.09707723
224	0xbdbdd0ce	-0.09268342
225	0xba1b43a3	-0.00059228594
226	0x3e3b24e9	0.18275799
227	0x3d6bf923	0.057610642
228	0x3dfc2915	0.12312523
229	0xbd256a45	-0.04038455
230	0x3d148419	0.03625879
231	0xbcf8a2c0	-0.030351043
232	0xbdc7a24d	-0.09747753
233	0x3c9de7c1	0.019275548
234	0xbd4a76e2	-0.04942978
235	0xbd6aef0e	-0.057356887
236	0x3cd806f2	0.0263705
237	0xbdaef861	-0.08543468
238	0xbd89c77f	-0.06727504
239	0x3ce798f8	0.028271183
240	0xbd8be721	-0.06831194
241	0xbe0b8c72	-0.13627794
242	0x3dc79a40	0.09746218
243	0x3e13eae5	0.14445074
244	0x3deb8cc2	0.11501457
245	0xbddc89e9	-0.10768492
246	0x3d4055eb	0.046956938
247	0xbe0f8366	-0.14014968
248	0x3d9028ac	0.070390075
249	0xbe030f72	-0.1279886
250	0xb9aac87f	-0.00032574308
251	0x3d2feb64	0.042949095
252	0x3df4fdc6	0.11962466
253	0xbd02d0f5	-0.03193756
254	0x3c8ec929	0.017429905
255	0xbdb21584	-0.0869551

stacks.0.blocks.0.theta_layer.bias f4 [57]
0	0xbd3f9f51	-0.046782795
1	0xbe13cce9	-0.14433636
2	0x3bf9b41e	0.0076203486
3	0x3d92fc9b	0.07177087
4	0x3d13d626	0.0360929
5	0x3d70dfb6	0.058807097
6	0x3d88a736	0.06672518
7	0xbd011c33	-0.031521033
8	0xbda9e2b6	-0.08295195
9	0xbdb00f11	-0.08596624
10	0x3bb223de	0.0054364046
11	0xbdc9631d	-0.098333575
12	0x3d9a46d7	0.07533043
13	0x3d6ebbee	0.058284692
14	0x3d264cb4	0.040600494
15	0x3d3cc894	0.046089724
16	0xbd8b0e38	-0.067898214
17	0xbd0b0c84	-0.033947483
18	0x3c9d5771	0.019206734
19	0x3d436cfe	0.047711365
20	0x3ddb8e6b	0.107205234
21	0x3e19bdc5	0.15013798
22	0xbccaabb1	-0.024740072
23	0xbce12eca	-0.027488131
24	0x3d191827	0.03737655
25	0xbd4b8e0a	-0.049696006
26	0xbae2d1a1	-0.0017304906
27	0x3da23610	0.07920468
28	0x3d732233	0.059358787
29	0xbaaabdd5	-0.0013026545
30	0xbd5ecdbc	-0.054395422
31	0xbd5dfab8	-0.054194182
32	0x3e2febd8	0.17179811
33	0x3d7794c9	0.060444627
34	0xbcee3faf	-0.029083101
35	0x3c1bb954	0.009504635
36	0xbc821261	-0.015877904
37	0x3c29585e	0.01033601
38	0xbc108529	-0.00882081
39	0xbafa86af	-0.0019113625
40	0xbde585f3	-0.112071894
41	0x3d5243a6	0.051334046
42	0x3d9a7f0d	0.07543764
43	0xbdb2d95c	-0.08732864
44	0xbc80280c	-0.015644096
45	0xbd9d2f9f	-0.07675099
46	0x3d8ea9c0	0.06965971
47	0x3d5b7eb6	0.053587638
48	0x3c921047	0.017830027
49	0x3c8b29f3	0.016987776
50	0x3c18361e	0.009290246
51	0xbc9aaf9c	-0.018882565
52	0x3dc05d9c	0.093928546
53	0x3d6daad6	0.05802425
54	0x3d08ddb1	0.033414546
55	0x3d694242	0.056947954
56	0xbdf3fe26	-0.11913709

stacks.0.blocks.1.fc1.weight f4 [50, 56]
0	0x3bc46e43	0.0059945895
1	0x3dda99a3	0.10673835
2	0xbdb9d6ac	-0.090741485
3	0x3d7acbff	0.061229702
4	0x3dc92bbe	0.09822796
5	0xbd2a1fe1	-0.04153431
6	0xbd76d889	-0.060265098
7	0x3cc6c522	0.024263922
8	0xbd9ff6b4	-0.07810727
9	0xbd9266ca	-0.07148512
10	0x3e0b2a4f	0.13590358
11	0xbdbb5c5c	-0.091484755
12	0x3e024dd0	0.12724996
13	0x3db60afb	0.08888813
14	0xbdd8e012	-0.10589613
15	0xbd9f7cc5	-0.0778747
16	0xbda2f06d	-0.07956014
17	0x3db99b4e	0.09062825
18	0xbc8e1316	-0.017343085
19	0x3ddff303	0.10935023
20	0xbdb31805	-0.08744816
21	0xbd804c8b	-0.062645994
22	0xba94b1fd	-0.0011344549
23	0x3b5c7a1e	0.0033642123
24	0x3e2e8be6	0.17045555
25	0x3e1deba5	0.15421923
26	0x3b6ac593	0.003582333
27	0xbd71882e	-0.05896776
28	0x3c98e0b9	0.018661844
29	0x3df4db2b	0.119558655
30	0x3dc5ebe0	0.0966413
31	0x3d601f70	0.05471748
32	0xbd11d0ae	-0.035599403
33	0x3e0b6533	0.13612823
34	0x3da6e3ca	0.08148916
35	0xbd45a6cf	-0.048254784
36	0x3d017939	0.031609748
37	0xbe04ecb8	-0.12980926
38	0x3d0e54c4	0.034748808
39	0x3da16005	0.078796424
40	0x3d397bb2	0.04528398
41	0x3cdcb2d8	0.026940748
42	0xbd01be1a	-0.031675436
43	0xbd93c7e1	-0.07215858
44	0x3c85b2d2	0.01632062
45	0xbd46f350	-0.048571885
46	0x3dab9d42	0.08379604
47	0xbe10dff0	-0.14147925
48	0xbc1ce198	-0.00957527
49	0x3d572dd9	0.052533958
50	0x3dac4367	0.084112935
51	0xbbf339aa	-0.0074226456
52	0xbdb307bc	-0.087417096
53	0x3dca1a8b	0.09868344
54	0xbd12d2e1	-0.03584564
55	0x3cdba0e3	0.026810115
56	0xbda9fc2a	-0.083000496
57	0x3cee5c0a	0.029096622
58	0xbd20b59f	-0.039235707
59	0x3dbb0aff	0.09132957
60	0x3d1b731e	0.03795158
61	0x3da50031	0.08056677
62	0x3db8455f	0.089976065
63	0x3d1196e1	0.03554428
64	0x3c183e70	0.00929223
65	0xbdca8dad	-0.09890304
66	0x39d476a5	0.00040524188
67	0xbc734670	-0.014848337
68	0x3b1d7321	0.002402492
69	0x3d37a342	0.04483343
70	0xbdc44dcc	-0.09585151
71	0x3d061c78	0.032741994
72	0xbd43b52c	-0.0477802
73	0xbbb54b32	-0.0055326456
74	0x3d78cfa2	0.06074489
75	0x3d057cbf	0.03258967
76	0x3b62cc45	0.0034606617
77	0xbe03bf0e	-0.1286585
78	0x3d8ea2c9	0.069646426
79	0xbe0034df	-0.12520169
80	0xbd61cb61	-0.055125598
81	0x3d07ad47	0.033124235
82	0xbd0d18c1	-0.034447435
83	0xbc99347b	-0.018701782
84	0xbd708eca	-0.058729924
85	0x3abad5d7	0.0014254403
86	0x3dea12ce	0.11429368
87	0xbc81668f	-0.015795974
88	0xbc993a70	-0.018704623
89	0xbc19dcf0	-0.0093910545
90	0x3d96eb58	0.07369107
91	0x3defbc77	0.11705869
92	0x3d8206e0	0.063489676
93	0xbdaa7912	-0.083238736
94	0xbbaccfad	-0.0052737803
95	0x3de0d5c0	0.109782696
96	0xbcc25b9c	-0.023725323
97	0xbdddab20	-0.10823655
98	0xbc234f50	-0.00996764
99	0xbd489981	-0.048974518
100	0x3d890f21	0.06692339
101	0xbd5958cf	-0.05306321
102	0x3baa8e6b	0.005204966
103	0x3dd2466f	0.102673404
104	0x3dcc98dd	0.09990094
105	0x3e227a28	0.15866911
106	0x3e066a2f	0.13126443
107	0x3da49c91	0.08037675
108	0x3de478de	0.11155866
109	0x3dd42f49	0.103605814
110	0x3ded60d5	0.11590735
111	0x3da7f0a1	0.08200193
112	0x3d68dcdd	0.056851257
113	0x3d63d934	0.055627063
114	0x3dbd4c5b	0.09243079
115	0xbd2ad452	-0.04170639
116	0xbdd7b7dc	-0.10533115
117	0x3dc6a77a	0.09699912
118	0x3d0d5276	0.03450247
119	0xbcd7f03e	-0.026359674
120	0xbd3738f4	-0.04473205
121	0xbcb033fc	-0.021509163
122	0x3d15d315	0.036578257
123	0xbbd23469	-0.006414939
124	0x3d9debcf	0.077109925
125	0xbe1a335a	-0.15058652
126	0xbdb86012	-0.09002699
127	0x3d3b631d	0.04574882
128	0x3d8e684f	0.06953489
129	0x3d94ab6e	0.0725926
130	0xbddcbf0e	-0.10778628
131	0xbb085391	-0.0020801763
132	0xbe047cc1	-0.12938215
133	0xbdc11b3b	-0.09429022
134	0xbc92a919	-0.017902898
135	0x3d39bb4a	0.04534463
136	0xbbbc5110	-0.005746968
137	0x3c5cc5de	0.01347491
138	0x3cf385e7	0.029726936
139	0xbdb10a2a	-0.08644517
140	0xbdec6372	-0.11542405
141	0x3d3f1b2e	0.04665678
142	0x3dcdd5e8	0.10050565
143	0x3d846310	0.06464207
144	0xbd604c9f	-0.05476057
145	0x3dd79b38	0.105276525
146	0xbb857742	-0.0040730545
147	0x3cb3851e	0.021914061
148	0xbdc4bab5	-0.09605924
149	0xbd9ed5ad	-0.07755599
150	0x3d98d081	0.07461644
151	0x3dae26e7	0.08503514
152	0x3cebe8aa	0.028797466
153	0x3d822866	0.06355362
154	0x3dab4cc2	0.0836425
155	0x3d2a087a	0.04151199
156	0x3ce28a00	0.027653694
157	0xbdb1ea6d	-0.08687291
158	0x3dd84aa8	0.105611145
159	0x3de06403	0.10956576
160	0xbd863bd8	-0.06554383
161	0xbe2e5433	-0.17024307
162	0xbe82711b	-0.25476918
163	0xbddc6080	-0.107605934
164	0xbdc9a22b	-0.09845384
165	0xbde87c01	-0.11351777
166	0x3d3d882d	0.046272445
167	0xbda7fdf4	-0.082027346
168	0x3d927d00	0.07152748
169	0x3c9973d4	0.018731989
170	0xbdb20bc1	-0.08693648
171	0xbd7c746e	-0.061634474
172	0xbd8292c8	-0.063756526
173	0x3dde8471	0.10865105
174	0xbdccd20e	-0.10001002
175	0xbdb28e6b	-0.0871857
176	0x3d80037c	0.062506646
177	0xbdd65464	-0.10465315
178	0x3da2cd13	0.07949271
179	0x3b6b2408	0.003587963
180	0x3cec3bfa	0.028837193
181	0x3d139c43	0.036037695
182	0x3df1eea1	0.11813093
183	0xbd913212	-0.07089628
184	0x3d46c768	0.048530012
185	0x3d73d53f	0.05952954
186	0x3daa38a2	0.08311583
187	0x3d856bfe	0.065147385
188	0x3d9e1531	0.07718886
189	0xbd462d48	-0.048383027
190	0x3d7e4e65	0.06208648
191	0xbdc113f4	-0.09427634
192	0x3dd69b1f	0.10478806
193	0xbd357f30	-0.04431075
194	0xbd664c6e	-0.056225233
195	0x3d343eff	0.04400539
196	0xbdbcee73	-0.09225168
197	0xbdbbb0a7	-0.09164553
198	0x3e19ebc8	0.1503135
199	0x3ddd8e28	0.1081813
200	0x3d805de2	0.06267907
201	0xbd4a15ec	-0.049337313
202	0x3d320b1c	0.043467626
203	0xbded75df	-0.11594748
204	0x3ddf269e	0.108960375
205	0xbcad949f	-0.021189032
206	0xbc855791	-0.016277106
207	0xbc5ea8cb	-0.013590048
208	0x3d15be78	0.0365586
209	0x3d2606ce	0.040533833
210	0x3d922520	0.07135987
211	0xbd4ab8b0	-0.049492538
212	0x3dfc4916	0.123186275
213	0xbd8c4456	-0.068489715
214	0x3d8ca6ea	0.06867774
215	0xbcd0f89e	-0.025509175
216	0xbdfff4e7	-0.12497883
217	0xbe067cf4	-0.13133603
218	0xbe2dcc8d	-0.16972561
219	0xbdf23f40	-0.1182847
220	0xbe21d5cd	-0.15804215
221	0x3d0ae9f4	0.03391452
222	0xbe390a25	-0.18070276
223	0x3d531c42	0.05154062
224	0xbd0be727	-0.03415599
225	0x3dda4501	0.10657693
226	0xbc22bf6a	-0.009933332
227	0x3cfae16d	0.03062507
228	0xbd71e089	-0.059052024
229	0x3e023fe0	0.12719679
230	0xbde70fdc	-0.11282322
231	0xbd5dbfad	-0.054137874
232	0xbbcf86a7	-0.0063331905
233	0xbc1a22d5	-0.009407719
234	0x3db30e1d	0.08742926
235	0x3d74b7ad	0.05974548
236	0x3dbb6a04	0.0915108
237	0x3d94cf18	0.072660625
238	0xbd4f6057	-0.050628986
239	0xbd0bfbd9	-0.034175728
240	0x3d718971	0.058968965
241	0xbd7c1613	-0.06154449
242	0x3de93422	0.11386897
243	0x3d06825e	0.03283917
244	0xbddf2e36	-0.10897486
245	0x3d6caca5	0.057781834
246	0x3de0b02c	0.10971102
247	0xbc31daeb	-0.010855417
248	0xbe1641e3	-0.14673571
249	0xba9eb958	-0.001210968
250	0xbcb1ee85	-0.02172018
251	0x3ce5f414	0.028070487
252	0x3d072e9f	0.033003446
253	0xbd3c98f1	-0.046044294
254	0xbd708e14	-0.058729246
255	0x3c4777ee	0.01217459

stacks.0.blocks.1.fc1.bias f4 [50]
0	0xbdf0742f	-0.1174091
1	0x3d942dee	0.07235323
2	0xbdee6b2e	-0.11641537
3	0x3d9178e9	0.0710314
4	0x3c1efd1c	0.009703901
5	0xba84bf66	-0.0010127842
6	0xbdd04b5f	-0.10170626
7	0x3db3e8fe	0.08784674
8	0xbdfad90a	-0.12248428
9	0x3d6038f5	0.05474182
10	0x3d90d6d3	0.070722245
11	0xbd0804d8	-0.033207744
12	0xbcec5fa7	-0.028854204
13	0x3d2d3f47	0.042296674
14	0x3dc58dbc	0.09646174
15	0xbe07ca83	-0.13260846
16	0xbd2b8b81	-0.04188109
17	0xbdc6bee3	-0.097043775
18	0xbc9187d4	-0.017764963
19	0x3da3671c	0.07978651
20	0x3e1b6a85	0.15177353
21	0xbe2e2e43	-0.17009835
22	0x3d97bb3c	0.07408759
23	0x3c56fd37	0.013121895
24	0x3dde760c	0.108623594
25	0x3da9e5ed	0.08295808
26	0xbdc15e2c	-0.0944179
27	0x3e118a6d	0.14212961
28	0xbcbb0080	-0.022827387
29	0xbd60eb41	-0.054911856
30	0xbcbaf2a5	-0.02282078
31	0x3d8c0fa0	0.06838918
32	0x3e4ae053	0.19812135
33	0xbcf58c2e	-0.02997407
34	0x3dd35d3a	0.10320516
35	0x3d759b9a	0.059962846
36	0x3c079b55	0.00827678
37	0xbde89d9b	-0.11358186
38	0xbd957ec6	-0.07299571
39	0xbd1e46db	-0.03864179
40	0x3be19c34	0.006885076
41	0x3da0bde3	0.07848718
42	0x3d6497f6	0.055808984
43	0x3c8f9efd	0.017531866
44	0x3d3e4239	0.046449874
45	0xbdfd1644	-0.123577625
46	0x3dce7734	0.1008133
47	0xbd9d87fe	-0.07691954
48	0x3e080c30	0.13285899
49	0x3b8bbe9d	0.0042646662
