RNN_models/close_slope_15_2_raw_15min_t3.pth (torch, 449576 bytes, 30 tensors)

stacks.0.blocks.0.fc1.weight f4 [100, 30]
000000 93 d9 77 bd 85 c3 0f be 5c a4 1c bd b2 b1 61 3e
       -0.06051023 -0.14039429 -0.038242683 0.22040442
000010 ee 8a 97 bd 5c ad 87 3b 96 a7 50 bd b0 d4 31 3d
       -0.073995456 0.004140539 -0.050941072 0.043415725
000020 f3 2f 56 3e 18 6b 29 be 9e 7e 0f 3e f7 bd 37 3e
       0.20916729 -0.1654476 0.14013144 0.1794356
000030 4a 66 2b be 67 aa 46 3d 1b fb 17 be a2 70 f4 bd
       -0.16738239 0.048502352 -0.14841883 -0.119355455
000040 0b 5d 4c bc cf 94 86 3d 91 0d 3e be b6 57 b8 bc
       -0.012473355 0.06571352 -0.18559863 -0.022502761
000050 78 aa 04 3e 03 35 7a bd 5e 9c 21 bd 67 a1 33 be
       0.12955654 -0.061085712 -0.039455764 -0.17542039
000060 d1 86 db bc 19 f9 97 3e f1 3a 79 3e 97 c4 62 3d
       -0.026797684 0.29682234 0.2433889 0.055363264
000070 55 1d 3a be 88 d6 6b be b4 25 77 3e 2f 3a 2b be
       -0.18175252 -0.23031056 0.24135476 -0.16721414
000080 49 1d 9d 3b e5 fb ad 3d 18 e3 ce bd 65 1a 7b 3e
       0.004794751 0.08495311 -0.101019084 0.24521787
000090 85 67 2d 3e 65 04 ca bb 68 f4 4a 3d bd b8 23 3e
       0.16934021 -0.0061650747 0.04954949 0.15988441
0000a0 3c dc e8 3d 8e 91 03 3e 3b 29 4d 3e 1f 22 c5 bb
       0.113701314 0.12848493 0.2003526 -0.0060160304
0000b0 97 61 57 bd ea d8 14 be b9 88 71 bd e1 cb 91 3d
       -0.052583303 -0.14535871 -0.05896828 0.07118965
0000c0 6d 6b 07 be 65 9b 33 be 10 ba 37 be e4 d7 09 be
       -0.13224573 -0.17539747 -0.17942071 -0.13461262
0000d0 20 ee bd bd db 22 c9 3d 21 d8 f9 bd 4d 38 0b 3d
       -0.09273934 0.09821101 -0.121994264 0.03398924
0000e0 12 d7 31 3e 5e f1 37 be 0c fe 48 be 08 30 cb bd
       0.17367199 -0.17963168 -0.19628161 -0.099212706
0000f0 34 5e 96 bd 00 c0 bf 3b 1b 5f 1f be f1 96 67 bd
       -0.073421866 0.0058517456 -0.15563624 -0.056540433
000100 bf 56 d6 3d 69 89 e5 3d c8 93 6b 3d 35 33 da bd
       0.10465764 0.112078495 0.057513982 -0.10654298
000110 35 bc e6 ba 53 bf 91 3d b0 af 50 3c 72 7f c1 bd
       -0.0017603697 0.0711657 0.0127372 -0.094481364
000120 ac cb 8a bd 93 ef 64 bd 4a 58 05 be 90 dc 22 3e
       -0.067771286 -0.05589254 -0.13021961 0.1590445
000130 b9 ce d4 3c b2 fa 46 3e d1 71 2e 3b 05 8e 1a 3d
       0.02597748 0.1943157 0.0026618133 0.037733097
000140 40 56 46 be 17 53 97 bb 53 3a e5 bd 49 67 9d 3c
       -0.1936884 -0.0046180594 -0.11192765 0.01921429
000150 13 1a 0d 3e bc b8 49 3e 96 33 a8 3e eb d1 03 be
       0.13779478 0.19699377 0.32851857 -0.12873046
000160 11 1a 84 be 11 42 5d be 2b 61 6f 3e 04 8a 2d 3e
       -0.25801137 -0.21607234 0.2337691 0.1694718
000170 85 18 09 3e 22 a4 e3 3b fe f3 31 3e 9b 33 5d bd
       0.1338826 0.0069470564 0.17378232 -0.054004293
000180 03 9d a3 bb 35 c4 f0 bc 12 3b 33 3e ca 90 27 bd
       -0.0049930825 -0.029390434 0.17503002 -0.040909566
000190 b8 5f 0b be bf 78 01 be c8 85 20 bd be ae 94 bd
       -0.13610733 -0.12643717 -0.039190084 -0.07259892
0001a0 7b 91 02 be 2b a2 3a 3e 6a 41 09 bd f9 20 84 bd
       -0.12750809 0.18225925 -0.03350965 -0.064516015
0001b0 cf 40 52 3e 52 ce 82 3e 91 39 1a 3b 1e 8b ea bc
       0.20532535 0.25548035 0.0023532847 -0.02863079
0001c0 c9 f0 33 bd 52 93 a0 3e 60 cf 3f be 3d 3c a5 bc
       -0.043930802 0.31362396 -0.18731451 -0.020170325
0001d0 ae 39 03 3e fb 5a a5 bd 98 6c eb bd bc 57 c1 3d
       0.12814972 -0.08073994 -0.11495322 0.09440562
0001e0 61 5d e8 bd 45 36 03 be 4f 90 d9 bb 39 ac 2d 3e
       -0.113459356 -0.12813671 -0.0066395174 0.16960229
0001f0 c1 0d 45 be 64 3f 74 3d bf ec 8a bc b4 f6 e2 3d
       -0.19243528 0.059630767 -0.016958592 0.11082211
000200 ad ab ab 3d 90 e2 14 3c df 5b 35 3e 32 29 43 bd
       0.08382354 0.00908722 0.17710827 -0.04764671
000210 e3 4f da 3d f4 cd cc bd 7b 09 bc bd a6 3a 38 bd
       0.106597684 -0.1000022 -0.09181496 -0.044977807
000220 2f 8a cd bc 39 f9 0d be fa 1a 21 bc 8c 63 43 bd
       -0.025090305 -0.13864602 -0.009833092 -0.047702357
000230 c0 b1 06 3e 14 4e e2 3a 0c 29 94 3c 09 3a 39 be
       0.13153744 0.0017265701 0.018085979 -0.18088545
000240 92 8f ce bd bc 0d 7d be 3a 76 23 be c7 22 b5 3d
       -0.100859776 -0.2471227 -0.15963069 0.08844524
000250 03 de 78 3e fb 7f 5f 3e 19 17 8d 3e af 27 6b bd
       0.24303441 0.21826164 0.27556685 -0.057410892
000260 af bb e0 3d 3b 73 f3 bd f6 ff c7 bd 65 95 d1 3c
       0.10973298 -0.11887213 -0.097656175 0.025583932
000270 b0 e7 26 bd e4 ef 06 3e ae 50 78 bd 9e 8b 13 be
       -0.0407483 0.13177449 -0.060623817 -0.14408728
000280 cc b5 52 3e 46 29 11 3e 27 3d c0 bd c8 08 0d be
       0.20577163 0.14175901 -0.09386664 -0.13772881
000290 77 a6 a1 bd 1f 6c 06 be 72 91 f6 bd 95 98 7a 3e
       -0.07893079 -0.13127182 -0.1203946 0.24472268
0002a0 d3 9c 90 3b 8e 76 c4 bd 93 98 14 be 25 d5 f7 3d
       0.004413226 -0.09592925 -0.14511327 0.12101201
0002b0 82 a0 15 3d 2f f5 be 3c 8c 29 45 3e b5 09 0f 3e
       0.036530025 0.023310272 0.1925413 0.13968547
0002c0 29 c6 34 3e 15 6a 28 be 37 ea 62 be 53 f6 4b be
       0.17653717 -0.16446717 -0.22159658 -0.19918184
0002d0 74 47 d4 bd 86 ce 17 be 03 0c e8 3d 17 ee 14 3e
       -0.10365191 -0.14824876 0.11330416 0.14543949
0002e0 0d 31 c0 bd 01 44 31 3d d5 c1 07 3e f7 f5 42 be
       -0.09384356 0.043277744 0.13257535 -0.1903914
0002f0 c0 9a df 3d 07 44 65 bd ee 77 59 3d 93 69 4e 3d
       0.10918188 -0.05597308 0.05309289 0.050393652
000300 fa 75 13 bd d2 6e f5 3d 4e 44 47 3d c6 41 c1 3c
       -0.036001183 0.11984028 0.048649125 0.023590934
000310 3e 33 83 3d 41 b8 59 3e a8 be 93 3d fc 47 55 3d
       0.06406258 0.21261694 0.07214099 0.052070603
000320 2e 16 9c 3d e8 f0 03 be 01 ad d2 3c 50 22 2e 3d
       0.07621418 -0.12884867 0.02571726 0.04251319
000330 74 7b a7 3d 63 4c 3e be 82 42 a4 be b4 42 d6 3d
       0.08177844 -0.18583827 -0.3208199 0.10461941
000340 f9 79 97 bd e7 7d bc 3d df e2 ac bb be fd 01 bd
       -0.07396311 0.092037015 -0.0052760686 -0.031736128
000350 62 4d 24 be db ee b8 ba bb d3 29 be 5f ab 25 be
       -0.16045144 -0.001410927 -0.16584675 -0.16178654
000360 87 1e 4e bd 6a 47 62 bc cb 9b af 3c c3 3d fe 3d
       -0.050322082 -0.013810972 0.021436593 0.12414124
000370 a1 f8 58 3d bf e6 96 bd cd a8 18 be d6 85 3f be
       0.052971486 -0.0736823 -0.14908142 -0.18703398
000380 46 34 63 bc 7b b0 36 3e 8a 04 df 3d 72 12 ba bd
       -0.013867443 0.1784076 0.10889538 -0.090855494
000390 87 77 a2 bd c0 06 8a 3d 22 e4 30 3d f8 6d 99 bd
       -0.07932954 0.06739569 0.043186314 -0.07491678
0003a0 3c d8 99 bd 52 64 28 be ef 0e 07 3d 2c 1a 27 3e
       -0.075119466 -0.16444519 0.032973226 0.16318578
0003b0 cf e6 8c 3e f9 19 a3 3d a8 d0 94 be 47 ef 93 be
       0.27519843 0.07963938 -0.29065442 -0.28893492
0003c0 08 29 d5 bd 34 19 a6 3b 3f 1a d1 3d 9f 16 82 3d
       -0.10408217 0.0050689224 0.10210084 0.06351971
0003d0 a1 f7 6c 3c 7a 1d 35 bd 6a 1c d8 3d 90 58 e4 bd
       0.014463336 -0.044217564 0.105522946 -0.111497045
0003e0 f6 57 08 3e e2 4e e9 bd 95 73 fd 3d e1 7d ba bd
       0.13314804 -0.11391999 0.12375561 -0.09106041
0003f0 d9 f1 01 3d 82 01 57 bd 80 a8 03 3e be 42 1f 3e
       0.031724785 -0.052491672 0.12857246 0.15552804

stacks.0.blocks.0.fc1.bias f4 [100]
000000 70 95 a5 bc 9b 84 ec bd c8 11 f9 3d 4c 95 f1 be
       -0.020212859 -0.1154873 0.12161595 -0.47184217
000010 b3 18 ae bc 2c f4 15 3e e0 b3 83 be 50 f1 f6 3c
       -0.021252012 0.14643925 -0.2572317 0.030144364
000020 77 d0 80 ba 29 cf 82 3d 3c b3 1d be fd 67 f4 bd
       -0.0009827752 0.06387169 -0.15400404 -0.11933897
000030 5f 8c 2b be 1a d0 19 3e 15 f0 48 be 94 3d a5 bd
       -0.16752766 0.1502079 -0.19622834 -0.08068386
000040 56 cd bb be 1b b5 f6 3d e2 67 9f be 26 56 4d 3e
       -0.36680096 0.12046262 -0.31133944 0.20052394
000050 ac bd 0f 3c de d6 98 3d 6f db ff bd 3a d4 89 3d
       0.008773249 0.07462858 -0.124930255 0.06729932
000060 27 dc 1f 3d 38 36 cb bd e1 01 8c bd fe d4 c3 be
       0.039028313 -0.09922451 -0.06836296 -0.38248438
000070 d1 2e 83 be 19 7a 44 3e 49 e4 a3 3d 07 2c eb bb
       -0.25621656 0.19187202 0.08002526 -0.0071768793
000080 62 38 f8 3d ae 21 cf bd 8d e9 d0 bc cf 62 87 3d
       0.12120129 -0.10113846 -0.02550199 0.06610643
000090 56 50 7e bd db 74 43 be 22 26 12 be 3e 06 b7 3d
       -0.062088333 -0.19087546 -0.14272359 0.089367375
0000a0 55 c6 27 3c ae 91 77 be 5d e7 08 be 4e e7 4a be
       0.010240157 -0.24176666 -0.13369508 -0.19814798
0000b0 6b 61 ab 3d 41 88 9b 3d ab 73 0c 3c 83 72 28 3e
       0.083681904 0.07594348 0.008572499 0.16449933
0000c0 ff 00 8a be da 01 29 be 99 32 a0 bd 84 18 3d 3d
       -0.26953885 -0.16504613 -0.07822151 0.046165958
0000d0 bf ab 55 be 20 9c 05 be 11 c1 31 3d df 2b db 3c
       -0.20866297 -0.13047838 0.043397013 0.026754318
0000e0 1a 7c a2 be fa 8d 94 be 15 78 45 be 72 1f 0e be
       -0.31735307 -0.2901457 -0.19284089 -0.13879183
0000f0 6c fa 78 be fb b1 a7 be 1d fa e3 3c 15 61 2c be
       -0.24314278 -0.32752976 0.027829224 -0.16833909
000100 c3 c2 f1 bd 2c 96 b3 bc d0 3d ef 3d e8 75 5a be
       -0.11804726 -0.021922193 0.11681712 -0.2133404
000110 c6 d8 61 be fd 7e 26 3c c7 5b 41 3c 7f 74 36 bd
       -0.22055349 0.010162112 0.011801667 -0.044544693
000120 ea 05 27 be 4a d0 be 3d c3 17 77 bd 24 3e 60 bc
       -0.1631085 0.09317072 -0.060325395 -0.0136866905
000130 a2 56 9c 3d cc fa 4c 3d b6 b7 bc be 93 8c 00 3d
       0.076337114 0.050043866 -0.3685891 0.031384062
000140 c3 19 f3 bd d1 ef 1e bc 28 43 91 3d ee eb 4d 3d
       -0.11870148 -0.009700731 0.07092887 0.05027383
000150 0d 4e b5 be b3 74 1f 3e 90 51 aa 3d 5f 63 3f bd
       -0.3541111 0.15571861 0.08316338 -0.046725627
000160 0e 4b a1 be 12 01 49 be 7b eb f6 3d b3 43 3f 3d
       -0.31502575 -0.19629315 0.12056633 0.046695422
000170 3d 84 92 3d 49 91 bb bd 60 d6 0f bd 42 b0 ab 3d
       0.07154129 -0.0915857 -0.035116553 0.08383228
000180 84 a6 92 bd c3 d1 cf be 9d 9b 8b 3d 10 fb 67 bd
       -0.071606666 -0.40589723 0.0681679 -0.056635916

stacks.0.blocks.0.fc2.weight f4 [100, 100]
000000 46 02 fc 3c d3 4b 06 bd b0 ef 2f 3e 9a 91 cf 3d
       0.030762803 -0.032787155 0.17181277 0.10135193
000010 d2 7e ee 3c 73 9b d8 3d 43 1e 95 bd 50 66 4a bd
       0.029113207 0.105765246 -0.072811626 -0.04941398
000020 ac 1d 23 3e 35 3a 0b bd b8 7f 34 bd 9a 6f 98 3d
       0.15929288 -0.033991057 -0.044067115 0.07443161
000030 bc 64 89 bc 36 ac 0e 3e 48 cb fb 3d 84 6a e1 3d
       -0.016771667 0.13932881 0.12294632 0.11006644
000040 91 43 f3 bd 44 54 06 bd 53 97 f2 bc 2e c6 68 3d
       -0.11878122 -0.032795206 -0.029613173 0.056829624
000050 ca d8 97 3d c7 59 93 3a c9 5f 23 bd d5 e7 0e bd
       0.07414396 0.0011241966 -0.03988627 -0.03488906
000060 7b c4 fa bd 93 91 b9 3d e4 2b 60 bd f7 ec a9 3d
       -0.12244507 0.09060969 -0.054729357 0.082971506
000070 87 13 5a 3d 7d f2 bd 3d 08 c4 01 be 19 05 ac 3d
       0.05324128 0.092747666 -0.12672436 0.0839941
000080 57 7d a2 3d 71 3e 9d 3d 04 89 5b 3b 36 3d cd bd
       0.07934063 0.076779254 0.0033498416 -0.10021441
000090 98 46 93 3d 34 14 61 3d ad ab 95 3d bf a1 db bd
       0.07191199 0.054950908 0.07308135 -0.1072421
0000a0 6a b1 4a bd 1c c9 3d bd 1a ee 02 3c 68 a0 e0 bd
       -0.0494856 -0.04633437 0.007991338 -0.10968095
0000b0 9a f3 39 bd 45 92 29 3d 2f c3 b2 3c 49 8f 5f 3e
       -0.045398332 0.04139926 0.021821586 0.21832003
0000c0 09 63 24 3d 9a 47 a6 bd 1f 55 cb 3d ca a0 41 3b
       0.04013351 -0.08119126 0.09928345 0.00295453
0000d0 81 02 cb bc 12 dd 9d bc 14 0e 21 bd 5b 49 b1 bb
       -0.024781467 -0.019270454 -0.039320067 -0.005410356
0000e0 63 9e 68 3d 1c 42 49 bc 8b b7 17 bd fc 14 bf 3c
       0.056791674 -0.012283828 -0.037040275 0.023325436
0000f0 44 c0 01 bd 6b 46 de bb 57 ab a5 3d c1 66 24 bd
       -0.0316775 -0.006783297 0.08089321 -0.040137056
000100 be 46 5c bd e7 3d 3b 3d fa 88 0d be 27 c5 3c 3d
       -0.053778403 0.04571333 -0.13821784 0.046086457
000110 2e 9b 18 3d 42 bb 30 bb 99 c8 0e 3e f7 c5 24 3d
       0.037257366 -0.0026967083 0.1394371 0.040227856
000120 63 cd d3 bd ef a2 02 3d bb 64 75 3d fc c3 b3 3d
       -0.10341909 0.031893667 0.059910517 0.087776154
000130 79 ae 9a 3d 87 92 37 bd c2 38 e0 bc 38 e7 98 bb
       0.07552809 -0.044817474 -0.027370814 -0.0046662353
000140 eb 19 c3 3c bf bb 04 3c d8 5e a6 bd 81 bd f2 3c
       0.02381607 0.008101403 -0.08123559 0.029631378
000150 7f 37 71 bc 8e 41 cb 3d 5a 2c 74 bd 28 2d d8 3d
       -0.014722704 0.09924613 -0.05961261 0.10555488
000160 1b 71 45 bc 42 ca 31 3c f6 fc 10 bd 57 82 bd 3d
       -0.012050892 0.010851445 -0.035397492 0.09253376
000170 44 ff 6b 3d 78 b6 91 3c fe 7e 64 3d fc 30 d0 3c
       0.057616487 0.017787203 0.05578517 0.025413983
000180 a1 37 ef bd 83 66 ef 3d 03 9a f6 bc cf 46 48 be
       -0.11680532 0.116894744 -0.030102735 -0.19558261
000190 7c 03 2b 3d 07 27 f0 bd 50 cb 2a bd 2e a4 a8 bd
       0.04175137 -0.11726194 -0.0416978 -0.0823444
0001a0 cc a5 08 bd 37 bc a3 bd 3d d5 f1 bd 83 12 3a 3d
       -0.03336124 -0.079948835 -0.1180825 0.04542781
0001b0 67 d0 0c be 7e 7a 0b be 48 c3 30 3d 84 09 5e 3d
       -0.13751374 -0.13620946 0.043154985 0.054208294
0001c0 50 72 30 3d 62 83 bd ba e0 a6 ec bd cc 89 0f bc
       0.043077767 -0.0014458711 -0.115552664 -0.008760881
0001d0 06 d6 49 3d 33 c6 9e 3c 90 0d 0c 3d a4 82 0a 3d
       0.049276374 0.019381618 0.03419262 0.033815995
0001e0 92 19 df 3c dc 7c c1 bd bb f4 e9 bc fb 9c 3e 3d
       0.027233873 -0.09447643 -0.02855908 0.046536427
0001f0 12 d6 80 3c 75 b4 6a 3c c1 d8 58 be d5 1f 1c bd
       0.015727077 0.014325251 -0.21176435 -0.038116295
000200 5f bc 73 bb ad dd 0d be 8b 1f 43 bd 28 e5 17 3d
       -0.0037191135 -0.13854094 -0.047637504 0.037083775
000210 7a d0 22 bd d0 97 5f bc 56 91 9e bc cf a1 03 bd
       -0.0397496 -0.013647035 -0.019356411 -0.032136735
000220 ed d6 10 bd 06 da 09 bc 38 e4 9a 3d 90 85 11 bc
       -0.03536122 -0.008413797 0.075630605 -0.008881941
000230 1a 8c 39 bd 5a 01 4f bd 44 b2 df bc 5c a0 ca 3d
       -0.045299627 -0.0505384 -0.027306683 0.098938674
000240 87 b5 09 be 44 c9 9b bc 26 75 63 bd a7 60 28 3d
       -0.13448153 -0.01901687 -0.055531643 0.0411078
000250 26 31 08 3d a9 84 b4 bd 8a 0c 3b 3d c5 27 63 bd
       0.033249997 -0.088143654 0.045666255 -0.05545785
000260 e2 cb 89 bd 53 9e 3a bd 78 a7 ae ba 55 66 5e bd
       -0.06728341 -0.045561146 -0.0013325056 -0.05429681
000270 e1 88 a1 bd 88 67 39 3d 18 0a fd bc 18 74 65 bd
       -0.07887436 0.04526475 -0.030888602 -0.05601892
000280 84 f5 ff bc 57 0f be 3d 34 3e c7 3c 88 a3 1c be
       -0.031245 0.092802696 0.024321653 -0.15296757
000290 e0 cf 98 3d 81 25 c6 bd 0e bb cb bd 91 a9 a9 bc
       0.07461524 -0.09675122 -0.09947787 -0.020710738
0002a0 2c 13 8d bc 0f 3e c3 bd c2 04 bc bd 30 36 e0 bc
       -0.017221056 -0.09533321 -0.09180595 -0.027369589
0002b0 a1 d3 2f 3d 35 c3 23 3c 19 64 27 bd c6 de 4a 3d
       0.042926434 0.009995271 -0.040866945 0.04952886
0002c0 d7 eb 9f bc 3e 49 bf bd 25 6b 88 3d e7 d3 fc bd
       -0.019521637 -0.09340142 0.06661061 -0.12345105
0002d0 af 94 9b bd 9d 44 fd bd 1d 50 b9 3c 40 b2 f7 bd
       -0.075967185 -0.123666026 0.022621209 -0.12094545
0002e0 cd 02 95 3d 9c 5f b6 bb 4f d0 35 bd e4 37 8b bd
       0.07275925 -0.0055655967 -0.04438811 -0.0679777
0002f0 38 51 b8 bc 96 38 da bd 22 34 13 bc ac 5a 1a bc
       -0.022499666 -0.10655324 -0.008984597 -0.009421032
000300 05 7d 2c bb 92 cf 32 3d 75 dd 23 3b 1f f1 60 bd
       -0.0026319635 0.043654986 0.0025003825 -0.05491745
000310 07 5d 0f 3c 13 94 08 bd be bd 9d bd 16 5c 54 bd
       0.008750207 -0.03334434 -0.07702206 -0.051845632
000320 6a 2a a3 3d 2b d7 6a bd f7 a9 02 bc 75 5d 30 be
       0.07967074 -0.057334106 -0.007975093 -0.17223151
000330 4a 56 a3 3c 26 28 b3 3d 70 7c 0b bd 87 6b af 3d
       0.019938607 0.08747892 -0.03405422 0.08565431
000340 df 76 c8 3d 6e 88 4b 3d eb 6d 10 be 18 2a 7b 3c
       0.09788298 0.049690656 -0.1410443 0.01532986
000350 3c cd cf 3d 10 1a e2 3d 33 7b ae 3d 8f c5 0e 3e
       0.10146567 0.11040127 0.08519592 0.1394255
000360 67 59 47 bd 28 61 71 bd 08 57 02 3e d8 0a 04 3d
       -0.048669245 -0.058930546 0.12728512 0.032236904
000370 51 25 bf bd b0 e4 17 3e 6f f4 21 bd 05 3b 70 3b
       -0.093332894 0.14833331 -0.03953975 0.0036656272
000380 e0 75 e2 bc d6 2c b9 bd 13 ce 09 3d 01 e9 ce bd
       -0.027644098 -0.09041755 0.033643793 -0.10103036
000390 c9 56 bc 3d e8 47 2e 3d ef 3b 56 bd 2a 52 b9 bc
       0.091962405 0.042549044 -0.05230325 -0.022622187
0003a0 82 9c 23 3d 83 b0 74 3c 67 2b ec 3d 7d a3 79 bd
       0.03994418 0.014934662 0.11531716 -0.06094693
0003b0 f8 b8 62 3d 50 67 5f be 73 d3 cd 3d c7 80 32 be
       0.05535218 -0.21816754 0.10050096 -0.17431937
0003c0 24 5f fa bd 17 22 2d 3e db 18 3d bd 5d 54 21 bd
       -0.12225178 0.16907535 -0.046166282 -0.039387096
0003d0 22 b4 d7 bd 98 13 9d bd e1 19 59 3d ae 96 87 3d
       -0.105324045 -0.07669753 0.053003196 0.06620537
0003e0 43 4b 76 3c 9c 2e e6 bd 79 88 fa 3c f8 f9 04 3e
       0.015032592 -0.11239359 0.030582653 0.1298598
0003f0 a6 30 13 bd 87 b7 1f bd a9 ee 33 3d bc 2d 83 3c
       -0.035935067 -0.038993385 0.043928776 0.016013019

stacks.0.blocks.0.fc2.bias f4 [100]
000000 c2 0e c3 bd f3 8b 42 be 15 a8 3d 3d a6 86 4a bd
       -0.09524299 -0.18998699 0.046302874 -0.049444817
000010 42 f4 36 3d c4 8d 0f bd d8 51 27 bd 61 93 96 3c
       0.044666536 -0.035047308 -0.040849537 0.018380823
000020 32 29 cd 3c 89 2c 00 bd cb bc 85 bc 84 08 2b be
       0.025044058 -0.031292472 -0.016325375 -0.16702467
000030 21 a7 15 3c c5 bd 84 3d 21 6a ae bb b4 f3 ec bb
       0.009134085 0.06481508 -0.00532271 -0.0072312
000040 80 03 72 bd 1c 7e ff 3b 4c 43 6c bd ac 33 be 3d
       -0.05908537 0.007797016 -0.057681367 0.092871994
000050 0f 2d 90 3b 8f 96 17 bd 3d 8a 37 3d 19 f6 da 3d
       0.0043999027 -0.03700882 0.04480957 0.10691471
000060 f1 93 23 bc 16 e6 86 bd 1e 2e aa 3c 0d 1c 94 3d
       -0.009984002 -0.06586854 0.020773944 0.07231913
000070 10 50 95 3b 69 50 ab bd dc 7c 14 3d b9 d1 e6 bc
       0.0045566633 -0.083649464 0.036251888 -0.028176175
000080 3c 9b 60 3d 7e 96 10 bc 7f 62 32 be 2d f0 76 3d
       0.054835543 -0.008824943 -0.17420386 0.060287643
000090 ef df 96 bd 6a 30 2d bd 51 75 2a be 4d 54 44 be
       -0.07366931 -0.0422825 -0.16646315 -0.19172783
0000a0 d1 ba ad bd 56 9c 14 bd 4d d0 a7 3c 1d 20 fb bd
       -0.08482898 -0.036281906 0.020485068 -0.122619845
0000b0 c5 61 e8 bd 09 d4 61 3d 8c 0d 49 bd 48 c3 56 bd
       -0.11346773 0.055133853 -0.049085185 -0.05243233
0000c0 ed 5b 97 bd 52 ff 34 bd cd d7 8b be 72 fa 4e 3d
       -0.0739058 -0.044188805 -0.2731308 0.050531812
0000d0 ab ed 10 be d0 a3 44 3d 63 bd bb bc 25 f6 a2 3d
       -0.14153163 0.048007786 -0.022917455 0.079571046
0000e0 46 ee 2a ba 9a ff e7 3d 55 8d 09 be 51 11 50 be
       -0.0006520491 0.11328049 -0.1343282 -0.20319106
0000f0 77 d3 bf bd 3a 63 8e 3c af 55 a2 bd 4b 8e 84 3c
       -0.093665056 0.0173813 -0.07926499 0.016181132
000100 86 64 1e 3d 98 5a 61 be 12 c9 04 be 2b 36 02 bd
       0.038670085 -0.22007215 -0.12967327 -0.03178994
000110 8a b9 89 bd 10 ca ea bb d9 16 93 bd 4c 4b 61 be
       -0.06724842 -0.007165201 -0.07182092 -0.2200138
000120 07 36 15 3d 74 99 11 3d d5 70 ef 3c 21 62 13 be
       0.036428478 0.035546735 0.029228607 -0.14392902
000130 c1 29 03 be 85 f5 89 bd 67 96 23 3c 3f 94 1c 3d
       -0.12808897 -0.06736282 0.009984589 0.038227316
000140 c5 67 0d bd 0f 6c b0 3d d6 d5 f6 bb 36 a3 1c 3d
       -0.03452279 0.086143605 -0.0075328154 0.038241588
000150 e6 aa a0 3a 5f cf f7 bd 6a d1 c8 3d 22 f5 0f 3c
       0.0012257963 -0.121001 0.098055676 0.008786472
000160 36 2b ed bd 3e 98 01 be 71 06 1c 3d 1e d3 43 bc
       -0.115805075 -0.12655732 0.03809208 -0.01195219
000170 45 86 ca bd a6 9e 3d be 14 92 f6 bd 5f e4 82 bc
       -0.09888891 -0.18517551 -0.12039581 -0.015978036
000180 2c 5c 39 3d 26 6a 81 bd af 56 6d 3d b9 de e3 3d
       0.045253918 -0.06319074 0.057943996 0.11126465

stacks.0.blocks.0.fc3.weight f4 [100, 100]
000000 54 08 53 bc 22 29 d1 3d 03 8a 70 be 7a 97 e0 bd
       -0.012880404 0.102129236 -0.23490147 -0.10966392
000010 71 04 61 be 24 3a 7e 3d ed a0 6e 3d 51 71 95 3d
       -0.2197435 0.062067166 0.05825894 0.07297004
000020 4a 86 61 3d 36 b1 81 be 6c cd 0f 3d 03 f8 1e bc
       0.05505971 -0.25330514 0.035108015 -0.009702685
000030 65 4e 32 3e 97 50 0e be 34 98 59 bd b3 02 9f 3d
       0.17412718 -0.1389793 -0.053123668 0.07764187
000040 a8 24 d4 bd 89 da 83 3d 55 a8 78 bd 1e a2 af bc
       -0.10358554 0.06438167 -0.06070741 -0.021439608
000050 67 7d 90 3d 0c 27 1a 3d d1 65 06 3e 9c 54 a3 bd
       0.070551686 0.037634894 0.13124777 -0.07975122
000060 4d 08 4e 3e d1 16 9a 3d 6d 8a 7e 3d 14 01 98 3d
       0.20120354 0.07523883 0.06214373 0.07422081
000070 02 22 87 3d 22 ec d9 bd 2c 1a 4b bd 11 44 e7 3d
       0.06598283 -0.10640742 -0.049585506 0.112922795
000080 41 bb 98 be 33 66 a2 3d 01 ba 1e be f9 1f 3a 3d
       -0.29830363 0.07929649 -0.15500642 0.045440648
000090 a8 d7 0b 3d ed a9 0e be 46 7f bf bd 37 13 84 3d
       0.034141213 -0.13932009 -0.09350447 0.064489774
0000a0 4a db 0a 3e c1 26 57 bd 93 16 eb 3d a3 d4 99 3d
       0.13560215 -0.052527193 0.11478915 0.0751126
0000b0 57 34 cb 3d ac 94 0d bd 02 d4 4c be 5c 13 07 be
       0.099220924 -0.034565613 -0.2000275 -0.13190979
0000c0 2d 1e 86 bd ac 65 92 3d 5c 13 e0 3c 61 e4 fb be
       -0.06548724 0.071482986 0.027352981 -0.49197677
0000d0 dd 8f 8c bc d1 a1 98 bd a3 80 cc bd 73 77 34 be
       -0.017158443 -0.07452739 -0.09985473 -0.17623691
0000e0 53 51 8a 3d e7 3a 83 bd f3 cd 99 bd 27 9b 47 be
       0.067537926 -0.06407719 -0.07509985 -0.1949278
0000f0 c8 23 8d 3c f7 c5 03 be 87 8b 85 3c d7 d9 2e be
       0.017228976 -0.12868486 0.016301883 -0.17075287
000100 f7 56 32 3d 1c 63 c7 ba dc 0f f6 3c 85 e4 2b bb
       0.043539967 -0.0015212032 0.03003686 -0.0026228738
000110 4e ee af bd 71 33 9a 3e e2 bd f8 3c 52 22 5b bd
       -0.08590375 0.30117372 0.03036398 -0.053499527
000120 b6 f9 fb 3d 41 4d 4a be 77 92 9e bc ad a6 21 bd
       0.12303488 -0.19756033 -0.01935695 -0.039465595
000130 95 42 ee 3d b6 56 04 bd bd 90 bd 3d 8c d9 5c be
       0.11633793 -0.032309256 0.09256122 -0.21567363
000140 a7 30 7b bc 93 11 7f be 28 7a 16 3e 41 ec 51 be
       -0.015331424 -0.24909048 0.14695036 -0.2050028
000150 82 58 64 3d 82 aa ff 3d 21 69 b1 3d cd 69 f2 bd
       0.05574847 0.12483694 0.0866263 -0.11836586
000160 a3 9c 20 bd f0 49 0f bd f4 42 85 bd 73 41 a2 3c
       -0.03921188 -0.03498262 -0.06506911 0.0198066
000170 88 d5 3c bd 76 99 f3 3d a3 30 21 3b 75 6d 33 be
       -0.046102077 0.11894505 0.002459564 -0.17522223
000180 4a 59 ea 3c 92 e6 d7 bd 73 a8 7f bd 5a e6 28 be
       0.02860703 -0.10542025 -0.062416505 -0.16494122
000190 80 de 75 3c 80 3b 84 3c d9 37 2b bd 29 38 33 be
       0.015006661 0.016141653 -0.041801307 -0.17501892
0001a0 e2 2a 4b bd 9e a8 e3 bd d2 ab 7f bd 18 06 90 3d
       -0.049601443 -0.111161456 -0.06241972 0.07032412
0001b0 78 37 e8 3d 18 34 ae bc e5 84 32 bd 37 ae 4e bd
       0.11338705 -0.021265075 -0.04358377 -0.050459113
0001c0 08 66 e2 bc 75 de 31 3e a4 1e 30 bc dc 4d 11 be
       -0.027636543 0.17370017 -0.010749493 -0.14189857
0001d0 6e 7a ea bc df a0 2b be 7b ed a3 3a 7c e0 d2 bd
       -0.028622832 -0.16760586 0.0012506688 -0.10296723
0001e0 33 a7 42 be 32 b5 54 3c e8 77 35 be 7c 1f 79 3d
       -0.19009094 0.012982653 -0.17721522 0.06082104
0001f0 ce 02 25 be 62 8b e1 3c b4 41 93 bd 3a 82 cc bc
       -0.16114351 0.027532283 -0.07190266 -0.02496444
000200 c4 9e 83 bd 91 b3 34 bd fe 20 bf bd 70 13 ec ba
       -0.064267665 -0.04411656 -0.09332465 -0.0018011164
000210 8c 0c 04 3f 50 c5 0c bd 50 12 32 bd 48 a3 b1 3d
       0.51581645 -0.03436786 -0.043474495 0.086737216
000220 9d a6 37 ba 7b 92 b9 3d 02 0e 41 3d de dd 23 bc
       -0.00070057233 0.09061142 0.0471325 -0.010001628
000230 bc 07 65 3d fb e6 a7 bc 41 4a 9f bc 1c 77 2c 3c
       0.05591558 -0.020495882 -0.019444587 0.010526445
000240 22 87 86 bd 04 9d eb 3d f2 ef 90 bd 82 c3 8e bd
       -0.06568743 0.11504558 -0.07077016 -0.06970884
000250 b2 51 ca 3d 90 b0 a9 3d 48 ec c4 bc f1 70 98 bd
       0.098788634 0.0828563 -0.024038449 -0.07443417
000260 34 7c 36 bd 97 33 49 3d 56 cc 95 bd ed e2 84 3c
       -0.044552043 0.049121466 -0.073143646 0.016221488
000270 89 58 ad bc 66 c6 38 3d bd 83 ff bc f8 96 12 3e
       -0.02116038 0.045111082 -0.031190747 0.14315403
000280 e9 86 79 bd aa b8 85 bd 5f b8 a4 bd 9f 01 95 3b
       -0.060919676 -0.065293625 -0.080429785 0.0045473124
000290 59 ee df bd 72 70 fb bd db 19 04 be 39 05 de 3c
       -0.10934133 -0.122773066 -0.12900488 0.0271021
0002a0 4e ab a6 3d f6 3c 4b be ac 73 4c bd c5 af 96 3d
       0.081381425 -0.19847474 -0.049915 0.07357744
0002b0 69 54 b7 3c 67 b5 bb bd fc 3d 9f bd 27 bf 39 3c
       0.022379117 -0.09165459 -0.077754945 0.011337078
0002c0 3c 20 a8 bd bc d6 cd 3d cf c6 a9 3c ea 24 68 3b
       -0.08209273 0.10050723 0.020724682 0.0035422393
0002d0 a1 ea 04 bd dc 3e f1 bc a1 d3 04 be 67 98 7b bc
       -0.032450322 -0.029448919 -0.12971355 -0.01535616
0002e0 d4 a8 de 3d ee da 97 3d a6 9e 1c bc 72 15 f4 3d
       0.10872045 0.074148044 -0.009559309 0.11918153
0002f0 75 ad dc 3c dd 70 d3 3b 96 dd 05 bd 62 2e 9b 3c
       0.02693818 0.0064526633 -0.032682024 0.018943015
000300 c2 ea 4c 3d fa 0f b8 bd 9e 17 0c 3d b8 a9 28 be
       0.05002857 -0.08987422 0.03420221 -0.16470993
000310 fa 7d cb bd 90 e4 94 bc 66 fe 88 3d 1e c2 05 be
       -0.099361375 -0.018175393 0.06689148 -0.13062331
000320 26 8c 5e bd 6d b7 5b bd 85 09 da bd 7c b6 56 bd
       -0.054332875 -0.053641725 -0.10646347 -0.052420124
000330 00 1f 0d 3d 41 85 c2 3d b7 fa fe bd 91 68 c8 bd
       0.034453392 0.094980724 -0.12450164 -0.097855695
000340 48 0c 90 3d de 4c a1 bd 15 78 88 bd 72 e4 19 bd
       0.070335925 -0.078759894 -0.06663529 -0.037571378
000350 65 23 94 3e 61 16 3d be ae 0b 3e 3e 8e 68 54 bc
       0.28933254 -0.18465568 0.18559143 -0.012964381
000360 dc 01 6f 3d 56 a9 b0 be c2 be bd 3d 9c 8e 72 be
       0.058351383 -0.34504193 0.092649 -0.23687214
000370 11 22 5b be c4 ec 03 3e 68 ea 9f 3d 21 56 f9 bd
       -0.21399714 0.12883288 0.07808381 -0.12174631
000380 d9 a9 0e be df 3c b5 3b 06 16 55 3c 7a 45 f1 bc
       -0.13931979 0.005530938 0.013005739 -0.029452074
000390 32 85 7a bd c1 b7 8c 3d cd 93 9c bd 27 12 ca bc
       -0.06116218 0.06870986 -0.07645378 -0.024666859
0003a0 28 45 7c 3e ea ec f0 3b dd b7 ed bd 70 f1 d1 bd
       0.24635756 0.007352461 -0.11607335 -0.10251129
0003b0 61 53 18 be 8b d7 eb bd a3 1e cd bc f6 c1 69 be
       -0.14875557 -0.11515721 -0.025039023 -0.22827896
0003c0 c9 12 ee bc 7e 17 8e bd b6 b5 5f 3d 54 41 8e bd
       -0.029061692 -0.069380745 0.054616652 -0.06946054
0003d0 4b c9 1a b9 5b c3 f5 3d 9d 47 8b bc fc f7 8f bb
       -0.00014761572 0.12000152 -0.017001921 -0.0043935757
0003e0 bd 7c 36 bd 1f ca 6c bd 27 88 51 3d 8c ed f6 bb
       -0.044552553 -0.057809945 0.051155236 -0.007535642
0003f0 da 14 83 bd 7d 0e f6 bc de 64 2a bc 9d 1f ad bd
       -0.064004615 -0.030036205 -0.010400025 -0.084532954

stacks.0.blocks.0.fc3.bias f4 [100]
000000 f8 1f b0 ba 45 20 aa bd 75 9e b9 bd 2b 0e f0 ba
       -0.0013437262 -0.08306936 -0.090634264 -0.0018314769
000010 df d7 1d bd 33 d4 d3 3b 10 fd cc 3c 4d 42 01 3d
       -0.03853595 0.006464505 0.025023013 0.03155737
000020 c1 fb 48 bd 76 28 27 3c 5f 29 53 3d 2c 6e 3c 3c
       -0.049068216 0.010202518 0.051553126 0.011500876
000030 35 b3 81 3d 1a 1b d9 bd ba b1 83 bc c4 fa 84 bc
       0.06333009 -0.10600872 -0.016075958 -0.016232856
000040 83 fb 64 3d 42 8b b6 bd e1 db 18 3c 81 c2 c5 3c
       0.055903923 -0.0891328 0.009329767 0.024140598
000050 8e b7 a4 bd 0b c7 00 3d 62 d3 0f 3d 27 d2 6c bd
       -0.08042823 0.031439822 0.0351137 -0.057817604
000060 e6 76 b2 3d 7d 02 b1 3d f6 5b fe 3c af 0e e6 bd
       0.08714084 0.08643053 0.03104971 -0.112332694
000070 a0 68 fc bb 33 21 40 be 57 7c f5 bd 4b b4 f5 bd
       -0.007702902 -0.18762664 -0.119866066 -0.11997279
000080 9b 6f 20 3d 6f 9f 08 be 50 db 30 3d e5 28 c6 bd
       0.039168935 -0.13342069 0.043177903 -0.09675769
000090 f8 30 2b be 0d 41 02 bd 65 b7 02 bd 07 a2 00 bc
       -0.16717899 -0.03180032 -0.03191318 -0.00785113
0000a0 a1 4d 71 3d db 59 a2 3d ab e1 ff 3c ba 44 90 3c
       0.058911923 0.07927295 0.031235537 0.017610896
0000b0 cd d0 a4 bd e0 32 70 3d 09 32 a4 bd f1 61 f1 bd
       -0.08047638 0.05864227 -0.08017356 -0.11786259
0000c0 59 d5 c3 bc 93 72 b4 bd d3 8a af bd c8 08 ac bd
       -0.023905443 -0.08810916 -0.085714005 -0.084001124
0000d0 f5 52 61 bb 14 80 56 3d a1 5a fc bd 43 7d 2a 3d
       -0.0034381722 0.05236824 -0.123219736 0.041623365
0000e0 f2 a2 1a 3d df 45 a6 bb 20 be 4c bd 64 f5 b0 3d
       0.037753053 -0.0050742473 -0.049986005 0.086405545
0000f0 cc 8b 88 3d b0 c5 84 3a be 35 12 be 6d 59 92 bb
       0.06667289 0.0010129716 -0.14278314 -0.004466227
000100 19 6f 12 bc 2e 3c 3c 3d 35 3b 0e be 40 18 88 bc
       -0.008937621 0.04595583 -0.13889773 -0.016613126
000110 17 6f 32 bb 62 2c 3d bb 09 af a4 3d fb 15 bb bd
       -0.002722686 -0.0028865566 0.08041198 -0.09135052
000120 c4 ac 5a 3d 78 0d 21 3d c1 9a f2 bc 13 2d 8f 3d
       0.05338742 0.039319485 -0.029614808 0.06991019
000130 62 29 36 bd 82 c2 13 bc 95 9c dc bd 42 c1 79 3d
       -0.04447306 -0.009018542 -0.10772053 0.06097532
000140 47 32 6b bc 1b 42 01 3d 47 f7 92 3d 7a 99 05 be
       -0.014355249 0.031557184 0.07176071 -0.13046828
000150 29 af ab 3d c9 bf 1f bc 3f be e5 bd 87 24 7c bc
       0.083830185 -0.009750315 -0.11217927 -0.015389568
000160 8d 86 b8 bd 4b a9 41 3d cd 89 56 3d 34 20 55 be
       -0.090100385 0.04728059 0.05237751 -0.20813066
000170 bb 1c 14 3c 7f f0 92 bd a7 07 0a bc 73 ae dd 3c
       0.009040053 -0.07174777 -0.008424676 0.027060723
000180 c6 98 a0 bc f2 d1 06 3d 17 5e f3 ba 48 c4 8f 3d
       -0.019604098 0.032915063 -0.001856747 0.070198596

stacks.0.blocks.0.fc4.weight f4 [100, 100]
000000 0c 9a ba 3c 99 56 ca 3c b5 ab 2c 3c 53 b3 aa bd
       0.022778533 0.024699496 0.010538985 -0.08334985
000010 26 df 81 3c b9 f2 9b 3d f9 da 5e bd 10 31 af bd
       0.015853476 0.07614655 -0.054408047 -0.0855428
000020 3c 3b 39 3d 4f 1c a2 3b 2d 0e e7 bd b7 ca bb bd
       0.045222506 0.0049472223 -0.11282001 -0.09169524
000030 81 9d 8e 3d 23 39 2b bd b1 39 01 3d d4 5c d6 3c
       0.06963635 -0.041802537 0.03154916 0.02616731
000040 fc 62 89 bd 0e b7 64 3d d8 b4 b0 bd 24 3a 1f bd
       -0.06708333 0.055838637 -0.08628243 -0.038873807
000050 fc 25 70 3d d5 15 9a 3c 2d e4 bc 3d 88 72 0b be
       0.058629975 0.018809238 0.092232086 -0.13617909
000060 2b b9 9a 3d 64 40 5b 3d c4 6a ba bd 71 f8 5e bd
       0.07554849 0.053528205 -0.09102395 -0.05443615
000070 e0 62 0e bc 55 09 a3 bc 20 d1 ae bd 3a 0c 48 3d
       -0.008690566 -0.01990191 -0.08535981 0.048839785
000080 74 d0 ce bd e9 d9 0d bc 29 94 be 3d d7 1e 7b 3d
       -0.10098353 -0.008657911 0.09305603 0.061308708
000090 b8 5b ab 3c ec 97 0e 3b 2c 05 a0 bd 3a b0 a1 bd
       0.020917758 0.0021758033 -0.078134865 -0.07894941
0000a0 4c d7 80 bd 35 4f c1 bd de f5 97 3d fe 4a 4c bd
       -0.062910646 -0.09438936 0.07419942 -0.049876206
0000b0 24 dd 4e 3d 61 a6 de bd 9d d1 6a bd dc 22 9d 3d
       0.050503865 -0.10871578 -0.05732881 0.076726645
0000c0 25 13 be bd 53 1b 73 bd b6 4d 9d bc 18 44 02 3c
       -0.09280995 -0.05935223 -0.019202095 0.007950805
0000d0 c1 8f 48 bd 6d 2f 88 bd fd 84 f6 3b 8c 71 8d bd
       -0.04896522 -0.06649671 0.0075231777 -0.06906423
0000e0 94 7c 54 bd cf 14 a9 bd 10 6d 5b 3c c9 c3 c6 3c
       -0.05187662 -0.08255922 0.013392702 0.02426328
0000f0 28 2e 02 bd 11 df 5e bc e2 dc 48 3d 92 be 7e 3d
       -0.0317823 -0.013602988 0.049038775 0.06219346
000100 98 0e 55 3d 5e d3 e0 bd 57 02 24 bd 8f 07 ea bc
       0.05201587 -0.10977815 -0.040041294 -0.028568057
000110 81 81 c6 3d f8 89 aa 3d 0c 70 a7 3d 78 34 c3 bd
       0.0969267 0.08327097 0.08175668 -0.09531492
000120 8c 2e 39 3d 2f 61 00 3d 01 40 8a bd 46 59 99 3d
       0.045210406 0.03134268 -0.06750489 0.07487731
000130 56 fb bc bd ae bd 42 bd 70 4f 4f bd 6b 50 e3 3c
       -0.09227626 -0.047544174 -0.050612867 0.027748307
000140 45 f4 98 3d ab 1f e4 bd 30 6b 18 3d 8a 4a 66 3d
       0.07468466 -0.11138853 0.037211597 0.05622343
000150 52 63 72 3d aa 8f 48 3c 48 d4 b8 3a 63 9f 9e bd
       0.05917675 0.012241283 0.0014101351 -0.07745244
000160 3d ef 36 bd 3b bc b3 bd 4e d3 36 bd d8 4e 0f 3d
       -0.04466175 -0.087761365 -0.04463511 0.0349873
000170 5d 32 77 3d 00 2f b4 bd a3 06 f1 bc e9 02 a4 3c
       0.060350765 -0.08798027 -0.02942211 0.020020919
000180 74 bf 97 3d d1 7a 26 3d c8 b8 a9 3c d8 4a b4 bd
       0.07409564 0.04064447 0.020717993 -0.08803338
000190 c8 d0 62 bd 15 fc b8 3b da 2a 97 bc dc 97 c9 bb
       -0.05537489 0.005645285 -0.01845305 -0.0061521363
0001a0 f7 8f 8a 3d 2d 7f 39 3d 60 04 49 3d be 4a 23 bd
       0.0676574 0.0452873 0.049076438 -0.0398662
0001b0 a3 35 a2 3d f5 6b 8d bd 12 6e 58 3d a4 78 98 bd
       0.07920387 -0.06905357 0.052839346 -0.074448854
0001c0 6b 3e 67 3d 1e 7a 8a bd f0 a4 43 bd 4a 2a bd bd
       0.05645601 -0.06761573 -0.04776472 -0.092365816
0001d0 6f 81 c6 3d d2 11 48 3d 82 4f 93 3d bf 0d da bc
       0.09692656 0.04884512 0.07192899 -0.026617883
0001e0 e2 b0 3c 3d 5b 6a 84 3d 40 52 1d bc 8d 2c ab 3d
       0.046067126 0.06465598 -0.009602129 0.08358107
0001f0 8e 59 ca bd 73 3b 89 3d a6 ae d8 bb 66 e0 78 3d
       -0.098803625 0.06700792 -0.0066126166 0.060760878
000200 68 f9 30 3d c2 a9 47 3d 31 0d 81 3d 63 31 86 3c
       0.043206602 0.048745878 0.06301344 0.016380971
000210 58 88 b1 bc 51 de 9b bc 40 11 9e 3c 1d 4e ba bd
       -0.02167146 -0.019026907 0.019295335 -0.0909693
000220 f3 7e 96 bd 13 27 8b bd c4 c3 6c 3c e2 89 a1 bd
       -0.073484324 -0.06794562 0.014450971 -0.07887627
000230 a5 f3 c2 bd 17 13 4e bd cc 89 9f 3d 1d 79 8c bd
       -0.09519128 -0.050311174 0.077899545 -0.06859038
000240 d2 cb 63 3d d3 5d c5 bb 16 09 50 3d 50 0f 30 bd
       0.0556143 -0.0060231476 0.050789915 -0.042983353
000250 7f a5 c6 3c 17 56 77 bd 96 92 0f bd 80 e1 9c bb
       0.024248837 -0.060384836 -0.035051905 -0.004787624
000260 c0 94 41 bd 66 7a 2b 3d 25 36 a6 bc a3 9a 9a bd
       -0.047261 0.041864775 -0.02028949 -0.07549026
000270 29 f7 83 bc e9 43 59 bd 36 9c 27 3c 8a 13 88 3b
       -0.016109066 -0.05304328 0.010230115 0.00415272
000280 c7 75 8a bd c0 c6 14 bd c8 89 c4 bd 00 7f 78 ba
       -0.067607455 -0.036322355 -0.09596592 -0.00094793737
000290 fa bf 4d 3d 7f 77 c6 bd 70 49 59 bd 0b 55 ad 3d
       0.05023191 -0.09690761 -0.05304855 0.08463486
0002a0 8c 75 e5 bc 52 9c a9 3c 6f bd a2 3c 0f 93 92 3d
       -0.028010152 0.020704422 0.01986572 0.071569555
0002b0 11 8b a2 bd 80 d4 6a bd 79 b7 94 bd 47 0b a6 3d
       -0.07936681 -0.057331562 -0.07261557 0.0810762
0002c0 a0 fa 19 bb 34 06 d6 bd c3 6f bf bd 78 54 6d 3d
       -0.0023495331 -0.10450402 -0.09347489 0.057941884
0002d0 a9 05 ac bb 91 14 b9 bc 57 cc 98 3d 6b b7 88 3d
       -0.005249698 -0.022592815 0.0746085 0.06675609
0002e0 82 6e 3e 3d 54 20 41 bd dd 46 c8 bc a6 fa 4e 3d
       0.046492107 -0.04714997 -0.024447853 0.050532006
0002f0 50 4d 04 3c 9d f8 72 bd 1f c2 16 3d c9 57 02 3d
       0.008075073 -0.059319127 0.036806222 0.031822
000300 7e 67 a8 3d 94 85 90 3c 7d 5a a7 bd 4b 65 a5 bc
       0.082228646 0.01764182 -0.08171556 -0.020189902
000310 d9 ca 71 3d ee c4 0c 3d 82 55 90 bd 78 93 88 bd
       0.05903134 0.034367494 -0.07047559 -0.066687524
000320 f5 53 02 3e db 0a 8f 3d 7c b3 1c be d5 65 40 3d
       0.1272734 0.069844924 -0.15302843 0.046972115
000330 1f 56 7b be f0 12 d1 3c bc 89 fe 3c c2 1c 8c 3c
       -0.24544571 0.025521725 0.031071536 0.017103557
000340 d8 8e bd 3d 36 31 0a bd 4a b7 02 be 20 6f 13 3d
       0.09255761 -0.033738337 -0.12765232 0.03599465
000350 44 21 78 bd ed 0f bd 3d 26 2a 6d 3e 97 aa 01 bc
       -0.0605786 0.09231553 0.2316061 -0.007914207
000360 3d 18 a6 3d 60 f2 e2 bb c7 de 1a bd 75 17 22 be
       0.08110092 -0.006925866 -0.037810113 -0.1582926
000370 68 57 43 3d b2 1f f3 bd 11 2d da 3d 3e 45 8a bd
       0.04769078 -0.1187128 0.10653127 -0.06751488
000380 a5 ae c6 3c 40 bc 0b be 56 9c 63 3d d0 63 3f bd
       0.024253199 -0.1364603 0.055569015 -0.046726048
000390 05 e1 90 bd 45 66 56 bc 83 21 a5 bd 3b ef 88 bd
       -0.07074169 -0.013085906 -0.080630325 -0.066862546
0003a0 95 05 34 be d3 bb b9 bd d7 14 24 3d cf 20 cb 3d
       -0.17580254 -0.09069028 0.040058937 0.09918367
0003b0 08 5c 9c 3d 1d 1d d2 3b 39 56 75 bd bb 7d 2b 3d
       0.07634741 0.006412162 -0.05989668 0.041867953
0003c0 67 0f c8 3d 4e a8 5a bd 5e fd d0 bd 2d 3f a3 3d
       0.09768563 -0.053383164 -0.10204576 0.07971034
0003d0 84 f7 f6 3c 3b 5d 02 3e ba 32 94 bd aa 3e 47 3d
       0.030147322 0.12730877 -0.07236238 0.048643745
0003e0 9c e2 e3 3d dd 50 8f 3d c0 25 be bd b4 76 b5 bc
       0.11127207 0.06997845 -0.09284544 -0.022151329
0003f0 a1 96 43 3d 33 d4 76 3d b2 e6 53 3c c4 8d dd 3d
       0.047751073 0.060260963 0.01293342 0.10818055

stacks.0.blocks.0.fc4.bias f4 [100]
000000 93 8c 7c bd 15 bb d6 bd b3 46 2a bb 3b d9 4d bd
       -0.0616575 -0.10484902 -0.0025982081 -0.050255995
000010 57 17 3d 3b d8 0e 43 bd f5 98 d9 3c a2 0d 4a 3d
       0.0028853023 -0.047621578 0.026562193 0.049329408
000020 8a 9e ed 3c 18 4f c7 3d 46 74 03 3d c2 07 1f 3b
       0.029006261 0.09731883 0.03209331 0.0024266099
000030 09 37 c5 3d 9d 25 52 3d 63 c2 23 be bc 0a cb 3c
       0.09629638 0.051305402 -0.15992121 0.024785392
000040 64 dd 65 bd 5f 45 95 3c 49 08 f8 bc 4b ac 85 3d
       -0.056119338 0.018221555 -0.030277388 0.06527003
000050 6a 11 65 3c 56 d0 96 bd 6f e1 96 3c f4 64 1b 3d
       0.013981203 -0.07363956 0.018418042 0.037938073
000060 a1 1a d9 3c 5b 8a 60 bd c2 99 7d 3d 9a c4 40 bd
       0.026501955 -0.054819446 0.061914213 -0.047062494
000070 51 ed b4 bd 77 f3 f9 3b c7 9b dc bd 07 eb 91 bc
       -0.08834327 0.0076279 -0.107719 -0.017812265
000080 e2 e3 d9 3c 31 6f 1d bc 8b 0b cf bd eb 3f 19 3c
       0.02659792 -0.00960903 -0.101096235 0.009353618
000090 48 b3 b5 3d 31 07 fe bd 22 fd 02 be 31 f9 fc 3d
       0.08872086 -0.124037154 -0.12791875 0.12352217
0000a0 5e ba a4 3d ea 03 d0 bc e7 e7 2c be 4a d5 37 bc
       0.08043359 -0.025392491 -0.16885339 -0.011220286
0000b0 b9 57 46 3d 25 46 01 3d 50 8d c2 3c 77 bb 9b bd
       0.048423503 0.031561036 0.023749024 -0.076041155
0000c0 cf 84 c3 bd eb a2 90 3d 47 47 94 3d c4 69 69 bc
       -0.095468156 0.07062324 0.072401576 -0.014246408
0000d0 23 f6 82 3c 46 ce ad 3c 6d df 38 bb 29 c2 c4 3c
       0.015986508 0.021216523 -0.0028209344 0.024018364
0000e0 dd 82 a5 bd 15 49 dc bd 50 c5 2d 3d 41 42 97 bd
       -0.08081601 -0.10756127 0.0424245 -0.07385684
0000f0 d6 24 c3 bb 32 fa b0 bc 26 33 ed bd c1 e3 ae bc
       -0.005955319 -0.021603677 -0.115820214 -0.021348836
000100 68 e7 14 bc db f9 88 bd db 80 50 bd f3 1f 69 bd
       -0.009088375 -0.06688281 -0.050904136 -0.056915235
000110 de 83 b5 bc bd 90 d7 bd 86 99 00 bd b1 ef cd bd
       -0.022157606 -0.105256535 -0.03139641 -0.10055483
000120 6d 29 56 3d 01 22 09 be b4 50 11 be 34 d2 67 bd
       0.0522856 -0.13391878 -0.14190942 -0.05659695
000130 3b 7c 68 3c 00 08 aa bd 5a 5b 22 bc be 7e 8c 3b
       0.014189775 -0.08302307 -0.009909475 0.00428757
000140 60 37 1e 3c 6f ef ae 3d 22 fb ab bd 8e 28 c6 3c
       0.009656757 0.08541762 -0.08397509 0.02418926
000150 ca 90 7d bb e7 25 fa bd 99 60 2a bd 5a 16 e9 3b
       -0.0038691037 -0.122142605 -0.04159603 0.00711326
000160 0b 5c 84 3d 58 33 ce 3c c0 d6 c3 3d e0 40 a7 3c
       0.06462868 0.025170967 0.09562445 0.020416677
000170 4e 20 87 3d 1d 5e de bd 00 4d c1 bd 16 f3 00 3d
       0.065979585 -0.108577944 -0.09438515 0.031481825
000180 6f ac 16 bc cf ab 96 3d 09 36 a9 bc 8c 41 28 bc
       -0.009196385 0.07356989 -0.020655649 -0.010269534

stacks.0.blocks.0.theta_layer.weight f4 [31, 100]
000000 5f 84 75 bd c5 8e 13 bc 7b 11 43 bd 3d 87 60 3c
       -0.059940692 -0.009006207 -0.047624093 0.013704118
000010 c1 0b 9b 3c b4 a9 97 3d f0 b9 ee bc 7f 6d 6b 3b
       0.018926503 0.07405415 -0.029141396 0.003592342
000020 ba 50 42 bc b7 c1 6e bd 09 bf 47 bd fb f2 f9 3d
       -0.011860067 -0.05829021 -0.04876617 0.12204548
000030 2d 24 58 bd 54 a9 6c 3d 6d 0f 99 3d e6 ac 73 3d
       -0.052768875 0.05777867 0.07473645 0.05949106
000040 82 ac 97 bd 42 3b b8 3d 18 31 d3 3d ca 6d 9c 3c
       -0.0740595 0.089956775 0.10312098 0.01909532
000050 22 67 6f bd 61 7c b3 3d 21 69 d7 3d de 45 6d bd
       -0.058447964 0.08763958 0.105180986 -0.05792796
000060 18 92 3f 3d 4c 92 99 3d d6 97 c8 3d 14 55 85 bb
       0.046770185 0.07498607 0.097945854 -0.00406898
000070 9e 81 55 bd 06 d4 bd 3c df 86 b6 bd 73 fc f0 ba
       -0.052125566 0.02317239 -0.08912443 -0.0018385783
000080 ac d1 0f bd f8 6b 87 bd b9 47 03 3e 81 b6 0e bd
       -0.035112068 -0.0661239 0.12820329 -0.034842018
000090 f5 02 d7 3d 93 a2 b2 bd 86 35 22 3d e1 c7 4c 3d
       0.10498611 -0.08722415 0.039601825 0.049995307
0000a0 0f d7 23 bc 05 39 27 3d a6 39 ff bb 2a e8 c8 3d
       -0.010000004 0.040825862 -0.0077888547 0.09809907
0000b0 1e 0d 19 3e ab df 51 3d 00 1a 88 3d 70 ef aa 3d
       0.1494641 0.051238697 0.06645584 0.0834645
0000c0 49 63 3a bd f5 bb 5a bd 14 9a ab 3d dc 27 e6 bd
       -0.045504842 -0.053401906 0.083789974 -0.11238071
0000d0 fe e8 57 3d 4d 0f 09 3d b2 6b b0 3d 6d 8c 15 3e
       0.052712433 0.033461858 0.08614291 0.1460435
0000e0 3c 7d 2f bc 55 64 4f 3d cb b5 6c bc ae 02 fc 3d
       -0.010711011 0.050632793 -0.01444764 0.123051986
0000f0 87 db 36 bd 87 43 14 be a6 1c ac 3d e6 3b 7e bb
       -0.04464295 -0.14478885 0.08403902 -0.0038793026
000100 21 9a b2 bc 1c 79 c2 3d 06 e3 fb 3d 26 37 16 bd
       -0.02180201 0.09495756 0.12299161 -0.036673687
000110 07 33 04 3c 1a ef 1a 3c 71 64 66 3d 38 e8 72 bd
       0.0080688065 0.00945642 0.056248132 -0.059303492
000120 53 ad a3 3d e6 1f eb bd 3c 1e 06 3e fe ed 61 3d
       0.07992043 -0.114806935 0.13097471 0.055158608
000130 13 e5 05 3e 98 14 11 3d a4 f2 76 3c db d0 a4 3c
       0.13075666 0.03542003 0.0150724985 0.020119121
000140 ef 74 c4 3d 79 c1 73 bd 06 b9 2f 3d dd 23 4e 3e
       0.09592616 -0.05951068 0.04290106 0.20130868
000150 41 5d f8 3b 34 86 8f 3b a2 6a ed 3d c1 83 c0 3d
       0.007579476 0.004380012 0.11592604 0.0940013
000160 2c de bd 3d 82 b6 0c bd 5a dc 86 bc 4c 9a 3f 3c
       0.092708915 -0.03435374 -0.016462494 0.011694502
000170 9f 2f 91 bd 1e 39 56 3c 8f 86 da bd be ab 19 3d
       -0.07089161 0.013075141 -0.10670196 0.0375173
000180 32 ea 1d 3e 8a 1b 4b 3d f7 7b 7c 3d f0 ae c7 bb
       0.1542137 0.04958681 0.06164166 -0.006093852
000190 43 09 62 3c d1 76 b8 3d 84 00 7b 3e 9a 59 69 bd
       0.0137961535 0.090070374 0.24511915 -0.056970216
0001a0 da cf 0c 3c 1c 09 93 bd 47 04 8a bc 9b fc b0 bc
       0.008594478 -0.07179472 -0.016847743 -0.021604827
0001b0 6f 43 4c 3d eb 38 88 3c b6 2d f3 3b d0 8c b1 3c
       0.049868997 0.016628703 0.0074212207 0.02167359
0001c0 0a ec a2 bd 16 8f 50 bb 8e e8 75 bd 66 c5 02 bd
       -0.07955177 -0.0031823567 -0.060036235 -0.031926535
0001d0 c7 91 e1 3d e1 5b 4b 3d 85 2d 64 3d ee 9a 26 3d
       0.11014133 0.04964817 0.055707473 0.040675096
0001e0 4c b3 bf 3d d6 41 1b 3d 1e c2 24 be 18 5c f3 bd
       0.0936037 0.037904583 -0.16089675 -0.118828
0001f0 ac 44 34 3e ec 45 b1 3d 3a 2f de 3d 2a 0f 81 bc
       0.17604321 0.08655915 0.108488515 -0.015754301
000200 ed 1c 1d 3d dc 3b 31 be f3 09 39 bc 90 27 44 ba
       0.038357664 -0.17307991 -0.011293876 -0.0007482702
000210 28 eb 15 bd 55 c9 10 bd 76 79 9b 3c 17 68 85 bd
       -0.036601216 -0.035348255 0.018978816 -0.06513994
000220 29 5e ad bd 6c 7a 2c 3d e7 03 c2 bc 86 29 5b be
       -0.08465225 0.042108938 -0.023683501 -0.21402559
000230 f3 ce d5 3d 65 0a 21 3d 55 e7 e3 3d 79 62 2d 3d
       0.10439863 0.039316554 0.111281075 0.04233024
000240 29 6a 52 bd c1 c5 15 3d 06 c8 c8 3d 69 7c b0 3d
       -0.051370773 0.036565546 0.098037764 0.08617479
000250 37 d6 02 3d cc da 76 3d 9d a0 4e bd 4a 6d bf bc
       0.031942572 0.060267255 -0.05044614 -0.023367543
000260 98 99 bf 3d a5 6f 0d 3d 33 26 0c 3d 5f 48 82 3d
       0.093554676 0.0345303 0.034216117 0.0636146
000270 e3 94 79 3c 2f 44 e0 bc b3 27 0e 3e 0d 43 93 bd
       0.015233251 -0.027376262 0.13882332 -0.07190523
000280 d6 9a d3 3d e3 52 e2 bd e4 d6 ac 3d 17 7a ac 3d
       0.10332267 -0.11050966 0.08439425 0.08421724
000290 09 00 3b 3e 73 53 8f bd 8e 63 2f 3e 5b e8 c1 3d
       0.18261732 -0.069983386 0.17127821 0.094681464
0002a0 59 76 17 bd 22 b7 15 bd 5d 88 02 bd 80 ca 01 3d
       -0.0369781 -0.036551602 -0.031868327 0.03168726
0002b0 28 ac e7 3d 4f 0e f0 bc d9 c2 1d bd 05 a4 97 3d
       0.11312133 -0.029303698 -0.0385159 0.07404331
0002c0 39 49 23 3c 6e 4a 8d 3d c1 d8 bb 3d b0 2e 0a 3e
       0.009966188 0.06898962 0.09172202 0.13494372
0002d0 78 23 ed bd 59 ac 4d be 02 d7 99 bd 8a 7a 4e be
       -0.11579031 -0.20085277 -0.075117126 -0.20163932
0002e0 fb 56 44 3d 52 b6 2f 3e 59 21 83 3e 65 a1 27 be
       0.047934514 0.17159393 0.2561138 -0.16370161
0002f0 ea e3 95 3d 70 20 67 bd 15 93 d7 3d 69 48 5d bd
       0.07318862 -0.05642742 0.105261005 -0.054024134
000300 d0 e8 f9 bc 93 91 ed 3c 48 48 ac 3d 3b 86 1f be
       -0.030506521 0.02900008 0.08412224 -0.15578549
000310 f1 22 23 3d 8d 21 94 3d 6e 03 31 3d 8b 93 34 3c
       0.039828245 0.07232962 0.04321616 0.011021505
000320 44 e4 70 3d 22 33 17 bd 87 ad a7 bd e6 1a b3 3d
       0.05881144 -0.036914 -0.081873946 0.08745365
000330 54 83 d6 3c 58 8e b1 bd a3 96 8e bd a2 52 4d bc
       0.026185669 -0.08669728 -0.069623254 -0.012531908
000340 a2 66 86 bd 07 64 f1 3c 07 4e e3 bd cd b3 bb 3d
       -0.065625444 0.029466642 -0.11098867 0.09165154
000350 07 79 d5 3d 29 6f d4 bd c6 66 14 be 85 85 9b bd
       0.10423475 -0.103727646 -0.1449233 -0.07593826
000360 23 24 e9 3d 3b 99 59 bd a6 a8 8d 3d 98 a1 b2 3c
       0.11383846 -0.053124648 0.06916933 0.02180557
000370 3b 56 d9 3d 5f b7 ba bd 94 18 af bd 32 d6 9f bc
       0.1061215 -0.091170065 -0.0854961 -0.019511316
000380 ed 2e 54 3d 50 6a 89 bd d8 96 f3 bd 52 53 a2 bd
       0.051802564 -0.067097306 -0.118940055 -0.07926048
000390 a1 bd 2a 3d a1 6e 39 be 7c 7a 8d bd 23 28 3f bd
       0.04168475 -0.18108608 -0.06908128 -0.046669137
0003a0 ef 10 ee bc b2 ba 28 3d ca 82 8c 3c ee 39 d3 bc
       -0.029060809 0.04119367 0.017152209 -0.025784459
0003b0 1d 6d 8b bb dc 36 29 3d 91 e5 c0 3c 8d 7c 27 bd
       -0.0042549507 0.041312084 0.023546966 -0.040890265
0003c0 80 15 5f 3b 14 55 d4 bd f4 db ed bb 68 f6 96 3c
       0.0034039915 -0.1036779 -0.0072588865 0.018428043
0003d0 87 da aa 3d b1 fd b8 bd 9b 3b 4e bd 26 64 96 3d
       0.08342462 -0.09032763 -0.050349813 0.073433205
0003e0 b5 73 5a bc b5 7e 08 3d dd 63 93 3d 3a 71 5b 3b
       -0.013333251 0.033323962 0.07196782 0.0033484236
0003f0 24 b9 0a 3d 87 c2 37 bd 1c aa 9d 3d 61 5e 0a 3d
       0.03386797 -0.04486325 0.076984614 0.033781413

stacks.0.blocks.0.theta_layer.bias f4 [31]
000000 bc 60 c9 3d 67 39 9f 3b d5 7e 94 bd 8e 79 b6 3d
       0.09832904 0.004859138 -0.07250754 0.089099035
000010 c1 9d 51 bd 1a 88 9e bd 26 5b 3c bd de ff ac bd
       -0.051175836 -0.07740803 -0.045985363 -0.0844724
000020 eb bb e8 ba c5 c5 96 bd c7 f8 eb bd 60 81 8b bd
       -0.0017756199 -0.0736194 -0.1152206 -0.06811786
000030 76 0e 32 3d 4c 0b f0 3c 7b 61 b8 bd fa 53 f0 bb
       0.043470822 0.029302262 -0.09002968 -0.0073342295
000040 16 a5 fb bc 56 1c 83 3c bb 7d ae bd 86 76 57 3d
       -0.030718368 0.016004723 -0.08520075 0.052603267
000050 1e 3c 8f ba 5e 40 fa bc cb bd 28 3c e7 3d 65 bd
       -0.001092795 -0.03054827 0.010299156 -0.055967238
000060 c7 81 68 3d 66 8e c7 bc cd 3d d1 bb d4 6b 74 bc
       0.05676439 -0.024359893 -0.006385541 -0.014918286
000070 19 25 23 bc e4 a8 87 bd 3a c6 6d 3d
       -0.009957575 -0.0662401 0.05805037
