RNN_models/close_slope_25_5_zscore_15min_t3.pth (torch, 172046 bytes, 30 tensors)

stacks.0.blocks.0.fc1.weight f4 [50, 56]
00000000: e295 afbd dedb 64bd 160c ccbd 8aa8 91bd
00000010: 5a04 b7bc 1d7f b8bd e335 08bd 7eb0 cdbd
00000020: 4312 34bc df9a f1bd 5f76 ca3d 80bb 933d
00000030: a640 7bbb d92f 5239 3046 dabd ed26 acbc
00000040: 306c 8c3d 4d5a 8d3d c53b 97bd ef42 8f3d
00000050: 6cd1 823d 9761 cdbd e15b c0bd 99bb 08bd
00000060: 7aaa e63d 10fe 553c f794 fcbd 3e68 fd3d
00000070: 09dc 05be 6367 5abd 8579 c23d c241 f8bd
00000080: f965 70bd 74c5 5f3d 2a89 aa3d f3d6 0c3d
00000090: 66db d3bd 4678 6d3d cc0e e3bd 1e49 fe3d
000000a0: cca3 9fbd 2dd8 5d3d aaf3 bdbd dd97 94bd
000000b0: 6419 38bc dc59 21bc 508a b83d add4 b23d
000000c0: f2b7 e9bc 73bf 09be 1112 57be 1560 0ebd
000000d0: 2a99 b0bd 74a9 8a3d 0efd 28be edaa ab3d
000000e0: d180 0e3d 4e3b ca3b acac 90bd 3195 9c3d
000000f0: bbcb ebbd 78c0 d9bd 00a8 d8bc 6ca8 55bd
00000100: e637 9cbd dc41 4abd c934 ed3d 52d7 e03d
00000110: c3cc 04be fda9 093d be3e 6bbd df3d f03d
00000120: 98a8 7f3d c41a 903c 98d3 043e 9138 063b
00000130: 9119 07be 1d72 f6bc fe68 94bd 3f2d 75bd
00000140: 2b56 a83d 0fe6 dd3d 6147 023e 5b96 ff3d
00000150: 1287 cdbd 47c2 f2bd 308e 363d 6ea5 ff3d
00000160: c534 e8bd 4cfa 4f3d 846b 8ebd e15f dd3d
00000170: 6899 083e 74a7 11bd 6cff 343d fa3e 5fbd
00000180: 6da2 a33d 152e 6fbd fb70 5e3a f02c e23d
00000190: ca04 c13c fcc3 21bd ebc2 903d 9e80 adbd
000001a0: 84a4 dcbd 5e6d a9bd 4123 71bd bbe5 f4bd
000001b0: c61d 9dbd 9981 05be 76a2 e1bd eab9 76bd
000001c0: 8729 4a3d dec2 9fbd 331a 5fbd 8a65 413d
000001d0: b51a ca3d 7d0c edbb fe6d 61bd 6f17 ccbd
000001e0: b77c e2bd 5e30 963d 9383 e9bd 7b39 823d
000001f0: 6f08 36bd 3989 773b cc61 afbd 556c dd3d
00000200: 981e 8ebd 1c12 f9bb 5530 9ebd 964a 9e3c
00000210: 235f 4fbd 5d85 c8bd 74a5 bc3d 2831 c13d
00000220: d136 b53d e9f5 a6bd a61a b1bd 4146 3ebd
00000230: 1644 053e 4138 6e3c 9742 b03d 6e4c 04bd
00000240: 4ed3 d03d 9265 aebd 63f8 5e3d ec4c 263d
00000250: 4db0 8dbd 089d b8bd 35a4 0a3d c7d7 073e
00000260: e44d fcbd 9a32 a8bd 9fb9 18bc 8963 913d
00000270: 4c2f bf3c ce9c cabd 0c7a 1ebe 37f4 babd
00000280: 3a0f 67bd 64b9 443e f13e 203e f777 28bd
00000290: 763a 413e 7668 e3bc 26df a8bc ba7f 97bd
000002a0: 1b06 093e a1da 043e 408e 8b3d 25d3 8d3d
000002b0: c089 083d c766 093c 13d5 49bd 8adb a8bd
000002c0: bda0 d53d 3d59 d83d 57f5 c0bd eefc 413d
000002d0: 3fce 2b3d 5c23 cbbb ade0 31bc 2fb8 a73d
000002e0: f35b 11be 01ea cf3d db7b 92bc db8b 84bd
000002f0: 604f a53d c873 d6bd 32be a83c 645f 41bc
00000300: 3f76 3ebd bad2 9fbd e8b3 1b3c e297 693c
00000310: 356b 01be 69a0 f03c 1f1d 0a3e 9a29 a43c
00000320: 2767 1fbd 611e 943d 36c0 383d fb28 403d
00000330: cf6d 05be 2318 4f3c 3922 c3bd 14a1 6dbd
00000340: dc53 6f3d 2eaf 443e 5197 22bd ae82 b7bd
00000350: 4140 1d3e f6b2 ab3c a054 913c 8498 54bd
00000360: a9af 803d 4ca8 c73c 2178 943d 51b4 223d
00000370: 12d3 783d b09e c8bd 9849 56bd 4069 dbbc
00000380: 82fb 93bd 75b3 fd3d 7b22 37bd 60fb ddbd
00000390: 69fe bf3d b055 abbd 12cd c03c 3625 bdbd
000003a0: 5a00 f13d 35ba 5fbc 78d1 a03d 4e41 ddbd
000003b0: 0eab fa3c 90e6 043e 8193 af3d c77d 58bd
000003c0: 3968 ab3d adf3 a8bd 1aa8 0ebe 4c00 ed3d
000003d0: 424d 5cbc c1f4 c93d dc50 b73d 79c2 0bbe
000003e0: 1591 0e3d 2a28 b13d 51f7 9dbc bb54 173c
000003f0: 762b 5e3c 93b8 043d 214e 893d 991e cfbd
-0.0857351 -0.055873744 -0.09963243 -0.071122244 -0.022340942 -0.0900862 -0.033254515 -0.10043429
-0.010990682 -0.117971174 0.09885859 0.07213497 -0.0038338094 0.00020044985 -0.106579185 -0.021014655
0.06856573 0.06901989 -0.07384447 0.069951884 0.063876 -0.100283794 -0.093925245 -0.033382032
0.112629846 0.0130610615 -0.123331 0.12373398 -0.13072218 -0.053321254 0.09495834 -0.12121917
-0.058691 0.054631665 0.08326943 0.03438468 -0.10344581 0.05797603 -0.11086807 0.1241629
-0.07794914 0.05416124 -0.09274991 -0.07255528 -0.011236522 -0.009848084 0.09010756 0.08731971
-0.028530095 -0.13451938 -0.21002986 -0.0347596 -0.08622964 0.06770602 -0.16502783 0.08382211
0.034790818 0.0061716205 -0.070641845 0.076456435 -0.11513468 -0.106324136 -0.026447296 -0.052162573
-0.07627849 -0.049379215 0.115823336 0.10978569 -0.12968735 0.03360938 -0.057432882 0.11730551
0.062416643 0.017590888 0.12971342 0.0020480494 -0.13193347 -0.03008371 -0.07246588 -0.059857603
0.0821956 0.10834896 0.12722541 0.1247985 -0.10035528 -0.11853462 0.044569194 0.12482725
-0.1133819 0.05077581 -0.06954101 0.10809303 0.1333977 -0.035560086 0.0441889 -0.05450342
0.07989965 -0.058393557 0.00084854633 0.110437274 0.023561854 -0.039493546 0.07068428 -0.084717974
-0.10773566 -0.08272813 -0.05887151 -0.1195788 -0.076716945 -0.13037719 -0.11017315 -0.060235895
0.04935601 -0.0780084 -0.054468345 0.047215976 0.09868375 -0.0072341547 -0.055036537 -0.09965407
-0.11058944 0.07333444 -0.11402049 0.0635862 -0.044441637 0.0037771 -0.08563575 0.10811678
-0.06939429 -0.0076010358 -0.07724062 0.019322675 -0.05062784 -0.09791062 0.09211245 0.09433204
0.08848346 -0.081523724 -0.08647661 -0.046453718 0.13014254 0.014539779 0.08606451 -0.03229945
0.10196553 -0.08515467 0.0544361 0.040600702 -0.06918392 -0.09014326 0.033848006 0.13265906
-0.12319544 -0.082127765 -0.009321599 0.07099063 0.023337983 -0.09893189 -0.15476245 -0.091286115
-0.056411006 0.19211346 0.1564901 -0.041130032 0.18869957 -0.027759772 -0.020614218 -0.07397409
0.13381235 0.12974025 0.068142414 0.06925038 0.033334494 0.00838632 -0.04927547 -0.08244999
0.10431049 0.10563896 -0.09421795 0.047360353 0.04194474 -0.0061992835 -0.01085679 0.08189427
-0.14195232 0.101520546 -0.017881325 -0.06471988 0.0807178 -0.10471302 0.020598505 -0.011802528
-0.046499487 -0.07803865 0.009503342 0.014257403 -0.12638552 0.029373365 0.13487671 0.020039368
-0.038916733 0.07232357 0.04510518 0.046914082 -0.1303017 0.012640032 -0.09528012 -0.058014944
0.058429584 0.19207451 -0.039695088 -0.08960472 0.15356542 0.020959359 0.017740548 -0.051903263
0.062835045 0.024372242 0.07249475 0.039722744 0.060748167 -0.09795892 -0.05231628 -0.026783586
-0.07225706 0.12387744 -0.044710618 -0.108389616 0.09374697 -0.08365953 0.023535285 -0.09235613
0.11767645 -0.013655235 0.07852453 -0.108034715 0.030599143 0.12978578 0.08573056 -0.052854326
0.08369488 -0.082496025 -0.13931313 0.11572322 -0.013446154 0.09861136 0.089509696 -0.13648404
0.03480633 0.08650239 -0.019282969 0.00923651 0.013560167 0.032402586 0.06704355 -0.10113258

stacks.0.blocks.0.fc1.bias f4 [50]
00000000: 434c 273d ec1e bfbc 0bc1 a5bc 1d16 bc3d
00000010: dc81 acbc c636 b6bd 2971 3e3d 94b1 6e3d
00000020: c139 cebd a49f bf3d 7baf e83d aa43 ac3d
00000030: ed85 0f3d 0a9f c33c a468 3fbe 1a80 6e3d
00000040: ac82 f73d 6320 14be ccf2 173d eb95 c1bc
00000050: 4661 ff3c 45d7 083d 2dee 9b3d d778 a53d
00000060: 5c1f 2d3e 7e05 0c3e 2165 e43c 208a 8d3d
00000070: 65d6 0dbd 3a90 d4bc 773c e9bc e4e1 343d
00000080: 428c 373a 47ba c1bd 21a5 c03d 4c0f f63c
00000090: 3f68 c4bd 9a90 29bd da60 9f3c f64c 27bc
000000a0: 3200 fc3c 410e d4bb 5c7b 233e 20e8 c1bd
000000b0: 927d fcbc 3721 dabc da8e d6bd 79d6 65bc
000000c0: ead9 9e3c b738 ef3d
0.040844213 -0.023330174 -0.020233652 0.09183905 -0.021058016 -0.08897166 0.046494637 0.05827482
-0.100696094 0.09356621 0.11361595 0.084113434 0.03503983 0.023879547 -0.18692261 0.058227636
0.120854706 -0.1446548 0.037096784 -0.023631057 0.031174313 0.033408422 0.07613788 0.08079689
0.16906494 0.1367397 0.027880253 0.06911111 -0.03462829 -0.025947679 -0.028471215 0.04416074
0.0007001796 -0.09459358 0.09406496 0.030036591 -0.09590196 -0.04139767 0.019455362 -0.01021122
0.030761812 -0.0064714258 0.15965027 -0.094681025 -0.030821595 -0.026627166 -0.104764655 -0.014028185
0.019391019 0.116807394

stacks.0.blocks.0.fc2.weight f4 [50, 50]
00000000: 8571 93bd 5987 063d 1425 dd3d 878a e9bd
00000010: d891 903d 7d27 8b3d c407 bfbd 36db cabd
00000020: 2d9d 6cbd b980 d6bc f970 c3bc f3c7 c6bd
00000030: c3cb 7bbd c4ea f2bb d62d 0d3e d912 f9bc
00000040: e29e 61bd 543b beba ee6a b43d 2ae2 bbbd
00000050: 299d 943d 2064 f63d cef8 97bd 804f f13d
00000060: 9b54 133d 6f51 20bc 88ef d53d 43c0 233e
00000070: 546a d93d 15f9 1fbd e48b 063e ec09 c2bd
00000080: 8266 103d bc9d 02be 8f4d 3a3d 861c d03b
00000090: 9a2f 273c a37f 133e 6150 5b3d 4850 a3bd
000000a0: 26c1 9abd 2784 2e3e 6212 1e3b 5031 c8bd
000000b0: e739 213e f675 c7bb 0c0f e63d 7cb4 6d3c
000000c0: e510 f6bb baed 2fbd 3e09 50bd a560 bd3d
000000d0: 661a 1d3e 351a 49bd 4543 d93d 74ef a03d
000000e0: 86a2 9f3d fb02 003e 4a87 01bd 5376 60bd
000000f0: af11 853d 20e4 c83c 3a28 6fbd 5e1e e0bd
00000100: 1a82 103e 283c 35bd 4117 b2bd 6bfa 2abd
00000110: f320 1b3e 5431 b93d c336 503d bc8f 1cbd
00000120: 98ae 44bd e7e2 2e3e ed56 243d c87e f03d
00000130: e4d2 783a f300 1c3e 40e3 ed3d 2e87 b93d
00000140: 2906 2fbc 5adf e53c ce50 183d bbf6 09be
00000150: fd38 2f3d 0cd9 ff3d 15fb 00bd dbb6 9a3d
00000160: 27d8 fabd 4a34 a03d 9bbe b8bd 940e aa3d
00000170: 84b0 abbd b365 1b3d 81f2 30bd cba2 013d
00000180: 12ab 803c 9237 e5bd 69cf bcbc 7cce eb3d
00000190: 342e 233e d634 843c a095 c8bc f22d c1bd
000001a0: 3f6e 75bb 334d 003e 8888 073e 5733 583d
000001b0: efe4 f1bd d4e5 e3bd 28b2 823c 9833 3cbb
000001c0: 048b 2dbd ef90 f63d 02fe d5bd 666b d4bd
000001d0: 9fde 23be 00e8 87bd e026 963b 9698 253e
000001e0: a219 a5bd 1145 cdbc efae acbd c6fc 8d3c
000001f0: 0e68 be3d 16ea 0b3d 5954 a53d 6f30 82bb
00000200: 9545 633d 27ca 933d 98bf 25bd 5d12 ca3d
00000210: 218a b23c 68d4 1e3e 519d 9fbd 9257 983d
00000220: 32a4 d5bd 6ea8 763c 180f 11bd 3d1f 42bc
00000230: fb6d 4d3c df1c 4cbc a58b 6a3b c96f f53c
00000240: e6af 6fbc ddf6 a5bd d6aa c5bb 8cc5 ee3d
00000250: 8a90 653e 6b35 d2bc ef6c e2bd b07f f03d
00000260: d3dd 9dbd 6737 923d b43f 2d3e 4cf3 dbbd
00000270: d82f c539 0661 81bd 719a 123c 941f ebbd
00000280: b167 cfbd 6d3d ef3d f0aa b5bd f90f f6bc
00000290: 9373 b9bd d4b2 02bd ec43 b13d 5b73 b43d
000002a0: 39c0 bdbd 84f9 e1bc 9363 0c3e 3a0f bcbd
000002b0: 79fd 393d be8b 74bd 01c8 493a 9a61 d73c
000002c0: 0205 5cbd efd2 e33d 399b adbd 2e9e 433d
000002d0: 47dd 223e ef65 2dbd 6557 ae3d 93f9 16be
000002e0: 525d 263e c48f a3bd 9821 35bd 94c9 a2bd
000002f0: 2ccc b33d 7607 423d c869 0a3e 763e 8d3d
00000300: be07 58bc 52cb a1bd b8d0 8f3c 770c 5ebd
00000310: 63f0 253e 7e89 05be 6915 da3c e6d8 ae3d
00000320: 227c 1f3d 54ee 57bd 6f24 9f3d 655e c43d
00000330: ade1 f93d 694c 893c 116c dcbd 7283 0e3c
00000340: 40bf 373d a592 d43d f774 8cbd aa56 223d
00000350: 2596 e73d e41c 7abd 95bf b73d 2e9a e3bd
00000360: 7edb 293d 79b9 be3d 668f c03d a2d4 0e3e
00000370: 2e7a 0f3e 8ac0 28bd 1bc4 b5bd 6ec6 06bd
00000380: 92ad debc 9ac9 143e 8832 be3b fff2 e2bb
00000390: d7d4 bbbd 4827 b7bc fff5 6abd 18d3 b1bd
000003a0: 7dcd 493d ef9c 15bd 4c71 cabd 1532 a23a
000003b0: c9be d23d 6bf9 a4bc 0ed0 143e 27ed bc3d
000003c0: a2a5 ea3d 6b34 ed3d 5ac6 943d 1e45 703c
000003d0: 3475 813d fddd 203c 8259 793d b18f e43d
000003e0: b180 433d 8b8b 0d3e b09c e7bc 549c 033e
000003f0: 2491 ea3d 93b7 b93d 05b6 47bd b6af d93d
-0.071993865 0.03284392 0.10798088 -0.11403375 0.070590675 0.06794641 -0.09327653 -0.099050924
-0.057767082 -0.026184427 -0.02385758 -0.09706106 -0.06147362 -0.00741324 0.13787016 -0.030404495
-0.055083163 -0.0014513531 0.08809458 -0.09173997 0.072565384 0.12030816 -0.074205026 0.117827415
0.035969358 -0.00978504 0.104460776 0.15991311 0.106159836 -0.039055903 0.13139302 -0.09474549
0.03525401 -0.12755483 0.045484122 0.0063510565 0.01020422 0.14404158 0.053543452 -0.07974297
-0.075563714 0.170426 0.0024119844 -0.097750306 0.15744744 -0.00608706 0.11233339 0.014508363
-0.007509338 -0.042951323 -0.050790064 0.09246949 0.15342101 -0.04909726 0.10608534 0.07858172
0.07794671 0.12501137 -0.031623162 -0.054800343 0.064975135 0.024522841 -0.058387972 -0.10943292
0.1411213 -0.044246823 -0.086958416 -0.041742723 0.15149288 0.09042612 0.050833475 -0.038223013
-0.048018068 0.17078744 0.04012196 0.117429316 0.00094918744 0.15234737 0.1161561 0.090589866
-0.010682621 0.028060604 0.037186436 -0.13473026 0.042778958 0.1249257 -0.03148945 0.07554408
-0.12248259 0.07822473 -0.0902073 0.08303562 -0.08383277 0.037938785 -0.04320002 0.031649392
0.015706573 -0.1119224 -0.02304812 0.11513993 0.15935594 0.016138475 -0.02448541 -0.094325915
-0.0037449745 0.12529449 0.13235676 0.052783336 -0.11811244 -0.111278206 0.015954092 -0.0028717276
-0.042368904 0.12039363 -0.10448839 -0.10372047 -0.16002892 -0.06636047 0.004582271 0.16171488
-0.0806153 -0.025057347 -0.084318034 0.017332446 0.092971906 0.03415879 0.08072729 -0.003973059
0.05548628 0.07216292 -0.04046592 0.09866784 0.02179438 0.15510714 -0.077936776 0.07438578
-0.104317084 0.015054805 -0.035414785 -0.011848268 0.012538428 -0.012458055 0.00357888 0.02996053
-0.01462934 -0.08103726 -0.006032328 0.11658773 0.22418419 -0.025660237 -0.11055934 0.117431045
-0.07708325 0.071394734 0.16918832 -0.107397646 0.00037610414 -0.06317334 0.0089479545 -0.114806324
-0.101271994 0.11681638 -0.08870494 -0.030036913 -0.09055247 -0.031908825 0.08655533 0.08811065
-0.09265179 -0.027584799 0.1370986 -0.09182592 0.045407746 -0.05970358 0.00076973444 0.026291657
-0.053715713 0.11124217 -0.08476872 0.047758274 0.15904723 -0.04233354 0.08512763 -0.14743643
0.16246536 -0.079864055 -0.04422149 -0.07948604 0.08779177 0.047370397 0.13516915 0.06896679
-0.01318544 -0.079001084 0.01755558 -0.054211106 0.16204982 -0.1304073 0.026621537 0.08537464
0.03893674 -0.05271752 0.07770621 0.09588317 0.12201247 0.016760068 -0.107627995 0.008698331
0.044860125 0.10379533 -0.06858247 0.03963343 0.11307935 -0.06106271 0.08972088 -0.11113392
0.04146909 0.0931272 0.09402351 0.139483 0.14011452 -0.041199245 -0.08875295 -0.03290408
-0.027182374 0.1453003 0.0058043636 -0.00692594 -0.09171455 -0.022357598 -0.057363506 -0.08682841
0.049268235 -0.036526617 -0.09884891 0.0012374545 0.10290296 -0.020138463 0.14532492 0.09224921
0.11457373 0.115822636 0.07264395 0.014664916 0.06321183 0.009818551 0.060876377 0.111602195
0.04773015 0.13822763 -0.028272957 0.12852603 0.114534646 0.09068217 -0.04875757 0.10629217

stacks.0.blocks.0.fc2.bias f4 [50]
00000000: 20ac 4c3d 87f7 793c 193e 153e 6efc 36bd
00000010: 7134 c3bd 0696 ef3d 0898 5f3c c3e5 2ebd
00000020: 93b4 cd3d e220 0c3d 1472 153e 93db 4a39
00000030: b195 9ebd ffbb 8dbd 0f78 83bc 2619 89bd
00000040: 650b 023e 4661 163e 0d06 383d f7f9 9b3d
00000050: 648b b93c 7c20 cfbc 692d 233e 19cd 25bd
00000060: 5622 82bd 946f 1f3e ff6e 7dbd 3118 393d
00000070: 5837 9e3d 54b6 3fbd d6f3 183e 4e14 de3c
00000080: 9c94 053e a6af 0fbe 433f e83d 4657 013e
00000090: bc6e 3c3e aea7 29be 0358 72be 3dc0 c13d
000000a0: 3a7b c3bc aa19 083e c8d3 37bd 654b 8f3d
000000b0: 77fd f13d 4fe9 59be 27d7 b1bc 1508 8d3d
000000c0: 72ca debd 9bd5 863d
0.04996884 0.015256769 0.1457447 -0.04467433 -0.09531487 0.116985366 0.013647087 -0.042699587
0.100442074 0.034211047 0.14594299 0.00019346019 -0.07743395 -0.06920623 -0.01604846 -0.0669425
0.12699659 0.14685544 0.044927645 0.076160364 0.022649474 -0.025284044 0.15935291 -0.0404788
-0.06354205 0.15569907 -0.061873432 0.045189086 0.077254 -0.04680474 0.14936766 0.027109291
0.13044971 -0.14031848 0.11340191 0.12630948 0.18401617 -0.16567871 -0.23666386 0.09460495
-0.02386247 0.1329104 -0.044879705 0.06996802 0.11815923 -0.21280406 -0.021709038 0.06886307
-0.10878457 0.06583711

stacks.0.blocks.0.fc3.weight f4 [50, 50]
00000000: aa73 f33d da59 fbbd 7a52 af3d ff44 9d3d
00000010: 58e3 a33d 6e12 03be f4c9 b13c cb00 bfbc
00000020: 8dd0 f53c 5495 69bd f35e bcbd b53a 0f3e
00000030: a95b 1abe be45 403d 6155 a6bd 7041 703d
00000040: 6aab 153d 64c0 143e af57 063e 9593 843d
00000050: d483 ab3c 8f98 9ebc 737b acb8 20ca f9bc
00000060: 9f96 d1bd ce05 d1bd 40f5 f93d 04a0 df3d
00000070: eda7 373d 88bb 8f3d 038f 1c3e ad80 173e
00000080: e514 603d 28d9 66bd 0afb d3bd 9504 a93d
00000090: 3373 233d c9aa 75bc 5d75 a83d 0d83 14bb
000000a0: 58ac 58bc 7ac8 8bbd e7b5 ab3d f8ff d43d
000000b0: e40e 3d3d 9fdc 3e3d 216a f63d 6d33 a33d
000000c0: a6a4 963d 6994 5d3d fbad 013e fcea cabc
000000d0: f4e4 f8bd 59c3 553d c548 e8bc 5bdb a8bd
000000e0: b59a cabc c10c cb3d 740c 3e3d 8b0b a4bd
000000f0: cc00 8a3c 6aac 87bc a386 18bd 87e2 b23d
00000100: e250 903d d5e7 213e 6718 09bd 7c74 e3bc
00000110: 04f5 f8bd 6895 5a3d e856 28be 8897 78bd
00000120: ac84 eb39 93e5 abbc 8aa1 583d 7886 9b3d
00000130: b5f4 9cbd 39ac 8f38 7ab1 f6bd 37b4 2cbe
00000140: 0883 ecbd 53d3 44bd c22e 233c a312 babb
00000150: e1e6 9abc 1600 a1bd 38eb 94bd 8fcc dabd
00000160: 05d6 2fbe 5ba8 d6bd 6b35 22be 3fc8 c1bd
00000170: 5b59 923d f320 cabd cbe6 633d b67b 2abb
00000180: 89d3 02be f7d1 873d fe6d b2bd 5767 6bbd
00000190: a9eb 273e 56c2 2f3c c89b a7bc d71e 663c
000001a0: 7346 083d 6903 303d 0e88 d2bd a092 b83d
000001b0: d47d ddbd 7f68 813d d614 c6bd 84dc d4bd
000001c0: f834 713d 2ea7 f23d 9c42 183e ce61 d63c
000001d0: 27cb bbbd 7712 b53d 1a47 5abd 5cdc 12be
000001e0: d5d5 78bd 1fb8 c53b 8915 c73d ae8e bfbd
000001f0: 03c1 423d 79e1 d83d 5c10 98bd 007e a33c
00000200: 5615 78bd 38c1 153e a473 7b3d 1916 97bd
00000210: d111 773d a9f9 c03b 493d ba3d 2cae 6cbc
00000220: 9b13 8dbd aa93 bc3b 3068 d7bc 3e2c a8bd
00000230: 4498 c13d f505 d03d d80f 1abe 0245 0f3d
00000240: b22c c63d 4381 91bd 539f acbd d66e 613d
00000250: 6f99 563d 6516 153e cb55 fd3d c6c0 e43d
00000260: cc5f 043e 7b93 31bc 503b 33bd ac60 05be
00000270: c8d8 183e 003a adbd 3834 ba3d 34d1 ab3c
00000280: 74d5 fa3d f3bd 40bb e980 d83d 5edc 4fbd
00000290: db7f 523d 23fe 0c3e f51d b6bb dbc7 933c
000002a0: f129 263e 1184 f53d 01d7 98bd c524 e53d
000002b0: 64b1 d6bd d6a4 1b3e 9dc3 35be f40a c3bd
000002c0: 2e75 0d3e 7080 24bd 909e 87bd ab47 6b3d
000002d0: fbd1 113e 5d3a e23d bce0 29bd eb17 5d3d
000002e0: cce7 1d3d fcc3 2f3d 6d30 e13d 8c17 3fbd
000002f0: 07e3 773e a4bd 543d 8bcc c43d b259 823c
00000300: a7f7 833b 4d0d 923d 399f d8bb b0fb 913e
00000310: 0399 973d ba47 a2bd d846 043b 2ec6 bebc
00000320: 021b 33bd 95d7 f9bd 00e8 cb3c 855c 92bd
00000330: be27 eb3d 144e ad3d 0e10 0cbe e9f9 ddbd
00000340: 8f02 90bd 915b 01bd 2e8a e1bd 72b5 babd
00000350: 0127 92bd 0b94 bdbd a7fe dcbd 6b94 4bbd
00000360: eb9a 723d 7fa5 30be 5c39 38be af42 013e
00000370: 6fc9 923d 4721 34b9 375d 3f3d 163a 913c
00000380: e1d2 c73d ba61 d83d 3352 fabd bb2a e1bc
00000390: bd4e 6fbc 1454 e13d 0583 1dbe d93b bbba
000003a0: 3f67 6a3d 3ade bdbd 561a ab3d 504b bdbd
000003b0: f0a5 8d3c c2a6 6c3d 46c3 723d 692a 22bd
000003c0: c295 a7bd 9d1d 21be 8a4f 20bc 3639 a03d
000003d0: 6bc8 cbbd 9e7f 84bd 808b 98bc 2300 913d
000003e0: 9cf8 813d 5608 e63d 6d65 1b3e 4d11 6dbd
000003f0: 720e 18be c446 113d 4920 033d d651 ce3d
0.118872955 -0.12272997 0.08560653 0.076791756 0.08002347 -0.12799999 0.021702744 -0.023315808
0.030006671 -0.057027176 -0.091977976 0.13987239 -0.15074028 0.04694151 -0.081217535 0.058656156
0.036540426 0.14526516 0.13119386 0.064734615 0.020936884 -0.019359855 -8.224593e-05 -0.030491889
-0.10233807 -0.10206185 0.12204981 0.109191924 0.04483788 0.070181906 0.1528893 0.1479518
0.054707427 -0.05635944 -0.10350616 0.08252827 0.039904784 -0.014994332 0.0822551 -0.002266112
-0.013224684 -0.06825347 0.083843045 0.10400385 0.04615678 0.04659712 0.12031961 0.07968793
0.07355623 0.054096613 0.12664025 -0.024770252 -0.12153044 0.05218825 -0.028355012 -0.08244964
-0.024731973 0.09914542 0.046398595 -0.08010014 0.016846083 -0.016561706 -0.037237775 0.08734613
0.07046677 0.15811093 -0.033470538 -0.027765505 -0.12156108 0.05336514 -0.16439402 -0.060691386
0.0004492154 -0.020983493 0.05288843 0.07594007 -0.07663862 6.85085e-05 -0.1204557 -0.16865622
-0.1154843 -0.048053097 0.009959878 -0.005678491 -0.01890892 -0.078613445 -0.07271427 -0.10683548
-0.17171486 -0.1048133 -0.1584069 -0.09462022 0.071459495 -0.09869566 0.055640023 -0.002601368
-0.12776007 0.066318445 -0.087123856 -0.0574716 0.16398491 0.010727486 -0.020460024 0.014045439
0.03327031 0.042972002 -0.102798566 0.090123415 -0.108150154 0.06318759 -0.09671943 -0.103936225
0.058888406 0.11848293 0.1486916 0.026169684 -0.091696076 0.088414125 -0.053290464 -0.14341873
-0.0607508 0.006033912 0.097209044 -0.09353386 0.04754735 0.105898805 -0.07424995 0.019957542
-0.060567223 0.14624488 0.06138958 -0.07377262 0.060319725 0.005889137 0.090937205 -0.014445823
-0.06888505 0.0057549076 -0.026294798 -0.082115635 0.094528705 0.10157386 -0.15045106 0.03497792
0.09676494 -0.07104733 -0.08428826 0.055037342 0.05239242 0.14559324 0.12369879 0.11169581
0.12927169 -0.010838385 -0.043757737 -0.13025159 0.14926445 -0.08458328 0.09091991 0.02097378
0.12247744 -0.0029410094 0.10571463 -0.050747268 0.051391464 0.1376882 -0.0055577704 0.018039634
0.16226937 0.1198808 -0.07462884 0.11188654 -0.10483053 0.15199599 -0.17750402 -0.095235735
0.13814232 -0.04016155 -0.0662204 0.057441395 0.14240257 0.11046288 -0.04147409 0.053977888
0.038551137 0.042911515 0.109955646 -0.046653315 0.24207698 0.051938668 0.09609326 0.01591191
0.004027325 0.07131443 -0.0066107777 0.28512335 0.074022315 -0.07923837 0.0020183828 -0.023287859
-0.04372693 -0.12199322 0.0248909 -0.07146553 0.114821896 0.08462158 -0.13678 -0.10838682
-0.07031738 -0.031581465 -0.11012684 -0.09116639 -0.07136346 -0.092567526 -0.107907586 -0.04970209
0.059229773 -0.17250632 -0.17990631 0.12623094 0.07167327 -0.00017178534 0.046719756 0.017727893
0.09757019 0.10565515 -0.122227095 -0.027486196 -0.014606175 0.11002365 -0.15382011 -0.0014284804
0.05722737 -0.09270902 0.083546326 -0.0924288 0.01729104 0.05777622 0.05926826 -0.039591227
-0.08182861 -0.15733953 -0.009784589 0.07823412 -0.09950336 -0.064696535 -0.018621206 0.07080104
0.063462466 0.11232059 0.1517541 -0.057877827 -0.1484926 0.035467878 0.03201321 0.10074203

stacks.0.blocks.0.fc3.bias f4 [50]
00000000: 4f4e bf3d e5af d53d e10c db3d 1364 51bd
00000010: c8da 88bc ff84 ccbd 8597 09bd 72e1 03be
00000020: 2831 68be 3e77 eb3d 9521 afbd 8400 b43d
00000030: 3866 093e d139 15bd e7f9 c0bd 3230 00bd
00000040: 29f6 5ebd a7ff 0e3e 5d13 8f3d d8a6 433d
00000050: 2a6e 5dbd 9f43 d13d 6610 f8bd 3f13 5a3d
00000060: 8838 73bd 0b37 0abe f5ee 91bd 64ba 07be
00000070: b190 a33d 12d6 4b3d 96e3 97bd c6ac 813c
00000080: aabb e43d 674b 0d3e c2ea fcbc 2c6b b43d
00000090: 9c08 8f3d 5eab 53bd 237e c3bd ef5e fb3d
000000a0: 7385 55bd 935d f03c a40a 0abc 5160 cf3d
000000b0: c978 05be 03a0 8f3d a7ff e83c 17f0 08bc
000000c0: 9348 bebd 02ba 1abe
0.09341108 0.1043394 0.10695816 -0.05112083 -0.016705886 -0.099863045 -0.033591766 -0.1287897
-0.22675002 0.11497353 -0.08551327 0.08789161 0.134179 -0.03643209 -0.09422665 -0.031295963
-0.054433975 0.13964711 0.06986115 0.047766536 -0.05406014 0.10217976 -0.12112503 0.05324101
-0.059380084 -0.1349756 -0.071256556 -0.13254696 0.07986582 0.0497647 -0.074164554 0.015829455
0.111686066 0.13798295 -0.03087366 0.08809504 0.06984064 -0.0516771 -0.09545543 0.122739665
-0.05212922 0.029341495 -0.0084253885 0.10125793 -0.13034357 0.07012942 0.028442217 -0.008358023
-0.09291186 -0.15110019

stacks.0.blocks.0.fc4.weight f4 [50, 50]
00000000: de84 acbc d518 93bd 077a 203d b37d 01bd
00000010: 991f 1e3e 288f 073e fa45 ebbd 49c6 ee3d
00000020: 283f 8b3d 634e f23d 2e28 bbbc f068 46bd
00000030: 508d 593d 37b0 8cbe d5e9 ab3d 2e89 6c3d
00000040: 1571 de3d b7f8 0a3e fc47 57bd cda6 193d
00000050: a337 4fbc f205 bfbb 32f8 fe3d 9839 bf3d
00000060: 7fb6 39bd 4bae 103e de38 e93d 4616 1abd
00000070: 2ef1 55bd 0643 1c3e fb5b 863d fcb5 cabd
00000080: fdf0 9ebc b587 7fbd d773 89bd cc14 be3d
00000090: c72c 25be ab97 8d3c 9245 babd 6a3c 62bc
000000a0: a6ad 89bd 6dfa b7bd f2e0 93ba 4e43 193d
000000b0: 3d45 f73c facb bbbc 215b 103e eff7 71bd
000000c0: 7dc8 d0bd 49c0 a8bd cdb6 14bd 6c57 1b3b
000000d0: a731 28bd 9a55 dc3d 0ac4 3abd 2611 af3c
000000e0: 0997 a23d 5de9 63bd 33a0 8cbd 655c c4bc
000000f0: 8c72 9ebc 7f56 0a3e eec2 a8bd c19c 263e
00000100: 0e68 fabd 5a28 0f3e c960 eb3c 66eb 58bd
00000110: 999a 013e 0c1b d03c f4a0 15bd 7c1f d83d
00000120: 9486 813d 6102 2bbd dbf7 abbc 1b04 ea3c
00000130: 8e2e f43d d8c8 a93d e2d8 8dbc f755 223b
00000140: 6a0c 0b3e fd38 b93d 4b85 563b 6da7 2d3d
00000150: 6bc9 a0bd 9681 28bd da75 f63c 3ffa 993d
00000160: b0a2 873d fbbd 803d f882 e83d f2d3 2fbd
00000170: e48b 77bd ef27 8bbd 8b63 fc3c 7700 023e
00000180: fb2b eb3d 202e 733d 56ea c2bd abf6 08be
00000190: 77b0 07be c922 b4bc c30f f5bd 6b34 d43d
000001a0: 9816 d83d 52d0 b33d 4ca2 b8bc e7fe 36bc
000001b0: 8fdf 8bbc a016 cb3d 4471 023e 0e2f 96bd
000001c0: 69e2 19bd e07a e0bc e87c fe3d 79d0 01bc
000001d0: 270d 5abd b59b 32bb 66f7 e5bd 9129 d33d
000001e0: 56d6 14be 2f8c b1bd ac72 7e3d 2a38 003e
000001f0: 79c9 1bbd e8c2 ab3d a206 553d fd79 113e
00000200: 0112 f5bd 59f6 01be 2a2c 543c 55ec 733d
00000210: 30a3 493c c676 f7bd 00be d2bd cf54 babb
00000220: 64dd 643d 7fdc 163d 7054 d03d 59c2 17bc
00000230: 371b dfbb 8acd 823c 6955 be3d 6463 7d3c
00000240: 0209 523d 1cd1 883d e9bb 07be 3de1 1c3d
00000250: 7fa2 e6bd 340c 28bd eae7 cb3c d3cd 35bd
00000260: c2e4 86bd 1cb5 b13d a35f 61bd 2030 55bd
00000270: 1b90 e83d bc97 02be df5c 313d 4d86 75bd
00000280: 55c2 4dbc cacb a83d 17d0 f2bd def2 8b3d
00000290: 2ccb 92bd 554c 113e aa07 553d fdff da3c
000002a0: 5936 1a3e cbf2 2d3e ca89 0abd 55a3 b8bc
000002b0: 9f97 9f3d eec6 26bd 105c eabd c852 193c
000002c0: dc5a 8c3d ced4 273d 3fb3 863d b59e 80bd
000002d0: 41db b9bd b470 fd3c cc00 debd a54a 373e
000002e0: 68eb 933d df5f 193d 412f 963d 943b 3c3c
000002f0: c3a4 b53c 81d9 fe3c 8fa7 bfbd b748 4d3d
00000300: 457a 08be f1b4 80bd aed1 13be 852e 8b3d
00000310: 0cac cabd 62b6 d2bd 1b2f d5bd b7ed 9cbd
00000320: acf4 d838 34ea 2abd f2e7 683d f62e 08be
00000330: 2df4 4bbc 2f48 a7bd 3798 00bd 84f8 553d
00000340: 492b 383c de02 8c3d 7cd2 debc 6cda 51bd
00000350: 906e 7dbc 910f c2bd 57b8 4f3d 7d2c fbbb
00000360: ec29 8bbd 4683 27bc 8622 cc3c e343 66bd
00000370: 5c1a 12be 46bb c3bd 0863 bf3d 91e3 50bd
00000380: 30df 87bd 2a25 e23d a4af 06bd db4a dc3d
00000390: 9e2f ffbd 6c91 42bd 8dac 49bd 64a7 153e
000003a0: 415e bbbd b12a de3c 3774 bebd c660 b03b
000003b0: 7d1c 023e b4bd 893d b208 84bd 89b3 983d
000003c0: aad4 4fbd fc13 05be 3e71 efbd 803c 83bd
000003d0: 526a ee3d cf4c ae3a 91f0 9d3a 263b a63d
000003e0: 64a6 2dbd fce8 c0bc 366e fdbc 8a14 98bd
000003f0: b5dd f0bc 2894 01be 96ba 16be d49b c23d
-0.02105945 -0.07182471 0.039178874 -0.031614017 0.15441741 0.13238204 -0.11487956 0.11658914
0.067991555 0.11831357 -0.022846308 -0.04843992 0.05311328 -0.2747819 0.08394209 0.057748012
0.108614124 0.1357144 -0.052558884 0.03751259 -0.012647542 -0.005829566 0.12449683 0.09337157
-0.045340057 0.14128987 0.113878 -0.037618898 -0.05223196 0.15259942 0.06560513 -0.09897992
-0.019402022 -0.06238528 -0.06711548 0.092813104 -0.16130362 0.017284235 -0.09095301 -0.013808349
-0.06722574 -0.08983312 -0.0011282249 0.037417702 0.030184383 -0.022924412 0.14097263 -0.05907434
-0.1019449 -0.082398005 -0.036307145 0.002370323 -0.041062977 0.10758515 -0.045597114 0.021370482
0.07938964 -0.055642474 -0.06866493 -0.023969838 -0.01934173 0.13509558 -0.08240305 0.16270734
-0.12226878 0.13980237 0.028732674 -0.05295887 0.1265663 0.025403522 -0.03653045 0.1055288
0.06324497 -0.041750316 -0.02099221 0.02856641 0.11922942 0.08290261 -0.017315332 0.0024770477
0.13578954 0.09044073 0.0032733257 0.042395998 -0.078509174 -0.041139208 0.030085493 0.07518434
0.06622827 0.06286236 0.11353105 -0.042926736 -0.060436144 -0.06794726 0.030809185 0.1269549
0.11482998 0.05937016 -0.09517352 -0.13375346 -0.1325091 -0.021989243 -0.11965897 0.103615604
0.105511844 0.08779968 -0.022538327 -0.011169172 -0.017074374 0.09916425 0.1273852 -0.07333194
-0.037569437 -0.027402341 0.12426168 -0.007923239 -0.0532352 -0.0027253453 -0.11228828 0.103106625
-0.14534888 -0.08669316 0.06212108 0.12521425 -0.038033936 0.08386785 0.05200828 0.14206691
-0.119663246 -0.1269163 0.012949983 0.059551556 0.012306973 -0.12083201 -0.10290146 -0.0056863795
0.055875197 0.036831375 0.10172355 -0.009262645 -0.006808664 0.01596715 0.092936344 0.015465591
0.05127812 0.066805094 -0.13255276 0.03830074 -0.112614624 -0.041027263 0.024890859 -0.044385742
-0.06586601 0.08677122 -0.055022847 -0.05204785 0.11355611 -0.12753195 0.04330146 -0.059942532
-0.012558539 0.08241995 -0.11856096 0.068334326 -0.07167658 0.14189275 0.052009262 0.026733393
0.15059794 0.1698715 -0.033822812 -0.02253882 0.07792591 -0.040717058 -0.11443341 0.0093581155
0.068532676 0.04097443 0.06577157 -0.06280271 -0.090750225 0.03093753 -0.10839996 0.17899568
0.072226346 0.037444945 0.07333232 0.011488814 0.022173291 0.031109573 -0.09358131 0.050118174
-0.13327892 -0.06284512 -0.14435455 0.06795982 -0.098960966 -0.10288693 -0.10409375 -0.07662528
0.00010345256 -0.04172726 0.056861825 -0.13299164 -0.012448353 -0.08168065 -0.031395163 0.052238956
0.011240789 0.068364844 -0.027199976 -0.051233694 -0.015468255 -0.09475625 0.05071291 -0.0076652155
-0.06795105 -0.010224169 0.024918806 -0.056217086 -0.14267868 -0.09557204 0.093450606 -0.050998274
-0.066343665 0.11042245 -0.032882348 0.10756465 -0.12460254 -0.047501966 -0.049236823 0.14614636
-0.09148837 0.027119966 -0.0929951 0.00538263 0.1270618 0.06725636 -0.06446971 0.074561186
-0.05073992 -0.12995905 -0.11691521 -0.06408024 0.11641373 0.0013298037 0.0012049844 0.081167504
-0.04239501 -0.023548596 -0.030936342 -0.074257925 -0.029402593 -0.12654173 -0.14719614 0.09502378

stacks.0.blocks.0.fc4.bias f4 [50]
00000000: 1dca c33d 3167 903d 8866 363a ddb1 e33d
00000010: 53fd 9ebd 3d34 55bd 45e0 fc3d b9e0 6bbd
00000020: e46b 1ebe 4095 c03d 5067 9fbd 3ad3 7dbd
00000030: c2a7 a33d 70cc 933d 90c4 0f3d e6b1 8a3d
00000040: 794f 4c3d 4fd1 d03c 3086 853d 9686 d3bd
00000050: aad0 45bd 0b7b 2c3d 028c 61bd af6a 8b3d
00000060: 96ce f2bd 2a30 203c da44 04be a168 a5bd
00000070: 7543 9dbc ce7e 9d3d 3ba2 d0bb 2b6e d23d
00000080: e690 b1bd 6e9c babd 3b7c cebd d3ce f0bd
00000090: fb96 b0bb f85d 45bd 4570 5d3d b3d8 d8bd
000000a0: a928 18bd d165 f73d 79c9 713d 590d c93d
000000b0: 0a04 303e fc6b fdbd c35d 2c3c bffb 1c3d
000000c0: c20a 8a3c ce8d febd
0.095600344 0.07050932 0.00069580274 0.11117909 -0.077631615 -0.05205177 0.123474635 -0.05758736
-0.15470845 0.09403467 -0.07783377 -0.06196902 0.07990982 0.07216728 0.035099566 0.06772213
0.04988048 0.025490431 0.06519735 -0.103284046 -0.0482947 0.04210953 -0.055065162 0.06807458
-0.118558094 0.009777108 -0.1291689 -0.08076597 -0.019197205 0.07690202 -0.0063669956 0.10274919
-0.08670215 -0.09111868 -0.10082289 -0.117581986 -0.005389092 -0.04818532 0.054062147 -0.10588207
-0.03714815 0.12079967 0.05903003 0.09816999 0.17189041 -0.12374112 0.010520401 0.03832602
0.016850833 -0.12429391

stacks.0.blocks.0.theta_layer.weight f4 [57, 50]
00000000: a596 23bd 95f5 1f3e 15ba e0bd 7db4 853d
00000010: ce9a ed3c abff 3f3c f965 42be 23d0 1fbd
00000020: 44e7 5e3d a748 383e bc90 4abd 9076 9ebc
00000030: 8315 1dbd 98f1 3dbd a393 45be 717e 85bd
00000040: 6bb0 093d 0393 ea3d 07db d5bc fcd7 4abe
00000050: 5865 cfbd 47b1 ba3d 78d6 acbc fef2 463d
00000060: fda0 fbbd e810 0b3d 7fc6 453d db00 103e
00000070: 3114 48be ed96 db3d 53ba d73c 8731 25bd
00000080: 4691 70bc 18f0 da3d 48c3 7f3d 2073 9cbd
00000090: 82f8 38bc 5595 663d 46a5 cfbc 8f89 47bd
000000a0: 4905 823d ac34 b73d 7c93 c93c 8e0e 49be
000000b0: 2ed7 7abd b506 b73d 7005 25bd 0b5e 41bd
000000c0: 4cfc 9cbd 1606 2fbd 7184 e83d 9fff 0d3e
000000d0: 2e65 ed3c 3863 6bbd 77dd 9c3d ccdf ba3d
000000e0: d6b6 933c a66b cbbd 9a2e 89bd 2e7b a63d
000000f0: c3c6 d13d 8115 4d3d 1885 b6bd ec2d 193d
00000100: c4b8 c6bd 355c ccbd 8af8 8e3b 5276 15be
00000110: 2332 c53d 6b9d 8bbd 0edb f839 1771 ddba
00000120: 083b d93d 73ee 223e 4090 cfbc f6b1 db3d
00000130: 70ab 3d3d 00cf 61bd d03f 793d f532 9abd
00000140: 7d38 bf3d 675b c03d 74f8 b0ba 388b 803d
00000150: 26c3 453d 2a57 0e3e dc47 943d b297 5d3d
00000160: 431f 8bbd f11f d03d 2a19 04bd 5f8b 423c
00000170: b9d7 8fbd 37bd 7cbc 7f9d 273e 9ba9 e03d
00000180: d36b 97bc 8b72 a73d 7330 eabd d87a cabd
00000190: e7d7 f6bb 2ab2 34bd 6ff8 f2bc cff7 bc3d
000001a0: 901c af3d 8fca 58bd d623 073e 358a bd3d
000001b0: 0556 13be e824 083e 42db 123e de6f db3b
000001c0: a94e 633d 1e13 9cbd ff50 273d d706 ebbd
000001d0: dbe9 1c3e cea4 de3d 45f6 b5bd 1d93 193d
000001e0: 133b e1bd 76cb 62bd 6823 4e3d 2668 92bd
000001f0: 7dfb f2bd b24b eabd 8b9c 1ebd 81ba b73d
00000200: 0b7e 02bc 311f d93d 8b91 b93d 2a8e 3abd
00000210: 9fba 09bd 7b87 8ebd 1b10 07bd 19c4 473d
00000220: 6785 fe3d 829e 663d dc28 5fbd f31e 6f3d
00000230: c6ca f7bd bf33 c43d 95cf 183e 9aa5 07be
00000240: 5cbb c8bd 45e1 f83d 4ab2 9a3c e263 df3d
00000250: 4c43 f9bd d853 a3bd ce8e 3e3b 5a68 1bbd
00000260: 7e7a 77bd ccca 603c 6b0f 71bd 11ec 993d
00000270: a86d 0ebe ab4b cc3d 6575 05be 5c81 d2bb
00000280: 8112 7b3d e706 8b3d d212 12bd 2e80 d4bc
00000290: dcdb 07be b8e5 9d3d d2d2 1e3e 49f8 2fbd
000002a0: 4045 ab3c 21ad df3d b3dd 823d 8b27 063d
000002b0: f0d8 6bbc 0154 aabd 966f 03bd c4a5 a2bd
000002c0: 228f b43d fba3 ee3d c4e1 af3c 0194 27bd
000002d0: d2a1 c9bd aff2 06be 3026 bb3d d8a1 893d
000002e0: bf65 033c 6212 c9bd b755 30be 744f a4bb
000002f0: fcd1 833d f7fd b03c 0e57 a13c 5e05 e6bb
00000300: c793 483d 8192 18be 2f7e 273d 057e a03c
00000310: 6be1 04bd 133f a6bd 16e3 90bd be87 ef3d
00000320: 0ff7 423d 8384 d6bd fe1d bfbc 336c d2bd
00000330: e1ee b83d f30a 463d e825 5abe eba7 ba3d
00000340: 475d d03d 0cd6 a93d f4dc 51bd 0c75 2b3e
00000350: b2ec 843d c687 7abd 1613 2cbe 9e69 f63c
00000360: 82b1 383d 0078 e13c c40a 89bc b301 b0bc
00000370: c5b6 89bd 23dc 17be 825c 0bbd a7e0 8c3d
00000380: 2814 b1bd ed6a cd3c 7a40 b83c 024d aa3d
00000390: 493f e3bd e2fc eb3d c870 aebd c978 1a3e
000003a0: 8871 0b3e 1f0b 06be 6beb a4bc 5986 acbd
000003b0: bec8 83be 6265 acbd 89ab 98bd d66b e7bd
000003c0: 5170 953d bf39 1f3e 6fd0 e6bd 2aeb 38be
000003d0: 85de 3c3d 16b5 d83d 686a c8bd f491 90bd
000003e0: 5fd0 54ba ce23 fd3d e55b afbd 00e6 883c
000003f0: 1958 a6bd fcf4 a5bd 254b babd 8a0c 133e
-0.039938588 0.15621026 -0.10972992 0.06528566 0.02900448 0.011718671 -0.18984212 -0.039016854
0.05441977 0.17996465 -0.049454436 -0.019343644 -0.038350593 -0.04637298 -0.192946 -0.065182574
0.03361551 0.114538215 -0.026105417 -0.19808954 -0.10126752 0.09115844 -0.02109836 0.04857158
-0.122865655 0.03395167 0.048285004 0.14062826 -0.19538952 0.10722146 0.026333963 -0.040330436
-0.014683073 0.106903255 0.062442094 -0.07639146 -0.011289718 0.056294758 -0.025347363 -0.04871517
0.06348664 0.08945593 0.024606459 -0.19634458 -0.061240368 0.08936826 -0.04028839 -0.047208827
-0.07665309 -0.042730413 0.11353386 0.13867043 0.02897891 -0.05746767 0.076594286 0.09124717
0.018031519 -0.09932642 -0.06698342 0.081289634 0.10242989 0.050069336 -0.08912104 0.03739731
-0.0970321 -0.099785246 0.0043631243 -0.14595917 0.096287034 -0.068171345 0.00047465455 -0.0016894665
0.106069624 0.15911274 -0.025337338 0.10727303 0.046306074 -0.05512905 0.060851872 -0.075292505
0.09336946 0.093924336 -0.0013501779 0.06276554 0.04828181 0.13900438 0.072402686 0.054099746
-0.06793072 0.10162342 -0.03225056 0.011874049 -0.07023568 -0.015425972 0.16368674 0.1096985
-0.018484032 0.08176144 -0.11435022 -0.09886712 -0.007533062 -0.044115223 -0.029659478 0.09226953
0.0855037 -0.05292755 0.13197264 0.092548765 -0.14388283 0.13295329 0.14341453 0.006696685
0.055494938 -0.07620834 0.04084873 -0.11475914 0.15323584 0.10871278 -0.08884863 0.037493814
-0.10997596 -0.055369817 0.050326735 -0.07148771 -0.11864374 -0.11440219 -0.03872351 0.0897112
-0.007964621 0.106016524 0.09060963 -0.045545734 -0.03362524 -0.069594346 -0.032974344 0.048770998
0.12427788 0.05630351 -0.054482326 0.058379125 -0.12099223 0.09580182 0.14922936 -0.13246766
-0.09801361 0.12152342 0.018883843 0.10907723 -0.12171039 -0.07974976 0.0029076817 -0.037941314
-0.060419552 0.013720226 -0.058852594 0.07515729 -0.13909018 0.0997537 -0.13033064 -0.0064241122
0.061296944 0.06788426 -0.03566248 -0.025940027 -0.13267463 0.07709831 0.15510109 -0.042961393
0.020907044 0.109216936 0.06389942 0.032752555 -0.014394984 -0.08316804 -0.03208884 -0.079417735
0.08816363 0.116523705 0.021469958 -0.040912632 -0.09845318 -0.13178514 0.09138143 0.06720322
0.008019864 -0.09817959 -0.17220198 -0.0050143544 0.06436536 0.021605475 0.019694831 -0.007019683
0.048969056 -0.14899637 0.040891822 0.01959134 -0.032441538 -0.08117499 -0.07074563 0.11695813
0.047598895 -0.10474493 -0.023329731 -0.102745436 0.090299375 0.048350286 -0.21303523 0.09114059
0.10174041 0.08292779 -0.051236108 0.16743869 0.064904585 -0.06116464 -0.16804156 0.03007966
0.04509116 0.02752304 -0.016728766 -0.021485185 -0.06724314 -0.14830069 -0.03402377 0.068787865
-0.086464226 0.0250754 0.022491682 0.08315469 -0.11096055 0.11522843 -0.08517605 0.15085138
0.13617527 -0.1309018 -0.020131787 -0.08424062 -0.25739092 -0.08417775 -0.07454593 -0.11299865
0.07296813 0.15549372 -0.11270224 -0.18058458 0.04611065 0.105814144 -0.097859204 -0.07059088
-0.0008118208 0.12360345 -0.08562449 0.016711235 -0.08122272 -0.08103368 -0.09096364 0.14360252

stacks.0.blocks.0.theta_layer.bias f4 [57]
00000000: da61 223c b110 213e b7df ae3c 7c40 733d
00000010: 663a dbbd 5ee8 a83d da01 0a3e 2524 293d
00000020: 74bb df3c bca9 5d3d 3006 7dbd 743c d3bd
00000030: b64c 2ebe c190 e53c 7665 dc3d 2549 0f3d
00000040: b02e 383e 4539 f8bd 3361 603d b21a 5bbd
00000050: 5671 c03c 4a08 01be f8e0 cd3d 936f cb3d
00000060: 859b d6bc d5c8 bebd 5d3e c43d 6eee 47be
00000070: 5a4a 543c 1fc1 313e 2486 0bbe e8bc 9d3d
00000080: 953c d83c f4d0 2fbd a668 c9bd 117a ec3c
00000090: 6a86 973d 5cd2 d13c bfea f73c 97c7 f23b
000000a0: ac51 003e 0798 2e3d ca5f 94bc 68e0 84bc
000000b0: a505 14be 73d6 ecbc 16c3 3dbc 2b2b 3dbd
000000c0: c4a6 aa3d f707 dd3c 695e 813d eab3 05be
000000d0: 141a bfbd 4a9e 853d b97d 8b3d ed8e 193d
000000e0: 7c7b dd3c
0.009911025 0.15729024 0.02134691 0.05938767 -0.10704498 0.082474455 0.13477269 0.041294236
0.027311064 0.05411695 -0.06177348 -0.10314265 -0.1702145 0.028023126 0.1076154 0.034981865
0.1798656 -0.12120298 0.054780196 -0.053492256 0.023491543 -0.12600818 0.10052675 0.099333905
-0.026197204 -0.093156494 0.09582207 -0.19524547 0.01295718 0.17358826 -0.1362539 0.07702047
0.026396075 -0.042923883 -0.09834413 0.0288668 0.07398684 0.025613002 0.030263303 0.007409047
0.12531155 0.042625453 -0.018112082 -0.016220286 -0.14455278 -0.028910851 -0.011582157 -0.046183746
0.08332589 0.026981337 0.063168354 -0.13056913 -0.09331146 0.06524332 0.06811089 0.03748982
0.027036421

stacks.0.blocks.1.fc1.weight f4 [50, 56]
00000000: ef5b 37bd df7e 58bd 136f 4c3c 5b5f ca3d
00000010: 2959 f9bc 16b8 8b3d c741 96bd 6ef3 58bc
00000020: 4ee2 c13d 1bac 083d 17a5 783d 13f0 55bd
00000030: e80e f43d 94fd 1b3d 6525 933c c016 d5bd
00000040: 28d2 44bd 8e41 9dbd 87b0 cf3d 2d01 523d
00000050: f2c3 7dbd 2a13 19bc 686f 03bd 0094 24bd
00000060: a423 06bc 7019 21bd 4d58 2a3d 18c7 fe3d
00000070: 0b20 fa3d 0162 03bb 3d84 f03d ef4f c83d
00000080: 8035 f73d 0e8f 09ba da8a 143e 43f7 06bd
00000090: ce00 843c 46d7 f7bd 5a38 fb3d 59c8 90bd
000000a0: a48a d0bd 1086 42bd afe8 dc3d 05d8 b0bc
000000b0: 7a69 9d3d 050f d53d bdca d5bd 7db7 f03c
000000c0: 331b 39bd 5fed fa3d 6db3 493e c69a 3d3d
000000d0: d913 c83d bdd3 3c3d c596 eb3d 4699 dd3d
000000e0: 0177 80bd e7f3 cebd d02b bcbd 6968 0cbe
000000f0: 87e3 72bd f735 a1bd 8acf 913b 4ad9 ffbd
00000100: a7ca 033e 8773 b4bd 474f 763d 19e5 093e
00000110: 3d80 baba 2fec 83bd d34a f33b a664 64bc
00000120: 64c3 ea3d d193 cdbd dfee 90bd bb98 443d
00000130: 801b 4bbd ac30 093e 24e2 5abd d37d 003e
00000140: cc93 f73d 912c cabd 97af 5a3d 7f18 4c3d
00000150: 0ea2 8abd a493 e73d a34f a3bd 5351 053e
00000160: c4e9 213c 0a7f 643d 3134 0ebe b347 9bbd
00000170: 4e09 f1bd dbb9 1f3d ad15 ce3c 467b a83c
00000180: 9c49 79bd f983 6cbe 8ed3 ebbd 83b7 5bbd
00000190: ddce 983d a9f6 f5bd 6db2 a0bd 18e7 fe39
000001a0: e55a 86bd 95cc 2e3d db85 9c3d 019a cb3d
000001b0: f0c9 a3ba a2d3 cd3d 7b1d 973d d4b7 f4bb
000001c0: 3387 d1bd 469f bd3d ad57 583c c826 453d
000001d0: 06f6 9f3d 4f54 e8bd a456 203d c842 003e
000001e0: fe07 9f3c b11e eabc 6065 a1bd 951d 43bb
000001f0: 319e c03d c1cd dd3c a569 953d 55c3 bb3d
00000200: 7f92 e43d 7a6e a13d 0fad f63d 49c2 13bd
00000210: d876 0bbd 1795 e3bd ef78 103e 740a cfba
00000220: dcdd 9abd 2b97 acbc d026 3a3d 3262 d83c
00000230: 9127 acbd bd72 db3d 1877 21bd c995 35bd
00000240: c822 963d e1b9 a3bc 82ec 853d 1a4d f2bd
00000250: 95ea dcbd 6e6c a33d edcc efbd 6a87 d7bc
00000260: 49e1 c7bc 237a ffbd 06d0 a63d a61e c7bd
00000270: 67b4 f1bd 9422 0bbd f9fe 0d3c cc65 d43d
00000280: ddd6 713d b71d 8a3c 6c10 043e 03f1 d73c
00000290: 485c debd 2f55 76bd 298f f53b 3757 283d
000002a0: 3c19 0bbe ed4c ba3d 336d c83c 278b 1dbc
000002b0: 2497 513d c984 0bbe 9ca3 fabd 9d22 b1bd
000002c0: 6933 a13d 1801 823d 9e4a ebbc d68e 05bd
000002d0: 7ec4 d03d 69e5 9b3b 8771 08be 0cbd 09bd
000002e0: fcb3 49bd c07c 0abe 5c53 c43c 9675 d13d
000002f0: 32e7 cdbd 682f 593c 8815 0f3c 53b3 2abb
00000300: e6fc 8c3d a293 acbd 26ee cc3d af0e b8bd
00000310: fdc2 923c d697 ebbd eaac d7b9 864b c83c
00000320: 0d07 fcbd 1b71 b6bd 4aa5 1a3b d227 c23c
00000330: 3eea b33d e94c 7f3d b10f acbb 5362 3a3d
00000340: e468 df3b ecc5 44bc ff66 c83d 5eef b6bd
00000350: a059 9d3d 2b7b 46bc 6ec3 263d 6854 043e
00000360: 5a7f 213d 8906 fb3d 37ea 64bd 0229 e43d
00000370: 85cc d13b 4202 f8bd 8a4c 913d 6edc bebc
00000380: 4b9e 043d cdf9 f43c a4ad e3bd 526f 71bc
00000390: d8c2 62bd 8221 b6bd 7654 e23d 8863 cc3d
000003a0: 77b0 c93d 4b93 95bd 192d 35bd 110c 4d3d
000003b0: c83d 523c 1040 1b3d 59e1 a83d bda9 92bd
000003c0: 5580 4bbd 7d8b ca3d f225 b0bd 8579 6c3d
000003d0: f794 b93d 18f5 d53d 8bfd 48bd 6287 613c
000003e0: 4671 553d fae3 d93d 5082 4d3d 3578 01bd
000003f0: c87b 03be faa9 c2bd 4694 023e 4ce3 cebd
-0.04476541 -0.05285537 0.012477654 0.09881469 -0.030438023 0.06822221 -0.07336765 -0.013241632
0.09466992 0.033367258 0.060704317 -0.052230906 0.11916906 0.038083628 0.017962167 -0.1040473
-0.048051983 -0.07678519 0.10141092 0.051270653 -0.061954446 -0.009342948 -0.032088667 -0.040180206
-0.008187208 -0.0393309 0.041588116 0.12440318 0.12213143 -0.0020047429 0.117439725 0.09780871
0.12070751 -0.0005247452 0.14506093 -0.03295065 0.016113665 -0.12101607 0.122666076 -0.07069463
-0.101826936 -0.047491133 0.107865684 -0.021587381 0.07686134 0.104032554 -0.1043906 0.029384369
-0.045191955 0.12252306 0.19697352 0.04629018 0.09769411 0.046100367 0.115033664 0.1082025
-0.06272698 -0.101051144 -0.09188044 -0.13711704 -0.05929902 -0.07871621 0.0044497894 -0.124926165
0.12870274 -0.088110976 0.0601342 0.134663 -0.0014228892 -0.06441533 0.007424691 -0.013940012
0.11463049 -0.10037959 -0.07076811 0.047997218 -0.049586773 0.13397473 -0.05343832 0.12547998
0.12088737 -0.098717816 0.05339011 0.04982805 -0.06769191 0.11307457 -0.07974174 0.13019304
0.009882394 0.055785216 -0.13887097 -0.07582035 -0.11769353 0.038995605 0.02515682 0.020566594
-0.060861215 -0.23097219 -0.1151496 -0.053641807 0.07461331 -0.12009937 -0.07846532 0.00048618834
-0.065603055 0.042675573 0.076427184 0.09941483 -0.0012496095 0.100501314 0.0737867 -0.007468203
-0.10230865 0.092588946 0.013204497 0.048132688 0.07810597 -0.113442056 0.039145127 0.12525475
0.01941299 -0.028579088 -0.07880664 -0.002977227 0.094051726 0.02707565 0.07295541 0.09168116
0.111607544 0.078824 0.12044727 -0.036073957 -0.034048885 -0.11112421 0.14108633 -0.0015795962
-0.075618476 -0.021068176 0.04544717 0.02641401 -0.08405984 0.10715244 -0.039420217 -0.0443323
0.07330853 -0.019986095 0.06539251 -0.11831112 -0.107869305 0.07979666 -0.11709008 -0.026309688
-0.024399417 -0.124744676 0.08145146 -0.097226426 -0.11801987 -0.033968523 0.008666747 0.10370979
0.0590428 0.016859872 0.1289689 0.02636004 -0.10857445 -0.06013983 0.0074938727 0.0410988
-0.13583845 0.09096704 0.024466133 -0.009615696 0.05116953 -0.13624872 -0.12238237 -0.0864918
0.07871134 0.06347865 -0.028722104 -0.032606922 0.10193728 0.0047575724 -0.13324557 -0.033627555
-0.049243912 -0.13524151 0.02396553 0.10227506 -0.10053863 0.013255931 0.008733161 -0.0026046827
0.06884174 -0.08426596 0.10006361 -0.08987176 0.017915243 -0.1150357 -0.00041136827 0.024450075
-0.12306032 -0.08908292 0.0023597055 0.023700628 0.087849125 0.062329207 -0.005250894 0.045503926
0.006817924 -0.012010079 0.0978527 -0.089323744 0.0768311 -0.0121143265 0.04071372 0.12922823
0.039428093 0.12257106 -0.055887427 0.11140634 0.0064025545 -0.12109806 0.07094677 -0.023298468
0.032377522 0.02990427 -0.11117104 -0.0147360135 -0.0553616 -0.0889311 0.11051266 0.099799216
0.09848111 -0.073034845 -0.04423246 0.050060336 0.012832113 0.03790289 0.08246107 -0.07161281
-0.049682934 0.098898865 -0.086009875 0.057733078 0.09061616 0.104471385 -0.049069922 0.013765188
0.05210998 0.10639186 0.050173104 -0.03160878 -0.12840188 -0.09505077 0.12751874 -0.10101947

stacks.0.blocks.1.fc1.bias f4 [50]
00000000: 32ee 593d 846e 833d 17c9 f33d 052e ab3c
00000010: f81c 803d 3073 8bbc 19d6 0bbd fac0 a03d
00000020: 17c8 ff3c 7b8f c53d 0562 6dbd 3c15 37bc
00000030: 715a e3bd 0181 5a3c 9ce8 5a3d 714e fc3d
00000040: 7cfe 3bbe 11f7 97bc b7a4 b8bc 9ac1 8dbd
00000050: f50c 063d c764 ce3c d057 393d 163f b53d
00000060: 1e85 253d d342 37be 8b76 443c 2022 ff3b
00000070: 51c5 8fbd 39c1 87bd 93ec 023e 0ad0 cabc
00000080: 4b07 9a3c 6705 1a3d 625c 92bd f9d0 2d3d
00000090: d550 0d3e 7d7c 893c 0eb1 a33d f888 1d3d
000000a0: 4426 2abe 5a62 8abd 7bf5 793b 15fc 14bd
000000b0: 99c0 80bd 2a59 8f3d abed ed3c 2a91 c3bc
000000c0: 5bdc eb3d 7e3e 9b3d
0.053205676 0.064175636 0.11903589 0.020895967 0.06255525 -0.0170227 -0.034139726 0.07849307
0.03122334 0.09646507 -0.057954807 -0.011174496 -0.11101235 0.013336421 0.05344449 0.12319649
-0.18358797 -0.018550428 -0.02253948 -0.06921692 0.0327272 0.025194539 0.04524976 0.08849923
0.040410154 -0.17896585 0.0119911535 0.0077860504 -0.07020057 -0.06628651 0.12785558 -0.024757404
0.018802306 0.03760281 -0.07146527 0.04243562 0.13800366 0.016782993 0.07992755 0.0384607
-0.1661616 -0.0675704 0.0038140703 -0.036373217 -0.06286735 0.069994286 0.029043993 -0.02387293
0.11516639 0.07580279
