RNN_models/close_slope_45_2_raw_15min_t2.pth (torch, 449576 bytes, 30 tensors)

stacks.0.blocks.0.fc1.weight f4 [100, 30]
00000000: 4e44 193d 5454 163e e85d 513c 30ec 1a3e
00000010: cbea 053d b9c2 cdbd 796f 6f3d 9661 5b3d
00000020: 75ac cb3d f213 80bc ae45 07be 436d 6739
00000030: 66af 783d 3d37 23bd 4b02 863d c105 b93d
00000040: 5cc1 c7bd 34d7 2fbe e868 17bd 3a74 36bd
00000050: a8d4 01be 27a8 2cbe 6c4a a93d b5c1 133e
00000060: df40 3b3d 6735 c7bc d107 07be 9d11 d6bd
00000070: 47b0 1abe db20 713d b45b 003d 5f71 df3d
00000080: c530 acbd 20cb d4bc 3b55 89bd 3153 1d3a
00000090: ce06 e2bd 03c1 8b3d 3bb9 cc3c 58e3 043e
000000a0: 39d0 bdbd c4a4 8a3c 50cf 1ebe f6c2 113e
000000b0: 62ed 21be f360 cf3d 1b88 19be 5921 26be
000000c0: 8afa 343d 6677 e73d 6e67 7cbc d38d 013e
000000d0: 8c4d e03d f7d3 653d 51af 0b3e f3da 273c
000000e0: cb1a 443e cddf 9abc 5cf9 60be d0a2 d3bc
000000f0: 2a39 88bd 4b2d c83d d7f9 203e a832 cebd
00000100: d28a c4bd 34d4 1d3d 3afe c73c 8bbf d8bd
00000110: b8a8 143e c0c0 01be 7d77 cc3d d82e 833d
00000120: 4e1f 753d dd51 b53d 5f96 ce3c 9e85 8fbd
00000130: 5842 e3bd 1741 f73d 8714 113d b0d8 3e3c
00000140: 05d7 183e c7d3 b4bd a9b8 e83d 94eb d5bc
00000150: da29 693d 7809 9bbd df25 cabc 0802 41bd
00000160: 29d3 6f3e 3b6e 0f3e 0d37 263e 28f5 07be
00000170: 83e6 15be 4342 27be 1bdd b63c 211e 20be
00000180: 8b1c f4bd 9a45 993d 8d8b 93bc acde 30be
00000190: 0193 9ebc 777f ebbd 0da8 24be 4162 10be
000001a0: 0ed0 b13d df77 a7bd 509c 0f3e 007e 0f3e
000001b0: a743 8dbd 9e71 303c 6616 f7bd 79e9 41bd
000001c0: a8fc 5bbb 479a da3d 55fc 49bc eba7 e1bd
000001d0: 9488 6b3e 1f9e afbd 4ccd 643d 730a 87be
000001e0: ed6e 01bd b1c0 bd3d 3825 963d fc75 33be
000001f0: 431e 11bd 12b5 0d3d 0da6 30be 9e34 48bb
00000200: bca4 7cbd c3c0 5bbc c81c 76bd b508 713d
00000210: a4ee dd3c 6c31 bebd 9899 c33d 9e75 5b3d
00000220: 54be 923d 9f29 653e 2655 4b3d ec85 2bbc
00000230: c703 e03d b800 febd c5d7 b8bd cd96 f7bd
00000240: 597b ddbc 3864 23be e73e 2b3c 5d74 3f3d
00000250: 1d86 353e f058 ad3d ddc9 cf3c 2445 0cbe
00000260: 715a 37bd 0dd4 28be e011 323d 7ebd 34be
00000270: 4bde dbbd 7769 28bd 9209 1abe df7e 0e3d
00000280: 2b1e 553d ba6f db3d 799c b3bc f431 2abe
00000290: 3446 0abe 44c9 70bd b334 27be c29c 01be
000002a0: 1a62 a33c 30c9 13be 7b65 193e c3ec fd3c
000002b0: 28de 55bb e369 2f3e 79b7 4b3e ed27 813d
000002c0: 1f1e df3d 3dd0 6abd 7671 a53d d6f1 5f3e
000002d0: ccc9 b13d 3260 16be 82f5 d23c 4a8b 3ebe
000002e0: 3ed5 0f3e ce16 37be 2faa 5abe 2ad1 783d
000002f0: a738 49bd e8f7 1cbe a3cb 343e 6d62 bfbd
00000300: 3944 d4bd 06ab 09be bcd0 763d 6e2f 173e
00000310: 1304 f43d 7ede cf3c 2fa2 44be ee8d c4bd
00000320: f128 20bd 6d5e 5d3d 1e3d 413e b242 27be
00000330: 8a04 f83d 0478 56bd 866b 37be 7675 fd3d
00000340: 08f0 b03e 6b15 8a3e f49f 0cbe d9b8 c0bc
00000350: 1dd3 413d c901 75bd e90a e3bd 2a71 36be
00000360: 39aa a23d 33c8 173e 95ec 1d3e 3930 0ebe
00000370: 80e9 4c3e b096 e4bd 3eb5 093d ff88 8c3b
00000380: 7da4 c53d 8a8e 0cbe 6e0a cebd b611 eebd
00000390: 9a11 d63d 2b04 773d a18f 0fbb 86ae fabd
000003a0: 309d adbd 155a efbc cecc c53d 2865 2a3d
000003b0: ecd0 0b3e 7b93 053e e316 9c3d ffd8 d83c
000003c0: 1e70 babd 3807 283e 943b 1a3e 283d 033e
000003d0: 4c59 1abe ac01 60bc 8ec1 40bd 76bb 133d
000003e0: 4049 23bc 76d4 e3bd 82f1 5cbd 3105 8bbc
000003f0: 427d 2ebc 8ddb 17be d072 4d3d d09c f53d
0.037418656 0.14680606 0.012778737 0.15129161 0.03269462 -0.10046906 0.058455918 0.053559862
0.09945003 -0.01563451 -0.13210174 0.0002207058 0.060714148 -0.0398476 0.06543406 0.090343006
-0.09753677 -0.17171937 -0.03696528 -0.044544436 -0.12678778 -0.1686102 0.08266148 0.14429362
0.045716163 -0.024317456 -0.13186575 -0.10452578 -0.15106307 0.058869224 0.031337455 0.10910296
-0.084077395 -0.025975764 -0.067057095 0.0006001471 -0.11036454 0.068239234 0.024990669 0.1297735
-0.09268231 0.01692427 -0.15508771 0.14234528 -0.1581321 0.101259135 -0.14993326 -0.16223659
0.044184245 0.1130207 -0.015405519 0.12651758 0.10952291 0.05611035 0.13641097 0.010245073
0.19150846 -0.018905545 -0.21970123 -0.025834471 -0.06651528 0.09774264 0.15720306 -0.10068256
-0.095967904 0.03853245 0.024413217 -0.10583409 0.14517486 -0.12671185 0.09983728 0.06405419
0.059844308 0.08853505 0.025218187 -0.07007907 -0.110966384 0.12072962 0.035419967 0.011648342
0.14925773 -0.08829456 0.11363346 -0.026113309 0.05692468 -0.075701654 -0.024676261 -0.047121078
0.23420395 0.14006893 0.16231938 -0.13277113 -0.14638714 -0.1633387 0.022322228 -0.15636493
-0.11919507 0.074839786 -0.018010879 -0.17272443 -0.019357206 -0.11498921 -0.16079731 -0.14099981
0.086822614 -0.081771605 0.14024472 0.14012909 -0.06897669 0.010769276 -0.12064819 -0.047341798
-0.0033567343 0.10673957 -0.012328227 -0.11018356 0.23001319 -0.08575081 0.05585985 -0.2637516
-0.031599928 0.092652686 0.07331318 -0.17525476 -0.03542925 0.03459651 -0.17250843 -0.003054894
-0.06168054 -0.013412657 -0.06008604 0.058846194 0.027091332 -0.0928677 0.0955078 0.053578965
0.071652085 0.22379158 0.04964175 -0.010468941 0.109382205 -0.12402481 -0.0902553 -0.1208931
-0.027036356 -0.15956199 0.010452009 0.046741832 0.17726941 0.08464229 0.02536481 -0.1369825
-0.044763986 -0.16487141 0.04347408 -0.1765041 -0.107357584 -0.041116204 -0.15042713 0.034788962
0.052030724 0.107146695 -0.021925198 -0.16620618 -0.13503343 -0.05878569 -0.16328697 -0.12657455
0.01994424 -0.14432216 0.14980118 0.030996686 -0.0032633636 0.17130236 0.19894208 0.06306443
0.10894417 -0.057327498 0.080782816 0.21869597 0.08681068 -0.14685133 0.025751833 -0.18607822
0.14046189 -0.17879793 -0.21353982 0.06074635 -0.049126294 -0.15328944 0.17655806 -0.09344945
-0.10364575 -0.13444147 0.06025766 0.14764187 0.119148396 0.025374647 -0.19202493 -0.095973834
-0.039101545 0.05404513 0.1887097 -0.16334036 0.12110241 -0.05236055 -0.1791211 0.123759195
0.3455813 0.26969466 -0.13732892 -0.023525642 0.047320474 -0.059816156 -0.11086065 -0.17816606
0.07942624 0.14822464 0.1542228 -0.13885583 0.20010948 -0.11161554 0.03362011 0.004288792
0.09650514 -0.1372625 -0.10060583 -0.11624472 0.10452576 0.06030671 -0.0021905678 -0.12240319
-0.08477247 -0.02921776 0.09658204 0.041600376 0.13653916 0.1304454 0.07621553 0.02647066
-0.09103416 0.16409004 0.1506179 0.12816298 -0.15073127 -0.013672274 -0.047059588 0.03606745
-0.009966195 -0.11124508 -0.053941257 -0.016970249 -0.010649981 -0.14829846 0.05015832 0.119928

stacks.0.blocks.0.fc1.bias f4 [100]
00000000: e4dc 0abe 351c 213d 83f5 313b b528 cd3c
00000010: e722 12be 6d19 97bc de4f ae3c c60e 7ebe
00000020: 0cf1 ee3c 3aa3 80be 3379 173e 8bc5 82be
00000030: 4579 d63d 5ff2 d63d 1e07 3d3d 6290 04be
00000040: fbf8 62be 57bf 0cbe 4853 8ebc a14f 013e
00000050: ce4f 173e ecea 643d 27cf 59bd f5a1 9c3d
00000060: 7907 ed3d 1b9a e4bd 0046 1ebe a578 5cbe
00000070: 2496 d5bd 8db9 bebd 71a5 babd b5fe 36bc
00000080: 0187 333e ff40 30be fede 50be ae9c 2cbe
00000090: 3999 c93d ccdd 6a3d c1c7 23bd 7a73 67be
000000a0: b182 8d3d 34b4 55be 0449 46be f0bc a53d
000000b0: 2ff9 d939 4390 fd3c 0eb8 71be ea9c f83c
000000c0: a2ec 2b3e dd46 703c 5740 083e bd87 4fbe
000000d0: 41ad cc3d f85d 93bd 83a2 443d 4a2e d83c
000000e0: 6b0d ca3d 1d81 4abc b9b4 ad3d d65b ee3b
000000f0: 2380 113e 1e2f a33d 1fa0 433e 29e8 673d
00000100: 7dce cfbd 9a42 1abe 6212 2c3d 41c1 02bd
00000110: 2b59 5abe 7609 083c 0c0e 0abd 15d1 0f3e
00000120: a6ee 1dbe b694 0abe bcee fa3d 784d 873d
00000130: bcd4 0fbd fa86 a3bd b058 31be 1f7a c93c
00000140: 595f 033d c1f1 c2bd b24c fd3d 1f6c 873d
00000150: 4c14 21be dfca 803d d4a5 4bbe c5b2 a2bd
00000160: 8063 a83d 2fbf 2ebe 2025 103e ce54 89be
00000170: 26c1 adbc ce35 393d ba0f 28bd ce3f 14be
00000180: 4f60 053e e890 e83d 5a08 f63c 00d3 4bbe
-0.13560826 0.03933354 0.0027154393 0.025043825 -0.14271127 -0.018444741 0.021278318 -0.24810323
0.029167674 -0.25124532 0.14792328 -0.25541338 0.10472349 0.10495447 0.046149366 -0.12945703
-0.22165291 -0.13744865 -0.017373696 0.12628032 0.14776537 0.0558881 -0.05317607 0.07648078
0.11573691 -0.11162206 -0.1545639 -0.21530397 -0.10429028 -0.09312735 -0.09113587 -0.011169125
0.17531969 -0.17212294 -0.20397565 -0.16856644 0.09843678 0.05734043 -0.039985422 -0.22602645
0.06909693 -0.20869523 -0.19363791 0.080926776 0.00041575122 0.030952578 -0.23605368 0.03034826
0.16789487 0.014665333 0.13305794 -0.20266624 0.09993983 -0.071956575 0.048006546 0.02638926
0.098658405 -0.012359885 0.08481736 0.0072741313 0.14209037 0.07967971 0.1910405 0.05661789
-0.101468064 -0.15064469 0.04200972 -0.031922583 -0.21323077 0.008303037 -0.033704802 0.14044602
-0.15423068 -0.13533291 0.12252566 0.06606573 -0.03511499 -0.07984729 -0.17318988 0.024594365
0.032073352 -0.09518767 0.12368144 0.06612419 -0.15730399 0.062886946 -0.19887477 -0.07944254
0.08222103 -0.17065118 0.14076662 -0.26822513 -0.021210264 0.045217328 -0.041030623 -0.14477465
0.1302502 0.11355764 0.03003328 -0.19904709

stacks.0.blocks.0.fc2.weight f4 [100, 100]
00000000: 0093 fb3c 78c5 9e3d cf55 b53d 5234 e3bd
00000010: 5161 9e3d d4d0 7abd f266 ee3c bde4 7e3c
00000020: 427e fdbc 5ed5 d7bd d988 67be b8bd 353d
00000030: 0181 91bc ed75 e43b d85a 71be ff81 7fbd
00000040: 10f5 80bd efac 84bd 9322 e6bd f7df 48bd
00000050: d2f0 0c3d 088a 05bd dd90 9abc 19de 08be
00000060: 4a35 133d 66f3 573c 401c 5b3d 1b17 d7bd
00000070: d36a f23c c74a 853d a3f0 a0bc 1ce2 a2bc
00000080: c236 20bd a6cf 82bc c76d 783d a0e3 533c
00000090: f0bf 173d 25fa e7bc c508 3cbe 6ecb debc
000000a0: 57d1 9dbd 60d4 af3c bfc5 e6bc 8328 a0bc
000000b0: 82f2 60bd 1dfc 5cbd fd77 5dbd 91f3 8f3d
000000c0: 8aaf 0abe 40cf fdbd 8729 7dbe b78c 09be
000000d0: fcd2 2b3d 20f2 8c3d 0d79 363d 8f96 d63c
000000e0: e154 e6bd 6296 723d 14d5 39be c0f0 69bc
000000f0: 362c 913d b4bf 5abd 5644 4ebb 15b0 9cbd
00000100: 3efe 6f39 587e febc b1d9 d73d 2a6f 0a3c
00000110: c30f 69bd 51f3 08be fce7 16bd ecf4 1abe
00000120: cad2 e7bd 2246 643d 77db d3bd accd 293d
00000130: 302a c1bd ffd9 fd3a fac9 4fbd 3601 ff3c
00000140: 5740 553d b50c 943b 6d3f edbd caa6 9bbd
00000150: 9047 113d a54f ca3d 9b7e 813d 3a33 42bd
00000160: 65d2 b83c 0160 30be 7c87 9b3c dcb0 55bd
00000170: 3405 92bd 82dd 823b 548a 07be a0cb 85bc
00000180: 179d eebd 4dba 2abd 4cc9 babd d741 e63c
00000190: 905a 663c e2f1 42bc 5239 ca3c 7547 903d
000001a0: 7398 823d ae28 37bd 91bb a7bd 576c a63d
000001b0: 9c46 8bbd 2bad 303d 7ce3 d63c 2194 2b3e
000001c0: c9b5 c6bd 4f8c dfbd 53fd c53d de84 27bd
000001d0: 036a 8dbd bad7 18bd aeda cd3d be74 f7bd
000001e0: b30a c4bd f483 c43d 81e4 cbbc 0088 e73d
000001f0: cc33 0b3e 4541 f4bb ec96 853d 0c39 ad3c
00000200: a284 e8bd dea9 d4bd 6b7e f9bc 340c b5bd
00000210: d813 bbbd 752b 67bc 5048 173e cecf 7a3c
00000220: d06b 8b3d 8a04 b93c 671e 5abb 13cb 94bd
00000230: d62d 633d a5a2 2f3c ac57 783d 8d6d dabc
00000240: e9c9 20bd 02f5 bbbc 9dfb 263c 4fa4 d83c
00000250: 01f3 e53d b9a1 803d 8f49 31bc b7be f03d
00000260: d263 d8bd a0cd 453c 8903 a5bd cac7 1bbd
00000270: eac7 b53d 73a0 693b 44ee 353d becd 03be
00000280: 138d 7e3d 4d9c 7e3b f689 7bbd 1858 df3c
00000290: b244 24bc dfff 213e 199b cb3d f570 b9bb
000002a0: 1d82 ce3d 18b5 5e3d de13 9c3d 9ad7 43bd
000002b0: 2520 8f3d 934d 86bd 04f6 3e3c a968 01bd
000002c0: 3a72 0abd e557 db3c 7248 013d 1ccd 5dbd
000002d0: 7ae4 963d 3201 e1bc a04b 183a 782f 37be
000002e0: ad19 333d 9935 efbd 772d 593d 94aa 54bd
000002f0: e4db 9f3d ec5e d33d 9ed3 5a3d 3889 aebc
00000300: c86b d03d e6c0 263c e988 993d ef62 003d
00000310: 09d1 8dbd 895b 093d 31c1 293d 4af6 4f3d
00000320: f8c8 9cbd 5e5a f2bc 0da1 753c 2085 8fbc
00000330: 4978 36bd 94f1 d1bc ec99 b5bd 5933 8cbd
00000340: ba95 acbc 2e1e b1bc f414 223d a050 823b
00000350: d003 c0bd 7d4f d3bd 9e8a 8d3c 414d 8d3b
00000360: 4cee ff3c 7a7d 1abd 55a7 133d 4e0b 9b3d
00000370: c0e3 733d 84e3 97bd c12b d03c 97bb 6abd
00000380: 0905 663d a836 a2bd adc5 423d 5d0b 41bc
00000390: 4c6f 8bbd b3aa 4e3d 20fb 97bd d434 95bc
000003a0: 2be6 84bd a924 dabc fb48 bb3d a132 27bc
000003b0: 1585 8e3d ce70 9a3c 4d7a 133d d250 333d
000003c0: abc2 77bd 0632 28bd 9364 82bc e3a9 92bc
000003d0: 7bcb b2bc 8d88 cfbc 54df 58bd 0122 8b3d
000003e0: 641c 923d 5eda 8fbd c66f a2bd a38c b8bc
000003f0: 1e40 c5bc b76c 423c 9f6a d5bd e01b 8bbd
0.030709743 0.07752508 0.08854257 -0.11093964 0.077334054 -0.06123431 0.029101823 0.015557465
-0.030943993 -0.105387434 -0.22610797 0.044370383 -0.01776171 0.0069720657 -0.2356981 -0.062379833
-0.06296742 -0.06478297 -0.11237063 -0.049041715 0.03440935 -0.03260234 -0.018867904 -0.13365974
0.035939492 0.013180589 0.05349374 -0.10502454 0.029591953 0.06508403 -0.019645995 -0.019883208
-0.03911472 -0.015968155 0.060651567 0.012932688 0.03704828 -0.02831752 -0.1836272 -0.027196612
-0.07705944 0.021463573 -0.028170465 -0.019550567 -0.054918773 -0.05395137 -0.054069508 0.070288785
-0.13543525 -0.123930454 -0.24722873 -0.13432585 0.041949257 0.06882119 0.044549037 0.026194839
-0.11246658 0.059225447 -0.18147689 -0.014278591 0.07088511 -0.05340548 -0.0031473837 -0.076507725
0.00022887529 -0.031066105 0.10539568 0.008449355 -0.056899797 -0.13374068 -0.03684233 -0.15132493
-0.11319502 0.055730946 -0.10344594 0.04145591 -0.09431875 0.0019367336 -0.05072973 0.031128507
0.052063312 0.0045181164 -0.11584363 -0.07600172 0.035468638 0.09878472 0.06322976 -0.047412135
0.022561261 -0.17224123 0.018985502 -0.05217062 -0.07129899 0.003993691 -0.13236362 -0.016332448
-0.11651056 -0.041681577 -0.091204256 0.028107567 0.014059678 -0.01189849 0.024685536 0.07044879
0.06376734 -0.04471653 -0.08190072 0.08126133 -0.06800577 0.043133896 0.02623152 0.16755725
-0.097026415 -0.109154336 0.096674584 -0.040898196 -0.06904986 -0.037315108 0.100514755 -0.12082814
-0.09572353 0.095954806 -0.024889233 0.11305237 0.13593978 -0.00745407 0.06522927 0.021145366
-0.11353423 -0.10383962 -0.030455789 -0.08840218 -0.09134644 -0.014109482 0.14773679 0.015308334
0.06807673 0.022585172 -0.0033282281 -0.07265296 0.055463634 0.01071993 0.060630485 -0.026663566
-0.039255057 -0.022943977 0.010191825 0.026445536 0.1122799 0.06280846 -0.01082076 0.11755126
-0.10565914 0.012072951 -0.08057315 -0.03803233 0.08876021 0.0035648614 0.04441668 -0.12871453
0.062146258 0.0038850487 -0.061410867 0.027263686 -0.010026144 0.15820263 0.09941692 -0.0056592175
0.10083411 0.054371923 0.07620977 -0.047813036 0.06988553 -0.06557765 0.011655334 -0.031593952
-0.03380034 0.02677531 0.03156323 -0.054150686 0.07367797 -0.02746639 0.0005809609 -0.17889202
0.04372566 -0.11680145 0.053021874 -0.05192049 0.07805613 0.10320839 0.05342447 -0.021305665
0.10176808 0.0101778265 0.07496817 0.03134435 -0.06924636 0.03353456 0.041444007 0.05077199
-0.07655519 -0.029584106 0.014992011 -0.017519534 -0.044548307 -0.025627889 -0.08867249 -0.06845731
-0.021067489 -0.021620836 0.039570764 0.0039768964 -0.09375727 -0.103178956 0.017278012 0.004312188
0.031241558 -0.03771732 0.036048252 0.075705156 0.05954337 -0.07416442 0.025411488 -0.057307806
0.056157146 -0.07920581 0.0475518 -0.011782494 -0.068083376 0.05045576 -0.07420945 -0.018213667
-0.064892136 -0.026628809 0.09144779 -0.010204942 0.06958977 0.018852618 0.036005307 0.043778248
-0.060488384 -0.04106333 -0.015917098 -0.017903274 -0.021825543 -0.025333667 -0.052947357 0.06793595
0.07134321 -0.07024072 -0.07931475 -0.022527998 -0.024078425 0.01186674 -0.10420727 -0.06792426

stacks.0.blocks.0.fc2.bias f4 [100]
00000000: 42e1 21bd f703 5cbd 9aa2 cdbd bfe3 9c3c
00000010: 61d1 d33c 51e1 54bd f89f ea3c 2561 873a
00000020: bb8b b5bd a37f 5abd 1a8c e73c b835 97bd
00000030: 87ca e3bd 47ed 2dbb 8bfd 133d 6959 ebbd
00000040: 23cf b4bc 5444 29bc b25e e5bd 2201 183d
00000050: 9ea8 473d 557a e83c 49d9 053d 6d25 053d
00000060: 5337 1b3d cab7 8e3b 044b 55bd b21c 943d
00000070: f6a3 d2bd d289 553a 36a3 efbd f936 a9bd
00000080: ed84 233d dbbd 7bbd 2839 bbbd e2dc 6a3d
00000090: 72ea a73d 3c1a f1bc 7056 17bd 9353 05bd
000000a0: 6ddb 25bd 5b23 4fbd e098 ce3c e888 5a3d
000000b0: 39d0 c03c ccf8 88bc 9ff0 ad3c 9c20 713d
000000c0: 2dca 9f3b d6c5 2fbd 6f16 1dbd 33dc a43d
000000d0: dd16 eabd 571d 3c3d 4090 b93c 412a 8abc
000000e0: 160f 24bc 68ae 273d eaf8 ba3c 0546 853c
000000f0: 0907 283d 5219 e8bd 78b3 b238 5a73 65bd
00000100: b377 8cbd 23b5 bb3d 4bf1 663b 52aa 423c
00000110: 4619 b33d 573e a33d d1aa f0bc d7c7 9fbd
00000120: 50cb 9f3d e870 293d 1f70 cebd ba90 62bd
00000130: 9915 533d 317a 5dbd bd7c c9bc 0e12 073d
00000140: 0888 25bd 1e79 27bd a1a0 253b 220a dabd
00000150: d6ed af3d 7bae 6a3d f1ce 3d3d 3711 793d
00000160: 6c8d 993d 82ae 8e3d a25b abbd a625 cdbc
00000170: 956f b7bd a92a fdbd 816d d1bd e505 6cbb
00000180: b3ca 023c a2e9 64bd 08ff 803d 25de e0bd
-0.039521463 -0.05371472 -0.100407794 0.019151567 0.025856676 -0.05197269 0.028640732 0.0010328634
-0.08864542 -0.05334438 0.028265048 -0.07383293 -0.111226134 -0.0026539133 0.03613047 -0.11491663
-0.022071427 -0.010331232 -0.11199702 0.037110455 0.04874479 0.028378645 0.032677922 0.032506395
0.03789456 0.0043554055 -0.052073494 0.07232036 -0.10285179 0.0008145842 -0.11701052 -0.08262438
0.03992169 -0.061460357 -0.09141761 0.057339557 0.08199014 -0.029431455 -0.036947668 -0.032550406
-0.040492464 -0.050570827 0.02521938 0.05335322 0.023536788 -0.016720198 0.021232901 0.05886899
0.004876396 -0.04291328 -0.038351472 0.08049812 -0.11430142 0.04592642 0.022651792 -0.016865851
-0.010013362 0.04093781 0.02282377 0.01626874 0.041022334 -0.113329545 8.52113e-05 -0.05601821
-0.06858768 0.091654085 0.0035239037 0.011881428 0.08745055 0.07970875 -0.029378327 -0.07801788
0.07802451 0.04136744 -0.10079979 -0.055313803 0.05153427 -0.05407161 -0.024595613 0.032976203
-0.040412933 -0.04088699 0.0025272744 -0.10646464 0.085902855 0.057295304 0.046339933 0.060807433
0.07497677 0.069668785 -0.08367087 -0.025042366 -0.089568295 -0.123616524 -0.10225964 -0.0036014256
0.007982898 -0.055886872 0.06298643 -0.10979871

stacks.0.blocks.0.fc3.weight f4 [100, 100]
00000000: d0e0 89bd b09f 8f3d 5ae4 933d 2fcd 1b38
00000010: 387f 523d 7fa4 06bd 8dff 9c3d 3c12 883d
00000020: e7c8 73bd a40d b33d 54c7 0abd dad9 b0bd
00000030: 216c 463d 399a 00bd 535f 173d a47c 1c3d
00000040: 58f2 2dbc 67a8 0fbc 6095 423b d5dd ebbd
00000050: c9ad 24bd fd6e 0839 e9dd 0b3e 3c35 823d
00000060: a361 5ebc 4be3 e8bd 6607 99bd e2fc 8fbd
00000070: e7af 23bd 6681 b4bd 971c ae3d 1aca 0abd
00000080: 2147 7cbc 6052 803d a56d 123b 03b6 7abd
00000090: 159b e73b 8ad3 3f3d e898 673c 909b a6bd
000000a0: f7ce 5fbd f1bd 933d 75cb 9fbc bc2f 8abd
000000b0: 0a0b 9bbd f49c ccbd c677 0e3d cf1e 82bd
000000c0: f7be a23d e68f 5cbd ce36 d0bd a531 ae3c
000000d0: 7011 19bd 4cf0 853c b80f 70bd d06c a93d
000000e0: fb23 8b3c 4e27 de3c 8d84 c33d bd9f e0ba
000000f0: 3765 e2bd fcc4 f43c 8c55 acbc f0b9 8c3d
00000100: d0e1 c5bd ea80 d9bc 6944 70bd b3ad d0bd
00000110: 8720 98bd d9ff 643d 26a8 8d3b 05c2 7ebd
00000120: bec0 07bc a329 443d ad49 3f3d e7bd 723a
00000130: cc47 cebd 2a4f d0bd 487c 58bd 5af4 0c3d
00000140: 6f0e 163d 22d4 bd3d 1468 5b3d 07c7 bebd
00000150: 813a 8f3d 836d dfb9 dec4 2c3d 1b15 96bd
00000160: aae4 b8bd 143b 98bd c924 c9bc f602 d73d
00000170: 1f99 853c 6d2c 22bd c557 3abc 1072 2fbc
00000180: 566e 483d d648 06bd bdf0 5bbc 157a 923d
00000190: 442d e4bd 913f 383d 9952 c1bd dab5 4c3d
000001a0: aa9a 8e3d abf8 2a3d 4b30 ac3b 2154 c0bc
000001b0: 7425 443c 1cc8 e9bd c105 d8bd 05e3 fb3d
000001c0: 8b04 76bd d794 14bd 0f12 0dbb ffc7 6bbd
000001d0: 7de0 1cbc b0b5 4d3d b646 a4bd 56fb 933d
000001e0: b0bf 693b 3032 9f3c 173f d9bd 798c 5a3d
000001f0: 2463 82bd ae85 ee3b 3670 c3bd bd06 2dbc
00000200: e190 fabd 95f1 28bd b329 55bd 3142 bbbd
00000210: 5e89 ca3a f4be 433e 6528 27bd eb64 b73d
00000220: 0aa6 11bb c762 0a3d 8b14 a33d b092 cbbc
00000230: c967 3b3d 316e 05bc 2a4a c5bc 6507 9c3d
00000240: 9180 a9bd 0d2e c93c 075a 64bd 50b3 40bd
00000250: 9462 9bbc 6fe8 373d 9fb2 973d 31be 17be
00000260: 0f20 02bd 607e 9a3d 2007 b83d de0a c03c
00000270: 086b 6e3d 5460 5cbd 8a5b 38be d1d4 923c
00000280: 4554 8a3d 8962 103c b5fe 50bd 700a 533d
00000290: a138 6b3c 100d ebbd 46ee ba3d 7e78 b53d
000002a0: 63cb efbd a170 90bd 0b3c 85bc 377b c2bc
000002b0: 554a d13d 9ba2 cf3d 6b3f dbbd 3d8d 98bd
000002c0: b98e 05bd 3c88 b4bd 1ad9 b6bc 8004 5d3d
000002d0: 01d2 e1bc af84 3e3d fb91 4bbd 20aa a6bd
000002e0: 5eff b8bd 2627 21bd c4ec c33c 687f a4bd
000002f0: 9ad6 30bd e8bd 803c c919 b8bd 0dfc 823b
00000300: e588 103d 0636 85bd f6f3 b13d 679f 3bbd
00000310: 2724 c23d 2143 9b3d a52a e7bc d53f d53d
00000320: 222e 043d 37af ff3c d0a4 3ebd 5bb3 bcbc
00000330: 92a4 323d 182d d43b 062c 533d 7c34 5f3d
00000340: bb7e 25bc abc5 78bd cb9f a13d 0312 8fbd
00000350: b21e 81bd a8c7 253c aecd ae3d 0be6 dbbd
00000360: 10eb 4c3d 073d 29bd 71f1 863d c359 773d
00000370: e02e 21bd 1bb4 bebd eccd 1e3d 06a7 463d
00000380: 9caf 043d ff71 833d 0ba8 883a 930f d63c
00000390: 0b9d d9bd b9d1 6abd 1ab7 713d f4be 88bd
000003a0: 2b72 dbbd a20c 693d 6af4 153d fc30 ff3c
000003b0: 3b3c e8bc d803 953c 12b9 aebd 70ef 5abd
000003c0: bb86 213c bbdc a93d 8146 9d3d c7c2 d53c
000003d0: f4a8 ac3d bdc2 3dbd 1c49 a8bc ab64 c9bc
000003e0: dc33 773d e80a bcbc a031 86bd fb04 e0bd
000003f0: 8a13 44bd 8b41 013d dcdf 9abd fe32 9c3b
-0.06732333 0.0701288 0.07221289 3.7145972e-05 0.051390857 -0.03287172 0.0766593 0.06644103
-0.059517767 0.08742836 -0.0338815 -0.08635302 0.048442964 -0.03139708 0.036956143 0.038204804
-0.010616861 -0.008768178 0.0029691085 -0.115169205 -0.040204797 0.00013011317 0.13658871 0.0635781
-0.013573083 -0.11371478 -0.07472114 -0.070306554 -0.039962675 -0.08813743 0.08501547 -0.033884145
-0.015397818 0.06265712 0.0022343185 -0.061208736 0.0070680478 0.0468326 0.014135577 -0.0813514
-0.054640736 0.07213963 -0.019506196 -0.06747386 -0.07570465 -0.09990874 0.034782194 -0.063535325
0.0794658 -0.05384817 -0.10166703 0.021263907 -0.037370145 0.016349934 -0.05860874 0.082727075
0.01698493 0.027118351 0.095467664 -0.001713745 -0.110544614 0.029879086 -0.021036886 0.06871402
-0.09662211 -0.026550729 -0.05865899 -0.101893805 -0.07428079 0.055908058 0.0043230234 -0.06219675
-0.008285699 0.04789127 0.046701122 0.0009259865 -0.10072288 -0.10171349 -0.0528529 0.03441272
0.03663486 0.09268977 0.053566054 -0.09315305 0.069935806 -0.00042615467 0.042179935 -0.07328244
-0.09027989 -0.07433143 -0.024553673 0.10498612 0.016308365 -0.03959315 -0.011373465 -0.010708347
0.04893335 -0.032784306 -0.013424096 0.071521915 -0.11141446 0.044982497 -0.094395824 0.049978115
0.069630936 0.041741055 0.0052547804 -0.023477616 0.01197182 -0.11415121 -0.105479725 0.1229916
-0.060062926 -0.036274757 -0.0021525656 -0.057563778 -0.009575007 0.0502221 -0.080212995 0.07225673
0.0035667233 0.019433111 -0.106077366 0.05335662 -0.06366566 0.0072791195 -0.09542887 -0.010560689
-0.12234665 -0.041246016 -0.05204172 -0.091434844 0.0015452316 0.19115812 -0.040810008 0.089547954
-0.002222421 0.033785608 0.07962903 -0.02485022 0.045753274 -0.008143947 -0.024083216 0.07618598
-0.08276475 0.024558092 -0.05574992 -0.047046006 -0.018967904 0.0448994 0.07407116 -0.14818646
-0.031768855 0.07543635 0.08985734 0.023442682 0.05820754 -0.053802803 -0.1800367 0.017923744
0.067543544 0.008812555 -0.051024158 0.051523626 0.014356763 -0.11477101 0.09127478 0.08860873
-0.11708715 -0.07052732 -0.016263982 -0.023740394 0.10219256 0.101384364 -0.107054554 -0.07448814
-0.032606814 -0.08815047 -0.022320319 0.05395937 -0.027565958 0.046513256 -0.049699765 -0.081379175
-0.090330824 -0.039343975 0.02391661 -0.08032113 -0.04317341 0.015715554 -0.08989293 0.003997332
0.035286803 -0.06504445 0.0868911 -0.045806315 0.09479552 0.07581163 -0.028218577 0.104125656
0.03227056 0.031211479 -0.046543896 -0.023034742 0.043613978 0.006475102 0.051555656 0.054493412
-0.010101016 -0.060735386 0.07891806 -0.06985857 -0.06304683 0.010118403 0.08535324 -0.107372366
0.05002886 -0.041317966 0.0658902 0.060388338 -0.039351344 -0.09311696 0.0387706 0.04849913
0.032394037 0.064182274 0.0010426057 0.026130473 -0.10625657 -0.057328913 0.05901251 -0.066770464
-0.10715135 0.056896813 0.036610045 0.031151287 -0.028349033 0.01819031 -0.08531393 -0.053451
0.009858782 0.08294054 0.07679463 0.026093854 0.08430663 -0.046328295 -0.020542674 -0.024584135
0.06035219 -0.02295442 -0.06552434 -0.1093845 -0.047870196 0.031556647 -0.07562229 0.004766821

stacks.0.blocks.0.fc3.bias f4 [100]
00000000: af94 6d3a 5c32 773d 90f6 bcbd b16f 53bd
00000010: 2eec 1fba c7d2 c53c fed1 503d b0e4 ecbd
00000020: 763b 1bbd 0d97 92bc 383b a23d e633 bb3c
00000030: 9f37 be3c c64b 843d 7b08 f5bd 8e44 3bbd
00000040: cada af3c 6549 bdbc a9e4 adbd 0d8c 893d
00000050: 28cd 43bb c8f1 47bd 8548 093d c335 3d3d
00000060: b0f3 483d ba13 c8bd cfc6 943d 82aa 82bd
00000070: 7b50 143d 101b d43d 1b74 02be 0b3a 9b3c
00000080: da98 ffbc 66ff 7fbd 7ca6 763d c52c ba3d
00000090: 7fc4 6bbd 37b9 77bc 687c 84bd 455d 9dbb
000000a0: 7774 a13d d3d4 f639 b13e a1bb ae11 af3d
000000b0: a4c6 4d3d 693e 823d 4c0e e23c 4e32 803d
000000c0: e156 d4bd 7b36 e7bd fa3b 96bd 5d03 88bc
000000d0: c514 92bd a160 debd 0c0e aabd 7899 bd3d
000000e0: 9a49 38bd 0069 673c 4fc5 e7bd e83b ccbd
000000f0: 3aa7 743b aba9 e3bd d765 f5bb e758 203d
00000100: 833e 89bd 20d9 d8bd 381c 1f3d b2cf 463d
00000110: 6298 d2bc 0432 07bc b162 7f3d 03e7 52bd
00000120: e32f 303d 6cf4 2a3c 7396 543d b20a 283d
00000130: f782 963a eee5 a63b f5a3 ca3d 684e ca3d
00000140: 8930 a0bc b772 d33d d7a7 a9bd fc7c 333d
00000150: c32e ffbc cfbc bfbc 8539 a0bc 0252 a53d
00000160: ddce 27bd b355 ffbd 040e a93d 3b0e 9e3d
00000170: 5c26 d83d 223d eabd 7c79 48bd 29bf a03d
00000180: f71e 7b3d f36f c1bd 47cb 68bd fb27 ca3d
0.0009062988 0.06035076 -0.092267156 -0.05162019 -0.0006100562 0.024148358 0.050981514 -0.11567056
-0.037898503 -0.017894292 0.07921451 0.022851896 0.023219882 0.06459765 -0.11964508 -0.045719676
0.021466631 -0.023106286 -0.08490879 0.06716166 -0.0029876921 -0.048814565 0.033516426 0.04619385
0.049060524 -0.097693875 0.07264482 -0.06380178 0.036209565 0.10356724 -0.12739603 0.018948575
-0.031200815 -0.062499426 0.060217366 0.0909057 -0.05756044 -0.015119842 -0.06469041 -0.0048023784
0.07883542 0.00047079343 -0.0049208035 0.08548294 0.050238267 0.0635956 0.027594708 0.06259595
-0.10368133 -0.11289688 -0.07335658 -0.016603166 -0.07132868 -0.10858274 -0.083034605 0.092577875
-0.044992067 0.014124155 -0.113169305 -0.09972364 0.003733112 -0.11116346 -0.007488947 0.039147284
-0.06701376 -0.10588288 0.03884527 0.048537917 -0.025707427 -0.008251671 0.06234998 -0.05148984
0.04301442 0.010434251 0.051901292 0.041025825 0.0011483122 0.0050933277 0.098945536 0.09878236
-0.019554393 0.103246145 -0.08283966 0.043820366 -0.031150227 -0.02340546 -0.019558677 0.080722824
-0.040968765 -0.12467518 0.082546264 0.07717558 0.105541915 -0.114374414 -0.04894398 0.07848961
0.061308827 -0.09445181 -0.056834485 0.09870907

stacks.0.blocks.0.fc4.weight f4 [100, 100]
00000000: a13f 363d f88e fa3d dc06 8c3d 8c89 f83b
00000010: fe9c 383d c8bd 90bd 48fb 083e 558d 9dbd
00000020: c07b ebbc 60c3 143e b613 eebd 232e 8f3a
00000030: 7c1e 31bd 43de 30b8 ff6a c7bc d153 89bc
00000040: 5056 0d3d 87dc c23d d71a 32ba d53b ad3d
00000050: ae2d 873d b868 c2bd 7f32 fbbd 4f35 1e3d
00000060: e168 8a3d c68f 7a3d 083a 92bc dbe1 e6bc
00000070: 4f4a bd3d 7833 11bd fbe3 ac3c b5f3 e93c
00000080: 55cb 87bd c36c 5abd e843 7dbb 15d8 a1bd
00000090: f095 04be a8b1 a2bd 518d 103e 353a 80be
000000a0: 4110 c9bd 657b aebd c426 293d 4ef1 cfbc
000000b0: c0b1 9ebc 462d a5bd aec0 1abd d30b 6fbd
000000c0: 60fe c33d c4ab 8f3b b3c3 fdbc a0a5 f9bd
000000d0: df31 6d3e c487 a03c 7260 8fbc b948 233d
000000e0: 1da0 7b3c ee56 4dbd 12aa 85bd 6fe4 e23d
000000f0: 3d34 623d 3bf6 49bd c54f 2abc e904 df3d
00000100: 171f 32bd 6063 e73d c073 053d f439 adbc
00000110: 70d8 ac3d 85d9 bb3c 868c 573d c36f 0a3d
00000120: 114c e73d 1efd 05be 590f 343e b4ba 45bc
00000130: 3d8b 823d b62f 95bc b653 bcbd 4149 da39
00000140: 4d55 afbd f000 db3c 4471 63bc 0928 b7bb
00000150: a83f bc3d e8da 16bd d9e0 273d 5e85 4ebd
00000160: 7dfb 093d c421 f33c 1136 42be 0c99 b5bd
00000170: 528e 75bd 04dc f23b 0a60 f5bc 8b8f 67bd
00000180: db7b 80bd c060 803d cf6a 80bd 7e72 bfbb
00000190: 1c75 17bd 229d ce3d 5021 ad3b 4661 5abc
000001a0: 5549 e5bb b7c4 acbd a34d 563d ea8b ce3c
000001b0: c4d8 363d 60fa 613d 2c56 24bd 1e0a e2bc
000001c0: 435a f13c 764f 2fbc edb8 1e3d 39c5 f93c
000001d0: 64ae 88bd 1e8e 973d e36f 9d3c 7f4a 463d
000001e0: ef70 75bd 2091 18bd a699 623d dee9 8f3d
000001f0: b9a3 053d 10b9 5bbc e7ac bb3c 9643 573d
00000200: 8f08 843d 2492 40bc 54f6 8fbd 0f1d 483d
00000210: 6c7e 7ebc 8bb4 8fbd 7bb5 003e ad4e edbc
00000220: cc56 e03c 18d7 debc a6e4 5ebe c736 733d
00000230: eb10 03ba 6379 d83c 8572 5b3d fb51 113d
00000240: d113 6d3d 0196 143c 8f14 8cbd afcc 713d
00000250: d938 443d a4f2 033d f493 cabc 044a 12be
00000260: 998b 4f3d 73cc aebd 71e6 ddba 5e77 053e
00000270: e146 59bd fc9e 973d 3345 28bc ca52 cc3d
00000280: 2e62 9bbc 8922 a43d 8495 87bd e810 f03d
00000290: 1b4e 3a3d fc99 c5bd 732a 9d3d b73e 1439
000002a0: 13b4 203c 9643 8cbd e5fe bf3c 7814 2fbd
000002b0: 35d7 98bc 6a39 88bd 5838 dc3d ccfb 203b
000002c0: 905e c43d 7e4e 073c 7539 923d b89e d33d
000002d0: 02ac 46bd 397f 103e 021a 6f3d 7648 f53d
000002e0: b9b2 aa3d 3f33 e1bc d0a7 033e 0dbd 10bd
000002f0: 2383 14bd d6cb 9ebd de53 c4bd 92ba c2bc
00000300: f1c2 bdbc d9dc 2bbd 4966 15bd fa18 6e3d
00000310: dc5d a13d 87ab 88bc d977 9c3d 99e4 b23d
00000320: 69fd 42bc 1ed0 55bd bef9 d43d 2095 82ba
00000330: 6e9e 5b3d 54a3 be3c da78 89bd 751c 86bd
00000340: 5f0e af3d 4182 99bd 6e6a ac3d b9a1 973c
00000350: ae2f df3d da15 103a 02c8 b43c c20d 343d
00000360: 7077 8f3d 9043 04bd 5c04 063e 744b 183d
00000370: 7039 b2bd 2d88 2d3d 90f1 cc3d 818d fcbc
00000380: ba8b 24bd c4ab e53c f470 34bd 3862 07be
00000390: e475 983d 9de0 863d 2b12 c23d f82f 9ebd
000003a0: e0a9 56bd 2891 9e3d f72d 3f3d 840b d9bc
000003b0: afe7 5a3d 7163 353d 7759 f1bd af3e 60bd
000003c0: 3a64 863c 1696 4b3d 2aca ef3c 0c23 c73d
000003d0: ebc2 12bd f44b c4bc 8ccc 2f3d 64ce db3d
000003e0: 6265 513c ea69 cb3d 7b4f 23bd 2cee 89bd
000003f0: f9d5 dd3c b094 cfbb 0026 e5bc 99ba 5e3d
0.044494275 0.122343004 0.06837246 0.0075847562 0.045071594 -0.07067448 0.13377106 -0.076929726
-0.028745532 0.14527655 -0.11624853 0.0010923784 -0.043241963 -4.2168667e-05 -0.024343012 -0.0167636
0.034506142 0.095147185 -0.00067941606 0.08458678 0.066005096 -0.0949263 -0.12265491 0.038625058
0.06758285 0.06117227 -0.017849937 -0.028183868 0.09242689 -0.035449475 0.021104803 0.028558591
-0.066305794 -0.05332638 -0.0038645212 -0.079025425 -0.12947822 -0.079440415 0.14116408 -0.25044408
-0.09817553 -0.085196294 0.041296735 -0.025383618 -0.019371867 -0.08065276 -0.03778141 -0.058360886
0.095700026 0.0043844897 -0.030977106 -0.121897936 0.23163556 0.019595988 -0.017502043 0.039864276
0.015357998 -0.05013173 -0.06526579 0.110787265 0.0552256 -0.04930709 -0.010394995 0.108896084
-0.04348668 0.11298251 0.03258109 -0.021145798 0.0843972 0.02293087 0.052624248 0.03379799
0.112938054 -0.13084838 0.1758398 -0.012068439 0.06374214 -0.018211227 -0.09195654 0.0004163478
-0.08561192 0.026733845 -0.013881985 -0.0055894894 0.09191829 -0.03682986 0.040985916 -0.050420158
0.033687104 0.029679187 -0.18965937 -0.08867082 -0.05995018 0.007411482 -0.029953022 -0.056533378
-0.062736236 0.062684536 -0.06270372 -0.005842506 -0.03697692 0.100885645 0.005283512 -0.013328856
-0.0069972672 -0.08435958 0.052320134 0.0252132 0.044640318 0.055170417 -0.040121242 -0.027592715
0.029461985 -0.010700097 0.038750578 0.03048955 -0.06673887 0.074001536 0.01921839 0.04841089
-0.059922155 -0.037247777 0.05532231 0.070270285 0.03262684 -0.013410822 0.022909595 0.05255469
0.06446945 -0.011753593 -0.07029405 0.048855837 -0.015533071 -0.07016858 0.1256923 -0.02896818
0.027385138 -0.027202174 -0.2176691 0.05937841 -0.00049997744 0.02642507 0.05357601 0.035478573
0.057880227 0.009068967 -0.06839859 0.059033092 0.047905777 0.032213822 -0.024728753 -0.14286047
0.05067024 -0.08535089 -0.0016929639 0.13033816 -0.05304611 0.07403371 -0.010270405 0.09976728
-0.018967714 0.080143996 -0.06620315 0.117219746 0.045484643 -0.09648511 0.07674112 0.00014137743
0.009808558 -0.068488285 0.023436973 -0.04274413 -0.018657306 -0.06651576 0.10752934 0.0024564145
0.09588349 0.00825846 0.07139865 0.103330076 -0.048503883 0.14111032 0.058374412 0.119767115
0.0833487 -0.027490256 0.12856984 -0.035336543 -0.036257874 -0.07753722 -0.09586309 -0.023770604
-0.023164244 -0.041958664 -0.0364745 0.05812929 0.078792304 -0.016683353 0.076400466 0.08735008
-0.011901238 -0.05220043 0.10399197 -0.0009962656 0.053617887 0.02327124 -0.06712504 -0.065483965
0.08547663 -0.07495547 0.08418737 0.018509733 0.10897766 0.000549642 0.022068027 0.043958433
0.07005203 -0.032290995 0.130876 0.037181333 -0.087023616 0.042366195 0.10007012 -0.030829193
-0.040172316 0.028036006 -0.044053033 -0.13221061 0.07444361 0.0658581 0.094761215 -0.07723993
-0.0524081 0.0774253 0.046674695 -0.026494749 0.053443607 0.044284288 -0.11784642 -0.05474728
0.016405214 0.04970368 0.029271204 0.097234815 -0.03583042 -0.023961999 0.04291968 0.10732725
0.012780519 0.09932311 -0.03987072 -0.06734881 0.02707957 -0.0063348636 -0.027972221 0.054377172

stacks.0.blocks.0.fc4.bias f4 [100]
00000000: 9df4 2d3d 887f 6c3a 2931 0b3d b9ca 293d
00000010: fb20 733d 6fc2 05be 0f94 683d ea75 343d
00000020: 02d2 97bd 7dad 263c 5324 b1bd 63a9 d53c
00000030: cae2 623d 7bea bbbd 92a9 003d ec52 febc
00000040: f5d0 1c3d 6d5f 03be 8f3a 053d 4283 b4bd
00000050: af54 c2bd 37c2 60bd e1d3 89bd 6eec 99bd
00000060: e38c 9abd 3e0a 54bd ad90 0abe f70a cbbd
00000070: cb01 a4bd 3c70 b3bc 7566 b8bd 00eb 6dbc
00000080: b263 b4bd eed9 f23b 8c42 12bb 10db 91bd
00000090: 7a84 a93c 6f1d 93bd 9774 87bd 0b56 a03d
000000a0: 8634 d9bd 6926 d2bc b775 5bbd 4a60 afbc
000000b0: bdb0 c5bc 9f27 a1bd d1a3 afbd 66d5 b73d
000000c0: ca7b ab3a 4cd1 353d 7cdb 61bd 133b 0a3d
000000d0: 4342 95bd 46e7 b6bd edeb d53c 9e23 dcbc
000000e0: 07a6 153d bed4 d6bd e86e 883b ffa4 eebd
000000f0: 67de 0cbd 6a2d 3e3c c0ab dbbd 2c59 07bd
00000100: b6f7 1e3d 08f0 443d 7aa7 3fbd 3ddb be3c
00000110: ad42 bdbd 33ee 07bc d806 b93c 1d30 a5ba
00000120: 4e25 623d 0d2f b23d 5a7c cf3c ad15 c4bd
00000130: 48c9 6bbd 3ad5 a7bd fcc4 28bc 7a04 a7bc
00000140: 2fd1 04be 25b9 eabc 4041 c13c 3bd0 40bd
00000150: 94d7 eabd 79ca 0abd 163d 48bd 7bb7 70bc
00000160: 1f3b 54bc dc75 b93c d58b 7dbd 4d95 f93b
00000170: 47ad 97bc 7a83 54bd 9131 03bc 3c3f 183d
00000180: 553f 293c 54be c53c 7f27 183d 1629 483d
0.04246961 0.0009021689 0.03398243 0.041453097 0.059357625 -0.13062452 0.056781825 0.044057764
-0.07413103 0.010173199 -0.086495064 0.026081746 0.055392064 -0.09175583 0.031411715 -0.0310454
0.038285214 -0.12829371 0.03252655 -0.08814098 -0.09488808 -0.054872718 -0.06729866 -0.075157985
-0.07546403 -0.05176758 -0.13531752 -0.09914201 -0.080081545 -0.021904103 -0.09003917 -0.01452136
-0.08808078 0.007411233 -0.0022317497 -0.07121861 0.020693053 -0.071833484 -0.066140346 0.078289114
-0.10605721 -0.025653081 -0.05357906 -0.021408219 -0.024132127 -0.07868885 -0.085761674 0.089762494
0.0013083157 0.044389054 -0.055140957 0.033747744 -0.07288029 -0.08930831 0.026113475 -0.026872452
0.03653529 -0.10489796 0.0041636117 -0.11652564 -0.034391787 0.011607507 -0.10726118 -0.033044025
0.038810454 0.048080474 -0.046790577 0.0232979 -0.09241233 -0.008296537 0.022586271 -0.001260284
0.055211358 0.087003805 0.02532785 -0.09574447 -0.057565004 -0.081949666 -0.010300871 -0.020387877
-0.12970422 -0.028652737 0.023590684 -0.047073584 -0.114668995 -0.0338845 -0.04888638 -0.014692183
-0.012953549 0.022639208 -0.061900932 0.007616675 -0.018515242 -0.0518832 -0.008007423 0.03716968
0.010330041 0.024138607 0.03714704 0.048867308

stacks.0.blocks.0.theta_layer.weight f4 [31, 100]
00000000: 9399 09be f0f7 0fbd e91d e03c 00d3 2d3d
00000010: 787b 3bbd c5d4 2abd 4372 a3bd 18eb 09be
00000020: c11f c1bd 8c1a 193d 0d22 55bd 16a9 213c
00000030: 4d20 233d be7f abbc e6b3 e4bc ed7a 163d
00000040: 0671 1bbd 76a0 acbc 0846 693c a2b2 acbc
00000050: 3686 763d e2d3 96bd c43c 003d ced5 a0bd
00000060: c978 d7bd 32cb 003d a273 403d a96a 813d
00000070: 3a2c 7dbd eaad 6ebb cf65 71bd aa88 353d
00000080: bd06 88bd f1b2 a9bd 31ab 8c3d 100e ba3c
00000090: 1c3a b13d 7b4b dabd e8d9 a33d 3c0b b7bd
000000a0: 45ab debd 203b 013d 19b0 15bd 399c 1dbd
000000b0: f6d4 963d 7f0f e1bc 7c59 8fbd d5b0 513d
000000c0: c337 833b a30d 2ebd d472 10bc a93a 93bd
000000d0: 38de b03c edd7 733d 10fb 54bc 9174 f33c
000000e0: 20fd 2bbd c8af 7ebc d22e a2bd c6cf 103c
000000f0: 431f 143d f95b 423d 0416 57bd c8f6 8fbd
00000100: 8699 99bc cfaf 85bb 2423 753d 19c8 773d
00000110: 2334 b2bd f5d4 42bd d326 4dbd 30bc 5d3d
00000120: b748 37bd e5df 62bd 006d 7abc 672b 9ebd
00000130: 4908 8abd 9b65 b13d 8f76 2b3d fd9c 5e3d
00000140: d20f 233d 5e52 c8bd 8e09 a93d 04a3 c8bd
00000150: f26e 253d 8941 cabc b096 ecbc 6b79 743c
00000160: 520e 38bd 580f cc3d 5920 93bd a010 debc
00000170: a9ff cebd e858 023d 9828 bb3d 181d 40bc
00000180: 885f 823d 912c a4bd 35d2 eb3b 50c6 af3c
00000190: f563 bcbd ac50 513d 9c96 9e3c 57a1 6d3d
000001a0: 5e79 0bbe c719 823b 1788 d0bd e50e ae3c
000001b0: ed6e 313d f81e e3bd 4e9f 4abd b2b1 753c
000001c0: cd6d d5bd 644d abbc 95ff 423d 3704 3c3d
000001d0: e1c7 81bd f6fc 65bd 01c3 a5bd 3a17 5abd
000001e0: cc82 9ebc 20a9 f33b 6f2f 74bd 9c73 7bbd
000001f0: 9494 a3bc 111c ac3d 036f 673d 217a 44bd
00000200: 88eb a63c dad3 a1bc 63a5 013d 8db2 9a3d
00000210: 3832 b1bc b227 95ba cc1e 0cbd 524f b8bd
00000220: dfb2 cabc 87a8 ad3d a64b 9b3d a744 46bb
00000230: 7510 41bd 4214 b2bc 27c3 ae3d 9d97 d8ba
00000240: 6030 c7bd 25ed 9d3d 70ea 42bd 5075 b8bc
00000250: 941e debb f6c2 d2bd f23f 4b3d 4319 f03c
00000260: c05d cc3c 2fd5 30bd 104b afbd 6191 8ebc
00000270: 4b6c 12bd 6142 8bbc 1268 e33d 367e 3f3d
00000280: 3388 873d 3f8a a0bd aa46 cabc f6ff 48bd
00000290: d8c2 4cbd 3576 55bc a6d1 84bc 36f0 ce3c
000002a0: b85a c8bd dfac 32bd 5648 0b3d 7d3a e8bd
000002b0: f55c 96bc d395 a33d a2d5 bf3d 222a b9bd
000002c0: ae5b a73d eb23 ab3d 63b5 7c3d 79e1 c53d
000002d0: df84 96b8 98c4 43bd 28aa c93c 985b de3b
000002e0: 8905 ce3c b43a 103d c193 37bd 0336 b1bd
000002f0: dd4b 8bbd 384b 5f3c b1cd 3d3d 684d a8bd
00000300: 7b08 613c 3f93 dd3c d846 083c 1aa1 ba3d
00000310: 0ed2 abbd cd59 acbd 4f5d 3ebd f4df 553c
00000320: 7ed5 78bb 8ddb d23d f978 26bd 80a9 0ebd
00000330: 9a8c 9dbd d960 adbd d8ce 70bd e6b2 c9bd
00000340: e5fe bf3d ef90 03bc c336 d7bc 06b3 2ebd
00000350: 8669 82bd c607 fa3c 2a92 84bc 898a 4e3b
00000360: ddd4 4f3d 6a28 a83c 77f3 eabd 7868 183d
00000370: 8076 4dbc 839d ad3d 8c95 afbc 7314 afbd
00000380: e057 8b3d 3769 833c 323b 80bb 983f 7a3b
00000390: e370 36bd eadf b2bc 39ff a63c c846 84bd
000003a0: 8111 9dbd 4ff4 2ebd 8718 6c3d b149 823d
000003b0: acce 58bd cbbb c1bb 231e b63c 033f b0bb
000003c0: 8535 efbc 8cda 393d 8800 84bd a448 a9bc
000003d0: ea31 f13c f37b 613c 1007 6a3b b9f2 583d
000003e0: cd8d 9bbd 8f6e 783d 4e9d a93d 94e2 89ba
000003f0: 8546 aabd 5fd2 f33d 89c5 9abd c099 a63d
-0.1343749 -0.03514856 0.027358012 0.042437553 -0.045772046 -0.04170682 -0.07980778 -0.13468587
-0.09429885 0.037378833 -0.052034426 0.009866973 0.039825726 -0.020934936 -0.027917814 0.036738325
-0.037949584 -0.021072607 0.014237888 -0.021081273 0.060186587 -0.07364632 0.03130795 -0.0785328
-0.10521085 0.031443782 0.046985276 0.06319172 -0.061809756 -0.0036419579 -0.058934983 0.044319786
-0.0664191 -0.082860835 0.0686859 0.022711784 0.086536616 -0.10658928 0.08000547 -0.0893769
-0.10872511 0.031550527 -0.036544893 -0.038479064 0.07364838 -0.02747321 -0.0699949 0.05119403
0.00400445 -0.042493474 -0.00881644 -0.07188923 0.021590337 0.059532095 -0.012999311 0.02971867
-0.041989446 -0.015544839 -0.079190865 0.0088386 0.036162626 0.047450993 -0.05251123 -0.07029492
-0.018749963 -0.004079796 0.059847966 0.060493562 -0.087013505 -0.047566373 -0.050085854 0.054134548
-0.04474708 -0.055389304 -0.015284777 -0.07723122 -0.067398615 0.08661958 0.041861113 0.054348934
0.03981001 -0.09781335 0.082537755 -0.09796718 0.04038901 -0.024689453 -0.028880447 0.014921526
-0.044935532 0.09963864 -0.07183904 -0.027107537 -0.10107357 0.03182307 0.09138602 -0.0117256865
0.063658774 -0.08016313 0.0071966895 0.021456867 -0.09198753 0.051102325 0.019358926 0.058015194
-0.13620517 0.003970358 -0.10182207 0.021247337 0.043318678 -0.11089891 -0.04946833 0.014995979
-0.104213335 -0.020910926 0.047607023 0.045902457 -0.06336952 -0.056149445 -0.08093835 -0.053244807
-0.019349478 0.0074359328 -0.05961555 -0.06138955 -0.019968309 0.08403791 0.056502353 -0.047968034
0.020375982 -0.019754339 0.031651866 0.07553587 -0.021630391 -0.0011379628 -0.034209058 -0.08999504
-0.024743496 0.0847941 0.07582788 -0.0030253322 -0.047134835 -0.021738175 0.08533316 -0.0016524676
-0.09726024 0.07711247 -0.04758686 -0.022516876 -0.0067785475 -0.10291092 0.04962153 0.02930892
0.024947047 -0.043172058 -0.08559239 -0.017403306 -0.035747807 -0.016999425 0.11103834 0.046751224
0.06617775 -0.07838868 -0.024691898 -0.04907223 -0.049990505 -0.013028671 -0.01621325 0.025261026
-0.09782928 -0.043621894 0.03400453 -0.11339281 -0.018354872 0.07987561 0.09366919 -0.09041239
0.081717834 0.0835646 0.06169642 0.09662146 -7.1773065e-05 -0.04779491 0.02461727 0.006785821
0.025149124 0.035212234 -0.044818643 -0.0865288 -0.06801579 0.013628773 0.04633874 -0.08217889
0.013734932 0.027047751 0.008317672 0.09112759 -0.08389674 -0.08415566 -0.046475705 0.013053883
-0.0037969048 0.10295782 -0.040642712 -0.034829617 -0.07692833 -0.08465738 -0.05879101 -0.09848575
0.09374789 -0.00803016 -0.02627123 -0.0426512 -0.06367783 0.030521285 -0.016182978 0.003151568
0.05074011 0.020527083 -0.114722185 0.037209004 -0.01254046 0.084773086 -0.021433614 -0.08548822
0.0680387 0.016041381 -0.0039133066 0.0038184877 -0.04454125 -0.021835286 0.020385372 -0.06458813
-0.07669354 -0.04271346 0.05764058 0.06361712 -0.052931473 -0.0059122792 0.022231167 -0.0053786053
-0.029200325 0.04537444 -0.06445414 -0.02066452 0.029442746 0.013762462 0.0035709776 0.052965853
-0.07595406 0.060652312 0.082819566 -0.0010519796 -0.08314232 0.119053595 -0.07557208 0.08134794

stacks.0.blocks.0.theta_layer.bias f4 [31]
00000000: 2209 fe3c aba3 303d 2424 9dbc 1fbd 67bd
00000010: 41c4 3b3c 72f6 653c a322 4bbd f789 f73c
00000020: 2898 a1bc 3350 5abd af2a 61bd 6c2c fe3c
00000030: 0576 99bd 8eab 913d 259f ab3b f782 1dbd
00000040: 9b6d bf3d 44b7 b9bc 46d2 28bd d08e 27bd
00000050: 5eb1 6fbd 69d5 7b3d 696c 07bd b0c1 b1bd
00000060: 8cab 3dbd bccb 96bd 2239 663d 5b1d 4dbc
00000070: 808d 90bd 886a aebc 71fb 45bd
0.031010214 0.043124836 -0.019182272 -0.056576844 0.011460365 0.014035808 -0.04959358 0.030217154
-0.019725874 -0.05329914 -0.054972347 0.031027041 -0.074932136 0.071127996 0.0052374774 -0.038454976
0.093470775 -0.022670396 -0.041216157 -0.04090768 -0.05851876 0.06148282 -0.033062372 -0.08679521
-0.046306178 -0.07363078 0.05620683 -0.012519206 -0.07058239 -0.021291032 -0.048335496

stacks.0.blocks.1.fc1.weight f4 [100, 30]
00000000: 3bf6 19be 3148 d9bd 12c6 ae3d 09cf c03d
00000010: 3cdf ebbd eb1c f2bd 6c6f 05bc fb11 ec3c
00000020: 7207 d4bd 90da fd3d a0a9 d0bd 2353 75bd
00000030: fe03 bd3d 17ec 4e3e 8f77 bcbc 0189 8d3c
00000040: b359 1e3d dea5 bcbd b190 1bbe ebfb e5bd
00000050: c310 77bb 07c0 e43d cbed 1e3e e0cc db3d
00000060: de8d 0fbe 9e6e c6bd 94f4 0b3d e76e 1b3e
00000070: 3479 173e 8f30 9c3e 981e 1a3e 5a9a ed3b
00000080: 7749 03bc 3a78 17be 67e2 4a3e 4eeb 623d
00000090: bda6 863d b49f 9a3d f756 5a3e afda 0a3e
000000a0: 492f 3f3c ebb1 50bd 60e6 36bd b28c 16be
000000b0: 8043 92bd 637b edbc 7c53 943c 63b6 a93d
000000c0: c384 9cbd ff5a b53d 403d 54bd 63a6 d5bd
000000d0: 80a5 633c 87c6 d93c d106 f7bd e595 3cbd
000000e0: 5049 4c3d 48f1 133e d402 203e 53cf 203d
000000f0: dfd7 1e3d 6274 5cbd 52bf 843d 5572 85bd
00000100: ad89 b93c 6e05 31bc a18c a13d 465b 7dbd
00000110: f73c b0bc 147b 47be bb03 043d cd28 9d3e
00000120: 8c92 42be 5f90 9a3c d050 fa3d fb00 80bd
00000130: 5583 043e c6dc 8dbd e6c6 52bc 458c 383d
00000140: 7faf 133c 7af4 733e 337c 6e3b 6aa1 63bd
00000150: 164e a13b f8e9 97bd 9668 9fbc 781a 8bbd
00000160: 7daa bcbc 1f5c 9a3d f049 86bd 661a 3dbe
00000170: e5e5 fd3b e210 103e 85e0 6ebc da4d 45bd
00000180: c4cc bf3d afe6 ebbd b570 f3bd 27fb 32bd
00000190: 13db 003e 0253 57bd 6c92 1a3d 213d bfbd
000001a0: 52b1 313e 67b4 25be 0cfa 10be 0c0a 88bd
000001b0: 9878 3b3e bfcd 613d 3a92 0bbe 5c81 4ebc
000001c0: 571e a03d ed7c 093e 3712 2d3e fd64 853c
000001d0: c11d 9d3e 6708 86be 497e 9ebe ced4 91be
000001e0: 931a 5abc cd4b f9bd eec8 3b3e 715b 4dbb
000001f0: 86a7 4f3e 3ce3 a2bd 493d 02be c337 abbd
00000200: 263c 90bd aa3e 93bc 7a54 67be a489 573e
00000210: 1b3e a63d 91fb 94bc aed9 aa3d e036 803d
00000220: 4bc6 33bd a3bc 8bbc f977 94bc 85a3 bebd
00000230: 75b6 023e fa30 21bb 292c 313d 831e 0b3e
00000240: 0dde c53c c120 37be 58e5 44bd 0b6d 0fbe
00000250: cc8b dabd c607 2fbe 9ca8 abbc d992 2abe
00000260: 5d2d 163d a2cd 00be 4e6a cabd 1691 85bd
00000270: 1d50 b93d 35b9 103e a63e 1c3d fe1b e0bc
00000280: ba2f 0a3e 978e 01bd 71af a73c 2dcb 153c
00000290: 2a38 d5bd 6db6 253e e4ea 27be 05e8 f03d
000002a0: 59d5 8c3d 2cd2 613d 4dbb afbd 4729 8fbd
000002b0: 5315 4f3d 8ae6 25be 9699 6f3e 6dba 353d
000002c0: ba44 5b3e 4094 86be fc23 febd ff9a 93be
000002d0: dbbb ca3d 8633 47be c72b abbd dc8c c1bd
000002e0: 97cd df3c 8871 f53c 9c75 99bd bdd9 3cbd
000002f0: 5eb5 56bd 9aba 80bd dcaa 8abc c0bc 093e
00000300: 0a19 d9bd 8af7 a73d dcba 353e 1f70 0fbe
00000310: 1ac8 ec3d 664d 173c 7597 1abd 2c90 20be
00000320: 3109 f8bd 0e76 b33d 2e87 983d d21d 2c3c
00000330: d845 03be 580a 153e e1e6 3d3e d885 e4bd
00000340: b706 00be c3e6 88bd 31e1 0a3d f2ac 2a3e
00000350: a05b da3c e27a b8bd b0c1 6c3d 6d1b 0b3e
00000360: 2812 31be fbcf b33d babc 2abd d43c cd3d
00000370: 7492 78bd 6b80 a83c b939 2ebe 11e3 2e3c
00000380: 458a 82bd 9f99 adbd b4a9 323e e9e4 2e3d
00000390: 6479 e53d 0858 983d 82c3 1dbe 0ecf 84bd
000003a0: bbda 36bd 9c8f 31be b0b4 123d 77ac 263c
000003b0: a96e 7dbd c0ef 9abd b77a 1e3e 7246 ac3d
000003c0: 1dae a3bd 08af 14be eb1d b33c d48f 41bd
000003d0: 8d46 0bbd 81c9 24be 1e1b dfbd 7c86 a83d
000003e0: dc5e 06be 18cd 31be 1034 b53d 9967 af3d
000003f0: d2bb fd3d f1b0 ce3d 6b93 3abd 23b4 f23d
-0.15035336 -0.106094725 0.08533873 0.09414489 -0.11517188 -0.11821922 -0.008144241 0.028817168
-0.103529826 0.12395203 -0.101886034 -0.05989374 0.09229277 0.20207249 -0.023006229 0.017277243
0.038659763 -0.09211324 -0.15191914 -0.1122969 -0.00376992 0.11169439 0.15520398 0.10732436
-0.14018962 -0.09689067 0.034168795 0.15179025 0.14792329 0.30505797 0.15050733 0.007251066
-0.008013121 -0.14791957 0.19812928 0.055400185 0.065747716 0.07549992 0.21322237 0.13559984
0.0116689885 -0.050950926 -0.044653296 -0.14702109 -0.07141781 -0.0289895 0.018106215 0.08286741
-0.0764251 0.08855247 -0.051816225 -0.104321264 0.013894439 0.026583923 -0.12061847 -0.046041388
0.049874604 0.1444751 0.15626079 0.03926022 0.03878009 -0.05382193 0.06481804 -0.06515948
0.022648657 -0.010804517 0.07888151 -0.061854623 -0.021513445 -0.19480544 0.03223012 0.3069519
-0.19001216 0.01886767 0.12222445 -0.06250187 0.12940724 -0.06926875 -0.012864804 0.045055646
0.0090140095 0.23823729 0.0036389946 -0.05557386 0.0049226386 -0.07417673 -0.01945905 -0.06792158
-0.023030514 0.07537102 -0.06557071 -0.18467101 0.007748353 0.1406894 -0.014579897 -0.04816995
0.09365228 -0.11518609 -0.118867315 -0.04369655 0.1258357 -0.052569397 0.037737295 -0.09337831
0.17352799 -0.161821 -0.14157885 -0.06642541 0.18307722 0.055127855 -0.1363 -0.012604084
0.07818287 0.13426562 0.1690148 0.016283507 0.30686763 -0.26178285 -0.30955723 -0.2848267
-0.013312 -0.12172661 0.18338367 -0.003133502 0.20278749 -0.07953498 -0.12718691 -0.08360245
-0.070427224 -0.017974216 -0.22590819 0.210486 0.081173144 -0.018186362 0.083423 0.062604666
-0.04389028 -0.017057722 -0.018123614 -0.093085326 0.12764914 -0.0024595843 0.043255005 0.13585858
0.024153734 -0.17883588 -0.04807028 -0.1400644 -0.106711954 -0.17092809 -0.020954423 -0.1665758
0.036664356 -0.12578443 -0.09883557 -0.065218136 0.090484835 0.14133151 0.038145684 -0.027357098
0.13494769 -0.031630125 0.0204694 0.009142679 -0.10411103 0.16182871 -0.16398197 0.11763004
0.0687663 0.055132076 -0.08580647 -0.06990295 0.050557446 -0.16201225 0.23398432 0.044367243
0.21412936 -0.2628498 -0.12409207 -0.2882919 0.09899112 -0.19453248 -0.08357959 -0.09450695
0.027319713 0.029961362 -0.07493135 -0.04610609 -0.05241906 -0.062855914 -0.016927175 0.13450909
-0.10600479 0.08201511 0.17747062 -0.14007615 0.11561604 0.009234762 -0.037742097 -0.15679997
-0.12111128 0.087627515 0.074476585 0.010505157 -0.12819612 0.14554727 0.18545105 -0.11158341
-0.12502562 -0.06684639 0.033906166 0.16667536 0.026655018 -0.09007813 0.057801902 0.13584681
-0.17292082 0.087799035 -0.04168389 0.10021368 -0.060686544 0.020569047 -0.17014207 0.010674254
-0.06374029 -0.084765665 0.17447549 0.042698774 0.11204794 0.07438666 -0.15406612 -0.06484805
-0.04464219 -0.17339939 0.03581685 0.010172955 -0.061873112 -0.0756526 0.154765 0.08411874
-0.07992194 -0.14519894 0.021864852 -0.047256306 -0.03400283 -0.16092493 -0.10893844 0.08228776
-0.13122123 -0.17363393 0.08847821 0.085646816 0.123893395 0.10092343 -0.045550745 0.118507646
