RNN_models/close_slope_2_t1.pth (torch, 15443 bytes, 5 tensors)

weight_ih_l0 f4 [50, 7]
000000 dc ab f8 3d ff 57 0d 3e 1e 2d 1f 3e 29 bc fb bc
       0.121421546 0.13803099 0.15544555 -0.03072937
000010 c9 a1 aa bc e1 37 c6 bd 7f a5 de 3b 5b a4 ec bd
       -0.020829098 -0.09678627 0.006794631 -0.11554786
000020 91 43 ae 3d 5a 82 b4 3d c6 be 0a 3e d8 41 a7 bb
       0.08508981 0.08813925 0.13549337 -0.0051042847
000030 4c b6 ab bd 6e 9c 10 be c8 77 8a bd ea 9a 30 bd
       -0.0838438 -0.14122173 -0.06761128 -0.043116488
000040 6f 82 fb bd 56 d8 16 be ec 7b 74 3c 5c 27 a4 3d
       -0.122807376 -0.14730963 0.014922123 0.0801532
000050 ed ea e4 3d 13 6a 00 bd 4e 20 b2 bd d3 c8 c4 bc
       0.11177621 -0.03135116 -0.08697568 -0.024021542
000060 be f7 ae bd 2c 96 fb bc fc f0 d9 3d bc 4d d2 3d
       -0.08543347 -0.030711256 0.10641667 0.10268733
000070 ba eb 0d 3d 95 98 75 bd 5e ae 0f be 3c 0c bb bc
       0.034648634 -0.059959967 -0.1403136 -0.022832982
000080 3e 7d 16 be 5f b1 f9 3d 2c ed f0 bd 8b 03 72 3d
       -0.14696214 0.12192034 -0.11763987 0.05908541
000090 ab b4 77 bd f2 56 0f be d2 9a c3 bc 92 d2 0b be
       -0.060475033 -0.13998011 -0.023877535 -0.13654545
0000a0 e2 24 0d 3e 29 46 ed bd 33 56 49 bd 65 f1 7e bd
       0.13783601 -0.115856476 -0.04915447 -0.06224193
0000b0 b8 28 51 3d 2d 50 30 3e 4c 51 ca 3d b0 78 b1 bc
       0.051064223 0.17218085 0.098787874 -0.021663994
0000c0 f8 64 bb 3d 5c 96 24 3e d2 d0 c9 3c 9d 89 d5 3c
       0.09150118 0.16072983 0.024635706 0.026066596
0000d0 90 25 ba 3d 91 23 b7 bd 04 dc 30 bd 14 a4 a4 bc
       0.09089196 -0.08942331 -0.043178573 -0.02009777
0000e0 bf 10 7f 3d f1 fd 83 be 58 0d 06 3e 01 3e 71 bc
       0.06227183 -0.2577968 0.13091028 -0.014724256
0000f0 39 b6 33 bd 57 14 87 3d cb 33 08 be 3e 74 fc bd
       -0.043874953 0.065956764 -0.13301007 -0.12326859
000100 ee dc 41 bb 55 d8 0b bd 78 f0 9a bd b9 9e dc bd
       -0.0029581147 -0.034141857 -0.07565397 -0.107724614
000110 13 cd d9 3d 2b d3 3f bd 5b 7c 19 bc e4 95 a5 bd
       0.10634818 -0.046832245 -0.009368028 -0.0808523
000120 ed a1 b1 bd 1c 7a d8 bd bd a5 1c 3d 5e 53 1a bd
       -0.08673463 -0.105701655 0.038243998 -0.03767716
000130 c4 70 42 3d 9f 9d b5 3c a2 96 b8 3d 5d 97 7d 3d
       0.047470823 0.022169886 0.09013106 0.06191193
000140 66 10 b7 3b b6 2e bc 3d 21 69 8d 3c a4 68 00 be
       0.0055866716 0.09188597 0.017262043 -0.12539917
000150 50 ea 11 3d 0b 7a 25 3d b4 7b 31 3d 75 60 67 3b
       0.03562385 0.040399592 0.043330863 0.0035305296
000160 f5 fa 08 be 12 cd 03 be 79 73 96 bd 58 d4 0e 3d
       -0.13376983 -0.12871197 -0.073462434 0.034870476
000170 6b 45 17 3e dc 89 38 3e 6c 75 3a 3e 0a cc 75 bd
       0.14772575 0.18021339 0.18208855 -0.06000904
000180 59 d4 70 bd fa 6a 5d 3d c8 f7 c4 bd d5 2a a8 3d
       -0.05879626 0.0540571 -0.09617573 0.082112946
000190 1e a9 5f bd aa a9 90 bd 5e 54 9d 3d 38 5e 99 bd
       -0.054604642 -0.07063611 0.076821074 -0.07488674
0001a0 ca 46 f6 bc b3 20 78 3d cc c2 12 bc 12 8b a2 bb
       -0.030063052 0.06057806 -0.008957576 -0.004960426
0001b0 6f 8b a5 bd 87 64 30 bd 06 ab 9c bd 4d c6 79 3c
       -0.080832355 -0.04306462 -0.07649808 0.0152450325
0001c0 d8 d8 64 bd 71 49 00 be f1 cb cf 3d e7 4f c7 bd
       -0.05587086 -0.12528016 0.101463206 -0.09732037
0001d0 08 88 a6 3c 27 31 90 bd a7 e8 5c 3a 9d 5f b6 bc
       0.020328537 -0.07040625 0.0008427002 -0.022262389
0001e0 df e1 11 be 3a 16 4e 3e ee a7 a8 3d b6 44 04 3e
       -0.14246319 0.20125666 0.08235155 0.12916836
0001f0 fa 5e 75 3d 3b 4a 81 bd 95 76 93 3c dd 08 1a 3d
       0.05990503 -0.063129865 0.01800088 0.03760611
000200 bf 9d 61 3c 28 bd 74 3d ec e2 07 3e 27 6f 05 3e
       0.01377052 0.059750706 0.13270158 0.13030683
000210 32 2d 8a 3c ab 04 fe bc 7f 06 43 3d 55 76 f5 bd
       0.016867254 -0.031008085 0.047613617 -0.11985461
000220 22 70 91 3d 60 6a f1 bd bc 8b 8e 3d 4a 28 e3 bd
       0.07101466 -0.117878675 0.06960246 -0.11091669
000230 89 96 b1 bd 9f 15 f8 bd 26 de 97 3d 4f 09 d5 bd
       -0.086712904 -0.12113499 0.07415418 -0.10402166
000240 61 c6 dc 3d b1 89 bc bd 3b 4d db 3c ca 2b c9 3d
       0.10780025 -0.0920595 0.026770225 0.09822805
000250 e4 e5 d9 3d b5 59 11 be 73 aa fd 3c bd 90 3c bd
       0.10639551 -0.14194377 0.030965066 -0.04603647
000260 ab ce 09 be 76 a0 c8 bd 55 1b 89 3c 21 0a ad bd
       -0.13457744 -0.097962305 0.016736666 -0.084491976
000270 ed 2b 02 be ea 89 18 be 32 50 5b bd ab 84 a7 3d
       -0.12712069 -0.1489636 -0.053543277 0.08179601
000280 df c3 c4 3d a0 4f dc 3d 3b a0 fd 3d 6b 65 2b bd
       0.09607672 0.10757375 0.12384077 -0.041844767
000290 20 0d cb bd ad 2a 79 bd 99 e8 0a 3d 79 ec 5f bd
       -0.09914613 -0.060831714 0.03391323 -0.054668877
0002a0 df 3b 93 bb 3b 55 71 bd 6c fd 12 be 68 f2 89 bd
       -0.004493221 -0.058919173 -0.14354485 -0.067356884
0002b0 a3 ac 3d 3d 0d 82 3a bd 92 01 1a bc 77 12 99 3d
       0.046307217 -0.045534182 -0.009399788 0.07474225
0002c0 1e ba 80 3d 8a fe 2e be 88 7b b0 bd 13 30 68 bd
       0.06285499 -0.17089286 -0.08617312 -0.056686472
0002d0 4e a6 84 3b c9 91 b3 bd 1a d5 b2 bd 88 57 4c 3c
       0.0040481454 -0.08768041 -0.08732052 0.012472041
0002e0 a0 71 db 3c c4 a4 28 3e 86 3b 1d 3e db 63 f6 bb
       0.026787579 0.16469103 0.15354738 -0.007519228
0002f0 30 29 71 bd 7d a3 b0 3d e4 af 0c 3c c5 af 42 3d
       -0.05887717 0.08624933 0.0085868575 0.04753091
000300 e8 72 02 be 05 03 85 bb 64 1a c6 bd c6 1b a6 3d
       -0.12739146 -0.004059198 -0.09673002 0.08110766
000310 41 80 b1 3d f3 e5 b5 3d b5 77 54 3d 2a 9f 50 bc
       0.086670406 0.0888175 0.051871974 -0.01273326
000320 64 69 18 3e 59 69 e9 3c 0b 49 8a bd f5 d2 0a 3e
       0.14883953 0.028492616 -0.06752213 0.13557036
000330 16 b8 db bd 9d f1 f4 3d ee 73 f2 3d 08 16 cd bc
       -0.10728471 0.119601466 0.11838518 -0.02503492
000340 14 c7 ab 3d cc 14 2d 3c 19 23 42 bd f5 04 5d 3d
       0.083875805 0.01056404 -0.047396753 0.053959806
000350 20 8c 8c bd d4 b5 61 bd e1 2e 21 bd 71 43 34 3b
       -0.06862664 -0.055105045 -0.039351348 0.0027506019
000360 97 a4 b4 3d 5c 12 3b be 15 a3 59 3c ba dc b4 bd
       0.088204555 -0.18268722 0.013283511 -0.08831163
000370 c3 a6 c7 bc e2 58 cc 3d b3 a9 6e 3b 11 ba 17 3c
       -0.02437151 0.099778906 0.0036417067 0.00926067
000380 d3 80 af bd b9 fc 12 3e bc 77 b8 bd 47 d5 53 bd
       -0.08569493 0.14354219 -0.090072125 -0.05171707
000390 35 ae da 3d 45 6b 01 3e b3 b2 9c 3d 06 de 09 3d
       0.106777586 0.12638576 0.07651272 0.033659004
0003a0 f3 b4 10 be 79 a5 0c 3e a6 db a0 3d 9c a5 b7 3c
       -0.14131527 0.13734998 0.078543946 0.022417836
0003b0 dd fd b1 3d a5 15 16 bd 97 81 1b 3d 44 38 60 bd
       0.08690999 -0.036641736 0.037965383 -0.05474116
0003c0 50 9a e5 3c 14 49 a4 bd 64 35 a6 3d ca cf d7 3d
       0.028027683 -0.08021751 0.08115652 0.105376795
0003d0 3e 06 3e 3d 64 d3 34 bd bd 81 ea bd 8e 9b b7 3c
       0.04639267 -0.04414691 -0.11450527 0.022413041
0003e0 18 eb 9d 3d 4c 20 03 3e cd d1 5d 3d 3c 3c 0c 3e
       0.07710856 0.12805289 0.05415516 0.13694853
0003f0 45 61 69 3d 92 05 1d 3d b3 b4 0d be 52 89 88 bd
       0.05697753 0.03833539 -0.13838463 -0.06666817

weight_hh_l0 f4 [50, 50]
000000 e3 96 f7 3d ee a1 be 3d c2 e6 93 bd f8 42 1b be
       0.12089326 0.093082294 -0.07221748 -0.15162265
000010 d0 e9 4f bd 76 15 f9 3d 9e 89 95 bd 6f cc cc bd
       -0.05076009 0.121622965 -0.07301639 -0.0999993
000020 a4 54 2a 3e 34 b1 87 3d 58 d1 66 bc 34 50 ef bd
       0.1663385 0.06625596 -0.014087997 -0.116852194
000030 4d 6f f2 3d 83 71 d8 bd 19 b5 7a 3d b2 74 d7 3d
       0.11837635 -0.10568526 0.061207864 0.10520305
000040 ef d4 ad bc 1a 8e d5 bd 56 50 08 3e e8 fa b9 3d
       -0.021219699 -0.10427494 0.13311896 0.0908106
000050 e2 c5 fa bd ea b8 06 be 81 01 72 bd 59 27 19 bd
       -0.122447744 -0.13156477 -0.059083465 -0.03739104
000060 e5 33 77 bd 73 4d af 3d 1d c7 26 bc c4 87 c6 bd
       -0.060352225 0.08559694 -0.010179308 -0.09693864
000070 cc 5c 96 bd 6e 59 d8 ba 0c e7 ce bd b3 7d 77 bd
       -0.07341918 -0.0016506144 -0.101026624 -0.06042261
000080 5a 17 6a 3d fe 80 fe 3d 70 82 78 bd 16 00 3d bc
       0.057151176 0.12426947 -0.06067127 -0.011535665
000090 c5 e7 9e bc 94 02 df 3d 45 e4 a5 bd 09 07 1b bd
       -0.019397626 0.108891636 -0.081001796 -0.037848506
0000a0 08 36 79 3d d7 c6 90 bd d8 e4 c6 bd a4 2d f9 bd
       0.060842544 -0.07069176 -0.09711617 -0.121669084
0000b0 b2 de 27 bd 5d 09 cf 3d 05 c8 93 3d 38 07 12 3e
       -0.040983863 0.10109208 0.07215885 0.14260566
0000c0 54 a8 6e 3c 08 8b 71 3d d6 53 ee 3d a6 c0 aa bd
       0.0145665 0.05897048 0.11637084 -0.08337526
0000d0 20 19 24 bc 88 d3 a1 bd 2a 59 8b 3d 2e bf ba bd
       -0.010015756 -0.079016745 0.06804116 -0.09118496
0000e0 60 71 92 bd b7 82 9f bd 46 8e bc 3c fc 28 80 bd
       -0.07150531 -0.07788604 0.02301706 -0.06257817
0000f0 f3 ad 80 3d 6e 10 b0 3b 48 50 58 bd ec 3d 81 3d
       0.06283178 0.0053730523 -0.052810937 0.06310639
000100 07 36 99 bd f7 e2 f3 3d 46 43 91 bd c8 1b 1e 3e
       -0.07481008 0.119085245 -0.070929095 0.15440285
000110 4e 24 7d 3d 9c 46 48 3c 37 29 c9 3d f0 b2 ea 3c
       0.0618022 0.012223866 0.09822314 0.028649777
000120 9c 7e cf bd f9 35 26 be c6 f2 8a bd f8 12 2f bc
       -0.10131571 -0.16231526 -0.067845866 -0.010685675
000130 61 66 1c 3e 62 28 f8 3d 13 a0 b3 bd c5 7e 88 bd
       0.1527343 0.121170774 -0.08770766 -0.06664804
000140 44 a1 2a bd ff d9 a9 3d 29 18 df 3d 9a 52 17 3e
       -0.0416577 0.082935326 0.1089328 0.14777604
000150 b2 89 4d bc 7e cd 0a be 4f 0d ba 3d c3 bd 02 3e
       -0.012545036 -0.13554952 0.0908457 0.12767701
000160 97 e4 88 be 8b 6e ea bd 95 a6 2b bd a0 72 ad bd
       -0.267369 -0.11446866 -0.041906912 -0.084691286
000170 ce 16 c9 bd f2 41 22 bd 8f 38 d2 3d e3 39 ec 3d
       -0.09818803 -0.03961367 0.10264694 0.115344785
000180 50 2a 17 be 41 9c c4 3d 59 f0 d1 bd 22 4b 55 3c
       -0.14762235 0.096001156 -0.10250921 0.013018401
000190 09 50 e7 bd b0 88 dc bd 16 79 6a bc d0 1d e5 3d
       -0.11294562 -0.107682586 -0.014311096 0.11187327
0001a0 79 19 ff 3d a3 80 5e bd cb a0 12 3d 3e 3c a7 bd
       0.124560304 -0.054321896 0.035797875 -0.08165787
0001b0 c4 e6 90 3c 95 0f f7 3d cc 49 05 3e 72 36 1c 3a
       0.017688163 0.12063519 0.13016433 0.0005959041
0001c0 62 2b fe 3c 74 6a ad bd 14 41 c5 3c 91 18 85 bd
       0.031026546 -0.0846757 0.024078883 -0.06498826
0001d0 84 07 bd bd 7b ba 0a bd 33 00 9f bc a1 eb 5a bc
       -0.09229949 -0.033869248 -0.019409275 -0.013361842
0001e0 d4 39 d3 3c 4f 77 87 bd da c8 8f 3d 1a a7 95 bd
       0.02578441 -0.06614553 0.07020731 -0.07307263
0001f0 32 5d a7 bc a4 3f c9 3d ba 4f e6 bd 60 aa 08 3d
       -0.020430181 0.098265916 -0.112456754 0.033365607
000200 ba 72 9b bc e6 27 d6 3c 90 91 d4 bc f3 c4 a8 3d
       -0.018975604 0.026142072 -0.025948316 0.0824069
000210 da fa 01 3e 16 93 56 bd f6 c0 24 3e 89 c8 ce bd
       0.12693349 -0.052386366 0.16089234 -0.10096843
000220 92 fe a4 3d 16 4b b9 bc 8a 61 b5 bd fa 1e 03 be
       0.08056368 -0.022618812 -0.08856495 -0.12804785
000230 a3 65 89 3d 84 2f 16 3e f3 cf 93 bd f9 16 a9 bd
       0.06708839 0.14666563 -0.072173975 -0.08256335
000240 db 0d 8f bd b5 6f 01 3d 36 2e 00 be e8 82 77 bd
       -0.069850646 0.031600673 -0.12517628 -0.060427576
000250 d4 b9 72 3d a9 db bf 3c 45 4b 5d bd 5e e2 a6 bd
       0.05925925 0.023420172 -0.05402686 -0.08148645
000260 44 f4 1f 3e a5 64 83 bd 9b 77 98 3d 5c 40 b5 3d
       0.15620524 -0.06415681 0.07444688 0.08850166
000270 2a 33 04 be 8f 7f ee bd f6 9d a2 bd 65 bc 09 be
       -0.12910143 -0.116454236 -0.07940285 -0.13450773
000280 09 12 05 bd 07 9a da 3c a0 8e 0f bc 42 8b 03 be
       -0.032487903 0.026684774 -0.008762032 -0.12846091
000290 8f 72 bb 3d 3f 4a b2 b9 c9 2e c6 bc 42 e7 28 bd
       0.0915271 -0.00034006123 -0.02419223 -0.04123617
0002a0 56 73 93 bd 20 da 50 3d 2f 3d 91 bd 4b 2d 84 bd
       -0.07199733 0.05098927 -0.07091748 -0.064539514
0002b0 41 8d 1a 3e 1a 6e 04 3e 0a e8 88 bd e3 a0 10 bd
       0.15092947 0.12932625 -0.06684883 -0.035309684
0002c0 29 e3 c3 bd e8 e1 c4 bd 54 92 3a 3d ca 33 0c 3d
       -0.09564812 -0.09613401 0.045549706 0.034229077
0002d0 7f 5b e3 bd 49 9a bd bd 02 34 e2 3c e8 e8 ac 3d
       -0.11101436 -0.09257943 0.02761269 0.08442861
0002e0 df b3 2b 3e 0e f9 92 bd 4f 2a 8a 3d cd 11 b0 bc
       0.16767834 -0.0717641 0.06746351 -0.021492863
0002f0 0e 87 4f 3e 9e 57 02 bd 73 7d 0b 3e c4 68 39 bb
       0.20266363 -0.03182184 0.13622074 -0.0028291205
000300 55 93 c1 bc 80 35 0d be d4 3a ed bd d1 cf 90 3d
       -0.023629824 -0.1378994 -0.11583486 0.07070888
000310 be 43 09 bd 31 a2 ab bd 9d ba 4c 3c 6f bb 00 3d
       -0.03351187 -0.08380545 0.012495664 0.03142875
000320 38 18 bd 3d b6 b7 d0 bd cb bf 82 bd dc cf df 3d
       0.09233135 -0.1019129 -0.06384238 0.10928318
000330 e6 ed ae bc 75 72 4a 3d ac 14 bf 3d e9 db 5a bd
       -0.021353673 0.04942556 0.09330115 -0.05343238
000340 a0 2d 18 be 26 02 a4 bd 7d 67 3c bd 6a 73 dc 3d
       -0.14861155 -0.08008222 -0.04599713 0.10764201
000350 d4 4b 16 3c f1 14 8b 3c 6e d6 5e 3d 4b c2 14 3d
       0.009173352 0.01697776 0.054403715 0.036318105
000360 8d d1 18 3c f9 b8 b2 3d 1b 62 24 3c ec 68 dc bb
       0.009327305 0.08726687 0.010033156 -0.006726375
000370 ff 61 f3 3d b2 17 eb 3d 36 48 23 3d 84 aa be 3d
       0.11883926 0.11479129 0.039863788 0.09309867
000380 86 1e 30 bd 53 36 a9 3d 58 b1 fb bd 05 97 b9 bc
       -0.04299786 0.08262315 -0.12289685 -0.02265502
000390 ac cd 80 3c c0 f0 79 bc 34 b4 9c bd b3 3d b2 bc
       0.015723072 -0.015255153 -0.076515585 -0.021757936
0003a0 61 0f 20 3c e6 10 b7 bd c6 13 70 bd ce 4c db bd
       0.009769292 -0.0893877 -0.058612607 -0.10708009
0003b0 c4 6a 3e bd 97 6e 1c 3d 4d 9a 3c 3e 96 9a d6 3d
       -0.04648854 0.038191404 0.18418236 0.10478704
0003c0 5b 26 06 3e db 4b 08 3e 9c e1 41 bc 88 9a 6f 3d
       0.13100569 0.13310187 -0.011833575 0.05849698
0003d0 c2 2d 34 3d 8e 86 3d bd 8a 3b 08 3e 02 65 99 bc
       0.04398895 -0.0462709 0.13303962 -0.018724922
0003e0 5e 70 8a 3d 5f fe 9b 3d 49 e1 f6 bd 36 88 b5 3d
       0.067597136 0.07616877 -0.120546885 0.08863871
0003f0 7f 0c ea 3d 62 c7 ba 3b dc 56 b3 3d 16 e2 07 be
       0.11428165 0.005700038 0.087568015 -0.13269839

bias_ih_l0 f4 [50]
000000 d3 d0 90 bc c8 72 a3 3d db 2e c0 bd 62 61 b5 3d
       -0.0176777 0.07980877 -0.09383937 0.08856465
000010 d7 b4 5b 3d 1e 77 86 3d 26 b5 07 be 1d 0b be bc
       0.05363926 0.065656886 -0.13252696 -0.023198659
000020 c1 6c a6 3b 73 46 9e 3d d8 90 64 3c ec 1e 0f 3d
       0.0050788824 0.07728281 0.013950549 0.0349416
000030 0a 12 df bc 96 d1 6e bb 08 81 ab bd c8 fc 36 bd
       -0.027230281 -0.003644084 -0.0837422 -0.044674665
000040 10 5b 31 bd 66 ba 0b 3e 30 e7 79 bc c9 df 4b 3c
       -0.043299735 0.13645324 -0.015252873 0.012443491
000050 3b d4 87 bd 30 30 df 3d 0f ff 94 3d fa d5 ee 3b
       -0.066322766 0.10897863 0.07275211 0.0072886916
000060 15 ee 5c 3c a2 77 3c bd 32 f0 ec bd 19 19 ba 3d
       0.013484498 -0.04601253 -0.11569251 0.09086818
000070 81 df df bd 54 11 3f bd 86 89 94 bd be de a5 bd
       -0.10931302 -0.046647385 -0.07252793 -0.08099125
000080 97 dc eb 3d 8e b4 e6 bc 58 4c af 3c e3 70 82 3d
       0.115166835 -0.028162267 0.021398708 0.06369188
000090 ab b5 ad 3d c6 2f aa bc 4b 5e cc 3d 34 47 cb bd
       0.08481916 -0.020774733 0.099789225 -0.0992569
0000a0 f7 4b 33 bb 65 e8 bd 3d bc 10 e4 bd 95 7e 61 bb
       -0.002735851 0.09272841 -0.11136004 -0.0034407724
0000b0 95 82 58 bd 87 a8 9f bd e4 9e 89 bd 2c 3b c4 bd
       -0.052858908 -0.07795816 -0.06719759 -0.09581599
0000c0 78 f0 a3 bd 06 76 93 3d
       -0.0800485 0.072002456

bias_hh_l0 f4 [50]
000000 97 97 54 3d c9 e3 81 3c a4 d1 ab bd c8 5a 32 bc
       0.05190238 0.015855687 -0.08389595 -0.010885902
000010 b7 dd 09 bd ff 1e f9 bd d5 14 e9 3d aa 6c ac bb
       -0.03365871 -0.12164115 0.113809265 -0.005261977
000020 51 f4 a5 bd d9 67 da 3d 41 8b a0 bd a1 13 05 3e
       -0.0810324 0.106643386 -0.078390606 0.12995769
000030 34 6e 96 3d 85 10 ca bd 9b 70 81 bd 35 ba b7 bd
       0.07345238 -0.09866432 -0.06320306 -0.08971063
000040 e4 a7 00 3d bb 8a 7c 3c 1b 5c cb bd 5d 06 e7 3d
       0.031410113 0.015413935 -0.09929677 0.112805106
000050 6a 88 d8 3d 43 c7 01 3e f2 70 ac 3c 8d 2f af 3d
       0.10572894 0.12673669 0.02104995 0.085539915
000060 6f e1 00 3e 20 59 cd bd 49 20 68 3d 3a 06 cb 3c
       0.12585996 -0.10026765 0.056671415 0.024783242
000070 91 fa 69 3d cb 4d a6 3d 93 45 78 3d 8f 99 ee bd
       0.057123724 0.081203066 0.060613226 -0.11650383
000080 27 97 ac bd 20 fa bd bd e4 dd 97 bc 60 7a 61 bc
       -0.084272675 -0.09276223 -0.018538423 -0.013762087
000090 51 aa 6b 3d 53 e4 0f 3e de 52 08 be be ce c2 3c
       0.057535473 0.14051943 -0.13312861 0.023780223
0000a0 37 d9 89 bd 9d f1 a2 bd d0 49 e9 bd cd 5f d7 bd
       -0.067308836 -0.0795624 -0.11391032 -0.105163194
0000b0 61 2a 07 3d 69 0a d6 3d d9 14 98 bc 1c a1 6b 3b
       0.0329994 0.10451204 -0.018564628 0.0035954183
0000c0 67 fe c9 bd aa 17 6c 3d
       -0.098629765 0.057639755

weight f4 [1, 50]
000000 64 25 86 3d 2a 8c ea 3b 8f 43 12 be ba 16 0d 3c
       0.065501004 0.007157822 -0.14283584 0.0086113755
000010 9a c5 f4 bd c4 aa 1f be 9a 58 d1 3d 88 b9 57 3d
       -0.11951752 -0.15592486 0.102219775 0.05266717
000020 06 a5 4b bd 24 50 04 be ec 06 ed bc 26 b6 94 3d
       -0.049717925 -0.12921196 -0.028933965 0.072613046
000030 e1 fa f6 bd 1a 5a ce 3d a0 53 6e bd b6 91 d0 3a
       -0.1205957 0.10075779 -0.05818522 0.0015912566
000040 19 b0 a3 bd 3c c5 18 3e 38 5b b9 3d cc d6 b2 bc
       -0.07992572 0.14918989 0.09050602 -0.021830939
000050 8b d8 83 bd 0a 73 63 bd 28 b4 44 bd d9 3f 65 3d
       -0.06437787 -0.05552963 -0.048023373 0.055969093
000060 fd 6f 0a be ce 86 18 be fd 89 c5 3d 43 eb a1 bd
       -0.13519283 -0.14895174 0.0964546 -0.07906201
000070 aa 8d 2b 3e 87 62 14 3e 6a d1 d9 bd 08 1b 8d bd
       0.1675326 0.1449071 -0.10635646 -0.068899214
000080 4f 3d 22 3d 3b 47 8c 3d 22 ff 00 3e 6b eb 18 3e
       0.03960925 0.06849524 0.12597325 0.14933555
000090 06 8a c9 bd a9 96 10 3e 0a 27 a5 bc f1 13 63 bd
       -0.09840779 0.14119972 -0.020160217 -0.05543894
0000a0 33 b4 c3 3c a6 bc 03 3e c0 37 fe 3d e4 d7 04 3e
       0.023889637 0.12864932 0.12412977 0.1297298
0000b0 aa d6 57 bd b2 9a 8c 3d 04 52 10 3e a8 0c 72 3d
       -0.052694954 0.06865443 0.14093786 0.0590941
0000c0 2c 3f 27 3e f7 86 b3 bd
       0.16332692 -0.08765977
