RNN_models/close_slope_35_5_zscore_15min_t1.pth (torch, 172046 bytes, 30 tensors)

stacks.0.blocks.0.fc1.weight f4 [50, 56]
0	0x3b63bb02	0.0034748917
1	0x3d0503ac	0.032474205
2	0xbe0f3a94	-0.1398719
3	0x3de19307	0.11014371
4	0xbdc39ac5	-0.09551004
5	0x3d8ec887	0.06971841
6	0xbdd09f5c	-0.101866454
7	0x3d28eced	0.041241575
8	0xbc77ffb5	-0.015136649
9	0x3c224838	0.009904914
10	0x3dac99b6	0.084277555
11	0x3dcc1fb6	0.09966986
12	0x3c3dfe0a	0.011596212
13	0x3d7054fe	0.058674805
14	0x3d616d82	0.055036075
15	0x3db98ef7	0.090604715
16	0xbdd01060	-0.10159373
17	0x3d1e9eea	0.03872577
18	0x3e16a3c1	0.14710905
19	0xbe01542e	-0.12629768
20	0xbd5222c9	-0.051302705
21	0xbd5d8945	-0.05408599
22	0x3e02b344	0.12763697
23	0xbd040c9b	-0.032238584
24	0x3d460d86	0.04835274
25	0xbd3ddd98	-0.046353906
26	0x3e093c1f	0.1340184
27	0x3ba3d120	0.004999295
28	0x3daa35ab	0.083110176
29	0x3dbd786d	0.09251485
30	0x3d82e5d4	0.063914925
31	0xbd72fe3b	-0.059324484
32	0xbd91049b	-0.070809565
33	0xbba910aa	-0.005159457
34	0x3d86bff9	0.06579585
35	0xbce1259d	-0.027483756
36	0xbcefb76e	-0.02926227
37	0xbd0cdd3f	-0.034390684
38	0x3d4bade8	0.049726397
39	0xbe06b9bc	-0.1315679
40	0x3da57c55	0.08080355
41	0x3dc46b3f	0.09590768
42	0xbd9614de	-0.07328199
43	0x3d334743	0.043769132
44	0x3e00973a	0.12557688
45	0x3e131af7	0.14365755
46	0x3da8f8a1	0.08250547
47	0xbd804784	-0.062636405
48	0xbd6ba7ed	-0.057533193
49	0x3d6622df	0.0561856
50	0x3dc7b9a5	0.09752206
51	0xbd88f0c6	-0.06686549
52	0x3dd08e59	0.10183401
53	0x3e2b2098	0.16711652
54	0xbd89bd40	-0.0672555
55	0x3cf08278	0.029359087
56	0x39c57d92	0.00037668325
57	0x3df00d4a	0.11721285
58	0x3d0a80c4	0.033814207
59	0x3df03c04	0.11730197
60	0xbbe686d0	-0.007035114
61	0x3d0bb8ef	0.034111913
62	0x3deb4f83	0.11489775
63	0x3da3e7b9	0.08003182
64	0xbe0a46b8	-0.1350354
65	0xbdc685a5	-0.096934594
66	0xbdae8936	-0.08522265
67	0x3cf0d051	0.029396208
68	0xbd8b6802	-0.06806947
69	0xbdb141db	-0.08655139
70	0xbdbc70b6	-0.092011854
71	0xbd95bd2a	-0.07311471
72	0x3d486ccf	0.048931893
73	0x3d7bb0c1	0.061447863
74	0x3d95036b	0.072760426
75	0x3b5f2196	0.0034047118
76	0x3dc5857e	0.09644602
77	0xbd766a0f	-0.06015974
78	0x3dda9ae0	0.10674071
79	0xbd130b05	-0.03589918
80	0xbc32e80a	-0.01091958
81	0x3d7b8a92	0.061411448
82	0xbc0e2c3f	-0.008677541
83	0x3d91a542	0.071115986
84	0x3dbc8f6c	0.09207043
85	0x3d569eb2	0.052397437
86	0xbda10593	-0.07862391
87	0x3d383e39	0.044981215
88	0xbd28a390	-0.04117161
89	0xbd9a0012	-0.07519545
90	0xbda4b385	-0.08042053
91	0x3e01dd5c	0.12682098
92	0x3b7329dc	0.0037103808
93	0xbd88a20b	-0.06671532
94	0xbd3d2f86	-0.0461879
95	0xbdd198e9	-0.102342434
96	0x3dbb6dd0	0.091518044
97	0x3ce7a185	0.02827526
98	0x3d8452d2	0.06461109
99	0xbccf38d7	-0.025295658
100	0xb95cd9ae	-0.00021061927
101	0x3dfef5fe	0.12449263
102	0xbddd0e4c	-0.107937425
103	0xbd93b749	-0.07212693
104	0x3c4ee571	0.012627945
105	0x3dd764d8	0.10517281
106	0x3e0e6e5c	0.13909286
107	0x3b3b36f6	0.0028566695
108	0xbcd665be	-0.026171561
109	0xbcc03e8d	-0.023467327
110	0x3e097f61	0.13427497
111	0x3b259b42	0.0025269543
112	0x3d4355de	0.04768931
113	0x3d98c4fd	0.074594475
114	0x3d8b4619	0.068004794
115	0x3dcfb804	0.1014252
116	0x3de21e60	0.1104095
117	0xbd95be2e	-0.073116645
118	0x3d66f2de	0.05638396
119	0xbdb5ec1b	-0.08882924
120	0x3da87251	0.08224929
121	0xbd28168d	-0.04103713
122	0xbd7337a5	-0.05937924
123	0xbd9ddb74	-0.07707873
124	0x3bf8c094	0.0075913165
125	0xbc1e9685	-0.009679441
126	0x3df64ea4	0.12026718
127	0xbdd275a4	-0.102763444
128	0xbd324627	-0.043523934
129	0x3df2f88c	0.11863813
130	0x3d58896f	0.052865442
131	0x3d362cf7	0.044476476
132	0xbe0472ad	-0.1293437
133	0x3d3931b5	0.04521342
134	0xbde5952b	-0.11210092
135	0xbd4eec9c	-0.050518617
136	0x3c21de1c	0.009879615
137	0xbde68de0	-0.11257529
138	0xbd63378f	-0.055472907
139	0xba92d155	-0.0011201302
140	0xbdb9ef49	-0.09078843
141	0xbdd4c1c8	-0.10388523
142	0xbd09817f	-0.033570763
143	0xbdf047d7	-0.11732452
144	0x3dd883f7	0.10572045
145	0x3e089d8b	0.13341348
146	0xbde21b7b	-0.11040398
147	0x3d2f014d	0.04272585
148	0xbc9d4d44	-0.019201882
149	0x3d94e87c	0.072709054
150	0xbe0b003f	-0.13574313
151	0x3d52b426	0.051441334
152	0x3dc0632f	0.09393918
153	0xbd943820	-0.072372675
154	0x3c6645a7	0.014054692
155	0xbe068187	-0.13135348
156	0x3df40a6e	0.11916052
157	0x3db0ecb6	0.08638899
158	0x3e00cb91	0.12577654
159	0x3d96615a	0.07342787
160	0x3d2c1dd3	0.04202063
161	0xbd4a05a0	-0.04932177
162	0x3ddb6ab2	0.1071371
163	0x3dac88ff	0.084245674
164	0x3e687119	0.22699393
165	0xbd05c9a5	-0.032663006
166	0x3d92e392	0.07172312
167	0x3a85097f	0.0010149925
168	0xbdeca989	-0.11555774
169	0xbd1c7bfe	-0.038204186
170	0x3d98eaef	0.07466685
171	0x3d3cb229	0.046068344
172	0x3d203bdc	0.039119586
173	0xbda58969	-0.080828495
174	0x3c630797	0.01385679
175	0xbd2063bf	-0.039157625
176	0x3d963033	0.07333412
177	0x3dbb70db	0.09152385
178	0x3da0d9fa	0.07854076
179	0xbddd2750	-0.10798514
180	0x3d95e195	0.07318417
181	0x3d83c31c	0.064336985
182	0xbc012c77	-0.007884136
183	0x3cf57a16	0.029965442
184	0x3da3f8f7	0.08006471
185	0xbd25d611	-0.040487353
186	0x3b35fd18	0.0027769264
187	0xbdc5714b	-0.096407495
188	0xbdb5f7bb	-0.088851415
189	0xbc9566b1	-0.018237444
190	0xbd764c5b	-0.060131412
191	0xbd5a351c	-0.053273305
192	0xbdc66961	-0.09688068
193	0xbd00c5fe	-0.03143882
194	0xbc7d8a73	-0.015474903
195	0xbdd03a3a	-0.10167356
196	0xbd5f857a	-0.054570653
197	0x3d8a4dd5	0.067531265
198	0x3ddc5d9f	0.10760044
199	0x3b0d7980	0.0021587312
200	0x3d0095c0	0.031392813
201	0xbce51f92	-0.027969155
202	0x3cde563a	0.027140725
203	0xbdd33836	-0.10313456
204	0xbb07e283	-0.0020734377
205	0xbd782b8f	-0.060588416
206	0xbcab20f3	-0.020889735
207	0xbd1bd296	-0.038042627
208	0x3cec3dee	0.028838124
209	0xbd63dfe5	-0.055633444
210	0x3dd34ea6	0.103177354
211	0x3e045d04	0.12926108
212	0xbdb2f0f2	-0.08737363
213	0x3dae3fba	0.085082486
214	0x3ce6b354	0.028161682
215	0xbd48f4be	-0.04906153
216	0xbdb5ff23	-0.08886554
217	0x3d05a25b	0.032625537
218	0x3e004314	0.12525588
219	0x3e18a573	0.14906864
220	0x3dd27cdb	0.102777205
221	0xbd72752e	-0.059193783
222	0x3d974368	0.073859036
223	0x3e131aff	0.14365767
224	0x3d5fdace	0.054652028
225	0xbde1e220	-0.11029458
226	0xbb457b3e	-0.0030133273
227	0xbdbfce46	-0.093655154
228	0x3d234718	0.039862722
229	0x3d9ef1a8	0.07760936
230	0x3d7ba599	0.061437223
231	0x3e00306b	0.1251847
232	0xbdaf03c1	-0.08545638
233	0x3dee828b	0.11645993
234	0xbd826e73	-0.06368723
235	0xbd9a26e3	-0.07526948
236	0xbc01862d	-0.007905525
237	0xbd911f30	-0.07086027
238	0x3dd7701b	0.10519429
239	0xbde85566	-0.113444135
240	0xbd9c7720	-0.07639909
241	0x3d66bafb	0.056330662
242	0xbdab0e04	-0.08352283
243	0x3dc1ab2f	0.09456479
244	0x3c69b8db	0.014265264
245	0x3d25d611	0.040487353
246	0xbd5de739	-0.05417559
247	0xbcaaadad	-0.020834768
248	0x3d67421e	0.05645954
249	0xbd9622cf	-0.07330858
250	0x3ccafb38	0.024777994
251	0x3c42d83c	0.011892375
252	0xbd563290	-0.052294314
253	0x3de1a5ac	0.110179275
254	0xbd9ec277	-0.07751935
255	0xbde67736	-0.112532064

stacks.0.blocks.0.fc1.bias f4 [50]
0	0x3dcf3ebb	0.10119387
1	0xbd931534	-0.071817786
2	0x3d36c581	0.04462195
3	0xbcf19245	-0.029488692
4	0xbd8965fd	-0.06708906
5	0x3d953510	0.072855115
6	0xbdb3b922	-0.08775546
7	0xbd2a9bc1	-0.041652445
8	0x3c27c9d6	0.0102409925
9	0xbd817bb0	-0.0632242
10	0xbcf70fc7	-0.03015889
11	0xbdc26b56	-0.09493129
12	0xbda5315a	-0.08066054
13	0x3dd45d14	0.10369316
14	0x3dd70113	0.10498252
15	0xbba05a5c	-0.004893584
16	0x3e16c453	0.14723329
17	0x3cabb158	0.020958588
18	0xbadef3df	-0.0017009935
19	0x3d1b6b84	0.03794433
20	0xbd5596b2	-0.052145667
21	0xbd2d66de	-0.04233443
22	0x3e0e344d	0.13887139
23	0x3d9c8981	0.07643414
24	0x3d7cd7f0	0.06172937
25	0xbe233ab2	-0.15940359
26	0x3dc1d197	0.09463804
27	0xbd11997c	-0.035546765
28	0x3ddffdca	0.10937078
29	0x3e01d0e4	0.12677342
30	0x3d37d77e	0.044883244
31	0x3e1a6e3b	0.15081112
32	0x3d785c8f	0.060635146
33	0xbe1a18b3	-0.15048485
34	0xbc9e3217	-0.019310994
35	0xbc08a27d	-0.0083395215
36	0x3d57114a	0.052506723
37	0xbb4b0c09	-0.0030982515
38	0x3cda20c3	0.02662695
39	0x3c8548d9	0.016270088
40	0xbdde5e38	-0.108578146
41	0x3dc718ca	0.09721525
42	0xbce506d2	-0.027957354
43	0xbd71e84e	-0.059059434
44	0x3e0ee620	0.13954973
45	0x3d508728	0.050910145
46	0xbddb19ee	-0.10698305
47	0x3d1bcc08	0.038036376
48	0xbceffc10	-0.029294997
49	0xbd126b45	-0.03574683

stacks.0.blocks.0.fc2.weight f4 [50, 50]
0	0x3e1212f1	0.14265038
1	0xbce36154	-0.02775637
2	0xbda7c699	-0.08192176
3	0x3df0dbe2	0.11760689
4	0x3e322832	0.17398146
5	0xbd4a7458	-0.04942736
6	0x3d8a4a84	0.06752494
7	0x3c9b774a	0.01897778
8	0xbe0ad916	-0.13559374
9	0xbb416a42	-0.0029512797
10	0x3db0d144	0.08633664
11	0xbc1f218f	-0.009712591
12	0x3b92698b	0.004468148
13	0x3dc08969	0.09401209
14	0x3dd62a07	0.10457235
15	0x3cf01c1d	0.02931028
16	0xbde8605a	-0.113465026
17	0x3bc264b7	0.0059324163
18	0x3d2e6951	0.042580906
19	0xbc49deb5	-0.012321164
20	0x3dbe7183	0.092989944
21	0x3dc92190	0.09820855
22	0xbdafd15a	-0.085848525
23	0x3dc28001	0.09497071
24	0xbcc79388	-0.02436234
25	0xbe2374ce	-0.15962526
26	0x3dfa5ed1	0.12225116
27	0xbd925b93	-0.07146373
28	0x3e01cfd0	0.1267693
29	0x3b5763a8	0.0032865796
30	0x3e0b8320	0.13624239
31	0xbe196c51	-0.14982726
32	0xbd500d68	-0.050794035
33	0x3de22fe6	0.11044292
34	0xbbf82a1b	-0.0075733787
35	0x3d8e4810	0.069473386
36	0x3df9c787	0.1219626
37	0x3d4c593a	0.04988978
38	0xbdd598a5	-0.10429505
39	0x3e011709	0.12606443
40	0x3b7685dc	0.0037616407
41	0x3c591a3d	0.013250885
42	0x3b1615be	0.0022901143
43	0xbc228b75	-0.009920944
44	0xbdae1275	-0.08499614
45	0xbdbaf57c	-0.09128854
46	0xbc8ca9d6	-0.017170828
47	0x3e0836ec	0.13302201
48	0xbd1b4b3e	-0.037913553
49	0x3e2824f2	0.16420344
50	0xbe283b3c	-0.16428846
51	0xbd96693c	-0.073442906
52	0xbd54a19e	-0.051911943
53	0xbd77054f	-0.060307797
54	0x3d334d45	0.04377486
55	0xbd7d8499	-0.061894033
56	0xbcd3d97c	-0.02586054
57	0x3e06e3f0	0.13172889
58	0x3d7b3fee	0.061340265
59	0xbdcbd6ff	-0.099531166
60	0x3e05181c	0.12997478
61	0xbde2c8b0	-0.11073434
62	0x3de20f1e	0.110380396
63	0x3dc2fba9	0.095206566
64	0x3d849c38	0.06475109
65	0x39fb8033	0.00047969967
66	0xbe0f9010	-0.14019799
67	0xbd7d9ef3	-0.061919164
68	0x3de65636	0.11246912
69	0xbd65e44a	-0.056125917
70	0x3dbf3d09	0.093378134
71	0x3e022263	0.1270843
72	0xbc0cd50b	-0.008595715
73	0x3d13e0f5	0.036103208
74	0xbc5ba7fc	-0.01340675
75	0x3a14f8f0	0.00056828465
76	0x3d289289	0.04115537
77	0xbb8e77e7	-0.0043477896
78	0xbda677bf	-0.081283085
79	0x3d618ec1	0.05506778
80	0xbcb85802	-0.022502903
81	0xbdc092e0	-0.09403014
82	0x3dfe4643	0.12415745
83	0xbe1425b9	-0.14467515
84	0xbd142e92	-0.036177225
85	0x3d21e146	0.039521478
86	0xbd3d6d72	-0.046246953
87	0x3cccef1c	0.02501636
88	0xbe006749	-0.125394
89	0xbdb81dae	-0.08990036
90	0x3dd40f7b	0.10354515
91	0x3df367c6	0.118850276
92	0x3d37ecc2	0.044903524
93	0x3e02f5f4	0.12789136
94	0xbcda44bf	-0.026644109
95	0xbd847830	-0.064682364
96	0x3c8de8af	0.017322866
97	0x3d849312	0.06473364
98	0xbdb8351c	-0.08994505
99	0x3c382908	0.011240251
100	0x3cb279e6	0.021786641
101	0x3dc2ad04	0.09505656
102	0xbe413951	-0.1886952
103	0xbd02ebf8	-0.03196332
104	0x3d0b3e47	0.03399494
105	0x3e0cf53f	0.13765429
106	0x3c02a67f	0.007974266
107	0x3da92907	0.082597785
108	0xbc282b61	-0.010264249
109	0x3db9bd0e	0.090692624
110	0x3dccc2b2	0.09998073
111	0x3c8362f0	0.016038388
112	0xbcb06d8c	-0.021536611
113	0x3d84abf3	0.06478109
114	0x3cd6930b	0.026193162
115	0xbd479935	-0.048730094
116	0x3e110296	0.14161143
117	0x3e12cf63	0.14336924
118	0xbdd13cdc	-0.10216686
119	0xbdcb64e8	-0.09931356
120	0xbda9a777	-0.082838945
121	0x3d5e1428	0.05421844
122	0xbdd9969a	-0.10624428
123	0xbcd48fee	-0.025947537
124	0x3e2a86d9	0.16653003
125	0x3b9103f5	0.0044255205
126	0xbcd7bd5e	-0.026335414
127	0x3cbd568d	0.02311256
128	0xbce776be	-0.028254863
129	0xbdeaf1c4	-0.114718944
130	0x3d4fad7d	0.05070256
131	0x3d74a52f	0.059727844
132	0xbc96ea9e	-0.018422421
133	0x3d4fd6fa	0.050742127
134	0xbd97ff3d	-0.0742173
135	0x3cf7c3e7	0.03024478
136	0xbd973f43	-0.07385113
137	0x3b7a7302	0.0038215523
138	0xbd22beb3	-0.039732646
139	0xbdae98f5	-0.08525268
140	0x3dd78a4f	0.10524427
141	0x3e1f9582	0.15584376
142	0x3e136bc7	0.14396583
143	0xbd047fb0	-0.032348335
144	0x3e3f2593	0.18666677
145	0x3c7eb931	0.015547083
146	0x3c3d5c8c	0.011557709
147	0x3d9877db	0.074447356
148	0x3e0916a3	0.13387541
149	0xbe24a532	-0.16078642
150	0xbdbd2737	-0.09235995
151	0x3e39adaf	0.18132661
152	0xbe4f9b29	-0.20274033
153	0xbd4d737c	-0.050158963
154	0x3ce351ce	0.027748968
155	0x3dfbeeb2	0.12301387
156	0xbb4fde32	-0.0031718132
157	0x3bfedad4	0.007777551
158	0x3b647403	0.0034859187
159	0x3e014a91	0.12626101
160	0x3c062157	0.00818666
161	0xbdc751dd	-0.09732411
162	0xbda5a290	-0.08087647
163	0xbda12325	-0.078680314
164	0x3e12d7a3	0.14340071
165	0xbdd49501	-0.10379983
166	0x3d914b83	0.07094481
167	0xbcbb34d6	-0.022852343
168	0xbda78ac8	-0.08180767
169	0x3d638ca5	0.05555405
170	0xbd329545	-0.043599386
171	0x3ce86239	0.028367149
172	0x3d65e5e1	0.056127433
173	0xbda7060d	-0.08155451
174	0x3dd37b0d	0.103262044
175	0x3e0706c5	0.13186176
176	0xbdbf38fd	-0.093370415
177	0xbd0fecfb	-0.03513811
178	0x3cc40258	0.023926899
179	0xbd941a4d	-0.07231579
180	0x3ca4fe2e	0.020140734
181	0x3e068426	0.13136348
182	0xbd8f3d0e	-0.06994067
183	0x3d045b09	0.03231338
184	0xbd4d4bbb	-0.05012105
185	0x3e016aaa	0.12638345
186	0xbdd27c02	-0.10277559
187	0xbdaed75b	-0.085371695
188	0xbd57b172	-0.05265946
189	0xbe761d6a	-0.24034658
190	0xbdf1cdfd	-0.11806867
191	0xbe02c9e7	-0.12772332
192	0xbdb31bff	-0.08745574
193	0x3e39b981	0.1813717
194	0xbc30d6fd	-0.010793445
195	0x3d5e235f	0.05423295
196	0xbd58cb73	-0.0529284
197	0x3df7fa37	0.121082716
198	0xbd93b648	-0.07212502
199	0xbce0028c	-0.027344964
200	0x3e10c786	0.14138612
201	0x3e168b4d	0.14701577
202	0xbd4378f9	-0.04772279
203	0xbdb9b472	-0.0906762
204	0xbba637f0	-0.0050725862
205	0x3df7cdfb	0.120998345
206	0xbc55773b	-0.013028915
207	0xbe06eea9	-0.13176979
208	0xbd929239	-0.07156796
209	0xbe0d9c5d	-0.13829179
210	0x3d98277b	0.07429405
211	0x3e1e3b00	0.15452194
212	0xbd98d613	-0.074627064
213	0x3d329836	0.04360219
214	0x3cd02abd	0.025411004
215	0xbdfe5891	-0.124192365
216	0x3cdc2a7a	0.026875723
217	0x3d43e5e5	0.047826666
218	0x3dc0e7a8	0.09419185
219	0x3e087e83	0.1332951
220	0x3df21954	0.11821237
221	0x3c686806	0.014184957
222	0x3ddc8eac	0.107694
223	0x3da2ba04	0.07945636
224	0xbe0040d2	-0.12524727
225	0xbddae332	-0.10687865
226	0x3d216de1	0.03941143
227	0xbd86f337	-0.06589358
228	0xbc504363	-0.012711379
229	0x3d9082bc	0.070561856
230	0x3db0b54a	0.08628328
231	0xbcbfa719	-0.023395108
232	0xbbd108e0	-0.006379232
233	0x3d8151bd	0.063144185
234	0x3e0bd4bf	0.13655375
235	0x3e451f81	0.19250299
236	0xbdce6787	-0.1007834
237	0x3caa4465	0.020784566
238	0xbde8fe44	-0.11376622
239	0xbdb4b2e7	-0.088231854
240	0xbdf04e37	-0.11733668
241	0x3baa16c8	0.005190704
242	0xbc8961a9	-0.0167702
243	0x3b82f494	0.003996441
244	0xbd0cc2fd	-0.034365643
245	0x3d7df745	0.062003393
246	0x3dce4441	0.10071612
247	0xbcd9394e	-0.026516583
248	0xbc7b4bc8	-0.015337892
249	0x3d9cddaf	0.0765947
250	0x3b0d894b	0.0021596726
251	0xbd961fe5	-0.07330302
252	0xbd0a6f29	-0.033797417
253	0xbd835cd1	-0.06414188
254	0x3d6450e4	0.055741206
255	0x3d6c7d18	0.057736486

stacks.0.blocks.0.fc2.bias f4 [50]
0	0xbc286791	-0.010278598
1	0x3d1933d5	0.037402947
2	0x3ddcfd9f	0.10790562
3	0x3d80ab9d	0.06282733
4	0x3d86d3f6	0.06583397
5	0x3dc859d2	0.09782757
6	0x3de8e2ea	0.113714054
7	0xbd83b0be	-0.06430195
8	0x3d00052c	0.031254932
9	0x3ce304ce	0.027712252
10	0x3d887c11	0.06664289
11	0x3db1cb10	0.08681309
12	0xbd74e719	-0.059790704
13	0xbd786fec	-0.060653612
14	0x398c8050	0.0002679848
15	0xb8382ff2	-4.391367e-05
16	0xbe11bf7d	-0.14233203
17	0x3dfeb9d4	0.12437788
18	0xbe0d5842	-0.13803199
19	0xbd7e14d6	-0.06203159
20	0xbe08702f	-0.13324045
21	0x3aff8dd9	0.001949723
22	0x3b9b0d06	0.004731777
23	0x3d5f52a5	0.054522175
24	0xbe0f04d3	-0.13966684
25	0x3cae3f02	0.021270279
26	0xbde0c8f2	-0.10975827
27	0xbd23a400	-0.039951324
28	0xbc83edd3	-0.016104614
29	0x3cbf65cd	0.023363972
30	0x3dd9b7a2	0.10630728
31	0x3ce8fe8f	0.028441695
32	0xbda176e5	-0.078840055
33	0xbc6c0671	-0.014405833
34	0xbd051ee2	-0.032500155
35	0xbdb215c4	-0.08695558
36	0xbe1ab4ba	-0.15108004
37	0x3e0b08bd	0.13577552
38	0xbe144b4d	-0.1448185
39	0x3debdf54	0.11517206
40	0x3e142023	0.14465384
41	0xbda3b237	-0.07992976
42	0x3d58a352	0.05289013
43	0x3de00cae	0.109399185
44	0x3dc8bd79	0.09801764
45	0xbe16e97e	-0.14737508
46	0x3dc88aa5	0.09792069
47	0xbda18b98	-0.078879535
48	0x3d92bea4	0.07165268
49	0x3dd6c675	0.104870714

stacks.0.blocks.0.fc3.weight f4 [50, 50]
0	0xbcbc6eb8	-0.023002014
1	0xbde211e0	-0.11038566
2	0x3dab99ad	0.08378921
3	0xbdc604a1	-0.09668852
4	0x3e24f88e	0.16110441
5	0xbdfb82c3	-0.122808
6	0x3dae0df7	0.08498757
7	0xbe0fa5a7	-0.14028035
8	0x3c6558df	0.013998239
9	0xbd94dcef	-0.07268702
10	0xbe128177	-0.143072
11	0x3e174d35	0.14775546
12	0x3e1cfe76	0.15331444
13	0x3e13fe4a	0.14452472
14	0xbdc63f82	-0.09680082
15	0xbdac2b5f	-0.0840671
16	0x3d91b6f6	0.07114975
17	0x3e021421	0.12702991
18	0xbd3298ef	-0.04360288
19	0xbd95d728	-0.073164284
20	0xbde91766	-0.11381416
21	0x3d8aad7e	0.06771372
22	0xbd759308	-0.059954673
23	0xbd109033	-0.03529377
24	0x3d9250da	0.071443275
25	0x3df6a87b	0.12043854
26	0xbd76b1f9	-0.06022832
27	0x3d70a826	0.05875411
28	0x3df11a48	0.11772591
29	0xbda76ac9	-0.081746645
30	0x3cb82fef	0.022483794
31	0x3e05ab18	0.13053548
32	0xbe03b128	-0.12860548
33	0xbd208146	-0.039185785
34	0xbde43707	-0.11143308
35	0x3e2249e3	0.15848498
36	0x3da771c9	0.08176
37	0xbd039d93	-0.032132696
38	0x3c7c9107	0.015415437
39	0xbda241ef	-0.07922732
40	0x3e0bd247	0.13654433
41	0x3ddc9a1b	0.10771581
42	0xbcf5faf0	-0.030026883
43	0xbd8add77	-0.06780522
44	0x3d91210f	0.070863836
45	0x3e175a85	0.14780624
46	0xbd7363b9	-0.059421275
47	0x3dcad751	0.099043496
48	0xbd642dd5	-0.05570777
49	0x3de5d514	0.11222282
50	0x3dc2811f	0.09497284
51	0x3d9a76a7	0.075421624
52	0xbd47f869	-0.048820887
53	0xbd6aafb1	-0.05729646
54	0xbdfea23b	-0.12433287
55	0xbd913848	-0.07090813
56	0xbb3937ec	-0.0028262092
57	0x3e12c6c3	0.14333634
58	0x3d0fd86c	0.035118505
59	0xbe05be91	-0.13060977
60	0x3dbd67a7	0.09248286
61	0x3d0863a1	0.03329814
62	0xbe00c699	-0.12575759
63	0x3d89d683	0.06730368
64	0x3e06c3b9	0.131606
65	0x3c63c414	0.013901729
66	0x3dfb8e9b	0.12283059
67	0xbd2c4c2b	-0.042064827
68	0xbd80be12	-0.06286253
69	0xbd9a0c47	-0.07521873
70	0xbd6a695d	-0.05722939
71	0xbdb5a771	-0.088698275
72	0xbdd8c884	-0.1058512
73	0x3e20ed8e	0.1571562
74	0xbdd6026a	-0.10449679
75	0x3e246623	0.16054587
76	0x3d252383	0.04031707
77	0x3d951be5	0.07280711
78	0x3c120b5b	0.00891384
79	0x3d54a255	0.051912624
80	0xbd38bf50	-0.045104325
81	0xbd26c204	-0.04071237
82	0x3d77093d	0.060311545
83	0xbd638455	-0.055546124
84	0xbe59b3dc	-0.21260017
85	0x3d3ffc66	0.046871565
86	0xbdcece6e	-0.10097967
87	0x3cc932d4	0.02456037
88	0xbdf4577a	-0.11930747
89	0x3d242877	0.040077653
90	0xbdc74d11	-0.09731496
91	0xbda75c5a	-0.081719115
92	0x3e30f015	0.17279084
93	0x3e09a662	0.13442376
94	0x3e11e73c	0.14248365
95	0x3d3550e8	0.04426661
96	0x3dc1e3ac	0.09467253
97	0x3e3d35b6	0.1847752
98	0x3d2d5fb2	0.04232759
99	0xbe08ba0b	-0.1335222
100	0x3cec5e0e	0.028853443
101	0x3c252039	0.010078483
102	0xbbde1e16	-0.006778489
103	0x3da32083	0.079651855
104	0xbddaaa0b	-0.10676964
105	0xbe11ef6e	-0.14251491
106	0xbe26eeab	-0.16301982
107	0xbda79510	-0.08182728
108	0x3c795837	0.015218786
109	0x3bb31ece	0.0054663187
110	0xbddf2cc9	-0.10897214
111	0x3e08a3a8	0.1334368
112	0xbd885881	-0.06657506
113	0x3d0c15fa	0.034200646
114	0xbd61f77f	-0.05516767
115	0x3c2ba8e4	0.010477278
116	0xbd8ba751	-0.068190224
117	0xbd88929d	-0.06668589
118	0x3e01b56b	0.12666862
119	0x3dcc6ea7	0.09982043
120	0x3d3d64b8	0.04623863
121	0xbc4c786b	-0.012479882
122	0x3cb1d464	0.021707721
123	0xbdfbb5eb	-0.122905575
124	0x3d9a66ac	0.07539114
125	0xbd6d54ef	-0.057942327
126	0x3c476d61	0.012172074
127	0x3d8c9388	0.06864077
128	0x3dd29036	0.10281412
129	0x3d893406	0.06699376
130	0xbd9ecb40	-0.077536106
131	0x3d019752	0.03163845
132	0x3dc663e2	0.0968702
133	0xbb62cb19	-0.003460592
134	0x3c9d840b	0.019228002
135	0x3dbd6eb0	0.092496276
136	0x3de66b96	0.11250989
137	0x3cefb3d0	0.029260546
138	0xbd310831	-0.043220703
139	0xbce3d044	-0.02780927
140	0x3cbf1eb7	0.023330076
141	0xbc671a64	-0.014105413
142	0xbb9f8bb2	-0.004868948
143	0xbb8ca194	-0.0042917226
144	0x3ca85e91	0.020552905
145	0xbdac60f3	-0.08416929
146	0xbd89efb0	-0.0673517
147	0x3c6914ca	0.014226148
148	0x3dc2dcc4	0.09514764
149	0x3d39518b	0.04524378
150	0xbe003124	-0.12518746
151	0x3dee7b7d	0.11644647
152	0x3e025056	0.12725958
153	0x3dac47a7	0.08412104
154	0x3bcbf8fa	0.0062247487
155	0xbd920cdd	-0.0713136
156	0x3db5b5df	0.0887258
157	0xbd20e27f	-0.039278504
158	0x3cbbcc1d	0.022924477
159	0xbd394660	-0.04523313
160	0x3d15d91b	0.036584
161	0x3d149937	0.03627893
162	0x3d578d80	0.05262518
163	0x3c8a2844	0.016864903
164	0xbccf394b	-0.025295874
165	0xbdbe3ff4	-0.09289542
166	0x3dceef80	0.10104275
167	0xbc12a65d	-0.008950797
168	0x3cb489c9	0.022038357
169	0xbbfe20a5	-0.0077553564
170	0xbd109a9a	-0.03530369
171	0x3d16283f	0.036659475
172	0xbcb8098b	-0.022465488
173	0xbd33521a	-0.04377947
174	0x3df70eee	0.120633945
175	0x3d56f701	0.052481655
176	0xbdebbd58	-0.11510724
177	0xba591efa	-0.0008282509
178	0xbce2f79b	-0.027705958
179	0x3d1733b5	0.036914546
180	0x3e0567e5	0.13027914
181	0x3cf4303d	0.029808158
182	0x3dd2ab87	0.102866225
183	0xbd7ca4f4	-0.06168075
184	0xbe37c5f7	-0.17946611
185	0x3da6e1fc	0.08148572
186	0xbda52550	-0.080637574
187	0xbd906dca	-0.070521906
188	0x3d91ff15	0.07128731
189	0x3cba3399	0.022729682
190	0xbe06a9c2	-0.13150695
191	0x3c0c587a	0.008566016
192	0x3c98dfb2	0.018661354
193	0xbd9f1c52	-0.077690735
194	0x3c7092a4	0.014683399
195	0xbd2a9464	-0.041645423
196	0xbdb78fa0	-0.08962941
197	0x3d94c65a	0.07264395
198	0xbd7a4dc0	-0.061109304
199	0xbd049b7f	-0.032374855
200	0x3dbb755e	0.091532454
201	0xbc94cf95	-0.01816539
202	0xbde06f8c	-0.10958776
203	0xbe331acc	-0.17490691
204	0x3d7e2315	0.062045176
205	0x3d439b4c	0.047755525
206	0x3e187cb4	0.1489132
207	0x3da92346	0.08258681
208	0x3c449293	0.011997837
209	0xbe11b785	-0.14230163
210	0xbda95b75	-0.08269397
211	0xbd176c26	-0.036968373
212	0x3c91ca86	0.017796766
213	0xbd7f33e2	-0.06230534
214	0xbbada590	-0.0052992776
215	0x3dc477ea	0.09593184
216	0x39d11a49	0.0003988317
217	0x3dbcc48e	0.09217177
218	0xbd92a14e	-0.07159673
219	0xbdc92b6c	-0.09822735
220	0x3c579308	0.013157614
221	0xbcbfbdc9	-0.023405926
222	0xbc5d83a0	-0.013520151
223	0xbd86b811	-0.06578077
224	0x3cf7cf68	0.030250266
225	0x3dbf6a62	0.09346463
226	0xbd925a49	-0.07146127
227	0xbd3abfbe	-0.045593016
228	0x3d88c002	0.066772476
229	0xbdde9212	-0.108677045
230	0xbd8819b6	-0.06645529
231	0x3ded1ffd	0.11578367
232	0x3d8e367f	0.06943988
233	0x3d317382	0.043323047
234	0xbdaffb79	-0.085928865
235	0xbdabbfd6	-0.08386199
236	0xbd8f93c8	-0.07010609
237	0xbe1c0a2e	-0.15238258
238	0x3da168bc	0.078813046
239	0xbcf34bf3	-0.029699301
240	0xbd0a592e	-0.033776455
241	0x3db8077a	0.08985801
242	0xbdf3316e	-0.11874662
243	0x3b820fc3	0.003969164
244	0xbe0168c3	-0.1263762
245	0xbdbacbf2	-0.09120931
246	0xbc5f770d	-0.013639224
247	0xbc5b8eee	-0.013400776
248	0x3db535a6	0.08848123
249	0x3dbd9452	0.092568055
250	0xbce1f5f2	-0.027583096
251	0xbcd84cf5	-0.026403883
252	0x3d1b51b5	0.03791972
253	0xbc97eeb2	-0.018546436
254	0x3de00e5f	0.10940241
255	0xbd096ab6	-0.033549033

stacks.0.blocks.0.fc3.bias f4 [50]
0	0xbd7258fc	-0.059166893
1	0xbda121cd	-0.07867775
2	0xbd1ca37b	-0.038241845
3	0x3e154477	0.14576899
4	0x3de2e461	0.11078716
5	0xbddf1e86	-0.10894494
6	0xbdddc8f9	-0.10829348
7	0xbde727d3	-0.11286893
8	0xbe1a1275	-0.15046103
9	0xbdd8b7ae	-0.10581909
10	0x3dbc6906	0.09199719
11	0xbd73db65	-0.059535403
12	0x3e048792	0.12942341
13	0xbcef28c9	-0.029194253
14	0x3d19cbef	0.037548
15	0x3d8647fe	0.065567
16	0x3daaf8c6	0.08348231
17	0x3c4bf158	0.012447678
18	0xbd9b1c06	-0.075737044
19	0x3deae7d4	0.11469999
20	0x3ddc3ac4	0.10753396
21	0x3d9af730	0.075666785
22	0xbdd9e2ac	-0.10638937
23	0xbd17bde7	-0.03704634
24	0x3cd585d7	0.026064796
25	0xbd8f00d8	-0.06982583
26	0x3b8b4632	0.0042503113
27	0xbd8321ff	-0.064029686
28	0xbdd66663	-0.104687475
29	0xbe063e73	-0.1310976
30	0xbcb70ec5	-0.02234591
31	0xbe225caf	-0.15855668
32	0xbc597e65	-0.013274764
33	0x3ca1861a	0.019717265
34	0x3dc19f39	0.094541974
35	0x3dfebc10	0.12438214
36	0xbe046d47	-0.12932311
37	0x3e11e2b2	0.14246634
38	0x3dc464c2	0.095895305
39	0xba2fbcfc	-0.0006703881
40	0xbe01a255	-0.12659581
41	0xbd8b7651	-0.068096764
42	0x3cc6ebbd	0.02428233
43	0xbe19c496	-0.15016398
44	0xbd5cb87c	-0.053886876
45	0x3d9cb7ed	0.076522686
46	0xbd667ed7	-0.056273308
47	0xbd8cde08	-0.068782866
48	0x3cd05124	0.025429316
49	0x3cc3eebc	0.023917548

stacks.0.blocks.0.fc4.weight f4 [50, 50]
0	0xbd1bb097	-0.038010206
1	0x3d0be3c8	0.034152776
2	0xbdfb4a44	-0.122700244
3	0xbd867d79	-0.06566901
4	0x3d923450	0.07138884
5	0x3d31eb01	0.043437008
6	0xbe0c887d	-0.13723941
7	0xbc848590	-0.016176969
8	0x3c8e21a2	0.017350022
9	0x3cb7dc28	0.022443846
10	0x3cb5a774	0.022174574
11	0x3da1b417	0.078956775
12	0xba8e0eca	-0.0010838148
13	0x3cae2e98	0.021262452
14	0x3e02b64d	0.12764855
15	0xbe070cf4	-0.13188535
16	0xbcf09202	-0.029366497
17	0xbd2509f7	-0.040292706
18	0x3d428ddc	0.04749857
19	0x3d104d45	0.03522994
20	0x3d875e74	0.066098124
21	0x3dbc493a	0.09193654
22	0x3d81e27a	0.06342025
23	0xbdacb61e	-0.084331736
24	0xbd8c03ca	-0.0683666
25	0xbdbc15cc	-0.09183845
26	0xbe2f1d45	-0.17101009
27	0xbd134f79	-0.035964463
28	0x3e01d13a	0.1267747
29	0x3b1f8440	0.0024340302
30	0x3e08c63b	0.13356869
31	0xbd802327	-0.06256705
32	0x3d019d2f	0.031644043
33	0x3ddc956c	0.107706875
34	0xbc88b891	-0.01668957
35	0xbe0ad0a7	-0.13556157
36	0xbd8a66b8	-0.06757873
37	0xbd836075	-0.06414882
38	0xbdf9e841	-0.12202502
39	0x3d5ec960	0.054391265
40	0x3d7c4d49	0.061597142
41	0x3dbf143a	0.0933003
42	0x3d699da9	0.057035122
43	0xbd8ab70f	-0.06773197
44	0x3d9c5bc0	0.076346874
45	0xbd9a6fcc	-0.07540855
46	0x3daa7481	0.083230026
47	0x3dfd56e1	0.123700865
48	0x3cbe1499	0.023203181
49	0xbdfebe26	-0.12438612
50	0xbdf7c58f	-0.12098228
51	0x3d366ea8	0.044539124
52	0x3de69742	0.11259319
53	0x3e0e1845	0.13876446
54	0x3c6c0cf0	0.014407381
55	0x3decd886	0.11564736
56	0xbe094135	-0.13403781
57	0xbdbfb1ae	-0.093600616
58	0x3d3a1e7c	0.04543923
59	0xbd2933d4	-0.041309193
60	0xbe067716	-0.13131365
61	0xbcf3cc40	-0.02976048
62	0xbd97d296	-0.07413213
63	0x3c987100	0.01860857
64	0xbdecfccd	-0.115716554
65	0xbc8815d0	-0.016611964
66	0x3d09267c	0.033483967
67	0x3d4a188c	0.049339816
68	0x3d8ca1d2	0.06866802
69	0x3c1acc30	0.009448096
70	0xbdcfd3c2	-0.101478115
71	0xbdd01cf2	-0.10161771
72	0xbddf9db4	-0.10918751
73	0xbd916f62	-0.07101323
74	0xbdd4fecd	-0.10400162
75	0x3cb8dbb8	0.022565708
76	0x3dbafd44	0.09130338
77	0xbc734ac0	-0.014849365
78	0xbd3c172e	-0.045920543
79	0x3e026843	0.12735085
80	0x3d8fb7ca	0.07017477
81	0x3d42c1cc	0.0475481
82	0xba957d00	-0.0011405051
83	0xbdae4e94	-0.08511081
84	0x3dcb5adc	0.099294394
85	0xbddded7a	-0.10836311
86	0xbd3dbfb2	-0.046325393
87	0xbca88f0c	-0.020576023
88	0x3ddedf56	0.10882442
89	0xbdc6f014	-0.0971376
90	0xbdd1d652	-0.102459565
91	0xbd06addc	-0.03288065
92	0xbdc6168e	-0.09672271
93	0xbdc00e30	-0.09377706
94	0x3d595e70	0.05306858
95	0xbe01e7dc	-0.12686104
96	0xbd1c3386	-0.038135074
97	0xbcda0c50	-0.0266172
98	0xbd992784	-0.0747824
99	0xbdce8f0a	-0.10085876
100	0x3ba80bb6	0.005128349
101	0x3d21cda6	0.039502762
102	0xbd68bfb6	-0.056823455
103	0xbdc8a8ff	-0.097978584
104	0x3da2c6d7	0.07948082
105	0xbdb4f050	-0.088348985
106	0x3cc8684e	0.024463799
107	0xbd1a1fbb	-0.037627917
108	0x3de49322	0.11160876
109	0x3ce5eef8	0.02806805
110	0x3dca0053	0.09863343
111	0xbd5436c6	-0.05181005
112	0xbc95670f	-0.018237619
113	0xbe0f4069	-0.13989414
114	0x3cff2226	0.031144213
115	0x3e112319	0.14173545
116	0x3e13d8b2	0.14438131
117	0xbe1001a7	-0.1406313
118	0x3b6e36ef	0.003634866
119	0xbd10ce9a	-0.03535328
120	0x3df97eca	0.12182386
121	0xbde1b480	-0.11020756
122	0xbcbdf419	-0.023187684
123	0xbd5562d6	-0.05209621
124	0x3e06155e	0.13094088
125	0x3dfbe8ab	0.12300237
126	0xbd4f6c71	-0.050640527
127	0x3dd11f6a	0.1021107
128	0x3da88018	0.08227557
129	0xbd9e4dad	-0.07729659
130	0xbdc9020f	-0.09814846
131	0x3e190446	0.14943036
132	0xbda189e4	-0.07887629
133	0x3e182a6e	0.14859936
134	0x3c97c668	0.018527225
135	0x3e154020	0.14575243
136	0xbdb186a6	-0.0866826
137	0xbd56e082	-0.0524602
138	0xbd85bce8	-0.06530172
139	0x3d19c88c	0.037544772
140	0xbdd4a096	-0.10382192
141	0xbbac1daf	-0.005252562
142	0x3d9ec92c	0.07753214
143	0x3da5b2b6	0.08090727
144	0x3dec3269	0.115330525
145	0xbdc3522d	-0.09537158
146	0xbe01c667	-0.1267334
147	0x3dd8010e	0.10547076
148	0x3d42141a	0.04738245
149	0xbdb81a87	-0.08989435
150	0xbd166112	-0.036713667
151	0x3c321520	0.010869294
152	0xbd488192	-0.048951693
153	0xbd85a1d4	-0.06525007
154	0xbcff7e5c	-0.031188183
155	0xbdc3c3da	-0.0955884
156	0xbdf6e434	-0.12055245
157	0xbcc0026c	-0.023438655
158	0xbd1ef976	-0.038812123
159	0x3c643580	0.013928771
160	0xbd02b18a	-0.031907596
161	0x3dfb90ba	0.12283464
162	0x3c9d3080	0.019188166
163	0xbd9ea541	-0.077463634
164	0xbd24fbc6	-0.040279172
165	0xbe0c0b5e	-0.13676211
166	0x3d200cbc	0.039074644
167	0x3b2a9d80	0.0026033819
168	0xbdfc11d1	-0.12308086
169	0x3be23580	0.0069033504
170	0x3b3b1340	0.002854541
171	0xbd1df768	-0.038566023
172	0xbcf34e2c	-0.029700361
173	0x3d66bf30	0.056334674
174	0xbc74bd90	-0.014937773
175	0x3dcc484e	0.099747285
176	0xbd825cea	-0.06365378
177	0xbd715544	-0.058919206
178	0x3dfc0172	0.12304963
179	0x3e07502d	0.13214178
180	0xbdfbd50d	-0.122964956
181	0x3d060d50	0.03272754
182	0xbddab380	-0.10678768
183	0xbda3de45	-0.08001379
184	0xbd9fbc23	-0.07799556
185	0xbdbd8a6c	-0.092549175
186	0xbcc4372c	-0.02395209
187	0x3cb52278	0.022111163
188	0xbd276956	-0.04087194
189	0xbdcf0dfc	-0.10110089
190	0x3de3d9a2	0.111254945
191	0xbdd75594	-0.105143696
192	0xbdbfadf4	-0.09359351
193	0x3dd1be70	0.10241401
194	0xbdd5b96f	-0.10435759
195	0xbe0ad5f2	-0.13558176
196	0x3de992ae	0.1140493
197	0x3e0e891d	0.13919492
198	0xbddbb087	-0.10727029
199	0xbd10cbec	-0.035350725
200	0x3d8fa40e	0.07013713
201	0xbd067fd8	-0.032836765
202	0xbc6e7069	-0.014553168
203	0xbd164904	-0.036690727
204	0x3d8a15f9	0.06742472
205	0x3e069fd1	0.13146903
206	0x3da38595	0.07984463
207	0xbd81430a	-0.06311615
208	0x3dc92f5c	0.09823486
209	0x3dfe55bc	0.12418696
210	0x3dff9e35	0.124813475
211	0x3dacf5c8	0.084453166
212	0xbdbe28c1	-0.09285117
213	0x3b8faf09	0.0043848795
214	0x3d485799	0.048911665
215	0xbdb00db4	-0.08596364
216	0x3d179e6e	0.037016325
217	0x3cc21c32	0.023695085
218	0xba0a9086	-0.0005285818
219	0xbd876af6	-0.06612198
220	0x3d54f285	0.051989097
221	0x3d250c38	0.040294856
222	0x3e2b9350	0.16755414
223	0x3e03f0a5	0.12884767
224	0xbdd42e12	-0.1036035
225	0xbd597e8e	-0.053099208
226	0x3d62f83b	0.055412512
227	0x3d010c82	0.03150607
228	0xbb587cf1	-0.0033033455
229	0xbdb0e7e3	-0.08637979
230	0xbda9af5a	-0.08285399
231	0xbde9e737	-0.11421054
232	0xbdbc0b72	-0.091818705
233	0x3c8f5a82	0.017499212
234	0xbc3bd8da	-0.011465276
235	0x3dc487b0	0.09596193
236	0xbc072ab7	-0.00824993
237	0x3d4eda03	0.05050088
238	0xbdcda3cb	-0.10041007
239	0x3dc9a78e	0.09846412
240	0xbc5650b0	-0.013080761
241	0xbd0cbeea	-0.034361757
242	0xbda6ba15	-0.08140961
243	0x3db2f964	0.08738974
244	0xbe0641c8	-0.13111031
245	0xbc6d8ccd	-0.014498902
246	0xba967b21	-0.0011480787
247	0x3d91bf5e	0.071165785
248	0x3e0b66f0	0.13613486
249	0x3c1fc083	0.009750488
250	0x3dfbbd74	0.12291995
251	0xbcf3095c	-0.029667549
252	0x3e0677f6	0.13131699
253	0xbc1e16e8	-0.009649016
254	0xbd24b1de	-0.04020869
255	0xbdc6dd26	-0.097101495

stacks.0.blocks.0.fc4.bias f4 [50]
0	0xbddcfd6b	-0.10790523
1	0xbde8dfd5	-0.113708176
2	0x3c3d5b2c	0.011557382
3	0xbd9837cd	-0.07432518
4	0x3d69783d	0.056999434
5	0x3d2f93f0	0.042865694
6	0xbdce5901	-0.1007557
7	0x3dd8fadb	0.10594722
8	0xbd1e82b4	-0.038698867
9	0xbdc13a56	-0.09434955
10	0x3dfcd955	0.1234614
11	0x3cfa6957	0.030567808
12	0xbe0752bb	-0.13215153
13	0x3c3cabc3	0.011515561
14	0x3d953e3b	0.0728726
15	0x3df17b97	0.11791151
16	0xbe0918aa	-0.13388315
17	0x3d9eb6d0	0.077497125
18	0xbdaaa1e9	-0.08331663
19	0x3dcb1455	0.099159874
20	0x3ceaff12	0.02868608
21	0xbd508628	-0.05090919
22	0x3d871631	0.065960295
23	0xbdfd3a97	-0.12364691
24	0xbc20f10f	-0.009823098
25	0xbda20c23	-0.07912471
26	0xbe0135a5	-0.1261812
27	0x3e06ac93	0.1315177
28	0x3cb6c04d	0.022308493
29	0xbd956935	-0.07295457
30	0x3d40e6ec	0.047095224
31	0xbe2759cd	-0.1634285
32	0x3cea9d2c	0.028639399
33	0xbdabd407	-0.083900504
34	0xbdf361df	-0.11883902
35	0x3df8d48e	0.121499166
36	0x3b8cf1fb	0.0043013073
37	0xbe07069f	-0.1318612
38	0xb9b7ca14	-0.0003505504
39	0x3d0bb8be	0.03411173
40	0x3e069e01	0.13146211
41	0xbde58e79	-0.11208815
42	0x3dcb2acd	0.09920273
43	0x3c355140	0.011066735
44	0xbe0c25a1	-0.1368623
45	0x3d08d860	0.033409476
46	0xbdec7fe0	-0.11547828
47	0xba77b9e1	-0.00094500004
48	0xbd677d06	-0.056515716
49	0x3d2cb10e	0.04216104

stacks.0.blocks.0.theta_layer.weight f4 [57, 50]
0	0x3dcc197a	0.09965797
1	0x3d5b1d78	0.0534949
2	0x3df8d869	0.12150652
3	0xbd88e54d	-0.06684361
4	0x3d998fd3	0.074981354
5	0x3e04be90	0.12963319
6	0xbd89aacf	-0.06722032
7	0x3e115fc7	0.14196692
8	0xbc4964ce	-0.0122921
9	0xbe05099a	-0.12991944
10	0x3db4b5b3	0.08823719
11	0x3d154cb9	0.03645012
12	0xbc64c150	-0.013962105
13	0x3df67c3e	0.12035416
14	0x3e05ef52	0.13079575
15	0xbc271bb1	-0.010199473
16	0x3d833e01	0.06408311
17	0xbde34cb6	-0.11098616
18	0xbd329483	-0.043598663
19	0xbd48913f	-0.048966642
20	0x3df22eca	0.118253306
21	0xbcd28972	-0.025700305
22	0xbda70e2d	-0.08157001
23	0xbd009ce8	-0.031399637
24	0xbda51d69	-0.0806225
25	0x3e0ae085	0.1356221
26	0xbd77aa57	-0.060465183
27	0xbd9d7774	-0.076887995
28	0x3cc493ae	0.0239962
29	0xbdc972ff	-0.09836387
30	0x3dd53077	0.104096346
31	0x3a2d8d5d	0.0006620491
32	0x3e1e3be0	0.15452528
33	0x3df4865d	0.1193969
34	0x3d7f6c1c	0.06235896
35	0xbbbda591	-0.0057875593
36	0xbdb7f21f	-0.08981728
37	0x3caf93cf	0.021432785
38	0x3d9badf1	0.07601536
39	0x3ae6dbea	0.0017613147
40	0x3d238eed	0.039931227
41	0x3d2af09f	0.04173338
42	0xbc371dbe	-0.011176525
43	0x3c92a516	0.017900985
44	0x3c3a19b4	0.011358667
45	0x3dea9522	0.11454226
46	0x3b540ca4	0.0032356167
47	0x3b2b611b	0.0026150409
48	0x3db1d9ed	0.08684144
49	0xbdf342e7	-0.11877995
50	0xbdc8ee88	-0.09811121
51	0xbd009026	-0.03138747
52	0xbdc1ef20	-0.094694376
53	0x3ca05bf8	0.019575104
54	0x3b3d6433	0.0028898835
55	0x3d535789	0.051597152
56	0x3d71c170	0.059022367
57	0x3d2e4dfa	0.042554833
58	0x3d20fed0	0.039305508
59	0x3d2b55e6	0.041829966
60	0xbcb87bce	-0.022519972
61	0xbd8c8414	-0.068611294
62	0x3d938058	0.07202214
63	0xbc51dd65	-0.012809132
64	0x3d8a6be6	0.06758861
65	0x3e0b777f	0.13619803
66	0x3d0ecb37	0.03486177
67	0x3d9f5ebf	0.07781743
68	0x3c3efcb1	0.011656926
69	0x3e057b00	0.13035202
70	0x3ce48f04	0.027900226
71	0x3b92712a	0.0044690566
72	0x3d7616a6	0.060080193
73	0x3de0381a	0.109482005
74	0xbd332c01	-0.043743137
75	0xbcf94f88	-0.030433431
76	0xbca7fe04	-0.020506866
77	0x3dd6c27e	0.10486315
78	0xbd671eed	-0.056425977
79	0x3d7599e9	0.059961233
80	0x3dbe1c4d	0.09282742
81	0xbd8864d6	-0.06659858
82	0x3d6eb9bf	0.05828261
83	0xbe0afb3d	-0.13572402
84	0x3ce7827d	0.028260464
85	0x3ddf7e7d	0.109127976
86	0x3ddae17e	0.106875405
87	0x3d914b9e	0.07094501
88	0x3cb4274c	0.021991394
89	0xbd2043ff	-0.039127346
90	0x3d0e181b	0.034690958
91	0x3d917ee9	0.07104284
92	0xbd61206c	-0.05496256
93	0xbdbd1517	-0.09232538
94	0xbd6c548e	-0.057697825
95	0xbd2c5955	-0.04207738
96	0x3d9d0218	0.07666415
97	0xbde71cc6	-0.11284785
98	0xbded0234	-0.11572686
99	0x3d012c41	0.031536344
100	0xbe128339	-0.1430787
101	0xbcbd9a38	-0.023144826
102	0xbd9c3939	-0.07628102
103	0xbdeb087a	-0.11476226
104	0xbe141b0c	-0.14463443
105	0xbd448485	-0.047977943
106	0x3e10e734	0.14150697
107	0x3cf6cf92	0.030128274
108	0xbe05f24e	-0.13080713
109	0x3d8cd987	0.068774275
110	0x3d5a54dd	0.05330359
111	0xbdc6eb38	-0.09712833
112	0xbd8a4c4d	-0.067528345
113	0xbde94bbb	-0.113913976
114	0xbe09ea3f	-0.13468264
115	0xbdaac79a	-0.08338852
116	0x3d178e28	0.037000805
117	0x3d3bcdc9	0.04585055
118	0xbe03fc0b	-0.12889116
119	0xbe081e3b	-0.13292782
120	0x3dc8e0dd	0.09808514
121	0x3d5a571f	0.05330574
122	0xbd911d52	-0.070856705
123	0x3d77b3d8	0.060474247
124	0x3d30d1d3	0.043168854
125	0x3cadf5a0	0.021235287
126	0xbdd234b8	-0.102639616
127	0x3daa9878	0.08329862
128	0xbdf7921e	-0.120884165
129	0x3db6b4ed	0.089212276
130	0xbd8fe1dc	-0.07025501
131	0xbdbb343b	-0.091408215
132	0x3d80a1c6	0.06280856
133	0x3d2e3ec9	0.042540345
134	0xbda721ce	-0.081607446
135	0x3ccc3e21	0.02493197
136	0xbcf8a587	-0.030352367
137	0x3d4628ff	0.04837894
138	0x3dc38f8f	0.09548866
139	0xbdc0bdc7	-0.09411197
140	0x3c74070e	0.01489426
141	0xbd3c98d7	-0.046044197
142	0x3a6eade0	0.0009104889
143	0xbdd1eeda	-0.102506354
144	0x3bd372df	0.0064529027
145	0x3dbb5ef7	0.091489725
146	0xbdbcc6f4	-0.09217635
147	0x3d7cdfe8	0.06173697
148	0xbd690e5c	-0.05689846
149	0xbca91a0f	-0.020642309
150	0xbd489654	-0.04897149
151	0xbc36d1e0	-0.011158437
152	0x3daa517d	0.08316324
153	0x3d1da23c	0.038484797
154	0xbd9ad352	-0.075598374
155	0xbe0641a3	-0.13110976
156	0x3df334e6	0.11875324
157	0x3e1217e5	0.14266928
158	0xbe09e8d0	-0.13467717
159	0x3e0bbdaa	0.1364657
160	0x3d980c2d	0.07424197
161	0x3d213276	0.039354764
162	0xbcafdb60	-0.02146691
163	0x3da44ea8	0.08022815
164	0x3deddf38	0.11614841
165	0xbdd1066b	-0.10206302
166	0xbc1a3970	-0.009413108
167	0x3dc89a4c	0.09795055
168	0xbc77288c	-0.015085351
169	0xbe0b4a94	-0.13602668
170	0x3dad57bb	0.08463999
171	0xbe0d1ab0	-0.13779712
172	0xbdbb47cb	-0.09144553
173	0x3bf87b00	0.007583022
174	0x3cb7f121	0.022453846
175	0x3cd56528	0.026049212
176	0x3ce8e32e	0.02842864
177	0x3c0b17fb	0.008489604
178	0xbc9bd979	-0.019024597
179	0x3e07fbd8	0.13279665
180	0xbc54fdc4	-0.012999956
181	0xbdd8c29d	-0.105839945
182	0x3e22e6f5	0.15908416
183	0xbd82b83d	-0.06382797
184	0x3dad86e9	0.08472998
185	0xbdf45da8	-0.11931926
186	0xbd4b8906	-0.049691223
187	0xbd541a21	-0.05178273
188	0xbd35c58a	-0.04437784
189	0x3d366b10	0.044535697
190	0xbd6af9fa	-0.057367302
191	0x3c449e21	0.0120005915
192	0x3df84493	0.121224545
193	0xbdd20dcb	-0.10256537
194	0x3dd8e512	0.10590567
195	0x3c4d2c2a	0.012522737
196	0x3de1dea2	0.11028792
197	0x3e06dee2	0.1317096
198	0xbd5f9e68	-0.054594427
199	0x3e0235a2	0.12715772
200	0x3d5d6afe	0.054057114
201	0x3db00082	0.08593847
202	0x3d82a1d4	0.063785225
203	0x3aef5600	0.0018259883
204	0xbde471cd	-0.11154518
205	0xbda5c779	-0.08094687
206	0x3d1c9b46	0.038234018
207	0xbc9f353a	-0.01943456
208	0x3da8fb79	0.082510896
209	0x3c09e520	0.008416444
210	0x3c8f823f	0.01751816
211	0xbe1184c4	-0.14210802
212	0xbc18bf20	-0.0093229115
213	0x3dadac82	0.08480169
214	0xbdfaea4d	-0.122517206
215	0x3d54188a	0.051781215
216	0xbd93c8f8	-0.07216066
217	0xba6c8007	-0.0009021763
218	0xbd1997f1	-0.03749842
219	0xbbf2a493	-0.0074048727
220	0x3dca0ebe	0.09866093
221	0xbc2b40ae	-0.010452433
222	0x3ba8a0b5	0.005146111
223	0xbd9e84b1	-0.077401526
224	0x3b708c9e	0.0036704908
225	0xbda6e132	-0.08148421
226	0x3d07ac2b	0.033123177
227	0xbd829c27	-0.0637744
228	0xbd8b71c8	-0.068088114
229	0xbe028e15	-0.12749512
230	0xbccfb8aa	-0.02535661
231	0xbd1b4f09	-0.03791717
232	0x3b1785f2	0.002312061
233	0xbe0c963d	-0.13729186
234	0xbbe8878d	-0.007096237
235	0xbddb73a4	-0.10715416
236	0x3e10c06d	0.14135905
237	0x3c378e49	0.011203357
238	0x3d8ec568	0.06971246
239	0xbce11a64	-0.027478404
240	0x3dc01c88	0.09380442
241	0xbdc2bb02	-0.09508325
242	0xbd85c031	-0.06530798
243	0xbd93bc75	-0.0721368
244	0x3dc8fa62	0.09813382
245	0xbd3612e7	-0.04445162
246	0x3dd66170	0.104678035
247	0x3db9d176	0.09073155
248	0x3cb8e7a8	0.0225714
249	0x3caf757c	0.021418326
250	0x3c44e6dc	0.012017932
251	0xbd9f82d1	-0.07788623
252	0xbda62a1c	-0.081135005
253	0xbdbec8ba	-0.09315629
254	0x3db5329d	0.08847544
255	0x3dadbbe2	0.084831014

stacks.0.blocks.0.theta_layer.bias f4 [57]
0	0x3d31be34	0.043394282
1	0xbce23372	-0.027612422
2	0xbc895e6c	-0.016768657
3	0x3d82dff7	0.06390374
4	0xbe019f8d	-0.1265852
5	0xbd97149f	-0.0737698
6	0xbdca4ae0	-0.098775625
7	0x3df25b6e	0.11833845
8	0x3dae87c7	0.08521991
9	0x3bb03357	0.005377214
10	0x3c393245	0.011303489
11	0x3deaf133	0.11471786
12	0xbe109611	-0.14119746
13	0x3bd6be89	0.0065534753
14	0x3c7ee262	0.015556904
15	0x3df0e5fa	0.117626145
16	0xbd8a17cf	-0.067428224
17	0x3e1bbf4c	0.15209693
18	0xbd5b1d9d	-0.05349504
19	0x3de28e8c	0.11062345
20	0x3d8a5cf8	0.06756014
21	0xbe1be3ab	-0.15223567
22	0xbdfab92c	-0.1224235
23	0x3ce04e6f	0.02738115
24	0x3d070f8b	0.032973807
25	0x3c91e7ce	0.017810728
26	0x3daec1a2	0.08533026
27	0xbd8b6b1e	-0.0680754
28	0x3c878f18	0.016547725
29	0xbd84ceb2	-0.064847365
30	0xbd403dd4	-0.046933964
31	0xbddd50cf	-0.10806429
32	0xbd9a3daf	-0.075312965
33	0xbdd63e1d	-0.10461066
34	0xbd814f95	-0.06314007
35	0xbcb753aa	-0.022378761
36	0xbd1ba6ac	-0.038000748
37	0xbd6ba290	-0.05752808
38	0x3c9512e8	0.018197492
39	0x3a7825c8	0.0009466079
40	0xbdf74076	-0.12072842
41	0x3cb233e2	0.021753255
42	0xbdca6487	-0.09882455
43	0x3c4bea84	0.01244605
44	0x3d3aec33	0.045635413
45	0xbce72d4c	-0.028219841
46	0x3deb2b6a	0.1148289
47	0x3d51f703	0.05126096
48	0x3d1acf12	0.037795134
49	0xbdcc7402	-0.09983064
50	0xbcb02733	-0.021503067
51	0x3e08ef6c	0.13372582
52	0xbc81b2de	-0.01583236
53	0x3e096b2f	0.13419794
54	0x3d78fb73	0.060786676
55	0x3d9cdcfa	0.076593354
56	0x3c3f3410	0.0116701275

stacks.0.blocks.1.fc1.weight f4 [50, 56]
0	0xbcde1fc4	-0.027114756
1	0x3bd36f27	0.0064524594
2	0x3de70788	0.11280733
3	0x3d5c63d4	0.05380614
4	0x3c2ca47b	0.010537262
5	0xbe065ca4	-0.13121277
6	0x3dd8c52f	0.10584485
7	0x3c5aa3c6	0.013344711
8	0xbd7952dd	-0.06087004
9	0x3d12c6a0	0.035833955
10	0x3cfc8b1f	0.030828057
11	0xbd84b335	-0.064794935
12	0xbdcd83d3	-0.10034909
13	0xbce6fcc5	-0.028196702
14	0xbd8349df	-0.06410574
15	0xbdc1d03d	-0.094635464
16	0x3da06cb2	0.07833232
17	0xbd17e4e6	-0.03708353
18	0x3cc017d1	0.023448857
19	0x3d9809e9	0.07423765
20	0xbdcfb136	-0.10141222
21	0xbcef66f5	-0.029223898
22	0xbd72e34a	-0.05929879
23	0x3dbcdea7	0.09222155
24	0xbd405679	-0.046957467
25	0x3ba7c48c	0.0051198658
26	0xbd700a05	-0.058603305
27	0x3d55b5a7	0.05217519
28	0xbd4f560b	-0.050619166
29	0xbd0a67ce	-0.033790402
30	0xbd8caded	-0.06869111
31	0x3b45b095	0.0030165066
32	0x3de019a2	0.10942389
33	0x3db695a6	0.08915262
34	0x3e024b0a	0.12723938
35	0x3d768a5c	0.060190544
36	0xbba66a54	-0.0050785933
37	0xbde4dfb6	-0.11175482
38	0x3d00b16c	0.031419203
39	0xbde8c5d0	-0.11365855
40	0x3d1ef868	0.038811117
41	0xbcb840aa	-0.022491772
42	0xbdb9241a	-0.09040089
43	0xbd8971fe	-0.067111954
44	0x3dfb24ea	0.122629
45	0x3dc1005f	0.09423899
46	0x3d96f01c	0.07370016
47	0xbc0ac958	-0.008470856
48	0xbce4d651	-0.027934225
49	0x3e0813b3	0.13288765
50	0x3e0257eb	0.1272885
51	0x3e08b422	0.13349965
52	0xbd39aab4	-0.04532881
53	0xbc6b2b7f	-0.014353632
54	0xbb061866	-0.002046132
55	0x3d4bd7d3	0.049766373
56	0x3dd6f409	0.10495765
57	0xbd6e6dc9	-0.058210168
58	0x3d27acf7	0.040936437
59	0xbd65f055	-0.0561374
60	0x3bed1bf0	0.0072359964
61	0x3c958105	0.018249998
62	0xbd2e7560	-0.042592406
63	0xbd355437	-0.044269767
64	0x3db14c00	0.08657074
65	0xbdf7e063	-0.12103345
66	0x3d5aa1f9	0.053377125
67	0xbd2a6ff7	-0.041610684
68	0xbbbd1293	-0.0057700365
69	0xbc8a3dcd	-0.016875172
70	0xbd9b1d3e	-0.07573937
71	0xbdc3b190	-0.09555352
72	0xbb1f74d5	-0.0024331112
73	0x3dc9b616	0.09849183
74	0xbe19e43b	-0.1502847
75	0xbd14403e	-0.03619408
76	0x3df19a5c	0.1179702
77	0xbd7f1ed6	-0.062285267
78	0xbdc9cf05	-0.09853939
79	0x3d807863	0.06272962
80	0x3de83baf	0.11339509
81	0xbd0b1d4f	-0.033963498
82	0x3d31f39c	0.043445215
83	0xbe1381e7	-0.14405023
84	0xbd7cac30	-0.06168765
85	0xbc352552	-0.011056261
86	0x3dc41932	0.09575118
87	0x3dd32586	0.103098914
88	0x3cd7ae13	0.026328122
89	0xbbe70ebc	-0.007051317
90	0x3dc2d1f7	0.09512704
91	0x3d32d70f	0.043662127
92	0xbca73d26	-0.0204149
93	0x3bd8f1ea	0.0066206353
94	0xbe082886	-0.13296708
95	0xbe0137f7	-0.12619005
96	0x3df03cf2	0.117303744
97	0x3d330c07	0.043712642
98	0x3dceb15b	0.100924216
99	0xbd82aaa4	-0.06380203
100	0xbe245017	-0.16046177
101	0xbd96f5e1	-0.073711164
102	0x3d09cdc5	0.033643503
103	0x3dd9ea9d	0.10640452
104	0xbe126f3b	-0.14300244
105	0xbdff22d6	-0.12457816
106	0xbe07490b	-0.13211457
107	0xbd7765f1	-0.060399953
108	0xbe1205b5	-0.1425999
109	0xbcc18d60	-0.023626983
110	0xbddaa2c2	-0.10675575
111	0x3d4096a9	0.04701868
112	0xbd9478ba	-0.07249589
113	0xbdb30bde	-0.08742498
114	0xbd4194f4	-0.047261193
115	0xbe06808e	-0.13134977
116	0xbdf7e824	-0.12104824
117	0x3ca1c8fe	0.01974916
118	0x3e01214f	0.12610362
119	0x3c9295e4	0.017893739
120	0xbd901ecc	-0.07037124
121	0x3d729a18	0.059228987
122	0x3db96dab	0.09054121
123	0x3c4b6111	0.012413279
124	0xbde04cd5	-0.109521545
125	0x3cfa30d1	0.030540856
126	0xbdd2588d	-0.10270796
127	0xbdfd4643	-0.12366917
128	0xbdb5c30b	-0.08875092
129	0x3b212188	0.0024586637
130	0xbc69aabf	-0.0142619
131	0xbdc4d2a2	-0.096104875
132	0x3d84e822	0.06489588
133	0xbd15b0dd	-0.036545623
134	0x3c8c3304	0.01711417
135	0xbc3e2528	-0.011605538
136	0x3d8563b2	0.06513156
137	0x3e0d432d	0.13795157
138	0x3d3e9e1d	0.046537507
139	0xbd97a1cf	-0.074039094
140	0xbd0dafa1	-0.03459132
141	0x3d7d8f6f	0.061904367
142	0xbd922b0a	-0.07137115
143	0x3da48eab	0.08035024
144	0xbd6e0cf1	-0.05811781
145	0x3e0012c1	0.12507154
146	0x3d943713	0.07237067
147	0xbdcf50d3	-0.10122838
148	0xbe049412	-0.1294711
149	0x3d8666b5	0.065625586
150	0x3d85607b	0.06512543
151	0xbc91d8f6	-0.01780365
152	0x3d15ad96	0.036542498
153	0xbd8a02f8	-0.067388475
154	0x3d61014d	0.05493288
155	0xbd97e173	-0.07416048
156	0x3d8d23aa	0.06891568
157	0x3de47233	0.11154594
158	0xbcd97d3a	-0.02654897
159	0x3c43371f	0.011914997
160	0xbc428106	-0.011871582
161	0xbce9a9aa	-0.028523285
162	0xbd9d9e8a	-0.076962546
163	0x3d8fb7f7	0.070175104
164	0x3dbe6d0d	0.092981435
165	0xbe0eb90a	-0.13937774
166	0xbe106add	-0.14103265
167	0x3d6a3ae9	0.057185087
168	0x3c438fdd	0.011936155
169	0xbcf7d1c0	-0.030251384
170	0x3dbb3d3a	0.091425374
171	0xbca32026	-0.01991279
172	0xbded2ac5	-0.11580423
173	0x3d818902	0.0632496
174	0xbdae02c9	-0.08496625
175	0x3c856937	0.016285522
176	0x3d633790	0.05547291
177	0xbd02e60f	-0.031957682
178	0x3ddfbcb9	0.10924668
179	0xbc9a0f82	-0.018806223
180	0x3d81c431	0.06336249
181	0x3d0fdfc5	0.035125513
182	0x3e0d8f24	0.13824135
183	0x3d8f08a9	0.06984074
184	0xbdc6d544	-0.09708646
185	0x3de6f8da	0.112779334
186	0xbdd7db0b	-0.10539826
187	0x3dfb6146	0.12274413
188	0xbd33f21c	-0.043932065
189	0xbd97d5ed	-0.0741385
190	0x3df1040b	0.11768349
191	0xbd233e36	-0.03985425
192	0xbda1b6cc	-0.07896194
193	0xbda3f6d9	-0.08006067
194	0x3d95997a	0.07304664
195	0x3d410629	0.047125015
196	0xbdad7d8b	-0.08471211
197	0x3d6b6b87	0.057475593
198	0xbd6748fe	-0.056466095
199	0xbe012830	-0.12612987
200	0x3d548406	0.05188372
201	0x3cef0250	0.029175907
202	0x3d4454bf	0.047932383
203	0xbd901569	-0.07035334
204	0x3da26aae	0.07930504
205	0x3d4aa9c5	0.04947831
206	0x3d827060	0.0636909
207	0xbde6874d	-0.11256275
208	0xbda2411d	-0.079225756
209	0x3d93dd65	0.07219962
210	0xbd86cd4c	-0.06582126
211	0xbdd34735	-0.10316316
212	0x3ddd033d	0.10791633
213	0x3d8b0308	0.067876875
214	0xbccb1aec	-0.02479311
215	0x3c6267e5	0.013818716
216	0xbd58cb2b	-0.05292813
217	0x3dc10a7c	0.09425828
218	0xbdf98da8	-0.12185222
219	0x3df1456b	0.117808186
220	0xb84e4705	-4.918037e-05
221	0xbd668734	-0.056281283
222	0xbb5c1e07	-0.0033587234
223	0xbd4def05	-0.050276775
224	0x3dad5877	0.08464139
225	0xbd828aab	-0.06374105
226	0xbd130996	-0.035897814
227	0x3d352c84	0.044231907
228	0xbdcf9326	-0.10135488
229	0x3a7bbf60	0.0009603407
230	0xbdabe632	-0.08393516
231	0x3db48526	0.088144585
232	0x3e2c3bd3	0.16819696
233	0xbd1d248f	-0.038364943
234	0x3d739a15	0.059473116
235	0xbd027724	-0.031851903
236	0x3bac4120	0.005256787
237	0x3d884287	0.06653314
238	0x3d11c837	0.03559133
239	0x3d7f5d37	0.062344756
240	0xbd5888a6	-0.052864693
241	0x3dd4fb57	0.10399502
242	0x3da56c38	0.08077282
243	0xbd179873	-0.03701062
244	0xbccc7e77	-0.024962647
245	0x3cc377a7	0.023860766
246	0x3d9dcef9	0.077054925
247	0xbd134477	-0.035953965
248	0x3d1d9950	0.03847629
249	0xbd014cb8	-0.031567305
250	0xbdb234a3	-0.08701446
251	0xbbf25b87	-0.007396165
252	0x3c9776c8	0.018489257
253	0x3dbcca30	0.09218252
254	0xbdbeb4b3	-0.093118094
255	0x3e01e7fc	0.12686151

stacks.0.blocks.1.fc1.bias f4 [50]
0	0xbd2afbb3	-0.041743945
1	0x3d9a28e0	0.075273275
2	0x3d23355d	0.039845813
3	0xbdd5c6bf	-0.104382984
4	0xbc9dd24d	-0.019265318
5	0x3dd8c1d0	0.10583842
6	0x3d3859ef	0.045007642
7	0x3dd92836	0.10603373
8	0xbe27decd	-0.16393586
9	0x3dd2f864	0.10301283
10	0xbc3b5a71	-0.011435137
11	0xbe0be4da	-0.13661519
12	0xbdf8a39a	-0.121405795
13	0xbd871d57	-0.06597393
14	0x3e0d7dc3	0.13817506
15	0x3cb7240c	0.022356056
16	0xbd826dba	-0.06368585
17	0xbd8ac898	-0.067765415
18	0xbc97c63b	-0.01852714
19	0xbd1ac94a	-0.03778962
20	0xbd8b5c64	-0.068047315
21	0xbdb705a1	-0.089366205
22	0xbd1e20a7	-0.03860536
23	0xbc9a13ac	-0.018808208
24	0xbdc854a2	-0.097817674
25	0xbd11b0bd	-0.03556894
26	0x3db60ab1	0.08888758
27	0xbe055a90	-0.13022828
28	0x3d4b7aae	0.049677543
29	0xbe16300f	-0.1466677
30	0xbd2741e1	-0.04083431
31	0x3d9e0538	0.07715839
32	0x3d50c5d1	0.050969902
33	0x3dc149bc	0.09437892
34	0x3c7c7a53	0.015410024
35	0x3d79916f	0.060929712
36	0xbe3843a8	-0.17994559
37	0x3dc746ec	0.09730324
38	0xbda9f664	-0.082989484
39	0x3d61c1eb	0.055116575
40	0x3a8998ec	0.0010497845
41	0xbdb00d65	-0.08596305
42	0xbcec8216	-0.028870624
43	0x3d9cb04d	0.07650814
44	0xbd1eb1f2	-0.03874392
45	0xbceb255b	-0.028704336
46	0xbdca565e	-0.098797545
47	0x3df063e0	0.117378
48	0x3d811db0	0.063044906
49	0x3c850d7a	0.016241778
