RNN_models/close_RSI_7_hma_15_15min_t4.pth (torch, 103482 bytes, 20 tensors)

stacks.0.blocks.0.fc1.weight f4 [50, 42]
0.0036480129 -0.03635212 -0.1061365 -0.024699435 0.027112544 0.06395143 -0.036207452 -0.14233764
0.060757384 0.113665625 0.016601577 -0.040760577 -0.13098797 0.08783595 0.10247533 -0.0032534301
0.14928617 -0.10758059 0.006998673 -0.110856846 -0.100991935 -0.101661816 -0.08045143 -0.072227165
-0.124183 -0.01639241 0.1375301 -0.07384354 -0.11706464 0.0087302625 -0.05270496 -0.05890038
-0.08673332 0.11602257 -0.033170447 -0.051871434 0.1445828 -0.072487175 -0.017901957 0.0981669
-0.04260719 -0.12987953 -0.123787604 -0.0006120788 -0.06817515 0.059668306 -0.052070037 -0.10811688
0.10615982 0.063476436 0.16052243 -0.061454996 0.13143423 0.13430886 0.052020714 -0.019362707
-0.1151926 0.0054532066 -0.013883623 -0.11267184 0.12549277 -0.13621911 0.17150715 0.03181894
-0.03799662 -0.11935362 -0.046063866 -0.07372043 -0.07337546 -0.09614741 -0.09027718 -0.07678544
0.13952157 0.097817145 0.012074745 -0.06452069 0.055260662 0.034976088 0.2710957 0.20119198
0.15984759 0.076650575 -0.07827629 0.06105928 -0.14080302 -0.09733949 0.09480054 0.12665582
0.055347122 -0.08719438 -0.10969218 -0.11447193 -0.10631615 0.11841365 0.075715594 0.09436624
-0.0647269 0.12462296 -0.09127908 -0.13937399 -0.10401624 -0.060535498 -0.16283269 -0.07416304
0.01069195 0.09631283 -0.004745589 0.05502121 -0.13643797 -0.07654315 0.08534208 -0.025978658
-0.1040305 0.064428575 -0.13090095 0.03191036 -0.05273187 0.12949434 0.028950362 -0.11169676
-0.04080108 0.021038845 -0.030839285 -0.103600994 -0.16577391 -0.05039781 -0.06222229 0.026861686
-0.06305338 -0.07092427 -0.055597488 0.06202972 -0.05949264 0.14570966 0.08279771 -0.049848415
0.14113621 -0.05818844 -0.03746739 0.08850298 0.007033387 -0.05993923 0.11519451 0.13519184
0.049514126 0.026395803 -0.07286594 -0.011921467 0.1553324 -0.075165875 0.0758147 0.054817
0.12151571 -0.011763377 -0.0041089356 0.09001941 -0.018094368 0.122443154 -0.0374599 0.10025525
0.053629287 0.07167125 -0.23105983 -0.1451016 -0.13234256 -0.06502842 -0.0020876357 0.073766634
-0.1267368 -0.1493919 -0.08781827 -0.058509663 0.10198434 -0.118689165 0.006364554 -0.04382854
0.12610294 0.15220805 -0.0866726 -0.105205536 0.05608259 -0.027675524 0.06938307 0.124104515
0.15095498 -0.07678696 0.04990092 -0.0710942 0.09081377 -0.033154257 -0.0074163973 -0.13087964
-0.09428405 0.09760125 -0.06954148 -0.072583765 0.053265646 0.029973939 -0.12632424 0.038786933
0.04303646 -0.0018065721 0.15159245 0.07370095 -0.024622858 -0.012550592 -0.10248609 -0.15374126
0.03892176 -0.013305247 -0.0028305799 0.008737546 0.03577863 0.006991098 0.060065847 -0.13694921
0.070189275 0.023439288 -0.068445124 -0.12578419 -0.1272321 0.12853953 0.04885139 -0.10447825
0.014655306 0.012778615 -0.03776483 0.06111618 0.115443 0.019689053 0.13879615 0.12714624
0.13765137 0.06717047 -0.1268905 0.11338962 0.028452903 -0.104905106 0.1317737 -0.063655004
-0.019395862 -0.15289989 -0.11548855 -0.103733756 0.08187097 0.13758403 0.16153394 -0.10567105
-0.10356102 -0.014558291 0.11928219 0.047869857 -0.057008788 -0.12522292 -0.059209287 -0.031691164
00000000: 8013 6f3b f6e5 14bd 185e d9bd 7856 cabc
00000010: 201b de3c f8f8 823d 444e 14bd f5c0 11be
00000020: bcdc 783d 86c9 e83d 0800 883c 90f4 26bd
00000030: b621 06be 56e3 b33d 96de d13d 8037 55bb
00000040: 79de 183e 3653 dcbd 2055 e53b ea08 e3bd
00000050: dcd4 cebd 1234 d0bd b8c3 a4bd d6eb 93bd
00000060: a853 febd 6049 86bc b1d4 0c3e 483b 97bd
00000070: 96bf efbd 6009 0f3c 28e1 57bd 8641 71bd
00000080: 3da1 b1bd 3e9d ed3d bcdd 07bd 2477 54bd
00000090: 830d 143e 2874 94bd 20a7 92bc ba0b c93d
000000a0: e084 2ebd 24ff 04be 5b84 fdbd ea73 20ba
000000b0: 6a9f 8bbd c166 743d 6447 55bd 626c ddbd
000000c0: 526a d93d efff 813d fe5f 243e 3cb8 7bbd
000000d0: b296 063e 4388 093e ac13 553d 8a9e 9ebc
000000e0: 19ea ebbd d0b0 b23b 2378 63bc 7ec0 e6bd
000000f0: 2d81 003e 067d 0bbe 929f 2f3e 9454 023d
00000100: 58a2 1bbd ac6f f4bd 77ad 3cbd bdfa 96bd
00000110: e045 96bd efe8 c4bd 3ee3 b8bd af41 9dbd
00000120: bede 0e3e 5b54 c83d 27d5 453c 6c23 84bd
00000130: 0159 623d 1643 0f3d 0ecd 8a3e 4505 4e3e
00000140: 16af 233e fafa 9c3d 524f a0bd 4c19 7a3d
00000150: ab2e 10be ed59 c7bd c926 c23d 10b2 013e
00000160: aab3 623d f892 b2bd 4ba6 e0bd 4270 eabd
00000170: 48bc d9bd db82 f23d c710 9b3d 1643 c13d
00000180: 898f 84bd 533a ff3d 87f0 babd 0eb8 0ebe
00000190: 7706 d5bd 12f4 77bd 9dbd 26be cbe2 97bd
000001a0: 4a2d 2f3c a93f c53d e380 9bbb ec5d 613d
000001b0: 65b6 0bbe a8c2 9cbd d4c7 ae3d 32d1 d4bc
000001c0: f10d d5bd 21f3 833d e60a 06be 70b4 023d
000001d0: 60fd 57bd 2a9a 043e 4f29 ed3c 45c1 e4bd
000001e0: 091f 27bd a859 ac3c aba2 fcbc c22c d4bd
000001f0: a3c0 29be ef6d 4ebd cddc 7ebd 0a0d dc3c
00000200: 2122 81bd be40 91bd 31ba 63bd e012 7e3d
00000210: 8eae 73bd ea34 153e d991 a93d da2d 4cbd
00000220: 0386 103e 0057 6ebd 6877 19bd 0d41 b53d
00000230: 5478 e63b d782 75bd 19eb eb3d bb6f 0a3e
00000240: 53cf 4a3d 033c d83c bd3a 95bd 4252 43bc
00000250: 750f 1f3e 91f0 99bd bd44 9b3d ca87 603d
00000260: 3bdd f83d 2ebb 40bc 40a4 86bb 195c b83d
00000270: a43a 94bc 7ac3 fa3d 8d6f 19bd a052 cd3d
00000280: 62aa 5b3d 60c8 923d f39a 6cbe 8495 14be
00000290: cf84 07be 9f2d 85bd b7d0 08bb f612 973d
000002a0: 4bc7 01be 31fa 18be 11da b3bd d4a7 6fbd
000002b0: 2add d03d 4e13 f3bd c08d d03b 8e85 33bd
000002c0: 2121 013e 6ddc 1b3e 6781 b1bd 0076 d7bd
000002d0: dcb6 653d c8b7 e2bc b618 8e3d 822a fe3d
000002e0: f193 1a3e 7b42 9dbd e864 4c3d d699 91bd
000002f0: 92fc b93d c2cc 07bd 4005 f3bb 5005 06be
00000300: ff17 c1bd 2ae3 c73d c36b 8ebd cca6 94bd
00000310: 142d 5a3d e88b f53c 245b 01be 0cdf 1e3d
00000320: 0047 303d 80ca ecba 0d3b 1b3e 86f0 963d
00000330: e0b5 c9bc 00a1 4dbc 3ae4 d1bd 596e 1dbe
00000340: 6c6c 1f3d 40fe 59bc 4081 39bb ed27 0f3c
00000350: 9d8c 123d 9515 e53b 9b07 763d 6a3c 0cbe
00000360: 65bf 8f3d c003 c03c f52c 8cbd 92cd 00be
00000370: 2249 02be de9f 033e 6518 483d b1f8 d5bd
00000380: cf1c 703c 655d 513c 4baf 1abd f654 7a3d
00000390: 616d ec3d f04a a13c 9420 0e3e a032 023e
000003a0: 7bf4 0c3e ac90 893d 95ef 01be d138 e83d
000003b0: 1016 e93c 7dd8 d6bd afef 063e 8e5d 82bd
000003c0: 12e4 9ebc ca91 1cbe 4385 ecbd 5d72 d4bd
000003d0: f8ab a73d d4e2 0c3e 2769 253e 106a d8bd
000003e0: cd17 d4bd e685 6ebc 394a f43d 2f13 443d
000003f0: 0c82 69bd 703a 00be 7085 72bd 98ce 01bd

stacks.0.blocks.0.fc1.bias f4 [50]
-0.09368248 0.7775489 -0.14088589 -0.73129284 0.12573315 0.2577804 0.14907236 -0.54749954
-0.103040576 0.1356007 0.026768968 0.63062274 0.59290147 0.6041029 -0.04786393 -0.34655255
0.046013407 -0.09740609 -0.58272624 -0.0474747 -0.6289322 0.40416995 -0.109315984 0.69828475
0.028010592 -0.062291145 0.14389963 0.55381334 -0.5092454 -0.5491118 -0.06703328 0.5791119
-0.09652437 0.011274067 -0.7450758 0.4388917 -0.5593116 0.043519422 0.07287676 0.6759162
-0.005755942 0.395873 -0.020436049 0.55159205 0.018092584 0.40556175 0.063643 -0.047496993
-0.03273323 0.051175043
00000000: 9adc bfbd 720d 473f 6444 10be 0236 3bbf
00000010: 31c0 003e cbfb 833e 6da6 183e ee28 0cbf
00000020: f006 d3bd e9da 0a3e 984a db3c 7e70 213f
00000030: 64c8 173f 7da6 1a3f f80c 44bd 566f b1be
00000040: 8e78 3c3d d87c c7bd 8c2d 15bf d574 42bd
00000050: b301 21bf 5def ce3e 0fe1 dfbd cac2 323f
00000060: 7876 e53c 0025 7fbd 6d5a 133e b6c6 0d3f
00000070: e85d 02bf 9792 0cbf bf48 89bd ad40 143f
00000080: 92ae c5bd ddb6 383c 4abd 3ebf 6ab6 e03e
00000090: 0c2f 0fbf 6c41 323d 6940 953d d808 2d3f
000000a0: 579c bcbb deaf ca3e 8069 a7bc 2335 0d3f
000000b0: e636 943c caa5 cf3e 4357 823d 358c 42bd
000000c0: 4813 06bd ec9c 513d

stacks.0.blocks.0.fc2.weight f4 [50, 50]
-0.08488529 -0.021783369 0.030709296 0.053462084 0.053021446 -0.17877692 -0.03731043 0.034680337
0.02341333 -0.025700457 -0.030775025 -0.16252443 -0.086206846 -0.052169997 -0.020061038 0.0006119043
0.0051855 0.048801675 0.082383305 0.028290823 -0.054145455 -0.027948722 -0.13545227 -0.07151678
-0.053263538 0.0038277209 0.113835946 0.033637732 -0.09165559 -0.0976028 0.089562476 0.098355666
-0.1018551 0.0031452626 -0.10186322 0.07244568 -0.11135513 0.011145756 -0.1238204 0.026327327
-0.10045523 -0.108221866 -0.13101082 -0.024982981 0.08536406 -0.03555129 -0.12400602 0.031025112
-0.026983708 0.01876685 0.08797772 0.066549376 -0.016113555 -0.112459816 -0.065983824 0.07083559
-0.09207258 0.031787448 0.044362083 -0.10588292 0.0327985 0.012937706 0.12408872 -0.13845983
-0.061969686 -0.00042355474 0.035180002 0.07311176 -0.08658089 0.07215018 -0.031138843 0.051489063
-0.0398508 0.1258775 0.122933015 -0.07091125 -0.10163067 0.11566171 -0.040593237 -0.09693747
0.18050082 -0.16390932 -0.034522824 0.051532235 -0.09870674 -0.0057418663 0.073654376 0.0011475682
0.06999969 0.063375175 0.0074547846 -0.084022485 -0.120878346 0.055748105 -0.012992591 -0.14633143
-0.13425322 0.05249317 0.07257366 0.1244749 -0.07885627 -0.15999189 0.054509073 -0.089033656
0.13012771 -0.14399709 0.0389684 -0.0557891 -0.107841566 -0.00076553226 0.05887504 0.097876966
-0.123184584 -0.017199924 -0.13667706 -0.011775685 -0.0037312286 -0.1284972 -0.08530953 0.07576833
-0.15745564 0.11933917 0.013259316 0.08953466 0.013199732 -0.0019127245 -0.15092841 -0.10197716
-0.0058795586 0.10623396 -0.14555176 0.022028394 -0.107095554 -0.083789304 -0.034578748 -0.01807863
0.02445008 0.12304251 0.06530043 0.009361382 0.117419764 -0.06490671 -0.05282922 -0.00078826555
-0.009933472 0.056327242 -0.12704319 0.048913486 -0.09738382 -0.12186789 0.054091558 0.11118994
-0.007098174 0.024032025 -0.0021306574 0.08537787 -0.056626044 -0.08656318 0.052738577 -0.022619218
0.11212911 -0.059894674 0.02956326 -0.011344677 -0.10816295 0.11351714 -0.14206629 0.10332799
-0.082136534 -0.025457283 0.14527364 0.0011865702 0.048492778 0.016823241 0.014167011 -0.091359064
-0.02556476 -0.027045395 0.0024821076 0.08463157 0.03096366 -0.0855895 0.067771584 0.015360129
-0.03252849 0.12164848 -0.06771779 0.08702241 0.008526606 -0.05149632 -0.06193924 0.043640144
0.13247503 -0.1036781 -0.023824673 -0.07202724 -0.15159053 -0.11141921 -0.019450823 0.011396155
0.12004997 0.06069619 0.09210922 -0.13305989 0.069852725 -0.016022341 0.038582638 0.013360134
-0.074245624 0.1290813 0.076957166 0.1072571 -0.12324813 0.094971694 0.14461412 -0.0023214405
-0.11671613 0.040917426 -0.06436046 0.07112973 0.12070408 0.1331506 0.056357104 -0.01675365
-0.008332282 -0.08871239 0.08449371 0.143364 -0.0063629015 0.076996714 -0.04511861 0.0005669246
-0.06231004 0.07822675 0.03497472 0.06098985 -0.0042505073 -0.053753063 -0.051664058 0.07985252
-0.07869349 -0.10713612 0.055043638 -0.09568732 -0.04918123 0.08202726 0.0007452571 0.1477874
-0.11107245 0.015138447 0.104234695 -0.039418668 0.07223682 0.04821882 0.022898778 -0.071994625
00000000: 57d8 adbd 0973 b2bc 1092 fb3c 0ffb 5a3d
00000010: 042d 593d 4c11 37be d2d2 18bd f80c 0e3d
00000020: 50cd bf3c c489 d2bc e81b fcbc ce6c 26be
00000030: 378d b0bd 35b0 55bd 0c57 a4bc 3468 203a
00000040: 20eb a93b 44e4 473d 94b8 a83d 28c2 e73c
00000050: a0c7 5dbd b8f4 e4bc 00b4 0abe 6477 92bd
00000060: de2a 5abd 80da 7a3b d222 e93d b8c7 093d
00000070: edb5 bbbd fae3 c7bd 886c b73d b26e c93d
00000080: 6899 d0bd c020 4e3b aa9d d0bd 675e 943d
00000090: 290e e4bd b09c 363c 8d95 fdbd 68ac d73c
000000a0: 79bb cdbd 6da3 ddbd b327 06be 1ca9 ccbc
000000b0: 5ad3 ae3d 3b9e 11bd def6 fdbd 6028 fe3c
000000c0: f00c ddbc f0bc 993c aa2d b43d 0a4b 883d
000000d0: 9300 84bc 5551 e6bd 8722 87bd 4012 913d
000000e0: 8c90 bcbd 8e33 023d 04b5 353d 25d9 d8bd
000000f0: b857 063d acf8 533c 3a22 fe3d 6ac8 0dbe
00000100: edd3 7dbd 8e10 deb9 e818 103d 9ebb 953d
00000110: 5251 b1bd 79c3 933d e316 ffbc 32e6 523d
00000120: 983a 23bd 08e6 003e 4ec4 fb3d eb39 91bd
00000130: be23 d0bd 0ce0 ec3d 1845 26bd 2787 c6bd
00000140: 35d5 383e d8d7 27be ce67 0dbd 7713 533d
00000150: c226 cabd 4426 bcbb 1bd8 963d 006a 963a
00000160: ff5b 8f3d d8ca 813d 4447 f43b fb13 acbd
00000170: 118f f7bd 2058 643d e0de 54bc e8d7 15be
00000180: ad79 09be 1403 573d 80a1 943d b2ec fe3d
00000190: 657f a1bd ead4 23be e844 5f3d 4757 b6bd
000001a0: 3340 053e f973 13be 549d 1f3d 1c83 64bd
000001b0: 0adc dcbd 00ae 48ba f426 713d b873 c83d
000001c0: 3348 fcbd dbe6 8cbc 12f5 0bbe cdee 40bc
000001d0: a187 74bb c594 03be c3b6 aebd 6d2c 9b3d
000001e0: 0d3c 21be 1868 f43d 9a3d 593c f35d b73d
000001f0: b043 583c 62b4 faba fa8c 1abe 67d9 d0bd
00000200: 50a9 c0bb 3191 d93d 850b 15be e474 b43c
00000210: ea54 dbbd ba99 abbd 72a2 0dbd a319 94bc
00000220: 894b c83c b6fd fb3d 3bbc 853d 7b60 193c
00000230: c679 f03d cfed 84bd 7463 58bd 9ba3 4eba
00000240: 00c0 22bc 65b7 663d 9c17 02be 8259 483d
00000250: 2b71 c7bd df95 f9bd 1c8f 5d3d 8db7 e33d
00000260: cd97 e8bb cfde c43c 80a2 0bbb 98da ae3d
00000270: b6f0 67bd 0948 b1bd 6804 583d f04b b9bc
00000280: f2a3 e53d 1e54 75bd a62e f23c 06df 39bc
00000290: 8984 ddbd ad7b e83d d379 11be a09d d33d
000002a0: 3337 a8bd cb8b d0bc 9dc2 143e b086 9b3a
000002b0: 5da0 463d e5d0 893c c01c 683c 761a bbbd
000002c0: 306d d1bc 4e8e ddbc dbaa 223b 5153 ad3d
000002d0: 80a7 fd3c 8c49 afbd d4cb 8a3d 0da9 7b3c
000002e0: 983c 05bd d722 f93d a0af 8abd ce38 b23d
000002f0: 2db3 0b3c ceed 52bd 00b4 7dbd 02c0 323d
00000300: 89a7 073e 2f55 d4bd f62b c3bc 0583 93bd
00000310: 8c3a 1bbe c12f e4bd 5557 9fbc f0b6 3a3c
00000320: c2dc f53d 919c 783d c2a3 bc3d da40 08be
00000330: f20e 8f3d 4941 83bc d408 1e3d 77e4 5a3c
00000340: 170e 98bd e32d 043e b89b 9d3d 9ca9 db3d
00000350: 8469 fcbd 8580 c23d b915 143e 4f23 18bb
00000360: de08 efbd 0899 273d 6bcf 83bd 77ac 913d
00000370: b333 f73d a258 083e b5d6 663d f33e 89bc
00000380: 2084 08bc d7ae b5bd 0a0b ad3d 03ce 123e
00000390: e37f d0bb 74b0 9d3d 4bce 38bd aa9d 143a
000003a0: d038 7fbd 5935 a03d a741 0f3d 7ed0 793d
000003b0: d747 8bbb 2c2c 5cbd b19d 53bd b889 a33d
000003c0: 0d2a a1bd 2f6a dbbd 7075 613d b7f7 c3bd
000003d0: 4272 49bd e8fd a73d 5b5d 433a 9555 173e
000003e0: f479 e3bd 4007 783c 0079 d53d 7875 21bd
000003f0: e6f0 933d 1981 453d 3896 bb3c eb71 93bd

stacks.0.blocks.0.fc2.bias f4 [50]
0.08351408 0.029250767 -0.041660197 -0.32930958 0.39504296 0.13107121 0.07940026 -0.6435017
0.36753199 0.67121184 0.4220411 0.61062366 0.010143706 0.78675205 -0.60256994 -0.06695337
0.07670483 0.48355702 -0.1688632 -0.35720748 0.21556042 0.40132248 0.12957257 -0.015985435
-0.12247069 0.039829377 0.3862468 0.024344994 -0.0062281936 0.03892942 0.5747119 -0.07257355
0.06564976 0.43157327 0.059820116 0.120629705 -0.10352354 0.119452044 0.047579974 0.57560676
0.11263208 0.04840343 -0.5473561 0.7400596 -0.10221603 -0.68096536 0.04156098 0.062032934
0.215986 0.26293302
00000000: 6e09 ab3d 4e9f ef3c e2a3 2abd 449b a8be
00000010: 1243 ca3e 8837 063e 9a9c a23d 87bc 24bf
00000020: 272d bc3e 8ad4 2b3f c515 d83e d551 1c3f
00000030: c931 263c 9568 493f 0642 1abf d91e 89bd
00000040: 6c17 9d3d c994 f73e 7aea 2cbe e6e3 b6be
00000050: dfbb 5c3e 247a cd3e acae 043e e3f3 82bc
00000060: ead1 fabd 2124 233d 24c2 c53e 276f c73c
00000070: e015 ccbb 7574 1f3d 5220 133f 71a1 94bd
00000080: 6273 863d 2cf7 dc3e f005 753d b50c f73d
00000090: 2604 d4bd 46a3 f43d 38e3 423d f75a 133f
000000a0: a6ab e63d ad42 463d 881f 0cbf 8c74 3d3f
000000b0: a356 d1bd bf53 2ebf d93b 2a3d 3f16 7e3d
000000c0: 6f2b 5d3e 289f 863e

stacks.0.blocks.0.fc3.weight f4 [50, 50]
-0.05221101 0.10532274 -0.12199858 0.13375917 -0.081611894 -0.1469296 0.07148363 -0.048850715
-0.011693169 0.025044184 -0.12753509 -0.0868181 0.0148463035 -0.1572 0.12476462 -0.03774803
-0.09969558 -0.13165766 -0.07066609 0.065973386 0.011063504 -0.17965625 -0.075695544 0.11261918
-0.0041384306 0.12820965 -0.041417032 0.048973575 0.051690698 0.15495847 0.022910416 -0.14019325
-0.05508745 0.029817984 -0.03369166 0.11594451 0.06997867 0.02296488 0.10931401 0.094010495
0.12515381 -0.036125507 0.071461424 -0.19361274 0.017012142 0.060933605 -0.021835318 0.03466983
0.34458354 -0.06256283 0.16204159 0.13806973 -0.009428648 0.014699695 0.054491576 -0.04108733
0.060483683 -0.0060415207 -0.13225473 0.19870797 0.098507054 -0.03981969 0.011710546 0.1907183
-0.039298866 0.13795066 0.07977617 -0.0902395 -0.00957033 0.03289292 0.13876015 -0.1349969
-0.048250515 0.10484999 0.09239889 0.15080334 -0.056534402 0.052739248 0.031814724 -0.019933403
-0.094943665 0.073073834 0.062670566 -0.06944356 0.07634735 0.054641392 -0.026340097 -0.09262787
0.073347345 0.11972144 0.039272647 -0.059557796 -0.11013052 0.045525018 0.12345328 -0.2090493
-0.009818454 -0.088594995 0.053327177 -0.02520781 0.05956596 -0.04462575 -0.14066969 0.13316815
-0.109757796 0.064098254 -0.0497134 0.14732242 -0.08087775 -0.09261086 -0.029849635 0.09699262
0.083257444 -0.12555784 0.13539179 0.09866807 -0.10273149 -0.037750017 0.10904725 0.13950005
0.052623887 0.10006333 0.13625589 -0.012095518 -0.058017842 -0.012584461 -0.110413566 -0.09668549
0.046697527 -0.10597767 0.05387547 0.06538212 0.06849214 -0.08274283 -0.036949746 -0.12386004
-0.043885812 0.1250218 0.06881949 0.020046094 0.13508418 -0.020451555 0.02141839 -0.004545274
-0.13088973 0.19725138 -0.1357633 -0.09188457 0.10678108 0.23470229 -0.06671924 0.13270813
0.04302668 -0.04915975 -0.011377308 0.011741933 -0.02218126 -0.03011681 0.019043468 0.19122975
0.09094469 -0.022671293 0.081831016 0.071576744 -0.10130966 -0.021718236 0.05304195 -0.0562646
0.0013595074 -0.0768393 0.043368716 -0.10248505 -0.07467242 0.008806455 0.036376726 0.1308824
0.103406295 0.061270617 0.049285382 -0.054622345 0.11048895 0.048093487 0.121256515 0.02106118
-0.04249632 0.04342855 -0.08456256 -0.033952527 -0.14344396 0.064542025 -0.048373193 -0.09813951
-0.12809208 0.024696538 0.09328648 -0.13712218 -0.11049281 -0.11289499 0.17039306 0.016497442
-0.018912429 0.05178314 -0.057159264 0.07096554 0.093374185 0.06884051 0.04843805 -0.028285068
-0.07063221 0.23995346 0.18013726 0.07660698 -0.10450906 0.07714057 0.040410865 0.09872063
0.0007205184 0.13341223 -0.045713544 -0.024224373 0.10945222 0.094939746 -0.022492677 -0.023844728
-0.08539621 0.06541575 -0.057573676 -0.112928316 0.11374973 -0.073664874 0.15213121 -0.09343864
-0.11203739 0.0779081 -0.13107744 0.16209234 -0.09214665 -0.13537556 0.16413 0.019992927
0.119925305 0.05163956 -0.0847598 0.19314925 -0.055607043 0.030967953 -0.03354325 0.04506958
0.092095725 0.06051529 -0.06524877 -0.032153126 -0.043203395 0.12001959 -0.06471844 -0.08877039
00000000: 36db 55bd 73b3 d73d 64da f9bd 2af8 083e
00000010: 2324 a7bd b774 16be 0266 923d b017 48bd
00000020: b594 3fbc 7629 cd3c 8f98 02be b0cd b1bd
00000030: e93d 733c 09f9 20be 9884 ff3d ae9d 1abd
00000040: 322d ccbd 44d1 06be 62b9 90bd 0e1d 873d
00000050: b343 353c cff7 37be 4406 9bbd e2a4 e63d
00000060: ac9b 87bb 6449 033e e8a4 29bd 8498 483d
00000070: a0b9 533d 6fad 1e3e a0ae bb3c d28e 0fbe
00000080: 61a3 61bd d844 f43c 4400 0abd 5174 ed3d
00000090: fa50 8f3d d820 bc3c 06e0 df3d 9388 c03d
000000a0: 5228 003e 57f8 13bd 5e5a 923d 6b42 46be
000000b0: 0c5d 8b3c 8495 793d fbdf b2bc f401 0e3d
000000c0: 416d b03e f120 80bd 3bee 253e 2762 0d3e
000000d0: 9e7a 1abc fdd6 703c 8f32 5f3d 304b 28bd
000000e0: bdbd 773d f3f7 c5bb c96d 07be 1a7a 4b3e
000000f0: 11be c93d f919 23bd 97dd 3f3c a84b 433e
00000100: d9f7 20bd f042 0d3e b061 a33d 7dcf b8bd
00000110: e0cc 1cbc baba 063d 2417 0e3e a13c 0abe
00000120: 55a2 45bd 97bb d63d a13b bd3d 316c 1a3e
00000130: 9e90 67bd 1c05 583d 2850 023d 604b a3bc
00000140: d371 c2bd bca7 953d 6d59 803d 6d38 8ebd
00000150: 005c 9c3d a7cf 5f3d 30c7 d7bc aeb3 bdbd
00000160: 2237 963d 8430 f53d 5bdc 203d e0f2 73bd
00000170: 1c8c e1bd 7178 3a3d 13d5 fc3d 0511 56be
00000180: 95dd 20bc 4b71 b5bd 996d 5a3d 9c80 cebc
00000190: 70fb 733d 7ec9 36bd b70b 10be 3b5d 083e
000001a0: b2c8 e0bd f245 833d 47a0 4bbd b0db 163e
000001b0: 3ca3 a5bd c3aa bdbd 3987 f4bc 11a4 c63d
000001c0: e182 aa3d 3c92 00be 25a4 0a3e 7c12 ca3d
000001d0: e364 d2bd c39f 1abd 2a54 df3d 1ad9 0e3e
000001e0: 258c 573d 01ee cc3d aa86 0b3e 482c 46bc
000001f0: 1ea4 6dbd 0e2f 4ebc 8220 e2bd 0b03 c6bd
00000200: e845 3f3d d20a d9bd 86ac 5c3d 10e7 853d
00000210: 9b45 8c3d 1375 a9bd 9e58 17bd 55aa fdbd
00000220: 9cc1 33bd b705 003e 3cf1 8c3d b537 a43c
00000230: 8253 0a3e 058a a7bc 9f75 af3c 86f0 94bb
00000240: f507 06be 44fc 493e 8905 0bbe fa2d bcbd
00000250: 0ab0 da3d cc55 703e 19a4 88bd a4e4 073e
00000260: be3c 303d bc5b 49bd e367 3abc 3d61 403c
00000270: 79b5 b5bc 87b7 f6bc 0c01 9c3c bbd1 433e
00000280: 3641 ba3d 26b9 b9bc 0597 a73d d496 923d
00000290: 707b cfbd 71ea b1bc 8442 593d b675 66bd
000002a0: 8031 b23a ec5d 9dbd 65a3 313d afe3 d1bd
000002b0: dbed 98bd f348 103c c3ff 143d 0906 063e
000002c0: aec6 d33d e6f6 7a3d 78df 493d aebb 5fbd
000002d0: 0848 e23d adfd 443d 5655 f83d 7f88 ac3c
000002e0: 9f10 2ebd 23e2 313d 232f adbd ce11 0bbd
000002f0: f9e2 12be 9c2e 843d f822 46bd 5efd c8bd
00000300: 922a 03be 6550 ca3c fb0c bf3d c269 0cbe
00000310: 0e4a e2bd 7d35 e7bd 857b 2e3e a525 873c
00000320: 3dee 9abc 8f1a 543d d51f 6abd 6256 913d
00000330: f73a bf3d 41fc 8c3d fa66 463d 16b6 e7bc
00000340: 9fa7 90bd 5cb6 753e e775 383e 1fe4 9c3d
00000350: d908 d6bd e0fb 9d3d dd85 253d 0b2e ca3d
00000360: 2ce1 3c3a 379d 083e 203e 3bbd 3172 c6bc
00000370: 7c28 e03d c56f c23d 9042 b8bc 0556 c3bc
00000380: 35e4 aebd b1f8 853d 60d2 6bbd f646 e7bd
00000390: 9ef5 e83d 9cdd 96bd 49c8 1b3e c25c bfbd
000003a0: dc73 e5bd 488e 9f3d 2a39 06be 89fb 253e
000003b0: 62b7 bcbd e49f 0abe b211 283e 35c8 a33c
000003c0: 669b f53d 0184 533d 8c96 adbd ebc8 453e
000003d0: 36c4 63bd 81b0 fd3c a664 09bd e19a 383d
000003e0: af9c bc3d e1de 773d 26a1 85bd ffb2 03bd
000003f0: 0bf6 30bd d5cc f53d 1a8b 84bd 40cd b5bd

stacks.0.blocks.0.fc3.bias f4 [50]
0.012881882 0.21590404 -0.45267397 0.42080882 0.72781897 0.11164387 0.5424313 -0.6626031
0.44367138 0.009388736 -0.06998411 0.02523999 -0.020300847 0.12196354 0.058883663 0.5247879
0.07873178 0.19695163 0.2001761 -0.0503154 0.74578834 0.059466437 -0.15594229 0.032843575
0.0014731118 0.26142818 0.22589786 -0.19851847 0.1176758 0.40743366 0.101731956 -0.07258374
0.52961755 0.39616892 0.51340824 0.13674198 0.05238294 -0.442517 -0.10201958 -0.2688073
-0.49219096 -0.25734624 -0.4185353 -0.37111 -0.040197823 0.57322806 -0.067749016 0.16515741
0.073074415 -0.5524805
00000000: 870e 533c f315 5d3e e2c4 e7be 4174 d73e
00000010: 5852 3a3f 8ba5 e43d c7dc 0a3f 5ba0 29bf
00000020: e528 e33e 37d3 193c d453 8fbd 18c4 ce3c
00000030: f64d a6bc 05c8 f93d ff2f 713d 8058 063f
00000040: 213e a13d b0ad 493e f7fa 4c3e 8517 4ebd
00000050: fceb 3e3f 1493 733d 56af 1fbe fc86 063d
00000060: 6e15 c13a ead9 853e c551 673e 6d48 4bbe
00000070: 0300 f13d 259b d03e d858 d03d c9a6 94bd
00000080: 0495 073f a7d6 ca3e b96e 033f 1706 0c3e
00000090: 7e8f 563d 9791 e2be a4ef d0bd 1ca1 89be
000000a0: 7400 fcbe e3c2 83be 424a d6be 2102 bebe
000000b0: 79a6 24bd 13bf 123f ffbf 8abd 061f 293e
000000c0: 0aa8 953d 5d6f 0dbf

stacks.0.blocks.0.fc4.weight f4 [50, 50]
0.003368045 -0.09168569 -0.11784194 -0.12963621 0.21753418 0.26662928 0.13490598 -0.13703424
0.13302742 0.026566084 0.024664477 -0.09612377 0.104246035 -0.057070367 0.2031205 0.27557865
0.14392199 0.033761095 0.0079326425 0.054534577 0.09774398 -0.13460411 -0.1678119 -0.030505888
-0.012530377 0.066802524 -0.09888754 -0.09276406 -0.06521845 0.16007005 -0.117193885 -0.091506906
-0.036836427 0.12905939 0.052004572 -0.017741092 0.14154494 -0.04490619 0.092713565 0.10731924
-0.06741445 0.06577938 0.11666814 -0.1314173 -0.045285426 -0.08198857 -0.006988679 0.09603569
-0.06861527 -0.12694767 -0.008418828 0.04724276 -0.04336135 -0.0985403 -0.10367723 -0.09361286
-0.070885085 0.066200495 0.0055845976 -0.08334497 -0.097830474 0.12360011 -0.08006774 0.09663227
0.092762515 -0.07153971 -0.0633807 -0.055950955 -0.07849148 0.10715079 -0.053763196 0.12071128
-0.051405318 -0.11028674 -0.049771875 0.034368828 -0.12391493 -0.12151632 -0.058612548 -0.055717938
-0.044581525 0.04621221 -0.13802588 -0.07639582 -0.08033933 0.107423276 -0.09524411 -0.054138437
-0.055064604 0.0021313727 0.084491506 -0.0039460063 -0.11404073 0.096397325 0.13424252 -0.12877057
0.07892983 0.09618041 0.023222268 -0.015429273 0.069325276 -0.046211638 0.020010367 -0.11106637
-0.17316952 -0.079041146 -0.06914356 0.0149440775 0.0210173 -0.083906904 0.03202474 -0.06103886
-0.058053054 -0.1309497 0.13343944 -0.039297305 0.1273055 0.060985688 -0.08131598 0.003716156
-0.05477808 -0.052820876 -0.075118296 0.064363524 -0.078413896 -0.086108185 -0.019614656 -0.0978234
0.13717334 -0.0966213 -0.06460553 -0.111872755 -0.15898493 -0.12627834 -0.1495939 0.0145762535
0.049769223 0.050037052 0.044018198 -0.057644773 0.090667255 0.019289235 -0.06155252 -0.020028
-0.11648729 -0.0530697 -0.05934629 0.10486348 -0.08208127 0.093698196 -0.017098311 -0.043552145
0.09049093 -0.078574345 -0.1096854 0.092981085 -0.09550008 0.09965601 0.0784226 0.07720052
0.113073885 -0.11256893 0.09656953 -0.028534397 -0.059772693 -0.11470457 -0.1335889 0.048972387
0.12823538 0.11476036 -0.043546744 0.083960414 -0.094096676 -0.09285559 -0.13694124 -0.0045582643
-0.027997902 -0.04702371 -0.09819016 0.05682465 -0.024301818 0.05371103 -0.129744 -0.07364073
0.12029642 0.015022194 0.09058754 -0.079441614 -0.057386376 0.07189431 0.14790183 0.102297366
-0.14717895 -0.07458793 0.11238381 -0.023576017 -0.013084406 -0.03374254 -0.034687735 0.17825976
-0.029865274 -0.060477357 -0.098538116 0.025087195 -0.07891028 0.14341009 -0.06192406 0.057784647
-0.14193648 -0.043323103 0.039098382 -0.11019557 0.0017026046 0.070588805 0.07084583 -0.056622796
0.106321104 0.005294121 -0.006607495 0.10192823 -0.29884568 0.11184104 0.06729725 0.14387156
-0.14880173 -0.13348489 0.0565412 -0.06626558 -0.058169045 0.040177193 -0.01112323 -0.1427775
-0.14314352 0.124601655 0.054923937 -0.03935185 -0.13539758 0.10027018 0.044032387 -0.06712801
-0.06420526 0.13634682 0.03373063 0.09845364 0.099718265 -0.0531495 -0.026614742 -0.057859115
-0.087064534 0.04962162 -0.0020947256 -0.12813036 0.09392903 -0.06931417 -0.019356843 0.1032061
00000000: 6bba 5c3b b5c5 bbbd 1d57 f1bd 5bbf 04be
00000010: 48c1 5e3e a283 883e cb24 0a3e b452 0cbe
00000020: 5738 083e 1ea1 d93c 280d ca3c 8adc c4bd
00000030: f27e d53d 9ec2 69bd d2fe 4f3e a518 8d3e
00000040: 4960 133e 1349 0a3d eaf7 013c a65f 5f3d
00000050: ff2d c83d a9d5 09be e2d6 2bbe 7ce7 f9bc
00000060: 364c 4dbc c3cf 883d 8d85 cabd 15fb bdbd
00000070: 4091 85bd 67e9 233e 5903 f0bd f967 bbbd
00000080: cbe1 16bd 2528 043e bf02 553d c455 91bc
00000090: 28f1 103e 8eef 37bd 9ce0 bd3d 31ca db3d
000000a0: 9610 8abd 57b7 863d b5ef ee3d 4292 06be
000000b0: 367d 39bd a0e9 a7bd 4a01 e5bb 5cae c43d
000000c0: 2a86 8cbd 92fe 01be 20ef 09bc a081 413d
000000d0: ac9b 31bd 7fcf c9bd ba54 d4bd 19b8 bfbd
000000e0: 332c 91bd 2094 873d 00ff b63b c5b0 aabd
000000f0: 585b c8bd 0e22 fd3d 8efa a3bd 24e7 c53d
00000100: 46fa bd3d 6983 92bd becd 81bd d42c 65bd
00000110: 24c0 a0bd e071 db3d cc36 5cbd 7a37 f73d
00000120: 628e 52bd 04de e1bd 98dd 4bbd 54c6 0c3d
00000130: 1cc7 fdbd 8cdd f8bd b613 70bd 7e38 64bd
00000140: 1e9b 36bd 0449 3d3d a856 0dbe 6975 9cbd
00000150: f288 a4bd bc00 dc3d 580f c3bd 44c0 5dbd
00000160: 6c8b 61bd 80ae 0b3b e209 ad3d 804d 81bb
00000170: 308e e9bd f66b c53d df76 093e 6fdc 03be
00000180: f6a5 a13d 3cfa c43d a03c be3c 10cb 7cbc
00000190: 69fa 8d3d 6a48 3dbd c8ec a33c c476 e3bd
000001a0: 5a53 31be 53e0 a1bd 249b 8dbd 01d8 743c
000001b0: 792c ac3c 62d7 abbd 602c 033d e203 7abd
000001c0: 0ac9 6dbd ae17 06be 59a4 083e 36f6 20bd
000001d0: 5f5c 023e 21cc 793d fe88 a6bd c08a 733b
000001e0: fb5e 60bd b45a 58bd 9fd7 99bd 06d1 833d
000001f0: 7797 a0bd 7d59 b0bd eaae a0bc a257 c8bd
00000200: 2b77 0c3e 63e1 c5bd e74f 84bd 8b1d e5bd
00000210: f2cc 22be 1c4f 01be 252f 19be 3dd1 6e3c
00000220: d0da 4b3d a7f3 4c3d 6d4c 343d ed1c 6cbd
00000230: c1af b93d 7504 9e3c 7f1e 7cbd c311 a4bc
00000240: e390 eebd 9d5f 59bd 1815 73bd aac2 d63d
00000250: 3a1a a8bd d7e4 bf3d c211 8cbc bc63 32bd
00000260: 4f53 b93d 96eb a0bd bda2 e0bd de6c be3d
00000270: 8c95 c3bd 7318 cc3d 079c a03d 4e1b 9e3d
00000280: 4893 e73d 8a8a e6bd 3fc6 c53d f8c0 e9bc
00000290: 36d4 74bd 3bea eabd 87cb 08be 4597 483d
000002a0: 2350 033e 7b07 eb3d 125e 32bd 70f3 ab3d
000002b0: c2b5 c0bd 122b bebd 533a 0cbe 7e5d 95bb
000002c0: db5b e5bc ef9b 40bd ec17 c9bd f7c0 683d
000002d0: 9b14 c7bc 1900 5c3d 9cdb 04be f3d0 96bd
000002e0: f85d f63d a61f 763c f685 b93d 49b2 a2bd
000002f0: fa0d 6bbd 533d 933d 9473 173e 4881 d13d
00000300: 14b6 16be 8fc1 98bd 7c29 e63d 7e22 c1bc
00000310: fa5f 56bc 9e35 0abd ba14 0ebd ba89 363e
00000320: 05a8 f4bc 1bb7 77bd 5ace c9bd a983 cd3c
00000330: b69b a1bd 18da 123e 15a4 7dbd 98af 6c3d
00000340: cc57 11be 9173 31bd a025 203d 37ae e1bd
00000350: ee29 df3a dd90 903d 9e17 913d 4eed 67bd
00000360: e1be d93d 4e7a ad3b af83 d8bb bfbf d03d
00000370: 4d02 99be ea0c e53d 24d3 893d 1153 133e
00000380: 7b5f 18be 43b0 08be bf97 673d 40b6 87bd
00000390: aa42 6ebd d790 243d 353e 36bc 4434 12be
000003a0: 3794 12be 272f ff3d ecf7 603d 682f 21bd
000003b0: aaa5 0abe 745a cd3d 4e5b 343d 697a 89bd
000003c0: 0c7e 83bd 809e 0b3e 2129 0a3d 10a2 c93d
000003d0: 1739 cc3d 4ab3 59bd 2907 dabc aefd 6cbd
000003e0: e44e b2bd 0a40 4b3d aa47 09bb 9b34 03be
000003f0: dd5d c03d 96f4 8dbd 3e92 9ebc b85d d33d

stacks.0.blocks.0.fc4.bias f4 [50]
0.4067809 -0.12198214 0.08785293 -0.06313153 0.09711048 -0.2947762 0.10249912 -0.033347804
-0.33912405 -0.056028005 0.024622552 -0.07052872 -0.24851125 0.3401103 -0.014402367 -0.04739409
-0.3272351 -0.034817167 -0.07914382 0.009371207 -0.10401043 0.43782756 -0.14362437 0.21184613
-0.7055027 -0.07951629 0.036340326 -0.014155592 -0.122916505 0.12221513 0.17072669 -0.38969386
-0.50599563 0.34957564 0.29790157 0.030632135 0.07817525 -0.09633494 0.7371052 0.09149192
0.31064272 -0.12489006 0.029457828 -0.0036246993 0.17068613 -0.0030851453 -0.11556308 -0.11091478
-0.03176382 0.053507466
00000000: 9645 d03e c6d1 f9bd 3dec b33d 1b4b 81bd
00000010: dce1 c63d e8ec 96be 0feb d13d b597 08bd
00000020: aba1 adbe 9f7d 65bd 3cb5 c93c 5d71 90bd
00000030: bc79 7ebe f022 ae3e e8f7 6bbc 4e20 42bd
00000040: 5c8b a7be 729c 0ebd 2816 a2bd b189 193c
00000050: 6c03 d5bd ef2a e03e 4412 13be 31ee 583e
00000060: d39b 34bf 70d9 a2bd 98d9 143d dbec 67bc
00000070: a6bb fbbd ed4b fa3d fad2 2e3e f485 c7be
00000080: ee88 01bf 94fb b23e 8e86 983e 3ef0 fa3c
00000090: 581a a03d 414b c5bd edb2 3c3f 1e60 bb3d
000000a0: 900c 9f3e 5cc6 ffbd 8b51 f13c 5d8c 6dbb
000000b0: 58c8 2e3e 2630 4abb 56ac ecbd 4a27 e3bd
000000c0: c81a 02bd a52a 5b3d

stacks.0.blocks.0.theta_layer.weight f4 [43, 50]
-0.045851424 -0.059809163 -0.06375251 0.07799436 0.05644178 0.04370341 0.073707275 0.0033795007
0.101045065 0.12367052 -0.11516861 -0.12316805 0.12068187 -0.002992104 -0.020190619 -0.15309528
0.083865546 -0.11266776 -0.06237981 0.049930766 -0.07191273 0.032311797 0.10157202 -0.09237124
0.2098788 -0.0905282 0.05993662 0.06033117 0.13012391 -0.030746063 -0.04268081 -0.011750508
0.10731489 -0.0033906912 -0.13035206 -0.0957204 0.06842907 -0.1331411 -0.12145631 0.13670266
-0.08491767 -0.1582531 -0.027512625 0.10960956 -0.01100754 0.033038102 0.12290285 -0.058591686
-0.08010118 0.11172654 0.12356695 -0.10595848 0.08385978 0.024754096 -0.035022665 -0.018076973
0.0773648 0.061256584 -0.10317956 0.05660604 0.06871972 -0.035654113 -0.06635501 0.03441595
0.025834223 -0.036186654 -0.016163025 0.048179433 0.07691 0.0809435 0.04281946 0.0011233495
0.0028317925 0.11361699 -0.16530864 0.13871875 -0.09660958 -0.10141086 0.028519584 0.12035625
0.104517475 0.13091446 0.022642238 0.040132407 0.066409536 -0.12978426 0.09386836 -0.1010565
0.07315048 0.058787502 0.03191782 -0.09924388 -0.03550053 -0.13299297 0.0892754 0.007841106
0.06747047 0.05213597 -0.079201765 0.11676064 0.009016579 0.095918864 0.15807684 -0.025346585
-0.050678555 -0.05940937 -0.05979447 0.08557395 -0.09983291 0.076825194 0.084240235 0.04918568
-0.12519552 -0.06600834 0.07211242 -0.11940343 -0.06368423 0.006447108 0.026739597 0.005574861
0.010678233 -0.10824709 0.09573434 0.003497673 -0.034470156 0.11477529 -0.0013580803 0.012487846
0.17071807 0.066923015 -0.052599486 -0.0019779624 0.18611339 -0.040807817 0.044363063 -0.09874199
0.13581331 -0.049871657 -0.022476481 0.11117074 -0.040403556 -0.084027916 -0.046815038 0.11161247
0.09723302 -0.04241825 -0.13075551 -0.09460898 -0.15922637 0.022716843 0.10275876 -0.047687948
-0.08405471 -0.114912726 -0.07478875 -0.03319824 0.12708592 0.008832428 -0.10827985 0.041229177
-0.13875438 0.048434705 -0.11812242 -0.09974966 0.13290396 -0.0038594687 -0.010098326 0.05430615
-0.06116137 0.057774924 -0.04789593 0.046851654 -0.06963039 0.009283476 -0.14677398 0.10727227
-0.018797688 0.009665751 0.09287353 0.021558 -0.098461695 -0.09750088 0.042086285 -0.094810754
0.014350129 -0.10285218 -0.092171475 0.08090222 0.02552575 -0.14805703 0.11710262 0.0050239526
0.06811302 -0.2603735 0.053578515 -0.0702758 0.10452618 0.09833444 -0.07423772 0.13144374
-0.004768432 -0.044879414 0.13617446 -0.038478058 0.024102485 -0.080399275 0.13471583 0.020817876
0.0013783574 -0.0034865197 -0.047400348 0.1051857 -0.10667156 0.027229123 -0.041954763 0.11700426
-0.08830544 0.062576674 0.14077456 -0.115672894 0.0957773 -0.104977116 0.15346605 0.12312426
-0.10276844 -0.07649464 -0.038513098 0.109476835 -0.047710236 -0.11449956 -0.022683702 0.039606832
0.03899458 -0.05389022 0.008953296 0.013603681 -0.019503728 -0.09624562 -0.09838078 -0.057707235
0.06395908 0.039339826 0.124055356 -0.013795379 0.01565966 -0.0975322 -0.11791399 -0.11718232
-0.16130666 0.13054153 -0.025968418 -0.0770101 -0.10702996 0.10662104 0.115131885 -0.015827471
00000000: b4ce 3bbd 74fa 74bd ad90 82bd 82bb 9f3d
00000010: 7f2f 673d 5902 333d d7f3 963d 9d7a 5d3b
00000020: b7f0 ce3d f846 fd3d 85dd ebbd 883f fcbd
00000030: 0e28 f73d 2d17 44bb cc66 a5bc 02c5 1cbe
00000040: b3c1 ab3d 5bbe e6bd f981 7fbd 3484 4c3d
00000050: fb46 93bd 6059 043d fe04 d03d 222d bdbd
00000060: 78ea 563e d966 b9bd 1a80 753d d11d 773d
00000070: 343f 053e 2bdf fbbc 13d2 2ebd 3485 40bc
00000080: e9c7 db3d 5c36 5ebb 037b 05be 0f09 c4bd
00000090: 8a24 8c3d 2456 08be 16be f8bd c8fb 0b3e
000000a0: 51e9 adbd 1a0d 22be 2862 e1bc fa7a e03d
000000b0: f858 34bc f652 073d 7db4 fb3d d6fd 6fbd
000000c0: 160c a4bd e2d0 e43d ab10 fd3d c200 d9bd
000000d0: adbe ab3d 1ac9 ca3c ed73 0fbd 2916 94bc
000000e0: 7071 9e3d 2fe8 7a3d ce4f d3bd bcdb 673d
000000f0: edbc 8c3d 0c0a 12bd 23e5 87bd bdf7 0c3d
00000100: 4ba2 d33c 7538 14bd 5268 84bc cc57 453d
00000110: fd82 9d3d b5c5 a53d 7563 2f3d 5b3d 933a
00000120: 9895 393b 06b0 e83d ab46 29be 4a0c 0e3e
00000130: 3edb c5bd 7fb0 cfbd e7a1 e93c 567d f63d
00000140: 420d d63d 710e 063e 377c b93c e161 243d
00000150: b901 883d 2ae6 04be 0e3e c03d b6f6 cebd
00000160: ebcf 953d 2acb 703d 43bc 023d 6040 cbbd
00000170: 0169 11bd 4f2f 08be 05d6 b63d fb77 003c
00000180: f52d 8a3d 878c 553d 8934 a2bd 3420 ef3d
00000190: 46ba 133c 1c71 c43d e5de 213e a4a3 cfbc
000001a0: 5194 4fbd 3d57 73bd 0ceb 74bd 6541 af3d
000001b0: 3275 ccbd 8756 9d3d 2586 ac3d ec76 493d
000001c0: 4133 00be 612f 87bd adaf 933d c989 f4bd
000001d0: e16c 82bd 4342 d33b 000d db3c 53ad b63b
000001e0: c1f3 2e3c a6b0 ddbd 5e10 c43d 3739 653b
000001f0: 9430 0dbd 4f0f eb3d 9d01 b2ba d399 4c3c
00000200: b8d0 2e3e ef0e 893d 8f72 57bd b4a0 01bb
00000210: 8294 3e3e 1926 27bd 0bb6 353d 3e39 cabd
00000220: a512 0b3e 3946 4cbd 9920 b8bc 7cad e33d
00000230: 337e 25bd d416 acbd 20c1 3fbd 1495 e43d
00000240: 1b22 c73d c2be 2dbd c6e4 05be 5ac2 c1bd
00000250: 3d0c 23be ac18 ba3c 2f73 d23d 7054 43bd
00000260: e024 acbd 5d57 ebbd d82a 99bd e1fa 07bd
00000270: d022 023e e3b5 103c d3c1 ddbd eddf 283d
00000280: a115 0ebe 7863 463d 2bea f1bd 8d49 ccbd
00000290: fa17 083e 24ef 7cbb 7373 25bc 2070 5e3d
000002a0: 5884 7abd 66a5 6c3d 862e 44bd 85e7 3f3d
000002b0: 619a 8ebd b819 183c eb4b 16be 90b1 db3d
000002c0: 9cfd 99bc 195d 1e3c 7a34 be3d 679a b03c
000002d0: 49a6 c9bd 8bae c7bd ab62 2c3d 242c c2bd
000002e0: ce1c 6b3c 2aa4 d2bd 66c4 bcbd 10b0 a53d
000002f0: 611b d13c 439c 17be 80d3 ef3d f89f a43b
00000300: d77e 8b3d ad4f 85be 2575 5b3d c2ec 8fbd
00000310: d211 d63d 9163 c93d f209 98bd 3099 063e
00000320: 8240 9cbb 7ad3 37bd 5171 0b3e 2b9b 1dbd
00000330: 9372 c53c 60a8 a4bd f2f2 093e 408a aa3c
00000340: 00aa b43a 187e 64bb de26 42bd 9a6b d73d
00000350: 9e76 dabd 9c0f df3c c2d8 2bbd ee9f ef3d
00000360: 7cd9 b4bd 3328 803d 3527 103e e9e5 ecbd
00000370: e426 c43d 3efe d6bd 3426 1d3e 9228 fc3d
00000380: 4378 d2bd 39a9 9cbd e9bf 1dbd 6435 e03d
00000390: cf6b 43bd bf7e eabd 2cd3 b9bc c63a 223d
000003a0: c8b8 1f3d febb 5cbd d8b0 123c f9e1 5e3c
000003b0: 48c6 9fbc 6c1c c5bd dd7b c9bd 6c5e 6cbd
000003c0: fafc 823d cc22 213d bc10 fe3d 0306 62bc
000003d0: b048 803c f6be c7bd e47c f1bd 49fd efbd
000003e0: 932d 25be aeac 053e b8bb d4bc 79b7 9dbd
000003f0: 8632 dbbd 225c da3d 44ca eb3d 9da8 81bc

stacks.0.blocks.0.theta_layer.bias f4 [43]
-0.14571679 0.4411379 -0.34885728 0.5130719 0.20705745 -0.30298513 0.20561366 0.66135585
-0.0064629004 0.074730106 0.37518683 0.33666378 -0.23892252 -0.117113754 -0.39577898 -0.19608004
0.108572215 -0.3566076 0.10336771 0.2345315 -0.23860104 -0.04436808 0.057396088 -0.52510583
-0.5188246 0.10097137 -0.5058445 -0.23577613 -0.33632058 0.2012277 -0.3673109 -0.54170984
0.4396124 0.40819776 -0.57781196 -0.5089289 -0.5396451 -0.4107334 -0.5335758 -0.3103521
-0.46895447 0.33059457 0.091166444
00000000: c836 15be d4dc e13e 6c9d b2be ae58 033f
00000010: de06 543e de20 9bbe 638c 523e 9e4e 293f
00000020: bdc6 d3bb 190c 993d 7d18 c03e 325f ac3e
00000030: 1ba8 74be 56d9 efbd 8ba3 cabe 35c9 48be
00000040: 1c5b de3d 4595 b6be 73b2 d33d 0729 703e
00000050: d553 74be 4ebb 35bd 2918 6b3d 566d 06bf
00000060: b0d1 04bf 14ca ce3d 067f 01bf 4c6f 71be
00000070: 3632 acbe a20e 4e3e 2d10 bcbe 7fad 0abf
00000080: e014 e13e 4cff d03e 7ceb 13bf 2a49 02bf
00000090: 2e26 0abf a64b d2be 6c98 08bf 78e6 9ebe
000000a0: cd1a f0be b143 a93e 79b5 ba3d

stacks.0.blocks.1.fc1.weight f4 [50, 42]
-0.093428105 -0.14733788 -0.04670084 0.021865016 -0.003335008 0.035867963 0.015533135 0.00018306574
-0.13525996 -0.18179905 -0.12609336 0.056038957 -0.031262003 0.07446939 -0.042693757 0.10452666
-0.0920061 0.10685994 0.023310773 -0.021315504 -0.12350412 -0.16004597 -0.022029651 -0.17578977
-0.08380223 0.045684483 -0.059073795 0.00047578433 -0.16377908 -0.17457075 0.05114673 -0.018937385
0.038169224 -0.1602769 -0.12622404 -0.09693225 -0.036021195 0.15007432 0.108473845 -0.017722208
0.035058387 0.016157312 0.0018026931 -0.040880777 -0.11643116 0.027468253 0.010659043 0.06554244
0.10576764 -0.11984858 0.069876686 -0.0013219976 -0.01016382 -0.023410192 0.071461074 0.1437254
-0.11705963 0.0725097 0.03370175 0.012767333 -0.036717746 0.066012084 -0.07185445 -0.097292505
0.089525126 0.08688696 0.1159257 0.04904734 -0.080737606 -0.0937103 -0.02378343 -0.011539809
-0.010540122 0.16937807 0.087101564 0.07389957 0.046437547 0.021246735 0.14922364 0.14788623
0.0097986115 -0.015853321 -0.09400226 -0.08524759 -0.009386389 0.12905103 -0.14283687 -0.14986387
0.14024559 0.11070985 0.09174707 -0.050823472 -0.10618486 0.13680182 -0.021932125 0.002772864
0.062230587 -0.117122546 -0.13477856 -0.14895296 -0.109498106 -0.032007035 -0.056518804 -0.1537798
-0.07064697 0.0064429264 0.10249461 0.03132305 0.014654161 0.08954358 -0.02719592 -0.13128011
0.01873416 0.017786656 -0.12604561 0.0757893 -0.038012546 -0.106478274 0.020332657 0.014776779
0.024911696 -0.05144889 -0.008082592 0.10586609 0.12995829 0.020130206 0.14003372 -0.08206023
0.12104215 0.11428435 0.050776243 0.14392835 -0.0035385485 -0.050066985 0.035727676 0.030674603
0.030418372 -0.044257652 0.016566284 0.124413334 -0.07106075 0.1369144 0.023945669 0.04539751
0.15384823 0.03717609 -0.13312912 0.15155068 0.14904751 0.16266254 0.055362944 -0.10501974
0.079518296 -0.131786 -0.023791896 0.0131405685 -0.06567187 0.10270964 -0.09487869 -0.021801487
0.015798325 -0.08702504 0.2168662 0.073443 0.04069509 0.107654 0.11034385 -0.11959443
-0.09563269 0.06345096 -0.055358786 0.07224442 -0.020024024 0.07877888 -0.031599797 0.11559698
0.0017519128 0.04507352 -0.031480692 0.054227836 -0.08450896 0.10082111 0.023290401 -0.08100649
0.09395632 -0.109884515 -0.020795545 0.11723938 0.019675337 -0.1601095 0.032259073 0.07770061
-0.061375324 -0.06993082 -0.05612995 0.047152795 -0.021951687 -0.013073651 0.09561335 -0.0709578
0.109603874 -0.10955153 0.0725258 0.11377845 0.22000182 0.17716171 -0.009179236 0.009129029
0.0448663 -0.050207436 -0.07170112 0.03447351 0.03906741 -0.12812762 -0.025073579 0.10831088
-0.17649952 -0.13090067 0.06730797 0.023680154 -0.06832207 0.08293621 0.10005385 0.07358853
0.109682225 -0.0042377133 -0.06930799 -0.11707113 -0.09640356 0.032092277 -0.08916293 -0.13192521
0.03350698 0.08005687 -0.07911958 -0.019900465 0.06686753 -0.16656992 -0.014907509 0.013002912
0.18449329 0.1556487 -0.12779714 -0.16330355 0.10108352 -0.030537875 0.04664964 0.012996669
0.16902582 -0.027120661 -0.073533475 0.14651284 0.107821986 0.039914265 -0.017673645 -0.03571235
00000000: 3c57 bfbd bedf 16be 6149 3fbd 431e b33c
00000010: 2690 5abb 49ea 123d b17e 7e3c 56f5 3f39
00000020: 9681 0abe 8829 3abe 9e1e 01be 1b89 653d
00000030: 960c 00bd 6883 983d a6df 2ebd 1312 d63d
00000040: b26d bcbd 62d9 da3d 3cf6 be3c da9d aebc
00000050: baef fcbd 17e3 23be 8777 b4bc 3c02 34be
00000060: 81a0 abbd a71f 3b3d 5df7 71bd b172 f939
00000070: b4b5 27be adc2 32be 3c7f 513d 9322 9bbc
00000080: 5557 1c3d a11f 24be e040 01be 6a84 c6bd
00000090: f68a 13bd 15ad 193e 8927 de3d 2a2e 91bc
000000a0: 6299 0f3d 575c 843c 5848 ec3a 9a72 27bd
000000b0: 7673 eebd 1a05 e13c 44a3 2e3c 1d3b 863d
000000c0: b49c d83d 2c73 f5bd 821b 8f3d e146 adba
000000d0: 2786 26bc bbc6 bfbc 2f5a 923d c02c 133e
000000e0: f6bc efbd f77f 943d d90a 0a3d 132e 513c
000000f0: 5965 16bd 5831 873d 6d28 93bd 4b41 c7bd
00000100: f358 b73d caf1 b13d 746a ed3d dde5 483d
00000110: c259 a5bd 30eb bfbd 78d5 c2bc 7811 3dbc
00000120: 7ab0 2cbc 7271 2d3e 4e62 b23d a858 973d
00000130: 4c35 3e3d a20d ae3c 15ce 183e 7d6f 173e
00000140: 5b8a 203c d3de 81bc 4284 c0bd 4a96 aebd
00000150: 5ec9 19bc f425 043e d443 12be ea75 19be
00000160: 8a9c 0f3e d9bb e23d e3e5 bb3d 462c 50bd
00000170: 7377 d9bd c715 0c3e 00ab b3bc f0b8 353b
00000180: 80e5 7e3d f2dd efbd 6403 0abe 2087 18be
00000190: 8b40 e0bd cf19 03bd 4380 67bd 7478 1dbe
000001a0: 5caf 90bd 2f1f d33b b2e8 d13d 994c 003d
000001b0: 0218 703c a062 b73d fac9 debc 4b6e 06be
000001c0: 6278 993c 52b5 913c 1a12 01be 6c37 9b3d
000001d0: 0bb3 1bbd 4811 dabd ac90 a63c 4e1a 723c
000001e0: 9d13 cc3c 12bc 52bd d96c 04bc 52d0 d83d
000001f0: c913 053e 1ae8 a43c 0065 0f3e 320f a8bd
00000200: f2e4 f73d ea0d ea3d c0fa 4f3d f461 133e
00000210: fee6 67bb 0a13 4dbd 2f57 123d 4e49 fb3c
00000220: f32f f93c 8347 35bd 04b6 873c 6bcc fe3d
00000230: 4c88 91bd 4a33 0c3e b529 c43c bdf2 393d
00000240: 648a 1d3e f545 183d 0053 08be 1a30 1b3e
00000250: e99f 183e 0291 263e 41c4 623d 9714 d7bd
00000260: 7dda a23d e9f2 06be 39e7 c2bc 8a4b 573c
00000270: f97e 86bd 6f59 d23d c24f c2bd 0899 b2bc
00000280: 7d6b 813c 2f3a b2bd 2c12 5e3e 4969 963d
00000290: e5af 263d b379 dc3d f5fb e13d eded f4bd
000002a0: 12db c3bd 94f2 813d e5bf 62bd e2f4 933d
000002b0: 6c09 a4bc d256 a13d ca6e 01bd 1cbe ec3d
000002c0: 70a0 e53a 039f 383d e6f1 00bd 021e 5e3d
000002d0: 0913 adbd 4c7b ce3d 83cb be3c bbe6 a5bd
000002e0: 2c6c c03d 220b e1bd 6b5b aabc 331b f03d
000002f0: 2c2e a13c bff3 23be 1722 043d 7f21 9f3d
00000300: b164 7bbd e437 8fbd 85e8 65bd 4a23 413d
00000310: 06d4 b3bc de32 56bc efd0 c33d 5352 91bd
00000320: ff77 e03d 8d5c e0bd 6888 943d ad04 e93d
00000330: 2848 613e e169 353e 8264 16bc ec91 153c
00000340: bac5 373d 50a6 4dbd 09d8 92bd 1834 0d3d
00000350: 2605 203d e333 03be 1b67 cdbc 18d2 dd3d
00000360: 4abc 34be d30a 06be c3d8 893d e2fc c13c
00000370: 71ec 8bbd 76da a93d 08e9 cc3d 95b5 963d
00000380: 13a1 e03d 84dc 8abb 59f1 8dbd fdc2 efbd
00000390: 3b6f c5bd 3173 033d 0e9b b6bd 6717 07be
000003a0: 9d3e 093d dbf4 a33d 7209 a2bd 4d06 a3bc
000003b0: d8f1 883d 4e91 2abe a03e 74bc 2a0a 553c
000003c0: cfeb 3c3e 5f62 1f3e 41dd 02be 0c39 27be
000003d0: e004 cf3d 912a fabc b113 3f3d fbef 543c
000003e0: 1b15 2d3e 262c debc b898 96bd 7607 163e
000003f0: c6d1 dc3d 247d 233d 52c8 90bc 1d47 12bd

stacks.0.blocks.1.fc1.bias f4 [50]
0.05835292 0.18050388 0.12775907 0.17905629 0.46295258 0.39062718 0.29159778 0.57916254
0.7792038 0.26779777 -0.09903102 0.05845624 0.020110996 0.49905464 -0.017314212 0.07232754
-0.4073303 -0.040882535 -0.16384809 -0.7595028 0.41082346 -0.15916288 -0.3637646 -0.020194901
0.103901386 0.08224222 0.7003765 0.013621189 0.09934978 0.05878122 0.046508063 -0.035334986
0.10889192 0.4560719 -0.072977364 0.5142558 0.04299505 -0.153849 0.564171 0.11326869
-0.104140796 0.25617623 -0.08013505 -0.41967925 0.5684534 0.49766082 0.077383354 -0.16716859
-0.10390601 0.08481602
00000000: 7903 6f3d 02d6 383e 46d3 023e 885a 373e
00000010: 1f08 ed3e 4900 c83e 4e4c 953e ff43 143f
00000020: e679 473f ca1c 893e c7d0 cabd cf6f 6f3d
00000030: d1bf a43c 1784 ff3e 89d6 8dbc 7620 943d
00000040: 998d d0be 7274 27bd cbc7 27be c76e 42bf
00000050: 7457 d23e 98fb 22be 5b3f babe c76f a5bc
00000060: 40ca d43d 9c6e a83d e04b 333f 682b 5f3c
00000070: e677 cb3d 94c4 703d 3d7f 3e3d 6bbb 10bd
00000080: ba02 df3d 4282 e93e 2875 95bd 45a6 033f
00000090: 941b 303d 988a 1dbe 836d 103f 6af9 e73d
000000a0: c547 d5bd 8829 833e d81d a4bd 33e0 d6be
000000b0: 2986 113f 66cd fe3e 2a7b 9e3d 3e2e 2bbe
000000c0: adcc d4bd 06b4 ad3d
