RNN_models/close_raw_15min_cci_hma_22_t3.pth (torch, 497768 bytes, 30 tensors)

stacks.0.blocks.0.fc1.weight f4 [100, 50]
0	0xbd21c850	-0.039497674
1	0x3de091d2	0.10965313
2	0xbc98e2b7	-0.018662794
3	0xbdc2adf1	-0.09505833
4	0xbdf34a05	-0.118793525
5	0x3cc3621e	0.023850497
6	0xbd5c02de	-0.053713672
7	0xbd1eb0c0	-0.03874278
8	0xbd391088	-0.04518178
9	0x3e0b0046	0.13574323
10	0x3d03b698	0.032156557
11	0x3dd980b9	0.10620255
12	0xba073cd9	-0.00051589083
13	0x3c6a482a	0.014299432
14	0xbb92b5f9	-0.0044772592
15	0xbd9f61fd	-0.07782362
16	0xbdaea650	-0.08527815
17	0x3dcf6c63	0.10128095
18	0xbd9fcf4c	-0.078032106
19	0x3da3d398	0.07999343
20	0xbc61aee9	-0.013774612
21	0xbbf6d5f6	-0.0075328304
22	0x3d8a6b58	0.067587554
23	0xbd31d844	-0.043419138
24	0x3e03d311	0.12873484
25	0x3d8e775d	0.069563605
26	0xbd7133d6	-0.058887325
27	0x3ccecb01	0.025243284
28	0xbdb4a16e	-0.08819853
29	0x3ba3d1b8	0.0049993657
30	0x3d3741a4	0.044740334
31	0x3df96f59	0.12179441
32	0x3e0fbe3f	0.14037417
33	0x3d8b3c6c	0.06798634
34	0xbda8842e	-0.08228336
35	0xbdb7108d	-0.08938704
36	0x3d174d1e	0.03693878
37	0xbdbdda80	-0.09270191
38	0x3d03e8be	0.032204382
39	0x3d9820df	0.07428145
40	0x3dd860c4	0.105653316
41	0x3db452d0	0.08804858
42	0x3db0d81e	0.08634971
43	0x3d968fb7	0.0735163
44	0x3d724635	0.059148986
45	0xbe6c2f3a	-0.2306489
46	0xbd073a4a	-0.033014573
47	0xbe177091	-0.14789034
48	0xbda727ba	-0.08161874
49	0x3dbc031f	0.09180283
50	0x3d5d8f60	0.05409181
51	0xbc38f76a	-0.011289457
52	0xbd43d9f1	-0.047815267
53	0x3c8be45d	0.017076666
54	0xbdc5cf2d	-0.09658656
55	0xbe09b058	-0.13446176
56	0xbe0773a7	-0.13227712
57	0xbb0adc88	-0.0021188576
58	0x3df80332	0.121099845
59	0x3dcd19d1	0.1001469
60	0x3df63d0d	0.12023363
61	0xbdd3dab0	-0.10344446
62	0x3e038601	0.12844087
63	0x3d9b457d	0.07581613
64	0xbd0b4611	-0.034002367
65	0xbc91cde9	-0.01779838
66	0x3e01e372	0.1268442
67	0xbdba13d8	-0.09085816
68	0xbce1da26	-0.027569842
69	0xbe029e4f	-0.12755702
70	0x3c81e775	0.015857438
71	0x3da65b7e	0.081229195
72	0xbe0aae16	-0.13542971
73	0x3d880a4d	0.0664259
74	0x3de116f2	0.109907046
75	0xbdcc8617	-0.09986513
76	0x3c8cda13	0.01719383
77	0x3d77c525	0.060490746
78	0x3ba027be	0.00488755
79	0xbd765342	-0.060137995
80	0x3dee4072	0.11633386
81	0x3dd1d724	0.10246113
82	0x3d985046	0.07437186
83	0xbdc1c6cc	-0.094617456
84	0xbd483215	-0.048875887
85	0x3dfc9e8e	0.123349294
86	0xbd836cc2	-0.06417228
87	0x3cf1bd91	0.029509338
88	0xbd6ef588	-0.058339626
89	0x3d0568ff	0.032570835
90	0xbde1ade8	-0.11019498
91	0xbe0b1f07	-0.13586055
92	0xbde40c8a	-0.11135204
93	0xbdd46d6b	-0.10372432
94	0xbdbd5dbb	-0.09246393
95	0xbdf5764b	-0.11985453
96	0x3da68f3b	0.08132788
97	0xbdfdaa94	-0.12386051
98	0xbdbbef7d	-0.09176538
99	0x3d7d1389	0.06178621
100	0x3d441e0c	0.047880217
101	0x3d75e890	0.060036242
102	0x3df47719	0.119367786
103	0xbd817422	-0.06320979
104	0xbe0c35ab	-0.13692348
105	0xbd988d42	-0.07448818
106	0x3d912121	0.07086397
107	0x3d54cf52	0.05195553
108	0x3c9150c7	0.017738713
109	0x3c014b93	0.007891553
110	0x3d00e48a	0.03146795
111	0x3d9aa327	0.0755065
112	0xbe1333e8	-0.1437527
113	0x3dd3060f	0.1030389
114	0x3d22c60c	0.039739653
115	0x3e1221d2	0.14270714
116	0xbdc9c3d4	-0.098518044
117	0x3c9f9047	0.019477976
118	0xbddba609	-0.10725028
119	0x3d83f64c	0.06443462
120	0xbc98baa3	-0.018643683
121	0x3dde8075	0.10864345
122	0x3cf95fa2	0.03044111
123	0xbd9bfd4e	-0.076166734
124	0xbe185024	-0.14874321
125	0xbdb4d728	-0.088301
126	0xbcce6698	-0.025195405
127	0xbe005065	-0.12530668
128	0xbcb020fb	-0.021500101
129	0x3da086ee	0.07838236
130	0xbe135410	-0.14387536
131	0xbb473659	-0.0030397384
132	0xbdb9ed6a	-0.09078486
133	0xbdcd0877	-0.1001138
134	0xbc57ab7b	-0.013163443
135	0xbdbe523d	-0.092930295
136	0xbdd47d34	-0.10375443
137	0xbd3c7d00	-0.046017647
138	0x3dc3b739	0.09556431
139	0x3d2f4c5b	0.042797428
140	0x3e84259e	0.2580995
141	0x3e45928a	0.19294181
142	0x3e41445e	0.18873736
143	0xbca7b1e4	-0.020470567
144	0x3d9d3316	0.076757595
145	0xbe55d3bd	-0.20881553
146	0xbc4868a4	-0.0122319795
147	0xbdbdd573	-0.09269228
148	0x3c75d83b	0.015005167
149	0x3da98c92	0.08278765
150	0xbde6466b	-0.112439
151	0x3ca123a0	0.019670308
152	0xbd80ab61	-0.06282688
153	0x3db46cb0	0.08809793
154	0x3d385b78	0.045009106
155	0x3c737220	0.0148587525
156	0x3dd44428	0.10364562
157	0xbd861940	-0.06547785
158	0xbd01a112	-0.03164775
159	0xbcb1f1fc	-0.021721832
160	0xbe02c616	-0.12770876
161	0xbd39a58c	-0.045323893
162	0x3e00a835	0.12564166
163	0x3d9dbbfe	0.07701872
164	0x3e0a8b89	0.13529791
165	0x3cbc7e38	0.023009405
166	0xbdc5659c	-0.09638521
167	0xbde00698	-0.10938758
168	0xbc816f10	-0.015800029
169	0xbdeae618	-0.11469668
170	0xbc5364e0	-0.012902468
171	0xbd95c602	-0.073131576
172	0xbde7f81f	-0.11326622
173	0xbd851e47	-0.064999156
174	0xbe0c91d6	-0.13727507
175	0xbd17dcdc	-0.037075862
176	0x3da4517e	0.08023356
177	0x3c99d5f0	0.018778771
178	0xbde59d69	-0.11211664
179	0x3dd1f1c4	0.10251191
180	0x3e059739	0.13045968
181	0x3de0c476	0.10974972
182	0xbddc0616	-0.10743348
183	0x3db980f8	0.09057802
184	0xbdc80cba	-0.097680524
185	0x3dd35b9c	0.103202075
186	0xbd1a885e	-0.037727706
187	0xbdacfa61	-0.084461935
188	0xbdcf6c5f	-0.10128092
189	0xbca2ee5c	-0.01988905
190	0xbcaf21f8	-0.021378502
191	0xbd9fec4d	-0.07808743
192	0x3d91a1a2	0.07110907
193	0xbd57b828	-0.05266586
194	0x3d04ea74	0.032450154
195	0xbd90134f	-0.07034933
196	0x3d505888	0.05086568
197	0xbe0deb42	-0.13859275
198	0x3c0169d0	0.007898763
199	0xbc09ef80	-0.008418918
200	0x3b11cac1	0.0022246095
201	0x3dd26e0d	0.10274897
202	0x3db3e498	0.08783835
203	0xbdd641ca	-0.10461767
204	0xbdb54073	-0.08850183
205	0x3bb6eafc	0.0055822115
206	0x3c05f5d0	0.008176282
207	0x3dd75ad8	0.10515374
208	0x3d97fc88	0.074212134
209	0xbdc12900	-0.09431648
210	0x3c87a5a6	0.01655848
211	0xbdb45a36	-0.08806269
212	0xbc055054	-0.0081368275
213	0x3d35b1bc	0.044358954
214	0xbbcc690e	-0.0062381094
215	0x3cb946ab	0.022616705
216	0x3dc36987	0.09541612
217	0x3d58367f	0.052786347
218	0xbd245f3e	-0.040129893
219	0xbda46670	-0.08027351
220	0xbe12e7e1	-0.14346267
221	0xbdb36771	-0.08759964
222	0x3d885f0b	0.06658753
223	0xbdef698c	-0.11690053
224	0xbdcde195	-0.10052792
225	0xbcc813e1	-0.024423542
226	0x3da0582c	0.078293175
227	0xbdb4526e	-0.08804785
228	0xbd4df4c8	-0.05028227
229	0xbcfebc4c	-0.031095646
230	0x3c1f2a7f	0.009714722
231	0xbb3313a7	-0.0027324946
232	0xbe045dcb	-0.12926404
233	0xbd9158e5	-0.070970334
234	0xbb19fa8f	-0.0023495292
235	0xbc5b45fd	-0.013383386
236	0x3db9dcdc	0.09075329
237	0xbe04aa97	-0.129557
238	0xbdac58f5	-0.08415405
239	0x3d80a256	0.06280963
240	0x3de8dda7	0.11370402
241	0xb9a314c0	-0.00031105243
242	0x3de674c5	0.11252741
243	0xbb008752	-0.0019611907
244	0xbe13391f	-0.14377259
245	0x3d06b7ec	0.032890245
246	0xbde5c29b	-0.11218759
247	0x3c709c5d	0.014685717
248	0xbe00e000	-0.12585449
249	0x3df23038	0.11825603
250	0x3dd31709	0.10307128
251	0xbdeff605	-0.117168464
252	0xbc18c307	-0.009323842
253	0x3ae703a1	0.0017624983
254	0x3d336325	0.043795723
255	0x3db8efb4	0.09030095

stacks.0.blocks.0.fc1.bias f4 [100]
0	0xbb8526dd	-0.0040634708
1	0x3c56c8c4	0.01310939
2	0x3e1c5b5c	0.15269226
3	0xbe008032	-0.12548903
4	0xbd5273f0	-0.051380098
5	0xbddcc28d	-0.10779295
6	0xbdbac3d7	-0.09119385
7	0xbdad680e	-0.084671125
8	0xbcf2312c	-0.029564463
9	0x3d83beae	0.06432854
10	0xbd9307b3	-0.07179203
11	0xbdb5c905	-0.08876232
12	0xbdf38bb6	-0.11891882
13	0xbd2c1f7a	-0.042022206
14	0xbe08b659	-0.1335081
15	0xbd1dbacd	-0.038508225
16	0x3dbfa4f6	0.09357636
17	0x3d8cf6af	0.06882989
18	0x3d9cd57e	0.07657908
19	0x3d225664	0.03963317
20	0x3dfa1ebc	0.12212893
21	0xbd9bfd7f	-0.0761671
22	0x3dc90336	0.098150656
23	0xbdc798c3	-0.09745934
24	0x3c7f5cc8	0.015586086
25	0xbdac030d	-0.083990194
26	0xbd7744a6	-0.060368203
27	0x3da09854	0.07841554
28	0x3cc7b0b1	0.024376245
29	0xbe01d5f7	-0.12679277
30	0xbdfe814c	-0.12427005
31	0x381d47cd	3.7498587e-05
32	0xbe040082	-0.12890819
33	0xbc5fc637	-0.013658098
34	0xbd961270	-0.073277354
35	0xbcf8bf2a	-0.030364592
36	0x3d4ef9e4	0.050531283
37	0x3dee1da6	0.11626749
38	0x3a577a23	0.0008219799
39	0xbc848090	-0.016174585
40	0xbcd68cae	-0.026190128
41	0x3dbc21c4	0.09186128
42	0x3d0ec033	0.034851264
43	0xbdaa76d1	-0.08323444
44	0x3d6334a7	0.055470135
45	0xbd9ec83a	-0.07753034
46	0xbdb0999b	-0.08623048
47	0x3e3500ed	0.17676134
48	0x3d2f290f	0.042763766
49	0xbe0e690c	-0.1390726
50	0xbc4eb1ae	-0.012615604
51	0x3d5adf8e	0.053435855
52	0xbdbccec8	-0.09219128
53	0xbd577631	-0.05260295
54	0x3d8160e7	0.06317311
55	0xbe198334	-0.14991456
56	0x3d92ae71	0.07162178
57	0x3d8bcaf0	0.06825817
58	0xbdaf6267	-0.08563691
59	0x3c6f2449	0.014596053
60	0xbb8649e0	-0.004098162
61	0xbdf87adf	-0.12132811
62	0x3ddff0a0	0.109345675
63	0x3dcae191	0.09906305
64	0xbdb6aa1e	-0.08919166
65	0x3d9f6c63	0.07784345
66	0xbc4fd2a0	-0.012684494
67	0x3bd6d72e	0.006556413
68	0x3da29934	0.079393774
69	0x3cfe1250	0.031014591
70	0x3d105611	0.03523833
71	0xbdb1c711	-0.08680547
72	0x3dac87fd	0.08424375
73	0x3ae1b199	0.0017219066
74	0x3b95b66e	0.0045688665
75	0x3c324bd2	0.010882335
76	0xbdf0fa09	-0.117664404
77	0x3df5c40a	0.12000282
78	0xbc00e2d0	-0.007866576
79	0xbdb31e49	-0.08746011
80	0x3dfd8303	0.12378504
81	0xbde0a57f	-0.10969066
82	0xbe2f14b0	-0.17097735
83	0xbdb2c7da	-0.08729525
84	0x3d3fd012	0.04682929
85	0xbe015350	-0.12629437
86	0x3c9b8df8	0.018988594
87	0xbd37e486	-0.04489567
88	0x3bac5314	0.005258927
89	0xbd5f64e0	-0.05453956
90	0x3e1ef406	0.15522775
91	0xbe0e5f5f	-0.13903569
92	0xbdd10690	-0.1020633
93	0x3de5c0ba	0.112184
94	0x3e2b7546	0.16743955
95	0x3ddb1228	0.106968224
96	0x3dcdf86c	0.10057148
97	0x3dc74ae9	0.09731085
98	0x3d3e13af	0.04640549
99	0xbddfa251	-0.10919631

stacks.0.blocks.0.fc2.weight f4 [100, 100]
0	0x3d29144b	0.04127912
1	0x3d040e4e	0.032240205
2	0x3da3c2e2	0.07996155
3	0x3dc23ea1	0.09484602
4	0xbc429698	-0.011876725
5	0x3d6817f6	0.056663476
6	0xbc150c8a	-0.009097228
7	0xbdd39269	-0.1033066
8	0x3a06b6ff	0.0005138963
9	0x3c9594fa	0.018259514
10	0x3be9b236	0.00713184
11	0x3d68a983	0.056802284
12	0x3dbc4f6f	0.09194838
13	0xbd552030	-0.05203265
14	0x3da5e2ab	0.08099874
15	0x3d38bac0	0.045099974
16	0xbc1007d1	-0.008790926
17	0x3ca0641b	0.019578984
18	0xbb97eac6	-0.0046361415
19	0xbcf21c27	-0.02955444
20	0x3db4ba3e	0.088245854
21	0x3d5b2b5d	0.05350815
22	0xbd69f4b2	-0.057118125
23	0x3d98f351	0.07468284
24	0x3cb0b6ce	0.021571543
25	0x3d39c172	0.0453505
26	0xbd6d1567	-0.05788174
27	0x3d47b848	0.04875973
28	0xbdb006fe	-0.08595084
29	0xbde76eee	-0.11300455
30	0x3d3b653e	0.04575085
31	0xbd9a864e	-0.07545148
32	0xbcd1173d	-0.025523776
33	0x3d0265db	0.03183542
34	0x3d2c89ca	0.042123593
35	0xbd66d0d9	-0.056351516
36	0x3d235dac	0.039884254
37	0xbd0c1373	-0.034198236
38	0x3d81efa6	0.063445374
39	0xbd85f635	-0.06541101
40	0xbcb6ae0e	-0.022299793
41	0x3d2f0d98	0.042737573
42	0xbdb41c8b	-0.08794507
43	0xbd0f95ca	-0.03505496
44	0x3d594ae3	0.053049933
45	0x3b4cc81a	0.00312472
46	0xbdbfa433	-0.093574904
47	0xbd95434d	-0.07288227
48	0x3d7a4bac	0.061107323
49	0x3c71d518	0.014760278
50	0xbd89ab4c	-0.067221254
51	0x3a177edf	0.0005779098
52	0x3c9d7880	0.019222498
53	0x3cbfcd70	0.02341339
54	0xbda4659f	-0.08027195
55	0xbd4e9617	-0.050436106
56	0x3d7710cb	0.06031875
57	0xbd3ebb72	-0.04656548
58	0x3d8c3a94	0.068471104
59	0x3d7b06b2	0.061285682
60	0x3c3693a8	0.011143602
61	0xbd31639a	-0.043307878
62	0x3d911d8d	0.070857145
63	0x3d55b61b	0.052175622
64	0xbdc2f3bd	-0.09519146
65	0x3dbfa7eb	0.093582
66	0xbb4dc9c0	-0.003140077
67	0xbdca662e	-0.098827705
68	0xbdb7e970	-0.089800715
69	0xbd6f64e0	-0.05844581
70	0xbdbd3733	-0.09239044
71	0x3d13850c	0.036015555
72	0x3db22152	0.086977616
73	0xbd46e504	-0.04855825
74	0x3d2c4e02	0.04206658
75	0x3c5e2ade	0.013560025
76	0xbce6a592	-0.028155122
77	0x3cd94f1a	0.026526976
78	0x3d61e3d2	0.055148907
79	0xbc9934e8	-0.018701985
80	0xbdd04353	-0.10169091
81	0xbbd0dcbf	-0.0063739712
82	0xbbd04553	-0.0063559203
83	0xbd9223e0	-0.07135749
84	0x3d86edf0	0.06588352
85	0xbd961c72	-0.07329644
86	0x3d698d92	0.057019778
87	0x3b406e40	0.002936259
88	0xbd3651de	-0.04451167
89	0xbdb5acc8	-0.08870846
90	0x3d0f79a8	0.03502813
91	0x3a843280	0.0010085851
92	0xbc00edd0	-0.007869199
93	0xbdbe91f3	-0.09305181
94	0xbdbd3caf	-0.0924009
95	0xbdc15d5f	-0.09441637
96	0xbda00b99	-0.07814712
97	0x3d9a45b3	0.07532825
98	0x3c3e9b95	0.011633773
99	0xbbf256fc	-0.0073956233
100	0xbb09a6dd	-0.0021004
101	0xbd9d81d3	-0.07690778
102	0xbdb3f395	-0.08786694
103	0xbd4ce760	-0.050025344
104	0xbcc4013f	-0.023926375
105	0xbdbe0a78	-0.092793405
106	0xbd77d2ff	-0.060503956
107	0xbd459244	-0.048235193
108	0x3c1c2ea9	0.009532609
109	0x3db21c9c	0.08696863
110	0x3d1df3fe	0.038562767
111	0x3c6a0ef3	0.014285791
112	0xbda1b1a8	-0.07895213
113	0x3db3a41a	0.08771534
114	0xbda9fed7	-0.0830056
115	0xbc6535f9	-0.013989919
116	0x3b0e4799	0.0021710156
117	0xbda46402	-0.080268875
118	0x3d8cb2d5	0.06870047
119	0xbbe7ce0a	-0.0070741223
120	0x3d0fc239	0.035097335
121	0xbd92728d	-0.07150755
122	0x3d8fc2e5	0.07019595
123	0xbdc0e985	-0.0941954
124	0x3d6f16d8	0.058371395
125	0xbc550cb0	-0.013003513
126	0xbe011e95	-0.12609322
127	0xbd1aeda4	-0.037824288
128	0x3d2cbf5b	0.04217468
129	0xbd881412	-0.06644453
130	0x3d7316b2	0.059347816
131	0x3d955661	0.07291866
132	0xbdd1073f	-0.1020646
133	0xbd28521d	-0.041093934
134	0xbdb09acb	-0.086232744
135	0x3dc44098	0.09582633
136	0xbd12dfa2	-0.035857804
137	0x3d828d88	0.06374651
138	0x3b26cae0	0.0025450513
139	0xbdb4d96b	-0.08830532
140	0xbd686b32	-0.056742854
141	0x3d6742eb	0.056460302
142	0xbc2820fb	-0.010261769
143	0x3bd3f6f6	0.006468649
144	0xbd5218c1	-0.05129314
145	0xbdb55acf	-0.08855211
146	0x3cdb35f6	0.026759129
147	0x3d8d998e	0.06914054
148	0x3ddcb74e	0.1077715
149	0xbda37d52	-0.07982887
150	0x3ddf4e34	0.10903588
151	0xbd2c88d0	-0.042122662
152	0xbd6face0	-0.058514476
153	0x3d38e6cc	0.04514198
154	0x3d357ff6	0.044311486
155	0x3cbe799d	0.02325135
156	0xbd336a1e	-0.043802373
157	0xbcfbaf67	-0.030723287
158	0x3d6605f6	0.05615803
159	0x3de3ab46	0.11116652
160	0xbdb48878	-0.08815092
161	0x3d908e62	0.07058407
162	0x3d7d1ebc	0.06179689
163	0xbd59aee6	-0.05314531
164	0x3d946b3b	0.07247015
165	0x3d21182d	0.039329696
166	0xbd7c18ad	-0.06154697
167	0xbd267a32	-0.04064388
168	0xbdae2ce2	-0.085046545
169	0xbdb9e030	-0.090759635
170	0x3d754ba2	0.059886582
171	0xbd9865e4	-0.07441309
172	0x3dd6de92	0.10491671
173	0x3e05dea5	0.13073213
174	0x3d2bed22	0.041974194
175	0x3ced934e	0.029000904
176	0xbe17f86b	-0.14840858
177	0xbbbfab8f	-0.005849309
178	0x3b2e66c0	0.0026611537
179	0xbb5547a0	-0.0032543913
180	0x3b2fef83	0.002684564
181	0x3d5e2d37	0.05424234
182	0x3d9d76bc	0.076886624
183	0x3da0218f	0.07818901
184	0xbbbf1cfb	-0.005832312
185	0xbd920f94	-0.071318775
186	0xbd82e900	-0.063920975
187	0x3da03bd3	0.078239106
188	0x3d85ade5	0.065273084
189	0x3d8c6e9f	0.06857037
190	0xbb8c2cea	-0.004277815
191	0xbd68f72a	-0.05687634
192	0xbd0539b6	-0.03252574
193	0x3d9a51a3	0.07535102
194	0x3d0cbc19	0.03435907
195	0xbd3eddd6	-0.046598278
196	0x3cf86a60	0.030324161
197	0x3bbe9e12	0.0058171833
198	0x3d8ae220	0.06781411
199	0xbde2318a	-0.11044605
200	0x3d50ba2b	0.050958794
201	0xbd9ff9a9	-0.07811291
202	0xbb4a83af	-0.0030901243
203	0xbd8608ae	-0.06544624
204	0x3d03abd7	0.0321463
205	0x3c33de82	0.010978343
206	0x3d3d768c	0.046255633
207	0xbd6c4739	-0.05768511
208	0x3dbf869a	0.09351845
209	0xbc3fcec8	-0.011707015
210	0x3d9b20cb	0.07574614
211	0x3c9fbd53	0.019499457
212	0x3b507840	0.0031809956
213	0xbd1a5861	-0.03768194
214	0xbd6149a7	-0.05500188
215	0x3d95296f	0.072832935
216	0x3d203465	0.039112467
217	0x3d85562b	0.06510576
218	0xbc08955e	-0.008336393
219	0x3d82ab67	0.06380349
220	0xbcd299d8	-0.025708124
221	0xbe01ba8f	-0.12668823
222	0x3e15c3ee	0.14625522
223	0x3d7d3310	0.061816275
224	0x3d30dea9	0.043181095
225	0xbcb8856c	-0.022524558
226	0x3c811a75	0.015759686
227	0xbd9fb0e1	-0.07797409
228	0xbdabea23	-0.083942674
229	0xbd0f6501	-0.035008434
230	0xbd6e8503	-0.05823232
231	0x3d94db7c	0.07268426
232	0xbd303599	-0.043019865
233	0xbdca06de	-0.09864591
234	0xbcd0326c	-0.025414668
235	0xbd030663	-0.031988513
236	0xbc882b16	-0.016622107
237	0xbd9648f7	-0.07338136
238	0x3d1cb8a7	0.038262036
239	0x3dcda3c2	0.10041
240	0xbd803e64	-0.062619
241	0x3d9329d8	0.071857154
242	0xbd2f843c	-0.042850718
243	0xbd4c4fb5	-0.049880702
244	0x3d9ee255	0.07758013
245	0xbd804013	-0.06262221
246	0xbcd9af5c	-0.026572876
247	0xbbb2007d	-0.005432187
248	0x3c4609ba	0.01208728
249	0x3c69e730	0.014276311
250	0xbb1eaa43	-0.002421037
251	0x3d89e740	0.067335606
252	0x3dc259a5	0.094897546
253	0xbcbc467b	-0.022982826
254	0xbc32d47f	-0.010914921
255	0x3c5276cc	0.012845706

stacks.0.blocks.0.fc2.bias f4 [100]
0	0xbc9a349f	-0.01882392
1	0x3d8a1eb4	0.067441374
2	0xbc1750de	-0.009235589
3	0x3d2c91d7	0.04213127
4	0xbc60f242	-0.013729634
5	0x3d1da2d8	0.038485378
6	0x3dbd5a9a	0.092457965
7	0xbd8d0f16	-0.06887643
8	0x3cad95f1	0.021189662
9	0xbc5c4bb4	-0.013445783
10	0xbd9fc196	-0.078005955
11	0xbd18592c	-0.037194416
12	0xbd16d1ce	-0.03682118
13	0xbd818ce8	-0.06325704
14	0xbd03d365	-0.032184023
15	0x3c7f4738	0.015580945
16	0xbdb538c8	-0.08848721
17	0xbd643d84	-0.05572273
18	0x3d9d1bfa	0.07671352
19	0xbd84ae4f	-0.06478559
20	0xbcd4d910	-0.02598241
21	0x3d8894ea	0.06669028
22	0x3d7d432f	0.06183165
23	0x3d672c00	0.056438446
24	0xbd9fb465	-0.077980794
25	0x3d88e8c2	0.0668502
26	0xbda489da	-0.080341056
27	0x3c09c3da	0.008408511
28	0xbc56a59f	-0.013101011
29	0x3de9ee39	0.114223905
30	0x3ca1f0f9	0.019768225
31	0xbd99db23	-0.075125
32	0x3cd62a98	0.026143357
33	0xbdb28c52	-0.0871817
34	0x3d6998c0	0.05703044
35	0x3c904a98	0.017613694
36	0x3cbddc12	0.023176227
37	0x3d2747e8	0.04084006
38	0xbd7b064d	-0.061285306
39	0xbca6ec9c	-0.020376496
40	0xbb516ad3	-0.0031954541
41	0x3d810e92	0.06301607
42	0x3be7fc93	0.0070796697
43	0x3d8a026e	0.06738745
44	0xbb800681	-0.0039070253
45	0xbdb4e447	-0.08832603
46	0xbdba4026	-0.090942666
47	0x3dc90fc7	0.098174624
48	0xbd8c0f32	-0.06838836
49	0x3d9adf60	0.07562137
50	0xbcbf3b91	-0.023343833
51	0xbd65b7a3	-0.056083333
52	0x3d80a8f8	0.06282228
53	0x3dc0712f	0.09396588
54	0x3dadf5dd	0.0849416
55	0xbd846d0e	-0.06466113
56	0x3c1bf5a7	0.009519017
57	0x3d39992f	0.045312103
58	0x3cebc068	0.02877827
59	0xbd9d8ff5	-0.07693473
60	0xbd7577f7	-0.05992886
61	0x3d1b1022	0.037857182
62	0xbd0ea5dc	-0.034826145
63	0x39f78ef5	0.00047218023
64	0x3d63affb	0.05558775
65	0xbc8e29fa	-0.017354
66	0xbd9af43b	-0.075661145
67	0xbc3adb26	-0.011404788
68	0xbd8ea089	-0.069642134
69	0x3d1c0568	0.038091093
70	0xbd504366	-0.050845526
71	0xbc17152f	-0.009221359
72	0x3d1afa9d	0.03783666
73	0xbdbe6ef7	-0.092985086
74	0xbd592f50	-0.053023636
75	0xbd68aa91	-0.05680329
76	0xbda9c483	-0.08289435
77	0x3daacf8b	0.08340367
78	0xbdb333bf	-0.08750104
79	0x3d29bc15	0.041439135
80	0xbd32c698	-0.043646425
81	0xbcc30c47	-0.023809565
82	0x3d7b6c9f	0.061382886
83	0xbc5d5dbf	-0.01351112
84	0x3d30a7e4	0.043128863
85	0x3d892e97	0.066983394
86	0xbd67e908	-0.05661872
87	0xbd581de0	-0.052762866
88	0x3d54c6ee	0.051947527
89	0x3c2523c6	0.01007933
90	0x3d643596	0.055715166
91	0xbcf843db	-0.030305794
92	0x3c8cc570	0.01718399
93	0xbc9c5a25	-0.019085953
94	0xbcb6eac3	-0.02232874
95	0xbdf3c5ff	-0.11902999
96	0x3c57e4b9	0.01317709
97	0x3d41d84f	0.04732543
98	0x3b04da94	0.0020271884
99	0xbd822d33	-0.06356277

stacks.0.blocks.0.fc3.weight f4 [100, 100]
0	0xbdae9722	-0.0852492
1	0xbccc5a5d	-0.024945432
2	0x3db5c0fa	0.08874698
3	0x3d94c0a6	0.07263307
4	0x3d94b8d9	0.072618194
5	0x3c9622ae	0.018327083
6	0xbdf1d8f3	-0.11808958
7	0x3d94708b	0.07248028
8	0x3db0e27b	0.08636948
9	0xbe01c7ef	-0.12673925
10	0xbca2da1e	-0.019879397
11	0xbb82f615	-0.0039966204
12	0xbd7915cc	-0.060811803
13	0x3d90810f	0.07055866
14	0x3d94c21b	0.07263585
15	0xbd75d942	-0.060021646
16	0xbc66e8ac	-0.014093559
17	0xbe03e020	-0.12878466
18	0x3de214ba	0.110391095
19	0x3d1e2eea	0.03861896
20	0xbb82e4cf	-0.0039945613
21	0x3d9b160f	0.07572567
22	0xbd988839	-0.074478574
23	0x3c8c11fb	0.017098418
24	0x3d995505	0.07486919
25	0x3db45858	0.08805913
26	0xbaba3ad1	-0.0014208202
27	0x3dc75c13	0.09734359
28	0xbdb48580	-0.088145256
29	0xbdc52ee8	-0.09628087
30	0x3dcc0073	0.09961023
31	0x3d05646a	0.032566465
32	0xbe07964b	-0.13240926
33	0x3dc0c77b	0.09413048
34	0xbdd01f7f	-0.101622574
35	0x3dd1c7b0	0.102431655
36	0xbd8b2dcd	-0.06795845
37	0x3d416771	0.04721779
38	0xbd436259	-0.047701214
39	0x3d2c049d	0.041996587
40	0xbcb0ae6e	-0.02156755
41	0xbdb1693f	-0.08662652
42	0xbc8ffe95	-0.017577449
43	0xbdb05d51	-0.08611549
44	0xbba4e025	-0.005031603
45	0x3c3b548b	0.011433731
46	0xb99a1354	-0.0002938757
47	0x3d33d625	0.043905396
48	0x3dd26a45	0.102741756
49	0x3dd9dbbe	0.106376156
50	0xbbbd3b32	-0.005774879
51	0x3db22d88	0.08700091
52	0x3dbb1022	0.091339365
53	0xbd9e9a56	-0.07744281
54	0xbaadf60b	-0.0013272179
55	0xbd948cc3	-0.07253411
56	0xbdf0a1a6	-0.11749582
57	0x3d83b540	0.06431055
58	0x3d1744be	0.036930792
59	0xbcce9d99	-0.025221633
60	0xbd4746e9	-0.04865161
61	0x3d336bac	0.043803856
62	0xbde24c37	-0.11049693
63	0xbd5d24f7	-0.05399033
64	0xbcf01d41	-0.029310824
65	0xbd096b49	-0.03354958
66	0x3b976ba7	0.0046209875
67	0x3da53a16	0.0806772
68	0x3d5b7fa8	0.05358854
69	0x3d487fe1	0.04895008
70	0x3d1ec7db	0.038764816
71	0xbd19661b	-0.03745089
72	0x3ca6929e	0.020333584
73	0xbdb564ed	-0.08857141
74	0x3d81ae37	0.06332057
75	0xbcecc731	-0.028903576
76	0x3da54f75	0.08071796
77	0xbdaffeb0	-0.085935
78	0xbd1ae788	-0.03781846
79	0x3d89075e	0.06690858
80	0xbc147ef0	-0.009063467
81	0x3d687211	0.056749407
82	0x3c4ef481	0.012631536
83	0x3dcc752f	0.099832885
84	0xbd812d58	-0.06307477
85	0x3da9269d	0.08259318
86	0x3d6af6ca	0.057364263
87	0xbd1eb0a3	-0.038742673
88	0x3cc22134	0.023697473
89	0x3c219d05	0.0098640965
90	0x3de26212	0.11053862
91	0x3d5c93da	0.05385194
92	0xbd9d1638	-0.076702535
93	0xbd796b5f	-0.060893413
94	0xbd6b3243	-0.05742098
95	0xbc1ba946	-0.009500807
96	0x3da77c41	0.081779964
97	0xbce91277	-0.028451188
98	0x3d861be8	0.065482914
99	0x3d843a1c	0.06456396
100	0x3c613e40	0.013747752
101	0xbd64abe1	-0.05582798
102	0x3d3b71a1	0.04576266
103	0x3cfb19f1	0.030652018
104	0xbcf883e4	-0.030336328
105	0xbd46c507	-0.048527744
106	0xbd709ca1	-0.058743123
107	0x3d471d54	0.048611954
108	0x3d534864	0.05158271
109	0x3d1fdc5b	0.039028507
110	0xbe0b2b21	-0.13590671
111	0x3db201ce	0.086917505
112	0xbc0e2886	-0.008676654
113	0xbd4a31a9	-0.049363766
114	0xbd4fe965	-0.05075969
115	0xbdc6a7fc	-0.09700009
116	0xbd04d239	-0.032427046
117	0x3d75e420	0.06003201
118	0xbc859fa5	-0.016311476
119	0x3dad87fc	0.084732026
120	0xbbf9487d	-0.007607518
121	0x3d197dad	0.03747337
122	0x3a0e343a	0.00054246525
123	0xbd869d64	-0.06572989
124	0x3cccc8c0	0.024998069
125	0x3d717e6b	0.058958452
126	0xbb817a85	-0.003951373
127	0xbd3b8afa	-0.045786835
128	0xbdef6b47	-0.116903834
129	0xbdc3acbe	-0.09554432
130	0x3d3b1934	0.045678332
131	0xbdbbb847	-0.091660075
132	0xbcb72b9f	-0.022359667
133	0x3db51460	0.08841777
134	0xbdd7b440	-0.10532427
135	0xbd2aec09	-0.041729007
136	0x3d57c0cb	0.052674096
137	0xbbdbb005	-0.006704333
138	0x3cad24e5	0.021135757
139	0x3cf2ad67	0.0296237
140	0xbcfd1259	-0.030892538
141	0xbd2f60ad	-0.042816807
142	0x3bcf7819	0.0063314554
143	0x3df17660	0.11790156
144	0x3d86970c	0.06571779
145	0xbd4300d1	-0.0476082
146	0xbc46166a	-0.012090305
147	0x3cfb8848	0.030704632
148	0xbd1c00fd	-0.03808688
149	0xbdd7b891	-0.1053325
150	0xbd01b453	-0.03166611
151	0x3cb44e2a	0.022009928
152	0xbd550b40	-0.052012682
153	0xbda34efc	-0.079740494
154	0x3dd6e894	0.104935795
155	0x3d94daa5	0.07268266
156	0x3dbcfbb5	0.09227697
157	0xbcaae450	-0.020860821
158	0xbc510a00	-0.012758732
159	0xbd11a2ae	-0.035555534
160	0xbd45e54c	-0.048314378
161	0x3dbfae1d	0.09359381
162	0x3cd3b2d0	0.0258421
163	0x3ddb2eca	0.10702284
164	0x3d5ce016	0.053924643
165	0xbd03cfd7	-0.032180633
166	0xbd100fcc	-0.035171315
167	0xbd116afa	-0.03550241
168	0x3cc3f201	0.023919107
169	0x3c9a5e7a	0.018843878
170	0xbceb168a	-0.02869727
171	0x3c035653	0.008016187
172	0xbd8515fb	-0.06498333
173	0xbdaca6c6	-0.08430247
174	0xbd8bb68d	-0.06821928
175	0xbd44120a	-0.047868766
176	0x3dca2791	0.09870828
177	0xbdde715c	-0.10861465
178	0xbd361582	-0.044454105
179	0xbad52b25	-0.0016263468
180	0x3d94b74d	0.07261524
181	0xbdc6ba59	-0.09703512
182	0xbd96f0a6	-0.07370119
183	0xbd0bcfc6	-0.034133695
184	0xbd2d4551	-0.042302433
185	0xbc93aea1	-0.018027605
186	0x3d07e2a0	0.03317511
187	0xbd0468bc	-0.032326445
188	0xb9e55acc	-0.00043745933
189	0xbd462712	-0.048377104
190	0xbcfdd1e6	-0.030983876
191	0x3d1723c8	0.036899358
192	0xbd210f16	-0.039321028
193	0x3cc66499	0.02421789
194	0xbd93c879	-0.072159715
195	0x3da36e8c	0.079800695
196	0x3d0cbf35	0.034362037
197	0x3df10e87	0.11770349
198	0x3d125e65	0.035734553
199	0xbd0e5574	-0.034749463
200	0x3d88ff0b	0.066892706
201	0xbd89d98a	-0.067309454
202	0xbd10738d	-0.035266448
203	0xbd686228	-0.056734234
204	0xbb15e9a0	-0.0022874847
205	0xbd1492ff	-0.036273
206	0xbc9ecbcb	-0.019384285
207	0xbdba184b	-0.09086665
208	0x3d3c1583	0.045918953
209	0xbc43a6d0	-0.011941627
210	0x3c2c62fd	0.0105216475
211	0x3db257ed	0.08708177
212	0x3cde7d31	0.027159305
213	0x3db5b0f5	0.088716425
214	0xbdd68a05	-0.10475544
215	0x3da3c724	0.079969674
216	0x3da777cf	0.081771486
217	0xbdb69803	-0.08915713
218	0xbbd20bac	-0.006410083
219	0xbdd7404b	-0.1051031
220	0xbd46563a	-0.048422076
221	0xbdb1961d	-0.0867121
222	0x3d28fcbd	0.041256655
223	0xbd605981	-0.054772858
224	0xbd84bcc6	-0.06481318
225	0x3d68b7af	0.0568158
226	0x3d825786	0.0636435
227	0x3d9ffeed	0.07812295
228	0xbddc3a0d	-0.1075326
229	0x3d8d2ae3	0.068929456
230	0x3d658f31	0.05604476
231	0xbd3c66e0	-0.045996547
232	0xbdf01823	-0.11723354
233	0x3d558b84	0.052135006
234	0x3d9b3e40	0.075802326
235	0xbd810392	-0.06299509
236	0xbcfd699b	-0.030934146
237	0x3d624030	0.055236995
238	0xbd3ff263	-0.046862017
239	0x3d873c89	0.06603343
240	0x3d040673	0.032232713
241	0x3d18dc12	0.03731925
242	0x3d46633c	0.04843448
243	0x3d152534	0.036412433
244	0x3bad360c	0.005285984
245	0xbda6f0cc	-0.08151397
246	0x3d0cd04a	0.034378327
247	0x3c3b6013	0.01143648
248	0x3d6722fa	0.05642984
249	0xbb7fee5a	-0.003905198
250	0x3d201eca	0.039091863
251	0xbc7312eb	-0.014836053
252	0x3ba035e7	0.004889238
253	0x3d18ec04	0.037334457
254	0x3c97c7a2	0.01852781
255	0x3d25f566	0.040517233

stacks.0.blocks.0.fc3.bias f4 [100]
0	0x3d9198d0	0.07109225
1	0x3cf9c1e6	0.030487966
2	0x3bd8d60c	0.0066173133
3	0x3be8b97b	0.007102189
4	0x3d173523	0.03691591
5	0x3d331d78	0.043729275
6	0x3d81a1c3	0.06329682
7	0x3ca3ca38	0.019993886
8	0xbcde1ec2	-0.027114276
9	0x3d9a24b6	0.07526533
10	0xbdbaac00	-0.09114838
11	0x3d3840dc	0.04498373
12	0xbd8e171b	-0.06938001
13	0x3d52038b	0.05127291
14	0x3d7fca71	0.062448923
15	0x3d36d0a2	0.04463256
16	0xbd2833d7	-0.041065063
17	0xbbae9a4b	-0.0053284517
18	0x3d38ce89	0.045118842
19	0xbcb99d9c	-0.022658162
20	0xbd27cbcc	-0.04096584
21	0xbd8b743f	-0.068092816
22	0xbd5f0ff9	-0.054458592
23	0xba25166d	-0.0006297592
24	0x3dad8280	0.084721565
25	0xbda6f988	-0.08153063
26	0xbd4736d1	-0.04863626
27	0x3d2d2509	0.042271648
28	0xbd974f0d	-0.073881246
29	0xbd376fff	-0.044784542
30	0x3d124cec	0.03571789
31	0x3d9463ae	0.07245575
32	0xbcdd5e20	-0.027022421
33	0x3c6484d7	0.013947687
34	0x3c578e51	0.0131564895
35	0x3da54181	0.080691345
36	0x3db8af6a	0.090178326
37	0xbd9a9f33	-0.07549896
38	0x3cd754f4	0.026285626
39	0x3d172fb5	0.03691073
40	0xbd759703	-0.05995847
41	0xbd6f2490	-0.058384478
42	0xbd5a0ec7	-0.05323675
43	0x3d6ac7f4	0.057319596
44	0xbdbe389d	-0.09288142
45	0xbbc5f9d9	-0.006041747
46	0x3cffaea0	0.031211197
47	0xbda12ac3	-0.07869484
48	0xbd692129	-0.05691639
49	0xbd9c3a6d	-0.07628331
50	0xbdc0401f	-0.0938723
51	0xbdc920ab	-0.09820684
52	0x3d34712b	0.044053238
53	0xbd85341b	-0.06504079
54	0x3d40d6f7	0.047080006
55	0x3bb37535	0.0054766187
56	0x3caccfaa	0.021095116
57	0x3d32ba51	0.043634716
58	0x3d5ac937	0.05341455
59	0xbc72fe58	-0.014831148
60	0x3cd3d7ec	0.025859796
61	0x3c2429a1	0.010019691
62	0xbc9943b6	-0.018709045
63	0xbdb0c912	-0.08632101
64	0x3d12c246	0.035829805
65	0xbd20b635	-0.039236266
66	0x3ce56620	0.028002799
67	0x3d9abda6	0.07555704
68	0xbd2c417d	-0.042054642
69	0x3ce68c44	0.028143056
70	0xbdc42e27	-0.09579115
71	0xbdbf567c	-0.093426675
72	0xbd33bb8a	-0.043880023
73	0xbddf9ce1	-0.10918594
74	0xbbe71d5c	-0.0070530605
75	0x3d3c672a	0.045996822
76	0xbddae96b	-0.10689052
77	0x3cb0ccdc	0.02158206
78	0xbcc97758	-0.02459304
79	0x3d1049d7	0.03522667
80	0xbd7c9dc3	-0.06167389
81	0x3d5c0214	0.05371292
82	0x3c8d1f06	0.017226707
83	0x3d58cb75	0.052928407
84	0x3d57b565	0.052663226
85	0xbd278a63	-0.04090346
86	0xbb2988bb	-0.0025868851
87	0x3c4b4625	0.0124068605
88	0x3cc43ecd	0.023955727
89	0xbdf4e602	-0.11957933
90	0xbc1cbac4	-0.009566013
91	0x3d2489a0	0.040170312
92	0xbdcac572	-0.09900941
93	0x3d53a68b	0.0516725
94	0xbde85d68	-0.11345941
95	0x3d4c937c	0.04994534
96	0xbc8dd19e	-0.017311867
97	0x3b16137c	0.0022899797
98	0x3d0d5dcb	0.034513276
99	0xbce0b2ec	-0.027429067

stacks.0.blocks.0.fc4.weight f4 [100, 100]
0	0x3ce1a61a	0.027545024
1	0x3cc12d82	0.02358127
2	0xbc459627	-0.012059725
3	0xbc9fc6d6	-0.019503992
4	0x3bf66cfc	0.007520316
5	0xbdd4dffd	-0.10394285
6	0xbdc470a8	-0.095918
7	0xbd90d619	-0.07072086
8	0x3d28c94c	0.041207597
9	0xbd4c9f9b	-0.0499569
10	0xbd16bf30	-0.036803424
11	0x3cf90d3b	0.030401817
12	0x3c83ae20	0.01607424
13	0xbce1ea71	-0.02757761
14	0x3d0c6755	0.034278233
15	0xbb889f35	-0.0041693696
16	0x3d0eb964	0.03484477
17	0xbc86e6ea	-0.01646753
18	0x3d641d10	0.05569178
19	0x3c622aae	0.013804121
20	0x3d3bab64	0.045817748
21	0xbd82d0a8	-0.06387454
22	0x3d960614	0.07325378
23	0xbd9a83de	-0.07544683
24	0x3d7fbd61	0.062436465
25	0xbd940a22	-0.07228495
26	0x3d334712	0.04376895
27	0xbd8d7c13	-0.06908431
28	0x3ce40ba5	0.027837584
29	0x3dbf7293	0.09348025
30	0xbd2de326	-0.042452954
31	0xbd5ca25d	-0.05386578
32	0xbd07188c	-0.032982394
33	0x3c17b63c	0.009259757
34	0xbdb4f1d2	-0.08835186
35	0xbce45564	-0.027872749
36	0xbc9c8cff	-0.0191102
37	0x3d42db22	0.047572263
38	0xbc38d5b6	-0.011281421
39	0xbd784414	-0.0606118
40	0x3bb085a0	0.005387023
41	0x3be93044	0.0071163494
42	0x3cafc434	0.021455862
43	0xbdb81a5d	-0.089894034
44	0xbdb3794b	-0.08763369
45	0xbdc03901	-0.09385873
46	0xbdaa30fb	-0.083101235
47	0xbd80d4e2	-0.06290604
48	0x3d371602	0.044698723
49	0x3c6a2fb5	0.014293601
50	0x3b14846a	0.0022661933
51	0x3d3982b6	0.04529067
52	0xbd43904d	-0.047745038
53	0xbd4dd02c	-0.050247356
54	0xbd210a71	-0.0393166
55	0xbd8da032	-0.069153205
56	0x3cf34688	0.029696718
57	0x3d72a087	0.059235122
58	0xbd8221de	-0.06354116
59	0x3d455ab2	0.048182197
60	0xbbecb070	-0.0072231814
61	0xbcd2231f	-0.025651513
62	0x3d9448ee	0.07240473
63	0xbd3e8bbd	-0.046519984
64	0x3c113858	0.008863531
65	0x3cb385d8	0.021914408
66	0x3d3d9506	0.046284698
67	0x3db3d0b2	0.0878004
68	0x3da46bc7	0.080283694
69	0xbd8df989	-0.06932361
70	0x3d5ee8de	0.0544213
71	0x3b1b209c	0.002367056
72	0xbccdc381	-0.025117638
73	0xbd96c7db	-0.07362338
74	0xbd894dfd	-0.06704328
75	0x3d125673	0.035726976
76	0xbd86c36b	-0.06580242
77	0xbcffedbb	-0.031241288
78	0x3cfafe73	0.030638909
79	0xbde78cb3	-0.11306133
80	0x3d68ae4f	0.05680686
81	0xbba3c480	-0.00499779
82	0xbd1e600d	-0.03866582
83	0x3d8421ef	0.06451785
84	0xbd83fe1b	-0.06444951
85	0xbdad029f	-0.084477656
86	0x3d98fd20	0.07470155
87	0xbd385a8c	-0.045008227
88	0xbd177fd2	-0.036987133
89	0xbe52339c	-0.205275
90	0xbd466f9c	-0.048446283
91	0xbdc4b55d	-0.09604905
92	0xbce4aa73	-0.027913308
93	0xbdde989d	-0.108689524
94	0x3c8fa78e	0.017535951
95	0xbcf1222c	-0.02943524
96	0xbcfd7c84	-0.030943163
97	0x3ce5d600	0.028056145
98	0xbdbb4f02	-0.09145929
99	0x3c8410b8	0.016121253
100	0xbd53aba0	-0.051677346
101	0x3dd38fca	0.1033016
102	0x3d5dc1c1	0.054139856
103	0xbd9bbe69	-0.07604677
104	0xbd6807fb	-0.056648236
105	0x3b3858d7	0.0028129125
106	0x3d4d0213	0.050050806
107	0xbe655142	-0.22394279
108	0xbdaa3040	-0.08309984
109	0x3d9f1be3	0.07768991
110	0xbc7f22b0	-0.015572235
111	0xbd976c14	-0.07393661
112	0x3d9116c9	0.07084424
113	0xbd5782b1	-0.05261487
114	0x3de00772	0.1093892
115	0x3cc3af38	0.023887262
116	0x3ddf56d7	0.10905235
117	0x3dc4f900	0.096178055
118	0xbcc1cafa	-0.023656357
119	0xbd5469b4	-0.05185862
120	0x3dbf0f03	0.09329035
121	0x3bddd500	0.0067697763
122	0xbdbb330a	-0.09140594
123	0xbda26960	-0.07930255
124	0x3d7fd33b	0.062457304
125	0x3d19c46e	0.037540846
126	0xbd747c85	-0.059689064
127	0x3d4bbdc1	0.04974151
128	0x3da7e6fe	0.08198355
129	0x3cdd8acb	0.02704372
130	0xbdafe36c	-0.08588299
131	0xbd308d51	-0.04310352
132	0xbcdff0c5	-0.027336488
133	0xbdb3018d	-0.0874053
134	0x3b80581b	0.003916753
135	0xbdafd1af	-0.08584916
136	0x3d264213	0.040590357
137	0xbd047f60	-0.032348037
138	0xbdd96623	-0.10615184
139	0x3e0c97a5	0.13729723
140	0xbd81a9a0	-0.063311815
141	0x3d83151b	0.0640051
142	0x3d9c36a3	0.076276086
143	0x3d09f5e9	0.033681784
144	0xbc9c3f18	-0.019073054
145	0xbd8ec03d	-0.0697026
146	0x3d197100	0.03746128
147	0x3dcb2351	0.099188454
148	0x3b354a09	0.0027662537
149	0x3db1cdd7	0.08681839
150	0x3dbc76d1	0.0920235
151	0xbd541cca	-0.051785268
152	0x3d50a956	0.05094274
153	0x3cc55fe5	0.024093578
154	0x3ca2cb8e	0.019872453
155	0x3d16e76c	0.036841795
156	0x3da26674	0.07929698
157	0xbd24f3ab	-0.040271442
158	0xbe6d5fb9	-0.23181047
159	0x3d0ff092	0.035141535
160	0xbd412ed7	-0.04716381
161	0xbd8a6366	-0.0675724
162	0xbc8917bb	-0.016734948
163	0xbd60b10d	-0.05485635
164	0xbd3ccb9a	-0.046092607
165	0xbd2ed2da	-0.042681552
166	0x3d877bbc	0.06615397
167	0xbd012ee9	-0.031538878
168	0xbcba37b8	-0.022731647
169	0xbde52133	-0.11187973
170	0xbdbd994d	-0.092577554
171	0x3cd5171c	0.026011996
172	0xbd8aef15	-0.067838825
173	0x3d8a7b97	0.06761854
174	0x3b9a3f8f	0.004707284
175	0xbda5ae5d	-0.08089898
176	0x3c1733e3	0.009228679
177	0xbcf5a404	-0.029985435
178	0x3df3bfae	0.119017944
179	0x3c05aa55	0.008158286
180	0x3d6f3422	0.058399327
181	0xbccb125b	-0.024789026
182	0x3b9061c1	0.0044061844
183	0x3c01321c	0.007885482
184	0xbcc4e9ca	-0.02403726
185	0x3d09bbc2	0.033626325
186	0x3dfcae95	0.123379864
187	0xbd1ae5a8	-0.037816674
188	0x3df47671	0.119366534
189	0xbe6c098c	-0.23050517
190	0x3d2d7462	0.04234732
191	0x3df8069b	0.12110635
192	0xbd4a2efd	-0.049361218
193	0xbdedb492	-0.11606707
194	0xbcb28fb8	-0.021797046
195	0x3e21e030	0.15808177
196	0x3c79c534	0.015244771
197	0x3d35e1b9	0.04440472
198	0xbbf98cb7	-0.0076156515
199	0xbd8c9244	-0.068638355
200	0xbdcfb1fd	-0.101413704
201	0x3d780cfc	0.060559258
202	0x3db14330	0.08655393
203	0xbca4175a	-0.020030666
204	0xbc145ef0	-0.009055838
205	0xbc54cc1c	-0.012988117
206	0xbdd5bc00	-0.10436249
207	0xbe3ec8c1	-0.18631269
208	0xbdc170a0	-0.0944531
209	0xbdcb8a2b	-0.09938463
210	0xbd2f172a	-0.0427467
211	0xbcf04c09	-0.029333131
212	0x3ba226d0	0.0049484745
213	0xbd258230	-0.04040736
214	0x3de1566f	0.11002814
215	0xbdcee1dc	-0.10101673
216	0x3df33e63	0.11877134
217	0xbd32eb32	-0.04368133
218	0x3b4bf56e	0.003112163
219	0x3c079344	0.008274857
220	0x3d125cdb	0.035733085
221	0x3d59e4d0	0.05319673
222	0xbd0f82fa	-0.03503702
223	0x3d9ccb58	0.07655972
224	0x3be16dd8	0.0068795495
225	0xbd0f7af7	-0.035029378
226	0x3b82bf4b	0.003990089
227	0x3d822911	0.06355489
228	0xbd47523a	-0.0486624
229	0x3e05ca6a	0.13065496
230	0xbde99454	-0.114052445
231	0x3c38a509	0.011269816
232	0x3e1f8ac0	0.15580273
233	0x3d4e8fae	0.050429992
234	0xbe3335b0	-0.17500949
235	0x3c60cb8b	0.013720403
236	0x3dc7284a	0.097244814
237	0x3daa16a9	0.08305103
238	0xbd8b33a5	-0.0679696
239	0xbdad17e3	-0.08451822
240	0xbd804756	-0.06263606
241	0xbdac35bc	-0.084086865
242	0x3cf8bca4	0.030363388
243	0xbd29587b	-0.041344147
244	0xbd85082a	-0.06495698
245	0x3d5911e7	0.05299559
246	0x3d73dece	0.059538655
247	0xbd8f9b5a	-0.07012053
248	0xbda5b04f	-0.08090269
249	0xbcdd71a3	-0.027031725
250	0x3d9aca03	0.07558062
251	0x3d52fb12	0.05150897
252	0xbe14a034	-0.14514238
253	0x3d9ddadf	0.07707762
254	0x3e1fbe72	0.15599993
255	0xbd979d6a	-0.07403071

stacks.0.blocks.0.fc4.bias f4 [100]
0	0x3d87754d	0.0661417
1	0x3d893d9c	0.06701204
2	0x3dbae53e	0.09125756
3	0x3d2cd661	0.042196635
4	0x3be01e93	0.006839582
5	0x3d5e373b	0.05425189
6	0xbd78833a	-0.060672022
7	0xbd3b3b20	-0.045710683
8	0xbdc29c42	-0.0950246
9	0xbd26db01	-0.040736202
10	0x3b24d845	0.002515332
11	0x3d4e1043	0.050308477
12	0xbd087c54	-0.033321694
13	0xbd78c37d	-0.060733307
14	0xbb999a80	-0.0046876073
15	0x3d90ae6f	0.070645206
16	0x3d8b5c2f	0.06804692
17	0x3dbcd7ff	0.092208855
18	0x3c9d7b10	0.01922372
19	0x3cc7d054	0.02439133
20	0x3d52ce9e	0.051466577
21	0xbda4c46f	-0.08045279
22	0x3d72b8a2	0.05925811
23	0xbd286fb3	-0.04112215
24	0x3dc2208f	0.09478866
25	0x3d1ebb07	0.038752582
26	0xbda59e58	-0.08086842
27	0x3d48a817	0.048988428
28	0xbb8561f9	-0.004070517
29	0x3cf0f38c	0.029413007
30	0x3d2cdba4	0.042201653
31	0xbbe5aed4	-0.0070093665
32	0x3d1a843f	0.037723776
33	0x3e0aec98	0.13566816
34	0xbd49626d	-0.04916613
35	0x3d93cf32	0.07217254
36	0x3e01f436	0.12690815
37	0x3dc58afe	0.09645651
38	0x3d43b80f	0.047782954
39	0xbcbfb80d	-0.023403192
40	0x3da13e8c	0.07873258
41	0x3dcea806	0.10090642
42	0xbd060958	-0.032723755
43	0x3dc39721	0.0955031
44	0xbdc62365	-0.0967472
45	0xbbbf0d9f	-0.005830481
46	0xbd7fd25a	-0.062456466
47	0x3d934a83	0.07191946
48	0x3dc63c6f	0.096794955
49	0x3cc6d6c8	0.024272338
50	0xbc502608	-0.01270438
51	0x3db67eba	0.0891089
52	0xbd51d290	-0.0512262
53	0xbcd841a8	-0.026398495
54	0xbd8a471a	-0.06751843
55	0x3c96af27	0.018394066
56	0x3df030fd	0.11728094
57	0xbda6a28e	-0.081364736
58	0xbd310e99	-0.043226812
59	0xbd867a5a	-0.065663055
60	0xbd37b7f3	-0.044853162
61	0xbd8d45ca	-0.06898077
62	0x3bd036d7	0.0063541937
63	0x3c3e8cad	0.011630219
64	0xbdb21f23	-0.08697345
65	0xbc3d97fa	-0.011571879
66	0xbd66cd8e	-0.056348376
67	0xbd56c8ea	-0.0524377
68	0x3da568b2	0.0807661
69	0xbc8602d8	-0.016358778
70	0x3dd43643	0.10361912
71	0x3d75af0c	0.05998139
72	0xbdc3cedb	-0.09560939
73	0xbdcb900f	-0.09939586
74	0xbaa25a4b	-0.0012386529
75	0xbd1cc23d	-0.038271178
76	0x3dee5676	0.11637585
77	0xbd94cc30	-0.07265508
78	0x3c81d053	0.015846407
79	0xb9c74704	-0.0003800915
80	0x3d8f93fa	0.07010646
81	0xbdcaffee	-0.09912096
82	0xbd4f0ce0	-0.050549388
83	0xbc44c62d	-0.012010139
84	0xbdd4a8b7	-0.10383742
85	0xbd9e6d56	-0.07735698
86	0x3c1b156a	0.009465555
87	0xbca3f4d9	-0.020014213
88	0xba471513	-0.0007594388
89	0x3ce8489a	0.028354932
90	0xbdfb256a	-0.122629955
91	0x3cee53eb	0.02909275
92	0x3dd371b8	0.103244245
93	0xbdc8d9c0	-0.098071575
94	0x3de0fd1b	0.10985776
95	0x3d43d742	0.047812708
96	0x3c197d03	0.009368184
97	0xbda598f8	-0.08085817
98	0xbb094955	-0.002094825
99	0xbd9222f6	-0.071355745

stacks.0.blocks.0.theta_layer.weight f4 [51, 100]
0	0x3d969f0a	0.07354553
1	0x3dfb774d	0.12278614
2	0x3d945e5c	0.0724456
3	0x3c69fb07	0.014281041
4	0x3dabd104	0.08389476
5	0x3d8c7483	0.0685816
6	0xbdbf5d73	-0.09343996
7	0xbd9460d6	-0.072450325
8	0xbd4561a3	-0.048188817
9	0xbdd3667a	-0.1032228
10	0x3d032a48	0.032022744
11	0x3e3f5c24	0.18687493
12	0xbd31bfd0	-0.043395817
13	0xbdc1ae32	-0.09457053
14	0x3dbbaf2d	0.091642715
15	0x3dac46f0	0.08411968
16	0x3da3d0ed	0.07998834
17	0xbcfb9933	-0.0307127
18	0x3bf68e35	0.0075242766
19	0x3debb010	0.11508191
20	0xbc8162e2	-0.015794221
21	0xbdafff9b	-0.08593675
22	0x3e1a8316	0.15089068
23	0x3cfab724	0.030604906
24	0x3d94b312	0.072607175
25	0x3cd41d4e	0.02589288
26	0x3c1f3880	0.0097180605
27	0x3d3c23e5	0.04593267
28	0xbcc9b234	-0.024621107
29	0x3e09a3cd	0.13441391
30	0x3e0c23e5	0.13685568
31	0x3d2146ec	0.039374277
32	0x3d91d53a	0.07120748
33	0x3e00ea0b	0.1258928
34	0x3cf0cbf0	0.02939412
35	0x3dfbf277	0.12302106
36	0x3dcfe700	0.10151482
37	0x3afb4436	0.0019170109
38	0x3dca1b2b	0.09868463
39	0xbd7e00e7	-0.06201258
40	0x3d56a8a5	0.052406926
41	0x3d9ffefd	0.07812307
42	0x3ddc2b7e	0.10750483
43	0x3d5f5c7c	0.05453156
44	0x3d89c8a9	0.06727726
45	0xbcd7fcb7	-0.026365621
46	0x3dc7c179	0.09753699
47	0x3e02ba65	0.12766416
48	0x3de3abba	0.111167386
49	0xbd436e0c	-0.04771237
50	0x3be805b3	0.0070807575
51	0x3e0c03f1	0.13673379
52	0x3b8552db	0.004068715
53	0x3c4fbf32	0.012679862
54	0x3d9f9239	0.07791562
55	0x3d620f87	0.05519059
56	0x3b6d6226	0.003622183
57	0x3d4f101e	0.05055248
58	0xbd0e76a1	-0.034781102
59	0xbd6c7fd0	-0.05773908
60	0xbd9d5348	-0.076819
61	0x3d49bbca	0.049251355
62	0x3dcc4f27	0.099760346
63	0xbd4102bb	-0.047121745
64	0xbceecdd8	-0.029150888
65	0xbc9b28b9	-0.018940317
66	0x3cb221ce	0.021744635
67	0x3dbcbe35	0.092159666
68	0x3ddb00ef	0.106935374
69	0xbce155e1	-0.02750677
70	0x3d13b43d	0.03606056
71	0x3c490b0d	0.012270701
72	0x3d5cb122	0.053879865
73	0xbd4ccc1a	-0.049999334
74	0x3d5952b4	0.053057387
75	0xbcdb70b8	-0.026787147
76	0x3e1dc55c	0.15407318
77	0x3c07abd0	0.008280709
78	0x3db0e167	0.08636742
79	0xbcf536d1	-0.029933365
80	0x3d15da1a	0.03658495
81	0x3d2c286d	0.04203074
82	0xbd6cdb81	-0.057826523
83	0xbd231e8b	-0.03982405
84	0x3d6a3a4f	0.057184514
85	0xbcd63fec	-0.026153527
86	0x3da66370	0.08124435
87	0xbcdb7bb8	-0.026792392
88	0xbd0512da	-0.03248868
89	0x3e80cbb3	0.2515541
90	0x3dc543f5	0.096321024
91	0x3db79005	0.089630164
92	0x3e039988	0.12851536
93	0x3c689a68	0.01419697
94	0xbd069bf8	-0.032863587
95	0x3e36f858	0.17868173
96	0xbd8e21a2	-0.06940009
97	0xbc009200	-0.007847309
98	0x3dead2eb	0.11466011
99	0x3d7eb10a	0.062180556
100	0x3de18dff	0.11013412
101	0x3d247ac8	0.040156156
102	0x3dcd097c	0.100115746
103	0x3d4f99d1	0.0506838
104	0xbcc28270	-0.023743838
105	0x3dd1e03a	0.10247846
106	0xbc22d040	-0.009937346
107	0x3cde7ecc	0.02716007
108	0xbd220e20	-0.039564252
109	0xbd57884d	-0.05262022
110	0x3dd99f6f	0.10626113
111	0x3e268881	0.1626301
112	0x3c87d044	0.016578801
113	0xbcfb65ac	-0.03068813
114	0x3d0e2b02	0.034708984
115	0x3dc0cd0c	0.094141096
116	0x3e09d99e	0.1346192
117	0x3e05e25a	0.13074628
118	0xbd1b043a	-0.037845828
119	0x3d9dc29d	0.07703135
120	0x3e016739	0.12637033
121	0xbda7493c	-0.08168265
122	0x3e012fa3	0.12615828
123	0xbc73bed0	-0.014877036
124	0xbd005c3d	-0.031337965
125	0x3d638433	0.055545997
126	0xbd84f424	-0.06491879
127	0x3db39734	0.08769074
128	0xbdcbe922	-0.09956576
129	0x3db9c465	0.090706624
130	0x3cc940d3	0.024567043
131	0x3e1d96f0	0.1538961
132	0x3de25495	0.11051289
133	0x3ddde84b	0.10835322
134	0xbd71c18c	-0.05902247
135	0x3e1c56ba	0.15267459
136	0x3d9ab83e	0.07554673
137	0x3d257482	0.040394314
138	0x3daf7939	0.08568043
139	0xbd9ac6b7	-0.07557433
140	0xbc8fa1ba	-0.017533172
141	0x3be3f629	0.006956835
142	0x3d895832	0.06706275
143	0x3d315f35	0.043303687
144	0x3b498600	0.0030750036
145	0x3d11ca33	0.035593223
146	0xbdb65f33	-0.089048766
147	0x3d8a1fcd	0.06744347
148	0x3dbd8b7b	0.092551194
149	0x3df0825e	0.117436156
150	0x3c83434d	0.016023302
151	0xbc49a8f2	-0.012308346
152	0xb9fa6a72	-0.00047763024
153	0x3d2eb6fb	0.042654973
154	0x3cfe9c4c	0.031080388
155	0x3c04dec9	0.008109757
156	0x3e08cd36	0.13359532
157	0x3b139600	0.0022519827
158	0x3d68a079	0.056793664
159	0x3bc19d20	0.0059086233
160	0x3d0e549a	0.03474865
161	0xbda22ae6	-0.079183385
162	0x3dda7da0	0.10668492
163	0xbc8f637e	-0.017503496
164	0x3d7dfd82	0.062009342
165	0x3ca666e2	0.02031273
166	0x3da8918d	0.082308866
167	0x3cb2f6eb	0.021846255
168	0x3cee2048	0.029068127
169	0xbd6b65a0	-0.057469964
170	0x3de9fefa	0.11425586
171	0xbe02eac8	-0.12784874
172	0xbd74d157	-0.059769955
173	0x3c89842c	0.016786657
174	0x3d83f5cb	0.06443366
175	0x3ce23a24	0.027615614
176	0x3b8e542a	0.004343529
177	0x3d7e6552	0.062108345
178	0x3d24dd76	0.040250264
179	0xbd118dfd	-0.0355358
180	0x3da865bc	0.08222529
181	0xbd8124ad	-0.063058235
182	0xbcc372e4	-0.023858495
183	0x3d9c9695	0.07645909
184	0x3b9d6e46	0.0048044054
185	0x3d888535	0.06666032
186	0x3c741f8e	0.014900101
187	0xbd83e681	-0.064404495
188	0x3d7c54d6	0.061604343
189	0xbca93eaa	-0.020659763
190	0x3ade4b9c	0.0016959789
191	0x3d908aa2	0.07057692
192	0x3daa00af	0.08300912
193	0xbd6a3c47	-0.05718639
194	0x3c82cc22	0.015966479
195	0xbb2065e9	-0.0024474806
196	0xbd9ef706	-0.0776196
197	0xbc021290	-0.007938996
198	0x3d27de57	0.040983524
199	0x3c292e40	0.010325968
200	0x3cb16116	0.02165274
201	0x3cf31ac2	0.029675845
202	0x3b08c6e9	0.0020870513
203	0x3d0c9132	0.034318157
204	0xbccb1e09	-0.024794595
205	0xbb77a4e6	-0.0037787496
206	0x3d9622bb	0.07330843
207	0xbc60dc80	-0.013724446
208	0xbbcd84d0	-0.006271936
209	0x3c8795a9	0.016550856
210	0x3c3def47	0.011592693
211	0xbcd3238c	-0.025773786
212	0xbbd11bd5	-0.0063814917
213	0xbdbecf8d	-0.09316931
214	0x3c8e0188	0.017334715
215	0x3dd97ef3	0.10619917
216	0x3d487e75	0.048948724
217	0x3d03fbde	0.03222262
218	0xbb375f84	-0.0027980516
219	0xbd217460	-0.039417624
220	0xbc02136f	-0.007939204
221	0x3dc8ea31	0.098102935
222	0x3dc69579	0.096964784
223	0xbcbc49cc	-0.022984408
224	0x3db1c9d7	0.08681076
225	0x3e1a7153	0.15082292
226	0xbcd4d1b4	-0.0259789
227	0xbd9b76a5	-0.07590989
228	0x3d98713a	0.07443471
229	0xb8b1df84	-8.481651e-05
230	0x3cf3100a	0.029670734
231	0x3d3d59d4	0.046228245
232	0x3da6bc30	0.08141363
233	0xbd1288a4	-0.035774842
234	0x3abf2557	0.0014583272
235	0xbca7e5c3	-0.020495301
236	0xbc6de12c	-0.014519017
237	0xbd4ba4c3	-0.049717676
238	0x3c747267	0.014919854
239	0xbdbfff9f	-0.09374928
240	0x3db18178	0.08667272
241	0x3da09bea	0.07842238
242	0x3d419707	0.04726317
243	0x3df92f9f	0.12167286
244	0x3dcc3f09	0.099729605
245	0xbc79c043	-0.015243593
246	0x3d5d038a	0.053958453
247	0xbc1aac79	-0.009440535
248	0x3cb269bb	0.021778932
249	0x3e01fb36	0.12693486
250	0x3d16e0e6	0.036835574
251	0x3dd03faf	0.10168397
252	0xbbca8905	-0.006180885
253	0xbd0a95a8	-0.03383413
254	0xbb7929a0	-0.0038019195
255	0xbd2aa566	-0.041661642

stacks.0.blocks.0.theta_layer.bias f4 [51]
0	0x3db7f7f0	0.08982837
1	0x3e02b2f2	0.12763575
2	0x3d4e1696	0.05031451
3	0x3c73a273	0.014870274
4	0xbc8cf5e9	-0.017207103
5	0xbd01ec51	-0.03171951
6	0xbcf82a26	-0.030293535
7	0x3c4c0795	0.01245298
8	0x3d495079	0.04914901
9	0x3d5df788	0.054191142
10	0x3e038dba	0.12847033
11	0x3df8c664	0.12147215
12	0xbca88124	-0.020569392
13	0x3e0829b8	0.13297164
14	0x3e4203a3	0.189467
15	0x3d9fd579	0.078043886
16	0xbcbd441e	-0.02310377
17	0x3dcded63	0.100550435
18	0x3e106034	0.14099199
19	0x392bbfad	0.00016379236
20	0x3da2dbaf	0.079520576
21	0x3d98ee5b	0.07467338
22	0xbd03ae9a	-0.032148935
23	0x3dc70c58	0.09719151
24	0x3d82290d	0.06355486
25	0x3d8e759a	0.069560245
26	0x3c7966b2	0.015222238
27	0x3e2b6d89	0.16741003
28	0x3d9f2289	0.07770259
29	0x3e0b4e13	0.13604002
30	0xbc9b6739	-0.018970119
31	0x3bfb0fea	0.007661809
32	0x3c1d513a	0.009601885
33	0xbc466a3f	-0.012110292
34	0x3e1cc0d2	0.1530793
35	0xbcea2c90	-0.028585702
36	0x3d5fffef	0.054687437
37	0xbd50911d	-0.05091964
38	0x3da04d5e	0.078272566
39	0x3d5484e0	0.051884532
40	0xbd87f2c1	-0.066380985
41	0x3d9fc083	0.078003906
42	0x3cf1654c	0.029467247
43	0x3dad060d	0.0844842
44	0xbd0ffe10	-0.035154402
45	0x3c27499f	0.010210424
46	0xbcf2f695	-0.029658595
47	0x3d3bded9	0.04586682
48	0x3ddedf7b	0.10882469
49	0x3be544b1	0.006996714
50	0xbd8983b8	-0.067145765
