RNN_models/close_RSI_28_hma_15_15min_t2.pth (torch, 103570 bytes, 20 tensors)

stacks.0.blocks.0.fc1.weight f4 [50, 42]
-0.12547758 0.036736384 0.06715427 0.14826564 0.004931167 -0.15425567 -0.092552125 0.00014905632
0.11555134 -0.0016680956 -0.1430315 -0.09298056 -0.025406554 0.14075525 0.0050311834 0.031331077
-0.0039379895 -0.08514649 -0.0025680214 -0.13816701 -0.06664747 -0.09520276 0.048718363 -0.03352303
0.048622385 -0.12754817 0.010219663 0.101556644 -0.09783575 -0.074771866 0.10935943 0.08137363
0.08082026 0.004696071 -0.050736666 -0.15051581 -0.0919099 -0.0819842 -0.1251875 0.058996692
-0.053815447 0.020772666 -0.052514695 0.060009968 0.042706512 0.06527937 0.09681382 -0.06903946
-0.04226731 -0.12205332 0.02262429 0.13505659 0.11025376 0.06768319 0.09722902 -0.012271964
0.09579508 -0.010564067 -0.10095425 0.008365052 0.048791386 0.03488499 -0.10923075 0.12471282
0.09622085 0.16339807 0.11376284 -0.06206655 0.013050079 -0.03297161 0.010497019 -0.09184114
-0.029664623 0.09935599 -0.08372356 0.096171 -0.042787004 0.09516 0.096786544 0.10436277
0.09875861 0.0026427142 -0.08209305 0.101639636 -0.10283868 0.05382216 -0.056705706 0.010146812
-0.079173096 -0.032408312 -0.045517333 -0.13993378 -0.015918046 -0.08382923 -0.12238787 -0.07030768
-0.016004845 -0.13798937 -0.13227117 -0.042099044 -0.019474491 -0.059789576 -0.1087113 -0.074853726
-0.0017122924 -0.07094902 0.06859185 -0.08069199 0.053386763 -0.021612257 0.08528711 -0.011015192
0.061767623 0.15205123 -0.15374468 0.0804878 -0.14625998 0.03227289 -0.07520069 0.11057486
0.0249428 0.060789943 0.061589673 -0.07602664 0.0691244 0.07127157 -0.14254078 0.060895775
-0.0950006 -0.00388759 0.05547393 -0.016203279 -0.11260454 0.0053607067 -0.0714047 -0.05334383
0.011587208 -0.11975897 -0.12099282 -0.0009808113 0.016157834 -0.08403494 -0.0010418029 0.06076053
0.059718285 0.092240565 -0.031175692 -0.090327494 -0.13618398 -0.059062943 -0.07019701 0.13509667
0.06319705 0.03646935 -0.092489585 0.017364409 0.08875838 -0.13880809 0.10964022 -0.08443199
0.062321212 -0.03876107 -0.09754663 0.082467854 0.08552253 0.09136676 -0.16140972 -0.07986609
-0.10388173 -0.12527531 0.050500736 -0.14141247 0.08304636 0.0909673 -0.1287082 0.02109082
-0.054386094 -0.10304162 0.031449467 -0.09789318 0.12958728 0.040938213 0.08791189 0.08675866
0.14717285 -0.04777217 0.118560776 0.10844983 0.020546764 0.019475564 0.016153812 -0.148911
-0.10361166 -0.09954354 -0.10439878 -0.114920974 0.10601418 0.054438993 -0.10527812 0.009983778
-0.07784728 -0.054239787 0.03000176 -0.008575112 -0.042452164 -0.05062584 -0.15248618 0.046025023
-0.110566214 -0.10515712 0.084631644 -0.015465863 -0.035435256 0.015858633 -0.0008367902 0.09284499
-0.044349667 -0.03121071 0.014848735 -0.08998358 -0.10393689 0.07516729 0.04153986 -0.16072765
0.05633787 -0.14764926 -0.12508807 -0.016483668 -0.05289032 -0.09700643 0.035995454 0.12571485
-0.0075907293 0.14452484 -0.07890343 0.10831341 -0.025796087 -0.16472551 -0.14451262 0.11862106
-0.17465295 0.11943815 0.13970484 0.015173459 -0.119698144 0.1789854 0.023315659 0.14052649
0.17655264 -0.027333068 0.19216372 0.15873478 -0.05223906 -0.16232908 -0.11393854 0.09960669
00000000: 327d 00be e478 163d 2e88 893d f3d2 173e
00000010: a095 a13b 33f5 1dbe f88b bdbd 004c 1c39
00000020: 2ea6 ec3d 00a4 daba d976 12be 986c bebd
00000030: 6821 d0bc 2522 103e a0dc a43b 0455 003d
00000040: 400a 81bb 4861 aebd 404c 28bb a77b 0dbe
00000050: 787e 88bd aaf9 c2bd e88c 473d 724f 09bd
00000060: 4428 473d fd9b 02be 6070 273c eefc cf3d
00000070: 1c5e c8bd fe21 99bd d6f7 df3d 38a7 a63d
00000080: 1885 a53d 80e1 993b 40d1 4fbd d120 1abe
00000090: 423b bcbd 55e7 a7bd 2731 00be 84a6 713d
000000a0: 966d 5cbd 702b aa3c a619 57bd 03cd 753d
000000b0: 06ed 2e3d 31b1 853d 5346 c63d 8f64 8dbd
000000c0: 7d20 2dbd 17f7 f9bd 9356 b93c 464c 0a3e
000000d0: b9cc e13d 7c9d 8a3d 0220 c73d 5910 49bc
000000e0: 3630 c43d e914 2dbc 1ac1 cebd 920d 093c
000000f0: 7ad9 473d 90e3 0e3d 5fb4 dfbd 6f69 ff3d
00000100: 700f c53d d351 273e 7efc e83d 7f39 7ebd
00000110: 00d0 553c 3d0d 07bd b0fb 2b3c 3517 bcbd
00000120: 3903 f3bc 277b cb3d 4277 abbd 4df5 c43d
00000130: 6d41 2fbd 3fe3 c23d 0638 c63d 26bc d53d
00000140: f441 ca3d 6331 2d3b 6720 a8bd 7128 d03d
00000150: 169d d2bd a074 5c3d 3e44 68bd d03e 263c
00000160: 8125 a2bd 94be 04bd 6270 3abd cd4a 0fbe
00000170: 9066 82bc a9ae abbd 7ea6 fabd 79fd 8fbd
00000180: 981c 83bc 164d 0dbe 1872 07be 0c70 2cbd
00000190: f888 9fbc eae5 74bd 08a4 debd e94c 99bd
000001a0: 006f e0ba b84d 91bd e279 8c3d d841 a5bd
000001b0: 14ac 5a3d 300c b1bc 02ab ae3d 1079 34bc
000001c0: 0c00 7d3d 51b3 1b3e 3f6f 1dbe cad6 a43d
000001d0: 2dc5 15be 9430 043d d202 9abd 1275 e23d
000001e0: d854 cc3c e0fe 783d 7445 7c3d dbb3 9bbd
000001f0: 1891 8d3d d4f6 913d 36f6 11be d96d 793d
00000200: ad8f c2bd f0c6 7ebb a238 633d bdbc 84bc
00000210: 369d e6bd dea8 af3b a13c 92bd 0f7f 5abd
00000220: 46d8 3d3c 3144 f5bd 15cb f7bd 918e 80ba
00000230: 6f5d 843c 831a acbd 1b8d 88ba 09e0 783d
00000240: 299b 743d 9fe8 bc3d 2a64 ffbc 9ffd b8bd
00000250: d073 0bbe fceb 71bd 73c3 8fbd c856 0a3e
00000260: 746d 813d e360 153d 2e6b bdbd ce3f 8e3c
00000270: f4c6 b53d b523 0ebe 0d8b e03d aeea acbd
00000280: 8744 7f3d eec3 1ebd 87c6 c7bd e8e4 a83d
00000290: 7026 af3d 7f1e bb3d 9748 25be d590 a3bd
000002a0: f2bf d4bd 2c48 00be dcd9 4e3d 6ece 10be
000002b0: 3614 aa3d 104d ba3d 15cc 03be a8c6 ac3c
000002c0: f4c3 5ebd 7c07 d3bd 28d1 003d 387c c8bd
000002d0: 87b2 043e d4ae 273d 260b b43d 86ae b13d
000002e0: 7bb4 163e c0ac 43bd fecf f23d f21a de3d
000002f0: b051 a83c 388b 9f3c 0055 843c 207c 18be
00000300: 5a32 d4bd 7cdd cbbd 07cf d5bd b05b ebbd
00000310: f61d d93d 6cfb 5e3d 0e9c d7bd 0093 233c
00000320: 656e 9fbd 8a2a 5ebd 40c6 f53c a07e 0cbc
00000330: 52e2 2dbd 0a5d 4fbd 5625 1cbe bc84 3c3d
00000340: 8a70 e2bd 9e5c d7bd 5b53 ad3d 8864 7dbc
00000350: 8f24 11bd f7e9 813c 0a5c 5bba 8425 be3d
00000360: ffa7 35bd 9aad ffbc 1c48 733c 5049 b8bd
00000370: dddc d4bd 4ff1 993d b325 2a3d ca95 24be
00000380: 8ac2 663d 5e31 17be 1617 00be c208 87bc
00000390: 85a3 58bd 4fab c6bd f86f 133d 65bb 003e
000003a0: a7bb f8bb 52fe 133e 1f98 a1bd 6cd3 dd3d
000003b0: 5152 d3bc cead 28be 1efb 13be 99ef f23d
000003c0: 39d8 32be fd9b f43d c90e 0f3e 1a9a 783c
000003d0: 4d24 f5bd f347 373e 7b00 bf3c 2de6 0f3e
000003e0: 37ca 343e 99e9 dfbc 91c6 443e 5f8b 223e
000003f0: a0f8 55bd 9839 26be 9c58 e9bd 98fe cb3d

stacks.0.blocks.0.fc1.bias f4 [50]
-0.11999715 0.035464123 -0.13477048 -0.128027 0.06369828 0.273654 -0.005425705 0.116943516
0.09462358 0.46076813 0.11785064 -0.07204678 0.07549044 0.026366388 0.10970032 0.33210492
0.03789754 -0.010824037 0.039154883 -0.014637131 0.07201542 -0.21944875 0.11941458 0.106980845
0.09946506 0.00036813322 0.116454735 0.062876284 -0.14738792 -0.1209953 -0.006970216 -0.021424873
0.05379714 0.16753753 0.13140748 0.053805772 0.01894863 0.049931705 0.22637261 0.122617505
-0.039171726 0.096922114 -0.055905066 0.107253626 -0.16292879 0.11774846 -0.02080947 0.050388638
0.15737067 0.10731272
00000000: 11c1 f5bd d442 113d 4601 0abe 8319 03be
00000010: 3e74 823d 611c 8c3e 1dca b1bb 1580 ef3d
00000020: 02ca c13d cde9 eb3e ad5b f13d 438d 93bd
00000030: bb9a 9a3d 53fe d73c 90aa e03d a809 aa3e
00000040: 733a 1b3d 4d57 31bc df60 203d 94d0 6fbc
00000050: d27c 933d 2cb7 60be a28f f43d c618 db3d
00000060: 56b4 cb3d 0102 c139 d27f ee3d 48c5 803d
00000070: dcec 16be 62cc f7bd 6966 e4bb 3783 afbc
00000080: 645a 5c3d f58e 2b3e af8f 063e 7163 5c3d
00000090: 283a 9b3c 3085 4c3d 39ce 673e e31e fb3d
000000a0: 8872 20bd 1a7f c63d b6fc 64bd caa7 db3d
000000b0: ced6 26be 1b26 f13d 9f78 aabc 5164 4e3d
000000c0: c725 213e c5c6 db3d

stacks.0.blocks.0.fc2.weight f4 [50, 50]
-0.062353045 0.06645988 0.12710576 -0.044406686 0.008778885 0.22583136 0.0037841958 0.05031025
0.061483234 0.122132406 -0.04255254 0.09150513 -0.09341289 0.0745248 0.1226454 0.03955659
-0.054560628 -0.05511364 -0.058701955 -0.13218871 0.116565846 -0.035628457 0.112557754 -0.066815875
0.022183627 -0.110069364 0.01568333 0.07847667 0.0312861 -0.038012184 -0.110201195 -0.030515991
-0.0155568 0.0073244385 -0.026140755 0.0474343 0.04012175 0.08402264 -0.09629466 -0.07861243
-0.014703617 0.13973139 -0.05977624 0.05141518 0.019627124 -0.061247732 -0.12527259 0.09120789
0.10773135 0.12477097 0.06414108 -0.14057183 -0.046112902 -0.122131035 0.078136295 -0.091701746
-0.09544049 -0.14973639 0.066794276 -0.06775334 0.044955406 -0.10984205 0.04036508 0.118669674
0.12223734 -0.1281718 -0.05430529 -0.0681024 -0.13485494 0.09937611 0.008200613 0.051138975
-0.016456999 0.076878436 0.121242285 0.117871165 -0.14252484 -0.0077583194 0.09704512 -0.1503063
0.12795617 0.03481327 -0.04421587 -0.041120224 -0.001874614 0.094733395 -0.013103619 -0.03622883
0.040991925 -0.12255905 -0.13262106 0.1193444 -0.09860679 0.08014503 -0.068695724 -0.10931135
0.110228136 0.12225337 0.062397942 -0.085824996 0.015903682 -0.040116083 0.1403047 -0.005154372
-0.045248166 0.1620699 -0.11040929 -0.071948566 0.064363465 0.14160945 -0.01901032 -0.023108577
0.0614779 -0.009968886 -0.07475208 0.054560147 -0.10161957 -0.10325481 0.059587464 -0.11378237
0.1350284 -0.08054239 0.03530836 -0.055313136 0.08534376 0.018420607 0.059316766 -0.12370403
-0.076835945 0.13390853 0.060699694 -0.056410093 0.13159944 0.13337876 0.0195925 -0.07073993
0.10356501 -0.1257009 -0.08739117 0.07731603 0.05097514 0.101483256 0.022536308 -0.09559957
0.12810229 -0.09987478 0.1221297 0.03360318 0.02869486 -0.08694356 -0.061888956 -0.03268553
0.03304623 -0.10920656 -0.013622254 0.029977366 0.04640068 -0.0059442515 0.06349373 0.014458257
-0.044990636 0.004283291 -0.0059467554 -0.015488863 0.03239204 0.01976709 -0.06771614 -0.09213279
-0.059648257 0.0023671687 -0.016403168 0.038519513 -0.01972419 -0.09739916 0.043534104 -0.14557277
0.09519036 -0.11803742 0.024632512 -0.09788373 0.106808975 0.056727618 0.011663622 -0.05330387
0.079617955 0.106624804 0.07833645 -0.121495254 -0.1275296 0.013070747 -0.014768273 -0.12432834
-0.13895881 0.10326221 0.058658034 -0.06657514 0.07536569 0.06387334 -0.12727739 -0.11828851
-0.12739201 -0.013633787 -0.13428354 0.10352856 0.071828455 0.2551058 -0.06718785 0.07885356
-0.12409557 0.25423756 0.033794332 0.0421991 -0.058185793 -0.00999535 -0.053673472 0.04346578
0.037228193 -0.00044718385 -0.42719185 0.13337152 -0.20508854 -0.3717608 -0.07591106 0.06718916
0.03986754 -0.12807816 -0.11273818 0.056149326 -0.0037108732 -0.05191156 0.03395328 -0.13207872
0.01725161 -0.048237864 0.057692956 -0.048261154 -0.06476005 0.08480506 0.14326334 -0.0750741
-0.06880604 -0.11997206 0.11581753 0.13178307 -0.06372167 -0.033671793 0.028084606 0.0385286
-0.010552977 -0.029511224 0.036704063 -0.006838461 0.014528498 -0.0002942403 -0.011122853 -0.012949147
00000000: e865 7fbd 1e1c 883d 0328 023e c9e3 35bd
00000010: 50d5 0f3c 5640 673e 4500 783b 1f12 4e3d
00000020: d8d5 7b3d 8e20 fa3d 924b 2ebd 0b67 bb3d
00000030: 424f bfbd 75a0 983d 832d fb3d 1706 223d
00000040: f77a 5fbd d7be 61bd 7671 70bd 7a5c 07be
00000050: 13ba ee3d 25ef 11bd ae84 e63d c3d6 88bd
00000060: 70ba b53c 0c6c e1bd 547a 803c 60b8 a03d
00000070: db25 003d aab2 1bbd 2ab1 e1bd acfc f9bc
00000080: f3e1 7ebc d801 f03b 2325 d6bc 784a 423d
00000090: b456 243d 1014 ac3d 2236 c5bd 8eff a0bd
000000a0: 71e7 70bc bf15 0f3e eed7 74bd b998 523d
000000b0: 10c9 a03c e7de 7abd 7547 00be 34cb ba3d
000000c0: 41a2 dc3d ec87 ff3d 665c 833d 10f2 0fbe
000000d0: e2e0 3cbd d61f fabd ec05 a03d 20ce bbbd
000000e0: 4e76 c3bd 7f54 19be 70cb 883d 43c2 8abd
000000f0: 2923 383d def4 e0bd db55 253d 1609 f33d
00000100: 9257 fa3d 783f 03be 396f 5ebd 4579 8bbd
00000110: 6a17 0abe b485 cb3d dd5b 063c 1a77 513d
00000120: d4d0 86bc 7172 9d3d e04d f83d 7066 f13d
00000130: 08f2 11be 8039 febb 98bf c63d e5e9 19be
00000140: f106 033e 5c98 0e3d b31b 35bd ae6d 28bd
00000150: 9cb5 f5ba 9503 c23d 90b0 56bc af64 14bd
00000160: 26e7 273d 3d00 fbbd d1cd 07be d66a f43d
00000170: 5bf2 c9bd 1423 a43d 58b0 8cbd a1de dfbd
00000180: 4abf e13d fa5f fa3d fc94 7f3d 04c5 afbd
00000190: 7048 823c c350 24bd 09ac 0f3e 02e6 a8bb
000001a0: 2456 39bd a7f5 253e 441e e2bd c559 93bd
000001b0: fed0 833d 1102 113e 88bb 9bbc 334e bdbc
000001c0: 40d0 7b3d 8a54 23bc 9e17 99bd 767a 5f3d
000001d0: ec1d d0bd 4277 d3bd fc11 743d bb06 e9bd
000001e0: e344 0a3e 69f3 a4bd 809f 103d 0790 62bd
000001f0: b6c8 ae3d d0e6 963c 23f6 723d 8a58 fdbd
00000200: 2a5c 9dbd 511f 093e 3ea0 783d 450e 67bd
00000210: 01c2 063e 7194 083e 7380 a03c 19e0 90bd
00000220: e419 d43d bdb7 00be 24fa b2bd de57 9e3d
00000230: 4fcb 503d 74d6 cf3d 109e b83c b5c9 c3bd
00000240: 3f2d 033e 268b ccbd 231f fa3d 7da3 093d
00000250: 7c11 eb3c 770f b2bd 467f 7dbd 43e1 05bd
00000260: 7c5b 073d b0a7 dfbd e02f 5fbc 1893 f53c
00000270: a40e 3e3d ffc7 c2bb 0009 823d 53e2 6c3c
00000280: 1a48 38bd d95a 8c3b 00dd c2bb 00c5 7dbc
00000290: 84ad 043d 98ee a13c c2ae 8abd 1eb0 bcbd
000002a0: bb51 74bd 8022 1b3b f05f 86bc a3c6 1d3d
000002b0: a094 a1bc 3679 c7bd d150 323d 0711 15be
000002c0: 2af3 c23d 9abd f1bd 1fca c93c 4477 c8bd
000002d0: aabe da3d 385b 683d c718 3f3c 2955 5abd
000002e0: bd0e a33d 1b5e da3d dc6e a03d 81d2 f8bd
000002f0: 1f97 02be b026 563c a0f6 71bc db9f febd
00000300: 384b 0ebe 237b d33d 6843 703d 8c58 88bd
00000310: 5459 9a3d 07d0 823d 0155 02be 3f41 f2bd
00000320: 0d73 02be 3f60 5fbc a081 09be c806 d43d
00000330: cc1a 933d 3a9d 823e c999 89bd fa7d a13d
00000340: d125 febd 6d2b 823e ed6b 0a3d f7d8 2c3d
00000350: 3a54 6ebd 89c3 23bc b7d8 5bbd 2c09 323d
00000360: 977c 183d 0074 eab9 e4b8 dabe 8b92 083e
00000370: bb02 52be 6e57 bebe 4277 9bbd 789a 893d
00000380: 254c 233d ec26 03be 46e3 e6bd d6fc 653d
00000390: 1f32 73bb 37a1 54bd 9812 0b3d a53f 07be
000003a0: 4053 8d3c 1195 45bd 734f 6c3d 7dad 45bd
000003b0: eba0 84bd 46ae ad3d a0b3 123e 73c0 99bd
000003c0: 2eea 8cbd e9b3 f5bd be31 ed3d 24f2 063e
000003d0: 8280 82bd 6feb 09bd b011 e63c 2ad0 1d3d
000003e0: 65e6 2cbc 86c1 f1bc 0057 163d 2b15 e0bb
000003f0: f008 6e3c 4444 9ab9 a03c 36bc a928 54bc

stacks.0.blocks.0.fc2.bias f4 [50]
-0.04375617 -0.012331404 -0.042461205 0.106452644 0.2937172 -0.1423368 -0.15332025 -0.057961725
-0.063049205 -0.09760376 0.031208716 -0.15310419 -0.057737682 -0.13729581 -0.116890535 -0.04490444
0.11329977 0.01232442 0.16603388 0.004673129 0.110532574 0.13468939 -0.05270797 0.20834658
0.13504335 -0.114972726 0.11249771 -0.0105016325 0.11935556 -0.13253017 0.04938958 0.050091133
-0.042254627 -0.01760271 -0.032631986 -0.18811782 -0.052612375 -0.0519798 -0.11888962 -0.02311492
0.16958416 -0.009999425 -0.036181018 -0.023450794 0.33601466 0.054787334 0.030809632 -0.008143903
0.0028075615 -0.07146678
00000000: ab39 33bd a809 4abc cdeb 2dbd d803 da3d
00000010: 1a62 963e bdc0 11be fcff 1cbe 4669 6dbd
00000020: f11f 81bd 7be4 c7bd 6ca9 ff3c 58c7 1cbe
00000030: 597e 6cbd 4697 0cbe 4e64 efbd b8ed 37bd
00000040: b609 e83d 5dec 493c c904 2a3e 0c21 993b
00000050: e75e e23d 04ec 093e 50e4 57bd ce58 553e
00000060: ce48 0a3e d276 ebbd 3365 e63d 0a0f 2cbc
00000070: b070 f43d fdb5 07be ba4c 4a3d 5c2c 4d3d
00000080: 3013 2dbd 8f33 90bc 1ea9 05bd f5a1 40be
00000090: 1380 57bd c5e8 54bd 677c f3bd 805b bdbc
000000a0: 78a7 2d3e a1d4 23bc 8c32 14bd e11b c0bc
000000b0: 1d0a ac3e af68 603d 7b64 fc3c 016e 05bc
000000c0: 11ff 373b 2d5d 92bd

stacks.0.blocks.0.fc3.weight f4 [50, 50]
0.016514072 0.027413871 -0.08719469 -0.07725424 0.22650093 -0.038952406 -0.057162087 -0.0073789028
0.043017432 -0.033293568 0.12290824 0.086802565 -0.11559143 -0.06684675 0.061707705 0.054130808
0.07187009 0.033933442 -0.007823163 0.04753333 0.02780436 -0.119593136 -0.015756264 0.090425126
-0.025547782 0.11741881 0.1438836 0.090729095 0.050518904 -0.09459886 0.0020186184 0.14240424
-0.011629999 -0.08320534 -0.008087888 -0.123751976 0.1271662 0.06501317 0.073970735 0.049140304
-0.0787219 0.095253155 0.12145056 -0.019805249 0.1199721 -0.0127312895 0.075515576 0.06910691
0.08350745 0.04523675 0.09295324 -0.07670696 -0.058706284 -0.08292028 0.007445082 -0.042408936
0.00085906684 -0.03622348 0.0138773825 0.011241034 -0.11377446 0.0019081895 -0.09871163 -0.030171597
0.1351661 -0.025999669 0.055308178 0.11992996 0.0943796 -0.046970524 0.047239453 -0.050043337
-0.06675237 -0.0482686 -0.080531 0.11165805 -0.09415839 -0.14034706 -0.09821963 0.104526505
0.087773524 -0.0090952 -0.02311575 0.08831666 0.062059145 -0.10307165 0.052947707 0.10423209
0.024680113 -0.08223832 0.0021936065 -0.018860208 -0.12086362 0.0021214106 -0.012660757 -0.13942444
0.020466201 0.002208367 0.11868645 -0.12680188 0.08686761 0.14549339 0.09751271 0.08039679
0.012749426 -0.04618334 -0.1359531 0.05457599 0.12515491 0.09549433 -0.059186764 0.12524052
4.690712e-05 0.051974345 0.00907582 0.08143425 0.016422147 -0.14225248 -0.01765923 -0.0026610815
-0.0012379389 0.07257851 0.08480351 0.06088312 -0.010138277 -0.02876046 -0.10311222 0.023576073
-0.13941933 0.13665108 -0.036282513 0.110028036 0.087553285 -0.07189059 -0.14568084 -0.037703622
0.021851834 -0.108721 -0.14465334 0.058657825 -0.09742311 -0.047574777 0.064789474 -0.114117675
0.16122857 -0.07017042 0.041493963 -0.011625369 0.14975233 -0.03745068 0.085654266 -0.025401974
0.0021942116 0.12228083 0.06608443 0.04587573 0.09641046 -0.09211107 -0.0113968635 0.06653364
-0.118527 0.047042187 -0.1153413 -0.13113508 0.06865735 0.018923013 0.06691653 0.09457472
0.1645286 0.13031818 -0.055054028 0.103548884 0.14527713 0.042908728 0.009458719 -0.051912315
0.09317776 0.06821499 0.03033092 -0.13715705 -0.0044642966 0.04287585 0.016645864 0.09877453
0.033746198 -0.063286565 0.13863301 0.002494076 0.06506091 0.056148365 0.12249389 -0.08037368
-0.093719065 -0.012652917 0.035341255 -0.052238252 0.015651844 0.007928191 -0.09440233 0.010440275
0.07331356 0.06998691 -0.14958765 -0.1537675 -0.10115708 -0.10814438 -0.09427032 0.12639451
-0.09714593 0.13369085 0.00572552 -0.106271304 -0.017799012 0.13941 -0.099010035 0.10630463
-0.009181565 0.010358086 0.06253785 0.04368141 -0.025341282 0.08292748 0.03019313 0.046640377
0.09570829 -0.12298876 -0.12831385 -0.088490166 0.032437623 0.122682735 0.096508 -0.04934971
-0.13191627 0.04566397 -0.0482035 0.02170654 0.071467735 0.043930717 -0.020409064 -0.003301829
-0.0870736 -0.06922178 0.11079116 0.01645079 -0.0575971 -0.013037348 0.015954573 0.100068286
0.13659179 0.04789698 0.074370705 0.061863378 0.054651767 0.10493593 0.018511115 0.12993719
00000000: 8548 873c 0e93 e03c 2193 b2bd 7937 9ebd
00000010: dcef 673e 8f8c 1fbd cb22 6abd b9ca f1bb
00000020: 0c33 303d d65e 08bd 51b7 fb3d 8bc5 b13d
00000030: 33bb ecbd f3e6 88bd 38c1 7c3d 44b8 5d3d
00000040: a030 933d cbfd 0a3d b92c 00bc 4fb2 423d
00000050: f8c5 e33c 3fed f4bd 4813 81bc cf30 b93d
00000060: 9549 d1bc 4679 f03d 3956 133e 2dd0 b93d
00000070: e9ec 4e3d 0cbd c1bd cc4a 043b 6bd2 113e
00000080: c08b 3ebc 9067 aabd 1083 04bc ad71 fdbd
00000090: db37 023e a025 853d f87d 973d 5847 493d
000000a0: f338 a1bd 1614 c33d 12bb f83d 9e3e a2bc
000000b0: efb3 f53d e696 50bc e9a7 9a3d ec87 8d3d
000000c0: f405 ab3d 2c4a 393d 455e be3d 8a18 9dbd
000000d0: 0076 70bd 1cd2 a9bd e0f5 f33b feb4 2dbd
000000e0: 0033 613a 125f 14bd f65d 633c 502c 383c
000000f0: 9602 e9bd 371c fa3a 5329 cabd 6d2a f7bc
00000100: fb68 0a3e 42fd d4bc d48a 623d d79d f53d
00000110: 174a c13d 2a64 40bd 287e 413d 3efa 4cbd
00000120: 77b5 88bd 4cb5 45bd 70ed a4bd faac e43d
00000130: 1dd6 c0bd 24b7 0fbe 6027 c9bd fe11 d63d
00000140: 9bc2 b33d 0904 15bc 3e5d bdbc 5ddf b43d
00000150: bb31 7e3d 3b17 d3bd b2df 583d a277 d53d
00000160: f32d ca3c 906c a8bd 9cc2 0f3b b980 9abc
00000170: 5887 f7bd 5d07 0b3b 106f 4fbc 48c5 0ebe
00000180: bca8 a73c 40ba 103b e211 f33d 5ad8 01be
00000190: a5e7 b13d 38fc 143e beb4 c73d 12a7 a43d
000001a0: f8e2 503c be2a 3dbd 4a37 0bbe 138b 5f3d
000001b0: 9c28 003e 8892 c33d d26d 72bd 0d3f 003e
000001c0: 23be 4438 0de3 543d c0b2 143c 00c7 a63d
000001d0: bd87 863c a2aa 11be 17aa 90bc 8a65 2ebb
000001e0: 5642 a2ba 0ba4 943d 76ad ad3d 9460 793d
000001f0: 041b 26bc 0e9b ebbc 802c d3bd 9c22 c13c
00000200: f1c3 0ebe 43ee 0b3e f99c 14bd 6156 e13d
00000210: 234f b33d 603b 93bd 5c2d 15be 1d6f 1abd
00000220: 9e02 b33c 1ea9 debd 0120 14be 3043 703d
00000230: c485 c7bd c5dd 42bd 58b0 843d 87b6 e9bd
00000240: 1a19 253e 82b5 8fbd 93f5 293d 5578 3ebc
00000250: ad58 193e e265 19bd 816b af3d cd17 d0bc
00000260: c3cc 0f3b 5f6e fa3d 4657 873d 31e8 3b3d
00000270: d972 c53d bba4 bcbd e9b9 3abc ca42 883d
00000280: 49be f2bd 4faf 403d 0f38 ecbd 4648 06be
00000290: 3a9c 8c3d 6f04 9b3c 890b 893d 64b0 c13d
000002a0: 2f7a 283e 2172 053e 5580 61bd 7011 d43d
000002b0: 87c3 143e 10c1 2f3d bef8 1a3c 02a2 54bd
000002c0: fbd3 be3d 4db4 8b3d 8d78 f83c e672 0cbe
000002d0: 3c49 92bb 969e 2f3d e85c 883c 4d4a ca3d
000002e0: 7439 0a3d 639c 81bd d0f5 0d3e a773 233b
000002f0: a83e 853d d4fb 653d 14de fa3d f59a a4bd
00000300: c8ef bfbd 2e4e 4fbc fec1 103d c7f7 55bd
00000310: 4c38 803c 3ee5 013c 0256 c1bd b00d 2b3c
00000320: 6b25 963d 4c55 8f3d 812d 19be 3a75 1dbe
00000330: 712b cfbd cd7a ddbd cc10 c1bd 906d 013e
00000340: 72f4 c6bd 41e6 083e 259d bb3b c5a4 d9bd
00000350: 3ccf 91bc 7fc1 0e3e c6c5 cabd 3eb6 d93d
00000360: 466e 16bc f6b4 293c d813 803d 47eb 323d
00000370: 8598 cfbc e2d5 a93d 9557 f73c fb09 3f3d
00000380: b502 c43d 88e1 fbbd b564 03be 553a b5bd
00000390: 50dd 043d 1641 fb3d fca5 c53d ec22 4abd
000003a0: 0f15 07be 250a 3b3d 0971 45bd ead1 b13c
000003b0: ad5d 923d b2f0 333d e930 a7bc 8063 58bb
000003c0: a553 b2bd 26c4 8dbd 7ae6 e23d cfc3 863c
000003d0: f0ea 6bbd 9a9a 55bc 2ab3 823c 9af0 cc3d
000003e0: b8de 0b3e a02f 443d ab4f 983d 7464 7d3d
000003f0: 88da 5f3d a6e8 d63d 9fa4 973c 410e 053e

stacks.0.blocks.0.fc3.bias f4 [50]
-0.03780881 -0.004373479 0.022033034 0.09234434 -0.04367532 0.099256225 0.0019658809 0.111629695
-0.05624406 0.051372737 0.09500154 -0.034321252 -0.07463801 0.09149369 0.09515788 0.043240104
0.09679369 -0.012315854 -0.07849502 0.037549805 0.23923326 0.020579107 -0.09313367 0.10068171
0.2282008 0.0688758 -0.117963456 0.05798849 0.006121634 0.081122786 0.047592 -0.029557623
0.1202909 0.008439699 0.010813479 0.06035943 -0.0984256 0.103260554 0.13041238 -0.046567436
0.09184657 0.090452306 -0.107559316 0.34132397 0.17262252 -0.018410824 0.112176485 -0.0896923
0.026931833 0.012891385
00000000: 69dd 1abd 674f 8fbb 9f7e b43c 081f bd3d
00000010: e4e4 32bd d946 cb3d 02d6 003b 1c9e e43d
00000020: 2c60 66bd 386c 523d 2b90 c23d 7194 0cbd
00000030: d0db 98bd 0b61 bb3d 22e2 c23d 891c 313d
00000040: c53b c63d 70c8 49bc ffc1 a0bd d3cd 193d
00000050: 90f9 743e 8495 a83c debc bebd 3632 ce3d
00000060: 78ad 693e c10e 8d3d d396 f1bd 5785 6d3d
00000070: fd97 c83b b423 a63d d4ef 423d d422 f2bc
00000080: 135b f63d aa46 0a3c 052b 313c 733b 773d
00000090: 5c93 c9bd 457a d33d d38a 053e 7fbd 3ebd
000000a0: 0e1a bc3d 0f3f b93d 0f48 dcbd 04c2 ae3e
000000b0: f5c3 303e 4cd2 96bc c9bc e53d 99b0 b7bd
000000c0: 26a0 dc3c 6336 533c

stacks.0.blocks.0.fc4.weight f4 [50, 50]
0.019940358 0.010642639 0.093187414 0.11753838 -0.13429235 0.02450513 -0.10165866 -0.04376676
-0.045074604 -0.09033074 -0.076895826 -0.033422522 -0.12685221 0.088574395 0.1141084 0.022192594
0.1257726 0.07555315 -0.13946475 0.088953905 -0.067750536 -0.14005716 0.098126926 0.050753545
-0.08232497 -0.06649232 -0.09602327 -0.053835504 -0.08755218 0.10025936 -0.1284944 -0.132457
-0.11335064 -0.13460402 0.0772184 0.034226764 0.04421724 0.07110531 0.107256144 0.0070095505
0.1210186 -0.1348034 0.034751058 0.052979574 0.08310184 0.09172945 0.09197676 -0.13944712
0.023401603 -0.06621871 -0.12002673 -0.011745143 0.0761106 -0.092580214 -0.112524085 0.004217297
0.021376468 0.07429848 0.012906389 -0.14107895 0.041657753 -0.14217496 -0.07817103 -0.0003683269
-0.0012387484 0.026409626 0.03370717 0.032225613 -0.113052756 0.013007272 -0.11026263 0.0582749
-0.091600396 0.07049339 0.0191641 -0.0874628 -0.1217106 -0.12447994 0.011350691 -0.017206991
-0.021759335 0.030115962 -0.011385434 0.12677039 0.04720153 -0.046474032 -0.019373676 0.047899667
-0.07051173 -0.082337946 -0.10863729 -0.00571627 0.06761809 -0.0227637 0.029164193 -0.066472836
-0.0709725 -0.057915673 -0.14050753 0.10137294 0.09967385 -0.13651286 0.1416499 0.059146512
0.043870844 -0.06210161 -0.13059951 0.066230915 -0.014363599 0.13331164 0.00020548886 0.033802103
0.102415845 -0.014841422 -0.0016099662 -0.10011711 -0.009684404 0.019001897 0.0783833 0.018753594
0.09253909 0.03288474 0.025087487 0.06340557 -0.086644016 0.14280802 0.14019464 0.0708009
-0.010696319 -0.057725158 -0.025138825 0.039298117 -0.068104826 -0.06703174 -0.13358241 0.0009697974
-0.09977141 -0.03212001 0.041948214 -0.062386915 0.07427074 -0.07803441 -0.13219188 -0.10805337
0.118434764 0.09801249 0.092057645 -0.0713886 -0.09066349 -0.03965803 -0.02491863 0.13443695
-0.039612457 0.04493773 0.13176717 -0.08895115 -0.13031328 0.020777166 -0.08685723 0.022050709
0.082010135 0.007771969 0.12467165 0.020599693 -0.044861056 0.046860367 -0.07176381 0.041341186
-0.10310517 0.02580759 -0.0074715614 -0.037137076 0.071929455 -0.03867235 -0.040301308 -0.054407574
-0.018512316 -0.11751543 -0.034480624 0.027063712 -0.13415553 0.054807484 -0.075342484 0.023744136
-0.08545731 0.07167177 -0.022631273 0.032031342 -0.035552435 0.1266316 0.11090319 -0.12102841
-0.09155687 -0.0603597 -0.06858075 0.07733384 -0.062121928 0.14090662 -0.10999417 -0.04325697
-0.14729083 -0.028296292 -0.024293113 0.03893552 -0.1515457 0.104649834 0.09037569 -0.104868524
-0.08670213 -0.078009315 -0.019543575 0.0077678957 -0.07830611 0.102765456 0.13903473 0.050134785
0.042689275 -0.0032687932 0.00854826 0.03883564 -0.040038735 0.046530183 -0.14766377 -0.120733455
-0.04627326 -0.070225924 0.102071546 0.07056804 -0.111615635 -0.014255721 0.06855059 -0.007970005
-0.08448807 -0.0070619886 -0.07805522 0.06337136 -0.05369072 0.06305888 -0.013649449 0.11018519
-0.053177133 0.08588103 0.01774171 0.11068861 0.09902871 0.035227258 0.03152062 -0.021794945
-0.13195017 0.01592405 0.06582652 0.0036062151 -0.013721004 -0.061027512 0.03234823 -0.052678637
00000000: f659 a33c 775e 2e3c 0bd9 be3d f6b7 f03d
00000010: ef83 09be fbbe c83c 6a32 d0bd c644 33bd
00000020: 26a0 38bd 53ff b8bd 8f7b 9dbd 0ee6 08bd
00000030: 8ce5 01be 7e66 b53d aab1 e93d 3ecd b53c
00000040: 88ca 003e 9cbb 9a3d d9cf 0ebe 772d b63d
00000050: cbc0 8abd 256b 0fbe c5f6 c83d f3e2 4f3d
00000060: fe99 a8bd 202d 88bd d9a7 c4bd 9e82 5cbd
00000070: 8f4e b3bd c854 cd3d 0994 03be cfa2 07be
00000080: 6124 e8bd a3d5 09be ae24 9e3d 5d31 0c3d
00000090: 231d 353d a99f 913d 1ca9 db3d 5fb0 e53b
000000a0: 9ad8 f73d e709 0abe 2057 0e3d 1c01 593d
000000b0: 4c31 aa3d a6dc bb3d 505e bc3d 3acb 0ebe
000000c0: b8b4 bf3c ad9d 87bd 93d0 f5bd b36e 40bc
000000d0: e0df 9b3d b29a bdbd 0773 e6bd 4031 8a3b
000000e0: b41d af3c cd29 983d 5275 533c 0077 10be
000000f0: 52a1 2a3d 5096 11be 2218 a0bd 001c c1b9
00000100: 805d a2ba 0059 d83c 8810 0a3d 01ff 033d
00000110: 3488 e7bd 741c 553c 60d1 e1bd a9b1 6e3d
00000120: fd98 bbbd d75e 903d 08fe 9c3c b21f b3bd
00000130: 6843 f9bd 57ef febd 40f8 393c adf5 8cbc
00000140: a240 b2bc c0b5 f63c f989 3abc 19d0 013e
00000150: 6456 413d 8e5b 3ebd 8bb5 9ebc 7132 443d
00000160: 7468 90bd cca0 a8bd 3a7d debd 8c4f bbbb
00000170: 5a7b 8a3d f07a babc bfe9 ee3c e922 88bd
00000180: 085a 91bd fc38 6dbd 35e1 0fbe 9e9c cf3d
00000190: ce21 cc3d 07ca 0bbe ac0c 113e 9d43 723d
000001a0: eab1 333d 425e 7ebd e1bb 05be 13a4 873d
000001b0: 4d55 6bbc d982 083e 7f78 5739 1374 0a3d
000001c0: 66bf d13d 7029 73bc 8005 d3ba 330a cdbd
000001d0: 56ab 1ebc dea9 9b3c 6c87 a03d 23a1 993c
000001e0: 2285 bd3d 26b2 063d 4684 cd3c c8da 813d
000001f0: 6b72 b1bd 443c 123e 2f8f 0f3e 1000 913d
00000200: 9d3f 2fbc 3771 6cbd f0ef cdbc 10f7 203d
00000210: 8b7a 8bbd f047 89bd d4c9 08be 003a 7e3a
00000220: f454 ccbd 4690 03bd e4d1 2b3d 6c89 7fbd
00000230: 421b 983d 81d0 9fbd 4f5d 07be 164b ddbd
00000240: ed8d f23d c6ba c83d b888 bc3d 3034 92bd
00000250: c8ad b9bd 7570 22bd 2822 ccbc d7a9 093e
00000260: ac40 22bd a010 383d f9ed 063e 052c b6bd
00000270: d870 05be e034 aa3c 34e2 b1bd b0a3 b43c
00000280: eef4 a73d 00ac fe3b da53 ff3d b0c0 a83c
00000290: 3ac0 37bd a8f0 3f3d e8f8 92bd 6055 293d
000002a0: ce28 d3bd 706a d33c 00d4 f4bb 0c1d 18bd
000002b0: c04f 933d e666 1ebd fc12 25bd 7ada 5ebd
000002c0: 24a7 97bc eeab f0bd 8e3b 0dbd b8b4 dd3c
000002d0: 1160 09be d07d 603d 294d 9abd 1083 c23c
000002e0: 3e04 afbd a6c8 923d 3865 b9bc 4c33 033d
000002f0: 6e9f 11bd b7ab 013e 3621 e33d bedd f7bd
00000300: 2b82 bbbd bc3b 77bd 1074 8cbd 3461 9e3d
00000310: 9073 7ebd d349 103e a044 e1bd 382e 31bd
00000320: 68d3 16be a0cd e7bc 5a02 c7bc da7a 1f3d
00000330: cc2e 1bbe a752 d63d e416 b93d 4fc5 d6bd
00000340: e390 b1bd 59c3 9fbd d919 a0bc d589 fe3b
00000350: f45e a0bd b276 d23d 1f5f 0e3e 225a 4d3d
00000360: f3da 2e3d 4039 56bb 000e 0c3c 1f12 1f3d
00000370: a8ff 23bd 6f96 3e3d 2c35 17be 1a43 f7bd
00000380: 0889 3dbd 9cd2 8fbd e30a d13d fa85 903d
00000390: bd96 e4bd d490 69bc 4064 8c3d a094 02bc
000003a0: 1508 adbd 4168 e7bb 6adb 9fbd d8c8 813d
000003b0: cdea 5bbd 0425 813d f0a1 5fbc c6a8 e13d
000003c0: 44d0 59bd 65e2 af3d 1057 913c b6b0 e23d
000003d0: 90cf ca3d 754a 103d c41b 013d 508b b2bc
000003e0: f21d 07be 2773 823c 0ed0 863d 4056 6c3b
000003f0: 10ce 60bc fcf7 79bd 947f 043d 8ec5 57bd

stacks.0.blocks.0.fc4.bias f4 [50]
-0.0076318337 0.04716846 0.14689845 0.03508511 0.08680038 -0.008773088 0.029028255 0.09866234
0.12683381 -0.011231642 0.086275265 0.056182668 -0.029294718 -0.045079954 -0.01186788 0.13014114
0.01295265 0.00873413 -0.09432316 0.118267424 0.05418267 -0.005625273 -0.04363967 -0.089216635
0.05102369 -0.0061678677 0.082408145 0.023043036 -0.13921754 0.08585259 0.03077675 -0.09787681
0.15555584 0.06624791 -0.024762867 0.053312685 0.16508305 -0.028563613 0.07143272 -0.05384315
-0.15479314 -0.043273874 0.019426113 0.042191505 0.1152712 -0.104999 -0.053660523 -0.0006281178
-0.110158324 -0.01594791
00000000: 7614 fabb b733 413d 8c6c 163e 68b5 0f3d
00000010: 66c4 b13d 00bd 0fbc aacc ed3c 7b0f ca3d
00000020: b9e0 013e ec04 38bc 16b1 b03d cc1f 663d
00000030: 7afb efbc c2a5 38bd 7f71 42bc b843 053e
00000040: 5a37 543c 9919 0f3c 802c c1bd 3136 f23d
00000050: a6ee 5d3d 3654 b8bb 83bf 32bd 36b7 b6bd
00000060: 37fe 503d d31b cabb 9ac5 a83d c0c4 bc3c
00000070: 0b8f 0ebe 7cd3 af3d 861f fc3c a373 c8bd
00000080: 084a 1f3e fcac 873d 7fdb cabc 675e 5a3d
00000090: 880b 293e 3dfe e9bc 514b 923d a38a 5cbd
000000a0: 1882 1ebe f23f 31bd 8323 9f3c 00d1 2c3d
000000b0: 4f13 ec3d b709 d7bd 23cb 5bbd 46a8 24ba
000000c0: b09a e1bd 31a5 82bc

stacks.0.blocks.0.theta_layer.weight f4 [43, 50]
0.0007845452 0.13064805 -0.1250861 0.043180227 -0.10472312 0.12708668 -0.065566696 0.01385746
-0.009790705 -0.089136414 0.107554674 -0.09658237 0.12580803 -0.1266019 -0.014003545 -0.08315872
0.020136602 -0.005531309 0.06814715 -0.12799007 0.0054349024 0.027633235 0.0670417 -0.08683688
-0.08629146 0.0132033415 0.13504584 -0.02366522 0.06404258 -0.025064044 -0.099357136 -0.01681262
0.13306911 0.018884948 0.00237356 0.018163089 -0.016811958 -0.058607202 -0.06993062 -0.12596169
-0.02179862 -0.08926053 0.01272687 -0.03822279 0.038519036 -0.05651758 -0.040655717 0.106794916
-0.04618477 -0.05332129 -0.128273 0.14389211 0.0031528713 0.12833835 0.05364384 0.12698568
0.07662706 0.019026747 0.10576929 -0.046861853 0.096042484 0.07802275 -0.11963582 0.103124656
0.10199567 0.05850022 -0.05254191 -0.13011278 -0.11262612 -0.07641836 -0.024713831 -0.0016004998
-0.04838274 0.06352434 0.12415637 -0.015201176 -0.13347761 0.040011853 -0.06783965 0.119634524
-0.111571476 -0.12632573 0.07304504 0.027978247 0.07143576 0.13605127 0.11462932 -0.06513
-0.007690216 0.011301225 0.07995856 0.1381606 0.11123347 -0.05744686 0.049576588 -0.1320714
0.08558698 0.07410755 0.0009895265 -0.07227367 -0.06309827 0.03834653 0.047765788 -0.012381375
-0.1170617 0.00651215 0.049132563 -0.13379915 0.003400536 -0.09150356 0.053503454 -0.046904802
-0.057442956 0.052833747 -0.1039167 -0.040426403 -0.1137607 0.10626815 0.116312265 0.0053809104
0.083242655 -0.061003495 -0.108717956 0.10795298 0.03832929 -0.009337955 -0.10120626 0.050041378
-0.07829749 -0.01252602 -0.035807107 -0.007153305 0.02098177 0.034498796 0.109314464 -0.086568125
-0.07061923 -0.015137321 -0.044542007 -0.057510648 -0.10932797 -0.038537763 0.113729894 -0.05721566
0.0008609976 0.05038314 -0.1411721 -0.12919725 -0.06469558 0.12784395 0.10200779 0.009073689
0.054639183 0.10154541 -0.051341612 -0.08324556 0.030471655 -0.016405642 -0.07665046 0.10318339
0.12299338 0.11541697 -0.04420019 0.08525237 -0.11115832 -0.05578104 0.018072875 0.08779842
-0.050447185 0.053305864 -0.1294969 0.081031494 -0.06477015 -0.040346954 -0.10439512 0.026502375
0.0787511 0.008210048 -0.11040187 -0.00020767748 -0.12118329 -0.093015336 -0.031038197 -0.044735264
-0.021077283 0.098606035 0.14665906 0.0863823 -0.029439561 0.024726234 0.09929914 0.07525146
0.12605178 -0.025669547 0.021074226 -0.023622556 -0.1227758 0.061628457 -0.06402981 0.04295926
0.1036115 0.11831699 0.110268645 0.11522244 -0.01945609 0.13489725 -0.037730508 -0.08954302
0.04277154 -0.13713388 0.010695814 0.10266742 0.06060589 -0.11017621 -0.059694853 0.10188682
0.10446723 -0.015925428 0.052869257 -0.086509325 0.03101499 0.016277138 -0.059086874 0.10872009
-0.13815865 -0.14795735 -0.07725076 0.031249464 -0.010065824 -0.057721697 0.08675 0.04203459
0.00957822 0.020736808 -0.004858466 0.04638733 0.08211347 0.040747 0.11412948 -0.12590027
-0.05980783 -0.13274927 -0.1475077 0.030481292 0.08012129 -0.13941172 0.07322258 -0.1289938
0.04753378 0.08510079 0.079196416 0.028426254 -0.13088979 -0.029164493 -0.05424708 -0.01949098
00000000: f0a9 4d3a 9ac8 053e 9216 00be c0dd 303d
00000010: 1379 d6bd 0323 023e d547 86bd 660a 633c
00000020: 3169 20bc 278d b6bd a045 dc3d facc c5bd
00000030: d2d3 003e eea3 01be 206f 65bc 1e4f aabd
00000040: 84f5 a43c fc3f b5bb bc90 8b3d d40f 03be
00000050: 4417 b23b 185f e23c 294d 893d 89d7 b1bd
00000060: 94b9 b0bd d452 583c 7549 0a3e 90dd c1bc
00000070: c228 833d 1c53 cdbc c17b cbbd 9fba 89bc
00000080: 4543 083e 9bb4 9a3c bb8d 1b3b c2ca 943c
00000090: 3bb9 89bc 1b0e 70bd c937 8fbd 1afc 00be
000000a0: 0593 b2bc 3ace b6bd 5d84 503c 808f 1cbd
000000b0: 23c6 1d3d fa7e 67bd 9c86 26bd 4bb7 da3d
000000c0: 3e2c 3dbd 6d67 5abd ff59 03be 7458 133e
000000d0: 67a0 4e3b 216b 033e a5b9 5b3d 8908 023e
000000e0: a6ee 9c3d fbdd 9b3c 929d d83d 37f2 3fbd
000000f0: ecb1 c43d 64ca 9f3d a003 f5bd 0533 d33d
00000100: 1be3 d03d ed9d 6f3d 3036 57bd 493c 05be
00000110: 86a8 e6bd 3b81 9cbd a974 cabc ddc7 d1ba
00000120: fb2c 46bd 0d19 823d b245 fe3d 5a0e 79bc
00000130: 5bae 08be 78e3 233d 84ef 8abd f202 f53d
00000140: 967f e4bd 885b 01be a398 953d a332 e53c
00000150: e94c 923d 0651 0b3e c7c2 ea3d e162 85bd
00000160: 35fe fbbb c628 393c 50c1 a33d f979 0d3e
00000170: 60ce e33d 664d 6bbd d210 4b3d ba3d 07be
00000180: 3a48 af3d b3c5 973d 00b3 813a 3804 94bd
00000190: aa39 81bd 4011 1d3d 0fa6 433d 40db 4abc
000001a0: 0bbe efbd e063 d53b 3a3f 493d a502 09be
000001b0: 87db 5e3b 3866 bbbd 7026 5b3d 401f 40bd
000001c0: 4e49 6bbd 3368 583d 47d2 d4bd 2896 25bd
000001d0: 5ffb e8bd 1ea3 d93d 2035 ee3d 5952 b03b
000001e0: 207b aa3d cdde 79bd 85a7 debd 7416 dd3d
000001f0: 2cff 1c3d 39fe 18bc 3a45 cfbd 30f8 4c3d
00000200: 6f5a a0bd f039 4dbc 79aa 12bd 4666 eabb
00000210: f6e1 ab3c 9c4e 0d3d 43e0 df3d a14a b1bd
00000220: d1a0 90bd 8702 78bc ae71 36bd 4990 6bbd
00000230: 58e7 dfbd c6d9 1dbd 38eb e83d f85a 6abd
00000240: 92b4 613a 8d5e 4e3d 6b8f 10be 494c 04be
00000250: 1e7f 84bd 86e9 023e 76e9 d03d cfa9 143c
00000260: 56cd 5f3d 0af7 cf3d 954b 52bd a67c aabd
00000270: b19f f93c 2065 86bc ebfa 9cbd d051 d33d
00000280: f4e3 fb3d bb5f ec3d 420b 35bd cb98 ae3d
00000290: f9a6 e3bd a97a 64bd 910d 943c a8cf b33d
000002a0: b5a1 4ebd 4057 5a3d d69a 04be d7f3 a53d
000002b0: 36a6 84bd d942 25bd 1ccd d5bd 821b d93c
000002c0: 4248 a13d 7083 063c 601a e2bd 00c4 59b9
000002d0: f22e f8bd d37e bebd d143 febc 533c 37bd
000002e0: 44aa acbc f6f1 c93d cb2d 163e 34e9 b03d
000002f0: 3c2b f1bc ac8e ca3c 595d cb3d 701d 9a3d
00000300: b813 013e f148 d2bc dba3 ac3c 1784 c1bc
00000310: e171 fbbd 1f6e 7c3d 1022 83bd 0df6 2f3d
00000320: 4432 d43d 2e50 f23d 87d4 e13d bef9 eb3d
00000330: 6162 9fbc 8122 0a3e 4e8b 1abd 5562 b7bd
00000340: 3631 2f3d d36c 0cbe 7f3d 2f3c 4c43 d23d
00000350: e23d 783d 11a4 e1bd 9782 74bd 09aa d03d
00000360: eaf2 d53d 0b76 82bc 6f8d 583d cd2b b1bd
00000370: 2613 fe3c a257 853c 1405 72bd a3a8 de3d
00000380: 7679 0dbe 2282 17be a535 9ebd e0fe ff3c
00000390: 20eb 24bc 966d 6cbd fca9 b13d 762c 2c3d
000003a0: f7ed 1c3c 3de0 a93c c433 9fbb a400 3e3d
000003b0: 1b2b a83d 54e6 263d b8bc e93d 00ec 00be
000003c0: 0ef9 74bd 6def 07be 420c 17be e7b3 f93c
000003d0: a216 a43d f2c1 0ebe b8f5 953d f316 04be
000003e0: c8b2 423d 5349 ae3d bb31 a23d 2dde e83c
000003f0: f907 06be 60ea eebc 3032 5ebd 8cab 9fbc

stacks.0.blocks.0.theta_layer.bias f4 [43]
-0.060903277 0.059391413 0.08613509 0.005684621 -0.06650918 -0.06639761 0.035705894 0.066834845
0.051082242 -0.010003146 -0.04571707 -0.10379738 -0.06737809 0.07882299 -0.01691111 0.038877685
-0.115039036 -0.007198097 -0.046093635 0.0017285873 -0.12148759 -0.14995572 -0.13757278 -0.07105372
0.012560196 -0.16783501 -0.17549713 -0.006411859 -0.03993836 0.045826063 0.063402735 0.13455491
-0.080631144 -0.09047106 -0.013404543 -0.04954517 0.024751285 -0.05891778 -0.061961364 -0.12946479
-0.10414189 0.009234705 0.1484467
00000000: b775 79bd 6944 733d 9867 b03d 0f46 ba3b
00000010: f735 88bd 78fb 87bd 5840 123d b5e0 883d
00000020: 9d3b 513d 3ce4 23bc d341 3bbd b993 d4bd
00000030: 86fd 89bd f36d a13d 2b89 8abc 353e 1f3d
00000040: 9699 ebbd 04de ebbb aecc 3cbd c491 e23a
00000050: 7cce f8bd fe8d 19be e1df 0cbe 9d84 91bd
00000060: 48c9 4d3c f1dc 2bbe 85b5 33be 921a d2bb
00000070: 6896 23bd 1cb4 3b3d 4bd9 813d c3c8 093e
00000080: f121 a5bd e448 b9bd ba9e 5bbc e0ef 4abd
00000090: 35c3 ca3c c553 71bd 33cb 7dbd 6b92 04be
000000a0: 5848 d5bd 294d 173c 6902 183e

stacks.0.blocks.1.fc1.weight f4 [50, 42]
-0.041353047 -0.11978529 0.1387572 -0.009971293 -0.12872632 0.01041647 0.06702293 0.10979923
0.12548324 0.0075118067 -0.109360754 -0.15609753 -0.044887703 -0.16025732 -0.15795924 -0.09696289
-0.10030751 -0.061932325 0.14409429 -0.14955357 -0.057055995 -0.019673645 0.10097535 0.048468262
-0.10619888 0.07839862 0.028082388 -0.026837349 0.009231574 0.046490222 0.05730074 0.09003621
0.00816864 -0.09319222 0.05727045 0.051027898 -0.002174376 -0.11746701 0.0033478446 -0.12731901
0.106705464 0.08509198 0.04620952 0.02150006 0.15862244 -0.06216686 0.012283502 0.08836022
0.017862359 -0.016824454 -0.032759007 -0.0074487254 0.031941283 0.09364607 0.015469337 0.15026629
0.13821767 -0.084869586 -0.11200484 -0.012715718 -0.0050677415 0.07914884 0.022132937 0.048455466
0.0012558929 -0.1337313 -0.003869663 -0.08742216 0.08063115 0.11688513 0.13612285 0.0143195735
0.0886269 -0.05356428 -0.13319303 -0.0866155 0.031702477 0.14089122 0.16872106 0.094711185
-0.040474966 -0.114061736 0.070122376 0.13337174 0.09543535 0.04572454 -0.09169558 -0.038515653
-0.037203845 0.033578895 -0.060716987 0.018456794 0.041030664 0.1432252 0.13770938 -0.07940446
-0.06830062 -0.06286471 -0.15909176 -0.09899145 0.098074235 -0.08431232 -0.062232435 -0.057741158
0.037092496 0.11965342 -0.03415281 -0.044213165 0.0014378602 0.0791435 -0.110554524 -0.121394545
-0.070380315 0.10841109 0.07009014 0.11488924 -0.05952592 0.031455383 -0.104848154 0.121544495
-0.11396303 -0.05082978 0.03421368 -0.017013911 0.02239685 -0.15652624 0.06865347 -0.11670974
0.0839527 -0.09569195 0.12887293 -0.051698238 0.007090788 0.14631681 -0.004955202 -0.10104402
0.14871079 -0.1183845 -0.14034408 -0.058493014 0.030148448 0.14571363 0.047579452 -0.06630722
0.09596976 0.032334078 0.08701287 -0.08512811 0.07786404 -0.02322559 0.045946915 0.07275523
0.121282026 -0.016951993 -0.049519967 0.15419212 -0.03509319 0.015135114 -0.0006141978 -0.09700721
-0.10901257 0.09681466 0.02109273 -0.053469997 0.096896216 0.10795255 -0.1152411 0.020846287
-0.05324754 -0.12118523 -0.00609535 0.076712176 -0.06787154 -0.055384785 0.08724514 0.04280846
-0.10538915 0.14591356 -0.08319721 -0.07138248 -0.113534406 0.14312498 0.0061603338 -0.011663184
-0.15367302 0.123945996 0.06136787 0.049261898 -0.115046136 0.12739886 -0.02520664 0.04066679
-0.08227676 -0.029329382 -0.10107931 0.01215364 -0.14843029 0.07068579 0.0049379915 0.059895307
-0.038695276 -0.020661294 0.069464 -0.059375226 -0.13581277 -0.032896332 -0.032729253 -0.10122258
-0.004066631 0.06914511 -0.022480458 0.12223463 0.029938033 -0.122416526 0.026873983 0.059369124
-0.030117368 -0.051231083 0.07192566 -0.1038179 -0.02154761 0.12497215 -0.14457726 0.10801064
0.07067708 0.057096116 0.04143178 -0.00037524124 -0.033853423 -0.020697793 0.10008559 0.06720125
0.012069354 0.0010798536 -0.061023276 -0.09211299 0.0036402482 -0.05245022 0.079650424 0.06668432
0.008025743 0.14856909 -0.042504027 0.0025588807 0.008053417 0.100110106 -0.13616398 -0.07626861
0.114488386 0.150014 -0.084995754 0.11272072 0.11558667 0.07057206 -0.08344722 -0.01033361
00000000: d061 29bd fd51 f5bd 5e16 0e3e a25e 23bc
00000010: d5d0 03be d7a9 2a3c 5143 893d 6bde e03d
00000020: ae7e 003e 9a25 f63b 88f8 dfbd 08d8 1fbe
00000030: 2bdc 37bd 7f1a 24be 11c0 21be 7b94 c6bd
00000040: 066e cdbd c0ac 7dbd 748d 133e 9224 19be
00000050: 8cb3 69bd a02a a1bc 2acc ce3d a886 463d
00000060: cc7e d9bd 758f a03d 090d e63c 00da dbbc
00000070: 0740 173c 886c 3e3d 2eb4 6a3d e864 b83d
00000080: c2d5 053c 90db bebd 6b94 6a3d a102 513d
00000090: fa7f 0ebb 8b92 f0bd 8367 5b3b ea5f 02be
000000a0: 6588 da3d b444 ae3d 3246 3d3d e520 b03c
000000b0: ec6d 223e ada2 7ebd be40 493c 34f6 b43d
000000c0: 1554 923c 70d3 89bc 4f2e 06bd 7014 f4bb
000000d0: ddd4 023d 83c9 bf3d 1a73 7d3c 68df 193e
000000e0: ef88 0d3e 1bd0 adbd cb62 e5bd 9655 50bc
000000f0: 4c0f a6bb c918 a23d 2250 b53c 3d79 463d
00000100: c69c a43a dcf0 08be 2c9a 7dbb 640a b3bd
00000110: f221 a53d 7961 ef3d ca63 0b3e a59c 6a3c
00000120: 0582 b53d 3866 5bbd c163 08be 7863 b1bd
00000130: 75da 013d ca45 103e 37c5 2c3e f0f7 c13d
00000140: 14c9 25bd 3399 e9bd 529c 8f3d 9a92 083e
00000150: 9c73 c33d a849 3b3d e4ca bbbd 97c2 1dbd
00000160: 0f63 18bd 068a 093d 60b2 78bd b432 973c
00000170: c50f 283d a0a9 123e b003 0d3e ce9e a2bd
00000180: 32e1 8bbd 37bf 80bd f3e8 22be 08bc cabd
00000190: 25db c83d f0ab acbd 70e7 7ebd fe81 6cbd
000001a0: 4dee 173d da0c f53d d1e3 0bbd dd18 35bd
000001b0: 9576 bc3a fd15 a23d 696a e2bd b49d f8bd
000001c0: 8e23 90bd a206 de3d 6b8b 8f3d 0d4b eb3d
000001d0: 73d1 73bd 5cd7 003d a1ba d6bd 52ec f83d
000001e0: 7365 e9bd e332 50bd a523 0c3d c260 8bbc
000001f0: 9979 b73c 6a48 20be 319a 8c3d 8405 efbd
00000200: 65ef ab3d 24fa c3bd 44f7 033e 88c1 53bd
00000210: d759 e83b 13d4 153e 3f5f a2bb 2bf0 cebd
00000220: a447 183e 9373 f2bd 5cb6 0fbe 5f96 6fbd
00000230: e1f9 f63c f435 153e ace2 423d 14cc 87bd
00000240: cb8b c43d bd70 043d ce33 b23d a657 aebd
00000250: 2f77 9f3d 9843 bebc d532 3c3d b200 953d
00000260: b662 f83d e8de 8abc 73d5 4abd 8ae4 1d3e
00000270: e0bd 0fbd 45f9 773c 1e02 21ba b7ab c6bd
00000280: fb41 dfbd c446 c63d a9ca ac3c 5b03 5bbd
00000290: 8671 c63d 3a16 dd3d 8703 ecbd d5c5 aa3c
000002a0: 181a 5abd f62f f8bd 80bb c7bb 461b 9d3d
000002b0: 3c00 8bbd 28db 62bd 94ad b23d ec57 2f3d
000002c0: 44d6 d7bd 5d6a 153e 4d63 aabd fa30 92bd
000002d0: ba84 e8bd 5b8f 123e a0dc c93b f016 3fbc
000002e0: 765c 1dbe 66d7 fd3d e05c 7b3d d8c6 493d
000002f0: 4f9d ebbd d974 023e 287e cebc 3892 263d
00000300: b880 a8bd 2c44 f0bc ab02 cfbd 1020 473c
00000310: 1cfe 17be b6c3 903d e0ce a13b c854 753d
00000320: f07e 1ebd e041 a9bc 2443 8e3d 7033 73bd
00000330: 8112 0bbe 4ebe 06bd 1c0f 06bd c94d cfbd
00000340: 6041 85bb f49b 8d3d f028 b8bc 2656 fa3d
00000350: 9b40 f53c 84b5 fabd d426 dc3c 0a2d 733d
00000360: b3b8 f6bc afd7 51bd c34d 933d 7b9e d4bd
00000370: 9d84 b0bc 66f1 ff3d 100c 14be af34 dd3d
00000380: 25bf 903d 9edd 693d 5fb4 293d 07bc c4b9
00000390: e3a9 0abd 6b8e a9bc acf9 cc3d cfa0 893d
000003a0: 8abe 453c e089 8d3a 8bf3 79bd bca5 bcbd
000003b0: 3b91 6e3b 0bd6 56bd c31f a33d ca91 883d
000003c0: 687e 033c 7f22 183e b418 2ebd e5b2 273b
000003d0: 7bf2 033c 8706 cd3d 926e 0bbe b832 9cbd
000003e0: e378 ea3d 459d 193e 4112 aebd 1fda e63d
000003f0: b4b8 ec3d 1688 903d 60e6 aabd 4d4e 29bc

stacks.0.blocks.1.fc1.bias f4 [50]
-0.13566388 0.1498734 0.0759965 0.041808855 0.14536597 0.07533766 -0.0238291 0.077326566
-0.13770325 0.013953865 0.05967249 0.03389954 -0.11218875 -0.036236674 -0.1375746 0.18586367
0.1808142 -0.13009143 0.007884263 0.10896022 -0.1328236 -0.009581411 -0.070201226 -0.03588151
0.09153499 0.14290251 0.027585663 -0.14383113 0.012528923 -0.058285106 -0.10868217 0.106954895
0.019807696 -0.121404156 -0.04035258 -0.020774567 -0.04768537 0.0072150454 -0.13441068 0.097278476
0.40853307 0.1808165 0.13807921 -0.1219758 -0.100982934 0.018770382 -0.03421676 0.13611165
0.086561844 0.053199384
00000000: 79eb 0abe 6a78 193e 0ea4 9b3d c33f 2b3d
00000010: d1da 143e a24a 9a3d 3f35 c3bc 645d 9e3d
00000020: 1502 0dbe c09e 643c 246b 743d 3eda 0a3d
00000030: 37c3 e5bd e86c 14bd 5be0 0cbe 0c53 3e3e
00000040: 5c27 393e b036 05be ff2c 013c 8926 df3d
00000050: e902 08be 5afb 1cbc a9c5 8fbd 7df8 12bd
00000060: b276 bb3d 0955 123e 54fb e13c 7848 13be
00000070: 1d46 4d3c 5dbc 6ebd c294 debd 2b0b db3d
00000080: c043 a23c bea2 f8bd bf48 25bd 6d2f aabc
00000090: bc51 43bd 306c ec3b f4a2 09be f039 c73d
000000a0: 3f2b d13e f627 393e a364 0d3e 73ce f9bd
000000b0: 24d0 cebd 58c4 993c e026 0cbd da60 0b3e
000000c0: 5647 b13d 99e7 593d
