RNN_models/close_slope_25_5_zscore_15min_t1.pth (torch, 114930 bytes, 20 tensors)

stacks.0.blocks.0.fc1.weight f4 [50, 56]
-0.03174821 -0.022337686 0.11269885 -0.092529744 0.013696017 -0.08699873 0.057008415 -0.04474717
-0.14204924 0.09611041 0.015226165 -0.08145549 -0.089985654 0.0018994247 0.034859743 0.047079045
-0.00953405 0.10037378 0.050150592 -0.08327558 -0.015790265 0.12767956 0.10288463 -0.0039272713
-0.072449245 0.010119839 -0.08042186 0.057186197 0.07920394 0.112657554 0.005460826 0.15121661
-0.027698962 -0.101539835 -0.09573634 -0.05341842 0.09678176 0.14989693 0.089952715 -0.08221328
0.07279137 -0.053264555 -0.18712421 -0.036670826 -0.110851526 0.10370958 -0.033129506 0.0063389093
-0.115357354 -0.1031282 0.008049895 0.039477255 -0.04875827 0.06578822 -0.044422302 -0.058789674
-0.017091623 0.037024457 0.059796166 -0.06818405 0.0032029403 -0.016285216 0.10692085 -0.0106780995
-0.054425236 -0.08065471 -0.032523487 0.07555094 0.06763081 -0.06128108 -0.06618092 0.020361705
0.049704 -0.12302091 -0.1368931 -0.07702754 -0.073634356 0.07896696 -0.080708496 0.003871804
-0.030785087 0.026609762 0.017168391 0.01832677 -0.03213316 -0.08199023 -0.04338507 0.0005905038
-0.13903065 -0.08844062 0.0913159 -0.06039771 0.050493956 0.10193231 -0.1225614 -0.042542763
0.04676657 -0.17376947 -0.00839456 -0.13357466 -0.022455048 0.090609826 -0.09603863 0.07200291
-0.07272224 0.07169536 0.026804164 0.02599832 -0.111096665 -0.1265182 0.0013718926 0.0299818
0.0064337216 0.10971171 0.040357884 0.112244375 0.103212535 0.06787768 -0.038965877 -0.1009786
0.04936147 0.08821209 -0.0560793 -0.010141714 -0.10762969 -0.08842095 -0.13819318 -0.0792544
0.117657766 -0.03776238 -0.09988408 0.021037338 -0.07118021 0.08332421 -0.121370986 0.04775855
-0.08124519 0.10067425 -0.07263635 -0.100816235 0.0001984665 0.096721195 -0.14653659 -0.036256008
0.11581473 0.106992155 0.02070132 0.08792085 -0.104023986 -0.06408724 0.12776266 -0.15372321
0.14349426 0.15077758 -0.0707472 0.10625482 0.114432804 0.009514943 0.122196175 0.050929792
0.024820881 0.043225028 -0.051872175 0.10022028 0.0027876846 0.044662464 -0.0043465532 -0.106005825
-0.14653237 -0.083481915 -0.072785065 0.024760742 -0.14295785 0.028426891 -0.08828979 0.0069967047
0.012237956 -0.062274072 -0.065510795 0.024818592 0.06336384 -0.015820254 0.05225112 0.025203139
0.034170467 -0.11548285 -0.11803461 0.09111278 0.03110722 0.023177888 -0.039363876 -0.066200815
0.08092106 -0.10857718 -0.07454971 -0.01832562 -0.025413698 0.043341234 -0.047195874 -0.0023998206
-0.031025909 -0.09899028 -0.0937174 -0.07151668 -0.07590592 0.088721715 -0.119435094 -0.08820685
-0.024091316 -0.14293984 -0.040030837 -0.00779604 -0.06900844 0.09435252 -0.10806388 -0.13007902
-0.0938996 -0.15076974 -0.20249772 -0.03271376 -0.15203927 -0.04623026 -0.11248347 0.004406214
-0.13122566 0.068603106 0.03083588 -0.14391796 0.093708396 -0.108842105 0.005918242 -0.04030112
-0.047709588 0.07396685 0.09744321 -0.09809692 -0.09954416 -0.013435967 -0.08283047 -0.0007795553
0.08947664 -0.13585821 -0.1425805 -0.14731745 -0.011589378 -0.008728698 -0.1340695 0.047666397
-0.0022309567 0.022308163 0.07975412 -0.12582496 0.023174811 0.034554508 0.033998325 -0.14164951
00000000: 690a 02bd 86fd b6bc a8ce e63d 3c80 bdbd
00000010: 4265 603c 642c b2bd a881 693d cf48 37bd
00000020: 5b75 11be 89d5 c43d 2a77 793c 23d2 a6bd
00000030: 664a b8bd 1ef6 f83a 17c9 0e3d f5d5 403d
00000040: b434 1cbc c590 cd3d b56a 4d3d 638c aabd
00000050: 965a 81bc 6ebe 023e 2db5 d23d 57b0 80bb
00000060: 4560 94bd aecd 253c 37b4 a4bd 133c 6a3d
00000070: ad35 a23d 01b9 e63d bbf0 b23b 87d8 1a3e
00000080: efe8 e2bc 1ef4 cfbd 6a11 c4bd 46cd 5abd
00000090: 8435 c63d 957e 193e 2139 b83d 705f a8bd
000000a0: a413 953d ef2b 5abd 7d9d 3fbe 2634 16bd
000000b0: 2006 e3bd b065 d43d ceb2 07bd a0b6 cf3b
000000c0: 7a40 ecbd e134 d3bd b5e3 033c e7b2 213d
000000d0: c0b6 47bd f9bb 863d 29f4 35bd 71cd 70bd
000000e0: bb03 8cbc f5a6 173d d3ec 743d 14a4 8bbd
000000f0: 6ce8 513b 9368 85bc 52f9 da3d 32f3 2ebc
00000100: ffec 5ebd 4c2e a5bd 5937 05bd 74ba 9a3d
00000110: 0682 8a3d df01 7bbd dd89 87bd 97cd a63c
00000120: 6c96 4b3d 63f2 fbbd b42d 0cbe 9dc0 9dbd
00000130: 9ccd 96bd 6eb9 a13d 7f4a a5bd 18be 7d3b
00000140: 0231 fcbc b7fc d93c baa4 8c3c 0622 963c
00000150: 0f9e 03bd 7eea a7bd 8bb4 31bd 0acc 1a3a
00000160: 0d5e 0ebe 5b20 b5bd d503 bb3d 9763 77bd
00000170: c0d2 4e3d e3c1 d03d 7901 fbbd 5241 2ebd
00000180: 4e8e 3f3d a0f0 31be 5689 09bc ccc7 08be
00000190: a6f3 b7bc a591 b93d e7af c4bd 4376 933d
000001a0: 66ef 94bd 04d5 923d 6894 db3c 6efa d43c
000001b0: a686 e3bd fd8d 01be 14d1 b33a 649c f53c
000001c0: f8d1 d23b 88b0 e03d 4f4e 253d 61e0 e53d
000001d0: 1861 d33d 7403 8b3d af9a 1fbd decd cebd
000001e0: 412f 4a3d 8aa8 b43d 68b3 65bd 6e29 26bc
000001f0: f46c dcbd 0b16 b5bd 8382 0dbe 2250 a2bd
00000200: 8ef6 f03d baac 1abd 0690 ccbd 7f56 ac3c
00000210: eec6 91bd e2a5 aa3d 5a91 f8bd 789e 433d
00000220: e163 a6bd 4d2e ce3d 5ec2 94bd be78 cebd
00000230: 721b 5039 c315 c63d b00d 16be 2e81 14bd
00000240: 4630 ed3d b41e db3d d195 a93c d90f b43d
00000250: 870a d5bd 2c40 83bd 37d4 023e 9e69 1dbe
00000260: 29f0 123e 7065 1a3e e8e3 90bd 219c d93d
00000270: bf5b ea3d 90e4 1b3c fd41 fa3d c29b 503d
00000280: 2955 cb3c ba0c 313d eb77 54bd 4a40 cd3d
00000290: 96b1 363b fdef 363d 886d 8ebb 9519 d9bd
000002a0: 950c 16be 91f8 aabd 5610 95bd 0ad7 ca3c
000002b0: 8b63 12be 83df e83c 47d1 b4bd 9d44 e53b
000002c0: b581 483c 1913 7fbd 862a 86bd 5c50 cb3c
000002d0: e7c4 813d 7a99 81bc 4505 563d d076 ce3c
000002e0: 55f6 0b3d 4682 ecbd 21bc f1bd 5699 ba3d
000002f0: 92d4 fe3c 8edf bd3c 043c 21bd 4b94 87bd
00000300: f1b9 a53d b65d debd 85ad 98bd 9c1f 96bc
00000310: 6330 d0bc 9486 313d 7650 41bd 4f46 1dbb
00000320: 0c2a febc 6abb cabd e9ee bfbd 5677 92bd
00000330: 9074 9bbd bbb3 b53d 639a f4bd cba5 b4bd
00000340: 275b c5bc d25e 12be 60f7 23bd ec75 ffbb
00000350: 4c54 8dbd e53b c13d 9850 ddbd 6f33 05be
00000360: 6f4e c0bd 6263 1abe 905b 4fbe ddfe 05bd
00000370: 2fb0 1bbe f15b 3dbd bc5d e6bd 0162 903b
00000380: 0560 06be c97f 8c3d 879b fc3c 3b5f 13be
00000390: 30ea bf3d 9ce8 debd d0ed c13b ca12 25bd
000003a0: 216b 43bd ef7b 973d 4e90 c73d 0ae7 c8bd
000003b0: cfdd cbbd 8822 5cbc 05a3 a9bd 125b 4cba
000003c0: 873f b73d 6a1e 0bbe 9f00 12be 63da 16be
000003d0: 60e1 3dbc d002 0fbc 8449 09be d73d 433d
000003e0: 3e35 12bb 9cbf b63c 2156 a33d 42d8 00be
000003f0: 1ad9 bd3c 0789 0d3d d441 0b3d 920c 11be

stacks.0.blocks.0.fc1.bias f4 [50]
-0.06766987 0.053510685 -0.10106023 -0.0004613662 0.13318858 -0.038861584 -0.05841553 0.066630855
0.06942709 -0.12416269 0.05320373 -0.060689304 -0.14725116 -0.077926695 -0.004697336 -0.02844675
0.03657488 -0.028486216 0.05085522 0.029034592 -0.05924429 0.04538691 -6.003854e-05 0.0050683455
0.070054494 0.10774007 0.053786848 -0.13423306 0.10147702 -0.008352238 0.0065538986 0.071450785
-0.045845322 -0.00029669926 0.004751545 -0.060171086 0.10870206 -0.026768792 0.042280465 -0.094805345
-0.01598639 0.0050735422 -0.09807596 0.002370526 -0.129339 -0.090952784 0.08063072 0.015356482
-0.079136595 0.13406336
00000000: 8096 8abd 052e 5b3d aaf8 cebd 86e3 f1b9
00000010: 9662 083e 532d 1fbd 1f45 6fbd c275 883d
00000020: ca2f 8e3d 0249 febd 28ec 593d 5995 78bd
00000030: 02c9 16be 0898 9fbd 1cec 99bb 2909 e9bc
00000040: 8bcf 153d ed5b e9bc 904d 503d f4d9 ed3c
00000050: 24aa 72bd a0e7 393d e4d1 7bb8 5d14 a63b
00000060: bb78 8f3d d3a6 dc3d 994f 5c3d 6474 09be
00000070: 2fd3 cf3d d3d7 08bc 16c2 d63b ca54 923d
00000080: 4ec8 3bbd 4d8e 9bb9 d9b2 9b3b f575 76bd
00000090: 309f de3d 3a4a dbbc 482e 2d3d 4e29 c2bd
000000a0: e4f5 82bc f53f a63b 0ddc c8bd d45a 1b3b
000000b0: 7171 04be 7445 babd b821 a53d c199 7b3c
000000c0: 5e12 a2bd e847 093e

stacks.0.blocks.0.fc2.weight f4 [50, 50]
0.05304481 -0.061585512 0.03443763 -0.12938435 0.08035594 0.088299006 0.011716865 0.14120121
-0.13998798 -0.018980224 -0.03616697 0.112966016 0.03612791 -0.011528536 -0.078574285 -0.07293024
0.16502398 0.0062656594 -0.08885301 0.050958082 0.1384073 0.03551108 -0.08403874 0.07416856
-0.11947406 -0.074827194 0.09510468 0.008567391 -0.11337128 0.082732916 0.0420757 -0.10507237
0.027049847 -0.047709946 0.07190261 0.004904717 0.078778386 -0.106437154 -0.118098326 0.12179918
0.12429184 -0.07938909 0.08749645 0.05073996 0.04078799 0.060998194 0.14224891 0.022041092
-0.03933025 -0.018834177 -0.026907671 0.064043894 -0.12619135 -0.10630745 -0.1254344 0.08419283
-0.12900819 -0.16725512 -0.071383044 -0.11047472 0.055173516 0.10119074 -0.0920446 -0.12206958
0.09786049 -0.18135437 0.07399897 0.071713306 -0.16502927 0.031442177 -0.184314 -0.02190389
-0.05454229 0.0036260234 0.004817207 0.030404706 -0.053690724 0.008634793 -0.033826582 0.09838022
-0.14631379 0.06234613 -0.14649339 0.052943736 0.06634824 -0.042029515 -0.04940085 0.08734646
0.10171227 -0.07240423 -0.1398697 0.09852199 0.07124968 -0.06923365 0.031201107 -0.050045613
0.03246015 0.14221649 0.061917674 -0.0030090595 -0.017337797 -0.08634906 -0.03420549 -0.08870089
0.02686628 0.10902468 0.035188146 0.04790518 -0.024157511 0.031212848 0.15128896 -0.050109155
-0.0993061 -0.124235354 -0.16580936 -0.036454488 0.013772445 -0.040130407 0.10764442 0.011443489
-0.042931844 -0.0028290707 0.04678497 0.0029405628 0.057581402 -0.052524284 0.05672932 0.01954417
0.018868517 0.032216635 0.00055052864 -0.08736328 -0.073300056 0.17337441 0.08363087 0.0016538517
-0.0015843589 -0.028631367 -0.13144924 0.105586104 0.09790208 0.11532919 0.0464902 -0.084317386
-0.09682177 -0.055347517 -0.01676551 -0.08604562 -0.14388143 -0.051717747 -0.11014915 0.18896253
-0.09083749 -0.05786801 -0.033228822 -0.05184196 0.10106044 0.028006932 0.011780869 0.09567226
0.008601012 0.034428053 0.15499575 -0.06774761 -0.03436995 -0.04473296 0.14802939 0.041301582
-0.024294488 -0.011330425 0.035676632 -0.117899396 -0.015414192 -0.12559445 -0.009748864 0.03033054
-0.09902086 -0.09667809 0.03771 -0.0653863 -0.117386766 0.08741913 0.13132942 -0.12343882
0.07841467 -0.0044441717 9.4833194e-05 -0.116509065 0.059088584 -0.103504084 0.04482763 0.124591865
0.043291893 -0.0040373513 -0.122379825 0.14303473 0.081113696 0.13176882 -0.10983467 0.11329504
0.051668406 0.012787036 -0.016165208 -0.13487329 -0.021120492 0.004951169 -0.05685767 -0.0683617
0.00022589556 0.08415798 0.07414459 0.123602346 -0.16454329 0.043362435 -0.022035556 0.20504154
-0.105831705 -0.08633362 0.13267154 0.11333958 -0.049309246 0.15756238 0.112123124 0.09686888
-0.045240965 0.15196529 -0.14778385 0.14547996 -0.11823364 0.19397652 0.007440471 -0.021646736
-0.1681977 0.024589121 -0.023180857 -0.09024493 0.07134252 0.009202006 0.019816762 0.030489892
-0.05147837 -0.082006104 -0.01170843 -0.008584093 -0.18791188 -0.042858005 -0.09757893 0.12235788
-0.09855636 0.10304864 0.0077166213 0.0018726191 0.051223885 0.078653775 -0.10138955 -0.118051216
00000000: 8445 593d 1741 7cbd 790e 0d3d 557d 04be
00000010: a891 a43d 1cd6 b43d 18f8 3f3c 0d97 103e
00000020: 0259 0fbe 6a7c 9bbc d123 14bd ba5a e73d
00000030: dcfa 133d 2fe2 3cbc 8eeb a0bd 735c 95bd
00000040: 0cfc 283e 2950 cd3b 91f8 b5bd 6cb9 503d
00000050: a5ba 0d3e 1174 113d 811c acbd b0e5 973d
00000060: d1ae f4bd 003f 99bd 3ec6 c23d 3e5e 0c3c
00000070: 342f e8bd e06f a93d 9257 2c3d 2f30 d7bd
00000080: a497 dd3c 816b 43bd ad41 933d c0b7 a03b
00000090: 9056 a13d b9fb d9bd 89dd f1bd d971 f93d
000000a0: b88c fe3d bf96 a2bd 5731 b33d b4d4 4f3d
000000b0: 4f11 273d 3ed9 793d b3a9 113e 858f b43c
000000c0: c218 21bd 224a 9abc 7a6d dcbc 7229 833d
000000d0: 4e38 01be b8b7 d9bd e071 00be 4a6d ac3d
000000e0: b91a 04be ed44 2bbe 4631 92bd 9240 e2bd
000000f0: a0fd 613d 173d cf3d e181 bcbd 9eff f9bd
00000100: 156b c83d f6b4 39be c68c 973d 6dde 923d
00000110: 6ffd 28be 83c9 003d cfbc 3cbe c96f b3bc
00000120: bc67 5fbd 94a2 6d3b a9d9 9d3b 4a13 f93c
00000130: ceea 5bbd f278 0d3c be8d 0abd 927b c93d
00000140: 48d3 15be a85e 7f3d 5d02 16be 88db 583d
00000150: 96e1 873d 2427 2cbd 8c58 4abd b3e2 b23d
00000160: 864e d03d ab48 94bd 013a 0fbe e6c5 c93d
00000170: 5aeb 913d 5fca 8dbd 7799 ff3c a1fc 4cbd
00000180: eff4 043d 33a1 113e 639d 7d3d a433 45bb
00000190: ff07 8ebc c7d7 b0bd 0e1b 0cbd d0a8 b5bd
000001a0: ac16 dc3c 5548 df3d 7221 103d 3938 443d
000001b0: f9e5 c5bc 16b2 ff3c 7eeb 1a3e 423f 4dbd
000001c0: ff60 cbbd 1b6f febd eec9 29be 4d51 15bd
000001d0: d2a5 613c c85f 24bd ad74 dc3d 797d 3b3c
000001e0: 4dd9 2fbd ee67 39bb 99a1 3f3d 75b6 403b
000001f0: 7ada 6b3d b423 57bd 015d 683d 181b a03c
00000200: 2692 9a3c 97f5 033d 5a51 103a 85eb b2bd
00000210: 571e 96bd 1089 313e a946 ab3d 0ec6 d83a
00000220: 43aa cfba 548c eabc a19a 06be 873d d83d
00000230: e380 c83d b631 ec3d 826c 3e3d 98ae acbd
00000240: 7e4a c6bd 14b4 62bd d357 89bc b038 b0bd
00000250: a755 13be fdd5 53bd e195 e1bd 657f 413e
00000260: 0209 babd 0207 6dbd f21a 08bd 3c58 54bd
00000270: c7f8 ce3d cb6e e53c 8c04 413c d1ef c33d
00000280: 42eb 0c3c 6e04 0d3d 35b7 1e3e 42bf 8abd
00000290: 81c7 0cbd e939 37bd 0495 173e d92b 293d
000002a0: 3c05 c7bc 3fa3 39bc a921 123d 3d75 f1bd
000002b0: cf8b 7cbc d59b 00be b3b9 1fbc c177 f83c
000002c0: 73cb cabd 2aff c5bd cd75 1a3d 41e9 85bd
000002d0: 7968 f0bd cd08 b33d 387b 063e 7ecd fcbd
000002e0: df97 a03d 6aa0 91bb 2fe1 c638 4e9c eebd
000002f0: df06 723d f3f9 d3bd 2d9d 373d 052a ff3d
00000300: d752 313d c24b 84bb 46a2 fabd b277 123e
00000310: f01e a63d 68ee 063e 00f1 e0bd 3b07 e83d
00000320: 40a2 533d b780 513c e66c 84bc 391c 0abe
00000330: e204 adbc 6a3d a23b 97e3 68bd 3801 8cbd
00000340: 61de 6c39 055b ac3d 1ed9 973d 3a23 fd3d
00000350: 097e 28be cf9c 313d e983 b4bc 69f6 513e
00000360: 4bbe d8bd aecf b0bd 0cdb 073e 951e e83d
00000370: 7ef8 49bd 0858 213e cfa0 e53d 3163 c63d
00000380: 974e 39bd ca9c 1b3e a654 17be b3f8 143e
00000390: 7b24 f2bd c8a1 463e 32cf f33b 7f54 b1bc
000003a0: 053c 2cbe 206f c93c c8e5 bdbc 55d2 b8bd
000003b0: 071c 923d 03c4 163c c356 a23c f0c5 f93c
000003c0: fcda 52bd d1f2 a7bd b7d4 3fbc 4ca4 0cbc
000003d0: f96b 40be e08b 2fbd 76d7 c7bd c596 fa3d
000003e0: ebd7 c9bd 2a0b d33d b6db fc3b ac72 f53a
000003f0: 23d0 513d 3b15 a13d 53a5 cfbd d6c4 f1bd

stacks.0.blocks.0.fc2.bias f4 [50]
0.057951577 -0.119265854 -0.20581266 -0.0744197 -0.021843493 0.013153534 0.12068496 -0.10072864
0.05628927 0.09547219 -0.103447534 -0.090776965 0.041872334 0.07207795 0.13813014 -0.15680186
-0.0064321556 -0.0622047 0.034477882 -0.065653704 0.07319751 -0.07672098 0.09146681 0.1417037
-0.066123016 0.1400684 -0.1236104 -0.0986314 0.074440755 -0.03167906 -0.015484073 -0.109508604
0.018027747 0.16387269 0.11953919 0.055438157 0.10850493 -0.068195954 0.068722375 -0.048381776
-0.10467745 -0.12683685 -0.0029296349 0.09572023 -0.006295248 -0.09135659 0.15010247 -0.050914943
0.014983563 -0.0897245
00000000: a25e 6d3d a841 f4bd 8ec0 52be 5b69 98bd
00000010: 20f1 b2bc ec81 573c ad29 f73d d14a cebd
00000020: 948f 663d ec86 c33d 4ddc d3bd 46e9 b9bd
00000030: 5382 2b3d 9b9d 933d fd71 0d3e ab90 20be
00000040: d5c4 d2bb 5bca 7ebd ae38 0d3d 7375 86bd
00000050: 93e8 953d e41f 9dbd f352 bb3d c61a 113e
00000060: 816b 87bd 176e 0f3e 7327 fdbd 42ff c9bd
00000070: 6574 983d e7c1 01bd e9b0 7dbc 0c46 e0bd
00000080: edae 933c 3ece 273e f6d0 f43d 1f13 633d
00000090: d537 de3d 52aa 8bbd 51be 8c3d f82b 46bd
000000a0: 2261 d6bd 85e1 01be 1eff 3fbb f808 c43d
000000b0: 5e48 cebb 2a19 bbbd 76b4 193e 308c 50bd
000000c0: 9e7d 753c 7bc1 b7bd

stacks.0.blocks.0.fc3.weight f4 [50, 50]
0.027081883 -0.12684664 -0.1513762 0.13750099 0.07985954 -0.12128627 0.118315406 -0.05167164
-0.094450966 -0.072339356 -0.07472589 0.16277467 0.102974474 0.07345648 -0.10900392 -0.0409733
0.106440336 0.042215653 0.16531989 0.014011745 0.06179815 0.02074326 -0.069380745 -0.04256878
0.061305594 0.13298781 0.01915002 -0.094945304 0.14619112 -0.0116634285 0.1313205 0.0982126
0.13202593 0.05974857 -0.016063571 0.08249148 0.15268902 -0.096127264 0.07036648 -0.055414077
0.13937394 0.13221632 0.09779836 0.0417457 -0.10342978 -0.048170272 0.045604438 0.03019739
-0.051037878 -0.03299914 -0.1055051 -0.049660906 0.071135916 0.04920046 -0.11899038 0.14130554
0.055239476 0.086271435 0.091123715 0.1101044 0.048803497 -0.12759359 -0.1159083 0.06838224
-0.08463219 0.09308174 -0.06145072 -0.015774429 -0.0015071882 0.12927544 0.12079367 0.16363229
-0.050168898 -0.12579519 0.04097918 0.08899779 -0.008669711 -0.0067099067 0.028626675 -0.07471652
-0.050031062 -0.053615965 -0.12018873 0.074833006 0.06464275 0.13345999 -0.04400298 0.06320145
-0.08677019 -0.12128301 -0.10932695 -0.017274922 0.04819561 -0.1341893 -0.050541174 -0.02980696
0.044505097 0.066105 -0.1037785 0.09986852 -0.04739664 0.029862383 0.0657536 0.11375257
-0.09069977 -0.008921774 -0.11141353 -0.10223732 -0.11786152 -0.016615547 0.058727633 -0.09727561
-0.023763806 0.12118251 0.059980508 0.03127173 -0.034543958 0.04434954 0.030647844 -0.09120769
0.10901828 -0.06041339 0.048306786 -0.074674375 0.065146476 0.06793966 0.04742026 -0.04847917
0.1521635 0.05503521 0.080106854 0.16496511 0.010078537 0.02770404 0.07648614 0.025487997
0.1422353 0.08042555 -0.045147195 -0.0005130215 0.09138674 -0.003570982 -0.07394447 -0.0516432
0.0558299 -0.14164643 -0.12896135 0.054338083 0.071107574 0.022935476 -0.030613383 -0.20392169
0.15642855 -0.041173168 0.16028301 0.09401113 0.018293107 0.010814978 -0.025728349 0.06678466
-0.025408322 0.16996472 0.031221418 0.013745268 -0.15050785 0.09819842 -0.025027014 -0.089934535
-0.07644638 0.012044758 0.0035053487 -0.114305496 -0.07600199 -0.057511874 -0.059537157 -0.15560459
0.09445047 -0.023000509 -0.021561442 0.14938341 -0.07120088 0.010410564 0.0068318457 -0.13060012
0.11263374 -0.006454318 0.04684835 -0.032440215 -0.07937008 0.010671036 -0.12733017 -0.06957265
0.1170012 0.09814739 -0.025708256 0.15540601 0.030351559 0.16739324 0.10136836 -0.025402304
-0.11059182 -0.09412716 0.03826593 0.042201657 0.19475788 0.09376437 -0.018535603 -0.01026584
-0.010444282 0.025814343 -0.021209106 0.10305556 -0.022223419 -0.017324118 -0.018368443 -0.09622628
-0.07889167 -0.039679807 0.17010665 -0.051308084 0.13562945 -0.048550293 -0.06350471 0.13095532
-0.11618697 -0.08802504 0.10744848 0.05420181 -0.059176613 -0.09407155 0.13596745 0.061616585
-0.06902012 -0.030198218 -0.1363285 -0.08877866 -0.0764215 0.0192177 0.10715043 -0.0073858947
0.0915553 -0.07629574 0.08669042 -0.1086712 0.08445518 -0.020211788 -0.10147906 0.03054769
0.11630956 0.163338 -0.14595684 -0.06897662 0.21509519 -0.13427699 -0.10655777 0.004412192
00000000: d3da dd3c 16e4 01be 5d02 1bbe 0fcd 0c3e
00000010: 668d a33d f064 f8bd 594f f23d a4a5 53bd
00000020: 826f c1bd a826 94bd e309 99bd 67ae 263e
00000030: 48e4 d23d 5a70 963d 723d dfbd 9ed3 27bd
00000040: 64fd d93d 52ea 2c3d 9e49 293e 8591 653c
00000050: 0f20 7d3d c5ed a93c 7e17 8ebd 9a5c 2ebd
00000060: 931b 7b3d f52d 083e 81e0 9c3c af72 c2bd
00000070: 20b3 153e f717 3fbc e278 063e b023 c93d
00000080: ce31 073e ebba 743d c097 83bc 4bf1 a83d
00000090: 835a 1c3e 5fde c4bd 4d1c 903d dff9 62bd
000000a0: 0bb8 0e3e b763 073e 824a c83d 8afd 2a3d
000000b0: fed2 d3bd 314e 45bd b8cb 3a3d 8460 f73c
000000c0: 180d 51bd 1b2a 07bd 0f13 d8bd 3c69 4bbd
000000d0: b5af 913d 6c86 493d 3ab1 f3bd 66b2 103e
000000e0: ca42 623d 14af b03d 129f ba3d 6a7e e13d
000000f0: 2de6 473d e5a7 02be 5561 edbd fd0b 8c3d
00000100: a453 adbd a4a1 be3d c0b3 7bbd 6039 81bc
00000110: d88c c5ba c860 043e ac62 f73d 398f 273e
00000120: e77d 4dbd 74d0 00be c9d9 273d 7944 b63d
00000130: 670b 0ebc c7de dbbb 7d82 ea3c fa04 99bd
00000140: 5fed 4cbd 6a9c 5bbd 8225 f6bd 0c42 993d
00000150: 6b63 843d bca9 083e 783c 34bd c36f 813d
00000160: 92b4 b1bd 3a63 f8bd cfe6 dfbd 2384 8dbc
00000170: c368 453d eb68 09be 4304 4fbd ba2d f4bc
00000180: fa4a 363d 0f62 873d d289 d4bd de87 cc3d
00000190: fb22 42bd f5a1 f43c d3a9 863d 1bf7 e83d
000001a0: cdc0 b9bd a22c 12bc c72c e4bd cd61 d1bd
000001b0: 6161 f1bd 541d 88bc 638c 703d 6f38 c7bd
000001c0: 50ac c2bc 892e f83d 1fae 753d c916 003d
000001d0: f77d 0dbd dda7 353d 3011 fb3c 19cb babd
000001e0: fa44 df3d 0874 77bd 56dd 453d e1ee 98bd
000001f0: 846b 853d f323 8b3d bf3b 423d 1892 46bd
00000200: c0d0 1b3e 9a6c 613d 100f a43d 9dec 283e
00000210: 7320 253c 95f3 e23c c4a4 9c3d 34cc d03c
00000220: 21a6 113e 27b6 a43d 44ec 38bd 4a7c 06ba
00000230: f928 bb3d 2307 6abb 3370 97bd d287 53bd
00000240: e5ad 643d c30b 11be 720e 04be 9c91 5e3d
00000250: d9a0 913d 2ee3 bb3c ebc8 fabc d9d0 50be
00000260: ce2e 203e 32a5 28bd 3b21 243e e888 c03d
00000270: 6ddb 953c 4e31 313c 42c4 d2bc 65c6 883d
00000280: 1d25 d0bc 3b0b 2e3e 0fc4 ff3c d533 613c
00000290: bb1e 1abe 411c c93d 7405 cdbc 992f b8bd
000002a0: eb8f 9cbd 6057 453c feb9 653b 0019 eabd
000002b0: eea6 9bbd 9291 6bbd 3cdd 73bd cf56 1fbe
000002c0: 3f6f c13d 906b bcbc 9fa1 b0bc f7f7 183e
000002d0: c4d1 91bd 1291 2a3c addd df3b 0abc 05be
000002e0: 85ac e63d be7e d3bb 0ee4 3f3d 08e0 04bd
000002f0: c88c a2bd 92d5 2e3c d762 02be 1b7c 8ebd
00000300: 539e ef3d 8001 c93d 1f9a d2bc c122 1f3e
00000310: d5a3 f83c 2269 2b3e 379a cf3d 7e18 d0bc
00000320: f77d e2bd bec5 c0bd bcbc 1c3d a5db 2c3d
00000330: 9c6e 473e 8907 c03d fad7 97bc 0e32 28bc
00000340: 7e1e 2bbc 9a78 d33c b8be adbc cb0e d33d
00000350: e30d b6bc 4feb 8dbc 6b79 96bc 4912 c5bd
00000360: f591 a1bd 4b87 22bd 7030 2e3e 6d28 52bd
00000370: 72e2 0a3e acdc 46bd c20e 82bd 2719 063e
00000380: 6ff3 edbd 7946 b4bd f30d dc3d b802 5e3d
00000390: 2d63 72bd 96a8 c0bd 0d3b 0b3e ac61 7c3d
000003a0: 6c5a 8dbd 4162 f7bc b399 0bbe 96d1 b5bd
000003b0: e082 9cbd 706e 9d3c af71 db3d 6005 f2bb
000003c0: 5881 bb3d f140 9cbd bf8a b13d 028f debd
000003d0: d6f6 ac3d 3193 a5bc 41d4 cfbd 263f fa3c
000003e0: b533 ee3d 1442 273e b675 15be 9d43 8dbd
000003f0: ea41 5c3e e87f 09be f63a dabd 2694 903b

stacks.0.blocks.0.fc3.bias f4 [50]
-0.01677828 0.06782866 -0.11627777 0.15157391 -0.04327667 -0.13855633 0.07429921 -0.017782608
0.080490224 0.11518736 0.07223006 0.015354819 0.122266546 0.094515525 -0.14478071 0.012722893
0.12834238 0.058383916 0.056592286 -0.06193007 -0.07801038 0.009378056 -0.12543696 0.07345582
0.1164277 -0.0021102154 0.0422468 0.052960426 0.14296623 -0.019063972 0.08079915 0.10192704
0.11923725 -0.070071615 -0.039809372 0.08967065 -0.18192914 0.088020824 -0.036005944 0.08443049
-0.016462203 0.034719374 -0.024175553 0.1635546 -0.16481827 -0.0060990932 -0.141778 0.034032036
0.06753549 0.017818589
00000000: 9a72 89bc c1e9 8a3d 0a23 eebd 3136 1b3e
00000010: e142 31bd b6e1 0dbe 2f2a 983d d5ac 91bc
00000020: 0fd8 a43d 5ae7 eb3d 5bed 933d c792 7b3c
00000030: e266 fa3d 5b91 c13d 6541 14be ae73 503c
00000040: 2f6c 033e f923 6f3d 50cd 673d 63aa 7dbd
00000050: e8c3 9fbd 6ba6 193c 8c72 00be 0170 963d
00000060: a571 ee3d 8a4b 0abb fb0a 2d3d 08ed 583d
00000070: bd65 123e 0c2c 9cbc 067a a53d 20bf d03d
00000080: a932 f43d b581 8fbd 270f 23bd 3fa5 b73d
00000090: a24b 3abe 4344 b43d f87a 13bd e5e9 ac3d
000000a0: bedb 86bc e735 0e3d cf0b c6bc db7a 273e
000000b0: 1fc6 28be e7da c7bb 412e 11be 2d65 0b3d
000000c0: 0c50 8a3d 4af8 913c

stacks.0.blocks.0.fc4.weight f4 [50, 50]
0.14919594 0.041396007 -0.08894165 0.091319874 0.06093008 0.14629516 -0.076098196 -0.11671107
-0.12604901 0.09656745 0.08777433 0.052602362 -0.14627421 -0.064203076 0.100063466 0.074678235
0.052785356 0.10023775 0.15432416 -0.021833358 -0.060824685 -0.090843044 0.13729367 -0.063134015
0.17448999 -0.12085732 0.085989 0.17716505 0.07522304 -0.02159211 0.17643754 0.12837818
-0.08743555 -0.13193579 0.00855673 -0.0832346 -0.023794346 -0.021418653 0.028500512 0.07750073
-0.048825808 -0.042751092 -0.046355266 0.07560085 -0.016893964 -0.012780877 0.06010846 -0.113133945
0.07530719 0.09589327 -0.038725786 0.081062846 0.1222921 -0.02361496 -0.06345493 0.029342152
-0.060436383 0.13363002 -0.108086705 0.123354785 -0.014676469 -0.11664175 -0.017032426 -0.042120595
0.04557385 -0.10209968 0.030262208 0.13148117 -0.11664677 -0.05377803 -0.08830887 0.09389926
-0.1301184 0.12600416 -0.012971442 0.0044955486 -0.12523371 -0.08876426 -0.08878569 -0.1360052
0.110075384 0.030658862 0.106180415 0.09903954 -0.029380755 -0.08362624 -0.01661625 -0.06372182
0.033302102 -0.07015473 0.12573 -0.060404357 -0.12106174 0.11845043 -0.14519055 0.05584443
-0.08990092 -0.06959812 -0.06103946 0.12470107 -0.05189153 0.11384567 0.10582953 0.07762408
-0.044244885 -0.11141569 0.00047591268 -0.035047736 -0.024605993 -0.01733291 0.13985506 0.104588814
0.12169206 -0.09337057 0.014819132 -0.09935244 -0.016039526 -0.010633586 0.08787022 -0.10290467
0.027931806 0.12719634 -0.039643254 -0.014195806 -0.12388968 0.12184412 0.070806704 0.05110568
-0.13040106 0.025779773 -0.049687255 0.052823175 -0.056830365 0.06334922 0.078967586 -0.0035847295
0.054181393 0.045811333 0.15994093 0.052923452 -0.011070775 -0.07734585 0.13281983 -0.03771698
-0.0138896145 0.08295472 -0.06798467 -0.079324365 0.033738744 -0.07997742 -0.033000767 0.015665935
0.05240659 0.015167521 -0.048186637 -0.06222318 0.14812776 -0.009162603 -0.17412785 0.017149804
0.033325333 0.04776028 -0.09682983 -0.014187201 0.12166121 0.13849203 -0.043369867 0.13044357
0.09694545 0.05964822 -0.049890835 0.08262003 0.018186176 -0.017165039 0.0132045895 -0.1669367
-0.019476432 0.18403858 0.038706653 0.10355122 0.027413318 -0.06942612 -0.08929653 0.090159714
0.037180167 0.09983092 -0.09010431 0.0390794 0.029770665 0.08780224 0.11710068 -0.1665672
-0.015482574 0.08855688 0.03604937 0.0590164 0.08841668 -0.18574859 0.012890947 -0.09552254
0.056067143 0.14872761 0.024620306 0.10525233 -0.10986156 -0.06597912 -0.13199575 0.0017745715
0.009258732 0.0779831 -0.0031772647 -0.15308358 0.1292969 -0.062307514 0.00078552956 0.10987158
0.04844894 -0.058509618 0.022164015 0.074489385 0.051680636 0.07512844 -0.001701513 0.11000454
0.041624825 0.15912077 0.09708127 0.11051556 0.06430751 0.022136059 -0.08004298 -0.026626281
0.11460263 0.051940277 -0.069949895 -0.0011208205 -0.030730393 0.010162797 0.15594757 -0.06994877
-0.10600833 0.071807735 0.06681212 0.114775345 -0.10051738 -0.0919828 0.15133508 0.069389
-0.046241373 -0.12353808 0.034351412 -0.121188484 0.113503344 0.16200615 0.14340574 0.0248045
00000000: d2c6 183e dc8e 293d 0a27 b6bd ea05 bb3d
00000010: d291 793d 66ce 153e 5fd9 9bbd 3706 efbd
00000020: fe12 01be 28c5 c53d 07c3 b33d 9375 573d
00000030: e8c8 15be e77c 83bd 13ee cc3d e7f0 983d
00000040: 7535 583d 7349 cd3d 2707 1e3e dfdb b2bc
00000050: 4e23 79bd eb0b babd b696 0c3e 684c 81bd
00000060: 81ad 323e 0b84 f7bd 001b b03d c16a 353e
00000070: 8a0e 9a3d f0e1 b0bc 0bac 343e 9275 033e
00000080: 6911 b3bd 2d1a 07be 8731 0c3c e776 aabd
00000090: 5cec c2bc 2c76 afbc e879 e93c b4b8 9e3d
000000a0: 92fd 47bd c51b 2fbd 05df 3dbd 9ed4 9a3d
000000b0: 3665 8abc e266 51bc 4a34 763d c5b2 e7bd
000000c0: a83a 9a3d b163 c43d ee9e 1ebd 4704 a63d
000000d0: 4874 fa3d 2974 c1bc a9f4 81bd f45e f03c
000000e0: 248c 77bd 4fd6 083e 905c ddbd 6fa1 fc3d
000000f0: 9375 70bc dfe1 eebd 9687 8bbc a586 2cbd
00000100: a5ab 3a3d a319 d1bd 73e8 f73c 00a3 063e
00000110: 80e4 eebd 5a46 5cbd 48db b4bd 414e c03d
00000120: c23d 05be 3c07 013e 2c86 54bc 654f 933b
00000130: 443d 00be 09ca b5bd 46d5 b5bd f244 0bbe
00000140: 346f e13d 4b28 fb3c 1e75 d93d 3ed5 ca3d
00000150: e9af f0bc 3c44 abbd cd1e 88bc 9680 82bd
00000160: c967 083d 48ad 8fbd 5dbf 003e 8f6a 77bd
00000170: 38ef f7bd 2496 f23d d5ac 14be 21bd 643d
00000180: f91d b8bd 7689 8ebd 8304 7abd 4663 ff3d
00000190: 378c 54bd eb27 e93d 27bd d83d 60f9 9e3d
000001a0: 203a 35bd e92d e4bd eb83 f939 378e 0fbd
000001b0: 8292 c9bc bffd 8dbc 2a36 0f3e a932 d63d
000001c0: b039 f93d 1239 bfbd f2cb 723c 4b79 cbbd
000001d0: 5365 83bc 7e38 2ebc 4df5 b33d afbf d2bd
000001e0: 3ed1 e43c c23f 023e f760 22bd 8795 68bc
000001f0: dfb9 fdbd 6989 f93d 1b03 913d 3154 513d
00000200: db87 05be 1a30 d33c dd84 4bbd 1d5d 583d
00000210: f5c6 68bd 3cbd 813d c2b9 a13d c8ed 6abb
00000220: 4fed 5d3d aaa4 3b3d 8ec7 233e 43c6 583d
00000230: 3262 35bc 8067 9ebd ec01 083e 1f7d 1abd
00000240: 4491 63bc 2ae4 a93d 8c3b 8bbd d074 a2bd
00000250: a331 0a3d 34cb a3bd d02b 07bd d955 803c
00000260: 4ba8 563d 3281 783c 5a5f 45bd bcdd 7ebd
00000270: ceae 173e be1e 16bc 924e 32be bf7d 8c3c
00000280: 2580 083d 49a0 433d b84e c6bd 6f71 68bc
00000290: 8329 f93d dbd0 0d3e 9aa4 31bd 0093 053e
000002a0: 568b c63d b151 743d 555a 4cbd b134 a93d
000002b0: 2dfb 943c b29d 8cbc 1058 583c 74f1 2abe
000002c0: 0a8d 9fbc 9c74 3c3e de8a 1e3d a912 d43d
000002d0: e591 e03c 482f 8ebd 19e1 b6bd a8a5 b83d
000002e0: 3b4a 183d 2774 cc3d 9c88 b8bd b911 203d
000002f0: 9ce1 f33c a9d1 b33d 7bd2 ef3d 9890 2abe
00000300: 9faa 7dbc 4f5d b53d 81a8 133d 2ebb 713d
00000310: ce13 b53d e134 3ebe 8d34 533c 52a1 c3bd
00000320: a9a6 653d 0d4c 183e 86b0 c93c 898e d73d
00000330: 19ff e0bd 1020 87bd e529 07be bd98 e83a
00000340: f0b1 173c 9bb5 9f3d a839 50bb f1c1 1cbe
00000350: 6866 043e 2a36 7fbd ffeb 4d3a 5a04 e13d
00000360: 6572 463d c8a7 6fbd 4f91 b53c e48d 983d
00000370: 13af 533d f1dc 993d 4d05 dfba 0f4a e13d
00000380: cb7e 2a3d 8ef0 223e 8bd2 c63d fb55 e23d
00000390: a8b3 833d ae56 b53c 93ed a3bd 5c1f dabc
000003a0: c9b4 ea3d 54bf 543d e441 8fbd 7fe8 92ba
000003b0: 4ebe fbbc dc81 263c b8b0 1f3e 4d41 8fbd
000003c0: e51a d9bd ef0f 933d cbd4 883d 560f eb3d
000003d0: 0edc cdbd 7a61 bcbd 95f7 1a3e d21b 8e3d
000003e0: 9867 3dbd 8801 fdbd 11b4 0c3d ab31 f8bd
000003f0: 7174 e83d f1e4 253e f4d8 123e cf32 cb3c

stacks.0.blocks.0.fc4.bias f4 [50]
0.024334075 -0.056471825 0.085324876 0.16725123 0.022015069 0.04385156 0.023450842 0.10418658
-0.09051967 -0.09653839 0.072792195 -0.11613398 -0.15596431 -0.06753192 0.030478334 0.08564165
0.054566696 -0.044155676 -0.09902363 -0.09642452 -0.020021433 0.012513351 -0.0997734 0.0015599452
0.12170714 0.04981163 0.0826919 0.15062198 -0.0017886285 -0.09015095 -0.0642474 -0.12699686
-0.0407673 -0.16552988 -0.14607309 -0.008926188 0.064673744 0.08144024 -0.037407275 0.09095363
0.17065111 -0.119187266 -0.13183625 0.1615409 -0.07432111 0.081163645 0.054538824 -0.014369457
0.040446486 0.029882608
00000000: 4158 c73c 004f 67bd cfbe ae3d e843 2b3e
00000010: f258 b43c b29d 333d fb1b c03c c65f d53d
00000020: 6062 b9bd ebb5 c5bd 1314 953d a7d7 edbd
00000030: 1cb5 1fbe 2d4e 8abd b3ad f93c e464 af3d
00000040: 5481 5f3d 95dc 34bd e7cc cabd 387a c5bd
00000050: fd03 a4bc cc04 4d3c ff55 ccbd 1377 cc3a
00000060: 9841 f93d 4807 4c3d 5f5a a93d a63c 1a3e
00000070: 6a70 eaba 10a1 b8bd 2494 83bd 770b 02be
00000080: 9dfb 26bd aa80 29be 2f94 15be 253f 12bc
00000090: ab73 843d 24ca a63d 5f38 19bd e645 ba3d
000000a0: 2abf 2e3e 7418 f4bd 1500 07be fa6a 253e
000000b0: ab35 98bd 2039 a63d 1a64 5f3d df6d 6bbc
000000c0: 37ab 253d 5fcc f43c

stacks.0.blocks.0.theta_layer.weight f4 [57, 50]
0.059942976 0.10962603 -0.14341293 -0.15832408 0.11532604 -0.08775336 -0.117710754 0.046223927
-0.079259634 -0.07934147 -0.09954393 0.046792664 -0.11444495 -0.03795684 -0.056586187 -0.021892954
0.057321355 -0.07112388 -0.08407517 -0.037719242 -0.13757253 -0.092090115 0.10683167 -0.012910632
-0.08167135 -0.011990468 -0.058297288 0.082989395 -0.19435821 -0.021443427 -0.111104734 0.0248265
0.08659815 0.0034761669 -0.0008283986 0.12049044 0.09915925 -0.01978347 -0.100695066 -0.18554462
-0.15392807 0.08625415 0.06769528 0.02343238 -0.045023605 -0.08710033 -0.21844725 -0.048849735
-0.018499095 -0.066253565 -0.03903515 0.018666765 -0.023365501 -0.055822715 -0.016142365 0.05594302
-0.061282065 0.17950729 0.023316914 0.04373449 -0.08030937 0.040194426 0.12507904 -0.06214792
0.085445866 -0.054281108 -0.042828225 -0.003480034 -0.032812398 -0.114247836 -0.11746814 0.019272912
0.121537134 0.05140617 0.064321324 0.03996014 0.13262992 0.065295026 0.013841978 0.035741076
-0.05291387 -0.016320888 0.07821586 -0.0102546625 -0.11200077 0.014559322 0.068567686 0.0091877375
0.026600387 -0.13240801 -0.0917884 -0.07726332 0.013890237 0.084779225 0.17462048 -0.030133625
0.13743648 -0.08882398 0.062105194 0.020168347 0.10905961 0.06686731 0.12549092 0.13983999
0.026529865 -0.0759334 -0.047803722 0.00010082446 -0.064202495 0.14390177 -0.013583415 -0.056739856
0.0103884125 -0.080280446 -0.04121841 -0.04785698 0.006657675 -0.09650573 0.044232387 -0.11512682
-0.009337685 0.035028964 0.06430099 0.10821265 -0.03598274 0.0670308 0.10002019 0.20343512
0.17844413 0.0593165 -0.031933893 -0.043779075 0.089610994 -0.0020008031 -0.023005294 -0.06579298
0.071429215 0.037748445 0.018330712 -0.080408424 0.17160074 0.061565846 -0.01847593 0.07331484
0.12085343 0.09109606 0.06770585 -0.15154788 0.0815372 0.09109024 0.00747113 0.14782831
0.13120419 -0.056324493 0.049615886 -0.045238547 0.026479783 -0.13910721 -0.04950729 -0.0071501713
-0.13722701 -0.08805534 -0.051093742 0.11826804 0.022889694 0.058613565 -0.09320413 -0.02028491
0.0987558 0.114273295 -0.06423367 -0.016284058 -0.12729706 0.017972916 0.023310052 0.060851574
0.1297709 -0.059827447 -0.031773444 0.105373666 0.14294003 -0.021030094 -0.09098818 0.10371261
-0.06329117 0.0113109015 0.074217 -0.03290151 0.028858723 0.122115284 0.10559823 0.1276298
0.1146035 0.07382396 0.06863189 0.043994363 0.08511064 0.13990512 0.080878906 -0.13585685
0.04487643 -0.042829394 0.008992031 0.13978535 0.13194303 0.14727983 -0.1237981 -0.032371618
-0.041576292 -0.101650156 0.024776507 0.058023646 -0.05461334 -0.044518333 0.013884206 -0.0018649951
0.07684527 -0.0001513505 -0.11700001 0.09267172 -0.10266835 -0.10962295 0.04144412 -0.1100755
0.0018608868 -0.07795682 0.11513033 -0.011215025 -0.018207619 -0.00038814545 -0.008986889 -0.05872648
-0.13397084 -0.081215315 -0.07864738 0.0862329 0.10981047 0.036981523 -0.08740698 -0.07377314
-0.0456299 -0.12909146 -0.09022375 0.030051103 0.119427584 0.05923993 0.09861873 0.08827607
0.06439879 0.0016679734 0.1244375 0.10111084 0.06470058 0.13337623 -0.13253957 0.12384916
00000000: c486 753d 9d83 e03d d7da 12be b51f 22be
00000010: 0f30 ec3d 09b8 b3bd 5612 f1bd 4d55 3d3d
00000020: e052 a2bd c87d a2bd b0dd cbbd aaa9 3f3d
00000030: 1d62 eabd a278 1bbd ebc6 67bd da58 b3bc
00000040: ccc9 6a3d 66a9 91bd 9a2f acbd 7e7f 1abd
00000050: d0df 0cbe be99 bcbd 90ca da3d 1e87 53bc
00000060: 4f43 a7bd ab73 44bc 23c9 6ebd 58f6 a93d
00000070: d705 47be 20aa afbc e18a e3bd f260 cb3c
00000080: 5f5a b13d 67d0 633b e428 59ba b1c3 f63d
00000090: 0114 cb3d f210 a2bc 3739 cebd 69ff 3dbe
000000a0: 529f 1dbe 04a6 b03d d3a3 8a3d 43f5 bf3c
000000b0: ac6a 38bd a861 b2bd a3b0 5fbe a916 48bd
000000c0: 6a8b 97bc f3af 87bd 52e3 1fbd 0beb 983c
000000d0: 0269 bfbc 5ca6 64bd fe3c 84bc 8224 653d
000000e0: e702 7bbd c2d0 373e 1d03 bf3c f022 333d
000000f0: 3d79 a4bd e9a2 243d b814 003e d18e 7ebd
00000100: 3efe ae3d de55 5ebd a66c 2fbd 4811 64bb
00000110: 4b66 06bd c5fa e9bd 2393 f0bd 3ae2 9d3c
00000120: 76e8 f83d 478f 523d e6ba 833d 3ead 233d
00000130: 23d0 073e 66b9 853d 77c9 623c 3c65 123d
00000140: 37bc 58bd 62b3 85bc a32f a03d 2c03 28bc
00000150: a960 e5bd 398a 6e3c 376d 8c3d 2a88 163c
00000160: 0ee9 d93c f795 07be 8ffb bbbd 3b3c 9ebd
00000170: e093 633c bba0 ad3d b6cf 323e cbda f6bc
00000180: 26bc 0c3e 59e9 b5bd 0462 7e3d 1738 a53c
00000190: a55a df3d baf1 883d b180 003e 3732 0f3e
000001a0: 2955 d93c f882 9bbd d6cd 43bd b871 d338
000001b0: 997c 83bd fc5a 133e f98c 5ebc 0d68 68bd
000001c0: 2934 2a3c 136a a4bd a3d4 28bd ae05 44bd
000001d0: a028 da3b cca4 c5bd 052d 353d 9cc7 ebbd
000001e0: 17fd 18bc 887a 0f3d 3db0 833d 989e dd3d
000001f0: a362 13bd 7247 893d 63d7 cc3d 4c51 503e
00000200: 0fba 363e dcf5 723d 1dcd 02bd b051 33bd
00000210: f885 b73d e81f 03bb 9975 bcbc 78be 86bd
00000220: 7b49 923d 1d9e 1a3d 4a2a 963c 2cad a4bd
00000230: 1bb8 2f3e 782c 7c3d d55a 97bc 1726 963d
00000240: 0182 f73d 9290 ba3d 5da9 8a3d 5e2f 1bbe
00000250: fafc a63d 858d ba3d 62d0 f43b 4e60 173e
00000260: 645a 063e 83b4 66bd 073a 4b3d 0e4c 39bd
00000270: 21ec d83c 1f72 0ebe 28c8 4abd fc4b eabb
00000280: 3d85 0cbe 5c56 b4bd ac47 51bd 8436 f23d
00000290: 2b83 bb3c c714 703d cfe1 bebd 8a2c a6bc
000002a0: 7b40 ca3d 1e08 ea3d f18c 83bd 2566 85bc
000002b0: 295a 02be f03b 933c b9f4 be3c 803f 793d
000002c0: aae2 043e a00d 75bd df24 02bd 26ce d73d
000002d0: df5e 123e 4e47 acbc 0358 babd 4767 d43d
000002e0: cd9e 81bd 5c51 393c 15ff 973d bcc3 06bd
000002f0: 2169 ec3c 9417 fa3d e343 d83d 63b1 023e
00000300: 3db5 ea3d 0431 973d e08e 8c3d 6f33 343d
00000310: 7d4e ae3d 4a43 0f3e d7a3 a53d 0f1e 0bbe
00000320: 59d0 373d e06d 2fbd 5053 133c e423 0f3e
00000330: 131c 073e 86d0 163e dc89 fdbd 1a98 04bd
00000340: e74b 2abd f52d d0bd 1af8 ca3c 34aa 6d3d
00000350: 3db2 5fbd db58 36bd 957a 633c da72 f4ba
00000360: 0e61 9d3d d7b3 1eb9 b49d efbd acca bd3d
00000370: c943 d2bd ff81 e0bd 4fc1 293d 446f e1bd
00000380: 00e9 f33a d3a7 9fbd 73c9 eb3d 39bf 37bc
00000390: 2528 95bc 0080 cbb9 bf3d 13bc 2d8b 70bd
000003a0: a72f 09be 3754 a6bd e111 a1bd e09a b03d
000003b0: 50e4 e03d f079 173d 6e02 b3bd 5f16 97bd
000003c0: 6be6 3abd 8d30 04be 3bc7 b8bd bb2d f63c
000003d0: 7396 f43d 92a5 723d 9ef8 c93d 16ca b43d
000003e0: 83e3 833d e69f da3a 17d9 fe3d 3313 cf3d
000003f0: bd81 843d c793 083e 74b8 07be a1a4 fd3d

stacks.0.blocks.0.theta_layer.bias f4 [57]
-0.035867274 -0.10179883 0.09642922 0.07696436 -0.0073012416 -0.0075180233 0.1432959 0.08873907
-0.01013014 0.14388348 -0.1324592 0.030545123 -0.08885847 0.097340584 0.06423049 -0.07400929
-0.032931067 -0.10748532 -0.05544556 -0.022928763 -0.07681943 -0.019180316 0.10874043 -0.09715117
0.0065702554 -0.049539406 0.121573135 -0.0840714 -0.023617815 -0.0758528 0.059251603 0.13815314
-0.13334867 0.14016362 -0.07190072 0.041531865 -0.06995857 0.04771637 0.04687766 -0.066564
-0.14307882 -0.09844631 -0.0649215 0.06698183 -0.013993738 0.120039985 -0.058126908 -0.03876568
-0.091621615 0.024759095 -0.043065835 -0.14870706 0.043448556 -0.0358435 -0.026423344 0.110037416
0.07608545
00000000: 90e9 12bd e87b d0bd af7c c53d 7e9f 9d3d
00000010: 413f efbb c059 f6bb 29bc 123e d4bc b53d
00000020: e3f8 25bc 3156 133e 62a3 07be c439 fa3c
00000030: 6efb b5bd 805a c73d 468b 833d 2f92 97bd
00000040: bae2 06bd 4321 dcbd e21a 63bd 1ad5 bbbc
00000050: 8153 9dbd 0a20 9dbc 4db3 de3d 31f7 c6bd
00000060: 4c4b d73b d5e9 4abd 56fb f83d a02d acbd
00000070: 267a c1bc b658 9bbd cfb1 723d 0478 0d3e
00000080: 8e8c 08be 0d87 0f3e af40 93bd 511d 2a3d
00000090: 7046 8fbd 3e72 433d ca02 403d b552 88bd
000000a0: 4183 12be 389e c9bd 90f5 84bd c52d 893d
000000b0: fe45 65bc 86d7 f53d 7b16 6ebd c3c8 1ebd
000000c0: 1da4 bbbd 96d3 ca3c cd65 30bd aa46 18be
000000d0: 1df7 313d a2d0 12bd c575 d8bc 4c5b e13d
000000e0: b0d2 9b3d

stacks.0.blocks.1.fc1.weight f4 [50, 56]
0.10862656 -0.08782374 -0.051756885 0.024559878 0.08770081 -0.069298655 0.06051492 0.0017196463
-0.14216612 -0.05647905 0.1400566 0.068748064 0.06304318 0.08301126 0.028321475 -0.07411985
-0.14331572 0.009439673 -0.040901534 0.0131834475 0.09383577 -0.09807544 0.0255936 -0.0031924928
0.03560154 -0.036422834 -0.14286828 0.084472805 0.10539439 0.049634997 -0.06447805 -0.026928652
0.05761008 -0.12893036 -0.08124552 -0.091789395 0.04099032 0.014276024 -0.12042597 -0.12564382
0.022528868 0.06321617 -0.10419439 -0.16324311 -0.08034182 -0.15604681 -0.02575279 0.08887489
-0.112497784 0.059245184 -0.12564728 -0.14876257 -0.012993692 -0.07611105 0.04937944 0.05794169
0.01976801 -0.0020973673 -0.0048740874 -0.111447655 -0.15689221 0.020157643 0.12521213 -0.05245534
0.056807384 0.09900919 0.12789974 0.09887896 0.10808988 -0.09475148 0.09609444 0.010055759
0.015081515 -0.0030592706 -0.066950776 -0.040495373 -0.08517195 0.11093735 0.13564587 0.07593281
0.04580632 0.06304056 -0.0315071 -0.0454119 0.014547209 -0.053814612 -0.083512254 0.08631014
0.032779243 -0.03197587 0.0040101246 0.014235287 0.06938403 -0.07887995 0.05302901 0.104266115
-0.10159467 0.0409375 -0.17406042 -0.15652983 -0.10017539 -0.07420072 0.11690775 -0.046217702
-0.16328865 -0.0980309 -0.06802721 -0.15641895 -0.18435672 0.059058186 -0.047955714 0.12305776
0.012413904 0.04169467 -0.017180184 -0.11124512 0.10103802 -0.14625598 0.13480577 -0.012055146
0.050155435 0.041851413 -0.018683136 0.080642976 -0.05854965 -0.08469112 -0.07640107 0.13211897
0.03784315 -0.10370728 0.088544615 -0.022329353 -0.050571397 0.13546124 -0.123099275 0.028406313
0.024418412 0.08412791 0.0475364 -0.11100701 0.09624918 0.11425794 -0.046459056 0.09950889
0.031754624 0.016168997 0.15186885 0.080124274 0.028453683 -0.007766544 0.085002966 -0.008885076
0.05682682 -0.02679537 0.10821849 0.13229363 0.08587527 0.054298572 -0.035844233 0.091792114
-0.009408859 0.00036571958 0.12535533 0.0028839642 0.17946239 -0.02503844 0.14660509 0.039893523
0.0058577466 0.040752847 0.03652127 0.018791255 0.035867006 0.058903735 0.02928449 0.10038864
-0.07175007 0.0043014716 0.07025035 0.009731422 -0.11857436 0.013237565 0.039140902 0.05059931
0.12201439 0.06881013 -0.0046778372 0.0151065895 -0.12134037 0.07043471 0.02431112 -0.012000377
-0.06954776 0.04475237 0.12500915 0.07266967 -0.10159617 0.023698978 -0.09681725 -0.029119682
0.080888264 0.11376388 -0.0055667586 0.10922023 0.10261957 -0.0041756844 0.00070977624 -0.080048405
-0.0011650091 0.10755716 0.016338803 0.09690987 -0.053907216 0.102774106 -0.011497287 0.12596902
0.10169628 0.049725156 0.05590146 0.00451928 -0.060149264 0.008855237 0.104448415 -0.021958021
-0.14600325 0.051241733 0.035061438 0.001991675 -0.15623513 0.108392775 -0.017123368 -0.04098848
0.047986295 -0.017386053 0.049163915 -0.13889384 0.0019309585 -0.07633814 -0.045630813 -0.062188838
-0.08726189 0.029009733 -0.06487833 0.11270311 -0.086684115 0.06740015 -0.064997226 -0.14815058
-0.13492651 -0.03506582 0.068675764 0.11560283 0.06716099 0.06845325 0.12695923 0.08088443
00000000: 9a77 de3d efdc b3bd 07ff 53bd cc31 c93c
00000010: 7b9c b33d 74ec 8dbd 7ede 773d c165 e13a
00000020: ff93 11be 9456 67bd ff6a 0f3e c9cb 8c3d
00000030: c81c 813d cf01 aa3d 7002 e83c 26cc 97bd
00000040: 5bc1 12be dca8 1a3c 5e88 27bd 63ff 573c
00000050: f82c c03d c7db c8bd aba9 d13c 2439 51bb
00000060: ecd2 113d 1c30 15bd 104c 12be 1400 ad3d
00000070: 04d9 d73d 114e 4b3d 110d 84bd 7a99 dcbc
00000080: 8cf8 6b3d 5206 04be 0d64 a6bd 14fc bbbd
00000090: 77e5 273d fce5 693c e4a1 f6bd c6a8 00be
000000a0: 768e b83c 7b77 813d de63 d5bd 3429 27be
000000b0: 418a a4bd bcca 1fbe 84f7 d2bc 0a04 b63d
000000c0: 3d65 e6bd 14ab 723d aea9 00be 3755 18be
000000d0: 7fe3 54bc 1ce0 9bbd 1842 4a3d 4454 6d3d
000000e0: 86f0 a13c fc73 09bb cfb6 9fbb ab3e e4bd
000000f0: 5aa8 20be a421 a53c 9c37 003e 69db 56bd
00000100: dcae 683d 55c5 ca3d 26f8 023e 0d81 ca3d
00000110: 3a5e dd3d 100d c2bd 29cd c43d e9c0 243c
00000120: 7518 773c 0b7e 48bb 7d1d 89bd 7ade 25bd
00000130: a26e aebd 1f33 e33d c0e6 0a3e a982 9b3d
00000140: 689f 3b3d 691b 813d 970d 01bd d401 3abd
00000150: 6b57 6e3c b66c 5cbd 7908 abbd 5fc3 b03d
00000160: 8743 063d 21f9 02bd 5d67 833b 1f3b 693c
00000170: 3719 8e3d d08b a1bd f234 593d 7989 d53d
00000180: de10 d0bd 14ae 273d e53c 32be 5b49 20be
00000190: c128 cdbd 8cf6 97bd 556d ef3d c64e 3dbd
000001a0: 2435 27be 6dc4 c8bd da51 8bbd 4a2c 20be
000001b0: 02c8 3cbe ffe6 713d 366d 44bd b505 fc3d
000001c0: b063 4b3c 08c8 2a3d 75bd 8cbc 7bd4 e3bd
000001d0: 05ed ce3d 21c4 15be 860a 0a3e f282 45bc
000001e0: c96f 4d3d 636c 2b3d 600d 99bc 2528 a53d
000001f0: c2d1 6fbd 8a72 adbd 2a78 9cbd 324a 073e
00000200: 6b01 1b3d 7b64 d4bd e156 b53d 0cec b6bc
00000210: f423 4fbd 5ab6 0a3e 791b fcbd 5bb4 e83c
00000220: 1f09 c83c 414b ac3d 87b5 423d a557 e3bd
00000230: 4a1e c53d 1100 ea3d da4b 3ebd 51cb cb3d
00000240: 2311 023d d874 843c 8283 1b3e 3218 a43d
00000250: b317 e93c 7e7e febb 0916 ae3d b692 11bc
00000260: 3dc3 683d f781 dbbc a8a1 dd3d fb77 073e
00000270: 60df af3d 2e68 5e3d 67d1 12bd 81fd bb3d
00000280: 9d27 1abc 0dbe bf39 265d 003e e400 3d3b
00000290: fdc4 373e 6a1d cdbc a51f 163e 6467 233d
000002a0: 57f2 bf3b 75ec 263d 5497 153d 1ef0 993c
000002b0: 48e9 123d 0b45 713d 07e6 ef3c 8f98 cd3d
000002c0: b3f1 92bd 5cf3 8c3b 6adf 8f3d 8b70 1f3c
000002d0: 1dd7 f2bd 5fe2 583c 3652 203d 3941 4f3d
000002e0: aee2 f93d 53ec 8c3d 8b48 99bb a181 773c
000002f0: 4d81 f8bd 1340 903d 1d28 c73c 3b9d 44bc
00000300: 0e6f 8ebd 434e 373d 6602 003e d6d3 943d
00000310: a711 d0bd 5c24 c23c 1f48 c6bd 668c eebc
00000320: bfa8 a53d 0afd e83d 5b69 b6bb dbae df3d
00000330: 362a d23d 2ed4 88bb 4710 3a3a 6bf0 a3bd
00000340: 38b3 98ba ee46 dc3d f4d8 853c af78 c63d
00000350: d0cd 5cbd 3b7b d23d 1e5f 3cbc 06fe 003e
00000360: 2446 d03d 9bac 4b3d eef8 643d 7816 943b
00000370: 135f 76bd 8e15 113c 0de9 d53d 4fe1 b3bc
00000380: e081 15be dae2 513d 959c 0f3d c386 023b
00000390: 1afc 1fbe 08fd dd3d 4e46 8cbc 89e3 27bd
000003a0: 478d 443d 326d 8ebc 1a60 493d 303a 0ebe
000003b0: 3718 fd3a 2c57 9cbd 60e7 3abd b9b9 7ebd
000003c0: 5db6 b2bd d2a5 ed3c eede 84bd e3d0 e63d
000003d0: 7187 b1bd 1709 8a3d 441d 85bd c9b4 17be
000003e0: 2d2a 0abe 2da1 0fbd e1a5 8c3d 2dc1 ec3d
000003f0: b38b 893d 3831 8c3d 9a01 023e bca6 a53d

stacks.0.blocks.1.fc1.bias f4 [50]
0.14520772 -0.15371385 0.018392766 -0.032728 -0.04898967 0.067235075 -0.08612596 0.016275404
0.08913922 -0.0796392 -0.113795206 0.0064559574 0.014415731 0.026839163 0.07699657 -0.17903651
0.086544245 -0.119771615 0.0026123691 -0.063690916 -0.07205325 0.061841823 0.04665535 0.06500005
-0.0065907384 -0.10824024 -0.023289999 -0.049679596 -0.091244355 -0.06626142 -0.09067411 0.09858095
-0.047228117 0.10683637 0.099783026 -0.09281723 -0.06264623 0.027845355 -0.13187066 -0.0835861
-0.08768926 0.12583968 0.09062495 -0.0029892053 0.11252662 0.11589675 -0.02214395 0.011603671
-0.10033478 0.14368102
00000000: 55b1 143e 2a67 1dbe 6dac 963c cc0d 06bd
00000010: 64a9 48bd 8bb2 893d cf62 b0bd ff53 853c
00000020: a08e b63d e019 a3bd 760d e9bd 7f8c d33b
00000030: f52f 6c3c cedd db3c 61b0 9d3d 5955 37be
00000040: 1c3e b13d d24a f5bd 4834 2b3b 6270 82bd
00000050: a890 93bd da4d 7d3d ae19 3f3d bf1e 853d
00000060: 1ff7 d7bb 0fad ddbd abca bebc d57c 4bbd
00000070: 52de babd 11b4 87bd 59b3 b9bd cfe4 c93d
00000080: 4572 41bd 07cd da3d 0b5b cc3d f616 bebd
00000090: ab4c 80bd f11b e43c 1a09 07be 302f abbd
000000a0: 6d96 b3bd 1edc 003e 9399 b93d 8be6 43bb
000000b0: 5b74 e63d 465b ed3d 3b67 b5bc 531d 3e3c
000000c0: 527c cdbd 1e21 133e
