RNN_models/close_slope_2_t3.pth (torch, 15507 bytes, 5 tensors)

weight_ih_l0 f4 [50, 7]
00000000: 38ad 29bd 28c9 66be 9388 ebbc 652b 3b3d
00000010: 7d51 d8bd 1ce3 0ebe 6af4 4ebc 53b3 f1bd
00000020: 0efd 4abe 2d30 aebd c2d1 3abd f605 d9bd
00000030: 16dc f83b 7bb4 703b 130a 803d 88f2 acbc
00000040: 20dd 6e3c c4f6 e83a 9f3b a6bc 60a3 fc3c
00000050: 6278 02bd 3754 733e 97a4 0d3e 3487 e33d
00000060: b00d 723e 107c a73c 6e38 3e3e 043c e6bb
00000070: 4e5f 953c 35ec a23d 4e9c 09be 1b06 aabd
00000080: 384b 9c3d d84b e8bd ffc1 34bd 48f6 893d
00000090: 506f ed3d 7ac5 263d af55 ce3d d0ff bfbd
000000a0: eb78 663e 45fd e53d 41ef 993c 5ca0 0fbe
000000b0: 2bae 253e 0730 313e e045 f5bc 79fc 1a3e
000000c0: a618 72bd b22b d8bd fd25 a53d 40ff 353d
000000d0: 347a b2bb 41b3 1c3e a650 993d 364b b73d
000000e0: 8106 c73d 98d8 4fbd 87cb b3bd c5d7 95bd
000000f0: 4d2a e9bd 68d3 a23c e3f4 a43b 9078 cb3d
00000100: 795e f8bd 6f29 42bc eccf c63d c871 24be
00000110: efc4 2dbe a522 7cbd aa2e 3b3d f85e 22ba
00000120: c958 8f3d dada 2c3e 2d78 c13d 5f8e eb3b
00000130: 98b1 443b c2ab 103e 6d3b 3bbd a1fd 373e
00000140: 11ee 883d 0b27 8e3c 8817 0b3d a092 69bd
00000150: 7f94 92bc 27b2 a63d 1f73 adbd dece 0abe
00000160: 475d a93d 8959 bebd db95 52bd b124 943e
00000170: 0fd1 723e a58f d03c a405 843e b568 253d
00000180: 62db d23d 456f 043e a9f5 043d d22f e53e
00000190: 1990 18ba 6d78 b03d 3b6a 9f3b 4e68 563e
000001a0: c0b1 853e f49d 33bb 976e c23c 36ac 983d
000001b0: bf4f e93c c0d0 cebc 8fa9 543d 1221 3a3d
000001c0: af1b 3a3d b50f c03c f7bc 543d 799d 13bc
000001d0: a5d5 97bd 2385 263e a5b4 753d 3f9e 243c
000001e0: 0fb7 813d acbf 1b3d 5344 e13d 1b25 74bc
000001f0: eede 163e b0ad b63d 2569 ccbd 3b47 013e
00000200: 0a52 af3c 5073 513d 6890 e83d 8911 98bd
00000210: 7553 1d3e 7c16 2dbe 88db 423b 85ea a3bd
00000220: 6a35 793d c213 373d 2463 953d c135 993d
00000230: 7025 14be f428 32be ba59 103c 879e 29be
00000240: 3d04 75bc 23f6 973c 92bc 463d b8a1 03bd
00000250: 6577 0abe 5cdb 0bbe e772 213e 4582 2bbe
00000260: 42ea aebd e068 7abe e0cd f0bd b42d 6dbe
00000270: 80be abbd 522b e93d cd10 8b3d 93d7 f6bd
00000280: 435e 0abd b13c 813c e13f 2bbd 6db8 cb3d
00000290: b6a3 123e d31b 09bd 82af c2bd 56d4 c9bd
000002a0: 90d2 09be 2241 f7bd 41f4 b5bd 0558 803d
000002b0: 5fdf 19bd 93d9 a9bd 9a72 86bd b39c d1bd
000002c0: 1a5c c5bd ab2f 87bb 8d83 c83c 36c3 0ebd
000002d0: fb57 a13c c622 dbbd 7801 e8bd 5a3a 8c3d
000002e0: 46ff 48be 93f6 cebd 9323 e1bd 16d3 0d3c
000002f0: 0910 14bb cb5a 1f3e 92fc 333b dff6 18be
00000300: 1848 c7bd bc99 e43c 4385 ecbd aab0 ec3d
00000310: e149 333d b8ca 993b 7c4b b9bd a5e1 15be
00000320: 6e63 8cbd d094 cbbc 92d7 923d 89ab 503d
00000330: fddd 19be 1ea8 38be be01 70bd 735a bc3c
00000340: e0f3 06bd 4858 433c 912f 9b3d 08d9 36bc
00000350: 6d95 353e 75b5 493e 628a 2fbd b327 c83d
00000360: b827 86bd 370c 80bd 8da8 153c 942c e93c
00000370: c364 623d 59db 58bd 395d 89ba 7317 bdbd
00000380: 6ffe 573e 981c 9c3e 5eed 95bd 9634 acbd
00000390: 8f87 003e 94df ee3d 3641 7e3e f602 6dbd
000003a0: 63ac 923d 3ceb 073c 31dd 3c3e 6543 9d3d
000003b0: 9516 ec3c 728d 9dbd e4c9 023e 4c58 303d
000003c0: d000 313e 4f2d 163e 01ec 8ebd d863 4e3d
000003d0: ab49 1d3c 6c14 6bbd 2c96 223e 15e7 053e
000003e0: 1682 973d 3d72 3c3e 2533 98bd a48e a8bd
000003f0: fe35 32bd 5c1a 6b3e 7504 523e e49e 66bd
-0.04142496 -0.22537673 -0.028751647 0.04569568 -0.10562418 -0.13953823 -0.012631515 -0.118017815
-0.19823095 -0.085052826 -0.045610197 -0.1059684 0.0075945957 0.0036728668 0.062519215 -0.021111742
0.0145790875 0.0017773737 -0.020292101 0.030839622 -0.031853087 0.23762594 0.13832317 0.11109772
0.23638034 0.0204449 0.18576214 -0.0070261974 0.018233921 0.07955209 -0.13438532 -0.08301946
0.07631534 -0.11342591 -0.04413032 0.067364275 0.11593497 0.040715672 0.100749366 -0.09374964
0.22507064 0.11229948 0.018790843 -0.14026016 0.16179721 0.17303477 -0.029940546 0.15135373
-0.059105538 -0.10555209 0.08063886 0.04443288 -0.0054466967 0.15302755 0.074860856 0.08949892
0.097180374 -0.05074367 -0.08779054 -0.073165454 -0.11385021 0.019876197 0.0050340756 0.09935105
-0.12127394 -0.011850699 0.09707627 -0.16059029 -0.16969655 -0.061556477 0.0456988 -0.0006193961
0.06999356 0.1688036 0.0944675 0.007188603 0.003001308 0.1412802 -0.04571097 0.17967845
0.066860326 0.017352602 0.033957988 -0.057024598 -0.017893074 0.081394486 -0.08469223 -0.13555476
0.08269744 -0.09294421 -0.051412445 0.28934243 0.23712562 0.02545912 0.25785553 0.04038306
0.1029575 0.12933071 0.032460842 0.44763047 -0.0005819812 0.086167194 0.0048649586 0.20938227
0.26112175 -0.002740738 0.023734374 0.07454722 0.028480409 -0.025246024 0.051919516 0.045441695
0.045436557 0.02344499 0.051938023 -0.009009712 -0.07413796 0.16261725 0.05998673 0.010047494
0.06333744 0.03802459 0.1099936 -0.014901425 0.14733478 0.08919847 -0.09980992 0.12624829
0.021401424 0.05113536 0.11355668 -0.074252196 0.15363868 -0.16903108 0.0029732902 -0.080037154
0.060841955 0.044696577 0.072943 0.07480956 -0.14467406 -0.17398435 0.008810455 -0.1656438
-0.014954624 0.018549984 0.04851968 -0.03213665 -0.13522108 -0.13657898 0.15766488 -0.16748913
-0.08540775 -0.24454069 -0.117580175 -0.23161966 -0.08385944 0.11385216 0.06790314 -0.12052836
-0.0337813 0.01577601 -0.041808967 0.09947286 0.14320263 -0.0334738 -0.09506132 -0.09854953
-0.1345923 -0.1207297 -0.08884478 0.062667884 -0.03756654 -0.08293452 -0.06564827 -0.10234966
-0.096367076 -0.0041255555 0.02447679 -0.034854136 0.019695273 -0.10699992 -0.11328405 0.06847067
-0.19628629 -0.10105624 -0.10993113 0.008656284 -0.0022592566 0.15561979 0.0027463776 -0.14937924
-0.09730548 0.027905338 -0.11548855 0.115571335 0.04377163 0.0046933554 -0.090476006 -0.14636858
-0.06854902 -0.024851233 0.07170023 0.05094484 -0.15026088 -0.18032882 -0.05859541 0.022992348
-0.03294742 0.011922903 0.07577432 -0.011160143 0.17732783 0.19698127 -0.04285658 0.09773197
-0.065505445 -0.0625233 0.009134424 0.02846364 0.055271875 -0.05294356 -0.0010480053 -0.09232988
0.21093152 0.30490565 -0.07320665 -0.084084675 0.12551711 0.11663738 0.24829563 -0.057864152
0.071617864 0.00829583 0.18443753 0.0767887 0.028819362 -0.07692994 0.12772328 0.043052956
0.17285466 0.14665721 -0.06978608 0.050388187 0.009600083 -0.057392523 0.15877599 0.13076432
0.07397859 0.18402953 -0.0743163 -0.082303315 -0.043508522 0.22959274 0.20509513 -0.056303874

weight_hh_l0 f4 [50, 50]
00000000: 3216 13be 28df 45bd 4674 dabc 065d eabd
00000010: d047 0a3c ba41 bebd 1011 c03c c8e7 5d3d
00000020: 05ef 193e 10c2 f43d 3f49 7f3d 2017 7c3d
00000030: a93e bc3d 8088 f9ba 8ee9 103e 3351 e63d
00000040: f96f 71bd 817c b6bd 7eab 0c3e c130 633c
00000050: 6fe7 563d 5ca4 b63a f103 493d c0b1 08bd
00000060: 8ab2 c4bd de0b 143e 8614 c5bb 2622 1b3e
00000070: 1be0 cb3d 134c 883d 44b7 25be 9744 e8bb
00000080: 2a4c 813e c5bb da3d 286c d93c 6fc9 b3bc
00000090: a6ad 073c 7d3f 393c 2195 e7bc f9cb 71bc
000000a0: 6a83 babd eb6b 183e 9da0 a43d dc02 42bd
000000b0: 7332 8a3c 4888 c3bd 1fc2 683d ffbe 0dbe
000000c0: 8c0c c23d cfa8 133c c784 88bc e78b d1bd
000000d0: 8d61 97bd 99f0 873d ff89 c4bd d70a eebd
000000e0: ebb9 a8bd bf48 f5bd f6a7 f43c dede 59bd
000000f0: 86ec 103e fa8b b0bc 106d f13d ddde 8ebb
00000100: 04b5 563d ab4b 0cbe 23e6 973d 0d49 b2bd
00000110: 9c3b 79bd 3791 b8bd 46ec 56bc 3fba 67be
00000120: c951 dcbc 9e98 bebc bbb5 3d39 b0f9 e3bd
00000130: 724b b73d 1d1f 2dbd 8205 993d 7e03 d23d
00000140: 8a7e 633d 88d7 b9bc 0a3b db3d 98b6 0dbe
00000150: bc28 f3bd 4473 b8bd 0257 6f3d 2d29 21bd
00000160: 947c 083e 5fda 003d b0b8 50bd 65d1 16be
00000170: a3c7 e03d 1b5a b13d b824 9b3d abbe 8e3d
00000180: 1e2b 7b3b 908f a63d 170b e03d b130 203d
00000190: 30c3 74bd c75e cbbd de2e bebd dfc8 ab3d
000001a0: 033c 04be 8e31 0b3d 601e 2b3e 30eb 5ebd
000001b0: e0d0 1ebe cc86 eb3c 6775 283c 9c35 0dbd
000001c0: 6a79 e73d 4861 4fbd 2d1c 803d 79c0 8e3b
000001d0: 99d1 e6bd 1faa f83d fc48 953c 3411 f03c
000001e0: cf66 073e ab45 9fbd 1b22 f9bc ece4 ac3d
000001f0: 1bd6 d63d 1734 e0bd 4457 813d cdae 82bd
00000200: fa57 873d 03f3 9abd b9f3 b93d 0b4d a03d
00000210: 41c4 61be bfa9 a4bd 9d1e cb3d 397b 3c3d
00000220: 497e a1bd 0c48 30bd 4015 8bbc 5da9 f83b
00000230: 4f74 f03d d1d5 76bd 930f 99bd 76d4 dbbd
00000240: 8198 a93d 8b6e c1bd a877 98bd 7abd 9c3d
00000250: b85b fb3d 6742 c93d 854b d43d d91b 0e3d
00000260: 4d33 f9bd d442 aabd 6a75 94bd 1c08 9b3c
00000270: b750 083e 4315 023e e083 943d cf5f 063e
00000280: 1e90 e43d d893 c5bb 5027 afbc 8d58 0e3e
00000290: 76d4 31bd e420 9e3d 367e 2b3c 3196 09bc
000002a0: 817b a5bd 64dc f43d 3236 ccbd 7078 43bc
000002b0: a0a3 583d 5311 b43d 8358 bcbd 4ec3 47bd
000002c0: fd6f 07be 8369 c23d b679 8d3d d4de 333b
000002d0: c6fe d4bc c8bd b63c 392d 903d 1859 dabd
000002e0: 3e8e c4bb 3866 b0bc 87cb dcbd fdfe ba3c
000002f0: 48ab ef3d 3f8b 11be 8596 dabd a4f3 01be
00000300: b5ed acbd ad4d aabd 0871 0cbe 9c5f 5f3c
00000310: 4be1 a9ba 8642 543a 4147 ce3d df87 c4bd
00000320: 84f5 c23d 6814 93bd dc32 03be b619 013d
00000330: 3ec6 de3d ef41 3fbc a69b c1bd 4e94 15bd
00000340: b51b 3ebd 93ca 453d 932c b0bc b7ed 6d3b
00000350: 1872 783d 0580 0c3e 17b5 53bb 68c4 b2bd
00000360: 14c2 b83b 78cd 07bd 6c84 cb3d 5f8b 74b9
00000370: 649d 48bd 1609 16bd 5d9e 953d 64c7 793c
00000380: 5f24 e53d e516 ddbc 5321 ecbd c460 b1bd
00000390: 29df 0fbd 5edb 013e 3d49 cdbd d2d2 92bd
000003a0: e7b9 80b9 9366 01be d399 13be 8273 eabd
000003b0: bd33 b2bd 31c2 283c 0e27 c63c eb7c fe3d
000003c0: ccf0 adbc b5ab abbd f935 7f3d 4db3 9c3d
000003d0: 6093 babd dd2d 0f3e 44e9 50bc 725b 6abd
000003e0: 641c 813d 46ec 2f3d f056 b1bc cfcd d43d
000003f0: 98d9 ddbc 84e2 b03d 4c0e 6a3d 44cc 04be
-0.14363936 -0.04830852 -0.026666772 -0.11443524 0.008439973 -0.0928988 0.023445636 0.054176122
0.15032585 0.11951077 0.062325712 0.06154549 0.09191639 -0.0019037873 0.14151594 0.11245956
-0.058944676 -0.08910466 0.13737294 0.013866604 0.052466806 0.0013934481 0.049076024 -0.03337264
-0.09604366 0.14457652 -0.0060144095 0.15149745 0.09954854 0.06655135 -0.16183192 -0.0070882547
0.2525342 0.106803454 0.02654083 -0.021946637 0.008281147 0.011306641 -0.028269352 -0.0147581035
-0.091070965 0.14884917 0.08038447 -0.04736601 0.01686976 -0.09547478 0.056825753 -0.1384239
0.094750494 0.009012415 -0.016664876 -0.102317624 -0.07391653 0.06637687 -0.09596633 -0.11623161
-0.08238586 -0.11976766 0.029865246 -0.05319106 0.14152727 -0.021551121 0.1178838 -0.0043600635
0.052418724 -0.1370074 0.07416942 -0.087053396 -0.060847864 -0.090120725 -0.013117855 -0.22629641
-0.026894467 -0.023266133 0.00018092144 -0.111316085 0.08949937 -0.042266 0.07471754 0.10254572
0.0555406 -0.022685781 0.1070462 -0.13839185 -0.11873004 -0.0900636 0.058432586 -0.03934591
0.13328773 0.031458255 -0.05095738 -0.14728315 0.10975578 0.086597644 0.07575363 0.06969961
0.003832526 0.08132851 0.10939615 0.039108936 -0.059756458 -0.09930187 -0.09286283 0.083879225
-0.12913518 0.033982806 0.16710806 -0.05442351 -0.15509367 0.0287508 0.010281897 -0.034474954
0.11302455 -0.050629884 0.06255374 0.0043564406 -0.11270446 0.12141823 0.018223278 0.029305078
0.13222812 -0.0777696 -0.03041177 0.08442101 0.10490056 -0.10947435 0.06315473 -0.06380997
0.06608577 -0.07565882 0.090796895 0.07827195 -0.22047521 -0.08040189 0.099179484 0.04601595
-0.07885415 -0.04303746 -0.016977906 0.007588549 0.11740934 -0.060262505 -0.07473674 -0.10733883
0.08281041 -0.094449125 -0.074446976 0.07653327 0.12273353 0.09827118 0.10365967 0.034694526
-0.12167988 -0.08313528 -0.072489575 0.018924765 0.1331204 0.12703423 0.07251716 0.13122486
0.11160301 -0.0060295872 -0.02138105 0.13900967 -0.04341551 0.07721117 0.010467103 -0.008397625
-0.08080197 0.11956099 -0.099712744 -0.01193057 0.05289042 0.08792367 -0.0919657 -0.04877024
-0.13226314 0.09492781 0.0690798 0.0027446048 -0.026000392 0.022307292 0.070398755 -0.106615245
-0.005998402 -0.021533117 -0.10781007 0.022826666 0.11702591 -0.14213274 -0.106732406 -0.12690598
-0.084437765 -0.08315597 -0.13714993 0.013633635 -0.0012960819 0.0008097071 0.10072184 -0.09596228
0.09519485 -0.071816266 -0.1281237 0.03151866 0.108776554 -0.011673435 -0.09453516 -0.036518387
-0.046413142 0.048288893 -0.02150563 0.003630502 0.060655683 0.1372071 -0.0032303983 -0.08728868
0.0056383703 -0.033154935 0.09937367 -0.00023321573 -0.048978224 -0.03662976 0.07305596 0.015245292
0.11188578 -0.026988456 -0.115297936 -0.08661035 -0.03512493 0.12681338 -0.10023735 -0.07169117
-0.0002455257 -0.12636785 -0.14414148 -0.114478126 -0.087012745 0.010300205 0.024188545 0.1242617
-0.021232985 -0.0838236 0.06230733 0.076513864 -0.09110141 0.13982339 -0.012750927 -0.057216115
0.06304243 0.042949937 -0.0216479 0.103908174 -0.027081296 0.086369544 0.05714254 -0.12968546

bias_ih_l0 f4 [50]
00000000: 3330 aa3d cdb4 0ebd ccc9 d6bd c9e9 8abd
00000010: bc29 b2bd c37e e83d e331 013e c2c0 373d
00000020: e62f 8f3d dc59 e0bc 4cf4 413c 4383 443d
00000030: 62ec ab3d 0fde 0f3d 45ed e23c 492a df3d
00000040: 52ab 9a3d 8fc3 31bd 6150 d9bd 36f0 913d
00000050: 6e15 833d 5c7f 14be 6de9 ee3d 5112 aeba
00000060: 9394 303d 34eb e83d bbc6 8c3b 6aa8 d8bd
00000070: 145a debd b780 e43d 0a3f 31bd 15bc 523d
00000080: 5b59 f93d a2d0 d43d d94e da3d c6ab 983d
00000090: f91a e338 b4aa d1bd 5cdc f1bc 6105 fa3c
000000a0: 99b2 aabd ba4a 983c ab52 c83d d0f3 89bc
000000b0: a359 d6bd 415d b2bd 853c 833d b44a 8c3d
000000c0: 8f27 223d 95e4 e3bd
0.083099745 -0.034840394 -0.104877084 -0.06782872 -0.086993665 0.11352303 0.12616687 0.044861563
0.06991558 -0.027386598 0.01183803 0.047976743 0.08394696 0.03512388 0.02770103 0.10896737
0.07552208 -0.04339939 -0.10611034 0.07125895 0.06400572 -0.14501709 0.11665616 -0.0013280605
0.04311044 0.113729864 0.0042961515 -0.105789974 -0.10857025 0.11157363 -0.04327301 0.0514489
0.12175246 0.10391356 0.1065957 0.07454638 0.000108292275 -0.10237637 -0.02952402 0.030520143
-0.08334846 0.01859032 0.09781393 -0.016839892 -0.104663156 -0.08709193 0.064080276 0.06850186
0.039588507 -0.11127583

bias_hh_l0 f4 [50]
00000000: ab77 aa3d ab58 953d a584 23bd eea0 f33d
00000010: f0cc 40bd c33b f4bc da53 2cbd 795e a2bd
00000020: 3104 7dbd 54c2 fcbd 6321 1cbd 4033 963d
00000030: 5422 afbd 5d63 f7bd eb3b b3bd ad48 df3d
00000040: 6f55 d33b 4d9f 79bd 33ed 513d 7f02 71bd
00000050: dfc7 f4bb 4f6e dbbc e770 a6bd ef27 933c
00000060: 13d4 2f3d 888c dbbd b261 fdbd 5981 043e
00000070: 5a90 b7bd 1336 a5bd 328a 493c 73eb dbbd
00000080: 19f2 9ebd c365 933d f94c 9cbd 6e94 a5bd
00000090: 31f3 0a3d 0293 b4bc 66bb 21bc d45d cebd
000000a0: d55a d93d e31e c9bd 07a9 1a3c 2908 b6bd
000000b0: e44d 64bd 45d5 7a3b 9077 673d 9e10 8f3d
000000c0: b171 51bd 3155 ddbd
0.08323606 0.07292303 -0.03992142 0.11895929 -0.047070444 -0.029813653 -0.042072155 -0.079281755
-0.061771575 -0.12341753 -0.038117778 0.07333994 -0.085514694 -0.12079499 -0.08751663 0.10902534
0.0064493935 -0.060942937 0.0512516 -0.05884027 -0.0074701156 -0.026785998 -0.08127003 0.017963378
0.04292686 -0.107201636 -0.123721495 0.12939967 -0.0896308 -0.080669545 0.012301015 -0.10738268
-0.0776102 0.07197144 -0.07631869 -0.08084951 0.03392333 -0.022042755 -0.009871339 -0.1007649
0.10613028 -0.09820344 0.009439713 -0.08888275 -0.055738345 0.0038274091 0.056510508 0.06985591
-0.051133815 -0.108072646

weight f4 [1, 50]
00000000: ac23 23be 4ff5 fdbd bab0 623d 8de9 013d
00000010: 7764 e7bc 4ffb 7e3d b214 6e3c 1bf2 ed3b
00000020: 7fe1 7a3c 3360 c2bd 1876 123e 223d 763b
00000030: c025 41bd 62e4 e33d 0f74 9d3d ed5a f6bd
00000040: a331 f13d d926 aa3d 16f7 de3d 80a9 513b
00000050: 826f d9bd 84f0 22be 92d0 f9bd 1d57 b6bb
00000060: 8a23 83bd 39c3 0ebe 28d1 1cbe 0ffe eebc
00000070: 88d7 a93c ccc8 0ebd 98dc 173e ef95 c63d
00000080: 15c8 103e e601 ed3c ddb3 053e 741f ed3d
00000090: 3a61 533e 2d4b f2bd 215b 073e 9e1d 0a3e
000000a0: 3890 04be be1a bb3d fd13 04bc c83b f03d
000000b0: 4c21 c43d 21a2 1dbe 0cba 47bb 581f db3d
000000c0: 01d1 2e3e 9b3e 2b3c
-0.15931576 -0.124003045 0.05534432 0.031716872 -0.028246148 0.062251385 0.014531301 0.0072615272
0.0153125515 -0.09491005 0.14302862 0.003757306 -0.04715514 0.11127545 0.07688152 -0.120290615
0.117770456 0.08308191 0.10886972 0.00319919 -0.106169716 -0.15912062 -0.12197985 -0.005564584
-0.06403263 -0.13941659 -0.15314162 -0.029173879 0.020732656 -0.034859464 0.14830244 0.09696566
0.14138825 0.02893157 0.13056894 0.11578265 0.20642558 -0.11830745 0.13218357 0.1348786
-0.1294564 0.0913596 -0.008061406 0.11730152 0.095766634 -0.15393879 -0.0030475883 0.10699338
0.17071916 0.010451938
