RNN_models/close_slope_35_5_zscore_15min_t3.pth (torch, 172046 bytes, 30 tensors)

stacks.0.blocks.0.fc1.weight f4 [50, 56]
0.09414088 -0.024014365 0.06578475 0.003073519 0.08131793 0.058588125 0.09627362 -0.09713892
-0.007733171 0.013407315 0.09758565 -0.034569893 -0.085895486 0.13745987 0.053155135 -0.010405203
-0.06734882 0.029461274 0.11109955 -0.019087655 -0.042139813 -0.000368052 -0.027361332 -0.06790276
0.06151581 0.061567906 -0.1546011 0.03878782 -0.12411179 -0.034529235 -0.028771615 0.025864433
0.034688577 0.10382867 -0.12934509 0.11055031 -0.047660887 -0.024580296 0.0134932315 -0.1403542
0.06339439 0.17908472 -0.0014724769 0.05980217 0.071037605 -0.108820945 -0.004483692 -0.12669817
-0.10242743 -0.009572612 0.000329409 -0.039187945 0.010415166 -0.10067256 0.07420235 -0.055320702
0.050897665 0.09967275 -0.018311324 0.043822803 0.03352835 0.041284684 0.048590317 -0.13168263
0.11669326 -0.087070376 -0.035315424 0.0053092074 0.08365214 -0.12884463 0.072193794 0.0784445
0.13169438 -0.06377178 0.07121718 -0.10650225 0.08952634 -0.0073246243 -0.12822366 -0.10656827
0.04687804 0.06337751 0.06291431 -0.045309063 0.030396663 -0.03292499 -0.06137479 -0.09509532
-0.10795563 0.08290784 -0.067786 -0.067647554 -0.06348553 -0.047767974 -0.12808552 0.062377747
-0.13084991 0.1986355 0.04386227 -0.065011464 0.12714104 0.08805866 0.1396603 0.124027535
-0.020381935 -0.00636063 -0.087342195 0.15608117 -0.1039387 0.13014643 0.061826337 0.09462017
-0.006151991 0.02961173 -0.008224158 0.07520034 0.10841798 0.07695158 0.041542467 0.002991428
-0.085434526 0.03355434 0.03758445 -0.07562588 -0.044543322 -0.049623378 -0.009607927 -0.0059460727
-0.0631283 0.015731268 -0.0362079 0.07604213 0.035581704 -0.024425013 0.03403774 0.10882069
-0.031158194 0.0638673 -0.045186594 -0.0066458825 -0.08650306 0.010261717 0.022327887 -0.08607146
0.12702094 0.042222004 -0.036816753 0.05478491 -0.047426376 -0.08156275 0.047842864 0.1314444
0.012923901 -0.16218624 0.09991437 0.14198203 -0.105522595 -0.13043219 0.007650758 -0.13912131
-0.15432617 -0.08485143 0.004671591 0.001510938 0.14812061 0.030265136 -0.0610226 0.06343756
0.067963496 0.10298046 0.1058023 -0.022448212 0.018348983 -0.07567994 0.010959715 0.13765837
-0.06041903 -0.13155045 -0.09488895 0.014132757 -0.102869876 -0.1024896 0.015423878 0.07792224
-0.108304076 0.023506464 -0.0331384 -0.09809794 0.09466962 0.08627889 -0.113300316 -0.103619695
-0.048112273 0.0913801 0.08992824 -0.08125531 0.032740932 0.1214719 -0.07473298 -0.11281485
0.08400945 -0.15809216 -0.14051718 -0.0074207457 0.094407454 0.104973145 -0.009281631 -0.054750673
0.059870005 0.17551297 0.036064144 -0.07040694 0.037677538 -0.030579597 0.0891293 0.10200374
0.10959997 -0.18437397 -0.16451375 -0.06155235 -0.17711516 -0.071670085 -0.08162866 -0.09366524
0.009052904 0.09661532 -0.06119775 -0.111846484 0.12118353 -0.021979846 0.015224842 -0.016071225
-0.079723254 0.09456994 0.08701705 -0.098581724 0.021898534 -0.13307099 -0.07866871 0.06571915
-0.005095972 0.029024674 0.09212271 0.0063418667 -0.08201213 -0.06202815 0.072272114 0.08725967
-0.035668187 -0.059938036 -0.05278226 0.025169464 0.066093355 0.067428805 -0.013445097 0.1097717
00000000: efcc c03d c6b9 c4bc 28ba 863d 186d 493b
00000010: 048a a63d 1afa 6f3d 1b2b c53d c5f0 c6bd
00000020: 8a66 fdbb 5baa 5b3c fcda c73d 2999 0dbd
00000030: f9e9 afbd 48c2 0c3e 33b9 593d 967a 2abc
00000040: 2eee 89bd c558 f13c 2988 e33d b75d 9cbc
00000050: cc9a 2cbd 1af7 c0b9 df24 e0bc 9a10 8bbd
00000060: 01f8 7b3d a12e 7c3d c04f 1ebe fadf 1e3d
00000070: 522e febd 876e 0dbd 73b2 ebbc a6e1 d33c
00000080: 9c15 0e3d 20a4 d43d 0a73 04be 3368 e23d
00000090: 1038 43bd 9e5c c9bc b712 5d3c 03b9 0fbe
000000a0: ebd4 813d fc61 373e 2000 c1ba 1ff3 743d
000000b0: 2a7c 913d 84dd debd efeb 92bb 2abd 01be
000000c0: 79c5 d1bd 72d6 1cbc 87b4 ac39 8a83 20bd
000000d0: 5fa4 2a3c 6a2d cebd 67f7 973d f697 62bd
000000e0: 127a 503d 3a21 cc3d a101 96bc 8a7f 333d
000000f0: 0655 093d 211a 293d a406 473d d0d7 06be
00000100: e0fc ee3d f451 b2bd e8a6 10bd dcf8 ad3b
00000110: d051 ab3d d9ef 03be 57da 933d 83a7 a03d
00000120: e4da 063e c79a 82bd 50da 913d da1d dabd
00000130: 9659 b73d 6703 f0bb 104d 03be 7740 dabd
00000140: 3003 403d 11cc 813d 38d9 803d ff95 39bd
00000150: 6c02 f93c 5bdc 06bd 2264 7bbd 56c1 c2bd
00000160: d717 ddbd 96cb a93d 63d3 8abd cd8a 8abd
00000170: b404 82bd 5aa8 43bd da28 03be cf7f 7f3d
00000180: 85fd 05be 1b67 4b3e eca8 333d bb24 85bd
00000190: 4331 023e 1958 b43d 1c03 0f3e 2602 fe3d
000001a0: 04f8 a6bc d56c d0bb 77e0 b2bd bed3 1f3e
000001b0: d0dd d4bd 1b45 053e 9d3d 7d3d 38c8 c13d
000001c0: a496 c9bb 4c94 f23c 9ebe 06bc a302 9a3d
000001d0: 3f0a de3d ca98 9d3d 6f28 2a3d d50b 443b
000001e0: 4cf8 aebd 4770 093d 27f2 193d bee1 9abd
000001f0: 0f73 36bd e241 4bbd 916a 1dbc 46d7 c2bb
00000200: 6949 81bd dcde 803c bc4e 14bd fabb 9b3d
00000210: 1fbe 113d f716 c8bc 286b 0b3d 62dd de3d
00000220: 783f ffbc dccc 823d 9415 39bd b4c5 d9bb
00000230: 8428 b1bd c320 283c f9e8 b63c 3c46 b0bd
00000240: c711 023e fbf0 2c3d 2acd 16bd 2466 603d
00000250: 2942 42bd 5f0a a7bd e1f6 433d 5c99 063e
00000260: c5be 533c 2614 26be e89f cc3d bd63 113e
00000270: 3b1c d8bd 0490 05be 36b3 fa3b d175 0ebe
00000280: ae07 1ebe 96c6 adbd 2514 993b ab0a c63a
00000290: eeac 173e 97ee f73c d5f2 79bd 8deb 813d
000002a0: 7230 8b3d 6be7 d23d e0ae d83d 50e5 b7bc
000002b0: 9b50 963c 16fe 9abd 6090 333c 51f6 0c3e
000002c0: f279 77bd 29b5 06be 2355 c2bd 148d 673c
000002d0: 71ad d2bd 11e6 d1bd 6fb4 7c3c b295 9f3d
000002e0: 87ce ddbd a190 c03c 22bc 07bd 93e7 c8bd
000002f0: 25e2 c13d fdb2 b03d ff09 e8bd 9036 d4bd
00000300: 6011 45bd 7d25 bb3d 4c2c b83d 2f69 a6bd
00000310: 5b1b 063d 42c6 f83d 9b0d 99bd 790b e7bd
00000320: 260d ac3d e9e2 21be bce3 0fbe ba29 f3bb
00000330: b258 c13d 29fc d63d fb11 18bc 3e42 60bd
00000340: 403a 753d acb9 333e ffb7 133d 8431 90bd
00000350: c353 1a3d 1082 fabc 6c89 b63d 56e7 d03d
00000360: f375 e03d 88cc 3cbe 4b76 28be 511e 7cbd
00000370: ad5d 35be c4c7 92bd ed2c a7bd 90d3 bfbd
00000380: a252 143c 41de c53d 7eaa 7abd c50f e5bd
00000390: 122f f83d 140f b4bc 9e71 793c cda7 83bc
000003a0: f245 a3bd e2ad c13d ff35 b23d 37e5 c9bd
000003b0: 8e64 b33c c343 08be 101d a1bd c397 863d
000003c0: 1dfc a6bb 27c5 ed3c d5aa bc3d 6fcf cf3b
000003d0: faf5 a7bd 3b11 7ebd 6703 943d 33b5 b23d
000003e0: ce18 12bd 9681 75bd 3632 58bd 3130 ce3c
000003f0: f45b 873d 1d18 8a3d d348 5cbc fccf e03d

stacks.0.blocks.0.fc1.bias f4 [50]
0.027637444 -0.06432686 -0.09021513 0.04727306 -0.1511628 -0.057084642 -0.05155459 0.00016042525
0.074924454 -0.12857293 -0.14608717 0.02663124 -0.15126131 -0.04088175 0.1036031 -0.13010319
0.08446335 -0.010060328 -0.08250707 0.09654853 0.053722974 -0.03631928 -0.008454509 -0.07889026
-0.010988392 0.06481595 0.2018647 -0.0023898054 -0.14265434 -0.0017825073 0.032426216 0.097292185
-0.11189746 -0.22834381 -0.024886483 -0.11067406 -0.11161548 0.034270775 0.027442707 -0.073179305
0.19573422 -0.13998759 -0.0743181 -0.10824204 0.09419007 0.0633182 -0.087153204 0.11015181
-0.03365824 -0.031139478
00000000: ec67 e23c cdbd 83bd b6c2 b8bd 65a1 413d
00000010: 6cca 1abe 96d1 69bd e82a 53bd d337 2839
00000020: fe71 993d 9fa8 03be e097 15be c229 da3c
00000030: 3fe4 1abe 9f73 27bd dd2d d43d c539 05be
00000040: 1ffb ac3d 13d4 24bc 77f9 a8bd 3cbb c53d
00000050: 9f0c 5c3d 86c3 14bd c884 0abc 3791 a1bd
00000060: a808 34bc 3abe 843d 9fb5 4e3e 489e 1cbb
00000070: fb13 12be 05a3 e9ba 5ad1 043d 2041 c73d
00000080: 7f2a e5bd f6d2 69be bdde cbbc 15a9 e2bd
00000090: a896 e4bd 835f 0c3d 87cf e03c 08df 95bd
000000a0: 8d6e 483e e858 0fbe 1734 98bd 01ae ddbd
000000b0: b9e6 c03d f9ac 813d 617d b2bd 4697 e13d
000000c0: 39dd 09bd 3818 ffbc

stacks.0.blocks.0.fc2.weight f4 [50, 50]
0.14056914 0.084069654 -0.14888905 -0.026573658 -0.055157326 -0.10253813 0.03896971 -0.008780549
0.046696533 -0.006901973 0.12701732 0.115522355 -0.091474645 0.052769653 -0.0067724925 -0.070265904
0.02282317 -0.15189391 0.04176929 0.08289074 0.01592414 0.010756241 0.13571861 0.052900337
-0.031585228 -0.11145811 -0.18560767 0.017209934 -0.054070972 -0.03679899 0.039669447 0.11900021
0.100513056 0.05170681 0.10159929 0.11226439 0.107231885 0.03210545 -0.11192915 -0.1566998
-0.05789445 -0.09229906 0.09530199 -0.13797368 -0.12485708 0.069313444 -0.050235122 0.11169494
-0.098522276 -0.12530632 -0.07214671 0.06469173 -0.11902069 0.14400858 -0.119659655 -0.0033103647
0.06936982 0.11435744 -0.27625966 -0.07334447 0.056892227 0.08736716 -0.14683573 0.030953085
0.04734507 -0.090297386 0.004924817 0.07903529 -0.009770009 -0.04041217 -0.03212909 0.14209786
0.054046195 0.08229056 0.113720916 -0.04567722 0.2320627 -0.09465924 -0.12415479 -0.087190546
-0.05713498 0.14172356 -0.103582695 0.12411015 -0.08586645 0.045166448 0.020533863 0.053834405
0.13182595 -0.008655569 -0.23211938 0.1012589 -0.12757552 0.077938125 -0.03785829 -0.15355651
0.025701316 0.08911199 -0.009314468 -0.0009186671 -0.08076169 0.14125124 -0.02718078 0.050466765
-0.09264984 -0.12915096 -0.07527024 0.06939285 0.014475304 0.02100058 0.14206916 -0.09886531
-0.1351333 -0.06327622 0.15159157 -0.07075559 -0.050808653 0.10399769 0.12520893 0.047563925
0.050766863 0.23199064 0.0008462597 -0.09770512 0.15664417 0.08006897 0.18066695 -0.14682545
-0.14378643 -0.11349486 -0.16063209 0.083546974 0.00090103305 0.009713521 -0.1368846 0.032790005
-0.021209976 -0.076021284 0.108087726 0.083282955 -0.050451335 0.083713464 0.08190542 -0.06814427
-0.012654486 0.100161515 -0.16668378 -0.12610973 -0.061369516 -0.13574098 0.06683628 -0.067084834
0.09588147 0.13240416 0.08037927 -0.00079199974 0.14590585 -0.057097115 -0.006183087 0.080778785
-0.052073304 0.03401126 0.1580823 -0.04858596 0.16728806 -0.040147483 -0.11406168 -0.057952896
-0.08141742 0.07775761 -0.03480366 -0.08564032 0.16728252 -0.090408966 -0.076211154 -0.018486625
-0.007347803 -0.02126593 -0.00012972507 -0.06655646 -0.014834236 -0.12373201 0.14119792 -0.10585431
0.10429502 0.08553764 0.12953618 -0.056972902 -0.06765228 0.011371994 -0.05320364 -0.024891803
-0.05109873 -0.01129731 -0.0045396 0.03445542 0.08532014 -0.0082548205 0.005305444 0.14726928
-0.0029224416 -0.05439589 0.031002244 -0.017725388 0.09121353 -0.0009604095 0.06769847 0.095414795
0.22385557 0.0746468 0.07741413 0.18612202 -0.086464785 0.016890498 -0.16705641 -0.06227175
-0.012340112 0.0583697 -0.08237482 0.10564838 -0.01881304 -0.05352641 0.16026813 0.10059409
0.033698488 -0.09129137 -0.15297538 -0.13369465 0.15302965 0.007095909 -0.059748556 -0.009347555
0.060361985 0.21814768 -0.0337376 0.038773365 0.15047844 -0.062232953 0.091073185 0.05213579
0.22983132 -0.009545145 -0.11017571 0.08943564 -0.043649532 0.01217665 0.14557685 -0.045628846
-0.086293966 0.0016657932 0.043304976 -0.07989592 0.10689382 -0.005254913 -0.097769186 -0.08666888
00000000: 5bf1 0f3e b62c ac3d 5f76 18be 00b1 d9bc
00000010: a6ec 61bd 83ff d1bd b49e 1f3d 4bdc 0fbc
00000020: dd44 3f3d f229 e2bb d410 023e fc96 ec3d
00000030: 0f57 bbbd fe24 583d c9eb ddbb 92e7 8fbd
00000040: a8f7 ba3c 148a 1bbe 4616 2b3d 9fc2 a93d
00000050: 5873 823c f23a 303c d2f9 0a3e 06ae 583d
00000060: 835f 01bd 2644 e4bd f00f 3ebe d9fb 8c3c
00000070: 8679 5dbd 8aba 16bd 6e7c 223d 62b6 f33d
00000080: cad9 cd3d 85ca 533d 4a13 d03d dfea e53d
00000090: 649c db3d 0181 033d 1c3b e5bd ea75 20be
000000a0: bb22 6dbd 4a07 bdbd b12d c33d f948 0dbe
000000b0: 12b5 ffbd 35f4 8d3d 58c3 4dbd 51c0 e43d
000000c0: 0cc6 c9bd 4d50 00be a7c1 93bd 197d 843d
000000d0: 1fc1 f3bd fc76 133e 1f10 f5bd b4f2 58bb
000000e0: c411 8e3d 3c34 ea3d e871 8dbe a035 96bd
000000f0: d307 693d 8eed b23d 1b5c 16be 5391 fd3c
00000100: e7ec 413d d6ed b8bd 5c60 a13b 41dd a13d
00000110: 6312 20bc 3b87 25bd cb99 03bd 1a82 113e
00000120: 8b5f 5d3d f487 a83d 83e6 e83d 0918 3bbd
00000130: d8a1 6d3e b4dc c1bd de44 febd f590 b2bd
00000140: 5e06 6abd fb1f 113e 2a23 d4bd 762d fe3d
00000150: c0da afbd 7400 393d a236 a83c 7781 5c3d
00000160: 62fd 063e 16d0 0dbc b4b0 6dbe d360 cf3d
00000170: 28a3 02be 069e 9f3d 4b11 1bbd eb3d 1dbe
00000180: 918b d23c 5980 b63d b69b 18bc b5d2 70ba
00000190: 6366 a5bd 2aa4 103e 3aaa debc 3db6 4e3d
000001a0: 33bf bdbd 2640 04be 4927 9abd d71d 8e3d
000001b0: d329 6d3c 6909 ac3c 947a 113e e579 cabd
000001c0: 6260 0abe f696 81bd d23a 1b3e 4fe8 90bd
000001d0: bc1c 50bd befc d43d c536 003e 64d2 423d
000001e0: eaf0 4f3d f48e 6d3e 87d7 5d3a 9f19 c8bd
000001f0: 5467 203e 33fb a33d c200 393e 6959 16be
00000200: c03c 13be fe6f e8bd bd7c 24be ad1a ab3d
00000210: 4e33 6c3a 7625 1f3c 7a2b 0cbe d04e 063d
00000220: 8bc0 adbc 0cb1 9bbd 195d dd3d 4190 aa3d
00000230: 0fa6 4ebd f771 ab3d 07be a73d 398f 8bbd
00000240: c354 4fbc 7b21 cd3d 27af 2abe e922 01be
00000250: 9a5e 7bbd afff 0abe 76e1 883d c663 89bd
00000260: 815d c43d f594 073e e39d a43d 349e 4fba
00000270: 5868 153e aade 69bd 7e9b cabb 596f a53d
00000280: d14a 55bd 644f 0b3d 54e0 213e 1202 47bd
00000290: 904d 2b3e b071 24bd 2c99 e9bd 0460 6dbd
000002a0: 2dbe a6bd 623f 9f3d 488e 0ebd 3164 afbd
000002b0: 1c4c 2b3e 5628 b9bd 9814 9cbd 4371 97bc
000002c0: d7c5 f0bb e335 aebc cf06 08b9 c14e 88bd
000002d0: 4c0b 73bc 3567 fdbd 3096 103e 25ca d8bd
000002e0: a198 d53d 5c2e af3d 22a5 043e 6b5c 69bd
000002f0: 478d 8abd 9a51 3a3c 0fec 59bd e5e9 cbbc
00000300: e74c 51bd 5a18 39bc edc0 94bb 2021 0d3d
00000310: 53bc ae3d 3a3f 07bc 4ad9 ad3b c2cd 163e
00000320: 6f86 3fbb 3ace 5ebd 6bf8 fd3c d534 91bc
00000330: 29ce ba3d fec3 7bba 7fa5 8a3d d568 c33d
00000340: 653a 653e 6ce0 983d 4d8b 9e3d c596 3e3e
00000350: 7314 b1bd f15d 8a3c d610 2bbe aa10 7fbd
00000360: 2e2e 4abc 1115 6f3d 21b4 a8bd 2e5e d83d
00000370: ce1d 9abc 823e 5bbd 541d 243e 4604 ce3d
00000380: 6d07 0a3d f8f6 babd 94a5 1cbe 40e7 08be
00000390: ceb3 1c3e cd84 e83b e7ba 74bd 7d26 19bc
000003a0: 213e 773d 1b62 5f3e 7030 0abd d2d0 1e3d
000003b0: 0517 1a3e fbe7 7ebd 9484 ba3d 578c 553d
000003c0: e758 6b3e 3d63 1cbc cda3 e1bd 082a b73d
000003d0: dac9 32bd 9280 473c 1912 153e 50e5 3abd
000003e0: e4ba b0bd bf56 da3a 8f60 313d 79a0 a3bd
000003f0: 26eb da3d 6831 acbb 363b c8bd 747f b1bd

stacks.0.blocks.0.fc2.bias f4 [50]
0.03263021 0.014263188 -0.03961147 -0.082891285 0.031792562 0.109257475 -0.006649285 -0.1263516
-0.054838344 0.13759522 0.17180297 -0.072466426 0.10136054 0.092541486 0.11222165 -0.0015991316
0.025740534 -0.05334823 0.095723026 -0.04238296 -0.1271433 -0.095153175 -0.005847693 -0.1519774
0.062045842 0.0635458 0.13447149 0.10684175 -0.10612967 -0.092805296 -0.12765226 -0.10000304
-0.041178875 -0.09517079 0.030129207 0.015594181 0.07722979 0.15378687 0.1306235 0.023797406
0.17469865 0.031865396 -0.026035285 0.0003170795 0.09503327 -0.020320855 0.11002918 0.12362728
0.1299906 -0.05087886
00000000: 41a7 053d 25b0 693c a33f 22bd e8c2 a9bd
00000010: eb38 023d 62c2 df3d 3fe2 d9bb 5062 01be
00000020: 2c9e 60bd c3e5 0c3e 1eed 2f3e 4769 94bd
00000030: 1d96 cf3d 6486 bd3d 77d4 e53d f499 d1ba
00000040: d0dd d23c ac83 5abd 6f0a c43d c199 2dbd
00000050: da31 02be abdf c2bd 019e bfbb f79f 1bbe
00000060: c823 7e3d 4d24 823d e5b2 093e d9cf da3d
00000070: 835a d9bd b410 bebd 46b7 02be 65ce ccbd
00000080: 2eab 28bd e7e8 c2bd 87d1 f63c bc7e 7f3c
00000090: a72a 9e3d 4e7a 1d3e 2bc2 053e c7f2 c23c
000000a0: 34e4 323e 4a85 023d f347 d5bc b13d a639
000000b0: cea0 c23d ec77 a6bc fb56 e13d 4d30 fd3d
000000c0: 411c 053e 5a66 50bd

stacks.0.blocks.0.fc3.weight f4 [50, 50]
-0.13939874 -0.011499852 -0.06642199 -0.1542624 -0.045981184 -0.006654764 -0.042479698 -0.003795504
-0.03395769 0.055780392 0.04468422 -0.096026845 -0.020841831 -0.029214 0.06937803 0.14069915
-0.13642867 0.037129093 -0.15436412 0.07804733 0.13752437 0.060379386 -0.02367075 -0.049686275
0.11608625 0.07144467 -0.12981942 0.11804216 0.065918215 0.14090285 -0.14277156 0.11588237
-0.050430275 0.16647331 -0.068198316 -0.15093593 0.036608137 0.104029074 0.023760693 0.025026888
-0.13442667 0.098826535 -0.037995525 0.0380397 -0.0029617108 -0.116443835 -0.0038243136 0.0021725006
0.13607071 0.10843939 -0.074122086 -0.05141007 -0.0835599 -0.054462392 -0.06297984 -0.13184635
-0.13090137 0.11087749 0.07073925 -0.124783516 0.0932882 -0.076158844 0.07309254 0.08501943
0.072217554 -0.11039295 0.13830574 -0.058574803 -0.012756984 0.06347693 -0.07524864 -0.12842433
0.057898857 0.11959385 -0.13714355 -0.12368051 0.0721237 0.09162286 0.023917941 -0.13075991
0.03428751 -0.060613073 0.13223869 -0.10673995 -0.0903521 -0.03062045 -0.015304605 -0.13760622
0.04498975 0.10960044 -0.12229012 -0.023109877 0.104543045 0.0006743724 0.04595858 -0.0080525335
-0.14229743 -0.008922799 -0.011086359 -0.047659487 0.03436507 0.10783273 -0.087502584 -0.02837653
-0.09860446 -0.11978915 0.023490606 -0.12931213 0.11814479 0.11448709 -0.09968056 -0.029518219
0.13677247 0.02410354 0.06983662 -0.10601998 0.13611016 0.0066792904 0.12506336 0.0065174666
-0.0906292 0.04993207 0.09318824 -0.03863642 0.034861 0.023064464 -0.036053386 0.00423255
-0.023400024 -0.14304884 0.0106820725 -0.09486525 -0.115675636 -0.033101577 0.08443327 0.115418546
-0.07932868 0.01298128 0.15150945 0.1565198 0.105357975 -0.08235518 -0.11592075 0.119551145
0.10767916 -0.00036216053 0.06684023 0.04222179 -0.110031515 0.16676684 -0.12020127 0.09324759
0.04782155 -0.11903588 0.07646607 -0.11792077 -0.012850667 -0.08015425 0.1179919 0.110032186
-0.058145452 0.014093319 -0.12531528 0.018631397 -0.12617442 0.15713294 0.054449774 -0.12058985
0.041084263 -0.061223645 0.12106869 -0.07386346 -0.015071967 0.06330642 0.026160667 0.06873539
0.10444093 -0.009772214 0.09981576 -0.102259226 -0.11842107 -0.026892975 -0.094484754 -0.0012133917
-0.115249015 0.04450213 0.035210144 -0.041506443 0.060899727 -0.09409439 -0.039813753 -0.06922269
0.06916273 -0.10089817 0.09940358 0.054242007 -0.1078327 0.08326701 -0.010513623 -0.06963342
-0.03357335 -0.13221458 -0.16011278 -0.16863714 -0.08493334 0.11318839 6.090311e-05 -0.019348556
-0.053500794 -0.111022264 -0.022762667 0.095290855 0.10070812 0.023058958 0.053363435 0.0483878
-0.20027527 -0.04185948 -0.13929152 0.09287526 -0.06127656 -0.086249776 -0.11141258 -0.0261457
0.07238745 -0.015596663 -0.053712033 -0.07138293 -0.09649054 0.09997384 -0.16320477 0.011766111
-0.08854872 0.06663204 0.071905866 -0.07925277 -0.13076858 0.08898968 0.022892391 0.030815633
-0.002340544 0.033422902 0.10103189 -0.11288784 0.027259964 0.071857184 -0.10035297 0.13190868
0.046929758 -0.04699898 0.0132732615 -0.11454168 -0.102691695 -0.05791179 0.109817624 -0.08909744
00000000: 8bbe 0ebe e069 3cbc 4108 88bd f6f6 1dbe
00000010: c456 3cbd 3510 dabb 31ff 2dbd febd 78bb
00000020: 3817 0bbd fb79 643d cd06 373d b9a9 c4bd
00000030: 7dbc aabc 3352 efbc 1216 8e3d 7013 103e
00000040: f5b3 0bbe ad14 183d a111 1ebe 47d7 9f3d
00000050: 30d3 0c3e 6050 773d 29e9 c1bc d683 4bbd
00000060: a1be ed3d 9551 923d 62ef 04be 17c0 f13d
00000070: 2100 873d d648 103e b532 12be bc53 ed3d
00000080: fa8f 4ebd fb77 2a3e 8fab 8bbd f38e 1abe
00000090: 6af2 153d 320d d53d c9a5 c23c 3005 cd3c
000000a0: 25a7 09be 9165 ca3d 32a1 1bbd 84cf 1b3d
000000b0: 4319 42bb 1b7a eebd 56a1 7abb 8360 0e3b
000000c0: 1f56 0b3e 7915 de3d 52cd 97bd 5e93 52bd
000000d0: 7421 abbd f513 5fbd 93fb 80bd bb02 07be
000000e0: 020b 06be bd13 e33d bddf 903d 808e ffbd
000000f0: e20d bf3d 2bf9 9bbd 8bb1 953d ab1e ae3d
00000100: cce6 933d b315 e2bd 05a0 0d3e 22ec 6fbd
00000110: ab02 51bc 3100 823d f51b 9abd ab81 03be
00000120: 5a27 6d3d 9fed f43d 5c6f 0cbe 354c fdbd
00000130: 97b5 933d c4a4 bb3d 8fef c33c ede5 05be
00000140: 0f71 0c3d 6a45 78bd 9469 073e 7a9a dabd
00000150: 860a b9bd bdd7 fabc 2ac0 7abc a5e8 0cbe
00000160: 2c47 383d 3276 e03d 3e73 fabd ed50 bdbc
00000170: aa1a d63d 5ec8 303a 103f 3c3d c6ee 03bc
00000180: 6bb6 11be ee30 12bc 8fa3 35bc 9836 43bd
00000190: 63c2 0c3d 68d7 dc3d 8e34 b3bd e675 e8bc
000001a0: 23f1 c9bd 0454 f5bd 5f6f c03c 666a 04be
000001b0: e5f5 f13d 3578 ea3d 5225 ccbd 31d0 f1bc
000001c0: 150e 0c3e ca74 c53c 8006 8f3d 0121 d9bd
000001d0: 7660 0b3e f3dd da3b 9c10 003e 7990 d53b
000001e0: cd9b b9bd 9285 4c3d 7ad9 be3d 3941 1ebd
000001f0: 68ca 0e3d b0f1 bc3c b7ac 13bd 34b1 8a3b
00000200: 68b1 bfbc 657b 12be dc03 2f3c b648 c2bd
00000210: 59e7 ecbd 8595 07bd 5aeb ac3d 8f60 ec3d
00000220: 1377 a2bd 6faf 543c 4b25 1b3e ba46 203e
00000230: ecc5 d73d d5a9 a8bd dc67 edbd 3bd7 f43d
00000240: e486 dc3d 5de0 bdb9 88e3 883d c1f0 2c3d
00000250: 3458 e1bd edc4 2a3e 152c f6bd 98f8 be3d
00000260: 88e0 433d 15c9 f3bd 3e9a 9c3d 7280 f1bd
00000270: 9b8b 52bc e927 a4bd bda5 f13d 8e58 e13d
00000280: ed29 6ebd aae7 663c a652 00be dfa0 983c
00000290: de33 01be 75e7 203e ba06 5f3d d0f7 f6bd
000002a0: f947 283d a5c5 7abd ddf2 f73d ba45 97bd
000002b0: 69f0 76bc cca6 813d e54e d63c 24c5 8c3d
000002c0: 20e5 d53d a31b 20bc 356c cc3d 496d d1bd
000002d0: bf86 f2bd a84e dcbc 3981 c1bd ab0a 9fba
000002e0: ad07 ecbd de47 363d 8338 103d a902 2abd
000002f0: fe71 793d 8fb4 c0bd bf13 23bd a0c4 8dbd
00000300: 30a5 8d3d b3a3 cebd 1b94 cb3d de2c 5e3d
00000310: 64d7 dcbd e587 aa3d 5541 2cbc f79b 8ebd
00000320: 3684 09bd 4263 07be 9bf4 23be 37af 2cbe
00000330: 88f1 adbd 51cf e73d 3772 7f38 dd80 9ebc
00000340: a623 5bbd a45f e3bd c678 babc da27 c33d
00000350: 0f40 ce3d 24e6 bc3c 9e93 5a3d 4932 463d
00000360: f614 4dbe d974 2bbd 70a2 0ebe 6235 be3d
00000370: 21fd 7abd b9a3 b0bd 472c e4bd 822f d6bc
00000380: df3f 943d 2589 7fbc 2601 5cbd 3731 92bd
00000390: d59c c5bd 16bf cc3d 271f 27be a5c6 403c
000003a0: 0859 b5bd 6176 883d 6243 933d 474f a2bd
000003b0: 33e8 05be 3940 b63d d388 bb3c 1171 fc3c
000003c0: d063 19bb 74e6 083d cfe9 ce3d bd31 e7bd
000003d0: 4a50 df3c dc29 933d dc85 cdbd 1213 073e
000003e0: 6b39 403d 0182 40bd 1878 593c d494 eabd
000003f0: 0650 d2bd ea34 6dbd 10e8 e03d b878 b6bd

stacks.0.blocks.0.fc3.bias f4 [50]
0.124608256 -0.11677182 0.15170175 0.02461499 0.12160497 0.13495722 -0.06962749 -0.03219686
0.03179401 -0.12433933 -0.013469781 0.048067242 0.110780925 0.09281632 -0.056722187 -0.07672224
0.094939224 0.108481325 0.014839433 0.048717882 -0.067053445 0.048921358 -0.06253992 0.13227877
0.00031302098 0.13010475 -0.014809899 -0.10757968 0.0398894 -0.059565205 -0.0905379 -0.09389328
-0.028676154 -0.0926303 0.034542717 0.1363953 0.06826068 0.08954277 0.08198715 -0.08859312
0.11428821 0.057567894 0.16369623 -0.13736428 0.063427 0.05092316 0.06916267 -0.0031222755
-0.12536018 0.025525428
00000000: 9d32 ff3d 1026 efbd b457 1b3e 60a5 c93c
00000010: 070c f93d 3a32 0a3e dc98 8ebd dbe0 03bd
00000020: 703a 023d 9ea5 febd 5bb0 5cbc 28e2 443d
00000030: 1ce1 e23d 7c16 be3d 8655 68bd 8d20 9dbd
00000040: 7f6f c23d 752b de3d 1821 733c 678c 473d
00000050: 5153 89bd c361 483d ee14 80bd 1674 073e
00000060: f71c a439 2e3a 053e 38a5 72bc bc52 dcbd
00000070: 1163 233d a5fa 73bd ef6b b9bd 1f4b c0bd
00000080: 41ea eabc f4b4 bdbd aa7c 0d3d 36ab 0b3e
00000090: 41cc 8b3d 3362 b73d e1e8 a73d 4f70 b5bd
000000a0: f00f ea3d 50cc 6b3d fc9f 273e 39a9 0cbe
000000b0: 04e6 813d ce94 503d 28a5 8d3d 179f 4cbb
000000c0: 6b5e 00be b41a d13c

stacks.0.blocks.0.fc4.weight f4 [50, 50]
-0.08293293 0.12633604 0.016249642 0.019409759 0.086487144 0.054155845 -0.11146174 0.13322414
0.1073846 -0.009857808 0.11243087 -0.022456836 -0.045947988 0.013206774 0.026792718 0.06946929
-0.14963481 -0.003277688 0.07765589 0.014144091 -0.020167895 -0.062105563 0.013451377 -0.0776438
-0.07254324 -0.1368313 0.017925987 -0.030013315 0.12250086 0.01781965 0.01673572 0.03286937
-0.03850708 0.018574534 -0.11900721 0.08010481 -0.14412847 -0.11006316 -0.067016095 -0.124702185
-0.100217395 -0.099927865 0.120117724 -0.057334226 -0.00015958711 0.06195343 -0.039813608 -0.0731415
0.05819142 0.0077960286 -0.07692825 0.05741061 0.04181057 0.108836405 0.04182452 0.09658146
-0.060567886 0.13314934 0.03221407 0.0180168 0.00029356085 0.05628883 0.046237838 -0.07055983
0.107744016 0.08990476 0.13493328 0.0672773 0.057640497 0.0652968 0.051883318 -0.032863423
-0.085189596 0.04156891 0.05928743 -0.10923449 0.10843488 -0.0011976861 0.012393452 0.04873265
0.055691954 -0.06739153 0.02510317 0.038556956 0.10639357 -6.332867e-05 0.123330556 0.11870866
0.113325745 -0.10363544 0.121214844 0.15138577 -0.08373504 0.09805566 0.014753597 0.116383806
-0.06942527 -0.16285107 0.040459365 0.13105361 0.13156939 0.10740804 -0.03691464 0.026628586
0.14226729 0.06426505 -0.02535507 -0.032209713 0.1072074 -0.07265821 0.00553956 0.030343186
-0.005944256 -0.09729543 0.102877446 -0.12472876 0.04026793 0.08389716 -0.09080269 -0.045293607
0.08831653 -0.0393007 -0.04897792 0.0782449 -0.05470761 0.02107062 0.096060395 0.13479434
0.09307314 -0.08768249 -0.013944013 0.14245377 0.009078669 0.07841264 -0.02204048 0.043604873
0.108416416 0.03684512 0.10509146 0.086191535 -0.030526489 0.16021837 0.01650377 -0.023136344
-0.034267377 0.04987909 -0.10171316 -0.09712738 -0.048329517 -0.079590715 -0.13357823 -0.015345977
-0.046261143 -0.10700304 -0.15226492 -0.13186258 -0.057637807 0.02432672 0.047463987 0.114068955
-0.11052401 -0.07946541 -0.031559512 0.13390875 -0.03186724 -0.012711032 0.07668774 -0.115679644
-0.0711243 0.0448694 0.07198095 0.09610922 0.13022035 0.020744195 0.20543553 0.09544673
-0.104314424 0.06532989 0.11163952 0.058155347 -0.037505977 -0.15029787 -0.06083517 0.004134058
-0.12690412 0.13064146 -0.10493359 0.002307177 -0.13296247 -0.12967567 0.058128025 -0.09193733
-0.073263735 0.06339244 -0.032602176 0.03730103 0.074153885 0.025862275 -0.03084 -0.12365398
-0.11210489 0.033828925 0.10315916 -0.021952791 0.13919991 -0.032175504 -0.13724783 -0.05499023
-0.060195677 -0.09647754 0.036830816 0.13180782 -0.033588957 0.0631953 0.10629075 -0.055781983
0.043807007 0.1451503 -0.0901149 0.0799565 -0.11697893 0.07026991 0.050640307 0.098761395
0.019495586 0.13181381 -0.062071774 -0.05801656 0.18721429 -0.13355477 0.00861677 -0.1288391
0.17654248 0.05356167 -0.10189766 -0.03060239 -0.041981522 -0.099182345 -0.13815334 -0.09182219
0.16761315 -0.097422995 -0.049871035 -0.112465106 -0.034258258 0.03306962 -0.14468026 -0.06811023
0.03593435 0.02016681 -0.018244967 0.09531435 -0.10442152 0.12611084 0.1134529 -0.041169345
00000000: bdd8 a9bd 3c5e 013e f81d 853c 3701 9f3c
00000010: 2c20 b13d 85d2 5d3d 0e46 e4bd e96b 083e
00000020: 75ec db3d a582 21bc 2842 e63d 66f7 b7bc
00000030: f533 3cbd 3a61 583c 677c db3c ea45 8e3d
00000040: de39 19be 7bce 56bb 0d0a 9f3d 9ebc 673c
00000050: 2437 a5bc 6762 7ebd 2a63 5c3c b603 9fbd
00000060: 8d91 94bd 811d 0cbe 85d9 923c 7cde f5bc
00000070: bbe1 fa3d 84fa 913c 5919 893c 08a2 063d
00000080: 9ab9 1dbd 9f29 983c 0dba f3bd fe0d a43d
00000090: 6a96 13be cb68 e1bd bc3f 89bd dc63 ffbd
000000a0: c73e cdbd fba6 ccbd 4800 f63d 4bd7 6abd
000000b0: d756 27b9 e1c2 7d3d 9813 23bd 36cb 95bd
000000c0: 205a 6e3d d475 ff3b 8f8c 9dbd 6327 6b3d
000000d0: 8f41 2b3d 9fe5 de3d 3050 2b3d 80cc c53d
000000e0: 0816 78bd 4d58 083e e7f2 033d f897 933c
000000f0: 12e9 9939 1e8f 663d e363 3d3d ac81 90bd
00000100: e5a8 dc3d fd1f b83d f32b 0a3e aec8 893d
00000110: 7118 6c3d 54ba 853d 9a83 543d cc9b 06bd
00000120: e277 aebd 2944 2a3d 60d7 723d 55b6 dfbd
00000130: 1b13 de3d adfb 9cba e80d 4b3c e39b 473d
00000140: 3f1d 643d 9204 8abd 2aa5 cd3c e6ed 1d3d
00000150: dfe4 d93d 52cf 84b8 bb94 fc3d 871d f33d
00000160: 5417 e83d d13e d4bd 7d3f f83d df04 1b3e
00000170: 477d abbd 68d1 c83d 12b9 713c a25a ee3d
00000180: d62e 8ebd 6ec2 26be b8b8 253d eb32 063e
00000190: 20ba 063e bff8 db3d ce33 17bd 3124 da3c
000001a0: 84ae 113e 659d 833d 70b5 cfbc 55ee 03bd
000001b0: 8e8f db3d d4cd 94bd 3385 b53b 4692 f83c
000001c0: 09c8 c2bb d442 c7bd 69b1 d23d cb71 ffbd
000001d0: fcef 243d 46d2 ab3d c3f6 b9bd ca85 39bd
000001e0: 4cdf b43d c5f9 20bd 129d 48bd dd3e a03d
000001f0: 1615 60bd 4b9c ac3c 50bb c43d 8707 0a3e
00000200: 219d be3d e192 b3bd 6e75 64bc 67df 113e
00000210: b3be 143c ce96 a03d 3d8e b4bc 069b 323d
00000220: 6d09 de3d e9ea 163d 313a d73d 3085 b03d
00000230: b012 fabc 4910 243e ea32 873c 6e88 bdbc
00000240: f35b 0cbd 044e 4c3d fd4e d0bd b8ea c6bd
00000250: 2cf5 45bd 7500 a3bd bbc8 08be b16d 7bbc
00000260: 537c 3dbd 6924 dbbd 56eb 1bbe fc06 07be
00000270: 9f15 6cbd d448 c73c 9969 423d fc9c e93d
00000280: 6a5a e2bd c3be a2bd 8c44 01bd 601f 093e
00000290: 3987 02bd ef41 50bc 760e 9d3d 73e9 ecbd
000002a0: 9ea9 91bd fac8 373d c06a 933d e9d4 c43d
000002b0: 7c58 053e bbef a93c b15d 523e 9379 c33d
000002c0: cda2 d5bd adcb 853d 43a3 e43d 4d34 6e3d
000002d0: de9f 19bd afe7 19be 4d2e 79bd fe76 873b
000002e0: 27f3 01be e0c6 053e 6ce7 d6bd 0234 173b
000002f0: 5027 08be b3c9 04be a717 6e3d a449 bcbd
00000300: 4c0b 96bd e5d3 813d dc89 05bd f7c8 183d
00000310: fedd 973d 1fdd d33c 2ba4 fcbc 4c3e fdbd
00000320: 4097 e5bd 3390 0a3d 1c45 d33d 57d6 b3bc
00000330: 6c8a 0e3e 76ca 03bd b28a 0cbe 6f3d 61bd
00000340: be8f 76bd 0496 c5bd e9db 163d a1f8 063e
00000350: 9394 09bd 8a6c 813d f7ae d93d a67b 64bd
00000360: fa6e 333d 48a2 143e 298e b8bd 3cc0 a33d
00000370: a692 efbd ace9 8f3d 366c 4f3d 6a43 ca3d
00000380: 35b5 9f3c 33fa 063e f93e 7ebd c6a2 6dbd
00000390: 1ab5 3f3e 95c2 08be 5a2d 0d3c 66ee 03be
000003a0: 8dc7 343e 7b63 5b3d b8af d0bd ddb1 fabc
000003b0: d1f4 2bbd 1d20 cbbd 1278 0dbe 460d bcbd
000003c0: c8a2 2b3e b585 c7bd 9245 4cbd 1b54 e6bd
000003d0: 6352 0cbd 0374 073d 1027 14be 607d 8bbd
000003e0: e62f 133d de34 a53c 7876 95bc 2c34 c33d
000003f0: f3da d5bd 3323 013e fe59 e83d 30a1 28bd

stacks.0.blocks.0.fc4.bias f4 [50]
0.0124977585 0.059199456 0.11007392 0.13278046 0.03212275 -0.13218176 0.044635896 0.09680514
0.075502925 -0.07057391 0.041762363 -0.05985355 0.09134144 0.0272347 0.15030995 -0.03538054
-0.092599325 -0.082660496 -0.09094447 0.028697819 0.14344695 -0.00922646 -0.06325153 0.14918423
-0.119904466 0.020013066 -0.2141168 -0.058204953 0.039746985 0.036674783 -0.06834677 -0.17913161
0.07687224 -0.11479993 0.10170907 -0.016394446 -0.08492566 0.09847777 -0.0721302 0.0526282
0.12561193 -0.030018607 -0.33008465 -0.12127559 0.05878647 0.045053314 0.05988599 0.020160697
0.015055766 -0.044236902
00000000: 66c3 4c3c 217b 723d 6f6e e13d 9af7 073e
00000010: 2593 033d a85a 07be 21d4 363d c641 c63d
00000020: 47a1 9a3d 0e89 90bd 030f 2b3d ff28 75bd
00000030: 3911 bb3d 4e1b df3c daea 193e 2feb 10bd
00000040: b7a4 bdbd e849 a9bd 1841 babd b017 eb3c
00000050: c2e3 123e 942a 17bc 058a 81bd c0c3 183e
00000060: 7990 f5bd 71f2 a33c 6f41 5bbe 5168 6ebd
00000070: bccd 223d 4c38 163d 64f9 8bbd 476e 37be
00000080: 316f 9d3d 3a1c ebbd d84c d03d a54d 86bc
00000090: 81ed adbd b7ae c93d 00b9 93bd ab90 573d
000000a0: 6aa0 003e 95e9 f5bc db00 a9be 565f f8bd
000000b0: 15ca 703d d389 383d 034b 753d 0c28 a53c
000000c0: 76ac 763c c131 35bd

stacks.0.blocks.0.theta_layer.weight f4 [57, 50]
-0.07547987 -0.001467658 -0.0076000704 -0.10382292 0.035696108 6.0081482e-05 -0.0559062 -0.16724776
-0.057257965 -0.06678893 0.028016528 0.066845946 -0.023640947 -0.08748238 -0.07094489 0.049037367
0.046178628 0.011300594 -0.16703993 0.008142858 0.03811235 -0.03557564 -0.10681777 -0.010135167
0.04744467 -0.05708766 0.04928695 -0.12987268 0.018769 -0.035843775 -0.025812283 0.1158376
-0.13753884 -0.002789706 -0.20054945 0.094606414 -0.009875109 0.028345358 -0.122890554 0.05619255
0.06021327 0.04778779 0.024691543 -0.047067296 0.061846837 -0.075100936 -0.13400961 -0.07284
-0.076473564 -0.09535562 0.12882602 0.03673907 -0.0014678915 -0.15544856 0.00953354 -0.123707615
0.05027009 -0.11163052 -0.1067158 -0.017667029 -0.11002443 0.1296037 0.09685882 -0.0825074
0.01886539 0.094745405 0.038415916 0.02493395 0.007684292 0.05646954 0.047596395 0.060614083
-0.13033675 -0.103479624 0.059541747 0.060892634 0.007751785 -0.12304513 -0.053847093 -0.11290419
-0.023132876 -0.0057434966 -0.07140673 -0.08066434 0.017987447 -0.044932205 0.08220131 -0.09799298
-0.079096794 -0.11111738 -0.11210917 0.062532894 0.00525154 -0.07396941 -0.09566997 -0.089112766
-0.046878204 0.03131949 0.12634838 0.042463113 0.017733702 -0.069471456 0.008161321 -0.12649572
-0.14882158 -0.010270208 -0.098256074 -0.09923618 0.07101196 -0.023637598 0.062059853 -0.17050885
-0.09106168 0.045720875 -0.06284688 -0.11661018 -0.004493684 0.117671266 -0.035151534 0.06362305
-0.00978369 0.00031238844 -0.05427851 0.022174558 0.11190225 -0.13609849 0.15026826 -0.010248832
0.12900494 0.117239796 -0.013682306 -0.028001564 0.11794919 0.08543794 0.10525475 -0.00010178617
-0.034533687 0.0038094972 0.020395026 0.09055155 0.10293441 0.05190839 -0.012052149 -0.16139321
0.11625631 -0.08910124 -0.06141088 0.1129042 -0.024307862 -0.13257082 0.096605055 0.087895304
-0.10590081 0.020819593 0.021216651 -0.10458261 -0.14228983 -0.025855618 -0.01693129 0.0446745
0.025632111 0.014087167 0.08120655 0.0015882126 -0.09269376 -0.07273916 0.09063871 0.055561185
-0.07210553 -0.057651218 -0.035050172 -0.10783067 -0.060329083 -0.13508356 -0.02947963 0.119574696
0.05445655 -0.1310074 -0.07592012 -0.050195765 0.09283653 -0.08591502 -0.0350316 -0.041954763
0.14635517 0.038465228 0.039913643 -0.03509231 0.11232363 -0.046596445 -0.077916324 0.0158418
-0.058725875 -0.13629815 -0.068232015 -0.099824734 0.063905425 -0.15770511 -0.13599181 0.08455277
-0.030854875 0.033861388 0.033764098 -0.118266486 0.013286403 -0.09231583 0.027145285 -0.1489104
0.062977664 -0.14041394 -0.10468201 -0.041718837 0.023500316 0.10748203 -0.13222395 -0.17797908
-0.15787154 0.08167726 0.020163082 0.08856917 -0.08448293 -0.11229179 0.021783547 -0.09466298
0.09863445 -0.07445263 0.05733019 -0.14603445 0.041881572 -0.082339235 -0.12605107 0.124411374
-0.15797414 -0.00096036494 0.040842894 -0.17334615 -0.04787422 -0.060803365 0.13647331 -0.14085686
0.0868726 0.049105037 -0.016261268 -0.16910027 0.043449312 -0.02795726 -0.16260816 -0.04375404
0.030151607 -0.16466992 -0.07198716 -0.16787015 -0.020329865 -0.10869004 -0.14871417 -0.098822534
00000000: 3195 9abd 6e5e c0ba 030a f9bb 1ca1 d4bd
00000010: 1536 123d 0000 7c38 e6fd 64bd ff42 2bbe
00000020: 5487 6abd a2c8 88bd eb82 e53c 87e6 883d
00000030: a9aa c1bc f629 b3bd 8e4b 91bd 68db 483d
00000040: cd25 3d3d 2026 393c 840c 2bbe 9f69 053c
00000050: b21b 1c3d c3b7 11bd 46c3 dabd f90d 26bc
00000060: 5855 423d c0d4 69bd 1de1 493d 58fd 04be
00000070: 72c1 993c ecd0 12bd 4874 d3bc 433c ed3d
00000080: fbd6 0cbe 80d3 36bb d65c 4dbe 02c1 c13d
00000090: 36cb 21bc 8634 e83c 0bae fbbd 292a 663d
000000a0: 31a2 763d 21bd 433d eb45 ca3c a3c9 40bd
000000b0: 1c53 7d3d 85ce 99bd d139 09be 232d 95bd
000000c0: 2c9e 9cbd cf49 c3bd f8ea 033e b57b 163d
000000d0: 4466 c0ba e82d 1fbe 9132 1c3c 6b5a fdbd
000000e0: 03e8 4d3d 8b9e e4bd d08d dabd 72ba 90bc
000000f0: 7d54 e1bd d5b6 043e eb5d c63d a4f9 a8bd
00000100: 978b 9a3c e109 c23d 025a 1d3d 4842 cc3c
00000110: 83cc fb3b 9b4c 673d 70f4 423d 7946 783d
00000120: ff76 05be 20ed d3bd 0ce2 733d 8e6a 793d
00000130: b002 fe3b 16ff fbbd c58e 5cbd 503a e7bd
00000140: 2881 bdbc f133 bcbb b13d 92bd 5833 a5bd
00000150: 695a 933c d50a 38bd 2959 a83d 8bb0 c8bd
00000160: 80fd a1bd 8291 e3bd 7e99 e5bd 3f11 803d
00000170: 1c15 ac3b 467d 97bd 9eee c3bd c180 b6bd
00000180: 5c03 40bd de48 003d 7861 013e cded 2d3d
00000190: 4546 913c 0d47 8ebd 10b7 053c 1888 01be
000001a0: af64 18be 6044 28bc 7b3a c9bd 573c cbbd
000001b0: b86e 913d a3a3 c1bc 7932 7e3d df99 2ebe
000001c0: 8c7e babd d045 3b3d ddb5 80bd 51d1 eebd
000001d0: c13f 93bb a2fd f03d 0efb 0fbd cd4c 823d
000001e0: c54b 20bc 11c8 a339 2553 5ebd 6ba7 b53c
000001f0: 022d e53d 675d 0bbe ecdf 193e b8ea 27bc
00000200: df19 043e 6b1b f03d c02b 60bc 8963 e5bc
00000210: 588f f13d 16fa ae3d cd8f d73d 0976 d5b8
00000220: 3273 0dbd c2a8 793b 7813 a73c 1773 b93d
00000230: 47cf d23d e49d 543d 6076 45bc 4344 25be
00000240: ca17 ee3d b67a b6bd fa89 7bbd 513a e73d
00000250: 4821 c7bc a5c0 07be dfd8 c53d 7402 b43d
00000260: 86e2 d8bd da8d aa3c 8bce ad3c 682f d6bd
00000270: 6db4 11be 29cf d3bc 7db3 8abc 9cfc 363d
00000280: 6ffa d13c dccd 663c 9f4f a63d 922b d03a
00000290: 3ad6 bdbd 45f8 94bd caa0 b93d 2094 633d
000002a0: 10ac 93bd af23 6cbd c590 0fbd 54d6 dcbd
000002b0: a11b 77bd 5853 0abe 447f f1bc 94e3 f43d
000002c0: d50d 5f3d ce26 06be 027c 9bbd 139a 4dbd
000002d0: 1421 be3d 37f4 afbd 4c7d 0fbd c2d8 2bbd
000002e0: 21de 153e b78d 1d3d 7d7c 233d f4bc 0fbd
000002f0: ee09 e63d eadb 3ebd 9892 9fbd aac6 813c
00000300: 8b8a 70bd be91 0bbe 3abd 8bbd e970 ccbd
00000310: d9e0 823d 737d 21be 7041 0bbe 012a ad3d
00000320: 5dc3 fcbc 3db2 0a3d 394c 0a3d b335 f2bd
00000330: 37af 593c 1510 bdbd ca5f de3c f87b 18be
00000340: 6ffa 803d acc8 0fbe 8663 d6bd 5fe1 2abd
00000350: bc83 c03c 8a1f dc3d b765 07be 2640 36be
00000360: 14a9 21be 6846 a73d 0c2d a53c c163 b53d
00000370: 6305 adbd 3df9 e5bd 6973 b23c aade c1bd
00000380: dc00 ca3d 9f7a 98bd 10d3 6a3d 0e8a 15be
00000390: 038c 2b3d 79a1 a8bd 8813 01be 64cb fe3d
000003a0: f9c3 21be 00c1 7bba e14a 273d a781 31be
000003b0: c217 44bd f30c 79bd a9bf 0b3e c83c 10be
000003c0: 43ea b13d 5d22 493d 5a36 85bc 9f28 2dbe
000003d0: e8f7 313d a006 e5bc c182 26be 7037 33bd
000003e0: 8100 f73c 3b9f 28be 016e 93bd 27e6 2bbe
000003f0: d18a a6bc e298 debd 8748 18be 7863 cabd

stacks.0.blocks.0.theta_layer.bias f4 [57]
-0.006506481 -0.154686 0.0151395425 0.03509511 0.022875177 -0.112912156 0.06332898 -0.071377955
-0.030393858 -0.08201103 -0.07702835 -0.1520717 -0.029474666 0.110051356 -0.03795582 -0.017299905
0.13492455 0.06575479 0.011345482 -0.19973134 -0.06143346 -0.07892261 0.01126011 -0.076806
0.14108108 0.053788494 -0.11598104 0.13707364 0.06375576 0.05784695 -0.17456912 -0.07142851
0.12752613 -0.07693953 0.034382228 -0.10177214 -0.047966808 -0.104993165 0.009545329 0.10488617
0.09321318 0.09466785 0.0012003764 -0.13783523 -0.06945921 -0.033746827 3.692214e-05 -0.05273806
0.10964284 0.13619931 0.13588618 0.14475928 -0.049674317 0.017954856 -0.059665717 0.08790949
0.073096
00000000: 5234 d5bb 0266 1ebe d80b 783c e4bf 0f3d
00000010: b964 bb3c 7d3e e7bd a0b2 813d 9b2e 92bd
00000020: 8afc f8bc 66f5 a7bd 0ac1 9dbd afb8 1bbe
00000030: db74 f1bc 9b62 e13d 9077 1bbd 88b8 8dbc
00000040: a929 0a3e 73aa 863d 67e2 393c 5f86 4cbe
00000050: a7a1 7bbd 2da2 a1bd 537c 383c 774c 9dbd
00000060: 8f77 103e 5351 5c3d 7887 edbd 085d 0c3e
00000070: 6192 823d ecf0 6c3d 3fc2 32be 1c49 92bd
00000080: 3696 023e 7992 9dbd 61d4 0c3d e96d d0bd
00000090: d878 44bd a806 d7bd 0364 1c3c 8fce d63d
000000a0: 8de6 be3d 38e1 c13d f355 9d3a ae24 0dbe
000000b0: a140 8ebd 1d3a 0abd d9dc 1a38 dd03 58bd
000000c0: 6d8c e03d d577 0b3e bf25 0b3e c73b 143e
000000d0: 4c77 4bbd 1016 933c 0a64 74bd e409 b43d
000000e0: 5bb3 953d

stacks.0.blocks.1.fc1.weight f4 [50, 56]
0.14849977 0.09619581 -0.05750196 0.07801439 -0.034726102 0.022784082 -0.029675988 0.07232574
0.102865666 0.06107703 -0.115706615 -0.055616725 -0.10643179 -0.083823405 0.08422281 -0.084324434
-0.024459632 -0.117898464 0.017236067 0.08597819 0.10382257 -0.031086074 -0.15163973 -0.061007466
-0.109025694 -0.08688119 -0.060437314 0.092457846 0.10422745 -0.034460235 -0.016416742 -0.099968866
0.11232643 0.06716915 0.1025622 -0.12245956 -0.14607596 0.033060323 -0.012575292 -0.04827811
0.016432054 -0.17316076 0.00501543 0.10572739 -0.083618164 0.08577954 0.09023228 -0.07421154
0.054481033 0.11762473 0.08312686 0.06553799 -0.028641336 -0.112739354 -0.11190199 0.07918788
-0.0850038 -0.12547137 -0.01422888 -0.14884375 0.1108811 -0.055598028 0.0025120734 -0.08192936
-0.018068856 0.03091964 0.10582367 -0.0034823094 -0.028085906 0.099304974 -0.08860733 -0.07843344
0.11350316 -0.11525033 0.06004494 -0.05141075 -0.08323225 -0.030668188 0.068273835 0.051083617
-0.120289996 -0.07224074 0.1193256 0.06383461 -0.0556947 0.11191012 0.10239538 0.0491238
-0.056969613 -0.14658223 -0.044527404 0.11544737 0.10288136 -0.02252765 -0.03599865 0.041349724
-0.04970822 -0.011575327 -0.091920875 -0.008371402 -0.07897979 -0.03706038 0.044225823 -0.06903418
0.052103903 0.19238849 0.13053676 -0.15570001 0.024470605 0.04896041 0.072676815 -0.13513523
-0.025014736 0.045104746 -0.0122332685 -0.008967838 0.10401712 0.027442621 -0.123822115 0.1098105
-0.060613416 0.060592305 -0.058132686 0.083244696 -0.07395035 -0.097250775 -0.093880564 0.035851024
-0.07348767 -0.019381113 0.05187636 0.09446674 0.1234019 0.08235624 0.079387605 -0.04874981
-0.08682996 -0.077341825 0.0011034305 0.011772873 0.016495233 0.117915064 0.024991557 -0.027275346
0.09543683 0.014305574 -0.059599962 -0.04404079 0.104485385 -0.026287481 0.0060529653 -0.07439104
0.12634756 0.15357348 0.09277302 -0.030459506 0.104334444 -0.1436276 0.0854318 0.06484598
-0.11563504 -0.07152004 -0.16043764 -0.080170855 -0.17183164 -0.06682104 -0.19250092 -0.0641415
-0.07577071 0.018306158 0.067283414 -0.067471094 0.080644794 -0.021059508 0.11954738 -0.053318217
0.05362694 0.18486457 0.13803725 -0.00015699498 0.10342743 -0.051571853 0.030927895 0.05522424
0.134158 0.071631715 0.048091117 -0.13327321 0.09798376 -0.021124111 -0.10349059 -0.0011695263
-0.07430675 -0.10038194 -0.056881323 -0.1263813 0.043777045 -0.10917501 0.033940468 0.051693987
0.118646 -0.03419513 0.0013022693 -0.03312472 -0.029818673 -0.04963604 -0.0069276392 -0.05554562
0.042977326 0.17645924 -0.086562194 0.08109378 -0.11530974 0.07476987 -0.097916104 0.09492162
-0.11183643 -0.031696163 -0.20960626 0.0047990847 -0.010212672 0.06896645 -0.031513464 0.09315883
-0.00572459 -0.075132295 -0.09037971 -0.0055212835 -0.025407866 0.15361792 -0.082842685 -0.07891444
-0.0012197448 -0.04975644 0.056441244 0.078784525 -0.05535812 -0.053786907 -0.015086657 -0.0950152
-0.09936875 0.15195228 -0.037339132 0.11979265 0.034674358 0.11528504 -0.017097522 -0.008255201
-0.107381634 0.06895656 -0.06978395 0.07758884 -0.118891574 -0.062249202 0.062084705 0.04710064
00000000: 5310 183e 4f02 c53d 2d87 6bbd 02c6 9f3d
00000010: f53c 0ebd afa5 ba3c 0f1b f3bc 841f 943d
00000020: 3cab d23d e82b 7a3d 97f7 ecbd 5dce 63bd
00000030: e9f8 d9bd 9bab abbd 027d ac3d 4ab2 acbd
00000040: 915f c8bc c074 f1bd a732 8d3c 5515 b03d
00000050: eda0 d43d 39a8 febc 7247 1bbe f7e2 79bd
00000060: dd48 dfbd c4ee b1bd 1e8d 77bd 8a5a bd3d
00000070: 3475 d53d 2d26 0dbd 677c 86bc 7abc ccbd
00000080: 660b e63d fb8f 893d 210c d23d 14cc fabd
00000090: f094 15be 436a 073d 9908 4ebc 44bf 45bd
000000a0: 849c 863c 0e51 31be 7a58 a43b 9a87 d83d
000000b0: 0040 abbd 2fad af3d b4cb b83d 38fc 97bd
000000c0: 8127 5f3d 3ce5 f03d 6a3e aa3d c838 863d
000000d0: 3ca1 eabc e4e3 e6bd df2c e5bd 412d a23d
000000e0: 7916 aebd 917b 00be 4020 69bc 7f6a 18be
000000f0: a115 e33d c2ba 63bd 99a1 243b 95ca a7bd
00000100: 2305 94bc 2f4b fd3c 15ba d83d 7537 64bb
00000110: 6a14 e6bc 6860 cb3d c377 b5bd b6a1 a0bd
00000120: 5874 e83d 5d08 ecbd aff1 753d 1494 52bd
00000130: ab75 aabd da3b fbbc 27d3 8b3d 0e3d 513d
00000140: 9a5a f6bd f4f2 93bd fb60 f43d b8bb 823d
00000150: 2020 64bd 2231 e53d abb4 d13d 0a36 493d
00000160: f858 69bd a719 16be 5e62 36bd ac6f ec3d
00000170: 76b3 d23d e88b b8bc 5273 13bd 545e 293d
00000180: d99a 4bbd 71a6 3dbc 0341 bcbd 3428 09bc
00000190: 28c0 a1bd a0cc 17bd 2326 353d cb61 8dbd
000001a0: e76a 553d 7d01 453e 6eab 053e d36f 1fbe
000001b0: 9476 c83c b68a 483d 95d7 943d e460 0abe
000001c0: b4eb ccbc c1bf 383d 0c6e 48bc d7ed 12bc
000001d0: ee06 d53d 59cf e03c 7396 fdbd 54e4 e03d
000001e0: c645 78bd a32f 783d 8a1c 6ebd 327c aa3d
000001f0: 4873 97bd 6a2b c7bd 7444 c0bd 86d8 123d
00000200: b480 96bd 24c5 9ebc 4e7c 543d c777 c13d
00000210: 23ba fc3d 63aa a83d f895 a23d e1ad 47bd
00000220: e8d3 b1bd 6465 9ebd fca0 903a 02e3 403c
00000230: 0321 873c 747d f13d 18bb cc3c 8c70 dfbc
00000240: 6274 c33d ed61 6a3c 171f 74bd 1e64 34bd
00000250: 6ffc d53d d858 d7bc f457 c63b 545a 98bd
00000260: 4161 013e 5e42 1d3e c8ff bd3d 3786 f9bc
00000270: 4cad d53d 1d13 13be def6 ae3d f8cd 843d
00000280: 10d2 ecbd 1979 92bd c449 24be 9e30 a4bd
00000290: a2f4 2fbe 78d9 88bd f61e 45be 9e5c 83bd
000002a0: ad2d 9bbd ccf6 953c e3cb 893d 492e 8abd
000002b0: 1929 a53d fd84 acbc 42d5 f43d 3464 5abd
000002c0: eca7 5b3d 234d 3d3e a359 0d3e 059f 24b9
000002d0: c3d1 d33d 023d 53bd 7f5c fd3c d032 623d
000002e0: b760 093e a6b3 923d 31fb 443d c678 08be
000002f0: b6ab c83d 790c adbc e0f2 d3bd ca4a 99ba
00000300: 232e 98bd 0c95 cdbd 64fc 68bd 196a 01be
00000310: 8f4f 333d 2697 dfbd 2905 0b3d 13bd 533d
00000320: adfc f23d 3110 0cbd e8b0 aa3a c9ad 07bd
00000330: 4a46 f4bc 294f 4bbd 4001 e3bb ce83 63bd
00000340: fe08 303d bbb1 343e 8547 b1bd 7f14 a63d
00000350: 8327 ecbd f220 993d 3d88 c8bd 4466 c23d
00000360: 800a e5bd d6d3 01bd 06a3 56be a441 9d3b
00000370: 0d53 27bc 483e 8d3d 4314 01bd 0fca be3d
00000380: 5795 bbbb f6de 99bd ff18 b9bd e2eb b4bb
00000390: 2824 d0bc 044e 1d3e 6da9 a9bd e59d a1bd
000003a0: d8df 9fba 69cd 4bbd ef2e 673d c859 a13d
000003b0: 32bf 62bd a94f 5cbd 072e 77bc 5497 c2bd
000003c0: d881 cbbd 6199 1b3e ebf0 18bd d955 f53d
000003d0: b306 0e3d 901a ec3d 1a10 8cbc d340 07bc
000003e0: e7ea dbbd 1939 8d3d e3ea 8ebd e6e6 9e3d
000003f0: 6d7d f3bd 05f9 7ebd 884c 7e3d 9aec 403d

stacks.0.blocks.1.fc1.bias f4 [50]
-0.062748626 0.061746214 -0.016485862 0.0524471 -0.10950585 -0.15596417 0.05791824 0.03215291
-0.03186004 -0.06348973 0.06690111 -0.12268266 -0.11059134 0.16345133 0.10078876 -0.035139833
0.01106167 0.07446986 0.022096237 -0.03605617 0.012783576 0.02939286 -0.062984064 -0.055064462
-0.004937033 -0.021750653 -0.022969546 -0.0753728 0.06293394 -0.030747352 -0.013113319 0.06945983
0.04231799 0.052251127 -0.11826056 -0.060631122 -0.22539 -0.05846708 0.04988713 0.08788142
-0.087623015 -0.14033799 -0.055781078 0.060843747 0.14533176 0.056950558 0.10912208 0.117454
0.052565046 -0.0026234463
00000000: 5a82 80bd 99e9 7c3d 5c0d 87bc c5d2 563d
00000010: 9a44 e0bd 12b5 1fbe ad3b 6d3d c5b2 033d
00000020: ac7f 02bd e706 82bd 7303 893d 0c41 fbbd
00000030: b67d e2bd c95f 273e 566a ce3d c9ee 0fbd
00000040: 023c 353c a783 983d 2b03 b53c a2af 13bd
00000050: 3472 513c 4cc9 f03c cafd 80bd 468b 61bd
00000060: d6c6 a1bb 6d2e b2bc a12a bcbc 0e5d 9abd
00000070: 82e3 803d dfe1 fbbc 3fd9 56bc f540 8e3d
00000080: a155 2d3d 4705 563d 9832 f2bd 5758 78bd
00000090: a3cc 66be 2d7b 6fbd 7256 4c3d 2dfb b33d
000000a0: b273 b3bd c3b4 0fbe b37a 64bd 4b37 793d
000000b0: d9d1 143e fd44 693d 667b df3d b98b f03d
000000c0: 724e 573d 20ee 2bbb
