RNN_models/close_RSI_14_hma_15_15min_t3.pth (torch, 103570 bytes, 20 tensors)

stacks.0.blocks.0.fc1.weight f4 [50, 42]
000000 7f bb 17 3e 40 44 60 bd 34 0b d9 ba c1 aa bb 3d
       0.14817618 -0.05475259 -0.0016559125 0.09163428
000010 fa 1b 0c 3e f6 da cd bd b2 35 89 bc 91 e9 b8 bb
       0.13682547 -0.10051529 -0.016749237 -0.0056430777
000020 3b 53 2a bd 50 95 06 be 8b 32 1f bd 72 20 83 3b
       -0.04158328 -0.13142896 -0.03886656 0.0040016705
000030 9f 7f d1 bd ed 25 f0 bd d1 cd 18 be e0 97 e2 3c
       -0.1022942 -0.11725984 -0.14922263 0.02766031
000040 80 44 e0 3d c6 1d b2 bc a0 73 8e bd ac ff 06 3e
       0.10950565 -0.021742713 -0.069556475 0.13183469
000050 43 59 8c bc 54 f0 f2 bd d1 ea 63 3b aa 36 a1 3d
       -0.017132407 -0.11862245 0.0034777413 0.078717545
000060 36 3c 04 be 0a 01 1f 3d 72 7a d3 bd ef 1b 98 bd
       -0.12913594 0.03881935 -0.10326089 -0.07427203
000070 53 c9 d3 3c 0f 02 16 3e 9b 4a 77 bc e1 5a cf 3d
       0.025852835 0.14649223 -0.015093471 0.10124756
000080 d4 ef 1c 3e 4b ab 14 bd 95 af 99 bc a5 dc c9 3d
       0.15325862 -0.03629617 -0.018760482 0.09856538
000090 a8 33 d1 bc 01 0d 38 3e a8 ad 42 3e 12 c9 48 bd
       -0.025537327 0.1797371 0.19011557 -0.04901988
0000a0 56 07 b7 3c c7 d3 8c 3d 5d f5 11 be 0e 6d 86 3d
       0.022342365 0.06876331 -0.14253755 0.06563769
0000b0 44 86 15 3d d0 9e be 3d ea bb d0 3d 7a 27 f5 3d
       0.036505 0.09307635 0.10192092 0.1197042
0000c0 92 ca 28 bd a0 b2 37 3c bb 09 f9 bd 19 ec 13 be
       -0.04120881 0.011212021 -0.12160059 -0.14445533
0000d0 c8 b9 ba 3d 70 c6 c9 bc 4c d9 4f bd 90 18 13 be
       0.09117466 -0.024630755 -0.05074434 -0.14364839
0000e0 88 35 79 bd bb 36 e5 bd fe 52 8f 3d 5e 7c 48 bd
       -0.060842067 -0.1119208 0.069982514 -0.04894673
0000f0 14 42 61 bd 34 05 56 bd 9d e1 0f be 64 d4 14 bd
       -0.054994658 -0.052251056 -0.14050908 -0.036335364
000100 8f f2 81 bd 4f a8 d3 bd 18 ef c4 bd f0 5e 85 3d
       -0.063450925 -0.10334837 -0.09615916 0.065122485
000110 15 00 0b be fc 45 0e be b8 73 9a 3c b2 f7 68 bd
       -0.1357425 -0.13893884 0.018854007 -0.056876846
000120 56 87 cf 3d 00 e6 45 3b fa 93 64 bd 24 26 8f 3d
       0.10133235 0.0030196905 -0.055805184 0.069896966
000130 52 e0 be 3d 26 9f 15 be 82 00 bd bd c4 15 23 bd
       0.093201295 -0.14611492 -0.092286125 -0.03981568
000140 b0 c7 1c 3d 60 2e 1d 3c 00 67 2c bb 48 30 aa 3c
       0.038276374 0.009593576 -0.002630651 0.020774975
000150 40 5c a3 bb 7c bc 76 bd 86 0f cd bd 90 58 5a bc
       -0.0049853623 -0.060238346 -0.100127265 -0.013326779
000160 cb 6d 87 bd dc f4 1e bd 1a 27 c7 bd 22 c0 d0 bd
       -0.06612738 -0.038807735 -0.09724255 -0.101928964
000170 70 46 20 3d 62 bf 96 3d 1a 5c d3 bd d0 7f 8e 3c
       0.039129674 0.07360722 -0.10320301 0.01739493
000180 ce 2a 80 bd 31 a3 b5 bd 5d 5e 00 3e 00 d3 15 3d
       -0.06258164 -0.08869017 0.12535997 0.03657818
000190 64 86 09 be 6a 8a fa 3d a8 39 80 3c b0 86 99 bc
       -0.13430172 0.12233432 0.015652493 -0.018740982
0001a0 ae cb cf bd 30 e9 17 be 65 65 97 bd 96 66 10 be
       -0.10146271 -0.14835048 -0.07392386 -0.14101633
0001b0 88 9f 8f 3c 51 db 10 3e 1d d4 04 3e ba ac 9b bd
       0.017532125 0.14146163 0.1297154 -0.07601304
0001c0 10 61 55 3d f0 8d 2b bd 70 a7 c1 bc 1c ee c3 bd
       0.05209452 -0.04188341 -0.02363941 -0.095669
0001d0 30 2b dc bd 2e a0 af bd d0 1c a1 3d f0 91 01 3d
       -0.10750425 -0.08575474 0.07866824 0.031633317
0001e0 20 30 8d 3b b9 b9 b3 bd 56 f2 9c bd ac c8 a8 bd
       0.0043087155 -0.08775658 -0.076634094 -0.082414
0001f0 70 3a dc bd 50 19 d4 3c 47 26 c5 3d af ce 01 3d
       -0.107533336 0.025890976 0.096264414 0.03169125
000200 85 48 53 3c 9d 4b 06 3e e9 90 ea bd 0b 40 cd 3d
       0.012895708 0.13114782 -0.11453421 0.10021981
000210 7d 49 e0 bd b4 e0 9c bd c2 15 fc bd 91 d4 23 bd
       -0.10951517 -0.07660046 -0.123088375 -0.03999764
000220 68 0e 0b be ec f0 04 be 85 25 8d bd 98 ee e5 3d
       -0.13579714 -0.1298253 -0.06891922 0.11227149
000230 a1 f3 7c bd 42 10 66 3c 0e e1 dd bc a7 be f6 3b
       -0.06175578 0.014041962 -0.027084854 0.0075300517
000240 05 a4 a3 bd 50 8b 04 3e d0 d3 a5 3c 8f d3 bb 3d
       -0.079902686 0.12943769 0.020242602 0.09171211
000250 e3 ee 8e bc b7 46 1d bd 1c 27 13 3e 89 9d d9 bc
       -0.017447894 -0.038397517 0.14370388 -0.026564376
000260 0b b1 bc 3d a6 6d c7 bd 52 26 18 ba 33 a8 f9 3d
       0.09213456 -0.09737711 -0.000580405 0.121902846
000270 3b 2a 8c bd 2e 17 01 3e 68 6f 24 3e fa e7 cf 3d
       -0.06843992 0.12606499 0.16058123 0.10151668
000280 09 8a 07 be ce 60 c8 bd 73 42 ce 3d 8f 89 da 3d
       -0.1323625 -0.09784089 0.10071268 0.106707685
000290 da 46 32 3d df 83 9e bd f5 c4 75 bc 06 a1 9a 3c
       0.0435246 -0.07739996 -0.0150005715 0.01887561
0002a0 9b e4 83 3d 49 66 eb 3d ad 0a f9 3d 79 71 90 3c
       0.064400874 0.11494119 0.12160239 0.017632233
0002b0 a5 00 95 bd e7 3c 05 3e ab 77 11 be 7f dd ff 3d
       -0.072755136 0.13011514 -0.14205806 0.12493419
0002c0 fc 45 0c 3e f3 c5 3e 3d fb 4f 05 be 3a 3a f8 bd
       0.13698572 0.046575498 -0.13018791 -0.12120481
0002d0 f6 37 c9 3a 02 a5 b6 3d 66 c6 0d be 20 b4 13 3e
       0.0015351761 0.089181915 -0.13845214 0.14424181
0002e0 db 11 10 3e 2b b2 fd 3d c7 bf b4 bd 36 de 86 bd
       0.14069311 0.123874985 -0.08825641 -0.06585352
0002f0 b1 e0 1b 3e e2 b1 b2 bc 3d cb a2 bc 8f 4c 04 be
       0.15222432 -0.021813337 -0.019872302 -0.1291983
000300 87 ee 81 bd dc fe 78 3d 31 c6 b0 3d 5f 4f a9 bd
       -0.063443236 0.060789928 0.08631552 -0.08267092
000310 5d f0 ac 3d 5c 65 ec 3d 89 f1 8f 3b e7 9d 26 3e
       0.08444283 0.1154277 0.004392807 0.16271172
000320 9d db d6 3b 01 bb 00 be ab 1f 8f bb ae ec 6d 3d
       0.0065569417 -0.12571336 -0.004367789 0.058087043
000330 ff f1 ef bc c2 f1 fe 3d a7 81 ef 3d f7 7e 66 b9
       -0.029290197 0.124484554 0.11694651 -0.00021981807
000340 4b 15 c9 3b 2c da 75 3b da 8e b0 3d e8 92 19 bd
       0.0061365715 0.0037514074 0.08620997 -0.037493616
000350 90 2d 9c bd a6 a8 00 3e 24 b3 04 bb ad 9c ee bd
       -0.07625878 0.12564334 -0.0020248378 -0.11650977
000360 29 0a 07 3e e7 19 ac 3d ac ae c7 3d 25 7b 14 bc
       0.1318747 0.08403378 0.09750113 -0.009062563
000370 79 f0 d2 3d c1 e4 c3 bd b5 2b 17 be 30 b3 f1 bd
       0.10299773 -0.09565116 -0.14762767 -0.118017554
000380 8d ff eb 3d 4e 90 dc bc 53 4b cb bd b5 0b 18 3e
       0.11523352 -0.026924279 -0.09926476 0.14848216
000390 d1 cc 09 be 23 d9 d6 3d 0c 0b da 3c b3 4b b8 bd
       -0.13457038 0.10490634 0.026616596 -0.089988135
0003a0 d3 f5 eb 3d 4d 92 ef bd da b0 c5 3d 3a 91 36 bd
       0.115214966 -0.116978265 0.096528724 -0.044572093
0003b0 c6 f7 c0 bc f7 65 97 3d 3e 99 88 3b 75 14 dc bd
       -0.023555648 0.07392495 0.0041686585 -0.10746089
0003c0 75 69 0b 3e 29 18 06 3d 2a 03 11 be 68 bb e4 3d
       0.13614447 0.032737885 -0.14161363 0.111685574
0003d0 44 dc 70 bb 90 3f 41 bd 82 39 65 3d 47 68 9a bd
       -0.0036752382 -0.04717976 0.055963047 -0.075394206
0003e0 4a 2c 23 be dd 5d 99 3c 14 da f8 3d 1d bd db 3d
       -0.15934864 0.018721515 0.1215097 0.1072943
0003f0 f1 8c 9c bc 9c d9 1f bd 44 ac 56 3d 34 a3 01 bd
       -0.019110175 -0.039025888 0.05241038 -0.031649783

stacks.0.blocks.0.fc1.bias f4 [50]
000000 a6 9e a7 3e 54 8b 08 be 48 6d 90 3c b4 66 97 3e
       0.32738227 -0.133344 0.017630234 0.29570544
000010 2e ae 97 bc bf dc 46 be 21 30 b6 3e 48 e4 0a 3e
       -0.018515673 -0.19420145 0.35583594 0.13563645
000020 ee 50 3d 3e c0 8a 9a 3c 9b 56 52 3e dc 16 91 3d
       0.18487903 0.01886499 0.2054085 0.07084438
000030 8e 93 a1 3d 2d b8 41 3e 09 bb 40 3d ca 38 ff bd
       0.07889472 0.18917914 0.04705337 -0.124620035
000040 30 5d 0f 3d c5 eb d5 3d b0 e5 9e bd 72 7d 55 3e
       0.03500098 0.1044536 -0.07758653 0.20848635
000050 3d 28 08 3e 6d 57 69 3e 52 ae 8a 3e a6 bf 05 be
       0.132966 0.22787257 0.2708612 -0.1306139
000060 45 3b 9b 3e 56 cd 9b 3d df 0b e3 be 4e eb 6c 3e
       0.30318657 0.07607524 -0.44344994 0.23136637
000070 81 33 3c 3c cc e9 08 3e a0 09 88 3e e8 79 fd bd
       0.011486889 0.13370436 0.26569843 -0.123767674
000080 5e 6a 0a 3d d8 41 13 3e 80 1d 6d bb d6 22 44 3c
       0.033792846 0.14380586 -0.0036180913 0.011971196
000090 c0 72 80 3e 76 24 ff 3d e1 04 20 bc b0 a9 50 bc
       0.25087547 0.12458126 -0.009766788 -0.012735769
0000a0 5e de 64 3d f8 f6 b7 3e 14 4c 3e bd 34 e9 fe bd
       0.05587613 0.3593061 -0.046459273 -0.12446824
0000b0 8d be b4 3d b4 1a 8d bd 5a 3e ce 3d 22 6c d3 3d
       0.08825407 -0.06889859 0.10070486 0.10323359
0000c0 e9 9d 09 3e 65 19 0d be
       0.13439144 -0.13779218

stacks.0.blocks.0.fc2.weight f4 [50, 50]
000000 f3 76 0c 3e 6c 1c 91 3d 42 f6 d2 3d 14 22 a5 bd
       0.1371725 0.07085499 0.10300876 -0.080631405
000010 d5 6a 8a bd 21 fe 82 bd 81 ab a6 3d 0d 42 66 3d
       -0.06758658 -0.063961275 0.081381805 0.056215335
000020 8f d0 e6 3d c0 18 56 3c 34 8d 71 3d fe 25 f7 3d
       0.11270248 0.013067424 0.058972552 0.12067793
000030 75 79 9d 3d c3 e5 af bd 52 f7 c4 bd fd 5b ae 3d
       0.07689182 -0.085887454 -0.09617485 0.08513639
000040 48 11 cf bd da 3e b9 bd 9a 1e 96 bd 64 ea ac bd
       -0.10110718 -0.09045191 -0.073300555 -0.08443144
000050 e8 bf d2 3d 52 14 b4 3d 64 38 14 3e 0a 92 1f bd
       0.102905095 0.08792938 0.14474636 -0.038957633
000060 b2 08 0b bd fd 74 0b 3e 95 78 21 bd 60 aa 8e bd
       -0.03394384 0.13618846 -0.039421637 -0.0696609
000070 ff 06 0f 3e d3 2d 1a 3d 6d 8b 6a 3d 84 0c 65 3d
       0.13967513 0.037641358 0.057261873 0.05592014
000080 ec 02 81 bd 07 09 8f 3d ce 2f 85 3d b7 32 c8 bc
       -0.062993854 0.06984144 0.06503259 -0.024438245
000090 33 25 97 3d c4 fb a2 3d b1 a5 08 3e 70 3c aa 3d
       0.07380142 0.07958177 0.13344456 0.08312309
0000a0 be 43 bf 3c 32 66 96 3e f6 36 27 bd 0e a2 af 3d
       0.023347732 0.29374844 -0.0408239 0.08575831
0000b0 b1 be a8 bc d9 96 b9 3d a5 bd 00 3e 64 c5 7b bd
       -0.020598741 0.09061975 0.12572344 -0.061467543
0000c0 df 96 8b 3d 5b b0 92 bd a0 2e f9 3d 2a ec a4 bd
       0.06815886 -0.071625434 0.12167096 -0.08052857
0000d0 a9 39 9f bd dc 23 d3 bd 91 39 da bd 95 65 92 bd
       -0.0777467 -0.10309574 -0.10655511 -0.071482815
0000e0 b2 aa be bd 84 68 18 be 9e 43 88 bd 10 64 76 bc
       -0.09309901 -0.1488362 -0.06653522 -0.015038505
0000f0 97 91 b7 3c 8e c1 b5 3d 1d 2e f5 3d 85 89 25 bd
       0.02240829 0.08874808 0.11971686 -0.040414352
000100 f2 b0 5c bd 44 a9 3c 3d 04 60 59 3d 3c b8 3d bd
       -0.053879686 0.04605986 0.053070083 -0.046318278
000110 f7 a8 10 3b ae fb ea 3d 6d ea 1b bc bd a6 9a 3d
       0.0022073367 0.11473785 -0.009516341 0.07551334
000120 51 ce 9f bc 60 9a cb 3c 79 5d 8b 3d 06 29 e9 3d
       -0.019507559 0.024853885 0.06804938 0.11384778
000130 1f b4 c9 3d 24 74 97 bc 5c e5 c6 3d 11 fc d8 3c
       0.098488085 -0.018487997 0.097117156 0.026487382
000140 48 d9 03 3b b3 a0 09 be 5d 81 34 3d 89 31 b7 3d
       0.0020118523 -0.13440208 0.044068683 0.08944995
000150 08 9e c4 3d 37 57 59 bd 75 3c e8 3d ae 5e a1 bc
       0.096004546 -0.05306169 0.11339656 -0.019698467
000160 28 68 ae be d6 cf cd 3d fc ce a4 bc f7 e4 a0 bd
       -0.3406384 0.10049407 -0.02011823 -0.078561716
000170 f2 6a 47 3d f2 97 fb 3d 53 81 04 bd b2 1b 8e 3d
       0.048685975 0.12284841 -0.032349896 0.06938876
000180 48 b7 cf bc 00 4b 47 ba f9 80 a9 3d 3c 09 c9 3d
       -0.02535595 -0.00076024234 0.08276553 0.098162144
000190 ac 88 b7 3d 35 97 0b 3e d3 d3 0a 3e ee 39 01 bd
       0.08961615 0.136319 0.13557367 -0.031549387
0001a0 21 38 a7 3d b4 67 0a 3d 11 f3 66 bd ec e1 e7 bd
       0.081650026 0.033790305 -0.05638415 -0.11322388
0001b0 1c c4 01 be 59 7b 8c bd 97 95 19 bd 54 35 17 3d
       -0.12672466 -0.06859464 -0.037496176 0.036916092
0001c0 55 a6 a9 3c 44 4b f2 bd b5 a7 bb bd 6a d0 ed 3d
       0.020709196 -0.11830762 -0.09162847 0.116120175
0001d0 b6 12 91 3d 30 5a 3f bb bd a7 08 bd 9a 06 11 3d
       0.07083647 -0.0029198043 -0.033363093 0.035406686
0001e0 62 d2 8e 3d e8 b7 f6 3d 2d cb ac bd 02 87 f8 3d
       0.06973721 0.12046796 -0.0843719 0.12135126
0001f0 b1 12 88 3d 90 97 87 3d 0a 02 93 3c 26 ee ab bd
       0.0664419 0.06620705 0.017945308 -0.083950326
000200 ed 29 08 bd ae e1 03 3e 6a 48 b7 bb 74 32 76 3d
       -0.03324311 0.12879059 -0.005593349 0.06010671
000210 04 35 e1 bd 38 12 a5 3d fc 95 11 3d 86 3d a2 bd
       -0.1099644 0.080601156 0.035543427 -0.07921891
000220 6c eb 95 3d 9b ff 64 3c 3a 2f b9 3e 02 b8 42 bd
       0.07320294 0.013976957 0.36168844 -0.047538765
000230 2a 9b d2 bd 31 6a 6f 3e ff 2c 79 bd 00 5b 1e 3d
       -0.102835014 0.23380353 -0.060833927 0.038661003
000240 48 d6 55 3d 9e 8d ef bc 16 c7 11 bd 26 5c e8 3d
       0.052206308 -0.029242333 -0.035590254 0.11345701
000250 3b 69 63 bc 60 cb fe 3c 0e 18 f3 bd 00 22 ad ba
       -0.013880069 0.031102836 -0.118698224 -0.0013208985
000260 60 42 55 3c 1a 74 df bd f4 4c 05 be 86 84 ce bc
       0.013016313 -0.109108165 -0.13017637 -0.025209676
000270 f5 0d 8b 3d 50 9b ed 3c aa a5 00 3d b8 4a 89 3c
       0.067897715 0.029004723 0.03140799 0.016759261
000280 02 0e 40 bc 00 e0 89 3d 1d 05 cb bd 69 99 1c bc
       -0.01172209 0.06732178 -0.09913085 -0.00955806
000290 8f 2d 84 bc 8a 28 09 be b2 70 e9 3d 1b 9e fd bc
       -0.016135005 -0.1339437 0.11398448 -0.03095918
0002a0 98 4a cb 3b d1 84 f0 3d 23 f6 d4 bd 9c 11 1c bc
       0.0062039606 0.11744083 -0.10398509 -0.009525683
0002b0 46 89 b5 bd 9d 5f 07 be 5b 4f 0a ba e2 38 ec 3d
       -0.088640735 -0.13220067 -0.0005276107 0.11534287
0002c0 f3 bb f8 3d bf 1e db 3d 3b 30 0a be dd d4 e7 3c
       0.121452235 0.10699224 -0.13494961 0.028299743
0002d0 34 c3 12 be 4e 5b ea 3d 04 30 4e bd 63 b3 c6 3c
       -0.14332277 0.11443196 -0.05033876 0.02425546
0002e0 ab 1e 01 3e 4b 99 98 bd 04 1a c3 bd c0 1d f2 3b
       0.12609355 -0.07451113 -0.095264465 0.0073888004
0002f0 7c cd 10 3d 48 96 db bc cd aa 46 3d 43 c3 00 3e
       0.035352215 -0.026805058 0.048502732 0.12574486
000300 ba 91 24 bd 90 58 76 bd ec d1 5c bd 50 39 3d bc
       -0.04017804 -0.060143054 -0.053911135 -0.011549309
000310 f8 84 fb 3c 6a b2 a1 3d 6a c4 85 bc e9 37 01 3e
       0.030703053 0.07895358 -0.01632901 0.12618984
000320 f6 1a 37 3c 00 0e 24 3c 74 50 1f bd 62 50 ed bd
       0.011175862 0.0100131035 -0.038895085 -0.115875974
000330 19 ce 95 3d 85 89 e6 bd b0 c5 1f be 36 6f db 3d
       0.07314701 -0.112566985 -0.15602756 0.10714571
000340 c8 fe 26 bd 14 88 64 3d 04 5f 00 3c 40 b7 24 3d
       -0.040770322 0.055793837 0.0078351535 0.040213823
000350 51 68 5e bd 1d 20 c3 3d 47 51 ca 3c dd 60 5d b9
       -0.054298703 0.095276095 0.02469696 -0.00021112287
000360 04 2b 90 bc 36 83 dc 3d 27 db 6f bd 75 87 b7 bd
       -0.017598636 0.10767214 -0.05855861 -0.08961383
000370 1f 13 12 3e 62 41 11 3d 84 cd ed bd 62 ab e7 bd
       0.14265107 0.035462745 -0.116114646 -0.113119856
000380 73 b4 bd bd a0 31 9e 3c d4 23 03 3e 54 b9 f5 3c
       -0.092629336 0.019310772 0.12806636 0.029995598
000390 8b 2a 8e 3d 29 21 bf 3d 53 4d 17 bd 80 58 19 bc
       0.06941708 0.09332497 -0.036938976 -0.009359479
0003a0 6e 05 4d 3d 9c c0 eb bb c0 d2 d2 3c 51 16 a8 bd
       0.050054006 -0.0071945917 0.025735259 -0.082073815
0003b0 dd 37 a9 bc 61 65 52 bb 85 db 31 bd d0 98 fc 3c
       -0.02065652 -0.0032103884 -0.04342224 0.030834585
0003c0 8c 6d b0 3d 26 6b 70 bd fa 0a 06 3e 96 ff e9 3d
       0.086146444 -0.058695935 0.13090125 0.11425702
0003d0 fc 95 01 3e bd 68 61 3c ca 9b c7 3d 76 c8 db bd
       0.12654871 0.013757882 0.09746511 -0.10731594
0003e0 28 aa 05 3e d5 3f 79 bd 22 29 11 3e a4 6c 70 3d
       0.1305319 -0.06085189 0.14175847 0.058697358
0003f0 96 7c f7 bd 0f d0 e3 3c 5b c6 2e bd b5 c1 b4 3d
       -0.1208431 0.027809171 -0.042669635 0.08826009

stacks.0.blocks.0.fc2.bias f4 [50]
000000 1d d0 2e 3e 2d 77 1c 3d 81 7d 48 3d 22 8c a5 3d
       0.17071576 0.038199592 0.048947815 0.08083369
000010 5a e0 0b be 33 b3 32 3e d9 38 13 3d 40 bb 1b 3e
       -0.13659802 0.17451172 0.035942886 0.15208149
000020 c9 21 18 be 15 d5 d6 3d b2 6a 66 3e 1e 9f 1e bd
       -0.14856638 0.10489861 0.22501639 -0.038725965
000030 5e fc 6a bd 69 73 da bd 67 42 e9 3d 3a ca 32 bd
       -0.057369582 -0.10666544 0.11389618 -0.04364989
000040 e8 96 cd 3d 22 53 6b 3d 2b 84 a4 be 59 bc 81 3d
       0.10038549 0.05745233 -0.32132086 0.063347526
000050 fa 59 c0 3d 79 25 b9 3b e4 e3 c8 bd 3e ff 1d 3c
       0.09392162 0.005650219 -0.09809092 0.009643374
000060 a9 b2 99 bd 5f bb 2c 3c 9d 62 2d 3d 6b e6 ee 3c
       -0.0750478 0.01054272 0.042330373 0.029162606
000070 53 f2 ea 3e a4 f2 62 3e 39 43 0f be 4f 4a 49 bd
       0.45888004 0.22162873 -0.13990487 -0.04914313
000080 07 f7 72 3d 6f 81 9d bd e2 1c 98 3d b5 71 01 3e
       0.059317615 -0.07690703 0.07427384 0.12641032
000090 e8 21 e5 bd 86 9f 70 3e de cd 5d bd 7d f2 09 be
       -0.11188108 0.23498353 -0.05415141 -0.13471408
0000a0 ce e8 f1 bb a6 48 1b be 85 3c c6 bc 94 ec 04 3e
       -0.007382489 -0.15164432 -0.02419878 0.12980872
0000b0 7b 0d 10 3d 9f ed cb 3d 03 d2 fe 3d de 90 4d 3e
       0.035169106 0.09957432 0.124424 0.20074794
0000c0 e1 54 8f 3d 84 99 9e 3d
       0.06998611 0.077441245

stacks.0.blocks.0.fc3.weight f4 [50, 50]
000000 10 a4 e4 3d fd 63 07 3e 6d f2 d9 bd dc 57 93 3d
       0.11164105 0.13221736 -0.10641942 0.07194492
000010 e0 da 52 bd 6e 41 13 3c b0 46 f8 bd 73 7f 75 3d
       -0.051478267 0.008987768 -0.121228576 0.059936
000020 0f 5b 73 3d 62 67 18 3e 77 05 a3 bd fd d4 46 3d
       0.059413012 0.14883187 -0.07960027 0.048542965
000030 ef 45 da bd 07 47 5b bd 9c 6c 0a 3e 20 01 f2 bb
       -0.1065787 -0.053534534 0.13517994 -0.007385388
000040 8c 4e c0 3d a6 f1 de 3d 7e 57 40 3d 24 61 85 3d
       0.093899816 0.108859345 0.04695844 0.06512669
000050 3a ed 04 be ff 46 7b 3c 19 7f 40 3d d6 3a 05 3e
       -0.1298112 0.015336751 0.04699621 0.13010725
000060 2c 05 74 3d 19 48 ad 3d 33 41 8c 3c c3 d1 16 3e
       0.059575245 0.08461017 0.017120933 0.14728455
000070 ce 91 93 3e a6 38 93 3d 52 9a e4 3d 51 4f 0c 3d
       0.28822178 0.07188539 0.11162247 0.03425533
000080 ef db b1 3d 39 35 40 bd c7 14 91 3b 38 5e 16 bc
       0.08684527 -0.046925757 0.0044275257 -0.009177737
000090 a0 21 db bb d1 27 be bd 4d 15 f0 3d 4a a5 91 3d
       -0.006687358 -0.09284938 0.11722813 0.071116045
0000a0 c9 dc 25 bd 47 09 4a bd 5a 09 56 3d 39 65 8c bd
       -0.04049376 -0.049325254 0.052255012 -0.06855244
0000b0 65 81 a6 3d 6f cf b8 bd e9 cf 9a 3c ae 3b 12 3e
       0.08130149 -0.0902394 0.018897967 0.14280578
0000c0 3f 51 bb 3d 7a f3 8a 3d e6 c0 b7 3d 47 2d e2 3d
       0.09146356 0.06784721 0.08972339 0.11043792
0000d0 a8 d0 aa 3c a7 c4 37 bd 52 60 a0 3c 57 10 5c bd
       0.020851448 -0.044865277 0.01957718 -0.05372652
0000e0 c4 a3 a9 3d a2 e5 d3 bd 46 7c 0d bd 2c cc 78 3d
       0.08283189 -0.10346533 -0.034542345 0.06074159
0000f0 4e 08 a9 bc a5 d0 e9 bd c0 3c a4 3b 40 d3 0f be
       -0.020633843 -0.11416749 0.005012125 -0.14045429
000100 f2 58 9a 3d f4 5f ba 3d 50 eb ed bd 0b 93 fc 3d
       0.07536496 0.09100333 -0.11617148 0.12332734
000110 18 8d cc bc 36 02 59 3d 74 1a c7 bc 66 7d 8a bd
       -0.024969622 0.052980624 -0.024304606 -0.06762199
000120 f2 54 b2 bc b5 04 d6 bd c8 33 9f bd e0 ed 6b 3d
       -0.02176902 -0.104501165 -0.07773548 0.057599902
000130 65 1d 34 bd a5 32 ae 3d ba 43 ba bb 08 3c e4 bd
       -0.043973345 0.085057534 -0.005684343 -0.111442626
000140 74 5b a4 3d 05 6a 23 3a fa ee d6 bd b2 02 b3 bd
       0.08025256 0.00062337547 -0.104948 -0.087407485
000150 2e 27 a0 3d 40 12 28 3b b7 b4 d2 bd 08 ee d3 bd
       0.07819973 0.0025645643 -0.10288375 -0.10348135
000160 af f8 f7 bd 3a e8 1e be 8d 0c 06 be 44 a7 06 bd
       -0.121079795 -0.15518275 -0.13090725 -0.03287436
000170 a4 46 c9 bd 1e a2 9a 3d b4 c6 d4 3d ee 8f d0 3d
       -0.09827927 0.07550453 0.10389462 0.101837024
000180 a6 2e 00 3e 8e 49 2d 3d 05 4d 7e 3d f2 a3 c2 3d
       0.12517795 0.042306475 0.06208517 0.09503926
000190 d4 8f ac 3d 54 9f 96 3d ba d7 82 3d 72 bf dc 3d
       0.084258705 0.07354608 0.06388803 0.10778703
0001a0 f8 f9 66 bd a0 68 f2 3b cb da fd bd 50 e1 88 3d
       -0.056390733 0.007397726 -0.12395247 0.066836
0001b0 fe 1c 6c bd 72 cc 86 3d ea 3a 03 be 3c 5e ce 3d
       -0.057644837 0.065819636 -0.12815443 0.100765675
0001c0 a4 f2 d3 bd 38 a2 40 3d 6a 00 73 bd 56 cd ac bd
       -0.103490144 0.047029704 -0.059326567 -0.08437602
0001d0 35 c7 d0 bd cb 8d d9 bd a2 6d a8 3d 5e 87 f7 bd
       -0.10194246 -0.10622748 0.08224036 -0.12086366
0001e0 0e 4e dc bd ff 0c 0a 3e 90 83 1a bc db bc 00 3e
       -0.10757075 0.1348152 -0.009430781 0.12572043
0001f0 30 dc 44 bc 94 25 3b bd 5a 6e 41 bd 6f f2 a1 bd
       -0.012015387 -0.045690134 -0.04722438 -0.07907569
000200 e8 b6 d0 bd 26 15 e1 3d 11 e5 ee bd 34 6b 07 bd
       -0.101911366 0.10990362 -0.11664785 -0.03306122
000210 78 4f e8 bc 98 d7 9a 3d e4 5d 07 be 78 f7 b6 bc
       -0.028358206 0.075606525 -0.1321941 -0.0223348
000220 a3 1b 05 3e 60 b2 d4 bb 8c fd d9 bc 50 42 07 be
       0.12998824 -0.0064909905 -0.026610158 -0.1320889
000230 40 03 bf 3c 5e 74 e2 3d 80 df fd 3a fc fc 36 3d
       0.02331698 0.110573515 0.0019368976 0.04467486
000240 88 db da 3d 20 e0 d1 bc 14 32 1a bd 00 4a 03 ba
       0.106864035 -0.025619566 -0.037645414 -0.000500828
000250 da 92 b2 bd b2 eb dd bd 00 3d 2e bc f1 5b c1 3d
       -0.08719416 -0.10835971 -0.010634661 0.094413646
000260 02 52 28 bd 2f be f0 bd 55 5f 0f be f2 5d ae 3b
       -0.041093834 -0.11755025 -0.1400121 0.0053212577
000270 9c 04 a5 3d 52 b9 ae 3d 06 c5 ff 3d 59 c1 43 bd
       0.0805752 0.08531441 0.12488751 -0.047791813
000280 ba bb d7 bd ee 07 f3 3d c6 9e b4 bd 10 87 66 3c
       -0.10533853 0.11866747 -0.08819346 0.014070287
000290 90 bd b1 3c 0d 34 0e 3e 94 d9 92 3d 99 33 12 be
       0.021696836 0.13887043 0.07170406 -0.14277495
0002a0 00 70 88 3d 2a 71 de 3d 00 56 97 3c e5 f2 df bd
       0.06661987 0.10861428 0.018473625 -0.10935
0002b0 07 96 df 3d f5 8d a0 3d b0 56 de bd bc 2c df bd
       0.10917287 0.07839576 -0.10856378 -0.10897204
0002c0 4d 2f d2 bb b8 9c af bd e4 a7 10 bd 22 72 ef 3d
       -0.00641433 -0.085748136 -0.035316363 0.11691691
0002d0 ab 3d d5 bd ff 1a c3 bc ce a0 9c bd ad 84 10 3e
       -0.10412153 -0.023816584 -0.076478586 0.14113112
0002e0 53 57 d8 bc 00 8c f4 bd b5 08 ac bd e2 47 23 3d
       -0.026408827 -0.119407654 -0.08400098 0.039863475
0002f0 aa 8d c2 3d ad ef 00 be 8c 46 0c 3d b0 d8 26 bc
       0.094996765 -0.12591429 0.034246966 -0.010183498
000300 4c 0d c7 bd 9e 48 03 3e b4 07 d3 bd 5f 33 c7 3c
       -0.09719333 0.1282067 -0.10304204 0.024316488
000310 fa 28 02 be 38 47 9d 3d d6 7e 92 bd 69 2b 21 3d
       -0.12710944 0.076795995 -0.07153098 0.03934804
000320 4d 62 48 3d 7a 23 7d 3d d5 a7 86 3d b4 06 dc bd
       0.048921872 0.06180141 0.0657498 -0.10743466
000330 33 5e 1a 3d 4a 27 c7 3d 49 b3 6d bd 12 d1 a8 3d
       0.03768749 0.09724291 -0.058032308 0.08243002
000340 9a cd ad bc 08 09 07 3e e4 92 62 3d 80 91 6e bd
       -0.021216203 0.13187039 0.055315867 -0.05824423
000350 32 2b af bd 8e d0 f9 bd 6f 59 07 3d a0 9a b5 3b
       -0.08553161 -0.12197982 0.033044275 0.0055421144
000360 bd 50 e6 3d 83 27 8e 3d 2a 59 a2 bd a7 04 8f bd
       0.11245868 0.0694113 -0.07927163 -0.06983309
000370 71 4b d5 bd c0 14 bc 3d 30 0b b9 bd ca 33 ae bd
       -0.1041478 0.09183645 -0.09035337 -0.08505972
000380 84 40 ce bd a6 5a fb 3d f5 44 37 bc 50 3c 32 3d
       -0.10070899 0.12273149 -0.011185874 0.04351455
000390 c9 19 30 3e 35 2b 87 3d 35 d1 8e 3d df 3d df 3d
       0.17197336 0.06600038 0.06973497 0.10900473
0003a0 e7 59 e1 bc 78 d7 e5 bd 5a ca 01 be ba e6 7f bd
       -0.02750869 -0.11222738 -0.12674847 -0.062475897
0003b0 ac ff 2c 3d 01 06 93 3d 86 65 02 be 58 57 c2 3b
       0.042236015 0.071788795 -0.1273404 0.0059308223
0003c0 29 ec eb bd ee 21 19 3d 1e d3 a2 bd b0 31 1c bd
       -0.11519653 0.037385873 -0.07950424 -0.038133323
0003d0 ea 89 59 bd 79 a2 46 3d 49 a6 39 bd 94 b0 f8 3c
       -0.05311004 0.04849479 -0.045324598 0.030357637
0003e0 92 ce d9 3d 99 86 e4 bd 5c f0 4d bd f4 d0 25 3d
       0.10635103 -0.11158485 -0.050278053 0.040482476
0003f0 4b 5e b9 bd 01 f6 04 be 67 a6 16 be fd e4 90 3d
       -0.09051188 -0.12984468 -0.14711915 0.07074926

stacks.0.blocks.0.fc3.bias f4 [50]
000000 ce ad cb 3c 8e 95 0d be c0 1f 39 3d 04 4f 4a 3d
       0.02486315 -0.13826582 0.045196295 0.04939176
000010 15 6f 67 3b b6 7b 3a 3e db ea 45 3e 3d 77 bc bd
       0.0035314013 0.18211254 0.19327872 -0.092024304
000020 3a 19 0b 3e d5 00 d1 bd a7 2c 1d bd db e0 b2 3c
       0.13583842 -0.10205237 -0.038372662 0.021835735
000030 04 5b 6a 3e 85 85 25 3e fd 6e 6d bd 02 80 ff bd
       0.22886282 0.16164215 -0.057967175 -0.124755874
000040 e1 1a 75 3d 53 d2 6a 3d 33 85 01 3d 8e 79 e2 bd
       0.059840087 0.057329487 0.03162117 -0.11058341
000050 2c d0 8b bc dc 4f cc bd 58 12 e1 3d 93 a7 ac 3d
       -0.017067038 -0.099761695 0.10989827 0.084304
000060 20 28 4a 3d b7 96 a1 3d b4 85 54 3e 74 dc ab 3c
       0.049354672 0.07890075 0.20754129 0.020979144
000070 ee 29 84 3d 5d a4 33 3c c8 12 96 3d 19 3f 62 3e
       0.0645331 0.01096448 0.07327801 0.22094382
000080 80 ab ad 3d 96 cc b7 3e 3d 02 6f 3d 00 ec 1f 3a
       0.08479977 0.35898274 0.058351744 0.00061005354
000090 fb c3 fa bc de b9 77 bd 4e c1 9f 3d 99 80 a2 bd
       -0.030611029 -0.06047999 0.07800542 -0.07934684
0000a0 7f cf ee bd 0b 3b 1c bd 8a 4a 3c 3e a0 17 70 bd
       -0.116606705 -0.038142245 0.1838781 -0.05861628
0000b0 22 b0 5a 3e f9 ef 1a 3c 97 7e 59 3e 55 b4 69 3e
       0.21356252 0.009456628 0.21239696 0.22822697
0000c0 47 69 ff 3d ae c5 0a be
       0.12471252 -0.13551971

stacks.0.blocks.0.fc4.weight f4 [50, 50]
000000 b5 93 0c be 00 4d 14 3c 0c 3d df bd 6c f1 8b 3d
       -0.13728221 0.009051561 -0.10900316 0.06833157
000010 c0 ca 90 3c 44 46 00 be 21 12 ec bd cc b1 74 bd
       0.017674804 -0.12526804 -0.11526895 -0.059739873
000020 50 f2 2d 3c 45 a7 8a bd 32 73 3e bd 14 f1 0c be
       0.010616854 -0.067701854 -0.046496578 -0.13763839
000030 40 e0 9f 3b 7a f8 eb 3d 7b 87 cf bd b4 1a 0d 3d
       0.0048790276 0.115220025 -0.10133263 0.034449294
000040 59 49 02 3e 29 c4 83 bd 78 b3 08 be 44 c5 9a 3d
       0.12723292 -0.06433899 -0.13349712 0.07557157
000050 5a b2 7e bd 48 75 1d bd 88 bb 85 bd bb 69 0c be
       -0.062181808 -0.038441926 -0.06529909 -0.13712208
000060 1c 26 ea bc ee dc a1 3d 5c c6 43 3d 47 87 e3 bd
       -0.028582625 0.07903467 0.047796592 -0.111097865
000070 fb 36 9e bd 74 0a 0e 3d ec 50 0d 3d fe fe 80 bd
       -0.077253304 0.034677938 0.034501 -0.06298636
000080 6a c1 ed bd 62 fd 03 bd 64 9f 5c 3d 37 ba 0e be
       -0.116091564 -0.032224067 0.053862944 -0.13938223
000090 a4 a8 a3 bc 6a 91 bb bd 48 39 2f 3d d8 56 92 3d
       -0.019977875 -0.09158595 0.042779237 0.071454704
0000a0 94 34 30 3d bc a2 c9 3d f0 88 97 3d 1c d1 c0 bd
       0.043018892 0.09845492 0.07399166 -0.094148844
0000b0 24 c5 52 3d 16 c9 80 3d 04 b6 ea bc 05 01 10 3e
       0.05145754 0.06288354 -0.028651245 0.14062889
0000c0 e2 33 f4 3d 14 93 66 3d 39 66 8c bc c0 85 88 bd
       0.11923958 0.05629261 -0.017138587 -0.06666136
0000d0 e6 c9 21 bd 27 43 00 3e ad 73 e0 bc 32 24 0a 3e
       -0.039499186 0.12525617 -0.027398909 0.1349037
0000e0 f3 a3 53 3d 59 7b 98 bd bc 23 86 3c 43 44 2e 3d
       0.051670026 -0.07445402 0.016374461 0.04254557
0000f0 93 5a a4 bd 26 4b b8 3c 58 d2 aa bc 3d e5 59 3d
       -0.08025088 0.022496771 -0.020852253 0.053197134
000100 1b 5f f5 3d 8b 63 30 bd c8 eb 6d 3d af 8d d4 3d
       0.119810306 -0.04306368 0.058086187 0.103785865
000110 69 b9 d7 3d 32 fd 81 3d 60 f0 0e 3b 60 30 e7 3c
       0.10533411 0.06347121 0.0021810755 0.02822131
000120 31 dc 51 3d 66 2b bb bd 28 eb 5b 3d 27 e2 5b bd
       0.05123538 -0.09139137 0.05369106 -0.053682473
000130 48 5d b9 3d 44 0f 9b bb a7 7f c9 bd 31 dc ff 3d
       0.09050995 -0.0047320444 -0.09838801 0.1249317
000140 02 3c 0c 3e 6f 7f c7 3d 40 be 78 bd 8f fb 0b 3d
       0.13694766 0.09741103 -0.06072831 0.03417545
000150 f5 e5 5e bd b2 de 94 3d 89 98 f2 3d 04 21 e6 ba
       -0.054418523 0.07269038 0.118455 -0.0017557447
000160 a4 3d 47 bd 40 63 21 3d 4b 96 f8 bc 40 95 be 3d
       -0.04864277 0.039401293 -0.030345103 0.09305811
000170 b0 fb c3 3d 87 cb 84 3d bf c9 00 3e 6c f6 dc 3d
       0.0956949 0.06484132 0.1257696 0.10789189
000180 7b 6f 33 3b 01 13 f0 bd fa 87 12 bd ad 62 e9 bd
       0.002737968 -0.11722375 -0.03577421 -0.11395774
000190 e8 a0 02 3d a8 65 a4 bc 40 97 b1 bc 38 cd 43 3d
       0.031891733 -0.020068005 -0.021678567 0.047803134
0001a0 de cb ed 3d 4e a7 bf bd 18 9e 1d bd 40 e0 e3 bb
       0.1161115 -0.09358083 -0.038480848 -0.006954223
0001b0 a0 c2 d0 bb a4 fb f9 bd a0 b0 b5 bb c8 e4 46 bd
       -0.0063708574 -0.122062 -0.005544737 -0.048558027
0001c0 7a 1d f1 3d 7e 2b 66 bd a0 8b 2b 3c 1a 4a 30 bd
       0.117732 -0.05619382 0.010470301 -0.04303942
0001d0 3c cc 2c 3d 80 ab 56 bc 3c 01 ca bd 4e 7d fe bd
       0.04218696 -0.013102412 -0.09863517 -0.12426244
0001e0 02 47 9d 3d a6 3d 01 be 90 1b 33 bc 84 d0 a2 bc
       0.07679559 -0.12621173 -0.010931864 -0.019874819
0001f0 90 f7 7d 3d 95 3a 82 bd d0 bb 39 bc 08 56 d3 bd
       0.062003672 -0.0635883 -0.011336282 -0.103191435
000200 41 a9 ce bd fe fa 93 3d 9c 2d 09 bd 00 d4 c3 bb
       -0.10090876 0.07225607 -0.033490762 -0.0059762
000210 70 fc 42 bd 6c 0e 88 3d 40 fb 5d bc fd b8 a0 bd
       -0.047604024 0.06643376 -0.013548672 -0.07847784
000220 5a 23 bb 3d e1 0e 94 bd c8 0e 07 3d 8e 4f f1 bd
       0.09137602 -0.072294004 0.03297308 -0.11782752
000230 62 64 e6 bd de ad ed 3d db 15 00 3e 74 f8 ec bd
       -0.11249615 0.11605428 0.12508337 -0.11570826
000240 94 ba 8d 3d 6c 6d 10 be dc 01 c9 bd a0 fc 30 3c
       0.069203526 -0.14104241 -0.09814808 0.010802418
000250 bf 42 b2 bd 91 c9 0f be 71 40 ab bd ad f3 0e be
       -0.08704137 -0.14041735 -0.083619006 -0.13960142
000260 60 ef 3e bc f8 ad d5 bd 65 20 8a 3d 32 5e 06 be
       -0.011653751 -0.104335725 0.0674446 -0.1312187
000270 2a 11 1d 3d 32 27 ec 3c 94 9f a8 3d 36 c8 c4 3d
       0.038346447 0.028827284 0.08233562 0.096085
000280 29 c6 ad 3d 83 84 04 3e 58 7b b2 bd 6a ae d5 3d
       0.08485062 0.12941174 -0.08714932 0.104336575
000290 ed 21 17 be bc 27 8e 3d a8 be 25 3d 99 3e b5 3c
       -0.14759035 0.069411725 0.040465027 0.022124575
0002a0 67 45 0e bd 36 ec 97 bd 21 e8 30 3d c6 d2 56 bd
       -0.034734156 -0.074181005 0.043190125 -0.052447103
0002b0 f0 73 06 be 0a f7 d4 3d c4 ee a8 3d 35 35 03 3e
       -0.13130164 0.103986815 0.08248666 0.12813266
0002c0 82 8a 1b be 31 34 a9 bc 92 23 91 bd 3d fc 3d bd
       -0.15189555 -0.02065477 -0.070868626 -0.04638313
0002d0 a7 51 6a 3d 5e 3d 69 3d 47 11 aa bc 3d b2 12 be
       0.057206776 0.05694329 -0.020760192 -0.14325805
0002e0 44 4d 00 be 80 6c 30 bd 51 31 48 3c 52 cc 75 3c
       -0.12529474 -0.043072224 0.012218789 0.015002327
0002f0 30 dc c8 bd 62 d2 f4 bd 0c 5e 6f bc a8 a1 bf 3d
       -0.098076224 -0.1195419 -0.014609825 0.09357005
000300 1e 9b dd bd 22 9f 87 bd ce 54 a0 3d 59 d8 0f bd
       -0.10820602 -0.06622149 0.07828675 -0.035118435
000310 ef 78 2e ba a1 28 95 3c 0b bc cb bd d2 48 12 bd
       -0.0006655594 0.01820785 -0.09947976 -0.035713978
000320 31 32 dd bd 7c 2e 88 bc 8b d1 01 3e 50 30 c7 bd
       -0.10800589 -0.016623728 0.1267759 -0.09726012
000330 7e 2c ec 3d 31 a3 0b 3e 7a 8e 7f bd de 63 0c bd
       0.11531924 0.13636471 -0.062391736 -0.03427493
000340 a0 18 80 3d 7a 00 a7 3d b1 41 ed bd b6 2a f2 3d
       0.06254697 0.08154388 -0.11584795 0.11824553
000350 08 4e ed 3c 98 fe b6 3d 2d 6d 06 3e 5b a2 0d 3e
       0.028967872 0.08935279 0.13127585 0.13831465
000360 70 f9 19 3d 38 fc d5 bd 3f 06 00 be d6 39 f6 bd
       0.037591398 -0.104484975 -0.12502383 -0.1202275
000370 d0 aa 20 bd e0 25 b8 bd ac 17 b7 3d 80 e6 a1 bc
       -0.0392254 -0.08991599 0.08940062 -0.019763231
000380 58 70 81 3c 10 8d 7c bc 3c 52 1a bd 7c 34 0c be
       0.01580064 -0.015414491 -0.03767608 -0.13691896
000390 ac a8 f1 bc 33 a9 0e 3e a4 9a 41 bd a1 11 07 be
       -0.029499374 0.13931732 -0.047266617 -0.13190319
0003a0 0a 88 98 3d cc 0e 98 3d a2 5e 12 bd 80 61 1a 3c
       0.074478224 0.07424697 -0.03573478 0.00942266
0003b0 cc 49 de 3d 6e 78 0c bd 80 ed 5c bb 23 1d 0e be
       0.108539194 -0.03429454 -0.0033710897 -0.13878302
0003c0 a0 b3 68 3c 86 9e 95 3d 70 33 5e 3d ab c4 0d 3e
       0.014202982 0.073056266 0.054248273 0.13844554
0003d0 4e b2 a3 bd fa 57 00 be 51 f5 df bd f0 73 2b 3c
       -0.07992993 -0.1253356 -0.10935462 0.010464653
0003e0 6e 5a 8b bd 33 55 0f 3e 63 c8 87 3d 9d 50 d4 bd
       -0.068043575 0.13997345 0.066300176 -0.10366938
0003f0 d8 06 bf bd ec 91 84 3d c2 8a bd 3d 71 ce ff 3d
       -0.09327477 0.06473145 0.092549816 0.124905474

stacks.0.blocks.0.fc4.bias f4 [50]
000000 3a c6 b4 3d 9d 04 37 3e 26 68 74 bd 26 93 67 bd
       0.08826871 0.17872854 -0.059669636 -0.056536816
000010 14 67 cc bc c0 35 a6 3d ad 5b e4 bc 4b 2c c6 bb
       -0.024951495 0.08115721 -0.027875746 -0.0060477606
000020 be 05 00 3d 06 6d 12 bd 1d 71 1b bd d4 dd c3 3c
       0.031255476 -0.035748504 -0.03794967 0.023909487
000030 76 79 80 3d 5e 5b 0a bd 5b ba 54 bc 4e 2f ba bd
       0.06273167 -0.03377854 -0.012983884 -0.09091054
000040 87 fa ed 3d 39 f0 67 3c fb e9 84 3e 75 e3 7c bd
       0.1162005 0.014156395 0.25959763 -0.061740357
000050 1a 88 0e 3d 07 82 d6 3d 75 ed a7 3d 4b 92 8e bd
       0.034797765 0.104740195 0.08199588 -0.06961497
000060 ed 13 3a 3e d8 f4 77 3d 88 39 f0 bd 27 25 4a 3d
       0.18171664 0.060536236 -0.11729723 0.049351837
000070 80 0b 72 bc 0a ac 72 bd f2 28 07 be cf b6 0d be
       -0.01477325 -0.0592461 -0.13199213 -0.13839267
000080 f3 7f 3e 3e 90 11 6f 3c 07 ee 18 3e 28 d8 9b bc
       0.18603496 0.01459159 0.1493455 -0.01902397
000090 d0 63 14 3e ca c9 f8 bd 9e d6 e2 3d 46 b2 7f 3e
       0.144912 -0.12147863 0.11076091 0.2497035
0000a0 af ff b0 3d 08 24 d4 bd f7 38 9d bc 7a 99 4a bd
       0.08642518 -0.10358435 -0.019192202 -0.049462773
0000b0 2c fb 10 be c1 17 15 3e 6d 35 9b bd e9 1f a1 bc
       -0.14158314 0.14559843 -0.075785495 -0.019668536
0000c0 11 ff 38 bd 89 7d 44 3e
       -0.045165125 0.19188513

stacks.0.blocks.0.theta_layer.weight f4 [43, 50]
000000 68 ba f4 3c 13 06 fc 3d a8 88 4a 3d 11 f4 24 bd
       0.029874042 0.12305846 0.04944673 -0.040271822
000010 08 a4 bb bd 17 5f 7b bd ee 4d a3 bd 2c 52 88 3d
       -0.09162146 -0.06136998 -0.07973848 0.06656298
000020 52 12 94 bc 96 d1 0f be 60 a6 01 3e fb 39 81 3d
       -0.018075142 -0.14044794 0.12661123 0.06309887
000030 ae a4 3d 3c 77 d8 b6 3d db ea 07 3e ec 4b 82 bd
       0.011574907 0.08928006 0.13273184 -0.06362137
000040 2c 72 6e bd e0 d7 bb bd 0f 6e b1 bd 17 5a e7 bd
       -0.05821435 -0.09172034 -0.0866357 -0.1129648
000050 a5 49 96 bd af 43 47 bd 42 f0 d7 3b 28 4f dd 3c
       -0.07338265 -0.048648532 0.0065899203 0.027015284
000060 e7 bd fe bd 5f 02 76 bd 4e fc d2 3d 9f 7c 2b b8
       -0.12438565 -0.060060855 0.103020296 -4.088564e-05
000070 f8 d6 5f bd 15 3c be bd 2f c9 08 be ec 62 8e bd
       -0.05464837 -0.092888035 -0.13357995 -0.069524616
000080 8f a1 94 3d a0 93 9c 3b 0c 99 97 3d a4 db dd 3d
       0.07257377 0.0047783405 0.07402238 0.10832909
000090 84 5d f3 3c 94 1a 8b bd a6 72 e1 bd 24 72 04 be
       0.029707678 -0.06792179 -0.110081956 -0.12934166
0000a0 83 70 bf 3d 20 24 1b bd 0e c1 aa 3c d1 ca 05 be
       0.09347632 -0.03787625 0.020844009 -0.1306565
0000b0 01 5e 42 bd 8b 8c e9 bd ce 49 7a bd b8 9c 51 3d
       -0.04745293 -0.114037596 -0.061105542 0.05117485
0000c0 10 d4 09 be 3b 52 8c bd 85 c6 98 bd f6 d4 0a 3e
       -0.13459802 -0.06851622 -0.074597396 0.135578
0000d0 57 eb 0a be 76 99 01 3e 15 65 0e 3e c7 48 c2 3d
       -0.13566338 0.12656197 0.13905747 0.094865374
0000e0 b6 74 ff bc 65 ca 31 3d 7f c8 9e bc 9b fd a5 3b
       -0.031183582 0.04340591 -0.019382713 0.0050656325
0000f0 57 04 09 3e 5e 56 d2 3d 3e 41 aa 3d 7b 30 ad bd
       0.13380562 0.102703795 0.08313225 -0.084565125
000100 56 26 58 3c 05 75 29 bd 2b 15 d3 3d 66 eb fc bd
       0.013192734 -0.041371364 0.10306772 -0.12349586
000110 6e 9b 5f 3d 4c fb 46 bd a5 4b 8a 3d 38 07 15 3e
       0.05459159 -0.0485795 0.06752709 0.14553535
000120 fd 52 cb 3d 34 1d 55 3d ec 71 ca bc c5 67 15 bd
       0.09927938 0.052029803 -0.024712525 -0.036475915
000130 20 44 b1 3c 86 e4 ba bd db b1 bb bc 74 9b 46 3d
       0.02163893 -0.09125619 -0.022911957 0.048488095
000140 fa 6e 92 bd cc be ce bd e7 06 8b 3d 2c 89 5f 3d
       -0.07150073 -0.10094985 0.06788426 0.054574177
000150 78 3f 0d bd 5c 38 6c bd d3 ab 95 bc 2f a0 85 bc
       -0.034484357 -0.057670936 -0.018270409 -0.016311733
000160 a2 bb b8 bc cc ae 85 3d fa 67 95 bc d0 03 b0 bc
       -0.022550408 0.065274805 -0.018238056 -0.021486193
000170 df ea df 3d 2b 32 68 3d 3a 90 0c 3e 1a 3e 9e bd
       0.1093347 0.05668847 0.13726893 -0.07726689
000180 d1 a7 c6 3d 33 46 01 3e fa 97 18 3e dc 2f a1 bd
       0.09699977 0.12624435 0.14901724 -0.078704566
000190 54 ed 90 3d 7e b8 13 3e 22 1b 7b bd cb 64 c8 3d
       0.07076517 0.14425847 -0.061305173 0.0978485
0001a0 b8 75 01 3d 43 aa 80 bc 78 52 91 bd e0 df ad 3d
       0.031606406 -0.015706187 -0.07095808 0.084899664
0001b0 86 be ed bd 1c 24 09 bd 15 b8 ee bd 4f ee ae 3c
       -0.11608605 -0.033481702 -0.116562046 0.021353869
0001c0 02 48 18 3e 8d da ef 3a c2 58 e1 bd 72 be 13 3e
       0.14871219 0.0018299386 -0.11003257 0.14428118
0001d0 61 aa e4 bd cf 14 30 3d 1a 60 db 3c f8 a4 2e 3c
       -0.1116531 0.042988595 0.026779223 0.010659449
0001e0 dd 0f 07 be a2 65 ff 3d 0e ec 99 3c f5 a7 1b 3d
       -0.13189645 0.12470557 0.018789317 0.038001973
0001f0 71 7c 52 3d a6 96 c5 bd 2c 2e 14 3d 33 2c 7b bd
       0.051388208 -0.096478745 0.036176845 -0.06132145
000200 82 c5 f1 3d 5c 3e cd 3d a2 92 97 3d 76 80 fc bd
       0.1180525 0.1002166 0.07401015 -0.123291895
000210 15 3e 48 bc 24 78 d5 bd 6d 14 8a bd fe b4 12 3e
       -0.012221833 -0.10423306 -0.06742177 0.14326856
000220 3c 84 48 3c 56 ad a5 3c 99 51 ff 3d a0 7b 8f bd
       0.012238558 0.020224255 0.124667354 -0.070060015
000230 8e c7 14 3e 5f d8 fd bd 52 d2 85 bd a6 7d ea 3d
       0.14529249 -0.12394785 -0.06534256 0.11449747
000240 a4 c7 04 3d 63 1c a9 bd de dc fa bd df b0 ac 3d
       0.032416955 -0.082573675 -0.12249158 0.08432173
000250 4e 8d c3 bd 3e 12 93 3c cf f0 0c 3e f9 ca c8 3d
       -0.09548436 0.017953034 0.13763736 0.09804339
000260 58 d3 ff 3c f6 44 ec 3d 94 87 9a bc 7f 24 64 3c
       0.031228706 0.11536591 -0.018863477 0.013924717
000270 9e ea df 3c 4c 94 36 bd 93 63 d0 bc cd d9 bf bd
       0.027333554 -0.04457502 -0.025438106 -0.09367714
000280 5f e6 f7 ba 25 0d 1a 3e 1d f6 84 3d 2d cd b1 bd
       -0.001891326 0.15044077 0.06492255 -0.08681712
000290 77 bd df 3d 0e b6 a1 3b ff f3 c0 bd a9 14 ff 3d
       0.109248094 0.0049350327 -0.094215386 0.124551125
0002a0 22 f5 65 3d b7 49 bd 3d 78 30 3a bd e3 07 be bd
       0.05614198 0.092425756 -0.04545638 -0.09278848
0002b0 f2 61 eb 3d 8c 16 63 3c 63 92 4c bd 96 49 58 b9
       0.11493291 0.013860356 -0.049944293 -0.00020626778
0002c0 bc 14 9c 3d 54 1b 9a bd 93 01 36 3e c0 69 bc 3d
       0.07621142 -0.07524744 0.17774038 0.09199858
0002d0 28 68 46 3d 7d 18 68 bc e3 69 a8 3d 0e e0 a5 3d
       0.048439175 -0.014165995 0.08223321 0.08099376
0002e0 c0 b1 4f 3d 57 42 e0 bd 9e e2 ef 3d 2d 5e 73 3d
       0.050706625 -0.10950153 0.11713146 0.059415985
0002f0 32 18 b5 3c e8 29 a6 bd d9 31 c0 bd 80 1b c9 3b
       0.022106264 -0.08113462 -0.09384508 0.0061373115
000300 36 72 0c 3e a4 70 b7 3d e5 a5 c2 bd 83 3c b8 bd
       0.13715443 0.08957031 -0.09504298 -0.08995917
000310 9f 2d 00 be 12 e8 24 bd 19 f3 b1 3c 43 16 04 3e
       -0.12517403 -0.040260382 0.021722363 0.12899117
000320 c0 54 52 3d 21 21 dd 3d e2 92 ed 3d 82 a9 b0 3c
       0.051350355 0.107973345 0.11600281 0.021565203
000330 38 0c a1 bc e5 86 fb 3d 61 fb 61 3e 09 39 9c bd
       -0.019659147 0.122815885 0.2206855 -0.07628066
000340 a1 70 dd 3d 9d 92 97 3d 62 af 13 3c 02 da af bd
       0.10812498 0.07401011 0.0090139825 -0.085865036
000350 60 32 91 bd c7 18 ed 3d 40 15 a6 3c 6d ff 12 be
       -0.070896864 0.115769915 0.020273805 -0.1435525
000360 3e 80 25 3e c1 78 be bc 66 85 88 bd b8 ed 13 3d
       0.16162202 -0.02325094 -0.06666069 0.03611538
000370 ee 06 25 3d 6c 74 7a bd cb 09 41 bd f3 5b 83 bd
       0.04028981 -0.061146185 -0.04712848 -0.06414022
000380 85 fe 88 3d a5 e6 6b 3d cf 95 8e bd df e0 32 3e
       0.06689171 0.057593007 -0.069621675 0.17468594
000390 3d dc 0c 3e c0 1f 64 3d 10 04 7d 3c 7f 77 bc bd
       0.13755889 0.05569434 0.015442863 -0.092024796
0003a0 5e 86 e8 bc 28 c6 13 3d bb 29 3c bd c9 9c d6 3d
       -0.028384384 0.03607765 -0.045938235 0.10479123
0003b0 54 e2 f9 3d 84 1c 66 3d 3c 35 b1 bd b0 bb 1a 3e
       0.12201372 0.05617954 -0.08652732 0.1511066
0003c0 69 16 02 be 40 f4 fd bc 02 11 98 bd 1f 6c e8 3d
       -0.12703861 -0.031000257 -0.07425119 0.113487475
0003d0 81 dd 02 be 33 60 29 3e db 2e c4 bd 9a 1c bb bc
       -0.1277981 0.16540603 -0.095792495 -0.022840787
0003e0 14 ba 46 bd 13 18 ac 3c 2a bf ec 3d 7c 0f e5 bd
       -0.0485173 0.021007573 0.11559899 -0.11184594
0003f0 b2 41 ce 3d c3 fc a0 bd 0c 16 39 3d df 2e 20 bd
       0.10071124 -0.078607105 0.04518704 -0.0391072

stacks.0.blocks.0.theta_layer.bias f4 [43]
000000 f7 44 7b 3e e2 d3 2a 3e f1 71 13 3e a4 56 84 3e
       0.24538027 0.1668239 0.14398934 0.25847352
000010 fa cd a7 3e eb ce 55 bd d6 de 75 be ee 44 55 be
       0.32774335 -0.052199285 -0.24010786 -0.20827076
000020 41 c8 e5 3e 6b 29 a0 3e 27 03 a8 bd 8b 81 41 be
       0.44879344 0.312816 -0.08203726 -0.18897073
000030 60 8e 73 3d c5 44 8a 3d 48 c1 c0 be 32 3a 04 be
       0.05946195 0.06751398 -0.37647462 -0.12912825
000040 7b 48 9e 3e dc 6e b1 3e b9 b5 19 be f1 d1 90 be
       0.30914673 0.34654891 -0.15010728 -0.28285173
000050 4c 4f 9d 3e e1 39 6d bc f1 bd e4 3d b1 0a 7d 3d
       0.3072456 -0.014479131 0.11169041 0.061777774
000060 bf 69 4c 3e b3 75 60 be b7 48 3d bd f2 39 2e bc
       0.19962214 -0.21919899 -0.046211924 -0.010633932
000070 66 6e a5 be 72 4c c9 3e eb a9 6f bd 46 89 bf bd
       -0.3231079 0.39316136 -0.058511656 -0.09352355
000080 3f 74 8f be 6d cc f8 bd 16 63 85 bc b1 44 f9 bb
       -0.28018376 -0.12148366 -0.0162826 -0.0076070656
000090 fa dd 84 be 55 b5 95 be d4 53 b8 be 3f 6e 82 be
       -0.25950605 -0.29239908 -0.36001456 -0.25474736
0000a0 1e 06 23 be 7c 91 6d be e1 0c 4b bd
       -0.15920302 -0.23200029 -0.04957283

stacks.0.blocks.1.fc1.weight f4 [50, 42]
000000 a2 96 49 bd 8e 2a 2c 3e 07 45 f1 bd 44 80 81 3c
       -0.04921592 0.16813108 -0.11780744 0.015808232
000010 48 3c 2c 3e 64 a2 2f 3e 7c f5 fb bd 2b 45 ca 3b
       0.1681987 0.17151791 -0.12302682 0.0061727962
000020 8c f5 2a 3e 4e db cf 3d fe 59 9c bd 34 dd 59 3c
       0.16695231 0.10149251 -0.07634352 0.013297368
000030 ec 15 d4 3c 4d c5 19 3e 57 4f 13 bd 1f 68 0a be
       0.02588936 0.1501667 -0.035964336 -0.13516282
000040 b3 61 b7 3d 91 95 6b bc be a8 1f 3d 64 52 7b bd
       0.089541815 -0.014378921 0.038979284 -0.06135787
000050 9e de 82 3d 30 46 d4 bd 95 64 ad bd 37 07 29 3e
       0.06390117 -0.1036495 -0.0846645 0.16506658
000060 a5 3b cc 3d 12 2c 23 bd a4 3f 4d 3d ad 51 45 bc
       0.09972314 -0.03983695 0.05010952 -0.012043399
000070 23 d2 83 3d d8 8e 20 bc 6e bb 99 bc 8b 29 de 3d
       0.06436565 -0.009799682 -0.018766131 0.108477674
000080 cd 97 17 bd 5b ac c3 3d 62 5f 24 bd 27 ce e2 3d
       -0.037010003 0.095543586 -0.040130027 0.11074477
000090 b3 9c ba bd e3 4a 55 bd ec 6a 8e bd 13 11 8d 3d
       -0.09111919 -0.05207337 -0.069539875 0.06888022
0000a0 d1 ef 0f be 29 ed 99 bd ea c8 9f bd 67 ab 35 bc
       -0.14056326 -0.07515938 -0.07801993 -0.011088229
0000b0 b1 87 f5 bd d0 2f 3f 3d 6e 36 c4 3d e9 59 68 3c
       -0.11988772 0.046676457 0.09580694 0.0141815925
0000c0 45 8d 53 3d a4 c9 0b be 9b 5e 25 be c7 ce af 3d
       0.051648397 -0.13651139 -0.1614937 0.085843615
0000d0 1a 07 c1 3d 80 d7 e3 3c e8 0b 4a bb 6b fa 57 bd
       0.09425183 0.02781272 -0.003082985 -0.05272905
0000e0 c2 35 b0 3d 7c cf 59 3d b5 65 40 3d 5c b7 1c be
       0.086040035 0.05317639 0.046971995 -0.15304321
0000f0 02 23 a8 3c 8b 0a 24 be d8 bd 1a bd 6f 9b e1 3d
       0.020524506 -0.16019647 -0.037778705 0.11015975
000100 67 f5 39 3c 72 c7 66 3d f6 d7 fb bc d1 84 14 be
       0.011350012 0.05634255 -0.030742627 -0.1450379
000110 ed 63 07 3d 82 d0 8a 3d 52 ce 0d be 45 ee 1b be
       0.03305428 0.06778051 -0.13848236 -0.15227611
000120 cf 04 9c bd 35 6a 8b 3d ab ad ec bd ea fb 48 3b
       -0.07618105 0.06807367 -0.11556562 0.003066773
000130 d3 7b 28 bd 47 c5 9a 3d e9 fd b4 bd 86 95 15 be
       -0.041133713 0.07557159 -0.08837492 -0.1460782
000140 5d c5 6a 3d cd 03 97 bd 0d 49 a3 3c 3f ad 7d bd
       0.057317127 -0.07373772 0.019932294 -0.0619328
000150 9d d5 ea bd 29 09 fa 3d bd e2 8c 3d b6 28 9b bd
       -0.11466525 0.122087784 0.068791844 -0.07576124
000160 ef b8 6f bd d0 fe 83 3c a4 de c3 bd 71 16 09 3e
       -0.058525976 0.016112715 -0.0956395 0.13387467
000170 a5 a6 eb 3c 6a d0 f7 bd 3e 5b fb bc b0 e8 e0 3d
       0.028765986 -0.12100299 -0.030683156 0.109818816
000180 73 3f 08 3e db 71 d6 3d 3c d0 98 bd f4 3c 11 3d
       0.13305454 0.10470935 -0.074615926 0.03545852
000190 ce 78 32 3d 8d 69 ac bd fe bd 8f bd ac 5f ed bc
       0.04357224 -0.0841857 -0.0701866 -0.028976284
0001a0 95 79 01 be 4d 92 fe bd b1 d6 32 3d b1 3f bf 3c
       -0.12644036 -0.124302484 0.043661777 0.0233458
0001b0 3e e7 1b bd 74 c6 e9 bb 38 9c de bd ee 0d a3 3d
       -0.038062327 -0.007134253 -0.1086964 0.07961641
0001c0 02 b7 1a 3e 4e 5c f7 3d 4a a4 9f bc b9 32 1f 3e
       0.15108874 0.120781526 -0.019487519 0.15546693
0001d0 12 55 11 3e c3 90 a4 bc 0c c5 8e bd f1 9c ab bd
       0.14192608 -0.020088559 -0.069711775 -0.083795436
0001e0 0c c6 6e 3d 16 aa 9b bc ca b0 e4 3d c4 ee 2f bd
       0.05829434 -0.019002002 0.11166532 -0.042952314
0001f0 9e a2 d8 3d dd b4 9f 3c b4 d6 10 be 08 35 ef bd
       0.10577892 0.019495422 -0.14144403 -0.11680037
000200 b2 5b fa 3d 8a dd e9 bd 80 0c d5 3a 3e e0 e6 bd
       0.12224521 -0.11419208 0.0016254336 -0.112732396
000210 50 c0 a4 3d a8 10 a6 bc 78 b9 c6 3c b0 61 01 bc
       0.08044493 -0.020271614 0.02425836 -0.007896826
000220 bf a7 16 be 66 b7 94 3d c6 09 9c bd 2c 69 69 3d
       -0.14712428 0.07261543 -0.07619052 0.056985065
000230 1d 7e ab bd 4a b3 c9 3d aa ba e0 3d 5a 14 d9 bd
       -0.083736636 0.0984865 0.10973103 -0.10599585
000240 08 37 a5 3d b2 91 09 bd 95 c9 9d bd a8 f1 01 be
       0.08067137 -0.03358621 -0.07704464 -0.12689841
000250 75 c5 0b 3e 3e 51 0e be 86 21 1d be 60 3e 9a 3b
       0.13649543 -0.13898179 -0.1534482 0.0047071427
000260 33 45 18 be 70 94 88 3c 00 f1 6a bc 3e f2 bc bd
       -0.14870147 0.016672343 -0.014339685 -0.092258915
000270 8c 94 8c bd 9e 14 86 bd 96 8d a9 3d 66 eb c3 bd
       -0.068642706 -0.06546901 0.082789585 -0.09566383
000280 84 06 0c 3d 69 42 0b be 16 7c b1 3d fb 4d 07 be
       0.0341859 -0.13599552 0.08666246 -0.13213341
000290 25 21 12 3e 45 26 01 3e 40 d8 41 3d 64 cf 25 3d
       0.14270456 0.12612255 0.047325373 0.040480986
0002a0 16 8d 0e be 12 f5 80 bd 96 d0 00 3e 78 e6 c6 3d
       -0.13921008 -0.062967435 0.12579569 0.09711927
0002b0 35 27 f4 3d 46 03 04 3e 30 29 80 3d 0f e2 f0 3d
       0.11921541 0.12891874 0.06257856 0.11761867
0002c0 16 8c b9 bc b2 d7 f5 bd c3 3b fa bb e8 90 c8 bc
       -0.022649806 -0.12004031 -0.0076365187 -0.02448316
0002d0 9b 4f f6 bd d0 8d 1d 3d df fd 99 3d ff f0 ea bd
       -0.12026902 0.03846532 0.07519125 -0.114717476
0002e0 cf f8 16 bd a2 42 81 bd 56 64 e2 bd 61 b7 f9 bd
       -0.036858376 -0.06311537 -0.11054294 -0.1219318
0002f0 b6 81 f0 3d 1b b4 03 3e 73 e1 4d 3d ef 7e 31 be
       0.117434904 0.12861674 0.050263833 -0.17333578
000300 d2 f1 33 be f0 0e 2b bd f8 b2 04 be 0d 1a b7 bd
       -0.17572716 -0.041762292 -0.12958896 -0.08940516
000310 1b 6b b0 3d 71 99 8d 3d 38 80 73 3d 3f 98 01 3b
       0.08614179 0.06914032 0.05944845 0.0019774584
000320 ef 62 b4 3c 58 5f fc 3d 72 b0 1a bd b4 70 ec 3d
       0.022019831 0.12322873 -0.037765928 0.11544934
000330 e1 03 24 bd ab c6 61 3d 5f 8a 91 3d e9 41 6d bd
       -0.04004276 0.055121105 0.0710647 -0.057924185
000340 cf 6a 93 3d 7d a4 cf bc d6 19 ce bd a4 ae 25 3d
       0.071981065 -0.025346989 -0.100635216 0.040449753
000350 5c 03 be bd 89 ec 11 be c6 4b 19 be 04 14 db bd
       -0.092779845 -0.14250387 -0.14970312 -0.10697177
000360 18 5b e7 bd 58 c6 d4 bc 4c 77 60 3d b0 a7 a2 bd
       -0.11296672 -0.025973484 0.05480127 -0.0794214
000370 14 83 90 3d 00 02 c3 3a 06 d1 d3 3d 71 b2 03 3e
       0.07056251 0.0014877915 0.103426024 0.12861039
000380 1a e1 ef bd 1c 3e 76 3d 94 ec 80 3d 2b d4 a9 bd
       -0.117128566 0.060117826 0.06295124 -0.08292421
000390 ca 67 ef 3d b4 7a 0e 3d 54 d5 31 3d 68 30 02 bd
       0.11689718 0.034784988 0.043416336 -0.031784445
0003a0 d5 84 ea bd 34 28 ae 3d b0 9a 39 bd 3e 28 f3 bd
       -0.11451117 0.08503762 -0.045313537 -0.1187291
0003b0 06 68 40 bd 48 6d e3 bd b0 09 72 3d 18 e2 5a 3d
       -0.046974204 -0.11104828 0.05909127 0.053438276
0003c0 80 f1 09 bb 00 bf de 3c 48 4a 2e bd ce b8 fc bd
       -0.0021048486 0.027190685 -0.04255131 -0.12339936
0003d0 80 21 9e bb ea 63 5d bd 80 1f 55 3c 70 84 02 be
       -0.004825771 -0.054050364 0.0130079985 -0.12745833
0003e0 cd 40 1c be c5 b3 19 3e ff 7b 8b bd 78 cb a9 3d
       -0.15259095 0.15009983 -0.0681076 0.08290762
0003f0 b9 ee 13 3e e0 73 19 3d 10 25 db bc 50 26 c4 bc
       0.14446534 0.037464023 -0.026751071 -0.02394405
