RNN_models/close_slope_45_2_raw_15min_t4.pth (torch, 449576 bytes, 30 tensors)

stacks.0.blocks.0.fc1.weight f4 [100, 30]
00000000: 350f 633d dd90 3c3e cd8b 343d 0ee7 093d
00000010: 73b5 38be 7e8d bb3d 1e95 173e e4cc 8dbb
00000020: 9093 88b9 29b0 94bc e4c1 4dbe 37d8 e43d
00000030: 40ba 42be d1f5 c3bd 10d4 423e 4fc7 a5bd
00000040: 13b7 073d db67 1d3e 7963 a0bd 1ac4 093e
00000050: 2f86 553e f4e9 ccbc 4474 ce3c 939f b2bd
00000060: 0595 0abe 7313 88bd 8504 d23c 9ce8 04bd
00000070: 95ed ad3e d045 403e 852c 15be 1644 3a3e
00000080: c940 593d b2d3 af3d 08be 0c3e 478a 0abe
00000090: 9f39 e1bd 64b1 123e ad35 e6bd 96ee 343c
000000a0: 2c08 503e 0e89 0bbe c7e6 f5bd c3a5 e1bc
000000b0: 45cc 633d 7dfe 263d 64e6 a23d 9d94 a3ba
000000c0: fa3a a9bd acbb 53bd c6d9 05be bd83 243e
000000d0: a089 c0bc e559 cabd 5f4c 283e 5b14 aebd
000000e0: 72b7 dbbc e15b 1e3e a924 8d3e 431e 2c3e
000000f0: aa0d 7cbe 67eb 31be cd5f 5abc d4f8 a4bd
00000100: ac30 cd3d d3dc 33be b4f6 89be a4bf 65be
00000110: 5ed4 233e ffdd d13c 4a22 2abc 704d 313e
00000120: 4717 26be 2c3a eb3b 3f02 bf3d 20f9 06be
00000130: daad 17bd cfc1 353d c89f 89bd d52b 0fbd
00000140: 357e 7a3b 8660 53be 5c55 143e 5f10 43bd
00000150: 1ad8 e5bd 04e4 063e 28e0 3abe 5ae5 f7bd
00000160: 2f40 893e 5b74 373e aaad 133d b1ae 1c3e
00000170: 7f03 5b3e f2d0 68be 511f a43a 83cf 473e
00000180: d3dc 933d c2f1 17be fb75 363e a8fc 2cbe
00000190: 6fbe 8c3d 83ac 1b3e 0ef7 e53d 6b12 d13d
000001a0: 910d 3f39 f93f aebd fb49 3dbe 5608 3f3e
000001b0: 1d08 303d 75e7 93bd 8bb3 a1bd a54f b2bc
000001c0: 7e0d ab3d 75a9 0bbe 8931 bbbd f4b6 36be
000001d0: bd8e b73d dce9 42be 9be0 b93d c525 05bc
000001e0: 06a4 903c def4 afbd 571a 173e fd6b f13b
000001f0: 5f08 3cbe 626f cc3d 9f44 c2bd e73f babd
00000200: 2445 063e 6f8f 923d d6e2 333e 058b 7abb
00000210: 980a 2bbd ec5a dcbd f47f b7bd 1b73 98bd
00000220: fc48 6b3e 8641 3cbd e051 133e c6ef 143d
00000230: 7c66 96bd 095f 433d 3cf6 66bd af50 9d3d
00000240: 92e6 0d3e 046f cbbc d198 353d 6dd0 fbbd
00000250: 1bd0 6fbe 2e35 8fbe 4a11 64be 2d2e 733d
00000260: 922b 943d 0755 e9bd 81f1 53be 200d 9cbd
00000270: 2f36 013e ce23 163e 37ce 3b3d fe82 5bbd
00000280: 7741 233e a1d2 13be a72d d1bd 29b6 e63d
00000290: 381f fbbc 2526 dc3c e32a 8f3d bed9 323d
000002a0: f444 483d 496d 093e 9b3b 523e 12ed b13c
000002b0: f31d b3bd 32e4 013d 5142 003e 9ee5 133d
000002c0: 2df1 2bbe 2807 47be 8714 f2bd 8772 f0bd
000002d0: ccd9 353e ecfa 1ebc 20ec 23be ee79 6b3c
000002e0: afe8 ed3b 47e0 a5bd ba88 f83c 0039 ccbd
000002f0: f39c 0a3e 9ffc 733e d9d6 0e3e b85a 0abe
00000300: 0a8e ff3d b0ae 203e bcaf 1abe bb9d 9f3d
00000310: 7796 7dbd af40 60be f496 3b3c c279 46be
00000320: 6e95 3d3c b993 a23d 7d42 07be 77bf 353d
00000330: 6d17 2b3d 6492 153e 050f 09be a8d5 bf3d
00000340: 46ac eebd b96e ff3c 2bc1 efbd 813c 37bd
00000350: a099 b3bd a334 cc3d 80eb b0bd c2e4 99bd
00000360: c73c 263e 2e18 fcbd 38ef fd3c 312b a9bd
00000370: c118 923b fe66 b93d f455 99bd 2215 27be
00000380: d36e 3dbe afaa c63d 0c31 e33d c4e9 b53d
00000390: 27fe d13d 106f 7bbd 200b 06be 65d9 263d
000003a0: 18ef 34bd 470c e33d c603 743e e1a0 123d
000003b0: 2046 9c3e c0f9 41be 551a 9a3b 91e8 8dbe
000003c0: 34c7 16be 9609 1d3d ef48 74bd 4ffc e93c
000003d0: 3fdd ab3d 3997 25be 0e52 8cbc 6316 063e
000003e0: 72d6 a63b 4b1d 9ebd da22 fdbd 2caf 15be
000003f0: 6bb8 29be f981 293e 1b6f a73d a3a2 fd3d
0.055434424 0.18414636 0.044078637 0.033667617 -0.18037967 0.09157847 0.14802977 -0.0043274034
-0.00026049884 -0.018150406 -0.20093495 0.11174052 -0.19016361 -0.0956837 0.19026208 -0.08094656
0.033133578 0.15371649 -0.07831473 0.13453713 0.20851968 -0.025013901 0.025201924 -0.087218426
-0.13533409 -0.06644335 0.02563692 -0.032448396 0.33970323 0.18776631 -0.14567764 0.18190035
0.0530403 0.085852996 0.13744366 -0.13529311 -0.109973185 0.14325482 -0.112407066 0.011043211
0.20315617 -0.13626501 -0.12006908 -0.027544862 0.05561473 0.040770043 0.079541 -0.0012480203
-0.08263202 -0.05169265 -0.13071355 0.16065879 -0.023503125 -0.09880427 0.16435383 -0.08499976
-0.026820872 0.15464737 0.27567032 0.16808419 -0.24614587 -0.17374955 -0.013328505 -0.08055273
0.10019049 -0.17564707 -0.26946032 -0.22436386 0.1599898 0.025618551 -0.010384152 0.17314696
-0.16219817 0.0071785655 0.093266 -0.13180971 -0.037031032 0.044374283 -0.06719929 -0.03495391
0.0038222198 -0.2064229 0.14485687 -0.047623035 -0.11222859 0.13172919 -0.18249571 -0.12104292
0.2680678 0.1791548 0.03605429 0.15301014 0.21388052 -0.22735956 0.001252154 0.19512753
0.07219853 -0.14838317 0.17818443 -0.16893256 0.0687226 0.15202527 0.112287626 0.10208591
0.00018220233 -0.085082956 -0.18485253 0.18655524 0.042976487 -0.07221881 -0.07895573 -0.021766493
0.08352183 -0.13638861 -0.091403075 -0.17843229 0.08962772 -0.19034523 0.09076043 -0.008126681
0.017656337 -0.085916266 0.14756142 0.0073676095 -0.18362568 0.09982182 -0.09485745 -0.0909422
0.13112313 0.07156264 0.17567 -0.0038229835 -0.04175815 -0.107595295 -0.08959952 -0.074438296
0.2297706 -0.045960926 0.14386702 0.03636148 -0.07343766 0.047698054 -0.05638717 0.07681405
0.13857487 -0.02483321 0.04433519 -0.122956134 -0.2341923 -0.2797026 -0.2227222 0.05937021
0.07234873 -0.11393171 -0.20697595 -0.07619691 0.12618326 0.14662096 0.04585096 -0.05359172
0.15942942 -0.14435817 -0.102137856 0.11265213 -0.030654535 0.026873657 0.06990602 0.043664686
0.048893884 0.13420595 0.2053055 0.02171949 -0.08745947 0.031711765 0.12525298 0.036107652
-0.1679122 -0.19436324 -0.118203215 -0.11740594 0.17758864 -0.009703379 -0.16008043 0.014372332
0.007260404 -0.08099418 0.030338634 -0.099718094 0.13536434 0.23826836 0.13949145 -0.13511169
0.12478264 0.15691638 -0.151061 0.077937566 -0.061911073 -0.21899675 0.011449564 -0.19382384
0.011571271 0.07938332 -0.13208957 0.04437205 0.041770387 0.14606625 -0.13384636 0.093669236
-0.11653952 0.031180726 -0.11706766 -0.044735435 -0.08769536 0.09970977 -0.08638668 -0.07514335
0.16234122 -0.123092994 0.030997857 -0.08260191 0.0044585173 0.09052847 -0.074870974 -0.16316655
-0.18499307 0.09700524 0.11093339 0.08882478 0.10253554 -0.061385214 -0.13090181 0.040734667
-0.04417333 0.11086326 0.23829564 0.035797957 0.3052225 -0.18942928 0.004702846 -0.27716497
-0.14724427 0.03833922 -0.059639867 0.028562693 0.08391809 -0.16170968 -0.01712897 0.13094477
0.005091482 -0.07720431 -0.12360163 -0.14617604 -0.16574256 0.16553487 0.081754886 0.12384536

stacks.0.blocks.0.fc1.bias f4 [100]
00000000: 8949 7ebd f319 d2bc 4436 2bbe 5660 83be
00000010: ae96 f93d 1e55 43be bf66 53be e1dc ad3d
00000020: 1eb8 75bd af1c 80bc 0fbc 3fbe a776 233d
00000030: fe10 a6bc d533 dc3c f513 bebd 3df1 e43d
00000040: 35a8 21be 0cf7 a4bd aad0 95bd c3b4 8e3d
00000050: 2346 8e3c 4cda 82be cbd8 fd3c 89f8 b43d
00000060: 5595 3f3d 5902 463c d4ac a2bd a283 e0bd
00000070: 50a0 e6bd d44c 17bd 93a4 3a3d 35b1 fbbd
00000080: b0cc 05be 7a3e 22be 155c 74be 4059 8abe
00000090: eb90 0b3e 9340 a7bc 5b9f 9a3d c138 90be
000000a0: 8910 e8bd a795 68bd 92bf de3c f018 42be
000000b0: 292e 98bd 8708 ec3d 20ca 1b3c f3a7 0b3d
000000c0: 7cb5 84be b51c 8ebc 9d58 47be a6ea a1bd
000000d0: c9d8 8ebe 8b38 b33d 2030 28be 7b46 6bbd
000000e0: 3b10 c83d e8f1 673c 072a 87be e825 943d
000000f0: 1be5 31be 58f3 79bd bbd9 6ebd 370a fdbd
00000100: f773 5c3d 5233 21bd a1a7 073d bf4f ae3d
00000110: 5b71 2dbd 39a1 dbbd b61f 61be ee24 84be
00000120: 104a 2ebd 42f1 99bd 4fea a63d 078f f63c
00000130: 1e51 e7bc 901b 49be 2143 ed3d bbb5 81be
00000140: 379f d63d 1c04 5e3d 32a8 8abe aec2 03be
00000150: a57f 68bd 1f9e cbbd 8b6b a9bd b71f 30bc
00000160: 9ab7 61be 7839 d3bd 57e3 71be fbab 24be
00000170: 64ac 82be fd44 edbc a0c7 ae3d d59e a3bd
00000180: 446f f33c ee14 f3bd e6d6 6d3d 5e6b ecbd
-0.062081847 -0.02564714 -0.1671992 -0.25659436 0.12186943 -0.19075438 -0.20644663 0.08489395
-0.05999004 -0.015638677 -0.18724082 0.039908078 -0.020271774 0.026880184 -0.0928115 0.11178825
-0.15786822 -0.08054933 -0.0731519 0.06968071 0.017367428 -0.25557172 0.030987164 0.08836467
0.046773273 0.012085521 -0.079431206 -0.10962607 -0.11261046 -0.036938503 0.045567106 -0.12289659
-0.13066363 -0.15844145 -0.23863252 -0.27021217 0.136295 -0.020416534 0.07549926 -0.281683
-0.11331279 -0.056783345 0.027190957 -0.18954825 -0.07430679 0.11525064 0.00950864 0.034095716
-0.25919712 -0.017347673 -0.19467397 -0.07906084 -0.2789977 0.08751019 -0.16424608 -0.057440262
0.09768721 0.014156796 -0.26399252 0.072337925 -0.17372553 -0.061023086 -0.058313113 -0.12355464
0.05382153 -0.039355583 0.033118848 0.08511304 -0.042344432 -0.1072411 -0.21984753 -0.25809425
-0.0425511 -0.075167194 0.081501596 0.030097498 -0.028236922 -0.1963942 0.115850694 -0.25333962
0.104795866 0.054203138 -0.27081448 -0.12867233 -0.056762356 -0.099422686 -0.08272465 -0.010749749
-0.22042695 -0.10313696 -0.2362188 -0.1608123 -0.2552215 -0.02896356 0.08534169 -0.07989279
0.029716142 -0.118692264 0.05806627 -0.11543916

stacks.0.blocks.0.fc2.weight f4 [100, 100]
00000000: 0c11 833d 1757 c7bc 2678 8abd 327a 43bd
00000010: 328c ef3a d9b8 fd3c 1ced 8b3d f9eb 75bd
00000020: 0a0a a1bd 1e41 f4bd 1176 093d aca3 37bd
00000030: c528 7cbd c655 9fbd ec39 893d 1475 e73c
00000040: 0d28 3c3d 6b10 56bd 7857 2c3d 9949 e4bd
00000050: cd0c 90bd aa62 97bd 5bf1 c2bd d315 2ebe
00000060: bdb8 683d e450 b0bc a9f0 d1bc 0bac 883d
00000070: 8423 573d 2d46 ddbc 4466 11be 1f5b 21bb
00000080: 8b1a ddbd c1af abbc d6f9 ac3d f5d5 7c3d
00000090: f58e cabd 79f7 b0bd bae3 6cbc 5de2 b0bd
000000a0: 024f 263c 75b0 04be f7ba 063d 2d36 c93c
000000b0: 9019 8d3d 7e18 a83d cd95 8bbd 1b6d 333d
000000c0: 5592 54bd 0c16 febd 2a25 58bc 0565 4bbd
000000d0: e362 7abd d896 0e3d 87be 37bd 6506 a83d
000000e0: b06f 85bd 3af0 21be 41b2 963d e066 94bd
000000f0: 3585 b5bc 81c7 09bd 434a e33c 9a1f 303d
00000100: edf1 07be 8122 1ebd 12b7 1ebd 6945 82bd
00000110: 0fce cfbd 61b7 b5bd c938 0c3d 4824 52bd
00000120: 1e58 863b ebfb 59bd 3255 89bb 8eed f93a
00000130: 7918 83bd 5f8d ad3d f8c8 6b3b 8a74 033d
00000140: 22d1 ac3a a224 3ebb 6c52 8a3d 47dd a9bd
00000150: 1e30 0d3d 67bb a9bb 76a1 9abc a57e 1e3d
00000160: f107 afbc 9ecc 93bd 1032 703c bbb0 dd3c
00000170: 2c31 7a3d 9731 153d 95af 2d3d 78f4 693d
00000180: 627b e1bd 9468 a83d 11ec dfbd 8476 a4bd
00000190: da8a 413d 92ee 3d3d 5479 3e3e b467 8cbd
000001a0: dd99 ad3b aece 5c3c 3370 d4bc e7fd 39bd
000001b0: 8528 0f3e 7c24 a7bd 3dd6 67bd c86c c0bc
000001c0: 080a 593d 896c 163d 7ab6 b2bd 875c 5e3b
000001d0: f962 34bd 43c6 c4bd da05 83bd 803d 323d
000001e0: b1a3 ea3d 1fbf edbd 06d1 ca3d 9d7b eebc
000001f0: ca54 8abd a0b8 fcbb e559 973d 9653 08bc
00000200: 1678 d6bd e7f2 b4bd d7c0 55bd 5b4a 6ebd
00000210: 29e5 853d e27e b9bd 065a e3bc 33af d8bd
00000220: 7a6e b63d 84e2 8bbd 9306 033e 22da 0d3e
00000230: 7e0b 45bd 4952 0a3d 40a4 ac3d 4dbb d53c
00000240: dc87 9bbd cd54 993b fbf3 c33c ddc3 0bbd
00000250: cf35 6abd 2ab9 febc 7941 103e 9168 903c
00000260: 4037 1c3d 02c2 24bd a8d7 ee3d 1b64 6b3c
00000270: 1c36 f13d edc0 56bd 94d1 a33d 76dd 8fbd
00000280: 6774 94bb 6f20 42be 2477 c63d dc07 f3bd
00000290: 0f7c ad3c 10c2 c13d 992c 633d 8c3b 5c3d
000002a0: 4de7 8abd e946 31bd b250 06be 9eaa 8e3d
000002b0: 81d2 91bd 7921 853d 0b86 d3bc 23c5 18be
000002c0: 9c3a 873c 7a0d a53d dd24 fb3d 0ecd c23c
000002d0: 69e0 343e dc9e d7bd 9340 2e3d f311 a3bd
000002e0: e885 843c 8820 9e3d 9e7b 2f3e c3bb 173d
000002f0: eae3 0fbe 7604 763d d626 6fbd eca9 fd3c
00000300: c4a5 e6bc 1027 9cbd 4864 c33d 2a84 f23d
00000310: 533b 41bd d40e f53d d321 663d c24b 6ebd
00000320: 627c 5ebd 25dd c53d f4d8 bebd 7d84 41bd
00000330: 980d acbc 2629 b33d 38d2 a13d 7ed4 b3bd
00000340: 8924 ae3d eee2 4abd 04af bebb d88c 0cbe
00000350: 8485 9a3d 7f40 dc3d e056 f2bd bcc7 d13d
00000360: eedb 553d b652 ddbb 8090 773d 7d4b 95be
00000370: 992a 353d cf6d 183e afc7 e13d dd7d 8bbd
00000380: c4fc b63d 669e 6dbe 83f3 cabd 6bf7 f73c
00000390: 7c17 2f3d 7344 0d3e a322 e2bd c769 e53d
000003a0: b1e6 6dbe 234b 54bd 86ef 85bd 7fd2 07be
000003b0: cc78 14be 2008 60be b635 fcbd 1432 7fbe
000003c0: 226b c53d b9c6 9c3d 8cb2 8ebd 790a 01be
000003d0: ca6b 103d 2a26 09bd 1105 babc 7016 b73d
000003e0: 4212 dabd 048b a9bd ebad 07bd 32c0 f33b
000003f0: d1cf 60bd 0711 b4bd f38c 7b3d 6d29 973c
0.06399736 -0.02433352 -0.06761198 -0.047723956 0.0018276034 0.030971931 0.068323344 -0.060039494
-0.07863243 -0.119264826 0.033559863 -0.044833824 -0.06156232 -0.07780032 0.06700501 0.02825407
0.045936633 -0.05226175 0.042075604 -0.1114685 -0.070336916 -0.073918656 -0.09518691 -0.17000513
0.056816805 -0.021522947 -0.025627451 0.066734396 0.052524105 -0.027011001 -0.14199167 -0.0024620963
-0.10796078 -0.02095783 0.0844609 0.061727483 -0.09890548 -0.08640952 -0.014458591 -0.08636925
0.010150673 -0.12957938 0.032893147 0.024561966 0.06889641 0.082077965 -0.068156816 0.043805223
-0.051897366 -0.12406549 -0.013192454 -0.049656887 -0.061129462 0.034811825 -0.044859435 0.08204345
-0.06515443 -0.15814295 0.07358218 -0.07246184 -0.022158245 -0.033637527 0.027745372 0.042998888
-0.13275881 -0.038607124 -0.03874881 -0.06360895 -0.101467244 -0.088728674 0.034233842 -0.05130413
0.00409986 -0.053218763 -0.0041910643 0.0019067989 -0.06401152 0.0847423 0.003597794 0.032093562
0.0013184885 -0.0029013534 0.06754002 -0.082941584 0.034469716 -0.005179811 -0.018875819 0.038694996
-0.021366091 -0.07216762 0.014660373 0.02706181 0.06108205 0.036424246 0.042403776 0.05711791
-0.110098615 0.08223072 -0.10933698 -0.080304176 0.04725156 0.046370097 0.1860097 -0.06855717
0.005297883 0.013477011 -0.025932407 -0.045408156 0.139803 -0.08161256 -0.056600798 -0.023489371
0.052988082 0.0367246 -0.08726211 0.0033929662 -0.0440397 -0.09608128 -0.063976005 0.043515682
0.11457003 -0.11608719 0.09903149 -0.029111678 -0.067544535 -0.0077124387 0.07390193 -0.00832071
-0.10472123 -0.088353924 -0.05218586 -0.05817638 0.065378495 -0.09057404 -0.027752887 -0.105802916
0.089077905 -0.06830314 0.12795477 0.13852742 -0.048106663 0.03376988 0.08429766 0.026090289
-0.075942725 0.0046792985 0.02392005 -0.034122337 -0.057180222 -0.031094152 0.14087476 0.017627986
0.038138628 -0.040224083 0.11662227 0.014367129 0.11777899 -0.052430082 0.07998958 -0.07024662
-0.004530478 -0.18957685 0.09690693 -0.118667334 0.02117732 0.094608426 0.055462454 0.053767726
-0.067823984 -0.043280516 -0.1311672 0.069661364 -0.071202286 0.06500525 -0.025820753 -0.14918952
0.01650744 0.08059211 0.122628905 0.023779418 0.1766373 -0.10528347 0.04254205 -0.07962408
0.016177133 0.077210486 0.17137 0.037044298 -0.14051786 0.060062848 -0.058386646 0.030964814
-0.028155215 -0.07624638 0.095406115 0.118416145 -0.047175717 0.11965719 0.0561846 -0.058177717
-0.05431784 0.096613206 -0.09318724 -0.04724549 -0.021002576 0.08748083 0.07901424 -0.08780764
0.08503062 -0.049532823 -0.0058192033 -0.13725603 0.07544997 0.10754489 -0.11832976 0.102431744
0.052211694 -0.0067542447 0.06044054 -0.29159155 0.044230077 0.14885639 0.11024415 -0.06811116
0.0893493 -0.23204955 -0.099097274 0.030269345 0.042747006 0.13795643 -0.11041763 0.11201816
-0.23232533 -0.05182947 -0.06539826 -0.13263892 -0.14499205 -0.218781 -0.12314932 -0.24921447
0.096395746 0.07655091 -0.06967649 -0.12601651 0.035259046 -0.03348366 -0.022707494 0.089398265
-0.10648014 -0.08278468 -0.033124845 0.007438683 -0.05488569 -0.0879231 0.061413717 0.01845237

stacks.0.blocks.0.fc2.bias f4 [100]
00000000: d22a 15be d1c2 5a3d 064a 96bd 0162 92bd
00000010: f25f b13d fb0b 7bbd a652 853c 7dc0 c83c
00000020: 3dfb 03be 7966 48bd d49c e63c 7fac 073d
00000030: 04e2 ff3c 4e2e 523c 8a35 8a3d d2cd 83bd
00000040: 3001 90bc d847 7fbd ce8d 983d 7762 78bd
00000050: cae5 793c 688b 393b aed4 92bd 5269 8dbd
00000060: f8c2 51bd 2fd8 9dbd 904b f4bd 6c84 4e3d
00000070: 9306 e8bc b4f2 443d 13ff 5fbc 5636 ccbd
00000080: d219 bcbd 8616 7cbd f2bb b03d 35f0 d03d
00000090: 4ac1 913d 1425 81bd fcd1 903d b767 bf3d
000000a0: 420c 64bd 9a9a e6bd d6ea 963d 90de 9fbc
000000b0: cb12 d4bd 0271 9fbc 417e 91bc 3037 99bd
000000c0: 8079 d33c 394f b0bd 5459 c5bd 808b a7bd
000000d0: bcf1 6dbd 5dbd 723c 94c3 dcbd 4f8f 99bc
000000e0: a8fd a63d db7c 1e3c b1dd bf3c 9ee6 163d
000000f0: ae7d b7bd 8f62 553d 417a 443d 6cdf 2d3d
00000100: 7f1c b8bd 8a52 8abd fe57 10bb 527f 3f3b
00000110: 850a 81bd 5a48 f3bd 9952 ba3d 64cd 1a3d
00000120: 1a53 6bbd f3a4 d3bd f121 e13d dabe f73c
00000130: c830 803d 09c0 63bd 7f27 afbd a745 623d
00000140: ac2e 443d 7e0f e2bc 46a5 e9bb 9573 f2bd
00000150: 0391 423c 49c5 b0bd e803 f4bd 535d e2bd
00000160: f6ba edbc f3f8 debd 5f7c 4bbd e958 ab3c
00000170: bab5 c3bd 34af d1bd 9f22 dcbd 9264 953b
00000180: 7c1e eb3c e307 01be 757e ecbd 25f2 5fbd
-0.14567116 0.053408448 -0.073383376 -0.07147599 0.08660878 -0.061290722 0.016274761 0.024505848
-0.12888809 -0.04892585 0.028150953 0.03312349 0.031235702 0.012828423 0.06748493 -0.064357415
-0.017578691 -0.062324375 0.07448922 -0.06064078 0.01525254 0.0028311852 -0.07169472 -0.06904854
-0.051211327 -0.077072494 -0.11928475 0.050419256 -0.028323447 0.048083022 -0.013671654 -0.09971301
-0.09184612 -0.061544918 0.08629598 0.10202066 0.07116945 -0.063059 0.07071301 0.09345954
-0.055675752 -0.11259957 0.0736901 -0.019515306 -0.10355147 -0.019463066 -0.017760398 -0.07481229
0.025814772 -0.086088605 -0.096361786 -0.081809044 -0.058091864 0.014815656 -0.10779491 -0.018745093
0.0815385 0.009673323 0.02342114 0.036841027 -0.089595184 0.052095946 0.047968153 0.0424494
-0.0898981 -0.06754024 -0.0022025104 0.0029220176 -0.063008346 -0.11879034 0.090977855 0.037793532
-0.0574523 -0.10334196 0.10992802 0.030242372 0.06259304 -0.05560306 -0.08552455 0.055242207
0.047896072 -0.027595278 -0.007130298 -0.11838452 0.011875394 -0.08631379 -0.119148076 -0.110529564
-0.029019814 -0.10887327 -0.049679156 0.02091642 -0.09556146 -0.102384955 -0.10748791 0.004559108
0.02870106 -0.12600665 -0.11547557 -0.054674286

stacks.0.blocks.0.fc3.weight f4 [100, 100]
00000000: 445f 9dbd 1706 2abd eaae 723d 62c8 cebd
00000010: 3cda 40bd f8d6 ff3c aef8 bebd f978 b3bb
00000020: 77e7 c1bc 7b23 ff3d 98e0 90bc 1ce8 a6bd
00000030: d242 32be 5147 03bd 0715 48be 8670 a5bd
00000040: a8ff 0e3d 0883 433d a856 20be 61a0 1bbd
00000050: f7d8 51be 9dba 1dbd 6038 bebd 4834 27bd
00000060: bda3 92bd 642a 783d b435 90bd 0433 13bd
00000070: 0d69 efbd 2b71 9bbd 82b2 69bd b8b4 9e3d
00000080: d159 78bd 3e26 08be 544a b7bd 8d5b 96bd
00000090: d4a8 d3bd 1901 70bd 2c31 cfbd 6c13 a23c
000000a0: 4f92 babd dfc7 013e a399 5abd e5d2 1f3d
000000b0: 2465 013d 5373 923d 39e2 cf3c 91e7 7dbd
000000c0: ce13 86bd 1922 cd3d 0c2d febd 83d8 b2bd
000000d0: 1f05 b23c 5dfb ec3b 8f52 bfbc 4a98 ad3c
000000e0: ebce 9bbd 2409 10bd c76c a13d 67fd 1fbe
000000f0: a1fd c93d ab37 8b3d e162 88bc d876 b3bd
00000100: 4398 cabd dd0b bb3d 2449 49be a1c9 85bb
00000110: 7b5c 983d bdc2 a1bd b3e6 c4bd 6512 06be
00000120: 4a6c cf3d 44fc 4a3e ab16 89bd 34b0 adbd
00000130: a704 77bd fea2 073e f459 87bd c8ad 3dbe
00000140: 81e7 debd 979b d13d 34f9 e0bc 8a15 a1bd
00000150: 3da6 9f3d 93c4 6c3d 3568 a0bc b024 043d
00000160: b489 6b3c d9c5 063d 43f9 52bc 3299 42bd
00000170: 2510 b43d b20b 113d 1cd6 eebc d68d 253d
00000180: 0d58 fc3c 0d96 d0bd 274d 1cbe bf3c a23d
00000190: 0719 aabd 730e a1bd 2d23 d0bb 1822 5bbd
000001a0: 8348 afbd ed8b 5a3d 0520 1a3d 82b5 bc3c
000001b0: db3d 9d3c 9933 cabd c147 97bd 201a 5a3d
000001c0: 03c2 b2bd 9378 a03d abd5 8a3d 4905 b13d
000001d0: 5216 aebc 414c a63d 5931 393c b755 c7bd
000001e0: 8d99 a5bd 0822 34bd 3b47 1b3c 2c8e 493d
000001f0: 5bc6 debd c6d3 6ebd fe98 bbbc e4ea 39bd
00000200: 9f8f 003e f2c2 603c 40f7 39bd 2c46 febd
00000210: 103c 3abd f9ab bebc 9c77 313d ddb6 16bb
00000220: e014 5d3c cdbf 7dbd 8500 b73c 5222 f6bb
00000230: 2042 cc3b e8eb b53c 4fe1 9bbd 6196 813a
00000240: 4214 47bd 715c 75bd 0991 debd 5127 3a3d
00000250: d585 d2bd 9f63 633b 6b52 9bbc 848e c33d
00000260: f3ee 093c ae56 bcbd 838c 823c 2ae5 323d
00000270: fac7 00bd c4ce a9bd daf2 5ebd 9ec9 e4bd
00000280: 619d a53d 86e8 f53c 3d02 193d a9b3 64bb
00000290: 0047 263a 6eb5 0c3d a5be bfbd 5e49 2a3d
000002a0: 4df4 073d 743c c0bd a5b3 3e3d 42e4 b7bc
000002b0: ddca b1bd 854c b5bd 7135 7abc 2e01 1abd
000002c0: 6000 e5bd 7407 a5bd c5cd 7f3d 54e4 e03b
000002d0: 7612 c9bd 93c1 853d 521e 843d ec56 ddbc
000002e0: 61d2 80bd cbbb cfbd 866c 7c3d cbe3 a13c
000002f0: 0d0d 0cbd bbe1 633d 58ad 05bd 0f28 793d
00000300: eaf5 fc3c e03f 8a3d 1f0a b03d 0be9 903d
00000310: c307 1bbd 1680 413d 4b42 49bd 2da5 adbd
00000320: 5c70 7bbd 6e42 22bc 959d 0cbe 9005 c43d
00000330: 701e cebc f0cf 6abd cff5 30bd 01c3 103e
00000340: 421c aabd 65a7 fabd 702d 7cbd afcd 15bd
00000350: c5dc 693d d7e3 64bd 51c7 d43d 7aac aabd
00000360: 8f3b f3bc 59aa 8fbc 0494 0b3e fb06 90bd
00000370: 3ed1 f43d 238b 653d 5e01 07bd c728 7f3d
00000380: 9725 79bc 780d 9ebc b4d1 663d 82e5 a4bd
00000390: 865d d8bc 52b7 be3d 5573 7a39 962e cfbc
000003a0: 3ce6 9ebe 9222 43bc fd4e de3d 276a 1f3b
000003b0: a8a3 ea3d 4502 4d3d 177f e73c 1a80 5bbd
000003c0: 2e45 56bd b1b6 d7bd 7b9d 1c3e 084a 313d
000003d0: 5c75 323d 6b26 11bd a2c9 62bd e9a6 75bc
000003e0: cb85 123d b41f 3bbd e2c6 db3d 6d03 47bd
000003f0: dd87 bc3d e559 87bd 96c9 47bd 560b 843d
-0.07684186 -0.041509714 0.059248842 -0.10096814 -0.047083125 0.031230435 -0.09324776 -0.0054770675
-0.023669941 0.12457939 -0.01768522 -0.0814974 -0.17408302 -0.032050434 -0.19539271 -0.08078103
0.03491178 0.047732383 -0.15658057 -0.037994746 -0.20492922 -0.038508046 -0.092880964 -0.040821344
-0.07160137 0.0605873 -0.07041493 -0.035937324 -0.11689959 -0.075899445 -0.057055004 0.07749313
-0.06063253 -0.13295838 -0.08949724 -0.07341681 -0.10334936 -0.058594797 -0.10116801 0.019784652
-0.091099374 0.12673901 -0.053369176 0.039019484 0.031590596 0.071509026 0.025376426 -0.061988417
-0.06546746 0.10016269 -0.12410936 -0.087327026 0.021730958 0.0072321133 -0.023354797 0.021190781
-0.07607826 -0.035164967 0.07882076 -0.15624009 0.09862829 0.06797727 -0.016648712 -0.08762902
-0.09892323 0.09133122 -0.19656807 -0.004082874 0.07439514 -0.078984715 -0.09614315 -0.13092954
0.101280764 0.19822794 -0.06693777 -0.08480874 -0.06030717 0.1324577 -0.06608954 -0.18523324
-0.108839996 0.102347545 -0.02746258 -0.078654364 0.07795379 0.057804655 -0.01958094 0.03226155
0.014376093 0.032903526 -0.012876811 -0.04750938 0.08792142 0.035411544 -0.02915483 0.04041847
0.030803705 -0.1018487 -0.15263806 0.07921743 -0.08305555 -0.07864084 -0.0063518495 -0.05349931
-0.085587524 0.0533561 0.037628192 0.023035768 0.019194534 -0.09873123 -0.07386733 0.05324757
-0.08728411 0.07835498 0.06779035 0.08643586 -0.021250878 0.08120013 0.011303269 -0.09733146
-0.08085928 -0.043977767 0.009477432 0.04920785 -0.10877677 -0.05830743 -0.0229001 -0.045390025
0.12554787 0.013718354 -0.04540181 -0.12415728 -0.045467436 -0.023275362 0.04332696 -0.0022997179
0.0134937465 -0.061950494 0.022339115 -0.0075114155 0.0062334687 0.022207215 -0.076113336 0.0009886735
-0.048603304 -0.059902612 -0.10867507 0.04544765 -0.10279433 0.003469683 -0.018960198 0.09548667
0.008418786 -0.0919622 0.015936142 0.04367558 -0.031440713 -0.082913905 -0.05443082 -0.11171268
0.08086658 0.030018102 0.03735565 -0.0034897125 0.0006342977 0.034352712 -0.093625344 0.041573875
0.033191968 -0.093865305 0.04655804 -0.022447709 -0.08681271 -0.088524856 -0.0152715305 -0.03759878
-0.11181712 -0.08058062 0.062452096 0.0068631563 -0.09817974 0.06531062 0.06451096 -0.027018987
-0.062901266 -0.101432405 0.061626934 0.01976194 -0.034192134 0.055635195 -0.032636017 0.06082922
0.03087898 0.067504644 0.085956804 0.070756994 -0.0378492 0.047241293 -0.049135488 -0.084787704
-0.06138645 -0.009903533 -0.13731988 0.095713735 -0.025160998 -0.05732721 -0.04320317 0.14136888
-0.08306171 -0.12238959 -0.06156677 -0.03657311 0.057095308 -0.055881348 0.10389579 -0.083336785
-0.029691486 -0.017537283 0.13630682 -0.070325814 0.11953972 0.056040894 -0.03296029 0.062294748
-0.015206716 -0.019293532 0.056352332 -0.08051588 -0.026411783 0.09312309 0.00023884822 -0.025290769
-0.3103503 -0.011910098 0.108549096 0.0024324746 0.11456996 0.050050993 0.028258843 -0.053588964
-0.05231207 -0.105328925 0.15294449 0.043283492 0.043568954 -0.03543703 -0.055368073 -0.014993408
0.035772126 -0.04568453 0.10731293 -0.04858725 0.09205601 -0.06608943 -0.04877623 0.06447475

stacks.0.blocks.0.fc3.bias f4 [100]
00000000: c5f9 af3b 02a3 f3bc ccdc ed3c 5147 6b3c
00000010: ebbb 1cbd 385b dcbd 07bd c0bd 54c5 cfbd
00000020: 600d d73d aa06 76bd f1a0 293c 36e8 043d
00000030: 3f54 7dbd 3014 6cbd 794a 813c 0199 053d
00000040: d8f7 9a3d f2ba bbb9 340e a2bb 3114 e3bd
00000050: bf48 0b3c 1afa b3bc aabe acbd 7f74 913d
00000060: ccc6 8c3d 7b02 ef3d 4820 eebb 261e 9fbd
00000070: a09e 07be 27f7 963d c55f fd3b a597 b3bd
00000080: b957 6a3d dd55 70bd bfc1 ba3d e0a2 2b3d
00000090: 281c d7bd 4bae adbd 0ff5 5a3d efba 8bbd
000000a0: 1c72 36bd ded9 cb3d 8321 00bd d2eb 88bd
000000b0: b274 7a3d 9d3d 8fbd 1184 853b ba66 6bbd
000000c0: 7aeb 923d 9269 15bc 5d2e 39bd e8a4 9bbd
000000d0: afd6 523d eb1c eabd 2c91 65bd 6a76 e1bd
000000e0: 0a48 c9bd 9a35 523d b155 323d fbed e8bd
000000f0: c311 343d 911f 613d 97d2 0fbe 8a2b 5e3d
00000100: c2e1 2f3d fcd7 e1bb 618c 5abc 3d76 013c
00000110: 3bd4 91bd c459 0f3c 858c 8b3d 70d4 bf3d
00000120: 4b5c d2bc 3308 72bb 9964 eebd 2602 163d
00000130: 91d7 f9bd 96c8 2cbc f140 f8bb e63a aabd
00000140: 6b0c 18be f74e 063c 67d5 c23c 0046 80bd
00000150: af00 723c ebf3 1abc a4f9 04be 3fd1 253d
00000160: 5d84 24bd 500f 22bd d6c4 febd b84c 0cbd
00000170: 007f b73d 89c6 f3bc c5b6 9bbd bd59 adbd
00000180: 5ac2 453d 1c0d 1fbc caa6 323d ca1d 1fbd
0.005370351 -0.029740814 0.029035948 0.014360265 -0.03826515 -0.10759586 -0.09411054 -0.10145059
0.10500598 -0.06006495 0.010353313 0.032448016 -0.06184792 -0.05763644 0.015782582 0.03261662
0.07566804 -0.00035806705 -0.004945541 -0.110878356 0.008501231 -0.021969844 -0.08434804 0.07102298
0.06873855 0.11670395 -0.007267032 -0.07769422 -0.13244104 0.07371359 0.007732364 -0.08769158
0.057212565 -0.058675636 0.091189854 0.041903377 -0.10503417 -0.08480509 0.053456362 -0.06822764
-0.044542417 0.09953664 -0.03128196 -0.06685604 0.061146446 -0.06994174 0.0040745814 -0.057471015
0.0717382 -0.009119408 -0.04521023 -0.07599813 0.05147427 -0.11431297 -0.05604665 -0.11008914
-0.098281935 0.05132065 0.043538753 -0.11373516 0.04396225 0.054961745 -0.14045177 0.05424074
0.04293991 -0.0068922024 -0.013339133 0.007901725 -0.07120558 0.008749429 0.06813911 0.09366691
-0.025678774 -0.0036931157 -0.11640281 0.036623143 -0.12199319 -0.01054587 -0.007576101 -0.08312015
-0.14848487 0.008197538 0.023783399 -0.062633514 0.014770671 -0.009457569 -0.12985855 0.040482756
-0.040165294 -0.039565384 -0.12439887 -0.034252852 0.0895977 -0.029757755 -0.0760322 -0.08464382
0.04828105 -0.009707715 0.043616094 -0.03884677

stacks.0.blocks.0.fc4.weight f4 [100, 100]
00000000: bebe c5bc 920e 32bc 33d6 29bd e558 2cbc
00000010: ddab 2e3c f21c 0bbd 53e4 f83c f0a7 5dbc
00000020: 746d 6abd c3cd 793d 5b32 19be a7ad 26ba
00000030: 4cdb 783c 0247 c23b 561b 8a3d 4b04 c03d
00000040: 85c0 0ebe 1b9c 5439 0e36 a2bc 5600 8abc
00000050: b568 6b3d 27d7 4cbd 5dce ba3d f788 8cbd
00000060: 9d24 3e3c 5e56 7dbd fbc2 8b3d 1029 d93c
00000070: 0f3b a23d 2f55 a4b9 c0cc 9dbd b704 bb3d
00000080: 3894 fcbc 3cbe 633b ecb5 e13c 3702 83bd
00000090: 2f1d 9f3d 95dd d4bd 4b26 a2bd a299 063b
000000a0: 5e11 8d3d 68e7 f5bd 5978 803d c005 153c
000000b0: a5c6 21bc 15f4 bdbd c7e9 e3bd 1bdf 543d
000000c0: 6b83 d7bd 616a 813d 922d f03c 8ae5 6d3a
000000d0: cd0e acbd 60f0 e4bb 9f7e dbbd 48ad 78bd
000000e0: b157 c33d 3ec9 a2bd a663 063b 20f1 803c
000000f0: 2022 91bd 1730 5cbd d3c1 99bd 70d7 803d
00000100: d666 7a3d b29a 12bc 1116 2fbd 8e15 a1bc
00000110: 7b23 de3c 544c 933c d1c1 6abd 2752 1ebd
00000120: 7a50 19bd 6d2e 81bd 35b6 94bd 5f0e 41bd
00000130: 099f acbc 56c2 1abd a14b 1c3d c202 bdbd
00000140: f975 04be b95c 163d b512 0abe ea85 753d
00000150: d76a b43c e6f1 a4bd 81a5 7c3c cfcb 113d
00000160: 243e 96bd 4079 703d 3a78 1fbd b54b bfbd
00000170: b375 f1bd 10a5 213d 1239 773d e410 d43c
00000180: 98a1 ccbb 6eab 05bd bf0c 873b 21d4 dc3c
00000190: 615c 1a3d c2e8 06bd c90e 093d 140e a3bd
000001a0: ad22 bcbc 89a0 31bd 72a4 bc3d 4ce8 e7bc
000001b0: e5c4 533d 313d d03c 3122 9dbd 25b6 f1bc
000001c0: faf9 92bd ae26 80bd 6956 b93c 39a8 24bd
000001d0: 11a4 e3bd 765d 96bd a621 98bd 2987 723d
000001e0: 9ff7 fc3c 1cb5 57bd d1cb d83d d258 abbd
000001f0: 3809 28bd 511b 15be 7213 593b 10e5 c1bc
00000200: 215a d33c b08b efbd 55a2 453c 7b51 4d3c
00000210: 648a 963b ab2e 9bbd 1e83 04bd 789b 20bc
00000220: 4c6f 07bd cae2 09bd 620d 873d 04ba 80bd
00000230: a267 30bd 50a5 613c 49ec 993d 3052 60bd
00000240: 3e20 cdbd 4706 1bbd 26b0 e03c 5604 3b3d
00000250: a9e9 703d 7a14 ab3c 8491 0abd d4f5 9cbd
00000260: 2cfc 65bd 91ae 0abd 9706 4b3d cd94 f9bc
00000270: edca d8bc f23a 1a3d ff18 9cbd b222 94bd
00000280: 7c58 3ebd bef9 2a3d 1178 a2bd 1bab d3bd
00000290: 13ad a9bc f6be b7bd 087c 033d 4402 82bc
000002a0: de0d a13d 4fbe 3e3c afef 393d d24c c5bc
000002b0: d215 a9bc 6d3f 213d f3d1 1dbc 3d37 6ebd
000002c0: e054 a33d 07a4 67bd c8db 803d c6bf 8abd
000002d0: 5e2d 103d afd9 993c 7421 d63c ca23 123d
000002e0: 16b9 743c dde4 be3d 68f4 b7bd 00d4 59bb
000002f0: 1ef3 37bd 6d82 833c c966 b9bd 0d49 cfbc
00000300: 2081 293c ab08 dbbc 52fe 4c3d d79b a93d
00000310: b495 713c 377f 1bbc c901 d0bc 104e f3bb
00000320: 4254 313d a2d0 93bd e70e 23bd 88ee d1bc
00000330: 17bc c3bd 14b6 cc3c 409e 50bd bfc0 8e3d
00000340: 83a5 b4bd 73b6 6abd 8d09 1dbd 8347 7dbd
00000350: a856 773c da98 16bd ed1c a9bd 7e84 8cbd
00000360: 8aeb 87bd 3003 19bd 001a ae3b 20eb b23b
00000370: d462 d53c c27e 353d f669 383d 440e ea3c
00000380: f71d a83d ddb2 40bd 8493 de3c 684a 8ebc
00000390: 76c8 0fbd 73b2 c6bd 0003 513a b59a 9b3d
000003a0: 2329 24bd bd5b a43d 525e bebd f5e4 c8bd
000003b0: 2ac4 5fbd 7d8f 1ebd 723a 4b3d 0da6 91bd
000003c0: 95a8 bb3d a89e 80bc cc63 8ebc a316 943d
000003d0: a0cf a63c 5911 ba3d cf6d b0bd 28cd 2b3c
000003e0: a263 c3bd f0ef 47bd 392b 823d a0b7 3ebd
000003f0: 30a4 123c d8cb 96bc 28a2 a53c 68d2 cbbc
-0.024138805 -0.010867732 -0.041464042 -0.010519241 0.010661093 -0.03396315 0.030382311 -0.013528809
-0.05723329 0.060987245 -0.14960615 -0.00063582737 0.015189003 0.005928875 0.06743495 0.09375819
-0.13940628 0.0002027605 -0.019801166 -0.016845863 0.057472903 -0.050009873 0.09121392 -0.068620615
0.011605409 -0.061849944 0.06824299 0.026508838 0.07921421 -0.00031343984 -0.077050686 0.09131759
-0.030832395 0.003475084 0.027552567 -0.06396907 0.07769238 -0.10393826 -0.0791746 0.002053835
0.06888078 -0.12007028 0.062729545 0.009095609 -0.009874021 -0.092750706 -0.11128574 0.051970582
-0.10523113 0.06319118 0.029318605 0.00090750365 -0.084012605 -0.0069866627 -0.107175104 -0.06071213
0.0953821 -0.0794854 0.0020506172 0.015739977 -0.07086587 -0.0537568 -0.07507672 0.062910914
0.06113323 -0.008948015 -0.042745654 -0.019663598 0.027116528 0.017980732 -0.057313744 -0.038652565
-0.037430264 -0.06307683 -0.07261316 -0.047132846 -0.021071928 -0.03778299 0.038158063 -0.09229042
-0.12935628 0.03670952 -0.13483699 0.059942164 0.022023601 -0.08053951 0.015420319 0.035594758
-0.07336071 0.058709383 -0.038933016 -0.09340612 -0.117900275 0.039464056 0.06035716 0.02588696
-0.0062448494 -0.03263419 0.0041213925 0.02695662 0.037685756 -0.03293682 0.033461366 -0.079616696
-0.022965753 -0.04336599 0.09211053 -0.02830901 0.051701445 0.025419803 -0.07672537 -0.029505799
-0.071765855 -0.062573776 0.022624211 -0.040199492 -0.111152776 -0.07342045 -0.07428293 0.05921093
0.030879794 -0.052662954 0.1058575 -0.083665505 -0.041024417 -0.14561202 0.0033123163 -0.023668796
0.025799813 -0.11696565 0.012062629 0.0125316335 0.004594134 -0.075772606 -0.032351606 -0.009802692
-0.033065125 -0.03366355 0.065943494 -0.0628548 -0.043067582 0.013772324 0.07515771 -0.05476588
-0.10015915 -0.037847783 0.027427744 0.045658432 0.058816586 0.020883787 -0.03383018 -0.076640755
-0.056148693 -0.033857886 0.04956683 -0.030466462 -0.02646395 0.03765387 -0.07621955 -0.0723318
-0.046471104 0.04174208 -0.07933057 -0.1033537 -0.020712411 -0.0897197 0.032100707 -0.015870221
0.07863973 0.011642053 0.045394596 -0.024084482 -0.020640288 0.03936713 -0.009632575 -0.058158148
0.07975173 -0.056552913 0.0629192 -0.06774859 0.035199516 0.018780557 0.026138999 0.035678662
0.014936706 0.09320996 -0.08982164 -0.0033237934 -0.04490959 0.016053403 -0.09052808 -0.025303388
0.010345727 -0.026737532 0.050047226 0.08281677 0.014745165 -0.00949078 -0.025391476 -0.0074250773
0.043293245 -0.07217528 -0.039809134 -0.025626436 -0.0955736 0.024989165 -0.05093217 0.06970357
-0.08820631 -0.057302903 -0.038339186 -0.061835777 0.015096344 -0.036766864 -0.0825747 -0.068612084
-0.066367224 -0.037356555 0.005313158 0.005460158 0.026048101 0.04431034 0.045022927 0.028571256
0.0820884 -0.047045577 0.02716995 -0.017369464 -0.035103284 -0.09702005 0.00079731643 0.075978674
-0.040078294 0.0802531 -0.09295334 -0.09809295 -0.054630436 -0.03871106 0.049616285 -0.0711175
0.09163014 -0.015700653 -0.017381571 0.0723088 0.020362675 0.0908534 -0.08614694 0.010485925
-0.09540488 -0.048812807 0.063559 -0.046561837 0.008950278 -0.018407747 0.020218924 -0.024880603

stacks.0.blocks.0.fc4.bias f4 [100]
00000000: a1a7 3a3c 8a76 8abc 03d6 a1bd 4414 6b3d
00000010: b67e 4a3d e8c8 04be 4927 a63c 2d58 123d
00000020: 2370 87bd d8dd bdbd 921a d3bd 7997 2a3d
00000030: 57e6 1fbd d7c5 a5bd e6bd eabd 1e3b c4bc
00000040: 7b1e c2bd 6743 683b b8a2 89bd 9c4b 383d
00000050: 1220 27bc c2b6 17bd 4901 dbbd 50df 5dbd
00000060: c0d9 1dbe 9b52 4a3d 42af 94bd 5691 fcbd
00000070: 8c51 ecbd 234c bdbd b21f 5a3c 4d1b a0bd
00000080: d5f4 d9bd 2603 2a3c e819 d6bd 9c50 95bd
00000090: d0f0 5a3d 57a5 8abd 59a3 ddbd 70d3 163d
000000a0: bac4 4dbd b733 813d 75cb d3bd 6421 1fbd
000000b0: 32f2 b1bd 21d3 cbbd 8738 b0bd 830d 7cbd
000000c0: 2784 15bd 2e5f febc 60f8 14bd 2ce2 97bd
000000d0: b1f6 fabd c4e8 1b3d cf4b a239 51c8 aa3d
000000e0: f7cb 33bd 9e1d 993c 7ca4 d5bc b91c bfbc
000000f0: 791e 303c a225 85bd 2dfd 0ebd 9e06 bd3c
00000100: 5694 d0bd 1dc4 81bd 6de2 1dbd 75f2 18bc
00000110: c270 2bbd b5ed fd3b e4c4 d7bd de4c 28bd
00000120: 6ae6 7dbd f2c2 c4bd 8655 d1bd a391 45bd
00000130: 0eb7 dfbd 2c0c a53d aba5 653d 611f 56bd
00000140: 706f 8bbc e919 a7bd 4eec 52bd fd09 16bc
00000150: cab8 4dbd c307 de3c 1ce3 2d3d e41c fd3c
00000160: 6faf c63c 2aca b7bd b33b e53c 0c54 d8bd
00000170: 75ab 13bd eb78 12bd f1d6 dcba 7e48 343c
00000180: 4b8f 41bc 1e0c 37bd 7e3f 9cbd 3679 78bd
0.011392505 -0.016902227 -0.079021476 0.057392374 0.049437247 -0.12967265 0.020282404 0.035728622
-0.06613185 -0.09270829 -0.10307802 0.04164836 -0.03903803 -0.080943756 -0.114620015 -0.02395397
-0.0947847 0.0035440566 -0.06720489 0.04499398 -0.010200517 -0.037039526 -0.106936045 -0.054168046
-0.15415096 0.049395185 -0.0725999 -0.12332408 -0.11538991 -0.092430376 0.013313221 -0.07817707
-0.10642401 0.010376727 -0.1045416 -0.07290766 0.053452313 -0.06769817 -0.10822172 0.036822736
-0.05023644 0.06308692 -0.10341541 -0.038850203 -0.08688773 -0.09952379 -0.08604532 -0.061536323
-0.036502983 -0.031051245 -0.03636968 -0.07416186 -0.12254084 0.03806378 0.0003095553 0.083389886
-0.043895688 0.01869088 -0.026079409 -0.023329126 0.010749453 -0.065013185 -0.034909416 0.023074444
-0.10184543 -0.06336234 -0.038546015 -0.00933515 -0.04185558 0.007749284 -0.10535601 -0.04108893
-0.061987318 -0.09607495 -0.102213904 -0.048234593 -0.10923587 0.08058962 0.056066196 -0.05227602
-0.017020911 -0.08159239 -0.05149489 -0.009157655 -0.050225057 0.02710331 0.042452917 0.030897565
0.024253575 -0.089741066 0.027982568 -0.10562906 -0.036052186 -0.035759848 -0.0016848725 0.011003612
-0.011813949 -0.04468929 -0.07629298 -0.06066247

stacks.0.blocks.0.theta_layer.weight f4 [31, 100]
00000000: 7034 edbc 989a ddbb e298 3d3d 2c02 243d
00000010: 82d6 7a3d fde8 d43c 74ce 6d3d 78c6 20bd
00000020: fb9b 17bd c250 dbbd 224a dc3d 549e 8ebd
00000030: aa9d b9bc c236 09bd 0191 2abd 93d0 2c3d
00000040: ead7 79bd ef3f 9bbd f4f6 c1bd 7e63 9c3d
00000050: d748 643d c082 c23b 85cd 7ebd c3c5 cb3d
00000060: 3aa2 dfbc 0695 d13b 3b80 023d 0db1 fe3c
00000070: f07d 853d a3ff d73d 3ce7 a7bd fba9 a43c
00000080: 0819 203d 1519 9ebc dfbd 673c c7f8 613c
00000090: 0616 6c3d bc8c dabd 0dfa 963d 0848 b33d
000000a0: 9af8 70bc a829 8dbd ba85 5a3d 459d 753d
000000b0: 3345 a83d 55cd 4b3d 7f97 b53d 377b b53d
000000c0: b228 c9bd 0f5c 41bd bfbf 71bd 554b 6dbd
000000d0: 8f5e 24bc ec40 44bd 30bf 8e3c caec 613c
000000e0: 1cf4 4ebd 67bd 0d3e e683 f1bc 9565 9b3d
000000f0: 06fa 5ebd 8aed 7bbd 3979 443d 46c7 863d
00000100: 946e 803d 6fa7 92bd 09a9 cd3c 166c ac3d
00000110: ef29 d13d 2989 0fbb 7caf 413d 76f1 283d
00000120: d4aa c7bc 7ba8 01bd c261 81bd f342 333d
00000130: 49ad 12bd 7d98 8c3d 23d4 0cbe d2e9 903d
00000140: fca8 b03d 7e05 fa3c ca64 6b3c ff6a a9bb
00000150: 4743 ab3d f5d8 0dbd 6ede b63c c873 d9bd
00000160: 2b82 a8bc 13a0 f53b b17b 843d f31e 99bd
00000170: 679e 98bc 0a64 5e3d 694a 883d 89f2 52bd
00000180: 91d3 b23c df03 ba3d c5fb d93d 3610 babd
00000190: 0528 90bd c696 813d 9805 323c dd67 3bbd
000001a0: cc82 19bd 39e6 9e3d 97b4 abbd 45f2 c9bd
000001b0: 5f39 4f3b b826 603d 6cb9 a1bd dd67 c53d
000001c0: 5fc0 173d f076 76bd 485e 623d 1d73 d1bc
000001d0: c05a 79bd ab2b 873d 65c5 5bbd b1f5 10bd
000001e0: c5d4 4a3c eb20 60bd d4ee c03c ddb7 c83d
000001f0: 4acc db3c 57d9 ea3c b20f 18bd 5e68 213d
00000200: 9d95 433d 8dd8 0b3d 8a7b 583d 9a71 c03d
00000210: 5275 033d 921a 8fbc 5fd2 ddbc d020 d33c
00000220: 9997 b8bd faec 99bd f76c 03bd 082d c3bc
00000230: d7ae 7bbc fb83 c03b 97af c4bd 15aa 433d
00000240: 43a4 a33d ad3a 4bbd 45c6 42bc 30a5 18bc
00000250: d65b bdbd 5b2f 933c 4ac7 073e 83b4 b5bd
00000260: 0c8c 87bd 4190 40bd 3622 5bbd da2e f7bd
00000270: 76a0 1d3c 4f40 503d 08eb 48bd 0c13 003d
00000280: d3fc 3fbd ce6a a43d 5667 313c a782 8fbd
00000290: 86ce 4fbd 74b4 98bd 84e4 893d 0125 623d
000002a0: c177 d2bd c0ee f63c 13b9 72bd bb33 a8bd
000002b0: f6b9 88bd 9422 ad3d b732 adbd 023a 1cbd
000002c0: 386e baba 1c0e 173c d84b a8bd 0364 abbc
000002d0: 94d4 3abd e173 773b 36eb a43d 2acb 04be
000002e0: e3c1 7f3d 8129 413d e794 37bd 617c 83bd
000002f0: 265c 053c fa0e 19bc 2ce0 0bbe 8dfd d8bc
00000300: fd43 65bd d4e3 c9bc 9d46 a13a a3b4 22bd
00000310: 5c0d b9bd 98c6 4fbd 4f2f 85bd 85bd a93d
00000320: 1d1b ae3d f2b6 d8ba 300d 8f3b afeb d43c
00000330: f57c bc3d 4ead 9abd 9817 533b 719c b93c
00000340: 6d52 47bd cd97 443b 08c5 0d3e af27 c2bd
00000350: 67bf c73d ab66 1e3d a27c ffbc df0d efba
00000360: ff87 c4bd 8438 efbb cb3c 1dbd 8df6 94bc
00000370: 3f28 d2bd 8fc7 6b3d b420 db3d 20da bcbb
00000380: 2b95 94bd 4094 e2bd 409b 44bc b028 8abb
00000390: 89b1 483c 0315 06be c078 2ebd 8051 ab3d
000003a0: 361f 9a3d 4a0d 223d 9dc3 47bb 80c6 1abe
000003b0: 530f 5b3c 36b1 ce3c 437a b7bc 6180 44bd
000003c0: 5c3e e1bd 1913 e2bd 608a c83d 9cfc 47bd
000003d0: 0c65 863b bd2e 9ebc 29d5 b0bd afa4 be3d
000003e0: b799 7e3d 9158 69bd d8a9 4f3d 0581 6abd
000003f0: 0dc8 55bd 94ad d1bd 44f4 ca3d 06d3 fcbd
-0.028955668 -0.006762814 0.04628838 0.040041134 0.061239727 0.025990004 0.058058217 -0.039251775
-0.03701399 -0.10708763 0.10756327 -0.069637924 -0.022658188 -0.033499487 -0.041642193 0.0421911
-0.060996927 -0.07580554 -0.09470931 0.07636164 0.055733528 0.005935997 -0.062207717 0.099498294
-0.027299035 0.006395939 0.03186057 0.031090284 0.06518161 0.10546806 -0.08198401 0.020100584
0.03908637 -0.01929907 0.01414439 0.013792223 0.05763819 -0.10671374 0.07371912 0.08753973
-0.014707709 -0.06892711 0.053350188 0.059964437 0.08216324 0.049756367 0.08866786 0.08861392
-0.09822215 -0.047206935 -0.059020754 -0.05793317 -0.01003231 -0.047913477 0.01742515 0.013789365
-0.05052577 0.13841783 -0.02948184 0.075877346 -0.05443766 -0.06150583 0.04796717 0.06580977
0.06271091 -0.07160842 0.025105016 0.08419053 0.10213076 -0.0021901822 0.047286496 0.0412459
-0.02437345 -0.031654816 -0.06317474 0.04376502 -0.03580979 0.06865022 -0.13752799 0.07075848
0.08625981 0.030520197 0.014367292 -0.0051702256 0.083624415 -0.034630734 0.02232286 -0.10617787
-0.020569881 0.007495889 0.06468905 -0.07476606 -0.01863022 0.054294623 0.066548176 -0.05150083
0.021829398 0.090827696 0.10643724 -0.09085123 -0.07038883 0.06327586 0.0108655915 -0.04575335
-0.037478253 0.07758755 -0.08384054 -0.09860662 0.003161989 0.054724425 -0.078966945 0.09638951
0.037048694 -0.06017202 0.055265695 -0.025567586 -0.06087756 0.06600126 -0.053655047 -0.03539056
0.01237983 -0.054718893 0.023551382 0.09800694 0.026830811 0.028668089 -0.037124343 0.039406173
0.047750104 0.034142066 0.05285219 0.09396668 0.032094307 -0.017468724 -0.027077852 0.025772482
-0.0901329 -0.07515903 -0.03208634 -0.023825184 -0.015361509 0.0058751083 -0.096038036 0.047769625
0.07990315 -0.049616504 -0.011888091 -0.0093167275 -0.09246032 0.017966917 0.13259616 -0.088723205
-0.06618509 -0.04701257 -0.053499423 -0.12069483 0.009620776 0.05084258 -0.04905227 0.031268165
-0.04687197 0.08028184 0.01082786 -0.07007342 -0.050734065 -0.07456294 0.06733039 0.05521107
-0.102767475 0.030143142 -0.05925853 -0.08212992 -0.06676094 0.08453861 -0.08456939 -0.038141258
-0.0014223522 0.0092196725 -0.08217591 -0.020921713 -0.045612887 0.0037758278 0.080526754 -0.12968126
0.062440764 0.04715872 -0.04481974 -0.06420208 0.008139646 -0.00934195 -0.13659734 -0.02648809
-0.05597304 -0.02464477 0.001230437 -0.03972305 -0.09035751 -0.050726503 -0.06503164 0.08288101
0.08501265 -0.0016534014 0.0043655857 0.025991289 0.09203521 -0.075525865 0.0032210108 0.022657605
-0.04866259 0.0029997707 0.13844693 -0.09480225 0.09753304 0.03867213 -0.03118736 -0.0018238387
-0.09596252 -0.0073004384 -0.038388055 -0.01818397 -0.102615826 0.05756336 0.10699597 -0.005763307
-0.07255014 -0.11063433 -0.011999905 -0.004216276 0.012249359 -0.13093953 -0.042595625 0.08365154
0.07525484 0.039563455 -0.0030481585 -0.15114784 0.013370353 0.025230985 -0.022397166 -0.047973994
-0.10998222 -0.11038799 0.09792018 -0.04882489 0.004101401 -0.019309396 -0.08634407 0.09308755
0.062158313 -0.05696923 0.050699085 -0.05725195 -0.052192736 -0.102381855 0.09909871 -0.12344937

stacks.0.blocks.0.theta_layer.bias f4 [31]
00000000: 90f2 8b3d 4d0b aabd 2ff9 91bc 46ea 9ebd
00000010: ec26 70bd b7c3 2abd a290 a9bd a101 95bc
00000020: 9408 b13c bc8e 92bd 0f94 dcbb d53c b93c
00000030: 372e 123d 3b7b 8ebd c1ed 48bc 482d 8d3d
00000040: 9865 37bc ebb7 73bb 383f e5bc fca4 82bd
00000050: 2d32 06bd 9cd0 a9bc 673b a63d eb16 7dbc
00000060: db5e 19bd 3a25 523d 6960 203d fae6 903d
00000070: 4eb3 b4bd 25a3 d63c ab80 693d
0.068333745 -0.08302937 -0.017819015 -0.07759528 -0.05863087 -0.041690554 -0.0827954 -0.018189253
0.021610536 -0.07156131 -0.006731517 0.022612015 0.035688605 -0.06957098 -0.012263716 0.06893402
-0.011193655 -0.003718848 -0.027984247 -0.063791245 -0.032762695 -0.020729356 0.08116799 -0.015447359
-0.037443977 0.051305033 0.039154444 0.07075305 -0.08823262 0.02620084 0.057007473

stacks.0.blocks.1.fc1.weight f4 [100, 30]
00000000: 1b4a 2e3d ada0 b2bd 7988 aa3d de23 8fbd
00000010: 52df 10be baed b3bd 39cb b53d b93e 16be
00000020: 2304 06bd 47d2 013e 1cc1 f5bd 802a 4a3e
00000030: 04fe dcbd 5461 c8bd 9389 0e3c 0b54 d7bd
00000040: 9a5c 523c 645d 47be 8f21 76be 36d2 103c
00000050: a34f fd3d e066 c1bd 188e c2bd 7007 3abe
00000060: dc0e 3ebe 7901 c3bd 5b8e 063e 1582 233e
00000070: 84e1 34be 2ccb c83d 11bf bc3c 1f1e 38bd
00000080: af21 39be 1ad7 513e ae50 2fbe 44ad 2cbe
00000090: 358d 383e 4244 853d b5e4 c03c d12a ee3d
000000a0: 8e2a d2bb 1705 c23d 3dcd d13d c664 9ebd
000000b0: 9c92 72bd 2366 d2b9 bd71 89bd 4664 02bd
000000c0: da82 f83c 69da 3f3d d8e0 87bd 175b 8a3c
000000d0: 85b1 2f3e 0ba3 143e 60c1 5e3e fab5 8b3d
000000e0: 1972 603d af80 87be 0608 02be 5d01 b9be
000000f0: 3cc3 303e 2e24 f1bd 2c73 043d 0573 4f3d
00000100: f286 b4bc a0cb 0b3e 6848 9fbc 4b05 9d3c
00000110: 80e4 1f3c 0a1e 9cbd 39d8 31be 7b72 3dbd
00000120: 8baf f13d 29fd ddbd 0b79 cebd 3b7a a3bd
00000130: 1747 f9bb d986 033e 34c0 23bd 4f44 05bd
00000140: 4ff0 2bbe 5957 583d 59b5 043d 3ba9 8e3d
00000150: 4909 80be 0ddf fa3d f84f 0b3d 9c50 b33d
00000160: af69 a63c 11e1 dcbc ae23 50bd dffd 373d
00000170: a60e 233d 4df6 b03d d191 08be 0a84 c7bd
00000180: 42ed f2bd 0ce8 063e e3b7 c1bd c45e 1abe
00000190: 0693 afbd de2d 19bd 4f18 2abd 5b6f 173e
000001a0: 419f 283e 0a89 06bd 0076 36be ce14 073e
000001b0: 6a7a 1ebe 10bd 4c3d c202 b73d 2185 a53d
000001c0: 8436 1dbe 317d a73d 8984 c5bc 91bc babd
000001d0: 5bee 08bd 8a83 073e 2e3c 513d 169c 773e
000001e0: e6ca 3c3e a9be 423d bb65 2ebd 8b40 cbbd
000001f0: 17a6 8cbd d698 0c3e c789 b33d 9759 a93d
00000200: 7b5c 1cbd 5aab 28be b251 96bd 66bb cdbd
00000210: 1628 4bbd f588 1fbe 1e45 22be 4da4 b0bd
00000220: 4947 bd3c 8494 a13d dd6f 0cbd e8e0 233c
00000230: 2691 8fbd eed4 8ebd 1e6a 893e 8335 0fb7
00000240: b621 2f3e 8d9f ab39 1586 143e 17fb 273e
00000250: 9e79 f9bc c4e6 98be 3379 12be 2cbf fa3d
00000260: fc77 61bd cbe6 8abe 5469 893d fbd1 52bd
00000270: 6fb3 46be 880b 04be 6a18 683c 1ac2 10be
00000280: 6d45 253e add4 623e 815e 1fbe 6f51 10be
00000290: 163d a8bb e087 7d3d c8eb cf3d 406a f2bd
000002a0: 2d44 44be b53a 5a3c 35d6 abbd 3538 b33d
000002b0: 9976 263e 270c 6bbd 67c1 153e a2a3 683e
000002c0: 8782 bd3d 4a16 d4bd 07b2 673e 8577 dbbd
000002d0: 9c85 d4bd eaad 94bd 494a edbd 06c5 a9bd
000002e0: 855b 813d 048e 243e 98b7 663d ec4e 563c
000002f0: 3920 2e3d 37ce 123e dc83 1abe 510d 963d
00000300: 08fb 433e 2a49 5bbe 20da 313e 90c2 98bd
00000310: c762 08be be62 933d 9b73 a9bd ccbd 33be
00000320: 23a2 80bd ddab e139 334d e93d 3474 3ebe
00000330: 2176 98bb 6e03 85bc 79af 9e3b a954 423e
00000340: b205 25bd 0a7d ef3d ca4d 3a3e 7daa 35be
00000350: baaa bfbd 2e1d 8fbc fff8 b2bd 0f38 143e
00000360: d1e9 e0bd c572 0f3d 10d5 21bc 6dff 183d
00000370: 7257 10bd 9c62 053e f1a0 e33c c226 99bb
00000380: f888 2abe 7b41 453e 2113 38be 8515 09be
00000390: 8939 9fbc b08b 863d 3691 de3d cf99 903d
000003a0: 3ad5 94bb 124b 0fbe 281d db3d c4a5 6dbd
000003b0: 91fe ac3e e7cd eb3d 992f 40be 387f abbd
000003c0: bf86 95bd ce50 43bd a564 df3c 8d4b a23c
000003d0: ab4e e13d 13af 813d 091d 973c 7047 fc3d
000003e0: 3fc8 50bd 7697 ab3d eb9b 56bc 4568 46be
000003f0: f5ce d63d da1a 26bc 2522 6bbe 6a77 20bd
0.04255114 -0.08722053 0.08326811 -0.06989263 -0.1414769 -0.08785577 0.08876652 -0.14672364
-0.03271879 0.1267787 -0.11999723 0.19742775 -0.10790637 -0.09784189 0.008699792 -0.10514077
0.012839461 -0.1946922 -0.24036239 0.008839181 0.12368705 -0.0944345 -0.094997585 -0.181669
-0.18560356 -0.09521765 0.13140242 0.15967591 -0.17664152 0.09804377 0.023040326 -0.0449506
-0.18079256 0.20492211 -0.1712062 -0.1686297 0.18022616 0.0650716 0.023546556 0.1162926
-0.0064137643 0.09473627 0.10244224 -0.07734065 -0.05922185 -0.0004013042 -0.06711147 -0.03183391
0.030335832 0.04683915 -0.066346824 0.016889138 0.17157562 0.14515321 0.21753454 0.06821819
0.054796312 -0.26465365 -0.12698373 -0.36133853 0.17261976 -0.11774479 0.0323364 0.0506468
-0.022037003 0.13651896 -0.019443706 0.019167563 0.0097590685 -0.07622917 -0.17367639 -0.046251755
0.1180106 -0.10839302 -0.10081681 -0.07982298 -0.0076073515 0.12844409 -0.03997822 -0.032535847
-0.16790889 0.052817676 0.03239951 0.06965872 -0.25007084 0.12249575 0.03401181 0.087556094
0.020314066 -0.026962789 -0.050815277 0.044919845 0.03980889 0.08640728 -0.13336875 -0.09741981
-0.118616596 0.13174456 -0.09458902 -0.15075213 -0.08572964 -0.037397258 -0.04152709 0.14788572
0.16467 -0.032845534 -0.17818451 0.1319153 -0.15476385 0.04998499 0.08936073 0.08082033
-0.15352827 0.08178175 -0.02411105 -0.091179974 -0.03343044 0.13233772 0.051082782 0.24180636
0.18436775 0.04754511 -0.042577486 -0.0992442 -0.068676166 0.13730177 0.08766513 0.08269041
-0.038174134 -0.16471615 -0.07339801 -0.10045509 -0.049598776 -0.15579589 -0.15846679 -0.08625088
0.02310528 0.07889655 -0.03428637 0.010002352 -0.07010107 -0.06974207 0.26838773 -8.535923e-06
0.17102703 0.00032734536 0.14504273 0.16404377 -0.0304535 -0.2986356 -0.14304046 0.122434944
-0.055046067 -0.27129206 0.06709543 -0.051469784 -0.19404386 -0.12895024 0.014165977 -0.14136544
0.16139765 0.22151442 -0.15563394 -0.14093564 -0.005134235 0.06189716 0.101523936 -0.11836672
-0.19166632 0.013319661 -0.08390466 0.08750955 0.16256179 -0.057384636 0.14624558 0.22718671
0.09253412 -0.10355814 0.22626506 -0.10716156 -0.103770465 -0.07259734 -0.115864344 -0.08289532
0.06316284 0.160698 0.056327432 0.01308034 0.0425112 0.14336477 -0.15089363 0.07326759
0.1913873 -0.21414629 0.17368364 -0.07458985 -0.1331893 0.07196568 -0.08274003 -0.1755287
-0.06280925 0.00043043392 0.11391678 -0.18599015 -0.004652754 -0.016236987 0.0048426953 0.18977608
-0.040288635 0.11693771 0.18193737 -0.17740817 -0.093587354 -0.017469969 -0.087388985 0.1447451
-0.10982097 0.035021562 -0.009877458 0.037352968 -0.035239644 0.13025898 0.027786704 -0.0046738097
-0.16653812 0.1926326 -0.17976047 -0.13387115 -0.019436615 0.06569612 0.108675405 0.07060587
-0.00454202 -0.13993481 0.106989205 -0.058019415 0.3378797 0.11513882 -0.18768157 -0.083738744
-0.073010914 -0.047684483 0.02726967 0.019811416 0.11001333 0.06332221 0.018446462 0.12318313
-0.05097222 0.08378498 -0.013098697 -0.19375713 0.10488693 -0.010138238 -0.22962244 -0.039176382
