RNN_models/close_slope_35_2_t3.pth (torch, 16360 bytes, 5 tensors)

weight_ih_l0 f4 [50, 11]
00000000: 6e44 4dbd 583d 413d cb79 933d b85d 3d3d
00000010: 5762 cabc da81 1dbe e742 963b e077 083d
00000020: 35ad 73bd 7c29 293d 99ff 2bbe b7c0 f3bd
00000030: 8495 e93d 1925 f53c c8cf ea3c 84f3 493c
00000040: 9e6b 9a3d 07ac 21bd 3f1a 083d 93f5 513c
00000050: 9af1 95bd 061b 353c c1ba 9b3d 34b7 55bd
00000060: b33c 153e bb09 203d f381 db3d ee3c 203d
00000070: 221a 01be 19dd bdbc fa05 f9bd 25e4 f9bd
00000080: 0887 133d 3f23 0fbe 3fd1 aabd 7187 a23d
00000090: 2084 d03a 41c7 943d 2b99 1c3c f289 723d
000000a0: a434 9ebd 3499 02be efeb de3d 2339 9e3d
000000b0: c8d1 c7bd b985 ddbd 04f0 2e3c 8c21 383c
000000c0: 3b5a 8939 d7a9 e93c dafd d03d bd7c dfbd
000000d0: 2a91 0c3e 53c6 f1bd 4c43 bd3d 7f98 093e
000000e0: ec39 463d ad54 293c c62b 063e 77a1 17be
000000f0: c5e6 7abd 3856 cd3d 62d0 123e 669d 7c3d
00000100: 556d 69bd 3afd 6c3d 0823 a6bd 401e e13c
00000110: db08 bb3d 4a17 fa3d 174e e83b 9b67 c9bd
00000120: f24a 2abd bdac 033d fb1e 233d cd2c 0b3e
00000130: c9a5 b0bd 63e6 ee3d 25c8 e23d 7ef6 abbc
00000140: 440c 0d3e e0a5 b6bd 1be8 e53c e538 99bd
00000150: 59d9 c7bd 31ab b53d 36e2 e83d 4d85 c1bc
00000160: 5090 f03d cfd9 8ebd 6f1d ec3d 2302 eebc
00000170: 9269 b8bd 22d6 773d 70f9 a4bd fa7f bf3d
00000180: ae20 34be 239c c43d bb38 a2bd efcd 813d
00000190: 552a 543e 7e06 3d3e f89c e83d def0 0e3e
000001a0: 9d1e 2d3d 455c b6ba ecbf 223e 83eb 86bd
000001b0: 0836 56bd 5dda 783d 29f0 94bd bea7 09be
000001c0: 37de 19be 7716 3c3d 56e0 c13d eea3 27be
000001d0: e2b4 8cbd 0c0b ebbd c472 47bd 0b8c e4bd
000001e0: c747 18be 8c34 9f3d e91c bcbc 26a4 dfbd
000001f0: aa8b 863d 3459 6fbd 5e5f c13d d50e 4cbd
00000200: 6915 32bd f63e d93c d2df 2c3e 5e2b 003e
00000210: 911f d93c c798 b7bd e417 473d 5a45 84bd
00000220: 21cb 8bbd 1435 c3bd abcd cebc 1b99 00bd
00000230: cba3 30be f32c c9bc 7502 2e3b caa0 d8bd
00000240: 64a1 7bbc f166 81bb 37e2 71bd 901e 94bd
00000250: 4a78 cebd 674f e43d 2b51 613d 70ce 263e
00000260: aa6c a33b 4e6c b1bb 8ab0 8c3d 7344 6cbd
00000270: c214 27be 137a 28be 80be 16be 20db a73d
00000280: e854 a53c fab8 143c 3a11 a3bd 4088 98bd
00000290: ff8b 9cbd 0153 88bd e676 213d 4379 58bd
000002a0: a10b 0c3e 998f 74bd 61a5 073e 0a38 98bd
000002b0: 2c34 273e 0296 263e 7166 90bd 7116 71bd
000002c0: c9c7 7e3d 4c73 d7bd 7eec 0b3e 05b5 863d
000002d0: b244 f33d dbf7 8d3c 7c51 92ba 3465 753d
000002e0: a67e 4c3d b140 023e 2cea dabd 1606 e73d
000002f0: c1ab c7bd b260 983d e79f b1bb a21f 5c3c
00000300: 52ef abbd b2a5 b1bc d814 aa3d cbf5 01be
00000310: 99d1 16be 74a4 28bd a0a9 b13d 2477 893d
00000320: 9cd3 85bd 6050 66bb 1ee1 06be 6f2a b43d
00000330: 434d 883d b1ff 1c3c 0621 b6bd f90a c8bd
00000340: 9193 8abd edc9 e6bc f218 a03b 6fc2 043e
00000350: cf24 36bd a876 bcbd a06c 983d 8dd8 243e
00000360: 0673 2b3d d99a 133e 5b08 07bc 0b5b 37bd
00000370: 501c 7d3d 2145 ddbc 709f 2fbe 41da 63bd
00000380: 56e8 2ebd 9e70 673d 31e7 12be d332 a5bb
00000390: 0779 e9bd fd7e db3c 4a9a 85bc cdc0 7dbd
000003a0: 9144 c33d 01da 26bd cff8 a63c 64df 19bc
000003b0: 70d7 4a3d e4c3 fcbd e7ea 26be 4401 dfbd
000003c0: 9938 6d3d 7649 d7bd bbf8 e73d 5423 9cbd
000003d0: f220 663d 4d4a 9f3c 1f16 eebc aa7b a93d
000003e0: 161d 83bc 810f 083e 67fd 103e 73b5 843b
000003f0: 1e62 f3bd 5585 913d 5f55 25bd 00ad 0fbd
-0.050114088 0.047177643 0.072009645 0.046231955 -0.024705095 -0.15381566 0.004585612 0.033317447
-0.059491355 0.04129933 -0.16796722 -0.11901992 0.11405471 0.029924916 0.028663531 0.012326125
0.075400576 -0.0394707 0.033228155 0.012814897 -0.073214725 0.011053806 0.0760398 -0.05217667
0.14573936 0.03907178 0.10718145 0.039120607 -0.12607625 -0.023176717 -0.12159343 -0.12201718
0.036017448 -0.13978289 -0.08340692 0.0793599 0.0015908517 0.07264567 0.009558002 0.059213586
-0.07724884 -0.12753755 0.108848445 0.07725742 -0.097568095 -0.10816521 0.010677341 0.011238467
0.00026197903 0.028523369 0.10204668 -0.10912464 0.1372725 -0.118054055 0.092413515 0.13437079
0.048395082 0.01033513 0.13102636 -0.14807688 -0.061255235 0.100262105 0.14337304 0.061673544
-0.056989033 0.057858683 -0.081121504 0.027480245 0.091325484 0.12211473 0.007089387 -0.09834214
-0.04157538 0.032147158 0.039824467 0.13591309 -0.08625371 0.116650365 0.11073331 -0.02099156
0.1377421 -0.08918357 0.028064778 -0.07481555 -0.09758253 0.08870543 0.11371271 -0.023623133
0.117462754 -0.069751374 0.115290515 -0.029053753 -0.09004511 0.060506947 -0.08055389 0.093505815
-0.17590591 0.09600093 -0.07920977 0.06338107 0.20719273 0.18459508 0.113580644 0.13959071
0.042265523 -0.0013912997 0.15893525 -0.06587889 -0.052297622 0.060755122 -0.072723694 -0.13442895
-0.15026174 0.04591986 0.09466617 -0.16371128 -0.06870438 -0.114767164 -0.048693433 -0.111595236
-0.14871131 0.077736944 -0.022963004 -0.10919981 0.065696076 -0.05843468 0.09442018 -0.049818832
-0.04347745 0.02651928 0.16882256 0.12516543 0.02650431 -0.08964687 0.04860677 -0.0645854
-0.06825853 -0.09531608 -0.025244555 -0.031396013 -0.17249982 -0.024557566 0.0026551757 -0.10577543
-0.015358303 -0.003949039 -0.059053626 -0.07232392 -0.10081537 0.11147957 0.05500905 0.16289687
0.004987319 -0.0054145223 0.0686961 -0.057682466 -0.16316512 -0.16452818 -0.14721107 0.08196092
0.020182088 0.009077305 -0.0796227 -0.074478626 -0.0764389 -0.06656457 0.03942003 -0.05285002
0.13676311 -0.059707258 0.13246681 -0.074325636 0.16328496 0.16268161 -0.07050789 -0.058859292
0.06220225 -0.10520038 0.13664433 0.065774955 0.11878337 0.0173301 -0.00111632 0.059910968
0.04992547 0.1271999 -0.10689196 0.11280458 -0.09749556 0.07440318 -0.005420673 0.013435276
-0.08395256 -0.021685455 0.08304757 -0.12691419 -0.14728393 -0.04117246 0.086749315 0.067121774
-0.06534502 -0.0035143122 -0.13171813 0.08797156 0.066553615 0.009582446 -0.088930175 -0.09767718
-0.06766427 -0.028172458 0.004885786 0.12964796 -0.044468697 -0.092023194 0.074425936 0.16098233
0.04185774 0.14414538 -0.008241738 -0.04476456 0.06179458 -0.027010502 -0.17150664 -0.055628065
-0.04270204 0.056503884 -0.14346005 -0.005041459 -0.11400037 0.026793951 -0.016308922 -0.061951447
0.095345624 -0.04073525 0.020382313 -0.009391639 0.049521863 -0.12342051 -0.16300546 -0.10888913
0.057915304 -0.105120584 0.113267384 -0.07623926 0.056183763 0.019444609 -0.029063283 0.0827554
-0.01600508 0.13287164 0.14159165 0.0040499507 -0.11883949 0.07105509 -0.04036462 -0.035077095

weight_hh_l0 f4 [50, 50]
00000000: 5259 16be 3e7b 023d 0076 e03d 1679 6f3d
00000010: 1925 0c3d 37ed 7cbd db77 843d bb67 d5bd
00000020: a949 9dbd ec2e 2fbe 4990 173d 7c69 773c
00000030: 6145 44bd 4f4d d73d 23ec 223e a747 ae3d
00000040: 74a9 ae3d e688 073d 0a31 aebd 6a28 86bd
00000050: fc6e ac3d e435 1ebe 05f0 003e 5877 bfbd
00000060: be6e 8e3c fc1b b23d d4d9 033e 432a 033e
00000070: 5030 4a3d 7f3a a7bd 123a 373b 69b5 533d
00000080: f920 fc3c f3bd 4e3d fb73 0cbb 5654 2bbd
00000090: 166c 033e 365b 35bd b1a5 07be 5b0e 24be
000000a0: 36af d8bd 5899 a9bd ccfb 903d 5385 2ebe
000000b0: e144 ba3d 3ceb b03d dc34 7f3d 1e61 a9bc
000000c0: c636 b53d 404e 843c 09f2 103e 4e94 aebd
000000d0: 22ff a03d 24e0 273d 46b0 bebb 747f bfbd
000000e0: cb65 d93d 737a 103e b108 b4bd 454b 133d
000000f0: ec3e 7e3d 7b7d af3c 9029 0abe c868 0bbe
00000100: f0eb 83bd a533 053e 3cc8 1cbe a590 d3bd
00000110: 166a c1bd f164 eb3c 4118 c03b 00af d33d
00000120: 85f2 73bc 6485 8abd 2af7 ad3d f76d 493d
00000130: 0843 eebd 7ff5 343e c276 de3d c405 153c
00000140: 420e 0abe d5e7 6bbd 5873 cebd e204 94bc
00000150: ad8c 01be f086 44bc 10fb b9bd 73b6 323d
00000160: 31cb 85bc 6272 f93d e56e 5a3d 93ee b4bb
00000170: 4b1a 97bd 8b2d c8bc 3caf be3d b744 9cbd
00000180: d0f1 813d 5c6e 88bd fe46 013e f428 7e3d
00000190: e570 873c 84b2 e2bd 646a 2fbd 8fb9 12be
000001a0: ebab 32bd 3b42 a23d 88ee 11bd a191 583d
000001b0: 902b eabd 1457 793d e577 4f3d 87ee 77bd
000001c0: 71fb 80bc f720 3a3c f61c e23d 9bd5 a3bd
000001d0: b9ce 773d ff5e 9d3d 727f 1ebd b7d3 30bd
000001e0: 6d03 dd3d 0260 f6bd 429a d53d e3a2 06be
000001f0: 9a10 84bd 5775 dc3d f79f 4fbd 7935 5bbc
00000200: f62b 953c e306 ec3d c296 063c 0f70 ccbd
00000210: d1d0 3cbd c3f6 323e d5d7 2cbd fd53 b6bd
00000220: aa5f f2bc a274 0cbe 1343 09bd 83b7 1d3d
00000230: 1bc4 3ebc ed2d a6bd badf c83d 6415 273d
00000240: d47f d2bd fb7f 913b 153e 85bd 5ecc 603e
00000250: 6e84 703d 068e d43c 7962 bdbd 0fd2 92bd
00000260: cad2 e2bd 5047 073e dbce c1bd 30bb 06be
00000270: 7da4 febd dd8f a8bd ae6e bd3c 2f19 fa3d
00000280: dfbd d6bd 01c9 b7bd b21d 143d f821 a3bd
00000290: 99b6 9bbd f477 f93d 2e18 e83c 4be2 afbc
000002a0: d035 173e 3c8a a13d 9a9e 7bbd aea9 e13d
000002b0: 83e5 c03d 9ef7 d53d 0011 13be f120 963b
000002c0: 95d6 08be 29e2 7abc 3189 68bc 6502 de3d
000002d0: 9571 20bd e178 8c3d 853a 08be e26a 96bd
000002e0: cdac 0abe e58b 00be b3c2 02be 982c cdbd
000002f0: a1d3 113e a89d cebc f818 c23d fda4 89bd
00000300: 9dc2 563d d2c2 073d a4d8 b0bd c1ef 353e
00000310: 4ac2 e13a 7bca 20be ce85 a03d 8a28 03be
00000320: 6b9b ea3d f112 18be 191f 06be 222d 7ebc
00000330: 96ff 8b3d a167 d1bd eec3 b63c b0ea e6bc
00000340: a771 debc 8717 05be d914 983d b494 bbbd
00000350: 7af5 13bd 6c25 2f3e 263d 6bbd 9d1f 5f3d
00000360: 20a8 87bd c3b7 e5bd 6cef acbd 94a8 f0bd
00000370: 1105 d03b 6082 31bd afbd 993d 9dc3 083d
00000380: c3a3 00be 8326 bebd f18e 643d 2ecd 9b3c
00000390: ff5c 53bd 8639 be3d 83bc 3cba 3b26 083e
000003a0: b6f0 f53d 946a a8bd 030d f1bb 6867 99bb
000003b0: 3132 0f3e 70cd 9ebd fa47 ef3d fdff 4b3d
000003c0: 6161 be3d 08c0 2b3e 57a1 a3bd f9b0 e5bc
000003d0: 0c74 933d 7fca 2bbc 432a e83d b778 7bbd
000003e0: 65dd d13d 33aa e43d 6b9a cebd a677 c1bd
000003f0: b042 443d f29a 1bbe 0466 983b 004f 4f3d
-0.1468251 0.031855814 0.10960007 0.058465086 0.034215067 -0.061749663 0.06468173 -0.10420176
-0.07680065 -0.17107743 0.037002835 0.015100833 -0.047917727 0.10512792 0.15910392 0.0850976
0.08528414 0.03308954 -0.08505447 -0.06550677 0.08419606 -0.15450245 0.1259156 -0.09348935
0.01738679 0.08696744 0.12876064 0.1280909 0.04936248 -0.08165454 0.0027958197 0.051686678
0.030777441 0.05047412 -0.0021431434 -0.041828476 0.128342 -0.04427644 -0.132468 -0.16021101
-0.10580294 -0.08281201 0.070792764 -0.17043047 0.09095169 0.086386174 0.06230627 -0.020676192
0.08848338 0.016150594 0.14154829 -0.085243806 0.07861163 0.04098524 -0.0058193533 -0.09350482
0.106151186 0.1410921 -0.0879072 0.035960454 0.062071726 0.021422138 -0.13492417 -0.1361419
-0.06441486 0.13007982 -0.15310758 -0.10330323 -0.094440624 0.028734656 0.0058622663 0.10336113
-0.014889364 -0.067637235 0.084944084 0.049177136 -0.11633879 0.17671774 0.10862495 0.009095613
-0.13482001 -0.05759414 -0.10080594 -0.018068735 -0.1265132 -0.011995062 -0.090810895 0.04363103
-0.01633224 0.1218002 0.053328414 -0.0055216043 -0.07378062 -0.02443578 0.09310767 -0.07630294
0.0634495 -0.066616744 0.12624738 0.062050775 0.016533324 -0.110692054 -0.04282607 -0.14328597
-0.043620985 0.07922789 -0.03562787 0.052873258 -0.1143409 0.06087406 0.05065145 -0.06053021
-0.015744897 0.0113603985 0.1104068 -0.079997264 0.06049988 0.07684135 -0.03869576 -0.043170657
0.10791669 -0.12030031 0.10429813 -0.13148074 -0.06448479 0.10764568 -0.050689664 -0.013379448
0.018209439 0.11524751 0.008214654 -0.09982311 -0.04609758 0.17476945 -0.04219802 -0.08902738
-0.029586632 -0.13716367 -0.033511233 0.03850509 -0.011643435 -0.081142284 0.098082975 0.040791884
-0.102782875 0.0044403053 -0.06505982 0.2195296 0.058720045 0.025946628 -0.09247298 -0.07168972
-0.11075361 0.13210797 -0.09463283 -0.13157344 -0.124337174 -0.08230565 0.023124065 0.12211835
-0.10485434 -0.08973885 0.036161132 -0.079654634 -0.07603187 0.12181082 0.028331842 -0.02147021
0.14766622 0.07887694 -0.06143055 0.11018692 0.09418776 0.1044762 -0.14361954 0.0045815636
-0.13363107 -0.01531271 -0.014192865 0.108403005 -0.03917082 0.06858993 -0.13303573 -0.07344605
-0.13542481 -0.12553366 -0.12769584 -0.10018271 0.14240886 -0.02522166 0.09477419 -0.06720922
0.05243169 0.03314478 -0.08635071 0.1776724 0.001722404 -0.1570224 0.07838021 -0.12808433
0.11455425 -0.14850976 -0.130978 -0.01551369 0.068358585 -0.10224844 0.022310223 -0.02818808
-0.027153803 -0.12997256 0.074258514 -0.09159222 -0.036122777 0.17104119 -0.057431363 0.05447351
-0.06623864 -0.112166904 -0.084441036 -0.11750904 0.00634826 -0.043337226 0.075068824 0.033389676
-0.1256247 -0.09284689 0.055800382 0.019018736 -0.05160236 0.092883155 -0.00071997213 0.13295834
0.120088026 -0.08223453 -0.0073562874 -0.0046815164 0.1398399 -0.07754028 0.1168365 0.049804676
0.09295917 0.16772473 -0.079897575 -0.028038489 0.071998686 -0.010485291 0.11336186 -0.06139442
0.10247306 0.111652754 -0.10088047 -0.09446649 0.04791516 -0.15195826 0.004650833 0.05061245

bias_ih_l0 f4 [50]
00000000: eda3 94bd 3a6a dcbc 4f80 a73d a5d8 d83d
00000010: 8f54 803b 11b9 8b3d 7aab eb3c 1960 a53d
00000020: 61ae 78bd 8030 de3d 5691 9b3d 1ebc bb3d
00000030: 4649 843d dc7c a9bd be9a 00be c2c2 923d
00000040: 735d f53d 799d ba3c d4f2 dabd 9c72 f4bd
00000050: 1fa5 0b3e ce6b 2bbd 9906 1fbd a3e7 163e
00000060: 17f7 8b3d f218 2cba df20 3ebd 8045 d43c
00000070: a5ca 12be 3bef 1d3d 725d 60bd 0652 cfbd
00000080: 53eb e4bd 6c38 763d 37de dbbd 3344 823d
00000090: e66a 98bd 26c2 c03c 64f6 913d 6b30 a0bd
000000a0: 5068 ddbc 90d6 d23c 4db3 f93d 29fa 57bd
000000b0: bdec 313d 79dd 80bd 15ea 0f3d f240 b83c
000000c0: b6ea 22bd df72 403d
-0.07257829 -0.026906122 0.0817877 0.10588197 0.00391633 0.06822408 0.02876829 0.0807497
-0.060713176 0.108490944 0.0759608 0.0916674 0.06459288 -0.08275768 -0.1255903 0.07166053
0.11980715 0.022780167 -0.10690847 -0.119359225 0.13637207 -0.041850857 -0.03882465 0.147368
0.06834238 -0.00065649964 -0.046418067 0.025912046 -0.14335115 0.038558226 -0.054776616 -0.101230666
-0.11177697 0.0601124 -0.107357435 0.06360664 -0.07442264 0.023530077 0.071270734 -0.07821735
-0.02702728 0.025737077 0.12192402 -0.052728806 0.04343866 -0.062922426 0.035135347 0.022491906
-0.03977462 0.04698455

bias_hh_l0 f4 [50]
00000000: fcda c1bd a86b dbbd 4774 ebbd 8363 583c
00000010: 9dc7 d83d 9769 0e3d 6c8f edbd ea60 5ebd
00000020: 3e9c 8bbd ea08 123b 81d9 3abc 0f05 a63c
00000030: ff93 2e3c 1623 02be 3b17 26bd 73f8 3a3d
00000040: 8a43 36bd f3ba c63d a72b c3bd e0ca d4bd
00000050: 0810 863c c550 4a3d 4c0d f4bd 83a5 a1bd
00000060: c3c3 1dbe 444e 953d eeb9 633d 7645 2cbd
00000070: f617 553d 03b8 29bd 3c1b 913d 9dad cebd
00000080: bd60 1c3d aac0 a83c 0bd1 2abc 3e54 9a3c
00000090: 66df 6b3d 525f 12bc c56b 1c3d ad3b 0d3e
000000a0: c320 06bd 1a29 e9bd 2e8f 1d3d 7deb c43c
000000b0: 7af3 02be ecfd 393d b211 43bc ae45 adbd
000000c0: e680 093e 0c9f 07bd
-0.09465596 -0.10713893 -0.114967875 0.013207319 0.10584948 0.034768667 -0.11599621 -0.054291643
-0.0681691 0.0022283145 -0.011404396 0.020266084 0.010655402 -0.12708697 -0.040549498 0.045647096
-0.044498004 0.097036265 -0.095298104 -0.10390258 0.016365066 0.049393434 -0.11916599 -0.07892897
-0.15406708 0.072903186 0.05559724 -0.04205843 0.052024804 -0.041435253 0.07085273 -0.10091708
0.038178194 0.020599682 -0.010425816 0.018838998 0.057586096 -0.008933859 0.038188715 0.13792296
-0.032746088 -0.113847926 0.038466625 0.02403807 -0.12788191 0.045408174 -0.011906074 -0.08460556
0.13428077 -0.033110663

weight f4 [1, 50]
00000000: ba67 acbd cd1c 193e 4938 81bd 3644 a5bc
00000010: 5ed4 be3c ad86 6e3d 1e5b 3d3e edd8 033e
00000020: e7a2 d7bd 4aaf ab3d c2a1 35be 03f5 133e
00000030: 77a5 9bbd 10fc 983d 621b cebd 5d5a 083d
00000040: c05a 5b3d e9d4 b5bd ab0b 263d 9325 023e
00000050: fa4f 68bd 4574 21be a4cd d3bb e10b 5b3d
00000060: 9238 293d 37ce 163e aa07 ac3d 82ff d4bd
00000070: e29c ddbc b5a6 30be a164 ecbc cca7 cdbd
00000080: 29b9 9f3d 9c9b 0c3d 5278 3fbd eb32 0b3e
00000090: e65a 9cbc bdf5 a93d da6c 96bc 507a 6cbd
000000a0: c16b 40bd 1451 05bd 71b8 1e3e cf31 f6bd
000000b0: 9046 1ebe effc aebd 4c98 06be 4658 0e3e
000000c0: 5c9f d03d 1259 913d
-0.08418222 0.14952393 -0.06309564 -0.020174127 0.023294624 0.058233906 0.1849179 0.1287572
-0.10529118 0.08383043 -0.17737487 0.14448933 -0.07599919 0.07469952 -0.100638166 0.033289302
0.053553343 -0.088785 0.04053847 0.12709646 -0.056716897 -0.1576701 -0.0064637233 0.053478125
0.041313715 0.14727102 0.08399899 -0.10400297 -0.027052347 -0.17251094 -0.028856577 -0.1004177
0.07798988 0.03432809 -0.046745606 0.13593642 -0.019086313 0.08298824 -0.018362451 -0.057733834
-0.046977762 -0.032548025 0.15500046 -0.12021219 -0.15456605 -0.08544337 -0.13144034 0.13900861
0.101866454 0.07097067
