RNN_models/close_slope_15_5_zscore_15min_t3.pth (torch, 97906 bytes, 20 tensors)

stacks.0.blocks.0.fc1.weight f4 [50, 35]
000000 75 80 7e bd c6 48 31 bc 03 ff 03 bd 6c 6a 00 3d
       -0.062134225 -0.010820573 -0.03222562 0.03135149
000010 e6 d6 0a ba a7 ea dd 3d e6 d3 12 3e c5 99 ea 3b
       -0.00052963046 0.10835772 0.14338645 0.007159444
000020 e9 3d 0c be ba e2 7a bd 30 48 7c bd fe 17 3c bd
       -0.13695492 -0.06125138 -0.06159228 -0.04592132
000030 67 ad e2 bb 8e 29 9a bd e3 a1 7f 3d 74 42 98 3d
       -0.006917644 -0.07527457 0.062410247 0.0743455
000040 48 92 9c bd 9d 53 e4 3d fb b9 a2 3d 74 34 0b be
       -0.076450884 0.111487605 0.07945629 -0.13594228
000050 4d 4b 0b be 89 cd f5 bd 77 fe 1a 3d 58 71 8a bc
       -0.13602944 -0.12002093 0.037840333 -0.01689975
000060 a7 a2 ab bb 5a f6 2e 3d 03 e8 fb 3d f3 35 db bc
       -0.0052378955 0.042715408 0.12300112 -0.026759123
000070 30 26 03 3e c2 0f f6 3d 78 c4 d3 bd e3 92 23 bc
       0.12807536 0.12014724 -0.10340208 -0.009983751
000080 df ab 6a 3d 30 06 89 3d 5b e6 17 3e f5 f9 28 3d
       0.057292815 0.06690633 0.14833967 0.041254003
000090 a8 3d 91 3d 0a c3 81 bd 3c fa 10 bd 74 fe f3 bc
       0.07091838 -0.06336029 -0.035394892 -0.029784419
0000a0 ee 4f 60 3c 45 2b e6 bd 87 6c 09 bd d0 06 1d 3e
       0.013690932 -0.11238722 -0.033550765 0.1533463
0000b0 a4 56 d4 3c e6 e2 b4 3d 38 aa 91 bc 92 26 80 3d
       0.02592022 0.0883234 -0.017781362 0.06257357
0000c0 f4 71 86 bd 5f 35 5c bd 79 b8 0a bc 79 30 c8 bc
       -0.065647036 -0.053761836 -0.008466833 -0.024437176
0000d0 b6 74 df 3d f0 57 9d bd f8 d9 c7 bd d8 09 1f 3e
       0.10910933 -0.07682788 -0.09758371 0.15531099
0000e0 c8 ce d5 bd 03 ea 14 3d e5 ea 81 3d 0e e3 64 bd
       -0.10439831 0.036355983 0.06343631 -0.0558806
0000f0 04 ec c4 3d 9c d0 1a ba 6c 08 10 3e 78 71 0a 3d
       0.09615329 -0.0005905719 0.14065713 0.03379962
000100 40 36 62 bd d6 7b aa bd c1 54 2f 3e b6 20 67 3e
       -0.055227518 -0.08324401 0.17122175 0.22571072
000110 85 e8 02 3d b9 13 b3 bd 1a 04 86 3c 77 ce 37 3c
       0.03196003 -0.08743996 0.016359378 0.011218659
000120 4a 1f 02 3e 7c 90 77 bb cf 5c f9 bd b5 f4 a9 bd
       0.12707248 -0.0037775328 -0.12175905 -0.08298627
000130 de 40 b4 bd 39 0c 7e bd 1e a1 36 3d c4 37 1f 3e
       -0.08801435 -0.062023375 0.044587247 0.15548617
000140 1c 8a 52 3d 0d ad a3 bd bd c9 0f bc cf 08 a7 bd
       0.051401243 -0.07991991 -0.0087761255 -0.08155977
000150 c2 39 86 3d 4c a3 0e be 11 af b2 bd 4c ef d7 bd
       0.06553985 -0.1392948 -0.087247975 -0.10543689
000160 e2 b1 17 bc 52 4c e8 bd 81 ea a8 3d be f7 09 bd
       -0.009258719 -0.11342682 0.08247853 -0.03368353
000170 f6 6b 1d be 30 40 ef 3d b3 d7 04 bd 24 e4 79 3a
       -0.15373215 0.11682165 -0.03243227 0.0009532592
000180 8c 69 34 3e 40 19 ab 3d 8f b9 88 3c 4e 10 32 3e
       0.17618388 0.083544254 0.016690044 0.17389032
000190 4c 1b 03 3e 33 16 2a be 97 42 f2 ba d0 21 c8 3d
       0.12803382 -0.16610031 -0.001848298 0.09772074
0001a0 33 c6 ca 3d c0 ec 20 3e ae 0f ba 3d a9 5b 9c 3d
       0.09901085 0.15715313 0.09085022 0.0763467
0001b0 83 47 19 be d9 f3 3b be e5 49 18 be 4a f3 8c bd
       -0.14968686 -0.18354739 -0.14871939 -0.06882341
0001c0 87 1c f6 3d e6 08 d6 bd 9e 9b 06 be f3 d6 ec bd
       0.1201716 -0.10450916 -0.13145301 -0.11564436
0001d0 9a d4 9c 3d 76 84 96 bd 4e f2 39 bd b7 9c c0 bc
       0.07657738 -0.07349484 -0.045397095 -0.023512227
0001e0 d9 1d 15 3e 76 45 fc bc 6f 02 8c bd 6a 97 39 be
       0.14562167 -0.03079484 -0.06836402 -0.18124166
0001f0 d1 6a ff bc 8d 90 17 3e bb 3b 77 3c 93 86 bf 3d
       -0.031178864 0.14801235 0.015089924 0.0935184
000200 3f 78 ee 3c 02 1c ec 3d 58 d0 07 3d c1 e3 9c 3c
       0.029110072 0.115287796 0.033157676 0.01915157
000210 b0 55 c8 bd 7b 79 98 bd 51 8a b4 bc 29 24 90 bc
       -0.097819686 -0.074450456 -0.02203861 -0.017595368
000220 c5 87 6e be 47 21 1f be 91 a6 bf bd 95 dd 20 be
       -0.2329398 -0.15540038 -0.09357942 -0.15709527
000230 ca b3 08 3d 46 0c da 3d fa 44 c9 bd b3 24 3d 3d
       0.033374585 0.10646872 -0.09827609 0.046177577
000240 0d 5e 0c be 27 64 d6 bd 9d 1d 44 3d 6a 36 d2 3d
       -0.13707753 -0.10468321 0.047879804 0.10264285
000250 9a 28 4d 3d f6 3a 24 3e 11 40 fe 3b 6d 4f 0c bd
       0.05008755 0.16038117 0.007759102 -0.034255434
000260 24 50 4c bd 58 62 01 be ae 6d c4 3d ad 1d af bd
       -0.049881116 -0.12635171 0.09591232 -0.08550582
000270 bb 0d a7 bc f1 a6 fd bc 16 20 ef ba 60 a9 92 bd
       -0.02039229 -0.030963393 -0.0018243815 -0.07161212
000280 5c 80 38 3d 3d bf 9e bd 14 c5 4e 3d 4b a8 d4 3c
       0.045044288 -0.077513196 0.050480917 0.025959155
000290 c8 74 fc bd c2 98 d0 3d 9a b9 0f 3e d7 b1 b3 bc
       -0.12326962 0.10185386 0.14035645 -0.021935387
0002a0 3b ee 3c bc 0b 63 64 3d 2e 15 6f 3d b1 ce 81 be
       -0.011531408 0.055758517 0.058369808 -0.25353006
0002b0 19 f1 eb 3d ec c4 a3 3c 2c 51 b0 3d 95 8f db bd
       0.11520595 0.01999136 0.08609232 -0.107207455
0002c0 f2 22 88 3d e8 28 3a 3c 30 65 cf 3c b3 43 43 3e
       0.0664729 0.011362292 0.025316805 0.19068794
0002d0 3a 14 b2 3d 22 20 0e bd b9 ec 0e 3e 24 90 94 3d
       0.08695264 -0.034698613 0.1395749 0.07254055
0002e0 0d 6c 24 3d 4d f2 3e 3d 9f 65 d4 bc 6b 71 9a 3d
       0.040142108 0.046617795 -0.025927363 0.07541164
0002f0 c3 dc e9 3c 69 e3 ba bd 50 37 a0 bd e2 b4 30 3e
       0.02854765 -0.09125406 -0.0782305 0.17256501
000300 4a fc d1 bc 97 12 7a 3d d2 fb 30 bd 11 20 35 3e
       -0.025632996 0.061052885 -0.043208905 0.17688014
000310 a7 f6 9c bc 61 24 02 3e 89 71 d9 bb 67 8b fa 3c
       -0.019160582 0.1270919 -0.006635849 0.03058405
000320 81 8b 8b bd ab 20 13 3d be 46 0b 3d d4 d2 20 be
       -0.06813718 0.035919826 0.034003012 -0.15705425
000330 77 63 ce bc fd f0 2e be c9 f5 7d 3e 58 b6 2d 3e
       -0.025193913 -0.17084117 0.24800791 0.1696409
000340 d0 bf fc bc e1 f0 94 bd f6 62 9a 3d 15 a3 eb 3c
       -0.030853182 -0.072725065 0.075384066 0.028764287
000350 51 3f 10 bc f1 f0 63 bd a9 b8 a8 3d a9 2a 06 3e
       -0.008804158 -0.0556497 0.08238346 0.13102211
000360 f8 de ff 3d f7 83 b8 bd 96 84 ea 3d 2d e9 91 3d
       0.124937 -0.09009545 0.1145107 0.07124553
000370 f3 7d be bd 1d 83 2d 3e e9 e5 01 3e 5a d3 6c 3d
       -0.09301367 0.16944547 0.1268536 0.057818748
000380 33 8b 30 bd 48 25 12 bd b1 ad f1 3d 49 d1 0b be
       -0.0431015 -0.035680085 0.11800707 -0.13654055
000390 ec 02 ef bd 94 2e 20 3e ba 45 16 bd cb 1f 1f be
       -0.11670479 0.15642768 -0.03668759 -0.15539472
0003a0 0c 44 0b be 6b 99 a0 3d a3 9f 98 3d 11 30 10 bd
       -0.13600177 0.07841762 0.07452323 -0.03520209
0003b0 b6 62 1b 3e b4 b9 f7 3d 7c e5 33 3e a0 b1 04 3e
       0.15174374 0.12095967 0.1756801 0.12958384
0003c0 23 e8 19 be 7e 38 ef bd 82 5f 0a be de 52 21 be
       -0.1502996 -0.11680697 -0.13512996 -0.15754268
0003d0 5c 81 aa 3d 03 c8 12 3e e3 f6 17 be a6 67 05 3e
       0.083254546 0.14334111 -0.14840274 0.1302782
0003e0 57 ea f2 3c d3 18 ce bd 89 11 30 3b 52 cc 5e bd
       0.029652758 -0.100633286 0.002686592 -0.054394074
0003f0 4d 7a e5 bd 99 54 af bd ec f4 3d 3d f1 66 32 3d
       -0.11204968 -0.085610576 0.046376154 0.043555204

stacks.0.blocks.0.fc1.bias f4 [50]
000000 d3 ee b5 3d 98 78 86 bd 29 93 16 3d 42 36 08 be
       0.08883443 -0.0656597 0.036761437 -0.13301948
000010 91 c8 ef 3d b2 f4 49 bd b8 de b3 3c da f0 47 3e
       0.11708177 -0.049305625 0.021956787 0.19525471
000020 f7 44 3f bd c4 2e 52 3d 60 0a 79 bd 8a 05 8e 3d
       -0.04669663 0.05131413 -0.06080091 0.0693465
000030 ba 05 8c 3d d7 08 f2 bc 6b c3 22 3b 0b fb a0 bc
       0.0683703 -0.02954523 0.0024835716 -0.019650957
000040 4b 99 ea 3d 26 31 1a 3e 49 c0 12 be 7b d7 3e bd
       0.114550196 0.15057811 -0.14331163 -0.046592217
000050 4d 17 93 3e 76 47 07 3e 42 bd 66 bc 4f 1b 0e 3e
       0.28728715 0.13210854 -0.0140832085 0.13877605
000060 08 df 1b be e2 76 20 bd 3e a3 0a be a8 58 ae 3d
       -0.15221798 -0.039175875 -0.13538834 0.085130036
000070 3a 59 dc 3d 58 b3 fd 3d 5e 06 cd bd f6 5b 23 3e
       0.10759206 0.12387723 -0.1001098 0.15953049
000080 8f d8 87 3d 9a a4 05 be 03 ab 31 bb 0a 85 77 bd
       0.06633102 -0.13051072 -0.0027109988 -0.06042961
000090 27 69 9a 3d 3d 1d 04 be 8a fb 2e 3d 6a 9b 2f bc
       0.075395875 -0.12901779 0.042720355 -0.010718206
0000a0 55 1a 70 3e 88 30 79 3d b9 67 13 3e e0 18 1c 3e
       0.23447545 0.0608373 0.14395036 0.15243864
0000b0 63 57 9e 3d ec 87 43 be c9 a3 b0 3d 82 a3 ba bd
       0.077315114 -0.19094819 0.086249895 -0.09113218
0000c0 6d 2a f7 3a ca 32 a5 3d
       0.0018857248 0.08066328

stacks.0.blocks.0.fc2.weight f4 [50, 50]
000000 03 5c 67 bc f8 2a 1e 3e 02 c8 94 3c ee c6 9f bc
       -0.014121058 0.15446079 0.018161777 -0.019504037
000010 a1 f4 02 3d a5 e7 f9 3d 78 8a e6 bc 28 2e fa 3a
       0.031971578 0.12202386 -0.028142199 0.0019087242
000020 fd e3 44 3d f2 aa b1 bd 76 27 c8 3d 4f 8a ab 3c
       0.04806899 -0.08675183 0.097731516 0.020939974
000030 5b 22 02 3e 4a 23 2f 3e 5d 6f 20 3e 05 03 88 3d
       0.12708418 0.17103305 0.15667482 0.06641201
000040 c5 59 de bb 7b 62 cc bd 84 3e 94 bd 70 33 22 3c
       -0.0067856037 -0.09979721 -0.072384864 0.009899959
000050 e6 c3 cb 3d 3d 46 4f 3e ae 77 d3 3d ad 1b 8b bd
       0.09949474 0.20241638 0.103255615 -0.06792388
000060 01 e8 d8 3d 4a af 1b be 53 21 07 3e fe 57 1c 3d
       0.10591126 -0.15203586 0.13196306 0.038169853
000070 7b ff 75 3d 63 74 1a 3d 26 db 12 3e 90 4d 0d 3e
       0.0600581 0.03770865 0.14341411 0.13799119
000080 54 26 17 3e e6 b3 3a 3d 2d e7 49 bd a4 5c fc bd
       0.14760715 0.04558172 -0.049292732 -0.12322357
000090 ff 81 be bc fa ca ae bd d0 81 08 be f7 fc 15 3c
       -0.023255346 -0.085348085 -0.1333077 0.00915455
0000a0 55 b3 19 be ef 91 8f bc 38 54 02 be 15 be e2 3d
       -0.15009816 -0.017525641 -0.1272744 0.110714115
0000b0 36 3e fa bd 05 09 d4 3d a1 33 f7 3d c4 27 44 bb
       -0.12218897 0.10353283 0.12070394 -0.0029930929
0000c0 cc 8c 50 3d 55 ab 08 be 78 1c 36 bc 9d 78 a3 bd
       0.050915524 -0.13346608 -0.011115186 -0.079819895
0000d0 be f3 a9 3d fd fd 04 be 2f 47 09 3d 9a b0 96 3d
       0.08298443 -0.12987514 0.03351515 0.07357903
0000e0 3a a0 aa bb 58 03 45 be 3b d4 98 3d f9 df b4 3d
       -0.005207089 -0.19239557 0.07462355 0.08831782
0000f0 cb 7a e8 3d de f2 92 3d c0 07 27 bd fe ce 02 3d
       0.11351546 0.071752295 -0.040778875 0.031935684
000100 5a 8f bd bd 36 73 32 3d e1 4d 16 be dc db 40 3d
       -0.09255858 0.043566905 -0.14678146 0.047084674
000110 f2 40 72 bd f0 8a 88 3d b1 1e 91 3e f0 d0 17 3e
       -0.059143968 0.06667125 0.28343728 0.14825797
000120 fa 0b 21 3e 25 f9 04 bd 81 42 b9 bc 29 a4 cb bd
       0.15727225 -0.032464165 -0.02261472 -0.099434204
000130 8f 9b 19 3e a8 21 c3 3d b4 4c d1 3c 30 20 be bd
       0.15000747 0.09527904 0.02554927 -0.09283483
000140 e1 05 bd 3c 6e 24 16 bd 86 8a 97 3d ff fd ad bd
       0.023074092 -0.036655836 0.07399468 -0.084957115
000150 99 b1 29 bc fd 7d e7 3b 50 24 f0 bd 7a ff 9b bd
       -0.010357284 0.0070645795 -0.11725676 -0.07617088
000160 97 e7 fc bc 05 ad c0 3d 0a 64 fe bd 52 3a 4f bd
       -0.03087215 0.09408001 -0.12421425 -0.050592728
000170 70 e5 a1 bd 0a f2 36 3d a0 88 f2 ba a1 ce 97 3d
       -0.0790509 0.04466442 -0.0018503852 0.07412458
000180 0a 7a 23 be 41 24 12 3e e5 0d 32 3d 1a a5 ef bc
       -0.15964523 0.14271642 0.043470282 -0.029253531
000190 c3 ba ac bd 5d b0 32 3e a7 88 c4 bd 64 3c db 3d
       -0.084340595 0.1745009 -0.09596377 0.10704878
0001a0 fe 0a c4 bd b2 3a 28 bc 7e 04 da bd 75 85 e2 3d
       -0.09572409 -0.0102679 -0.10645388 0.11060611
0001b0 ac 1d dd bd 5b bf ed 3d c5 14 30 3e 0c 8d a6 3d
       -0.10796675 0.11608764 0.17195423 0.08132371
0001c0 ec 62 16 bc 92 db 2b bd 3d d9 f3 3d 52 fc 0d 3e
       -0.009178858 -0.041957445 0.11906669 0.13865784
0001d0 99 bd 76 bd 5d 7f 62 3d 91 f4 66 3d 9e 43 80 3b
       -0.06023941 0.055297244 0.05638558 0.0039143106
0001e0 8b 88 84 3d 4f 76 48 3e 5e 15 fe 3d 7a cd 9f 3d
       0.06471356 0.19576381 0.12406419 0.078028634
0001f0 ab 28 56 bd 3a ef ad 3d 7c 9b 13 3e 98 6c 0a 3d
       -0.052284878 0.084928945 0.14414781 0.03379497
000200 08 71 2b 3e e5 aa 05 3e d2 07 73 bd 4b 74 d9 3c
       0.16742337 0.13053472 -0.05933363 0.02654471
000210 18 c7 a8 bb 3b 1d 92 3c 92 97 13 3d e9 9b b2 bc
       -0.005150687 0.017836204 0.03603322 -0.02180286
000220 9b 30 ad 3d de 2b 87 3d c8 d7 c5 bc b0 86 d8 bc
       0.084565364 0.06600164 -0.024150744 -0.026431412
000230 39 32 c6 3c 8a a5 ff 3d ae b4 da bd 1c 79 77 3d
       0.02419387 0.12482746 -0.10678993 0.060418233
000240 ca a8 08 3e ed c3 0a be de c9 24 bd ad a3 00 3d
       0.13345638 -0.13551302 -0.040231578 0.031406093
000250 04 00 a4 3d ba 1f da bd 7a 82 c9 bd 33 9f 01 bd
       0.080078155 -0.106505826 -0.098393396 -0.031645965
000260 54 0e b6 bc 91 18 8d 3d d9 d1 9a bc fe 31 40 be
       -0.022223629 0.06889451 -0.018898891 -0.1876907
000270 f1 37 b8 3c 28 a0 80 3d 35 00 37 bd 6f d6 8d 3d
       0.022487612 0.062805474 -0.04467793 0.069256656
000280 a2 59 01 3d 75 75 3b 3b a7 b9 b4 bd 8f c3 ec bd
       0.03157962 0.0028603945 -0.08824473 -0.11560737
000290 a0 9e 92 bd 37 fb 5b 3d e0 8c e8 bc 16 e3 df 3d
       -0.071591616 0.053706374 -0.028387487 0.10931985
0002a0 93 e5 11 bd e9 d8 2c 3e ba 89 2d be 0b 81 48 bd
       -0.03561933 0.1687962 -0.1694707 -0.04895119
0002b0 50 67 1e be e3 ff 39 bc ea cd 0c bc 6d 45 a7 3d
       -0.15469098 -0.011352512 -0.008594016 0.08167539
0002c0 59 4c 33 3c 7e a1 08 3e 5c 96 a9 3d 14 5c 4c 3d
       0.010943496 0.13342854 0.08280632 0.0498925
0002d0 f0 a6 9a bd 1e 56 0b 3e 47 76 78 3c 4e 06 fa 3d
       -0.07551372 0.1360707 0.015164918 0.12208234
0002e0 53 50 1d be 66 e5 c5 bb 2e 22 61 bd 23 56 0f be
       -0.15362673 -0.0060393093 -0.054964237 -0.13997702
0002f0 38 3f 6a 3d 9d 0e 35 3e 53 cb 67 3e 06 d8 b8 3c
       0.057189196 0.17681356 0.22636156 0.022563946
000300 df f0 f1 3d d0 21 da 3d ea e7 22 3e 60 36 f9 3d
       0.11813521 0.106509805 0.1590878 0.12168574
000310 2b 5e 5d 3d 9f 85 c2 bc 64 d8 1d 3d a0 bb 81 3d
       0.054044884 -0.023745356 0.038536444 0.06334615
000320 4f eb 8c bd f9 94 80 bc 05 91 7d 3d 19 3c b6 bd
       -0.06880819 -0.015696036 0.06190588 -0.088981815
000330 b2 7a 0a 3c c5 1e 8f bd a5 11 ff 3a ae aa ad 3d
       0.008452104 -0.06988291 0.0019460215 0.0847982
000340 5a cd e4 3d 1b 0f 37 bd 32 a8 fd 3d fe 1b e1 bd
       0.1117198 -0.04469214 0.12385596 -0.10991667
000350 bb b8 40 bd 92 7c 42 3e e4 af 07 bd 43 4a 50 bd
       -0.047051173 0.18992832 -0.033126727 -0.05085207
000360 08 12 7b 3d b0 ed fc bb 1a 68 10 3e 5f a4 b9 3b
       0.061296493 -0.0077187642 0.14102212 0.0056653465
000370 bd 1f 6c 3e 67 d3 ff 3d bc ec cb 3d 10 53 ea bc
       0.23058982 0.12491494 0.09957263 -0.02860406
000380 45 11 9a bd f1 07 06 3e b3 07 d1 bd 5f ba df bc
       -0.07522825 0.13088967 -0.10206547 -0.027310548
000390 2f 02 90 3c c4 23 ec bc 82 17 ce 3b c1 c1 c0 3d
       0.017579166 -0.028825648 0.0062894234 0.094119556
0003a0 88 cd 5f bc 6c 58 ff bd 45 aa d4 bc 7c fc ad 3d
       -0.013659842 -0.12468037 -0.025960097 0.08495423
0003b0 dd e8 8c bd b3 04 8a bd b6 e9 8e 3c 90 ee 00 3e
       -0.06880353 -0.067391776 0.017445426 0.12591004
0003c0 f8 9c 43 bd 7c c5 eb bd cd 48 55 bc 1b ac 7b 3d
       -0.04775712 -0.115122765 -0.013017845 0.06144343
0003d0 4f 0d ac bd 44 e2 78 3c b6 c0 06 3c c8 0c a9 bb
       -0.08400976 0.015190665 0.008224657 -0.0051589943
0003e0 67 9c 84 3d 15 92 83 3c 23 23 ad 3d c9 2c 47 3d
       0.06475144 0.016060868 0.084539674 0.048626695
0003f0 6c e4 0a be a0 b6 8c bb ad 93 b1 bd 25 11 ae bd
       -0.13563699 -0.0042942315 -0.08670745 -0.08499364

stacks.0.blocks.0.fc2.bias f4 [50]
000000 9c 16 bc bd f8 76 09 bc e0 98 05 3e 2d b5 9c bd
       -0.09184 -0.008390181 0.13046598 -0.07651744
000010 a3 d9 62 3d e4 e5 1b 3d 49 33 33 3e 81 54 7e bc
       0.055383336 0.038061038 0.17500032 -0.015523077
000020 57 4e e5 3d 8b ca de bb 92 3b c2 3c d0 cc 15 3e
       0.11196583 -0.0067990473 0.023710046 0.14628911
000030 7a 6b 8a bd ca ef 3d bd 8c 8d 06 3c 13 44 aa 3c
       -0.06758781 -0.04637126 0.008212458 0.020784413
000040 76 37 b4 3d 64 30 91 3c 09 24 c8 3d 73 4e 02 3e
       0.08799641 0.01772327 0.09772498 0.12725239
000050 e4 81 31 be 51 a5 2b 3d c6 ea 9e bc 95 71 a2 bb
       -0.17334706 0.041905705 -0.019399058 -0.0049573877
000060 c6 96 1b 3e 37 aa fc ba 5b ab fe 3d cf 22 b3 3d
       0.15194234 -0.0019276802 0.12435027 0.087468736
000070 8b 3d 07 bd 7c 6a 19 be 88 c9 82 bd 4b e8 c0 3d
       -0.033017676 -0.14982027 -0.06386095 0.09419306
000080 11 da 37 3e b4 f3 ac bd 36 0a a9 bd f2 5f 10 3e
       0.1795428 -0.0844492 -0.08253901 0.140991
000090 f4 ef 29 bd 79 d0 c1 3a a4 e8 98 3c d6 80 ae bc
       -0.041488603 0.0014786861 0.01866562 -0.021301668
0000a0 d7 69 16 bd bd f7 a6 be fb 51 08 be 33 92 c3 bd
       -0.03672203 -0.32610884 -0.13312523 -0.0954937
0000b0 a0 d9 fb bd bb 89 94 bd 11 b0 be 3d 90 fa 00 3e
       -0.12297368 -0.072528325 0.09310926 0.12595582
0000c0 98 22 12 3e 7d ff c1 bc
       0.14271009 -0.023681397

stacks.0.blocks.0.fc3.weight f4 [50, 50]
000000 75 b2 da 3d ba 5b 9f 3d f5 08 73 bd 62 31 2c be
       0.10678569 0.07781167 -0.059334714 -0.16815713
000010 7c c5 1f bd 7b 73 a7 3c 72 05 af 3d 66 1a 87 3d
       -0.039006695 0.020440808 0.085459605 0.06596832
000020 a2 9b b2 3c f4 fe 09 3e 0c ee ac 3b 36 3f a2 bd
       0.021802727 0.13476163 0.005277401 -0.07922213
000030 8f 6a 10 be 8f 2a d4 bd 75 45 45 3d 56 02 b4 3d
       -0.14103149 -0.1035968 0.048161943 0.08789508
000040 e5 d9 85 3d 18 c8 d5 bc f9 59 fd 3d 22 53 ac bc
       0.06535701 -0.026096389 0.123706765 -0.021035735
000050 f9 13 e5 bd 44 d6 7b 3d 3f b7 05 3e eb ec 04 3e
       -0.1118545 0.061483636 0.13058184 0.12981002
000060 7f 56 f7 3d 4c 72 99 bc 08 43 a8 bd 36 c1 68 3d
       0.12077045 -0.018731259 -0.0821591 0.056824885
000070 07 52 c9 bd 35 78 d3 bb 9d cd 38 bd 02 52 e2 3d
       -0.098300986 -0.006453539 -0.045117963 0.11050798
000080 2c cc 9a bd bc e8 cb bd 18 8a 5e bc 03 a1 ae bd
       -0.07558474 -0.099565 -0.013582729 -0.08526804
000090 58 02 d8 bd 86 24 3a 3e 59 e7 f1 3d b0 62 21 3d
       -0.10547322 0.18177995 0.11811704 0.039400756
0000a0 a3 d9 73 3c d6 d3 3d 3c 9a 96 21 bd 0f d3 2c 3c
       0.014883432 0.01158615 -0.039450265 0.010548367
0000b0 a2 39 ce 3d c9 96 71 bd b0 93 06 3d 1a 78 b9 bd
       0.10069586 -0.05898169 0.03285569 -0.09056111
0000c0 cc 81 0c be d6 e3 3b 3b ec 6f 08 be 8c 94 ab 3d
       -0.13721389 0.0028669736 -0.13323945 0.083779424
0000d0 23 45 8e bd e7 90 61 3d 7b b2 68 3d 3b 77 97 3d
       -0.069467805 0.05506983 0.056810837 0.07395788
0000e0 c4 3b 0e 3c 2b e9 b2 3d 48 4c a4 3d 89 01 e9 bd
       0.008681241 0.087358795 0.08022362 -0.11377246
0000f0 da eb 63 3d f9 91 29 3d 6c 14 ca bd 86 b9 a3 bd
       0.055644847 0.041398976 -0.098671764 -0.0799437
000100 94 0b bb 3d 1a 37 f4 bd b1 0d 44 bd 1e e0 8a bd
       0.09133068 -0.11924572 -0.04786462 -0.06781028
000110 4f f9 63 bd 19 cf d6 3d 00 34 25 bc b0 56 9f bd
       -0.05565768 0.104887195 -0.010083199 -0.07780206
000120 0a 9f fa bd 21 39 e7 bc d2 82 16 be c4 47 80 bc
       -0.122373655 -0.028225483 -0.14698341 -0.01565922
000130 9f bd 1d 3e c2 d5 cd bd 18 cf dd bd 02 80 22 3d
       0.15404366 -0.10050537 -0.108305156 0.03967286
000140 2b 80 a5 bc 7a e7 28 3d 0b b1 90 3d 57 89 17 be
       -0.020202717 0.04123638 0.07065018 -0.14798485
000150 3b 6c cc bd 69 f3 a4 bb 04 bc 03 be 5b 6f d5 bd
       -0.09981581 -0.0050338996 -0.12864691 -0.1042163
000160 de 2a 1a be 24 3f d9 bd 45 16 d3 bc 79 41 33 3d
       -0.15055415 -0.10607746 -0.025767455 0.04376361
000170 28 fd d6 3d 20 9b 02 3e 30 ff d0 3d 9d 3e 0a be
       0.104975045 0.12754488 0.10204923 -0.13500448
000180 2a fe c6 bd 08 a7 d6 bd 2c 8b 01 be ac a2 b4 3d
       -0.09716447 -0.104810774 -0.12650746 0.0882009
000190 52 90 3d bd 01 14 88 bd 9b 03 be bd c7 cf 11 bd
       -0.046280213 -0.066444404 -0.092780314 -0.035598543
0001a0 31 b4 00 be 9f 88 10 be d7 8a 2d 3d d8 9c e2 bd
       -0.12568738 -0.14114617 0.042368736 -0.11065072
0001b0 fc 60 c5 3c 70 58 f2 3d db 9e 1f bd 33 65 29 bd
       0.024094097 0.11833274 -0.038969856 -0.041356277
0001c0 2b 41 14 be 2a d7 2d 3e 80 fe d2 3d 59 9b 1a 3e
       -0.14477985 0.1697661 0.10302448 0.15098323
0001d0 6f e3 85 3c 77 4c 3a be 97 95 3a 3d 5d 00 7b bc
       0.0163438 -0.18193232 0.045552816 -0.015319911
0001e0 5b 30 2c 3d 1d 34 87 bd 3e aa 9c bd d7 09 79 bd
       0.042038303 -0.06601737 -0.076496586 -0.0608004
0001f0 50 8b 06 3e 31 ba d4 3c d2 5d 26 3d 84 32 a0 bd
       0.13139081 0.02596769 0.040616818 -0.07822135
000200 19 66 17 3d a6 c7 91 3c a4 91 a0 bd 95 9f cb 3c
       0.036962602 0.017795395 -0.07840279 0.024856368
000210 bb 76 af bd 5f 4a f7 bd a3 79 00 bd 63 e0 38 3c
       -0.08567568 -0.12074732 -0.031366 0.011283967
000220 cc b0 14 3d 13 eb fd bc 8a d5 0f 3e 99 7c 28 3d
       0.03630142 -0.030995881 0.14046302 0.04113445
000230 86 9c 93 3d 15 b3 c4 bd 29 ad f7 3b eb 38 cc bd
       0.07207589 -0.0960447 0.007558484 -0.09971794
000240 54 3b 12 be af 89 df 3d 2c 3f ac 3b fa 95 93 bd
       -0.14280444 0.10914933 0.005256554 -0.0720634
000250 d1 df 23 3c cc 73 9d bd a2 b7 3f bd a6 ea 73 3d
       0.010002092 -0.07688102 -0.046805985 0.05954995
000260 04 3c 02 bd 98 3f a7 3d 58 74 c2 3b 67 fd 99 bd
       -0.031795517 0.081664264 0.0059342794 -0.07519036
000270 03 1d 97 bd 48 20 64 bc 66 71 dd 3d 02 c8 82 bd
       -0.073785804 -0.013923712 0.10812645 -0.06385805
000280 b1 ec e2 bd 23 82 8c bd 91 8f a3 bd 95 73 86 bd
       -0.110803016 -0.06860759 -0.079863675 -0.06565014
000290 ef a0 ea 3d 20 34 54 3e 1f fe 03 3e b1 98 23 be
       0.11456477 0.20723009 0.12889908 -0.15976216
0002a0 5b 07 b4 bd b3 4d c6 3b b7 60 ca bd f5 2f 33 3e
       -0.087904654 0.006051743 -0.09881728 0.17498763
0002b0 cd 19 f6 3d 20 a7 0f bd 6f 11 c7 3a a6 c9 63 3d
       0.1201664 -0.035071492 0.0015187691 0.05561223
0002c0 90 75 00 bb 41 c2 06 bd b7 c0 27 bd 3c 48 ee 3c
       -0.0019601323 -0.0329001 -0.04095527 0.029087178
0002d0 41 6b 90 3c 04 88 22 bd 2e 00 24 3e 17 42 b7 bd
       0.017629268 -0.039680496 0.16015694 -0.089481525
0002e0 67 f8 a0 bd bf 99 24 3d cb ea 8b 3c c8 e4 f1 ba
       -0.07859879 0.040185686 0.017079731 -0.0018455023
0002f0 2e 9f 0a 3d 26 c1 52 3c b6 91 86 ba ef 22 3f bd
       0.03384321 0.012863433 -0.0010266814 -0.046664175
000300 ff 32 37 3d 70 32 04 3e ac 8b 8d 3d 6d 67 af 3d
       0.044726368 0.12909865 0.06911406 0.08564649
000310 ae 8d 43 3e f4 6a 53 3c d9 35 60 3d 6f 32 9d bd
       0.19097015 0.012903918 0.054738853 -0.07675635
000320 21 b3 15 3e b9 2b 8a 3d ea a3 e7 3d 50 b1 aa 3d
       0.14619114 0.06746621 0.11310561 0.08334601
000330 57 43 9e bd a7 41 10 bd 77 ef b6 3d 5d ed 8e 3d
       -0.07727688 -0.03521886 0.08932393 0.06978867
000340 0e 18 46 3e 19 fb bd bd 19 af 17 3e ea 76 4f 3d
       0.19345114 -0.09276409 0.14812888 0.050650515
000350 ca 40 b4 3d 96 c0 55 bd 4e a4 68 3d 54 4e 49 3c
       0.0880142 -0.052185617 0.05679732 0.012286741
000360 58 a6 57 bb dc ea 7d bc d4 b5 89 3d fc be 95 3d
       -0.0032905545 -0.015497889 0.06724134 0.07311818
000370 de a4 5c 3d 8d 2c 04 be 1a e5 03 3e 19 fa 09 3e
       0.053868167 -0.1290762 0.12880364 0.13474311
000380 74 ae cd bc cc 3b 29 3e 1e 69 15 3e 02 16 b2 3d
       -0.0251076 0.16526717 0.1459088 0.08695604
000390 98 8d cb bc a3 72 c5 3d 39 da 83 bd 44 4a 91 3c
       -0.02484779 0.09641006 -0.06438107 0.017735608
0003a0 de 0d cf bd 7f 79 02 3e d1 89 0f 3e a9 24 19 3e
       -0.10110067 0.1274166 0.14017417 0.14955391
0003b0 40 29 e7 bd a0 ff 96 bd 36 e4 f1 bd b4 21 5c 3d
       -0.11287165 -0.07372975 -0.11811106 0.05374308
0003c0 8e ee 3f 3d 67 da a5 3d ba 3d b7 3b 2b 1c 99 bd
       0.046858363 0.080982976 0.005592075 -0.07476076
0003d0 9e 90 c5 3d 30 05 2c bd 04 2d ce ba b1 42 3a 3e
       0.09646724 -0.041997135 -0.0015729968 0.18189503
0003e0 bf 07 1b be 53 e9 9a 3d 2a fd 9f bd d0 e7 0f be
       -0.15139674 0.07564034 -0.07811959 -0.14053273
0003f0 d0 85 20 3d 2e 4f 92 bd ee 75 27 be 8d 91 8f bb
       0.039190114 -0.071440086 -0.1635358 -0.0043813647

stacks.0.blocks.0.fc3.bias f4 [50]
000000 ba 8b 08 3e 50 e8 11 be f5 68 da bd 88 e9 3f 3e
       0.13334551 -0.14248776 -0.1066455 0.18741429
000010 cd f7 0f 3e 90 70 7d 3d 26 fe 8c bd 03 de b4 3d
       0.14059372 0.061874926 -0.068844125 0.08831408
000020 60 e9 9e bd d1 4c d4 3b f9 57 1f 3e 75 6a 1d 3e
       -0.077593565 0.006478884 0.15560903 0.15372641
000030 2c df 10 bd f1 bd 27 be 30 09 3b bd b1 19 18 ba
       -0.035369083 -0.1638105 -0.04566306 -0.0005802168
000040 0c d3 39 3e 95 e0 f3 bc 42 25 ac 3d ac da e6 bd
       0.18146914 -0.029770175 0.08405544 -0.11272177
000050 a7 84 29 3e 25 3a 05 3d 7d 46 27 3d 1a c2 bf bd
       0.16554509 0.032526154 0.040838707 -0.09363194
000060 22 21 96 bc c1 82 0d 3c b4 ee 69 3a 4b a8 ac 3d
       -0.018326346 0.008637131 0.0008923814 0.08430537
000070 53 fb c4 3d 5b 62 c0 3d 55 f1 98 3c 63 24 10 3d
       0.09618249 0.0939376 0.018669764 0.03519095
000080 28 7a 2f be 05 de 91 bd 15 74 6e 3d 38 0a c2 bd
       -0.17136443 -0.07122425 0.058216173 -0.09474605
000090 e0 c9 33 bd f0 59 37 bd cc 60 32 3e a8 30 6f bd
       -0.043893695 -0.044763505 0.17419738 -0.05839601
0000a0 a8 03 98 bb c1 c9 c1 bd ec 2c 3f 3e 20 0b da 3c
       -0.0046391077 -0.0946231 0.1866948 0.026616633
0000b0 21 d6 4a bd b9 8a f9 bd ec 0d 04 3e b3 7d 0c 3d
       -0.049520615 -0.12184662 0.12895936 0.034299564
0000c0 c4 7f b4 3d fd 92 01 bd
       0.08813432 -0.03163432

stacks.0.blocks.0.fc4.weight f4 [50, 50]
000000 24 be ef bd 7e 7c 5a 3e 6d e2 f4 3c 65 b3 8f bc
       -0.11706188 0.21336553 0.029893124 -0.017541597
000010 d0 da 09 3e 90 bf 40 3c b0 e8 10 3d f8 82 e7 bd
       0.13462377 0.011764422 0.035378158 -0.11304277
000020 94 f0 f8 3d f9 f5 6e bd 20 ac 9d 3d 10 40 44 bd
       0.12155262 -0.058340047 0.07698846 -0.047912657
000030 3f b5 e9 bd 60 11 2f 3d a8 ca e5 3c b9 cc 0b 3d
       -0.11411523 0.04274118 0.028050736 0.034130786
000040 93 af 3d bd d0 43 ce bd 2e 18 c4 bd 03 09 e2 3b
       -0.04631002 -0.10071528 -0.095749244 0.006898047
000050 e0 0d 60 bd 04 c5 8e 3d 54 4e b6 3c 52 3c ff 3d
       -0.054700732 0.069711715 0.022254147 0.12462677
000060 8b c0 ce bd c6 a8 e6 bd b3 a7 97 3d 4b 4f d1 3c
       -0.100953184 -0.1126266 0.07405033 0.025550505
000070 a5 fc 0f be bc 34 17 3d 4e e4 79 3d 65 d0 bd bc
       -0.1406122 0.036915526 0.061008744 -0.02317066
000080 ef 84 be bc 74 90 29 3e 72 92 1e 3e 9c d9 01 3d
       -0.023256747 0.1655901 0.15485552 0.03170167
000090 ab 23 f2 3d da d5 f8 3c c2 e4 5b 3d 22 ab 6d bd
       0.118232094 0.03037541 0.053684957 -0.058024533
0000a0 64 49 86 bd 8f e8 c5 3d 4a ad 06 bd 92 35 00 3e
       -0.06556967 0.09663498 -0.032880105 0.12520435
0000b0 9c 03 3c bd 86 6a 8d bd ed 1b cc bd 78 16 c2 bd
       -0.04590188 -0.06905083 -0.09966264 -0.09476942
0000c0 58 da 5d bd 31 d9 81 3d 0f 55 80 3c ae 5b 61 3d
       -0.054163307 0.06340254 0.01566556 0.055019073
0000d0 db d4 28 bd f9 8d 34 3e 73 8f a9 3c 5d 2a 90 bd
       -0.04121862 0.17632283 0.020698285 -0.0703933
0000e0 64 29 1a be 55 98 c3 bd f1 33 d8 bc e8 9c 68 bd
       -0.15054852 -0.095505394 -0.026391955 -0.056790262
0000f0 8e 52 51 bd a9 cb c5 bc c9 e4 f6 3d 53 7e 4b 3e
       -0.05110412 -0.024144964 0.12055356 0.19872408
000100 dd 5b ee bd 3b ae 00 3d c5 0f 39 3c 43 f9 01 3e
       -0.11638615 0.03141616 0.011295264 0.12692742
000110 c1 42 2e 3d c9 1e 40 3c 4c 68 92 bc f3 14 d9 3b
       0.04254413 0.01172609 -0.017871998 0.006624812
000120 1f 05 3e 3c df a3 0d be 38 a8 0b 3e 10 8b d5 3d
       0.011597901 -0.13832043 0.13638389 0.10426915
000130 ea ba 06 3e 38 77 be 3c db 5b c0 bc b1 d1 a0 bd
       0.1315724 0.023250207 -0.0234813 -0.078524955
000140 2c ed 1c bd 50 07 31 be cc ca 12 3e 4c 7b 10 bd
       -0.038312122 -0.17287946 0.14335173 -0.035273835
000150 e1 5c a4 3d 51 31 c0 3d 3b 9d 34 be 63 94 09 be
       0.08025528 0.09384406 -0.17638104 -0.13435511
000160 e3 b3 fc bd 13 25 46 3e 4f e4 5c 3e 49 e5 ea 3c
       -0.12338998 0.1935008 0.21571468 0.028673785
000170 34 1d 04 3e 0d 54 0b 3e 54 88 01 be f9 13 42 3e
       0.12901765 0.13606282 -0.12649661 0.18952931
000180 c7 87 e6 3d 30 32 e1 3d de 00 d4 bd 67 d3 7c 3d
       0.11256366 0.10995901 -0.10351728 0.061725046
000190 c0 c9 35 bc ab be 84 bd 36 a1 40 3d ec 3f 07 3d
       -0.011095464 -0.064816795 0.047028743 0.033019945
0001a0 48 7d 0b 3d aa d0 dc bd 7d ad 3f 3d a9 17 e9 bb
       0.034055024 -0.10781987 0.04679631 -0.007113416
0001b0 7c 83 f3 bd ce bb da bd 6e 62 0c be f0 f5 ed 3c
       -0.11890313 -0.10680352 -0.13709423 0.029047936
0001c0 3c c9 5b 3d a2 8c 5d bd b4 2f f4 bc b3 e4 69 bd
       0.05365871 -0.054089196 -0.029807903 -0.05710287
0001d0 ef e8 08 be 64 c4 d8 bd 96 65 a9 bd 80 21 4f 3d
       -0.13370107 -0.105843335 -0.08271329 0.050569057
0001e0 66 86 e3 3d 20 54 50 3d 10 97 2c 3c 9c 98 78 3d
       0.11109619 0.050861478 0.010534063 0.060692415
0001f0 35 b5 c8 bd c0 7f 3a 3b a0 64 80 3c 0b d3 a5 bd
       -0.098001875 0.0028457493 0.015672982 -0.08096894
000200 dd fa df bd 7a 48 54 3d 12 58 f8 3d a2 0f d9 3c
       -0.1093652 0.05182693 0.12126173 0.026496712
000210 11 6a 06 3e e0 16 89 3c 70 e4 c3 bd df 72 02 be
       0.13126399 0.01673454 -0.09565055 -0.12739132
000220 51 a4 31 bd 6e 45 c4 3d 76 c7 e5 3d 0c fd 10 3d
       -0.043369595 0.09583555 0.11219685 0.035397574
000230 94 b6 01 be 0e 67 10 be 7e 4a 98 bd 43 c1 ea bd
       -0.12667304 -0.14101812 -0.07436083 -0.11462643
000240 70 e5 0f be ca 3d bc 3d 43 19 0d 3e de 2b 5d bd
       -0.14052367 0.09191473 0.13779168 -0.053996913
000250 60 e7 b6 3d 96 68 fa bb cc 20 8d 3c bb e0 14 bd
       0.0893085 -0.007641862 0.017227553 -0.036347132
000260 08 e9 0a 3e 30 f0 98 bd 88 96 63 3d 0e 72 93 bd
       0.13565457 -0.07467687 0.05556348 -0.071994886
000270 5c 72 92 3d 2d b1 2b 3e 50 8e ce 3c 77 69 c3 bd
       0.071507186 0.16766806 0.025214344 -0.095416
000280 78 eb 32 bd 9a b6 40 ba 19 62 07 be 76 e5 ca bd
       -0.04368159 -0.00073514285 -0.13221015 -0.099070475
000290 78 17 17 3d ad 9f 9d 3d d2 56 e2 3d 7d f0 2b bd
       0.036887616 0.07696471 0.11051716 -0.041977394
0002a0 cc 62 f5 3d c8 ed 05 bd f8 95 11 bd c3 28 24 be
       0.11981735 -0.03269747 -0.035543412 -0.16031174
0002b0 eb eb 35 3c 11 4f 47 3d 3e 7c 89 bd 08 0c a3 3d
       0.0111036105 0.048659388 -0.067131504 0.07961279
0002c0 0a c4 b2 bd d7 8c 2c 3e 92 6e a1 3d 90 34 26 3e
       -0.08728798 0.16850601 0.07882418 0.16230989
0002d0 6b b0 97 3c bf 4f 14 3e fd a7 bf bd 2d d0 5d bd
       0.01851674 0.14483546 -0.09358213 -0.05415361
0002e0 99 d1 80 bd 64 b8 bf bc 82 92 54 3b 45 c0 82 3c
       -0.062899776 -0.023403354 0.0032435958 0.015960822
0002f0 43 0f d7 3c c3 0c 24 bd 94 c7 2d 3d 00 0f 26 bd
       0.026252395 -0.040051233 0.04242666 -0.04054165
000300 5e 03 0a be 10 01 de 3d b7 2c 0c be f2 cf ea bc
       -0.13477847 0.108400464 -0.13688932 -0.02866361
000310 61 78 f6 3d fd 6a 0f 3e cb ed 1c 3e 00 de ef 3c
       0.12034679 0.14005657 0.15325086 0.029280663
000320 e1 13 80 bd a8 7a 02 be 30 b9 ed 3c 11 28 9b bd
       -0.062537916 -0.12742102 0.029018968 -0.075760014
000330 cf 43 89 bd 21 f5 91 3d 34 be d1 bd d8 dc b8 3d
       -0.067023866 0.07126833 -0.102413565 0.090264976
000340 28 e0 79 3c 70 6d cc bc 90 bd 62 3d b0 33 5c bd
       0.015251197 -0.024954528 0.055356562 -0.05376023
000350 84 6f 0f 3d f9 0e 10 be 22 21 73 bd 27 45 b7 bc
       0.03501846 -0.14068212 -0.05935777 -0.022371842
000360 44 8b 0a bd 45 fd 8f 3d 71 f4 b4 bb 60 9c f6 bb
       -0.03382422 0.07030729 -0.0055223037 -0.0075259656
000370 76 5c bd bc b3 3c b8 3d f7 07 b5 bd aa 05 03 be
       -0.023115378 0.089959525 -0.0883941 -0.1279513
000380 2d 98 bb 3d 89 ac c2 bd 1b 74 0f 3d 74 90 c2 bd
       0.091598846 -0.09505565 0.035022836 -0.095002085
000390 f4 c3 04 bd 71 54 00 3e ed 71 61 bd 6c 9f 75 bd
       -0.032413438 0.12532212 -0.05504029 -0.05996649
0003a0 f0 e2 5b 3d bb 2c cb 3d d0 e3 40 3d 00 e9 f1 bd
       0.05368322 0.09920641 0.04709226 -0.11812019
0003b0 99 b2 cb bd e3 7f 5d bd e1 d0 0a be 89 8c ad 3d
       -0.09946174 -0.05407704 -0.13556243 0.084740706
0003c0 44 63 7c 3b 4b eb 9d bd 10 35 9c 3d 5c 11 8d bd
       0.0038511315 -0.07710894 0.07627308 -0.06888077
0003d0 e0 51 95 3c f5 96 0f 3d 82 37 41 bc b0 2d d5 3b
       0.018227518 0.035056073 -0.011793019 0.0065056905
0003e0 e4 ed 3a 3c 30 a2 d1 bc ee 32 85 3d 9c f2 ca 3d
       0.011409257 -0.025590032 0.06503855 0.09909555
0003f0 64 c2 3c 3d 29 68 b7 3c 70 21 3a 3e f2 d6 f3 bd
       0.046083823 0.022388535 0.18176818 -0.11906232

stacks.0.blocks.0.fc4.bias f4 [50]
000000 d9 d5 fe 3c 3d 55 aa 3d c8 d9 cf bc 74 4e 98 bd
       0.03110783 0.08317039 -0.0253724 -0.07436839
000010 67 e2 a3 bd ff 30 e0 bc 56 16 fe bc 52 64 8c bb
       -0.08002167 -0.027367113 -0.03101651 -0.00428442
000020 b9 d8 11 3e 88 e7 db 3d fe d3 ee 3d 60 89 a3 3d
       0.1424283 0.107375205 0.11661528 0.079851866
000030 a0 0d dd bd dd ed d0 bd 30 7b 57 3d 78 52 ff bd
       -0.107936144 -0.10201619 0.052607715 -0.124669015
000040 af 87 27 bc 98 63 b8 3c 0b 72 97 3d c2 e1 86 bd
       -0.010225221 0.022508428 0.07394799 -0.06586029
000050 b8 fd 65 3c 4d c6 10 be 5f 32 97 bc 88 20 99 bb
       0.014037542 -0.14138146 -0.018456636 -0.0046730675
000060 07 0e e8 be 92 fe 99 3d 19 a0 67 bd b6 1e 4d 3d
       -0.45323202 0.075192586 -0.056549165 0.050078116
000070 15 47 f5 3b 42 b2 30 be 50 cb 4b bc 05 ec 41 3d
       0.0074852803 -0.172555 -0.01243861 0.047344226
000080 ec ae 71 bd 15 d8 aa 3d c2 bf 43 3c b4 aa 07 bd
       -0.05900471 0.083419956 0.011947574 -0.03312178
000090 14 3f c8 bc 60 f5 c4 3d 87 2f 8b 3d 3a 5a a0 bc
       -0.02444414 0.09617114 0.067961745 -0.019574273
0000a0 4e 1e 0b 3d 6e f0 d2 bd 47 0a e2 3c 5b 88 89 3c
       0.033964448 -0.102997646 0.027592791 0.016788652
0000b0 ad 37 4e bd fd 96 a5 3b b1 5d 43 bd b1 0b 8f 3d
       -0.050346065 0.0050533996 -0.047696773 0.06984652
0000c0 50 16 bf bb 18 b3 2f 3b
       -0.0058315173 0.002680963

stacks.0.blocks.0.theta_layer.weight f4 [36, 50]
000000 47 27 c6 3c 5d 3e 11 3e 62 8e 62 3d f7 a3 2e bd
       0.02418865 0.14183946 0.055311568 -0.042636838
000010 82 75 15 3e 79 0c d6 bc a4 14 a6 3d 9a 40 70 bd
       0.14595607 -0.026128994 0.08109406 -0.05865536
000020 70 d0 f9 3d 82 e8 cb bd e7 00 bd bd 8a be 72 bd
       0.121979594 -0.09956457 -0.09228688 -0.059263743
000030 52 36 fe 3d 56 ad e6 bd c1 99 0a bc 52 b5 36 bd
       0.124127045 -0.1126353 -0.008459509 -0.044606514
000040 48 05 dc 3d 6e c8 d8 3d c2 a9 1a bd 7b 7e 05 3e
       0.10743195 0.10585104 -0.03775955 0.1303653
000050 f9 ab b3 3c 9f 84 b0 3d 41 2b d4 3d 8f f4 98 bd
       0.021932589 0.086190455 0.103598125 -0.07468521
000060 8c d9 88 bc 93 f4 82 bd 85 1b 95 bc 4a 6e a1 3d
       -0.016705297 -0.06394305 -0.018201599 0.07882364
000070 f6 5c 95 bd 2c e9 77 bd c8 9e a4 bd cc 27 4f 3d
       -0.072931215 -0.060525104 -0.080380976 0.050575063
000080 3c cb de 3b 24 70 22 3c 4d 86 e0 3c c5 ba 66 3d
       0.00679913 0.009914432 0.02740779 0.05633046
000090 a5 f9 d3 3b c8 5f 5f bd b9 64 97 3c 1f ce ce bd
       0.006468969 -0.054534703 0.018480645 -0.10097908
0000a0 32 e8 e1 3c 57 1c 39 3e c2 8d 9c 3d 68 e9 08 be
       0.02757654 0.18077217 0.07644226 -0.13370287
0000b0 19 70 07 3e 33 ff 99 bd b1 3c 65 bd 85 28 5a bb
       0.13226356 -0.075193785 -0.055966083 -0.0033288312
0000c0 32 19 9d bd 0f 98 05 bd e9 e5 30 3d dd d5 58 3b
       -0.07670821 -0.032615718 0.04318801 0.0033086457
0000d0 3f a5 10 3e bf 42 85 3d 83 5b d8 3c e3 d8 27 be
       0.14125536 0.065068714 0.026410824 -0.1639133
0000e0 18 e2 30 3e 57 36 21 be 7d 3c ca bd d2 8a 40 bd
       0.17273748 -0.15743385 -0.098748185 -0.04700739
0000f0 88 4f 9e bd 48 ec 07 3d da aa 5a bd cd 0f 94 3d
       -0.07730013 0.03318432 -0.053385593 0.07229576
000100 20 fa da bd 1b 08 05 be bd d2 43 bd 0c 04 83 bd
       -0.10692239 -0.12991373 -0.047808398 -0.06397256
000110 4e 65 fc bd ac 34 c8 3d 7e a2 66 3d 9e 20 e4 3d
       -0.1232401 0.09775671 0.05630731 0.11139034
000120 36 c1 73 3d ea 2c af bd ed 46 25 3e 4e ed f2 3c
       0.059510432 -0.085534886 0.16140337 0.029654171
000130 9e 82 9c bd 19 cf 32 be fd cc 07 3d 7f 51 2b bd
       -0.07642101 -0.17461814 0.033154476 -0.041825768
000140 10 4d 04 be f8 c8 57 3d 77 24 15 be e8 e3 4b 3d
       -0.12920022 0.052681893 -0.14564691 0.049777895
000150 2c 61 94 3c e8 23 51 3d 53 b3 1e be d5 08 b7 3d
       0.018112741 0.051059633 -0.15498094 0.089372315
000160 06 db 2e be 83 9a 8e 3d 1a 96 34 bd c8 61 9c bd
       -0.17075738 0.069630645 -0.04408846 -0.07635838
000170 14 45 cd 3d fe fb 22 bd eb e0 ec 3c 1d 2f bb 3d
       0.10022941 -0.0397911 0.028915843 0.091398455
000180 26 ac 13 be f3 90 dd bd c7 75 ba 3d f2 3f e3 bd
       -0.14421138 -0.108186625 0.091044955 -0.11096181
000190 4c 18 84 bd 08 19 39 3d 33 23 11 bc 7f 49 2e 3d
       -0.06449947 0.045189887 -0.00885849 0.04255056
0001a0 ed 9a 2d 3d 3e e4 41 3c f2 62 29 bd b6 0a db bc
       0.042384077 0.011834202 -0.041354127 -0.026738506
0001b0 c7 0b 0d be 1a df eb 3c 07 87 61 3d 40 09 3e 3b
       -0.13774024 0.028792907 0.055060413 0.0028997213
0001c0 0a 0b cb 3d e6 2e 68 3c bf 58 27 bc d1 b8 58 3d
       0.09914215 0.014171338 -0.01021403 0.05291063
0001d0 39 88 13 bd dd 0e e4 3d 89 05 38 3d d7 1a 07 be
       -0.036018584 0.111356474 0.044927154 -0.13193832
0001e0 64 da 74 3d 61 b1 82 bd 0a d7 eb 3d 8c 50 8b bc
       0.059778586 -0.063814886 0.11515625 -0.017006181
0001f0 d9 0d 6b 3e 82 ae dd 3d f7 e8 f3 bd 06 9f 12 bd
       0.22954501 0.108243 -0.11909669 -0.035796188
000200 e4 f9 c5 bd 73 c2 dd bd 36 ab fb bd 15 c9 27 3e
       -0.096668035 -0.10828104 -0.12288515 0.163853
000210 11 f7 45 3d 68 c2 02 be ba f2 d3 3d 28 9f 94 bd
       0.048331324 -0.12769473 0.10349031 -0.07256919
000220 c7 cf 16 be 1b c6 a6 3c a8 d4 23 bb a7 f8 18 bc
       -0.14727698 0.020358136 -0.002499858 -0.009336627
000230 22 04 81 bd 0d 6f 8b 3e ef 4b 16 be 26 51 b4 3c
       -0.062996164 0.27233163 -0.14677404 0.02201135
000240 c7 46 c2 3b ca 11 f4 3d 4a 2a 32 3d 25 3d 58 3d
       0.0059288475 0.119174555 0.04349736 0.052792687
000250 8b a1 05 3e ba 88 6a 3c 3d 6a 6c bd ca 4c be 3c
       0.13049905 0.014314825 -0.057718504 0.023229975
000260 0a be ea 3d 24 8a c5 3d 4c 96 8c 3b cc f9 b3 bd
       0.11462028 0.09645489 0.0042903777 -0.08787879
000270 c2 cf 6b 3d 97 cb bc 3d 20 72 26 bd 66 de 0c 3e
       0.05757118 0.09218519 -0.04063618 0.13756713
000280 03 4e 70 bd 4c 58 cc bd 90 68 13 3c e9 2d af 3d
       -0.058668148 -0.09977779 0.008997098 0.085536785
000290 f7 d8 17 3d a0 1c 14 3e 7c 0c 8d bd fd 90 44 bd
       0.03707215 0.14464045 -0.06887147 -0.047989834
0002a0 0f ac 8c 3d fe 4c d3 bd bc 0b 11 be cf d7 79 3d
       0.06868755 -0.103174195 -0.14164633 0.060996827
0002b0 42 cf e8 bd 93 a3 1b 3d 1b a4 c6 bc 46 2d 04 3d
       -0.11367656 0.037997793 -0.024248173 0.03226974
0002c0 52 79 ac 3c 0f ba 0e 3d 67 b8 d9 3d 87 71 b0 bd
       0.021053944 0.034845408 0.10630875 -0.086154036
0002d0 66 07 7f 3c 19 f0 2d 3e 7b 81 c6 bd 92 27 5d bd
       0.015565729 0.16986121 -0.09692665 -0.053992815
0002e0 1f e0 9a 3d 8a 15 f8 3c 62 89 0e 3c 01 7a 9e bc
       0.07562279 0.030283708 0.008699747 -0.019345285
0002f0 a7 d1 f5 bc 05 ed c7 bd 15 5a ab 3d 58 4d e6 3d
       -0.030007197 -0.09762005 0.08366791 0.11245221
000300 a7 b3 e5 bd 2d d7 87 3d 89 b3 dc 3d 42 59 aa 3d
       -0.112159066 0.066328384 0.10776431 0.08317806
000310 34 70 11 bd e3 10 08 be 66 b0 e3 3c 65 ed 4c bc
       -0.035507396 -0.13287692 0.027794074 -0.012507771
000320 80 40 1c 3d 58 1f ba 3c 90 a5 01 be e0 18 04 3d
       0.03814745 0.022720024 -0.12660813 0.032250285
000330 49 af eb 3d 85 a6 d3 3d a5 ce 09 be b0 c8 c6 3d
       0.11508042 0.103344955 -0.13457735 0.09706247
000340 bb ab a9 bd d8 ce d0 3d ff 8a b9 bd 66 af 3a be
       -0.08284708 0.10195702 -0.090597145 -0.18230972
000350 0c 45 fb bc 73 25 10 be 56 c0 26 be 68 7d 4f bd
       -0.030672573 -0.14076786 -0.16284308 -0.050656706
000360 ff a6 3f be 07 ee 25 be c3 b3 18 be 00 d2 c9 3c
       -0.18716048 -0.16204081 -0.14912324 0.024636269
000370 4f 3e 86 3d df 4b 44 bd 7d 6c 51 3d 98 4d c0 bd
       0.06554853 -0.04792392 0.051128853 -0.093898
000380 93 11 f9 3c b2 38 97 bd 8f 97 82 bd d4 05 e3 3d
       0.030403888 -0.07383861 -0.06376564 0.11085096
000390 e1 dc 12 be df 84 ea 3d f1 f0 09 be bd de 46 3d
       -0.14342071 0.114511244 -0.13470818 0.048552264
0003a0 2c 46 fb ba 52 b0 38 be 26 04 2a 3b 78 77 ba 3d
       -0.0019170693 -0.18036011 0.0025942414 0.09104818
0003b0 c3 82 fb bd 77 7d 15 be 8e 6c b7 bb 21 7a 23 be
       -0.122808 -0.14598642 -0.0055976575 -0.15964557
0003c0 33 0f d4 bd 17 48 e9 3d 71 ac 2a be ab 1d cc bd
       -0.103544615 0.11390703 -0.16667344 -0.09966596
0003d0 c6 e5 ab 3d 79 cd 1e be 05 37 78 bd 7c b5 89 bd
       0.08393435 -0.15508069 -0.060599346 -0.067240685
0003e0 db fa f2 3d 63 1f 13 bc a7 e8 f7 3d d7 71 fd bb
       0.11864253 -0.008979651 0.12104922 -0.007734518
0003f0 dc 2e 80 bd f4 f1 08 be 71 04 10 3d 46 85 96 bd
       -0.06258938 -0.13373548 0.035160486 -0.07349639

stacks.0.blocks.0.theta_layer.bias f4 [36]
000000 20 4e 80 3d 49 56 92 bd 86 60 a8 3d 0c 7c 5b 3d
       0.06264901 -0.07145364 0.082215354 0.053585097
000010 ba 4a 10 be 86 10 8a 3d 9f 6e cc bd 8f 26 1a 3d
       -0.14091006 0.06741433 -0.09982037 0.03763443
000020 dc 3c 1e 3e 4a d4 4d 3d 48 0b 0b 3e 1c ad c1 bd
       0.15452904 0.050251283 0.13578522 -0.09456846
000030 c2 c8 6c 3d 82 81 91 bd 92 4f 12 3d f1 2c a4 bd
       0.057808645 -0.0710478 0.035720415 -0.080163844
000040 37 61 ff 3c ef 4e 3d be 99 4a aa bd 95 85 b9 3b
       0.031174285 -0.18487142 -0.083150096 0.005661676
000050 97 66 0b 3c 71 81 e8 3d 66 56 90 3d a5 e5 94 3d
       0.008508346 0.11352814 0.07047729 0.07270364
000060 69 5c c1 bc 45 83 03 be 69 d7 cd bc ba 21 08 be
       -0.023603635 -0.12843044 -0.02512713 -0.13294116
000070 b2 ad d1 bd 2e 4d b2 bc da 01 70 bb 87 ef 85 bc
       -0.10238208 -0.021765318 -0.0036622197 -0.016349567
000080 6e 86 ea 3d 73 5f ba bc 31 b8 ca bb d1 ad aa 39
       0.11451422 -0.022750592 -0.006186508 0.0003255443

stacks.0.blocks.1.fc1.weight f4 [50, 35]
000000 a3 cb f5 3d 34 ec 0b 3d ad 6b 43 bd 91 83 e0 3d
       0.12001731 0.034160808 -0.04771011 0.10962594
000010 ab f8 87 3d c0 2c 29 be 2e 47 82 3d f1 bc b2 bd
       0.066392265 -0.16520977 0.06361233 -0.08727444
000020 83 37 cb bd 26 0b bc bd 30 0c b4 bd 93 b6 0d be
       -0.099226974 -0.09181814 -0.08791387 -0.13839178
000030 dc d7 b7 bc 23 ae 23 3e 4f 82 ef bc 75 80 45 3d
       -0.022441797 0.15984397 -0.02923694 0.04821821
000040 2a 05 fc 3d ca 9e 9d bd 73 d5 33 be 03 6c 1a 3e
       0.123056725 -0.07696302 -0.17561893 0.15080266
000050 68 3f b9 3a ad 07 b6 bd 5c 86 74 bd 09 83 81 bd
       0.0014133276 -0.08888183 -0.059698448 -0.06323821
000060 e6 8e ef bd b9 f5 d1 bd 25 ff 5c be 6d 25 e8 3d
       -0.116971776 -0.10251946 -0.21581705 0.113352634
000070 8d 4d 24 3d 9e 4d 95 3d 31 ee 92 3d 70 cd 05 3e
       0.04011302 0.07290195 0.07174338 0.1306665
000080 83 a0 ea 3d 88 7c 40 3e 5a 4e 2d 3c 61 48 9d bb
       0.114563964 0.18797505 0.0105777625 -0.004799888
000090 b8 1b c1 3b 14 e2 21 be 77 0a 0e be 28 f5 b3 3d
       0.005893197 -0.15808898 -0.1387118 0.08786994
0000a0 c7 7c 38 be f5 65 c8 3d bb 7e 2c 3c f6 aa 15 3e
       -0.18016349 0.09785072 0.010528262 0.14615998
0000b0 59 16 ea 3c 48 ec c5 3d 30 09 d7 3d 0e e8 d2 3d
       0.02857511 0.09664208 0.10499799 0.10298167
0000c0 e4 9b 8f bc a5 64 95 3d fe 30 60 bd 8b 05 d3 bd
       -0.01753039 0.07294587 -0.054734223 -0.103037916
0000d0 22 93 20 be 76 c5 b3 bd 1f eb 25 3e 02 09 1a bd
       -0.15681127 -0.08777897 0.16202973 -0.037606247
0000e0 17 19 1f 3e eb 2f 54 bc b4 81 2d bc ef f0 08 3c
       0.15536915 -0.012950878 -0.010590006 0.008358224
0000f0 e5 b4 55 3c f3 4b be bd a8 94 17 be 52 bf a9 bd
       0.013043617 -0.0929183 -0.14802802 -0.082884446
000100 eb 37 5d ba e1 ce ac bd fe 65 07 3e 80 3c 30 3e
       -0.00084388134 -0.084378965 0.132225 0.17210579
000110 76 ba 5a 3d bc 2f 9e 3d fb 62 15 be bc fb e2 bd
       0.05340048 0.07723948 -0.1458854 -0.11083171
000120 22 d6 2f 3d 74 d2 3f bd 60 3a 1b 3e 49 ae 83 bb
       0.042928822 -0.046831563 0.15158987 -0.004018579
000130 d1 7f 6d bc 2d 96 51 bb a4 17 01 3e 80 b7 49 bd
       -0.014495806 -0.003198038 0.12606674 -0.049247265
000140 c6 ac 46 3d 2c d7 03 be 77 3d 00 3d 18 40 22 bd
       0.048504613 -0.1287505 0.031308617 -0.039611906
000150 fc 95 1c be c9 90 1c be 2e b6 08 3e 9c 3e a7 bd
       -0.1529159 -0.15289606 0.13350746 -0.08166239
000160 74 6c f5 3d d9 f1 16 be c7 0f e3 bc 07 c2 16 be
       0.119835764 -0.14740695 -0.027717484 -0.14722453
000170 6d b7 52 bd 40 78 cc bd d5 ad 1c bd 65 8a dc 3d
       -0.05144446 -0.09983873 -0.038251717 0.10768584
000180 a1 4d b4 3d 10 3d d7 3d 9c 21 cc bd 0e 7a a0 3d
       0.08803869 0.105096936 -0.09967348 0.0783578
000190 47 ac 82 3d 32 43 88 3e 79 3c bb 3d 2c cd b3 bd
       0.063805155 0.26613766 0.091423936 -0.08779368
0001a0 ea 4a 18 3e 4b 92 89 bb 6c c4 06 be 6f a4 b0 3c
       0.14872327 -0.0041983477 -0.13160866 0.021562783
0001b0 20 d8 c0 3d 27 22 ed bd 2d 13 ae bd d8 d5 58 3d
       0.094162226 -0.1157878 -0.08499751 0.052938312
0001c0 37 42 9d 3d ef ca d8 bd cf e8 ba bd a3 13 8c ba
       0.07678645 -0.105855815 -0.09126436 -0.0010687005
0001d0 44 32 51 3c 3c 7a 31 3e b6 c1 0a 3e db 62 8a 3d
       0.012768332 0.17331785 0.13550457 0.067571364
0001e0 7d be 0d 3e 40 c1 1b 3d 3c 88 18 be d8 2a 0e 3d
       0.13842197 0.038026094 -0.1489572 0.034708828
0001f0 93 c1 45 3d ca fc 8d 3d cd bf 13 be 06 18 dd bd
       0.04828031 0.06932981 -0.14428635 -0.10795598
000200 b7 d1 00 bd 84 70 3a 3c 43 1a d1 3d cd f8 1e 3d
       -0.03145 0.011379365 0.10210087 0.038811494
000210 69 a6 ce bd 8c 34 1c be 46 34 cd 3d c7 fe be bd
       -0.10090334 -0.1525442 0.10019736 -0.09325939
000220 64 94 87 be 35 93 05 bd 89 ba b3 3c 39 ea de 3c
       -0.264804 -0.03261109 0.021939533 0.027211295
000230 ab 0e b0 3d ba 34 de bd d6 d3 91 bc 84 63 f1 bd
       0.08596548 -0.108499005 -0.017801207 -0.11786559
000240 30 48 c0 3c cf 19 24 be 8a e7 4b bc 7c 3e 7f 3d
       0.023471922 -0.1602547 -0.01244534 0.06231545
000250 4e 66 d3 bb c8 1c a2 3c 9c f2 51 3c 4b c4 b4 bd
       -0.0064514047 0.019789115 0.01281419 -0.088265024
000260 7c f7 03 3e 9e e2 82 3d cc 33 e7 3d c9 3a b7 3c
       0.12887377 0.0639088 0.11289176 0.022366898
000270 33 19 c3 3d db 30 97 3d 74 61 66 bd 62 68 09 3e
       0.09526291 0.07382365 -0.056245282 0.13418725
000280 7e 78 01 be 24 fd 44 bb 43 37 4a be b3 7e 82 bc
       -0.1264362 -0.003005811 -0.19747643 -0.015929556
000290 c0 21 da bd a3 6a 7f bd 9b e3 84 3d c4 13 84 bd
       -0.106509686 -0.062357556 0.06488725 -0.064490825
0002a0 17 c7 c9 3d 0a 92 87 3d b8 37 2f bd fd 10 0d 3e
       0.098524265 0.066196516 -0.042777747 0.13776012
0002b0 0e 41 bd bd af 7b 50 bd cc f5 97 3d d0 d0 e9 bd
       -0.09240924 -0.050899204 0.07419929 -0.11416781
0002c0 4d 75 4f bd 96 f4 ba bc fd ef c6 bd b9 d3 10 3e
       -0.050648976 -0.022821706 -0.09713743 0.14143266
0002d0 03 7e f3 bd d1 18 ff 3d f4 9f f7 3d e4 46 f6 bd
       -0.11889269 0.12455905 0.120910555 -0.1202524
0002e0 f1 00 1f bd 9d 59 50 3b 8c c0 19 be 59 fe eb bd
       -0.038819257 0.0031791695 -0.15014857 -0.11523122
0002f0 58 47 18 3e 4a f2 85 3d 62 c2 a5 bd 21 16 38 3d
       0.14870965 0.065403536 -0.08093716 0.04494298
000300 d7 db 68 bd 61 1c 50 3d f0 1d 40 3d 1b 60 a2 bd
       -0.05685028 0.050808314 0.04690355 -0.07928487
000310 38 0d 58 3b 96 68 4b 3d 23 5f 0a be f9 f7 1c bd
       0.0032966863 0.049660288 -0.13512854 -0.038322423
000320 0f bb b6 3d ae a6 e2 3d 80 66 25 be 30 da 3b bb
       0.08922397 0.11066948 -0.16152382 -0.0028663985
000330 2c 3a f9 3d d0 a6 c7 bd f1 48 cc 3d be 3b 37 be
       0.121692985 -0.09748614 0.0997485 -0.17893884
000340 24 84 15 3e 69 ed da bd 2f d0 00 3e 54 30 3f 3d
       0.14601189 -0.10689814 0.12579416 0.04667695
000350 3e a1 c0 bd 89 cb 08 be d6 9e e2 3d a3 13 1d bd
       -0.094057545 -0.13358893 0.11065452 -0.038348805
000360 10 30 3e be f8 cf 41 bd 62 ae d4 bd 30 2e 0c be
       -0.18573022 -0.047317475 -0.103848234 -0.13689494
000370 ea d1 00 be 5b 6e 54 3d 2f 17 0f be 7c f9 ae 3d
       -0.12580076 0.051863056 -0.13973688 0.08543679
000380 b0 b6 d5 3d f9 5f 0f 3d 04 3d 67 3d 36 54 ad 3d
       0.104352355 0.035003636 0.056454673 0.084633276
000390 f7 d6 35 be ec 6d 86 bd f2 16 00 be 23 a0 2d 3d
       -0.17757784 -0.06563935 -0.12508753 0.042389046
0003a0 cb 57 06 3d 09 64 85 3d 9c e5 fe bd 0d 07 a5 3c
       0.03279857 0.06513221 -0.12446138 0.020144964
0003b0 56 53 f4 3c d7 0e ea 3d f1 3b b7 bd 8c 3f 32 3e
       0.029824894 0.11428612 -0.0894698 0.17407054
0003c0 a1 a7 e3 bc 5b a9 f9 bd f5 1d f9 bd cd 19 0b 3e
       -0.027789893 -0.12190505 -0.12163917 0.13584061
0003d0 0a 59 a1 3b 98 32 32 bd f3 38 13 bc 0e cd 3d 3e
       0.0049239444 -0.04350528 -0.008985746 0.18535253
0003e0 cc 09 08 be 02 dc 17 3e 17 1c 5b 3d 00 85 b4 3d
       -0.13284987 0.1483002 0.053493585 0.0881443
0003f0 df da 1b be f2 6d 9f bd 74 4a 9c bd 38 6d 34 bd
       -0.15220211 -0.07784642 -0.07631388 -0.04404947

stacks.0.blocks.1.fc1.bias f4 [50]
000000 30 7a 18 3c 19 8e 81 3d 4b 57 e2 3d cd d9 b8 bd
       0.0093064755 0.06325931 0.11051806 -0.09025917
000010 42 4b 15 bd 48 f1 96 bc 8c 95 1e 3e d5 bb 64 bd
       -0.036448725 -0.018425599 0.15486735 -0.055843193
000020 85 36 ec bd 2c 66 c8 3d ee 91 bf bd 10 ae c8 3d
       -0.11533836 0.09785113 -0.09354006 0.09798825
000030 e3 20 fb bb 0f 06 f6 3d 93 f0 f7 bc 1b 0b 0e bd
       -0.0076638325 0.12012874 -0.030266082 -0.03467856
000040 eb 48 44 3e f6 85 24 3e 48 41 31 3c a7 b5 4a 3d
       0.19168441 0.16066727 0.010818787 0.049489643
000050 e1 af 2b 3e d6 59 df 3d 1f 48 39 be 0f 4d be bc
       0.16766311 0.10905807 -0.18093918 -0.023230104
000060 fa a4 a5 bd d1 8d 81 3c bc 53 c3 bd d7 cd 91 3d
       -0.080881074 0.015814694 -0.095374554 0.07119339
000070 2f da 32 be a4 3f 13 be 82 14 cc bc 8e c0 93 bd
       -0.17466043 -0.14379746 -0.024912123 -0.07214461
000080 de 7e 4a 3e ee b5 cd 3c d0 46 d3 bd 7c 79 a8 bd
       0.19774958 0.025111165 -0.10316241 -0.08226296
000090 98 ac dd 3d f2 bf 20 3e 07 94 08 be 5d 23 2d 3e
       0.10823935 0.15698221 -0.13337718 0.16908021
0000a0 d7 5e e0 3b d0 53 ed bd 7d b5 a1 be 39 45 0e 3e
       0.0068472433 -0.115882516 -0.31583777 0.13893594
0000b0 df 62 31 bd 7b 8c fc 3c be b8 6d be ef 8e 1b be
       -0.04330718 0.030828705 -0.23215005 -0.15191244
0000c0 30 ac 59 bd 1f 76 ce bd
       -0.053142726 -0.100811236
