RNN_models/close_RSI_28_hma_15_15min_t1.pth (torch, 103570 bytes, 20 tensors)

stacks.0.blocks.0.fc1.weight f4 [50, 42]
0	0x3d8c97da	0.06864901
1	0x3d8a519b	0.06753846
2	0xbe17c526	-0.148213
3	0x3dceb66a	0.100933865
4	0xbccc43ed	-0.024934733
5	0x3d319a95	0.04336031
6	0x3e0b7efb	0.13622658
7	0x3c2992ab	0.01034991
8	0xbdc020b1	-0.093812354
9	0xbdc5af66	-0.09652595
10	0xbe13541a	-0.14387551
11	0x3da2288c	0.0791789
12	0xbd08bdbe	-0.033384077
13	0x3dab394b	0.08360537
14	0xbd46288e	-0.04837852
15	0xbd258ba9	-0.040416393
16	0x3d5d03fc	0.053958878
17	0x3cc7b24c	0.02437701
18	0x3e109143	0.14117913
19	0x3d692515	0.05692013
20	0xbdad0fae	-0.08450256
21	0x3daa7658	0.083233535
22	0x3d7e46e0	0.06207931
23	0x3dffd9a1	0.12492681
24	0x3e149a1a	0.1451191
25	0x3dd76a93	0.10518374
26	0xbca5f553	-0.020258581
27	0x3e0fe207	0.14051066
28	0x3e00a3e6	0.12562522
29	0x3d840bfd	0.06447599
30	0xbcba9504	-0.022776134
31	0x3e0e3535	0.13887484
32	0x3d8ec974	0.06972018
33	0x3e0b0157	0.1357473
34	0xbdf5f263	-0.12009122
35	0xbd0718b1	-0.032982532
36	0x3db1b155	0.086764015
37	0xbe1c2c1d	-0.15251203
38	0x3dbe91ab	0.09305128
39	0xbdc9c561	-0.098521
40	0x3de8a302	0.11359216
41	0xbd2d8bae	-0.042369537
42	0x3e06f79f	0.13180397
43	0x3e17b4df	0.1481509
44	0xbdb8cc0d	-0.090232946
45	0xbdec14d4	-0.1152741
46	0xbe0ba3a4	-0.13636643
47	0xbdd6bb46	-0.10484938
48	0x3da0fe7e	0.078610405
49	0xbe0cd7d4	-0.13754207
50	0xbd57fce0	-0.052731395
51	0x3a6c2200	0.0009007752
52	0x3c3710b0	0.011173412
53	0xbdbb8571	-0.09156311
54	0x3dd1a756	0.10236995
55	0x3dd2f2ee	0.103002414
56	0x3cc3f9c8	0.023922816
57	0xbdfcde9c	-0.12347147
58	0x3db81f22	0.08990313
59	0xbb9c12c0	-0.0047629774
60	0x3d5a1204	0.053239837
61	0xbde4dd8e	-0.11175071
62	0xbd89747a	-0.06711669
63	0x3dc1efbc	0.09469554
64	0x3dd54452	0.10413422
65	0xbde613fc	-0.112342805
66	0xbe035930	-0.12826991
67	0x3e0c047d	0.13673587
68	0xbdcf4ac4	-0.10121682
69	0x3dfa8c8a	0.12233837
70	0xbdd47073	-0.103730105
71	0xbdff4636	-0.124645635
72	0xbd7e9d5e	-0.062161796
73	0xbb64b340	-0.003489688
74	0x3d7a4134	0.06109734
75	0xbd89cf23	-0.06728961
76	0x3dd70912	0.10499777
77	0x3c35e460	0.011101812
78	0xbd38071c	-0.044928655
79	0xbd666c98	-0.056255907
80	0x3c04d670	0.0081077665
81	0xbd62ad80	-0.055341244
82	0xbd4473ac	-0.047961876
83	0x3df5ab32	0.119955435
84	0x3def0f55	0.11672846
85	0x3dfe3568	0.1241253
86	0x3a845d3b	0.0010098586
87	0xbde66bac	-0.112510055
88	0x3e0d00f8	0.13769901
89	0x3e24741c	0.16059917
90	0x3c5dc398	0.013535403
91	0x3e18aed5	0.14910443
92	0x3e0049df	0.1252818
93	0x3dcd5684	0.10026267
94	0x3d07a5be	0.03311705
95	0x3e24ebdc	0.16105598
96	0x3dff5605	0.12467579
97	0x3daff75c	0.08592102
98	0x3c6a6e03	0.014308455
99	0xbda3f080	-0.08004856
100	0x3df8451b	0.12122556
101	0x3e1e90a8	0.1548487
102	0xbdf1488e	-0.11781417
103	0x3dede6bd	0.116162755
104	0x3d9a8b4d	0.07546101
105	0xbdc112ea	-0.09427436
106	0xbe06d14d	-0.1316578
107	0xbdde2e7f	-0.10848712
108	0x3d0dd41e	0.03462612
109	0xbdd58906	-0.10426526
110	0x3e12508c	0.14288539
111	0x3dac7c29	0.08422119
112	0x3cafbd8d	0.02145269
113	0x3decb25c	0.11557457
114	0xbd990733	-0.07472076
115	0x3dcc620f	0.09979641
116	0xbda57341	-0.080786236
117	0x3cc55d25	0.024092266
118	0xbd2b3454	-0.04179795
119	0xbdf76c49	-0.12081201
120	0x3d08522e	0.033281498
121	0xbddb4520	-0.10706544
122	0x3be56a23	0.007001178
123	0x3d99da7b	0.07512375
124	0xbd3a0569	-0.045415316
125	0x3c3e06c6	0.011598295
126	0xbcd35b2c	-0.02580031
127	0x3d6b1674	0.05739446
128	0x3de1f34b	0.110327326
129	0x3dd022bc	0.10162875
130	0xbd9a710d	-0.07541094
131	0x3dd63a48	0.10460335
132	0x3d0f6ca4	0.035015717
133	0x3e1b9203	0.15192418
134	0x3e0fb7b9	0.14034928
135	0x3db2dfa0	0.08734059
136	0xbcc48489	-0.023988979
137	0xbd29fef2	-0.0415029
138	0x3d805463	0.062660955
139	0x3db9ecac	0.09078345
140	0x3e11db6b	0.14243858
141	0xbdc3fc6e	-0.095696315
142	0xbd9c8ad7	-0.07643669
143	0xbd51c904	-0.051217094
144	0x3d869175	0.065707125
145	0xbd9a0e07	-0.07522207
146	0x3d92fce6	0.07177143
147	0x3d3040f1	0.043030683
148	0x3c7cb53f	0.015424072
149	0x3d2fc764	0.042914763
150	0x3db0a1ec	0.08624634
151	0xbc90ccf2	-0.01767585
152	0x3d361b3b	0.044459563
153	0x3d4dda52	0.050257035
154	0x3d67d281	0.056597237
155	0x3d9a9311	0.07547582
156	0xbd9af530	-0.07566297
157	0x3d8aa323	0.06769397
158	0x3caaad97	0.020834727
159	0x3da51121	0.08059908
160	0x3e030ed9	0.12798633
161	0xbdf37317	-0.11887186
162	0xbd9c15d3	-0.0762135
163	0x3dfc9d4d	0.1233469
164	0x3e306d14	0.1722911
165	0xbdf2bd1e	-0.118524775
166	0x3dc249ca	0.094867304
167	0xbdb4bc60	-0.08824992
168	0x3dc3526b	0.09537204
169	0xbe1a90d6	-0.15094313
170	0xbdd303f4	-0.103034884
171	0xbcf777e5	-0.030208537
172	0xbe15656d	-0.14589472
173	0x3c849d70	0.016188353
174	0x3d9e78c1	0.07737876
175	0x3dccf379	0.10007376
176	0x3e0ade1a	0.13561288
177	0xbdc66f4e	-0.096891984
178	0x3dcd902e	0.10037266
179	0x3dca6f5d	0.09884522
180	0xbdbe7510	-0.09299672
181	0x3c03a4b4	0.008034874
182	0xbe1a4704	-0.15066153
183	0x3e020755	0.1269811
184	0xbb273fb4	-0.0025520148
185	0x3dcf9c01	0.10137177
186	0x3c927c28	0.017881468
187	0xbe2475cf	-0.16060565
188	0x3e0b088c	0.13577479
189	0xbd451952	-0.04811985
190	0x3dd26a1c	0.10274145
191	0xbc1ef07a	-0.009700889
192	0x3d95896f	0.07301604
193	0xbe24c287	-0.16089831
194	0xbe1cd7b6	-0.15316662
195	0x3d0e84ab	0.03479449
196	0x3daeabde	0.08528875
197	0xbd58c496	-0.052921854
198	0xbe15ba3b	-0.14621823
199	0xbe268ccd	-0.16264649
200	0x3c877037	0.016533
201	0xbe020073	-0.12695484
202	0xbe08a3e3	-0.13343768
203	0xbd681605	-0.056661624
204	0xbdf4fcef	-0.11962306
205	0xbda7444b	-0.08167323
206	0xbd63bf07	-0.0556021
207	0xbca4e2db	-0.020127704
208	0xbdf30d79	-0.11867804
209	0xbe0dcd98	-0.13847959
210	0xbe0c24de	-0.13685939
211	0x3c12fad0	0.008970931
212	0xbd545958	-0.051843017
213	0xbe1d0418	-0.15333593
214	0xbdb6082c	-0.088882774
215	0xbcb70ae0	-0.022344053
216	0xbe1bafae	-0.15203735
217	0xbd30775a	-0.043082573
218	0x3d87b6d4	0.066266686
219	0x3dfece1e	0.124416575
220	0xbdb46fdc	-0.08810398
221	0x3d60aa04	0.05484964
222	0xbd2cd918	-0.042199224
223	0x3cbf4a08	0.02335073
224	0x3db48dae	0.08816086
225	0xbda02528	-0.07819587
226	0xbe1de307	-0.15418635
227	0xbe078f1b	-0.13238184
228	0x3d7f14a0	0.06227553
229	0xbd0b2506	-0.033970855
230	0x3e0d7cf5	0.13817199
231	0xbcf00fb4	-0.029304363
232	0xbe02d8bf	-0.12777995
233	0xbcc39760	-0.023875892
234	0x3df1615e	0.117861494
235	0xbd691210	-0.05690199
236	0xbd693ef2	-0.056944795
237	0x3dadb6ce	0.08482133
238	0xbe065b0b	-0.13120668
239	0xbd60e902	-0.054909714
240	0xbc4e21e0	-0.012581319
241	0xbdc2f408	-0.095192015
242	0x3d6822c0	0.056673765
243	0x3b84bfa0	0.004051164
244	0x3d85ef38	0.06539768
245	0x3dbc9482	0.09208013
246	0xbe10271b	-0.14077418
247	0x3de731ae	0.112887725
248	0xbe0afa83	-0.13572125
249	0x3def37ae	0.11680542
250	0xbd5c6ddc	-0.053815708
251	0xbd96c198	-0.07361144
252	0xbdbf8219	-0.09350986
253	0x3e14bf01	0.14525987
254	0x3e17baab	0.14817302
255	0xbae0baee	-0.0017145553

stacks.0.blocks.0.fc1.bias f4 [50]
0	0x3d00eca5	0.03147568
1	0x3d80a5d2	0.06281628
2	0xbb158c18	-0.0022819098
3	0x3d81dac4	0.06340554
4	0xbe1b7550	-0.1518147
5	0xbdcf3c06	-0.101188704
6	0x3e32d74e	0.17464945
7	0xbd8b2f4b	-0.0679613
8	0xbd1726dc	-0.036902294
9	0x3e158649	0.14602007
10	0x3d6746e7	0.056464102
11	0xbd451aaa	-0.048121132
12	0x3df09e66	0.11748962
13	0xbdb1aaaa	-0.0867513
14	0x3e0d1e88	0.13781178
15	0xbc8b0e01	-0.016974451
16	0x3c95dbee	0.018293347
17	0x3e709636	0.23494801
18	0xbdce72dc	-0.100805014
19	0xbd95405a	-0.07287665
20	0x3de5c291	0.11218751
21	0x3c95ead7	0.018300457
22	0xbd503c21	-0.050838593
23	0xbc1674d0	-0.009183124
24	0x3bc0ad40	0.005880028
25	0xbd4a302a	-0.04936234
26	0xbc143ae0	-0.00904724
27	0x3e28e668	0.16494143
28	0xbdefbfcd	-0.11706505
29	0x3da3db0f	0.080007665
30	0x3dd5c55c	0.10438034
31	0xbd1c12b2	-0.038103767
32	0xbda506a4	-0.08057907
33	0xbd83fd5c	-0.06444809
34	0x3b195e80	0.0023402274
35	0x3e022466	0.12709197
36	0x3d486d8d	0.0489326
37	0x3d3a7bf4	0.045528367
38	0x3dee5237	0.11636775
39	0xbdc1b628	-0.09458572
40	0x3ddf8017	0.10913103
41	0x3d76702d	0.060165573
42	0xbc6b20ed	-0.014351112
43	0x3e344c46	0.17607221
44	0x3d1ff92c	0.03905599
45	0xbca32ca8	-0.019918755
46	0x3dc0e4a0	0.09418607
47	0xbd868551	-0.06568397
48	0x3b429740	0.0029692203
49	0x3dacda9a	0.084401324

stacks.0.blocks.0.fc2.weight f4 [50, 50]
0	0xbd80efbc	-0.06295726
1	0x3dc18cf0	0.0945071
2	0xbc309f67	-0.010780192
3	0x3deab6f7	0.11460679
4	0x3d933a06	0.071888015
5	0x3da6813a	0.08130117
6	0xbe028651	-0.1274655
7	0xbd89ec0c	-0.067344755
8	0x3dd0beae	0.10192619
9	0x3d9d27de	0.0767362
10	0xbe051da6	-0.12999591
11	0xbceb832c	-0.028749071
12	0x3d6844d8	0.05670628
13	0x3e06efc2	0.13177398
14	0x3d830083	0.06396582
15	0xbcbee8f4	-0.02330444
16	0x3c81db7f	0.015851734
17	0x3ddb3424	0.107033044
18	0xbd84457d	-0.06458566
19	0xbdc4269f	-0.09577679
20	0xbde32ea9	-0.11092884
21	0x3e080feb	0.13287322
22	0xbda986f6	-0.08277695
23	0x3d209ae8	0.03921023
24	0xbd8878de	-0.066636786
25	0xbcb47da5	-0.022032568
26	0x3d9f5fd6	0.07781951
27	0xbd2cab56	-0.042155586
28	0xbd4fc330	-0.050723255
29	0x3d6b4490	0.057438433
30	0x3d2290aa	0.039688744
31	0xbd8c7da3	-0.06859901
32	0xbd900d14	-0.070337445
33	0x3e066cf0	0.13127494
34	0xbd1fe290	-0.039034426
35	0x3deded4c	0.116175264
36	0xbdc75912	-0.09733786
37	0xbdd5236c	-0.10407147
38	0xbdf3c00e	-0.11901866
39	0x3dcfcd72	0.101466075
40	0x3daeeff5	0.08541862
41	0x3da68793	0.081313275
42	0x3ccd4088	0.025055185
43	0x3be02a73	0.006840998
44	0xbd1452d8	-0.03621182
45	0xbcf17818	-0.02947621
46	0xbdb964f5	-0.09052459
47	0xbdaee4a6	-0.08539705
48	0x3d978152	0.07397713
49	0xbd4d911e	-0.050187223
50	0x3cb5717b	0.022148838
51	0xbe0df658	-0.13863504
52	0xbd3d59b8	-0.04622814
53	0xbc6a680b	-0.014307032
54	0xbda03b68	-0.07823831
55	0x3d946038	0.07244915
56	0x3cfcd51b	0.030863335
57	0x3def0a5f	0.116719
58	0xbd92e5c9	-0.07172734
59	0x3b31ae40	0.0027111918
60	0xbe0b35a0	-0.13594675
61	0x3d476914	0.048684195
62	0x3d5129e5	0.051065344
63	0x3d4019e1	0.04689968
64	0xbe133b52	-0.14378098
65	0x3cb7fdad	0.02245983
66	0x3d97264b	0.07380351
67	0x3dc2f261	0.09518886
68	0xbd6deb64	-0.058085814
69	0xbe18308f	-0.14862274
70	0x3d8347f3	0.064102076
71	0x3e341355	0.175855
72	0xbda51c03	-0.080619834
73	0x3da437c8	0.08018452
74	0x3a6a2c00	0.0008932948
75	0x3dac70ed	0.084199764
76	0x3d64eebc	0.055891737
77	0xbded1a78	-0.11577314
78	0x3d3046bf	0.04303622
79	0x3d90c0c7	0.07068019
80	0x3defac82	0.11702825
81	0x3dd9edde	0.10641073
82	0x3daafe84	0.08349326
83	0x3d64f5d9	0.05589852
84	0xbdc852c8	-0.09781414
85	0xbd1ab9c6	-0.037774824
86	0x3db76bf1	0.08956135
87	0x3ccbaa88	0.02486159
88	0x3d4c334a	0.0498536
89	0x3dee3a73	0.11632242
90	0x3df2382e	0.11827122
91	0x3d2fb8b9	0.042900775
92	0xbd187ff1	-0.03723139
93	0x3d5cecbf	0.053936716
94	0xbdc08c4d	-0.0940176
95	0x3db97de8	0.09057218
96	0xbca62091	-0.0202792
97	0xbc91ade8	-0.01778312
98	0x3de91f7e	0.1138296
99	0xbd9503aa	-0.072760895
100	0xbd8e7e8b	-0.0695773
101	0xbe02d6db	-0.12777273
102	0xbdf1dddf	-0.11809897
103	0x3ddf9772	0.10917558
104	0xbae5a100	-0.0017519295
105	0xbddf3c1e	-0.10900138
106	0xbe00c22c	-0.1257407
107	0x3de85d62	0.11345936
108	0xbd515844	-0.051109567
109	0xbd5089bc	-0.050912604
110	0x3cc7ddf0	0.02439782
111	0xbdcd181d	-0.10014365
112	0xbc1161a0	-0.008873373
113	0xbd31e462	-0.043430693
114	0x3d18ae94	0.037275866
115	0xbdfa5108	-0.12222487
116	0xbd334c56	-0.04377397
117	0xbe0a613d	-0.13513656
118	0xbdd3b657	-0.10337513
119	0xbd9c9b35	-0.07646791
120	0xbdc55f22	-0.09637286
121	0x3db0a28e	0.08624755
122	0x3ccad638	0.02476035
123	0xbc3a5490	-0.0113727
124	0x3e08da91	0.13364626
125	0xbe0afa15	-0.13571961
126	0x3de46496	0.11151998
127	0xbdfaa0bc	-0.12237689
128	0x3d584dcc	0.052808568
129	0x3b14cb40	0.0022704154
130	0xbd430864	-0.047615424
131	0x3ae97000	0.0017809868
132	0xbcdf4a60	-0.027257144
133	0xbe01b675	-0.12667258
134	0x3d992dc6	0.07479434
135	0x3da5e906	0.08101086
136	0x3d8df7ba	0.06932016
137	0xbd9cfa4b	-0.07664927
138	0xbdeb197c	-0.1147947
139	0x3da56886	0.08076577
140	0x3c560000	0.013061523
141	0x3dea594a	0.11442812
142	0x3b4f7740	0.0031656772
143	0x3cb7e9f0	0.022450417
144	0xbe0212dc	-0.12702507
145	0x3defbf9a	0.11706467
146	0x3d842476	0.06452267
147	0x3c1616f0	0.009160742
148	0xbdc19779	-0.09452719
149	0x3db3a900	0.087724686
150	0x3d96b000	0.07357788
151	0xbd05f070	-0.032700002
152	0xbc7abc5b	-0.0153036965
153	0xbcc3cc08	-0.023901
154	0x3d910a3d	0.07082031
155	0x3cfbf7b0	0.030757755
156	0x3d82fb3a	0.06395574
157	0xbd999d40	-0.07500696
158	0x3dd6aee3	0.10482576
159	0x3e0c7ef7	0.13720308
160	0x3d97665f	0.073925726
161	0xbcffb7fc	-0.03121566
162	0x3dc2a023	0.095032
163	0x3db910f5	0.090364374
164	0xbe16419d	-0.14673467
165	0xbde748b0	-0.11293161
166	0x3d8403bb	0.06446024
167	0x3da26d4d	0.07931004
168	0x3dd2ed6c	0.10299191
169	0x3d3a74af	0.045521434
170	0xbdb189c2	-0.08668853
171	0xbda5235a	-0.080633834
172	0x3c79e90b	0.015253316
173	0xbdbb6446	-0.09149985
174	0xbd352f80	-0.044234753
175	0x3c8c0df1	0.017096492
176	0x3e008137	0.12549292
177	0xbe0498ea	-0.12948957
178	0xbe12b7c7	-0.14327918
179	0x3d6ada64	0.05733718
180	0x3d68a34f	0.05679637
181	0xbc0ac330	-0.008469388
182	0x3c3df1f0	0.011593327
183	0xbc8e95c5	-0.0174054
184	0xbdc65f4e	-0.09686147
185	0xbe1ac864	-0.15115505
186	0x3b1c8417	0.0023882443
187	0xbdaa2c3c	-0.08309218
188	0x3de0fc71	0.109856494
189	0x3da88722	0.082288995
190	0xbdca7fb0	-0.09887636
191	0x3d0fb8b3	0.035088252
192	0x3de08e12	0.10964598
193	0x3deadd03	0.11467936
194	0x3cd4f3c4	0.025995143
195	0xbd0509a8	-0.032479912
196	0xbe0d6095	-0.13806374
197	0xbe111c19	-0.14170875
198	0x3dfe7026	0.12423734
199	0xbc6db9c5	-0.014509623
200	0x3d832a40	0.06404543
201	0x3d298958	0.041390747
202	0xbcc9f519	-0.024653004
203	0xbe000910	-0.12503457
204	0x3e0d5fb5	0.1380604
205	0x3ddde0c4	0.10833886
206	0xbc882375	-0.01661847
207	0xbe1d5db1	-0.15367772
208	0x3d8c9ad2	0.06865467
209	0xbd0d615e	-0.034516685
210	0xbe1d004c	-0.15332144
211	0xbc8a1f7c	-0.016860716
212	0x3dfcc2c1	0.12341834
213	0xbdd87998	-0.10570067
214	0xbd0f6cfc	-0.035016045
215	0x3d1224f0	0.035679758
216	0x3d26fd78	0.04076907
217	0x3da2a895	0.07942311
218	0x3c2b9c30	0.01047425
219	0xbde5fa02	-0.11229326
220	0x3d450880	0.04810381
221	0x3d105fc0	0.035247564
222	0xbd88258d	-0.06647787
223	0xbd962d2d	-0.07332835
224	0xbdf63df2	-0.12023534
225	0xbb2efadb	-0.0026699814
226	0x3db2ae36	0.08724634
227	0xbbf48dbf	-0.0074631865
228	0x3cfd9e80	0.030959368
229	0xbe0961af	-0.1341617
230	0x3db7c35c	0.08972809
231	0xbe0d620f	-0.13806938
232	0x3d9ae5f8	0.07563394
233	0xbc6ff5f8	-0.014646046
234	0xbc8de924	-0.017323084
235	0xbd9ba225	-0.07599286
236	0x3dc83f78	0.09777731
237	0xbdca389c	-0.09874079
238	0x3d42f1ac	0.047593758
239	0x3e02dacb	0.12778775
240	0xbdcb9c92	-0.09941973
241	0xbd4f6628	-0.050634533
242	0xbd8d2c71	-0.06893242
243	0xbe0aaa85	-0.1354161
244	0x3df4c12f	0.11950909
245	0xbddd2aa5	-0.107991494
246	0xba88ee00	-0.0010446906
247	0xbc314739	-0.010820203
248	0x3d9c621e	0.07635902
249	0xbd87db25	-0.066335954
250	0x3dfbd5b8	0.12296623
251	0xbb23f8c0	-0.0025020093
252	0x3dec57de	0.11540197
253	0x3dc36bd7	0.09542053
254	0xbcd98c0e	-0.026556041
255	0x39821a00	0.00024814904

stacks.0.blocks.0.fc2.bias f4 [50]
0	0xbd8c7c11	-0.06859601
1	0x3d517316	0.051135145
2	0x3d660e30	0.056165874
3	0x3d818f7b	0.06326195
4	0xbde6cd44	-0.1126962
5	0x3dc229ff	0.09480666
6	0xbdd6adc1	-0.1048236
7	0x3df3fae6	0.119130895
8	0x3dbd7a86	0.09251885
9	0xbdd86ca3	-0.10567596
10	0xbe66f40c	-0.22554034
11	0x3df42c7a	0.11922546
12	0x3d91931b	0.07108136
13	0x3e21dd51	0.15807082
14	0xbdc3d464	-0.09561995
15	0xbd8eab70	-0.06966293
16	0x3d9927e6	0.07478313
17	0x3d1f3b10	0.038874686
18	0xbd162047	-0.036651876
19	0x3d37d552	0.044881172
20	0x3d7e776d	0.062125612
21	0xbe1c3789	-0.1525556
22	0x3ca1cb86	0.019750368
23	0xbc585160	-0.013202995
24	0x3d42e614	0.0475827
25	0x3eb92607	0.36161825
26	0xbd747740	-0.05968404
27	0xbdbe2879	-0.09285063
28	0xbdb41019	-0.08792133
29	0xbbfd4bc4	-0.007729979
30	0x3e0e641c	0.13905376
31	0x3e1c2dcf	0.1525185
32	0xbd680a2f	-0.056650337
33	0x3da40df6	0.08010475
34	0xbdfad41f	-0.1224749
35	0xbb3586f6	-0.0027698851
36	0xbd809796	-0.06278913
37	0xbd3fb102	-0.046799667
38	0xbdc65209	-0.09683616
39	0x3e082a41	0.13297369
40	0x3cca86ea	0.024722535
41	0x3deacbe4	0.1146467
42	0xbccf4a98	-0.025304124
43	0x3db07f3c	0.08618018
44	0x3e06efb7	0.13177381
45	0x3dd59730	0.10429227
46	0xbb92f400	-0.0044846535
47	0x3d58aa04	0.052896515
48	0xbdec6533	-0.1154274
49	0x3d04e289	0.032442603

stacks.0.blocks.0.fc3.weight f4 [50, 50]
0	0x3df5f97e	0.120104775
1	0x3d27ce51	0.040968243
2	0xbd6e99b6	-0.05825206
3	0x3d21bac3	0.03948475
4	0xbc433284	-0.011913899
5	0xbd885dbd	-0.06658504
6	0x3d7ae0fc	0.061249718
7	0x3dccde16	0.10003297
8	0xbdaf9ba2	-0.085746065
9	0xbdcc09f6	-0.099628374
10	0x3d8678d7	0.06566017
11	0xbdfb2361	-0.12262607
12	0x3df64665	0.120251454
13	0x3d410ea5	0.047133107
14	0x3e05761b	0.13033335
15	0xbe004d5e	-0.12529513
16	0xbd9fc2f4	-0.07800856
17	0xbcfc0e1a	-0.030768443
18	0x3d3aa927	0.045571472
19	0xbddace99	-0.106839366
20	0xbd6f8986	-0.058480762
21	0x3e017e0f	0.12645744
22	0xbdb3d6c6	-0.08781199
23	0x3d085604	0.033285156
24	0xbe14855e	-0.14504
25	0x3d7300ce	0.05932694
26	0xbcb00da4	-0.02149088
27	0x3c943019	0.018089341
28	0x3e01eade	0.12687251
29	0x3d62797e	0.055291645
30	0xbda2ecb8	-0.07955307
31	0xbc64f6ba	-0.01397484
32	0xbdc54b86	-0.096335456
33	0xbd5ef70d	-0.054434825
34	0xbde0c916	-0.10975854
35	0xbdaa4a8b	-0.08314999
36	0x3df6d3fe	0.12052153
37	0x3c7ef9f0	0.015562519
38	0xbdb703d2	-0.089362755
39	0x3dd94e6f	0.10610663
40	0x3d57912c	0.05262868
41	0xbe252cf5	-0.16130431
42	0x3d925182	0.07144453
43	0x3d3a1947	0.045434263
44	0x3db4d536	0.08829729
45	0xbdec53ef	-0.115394466
46	0xbdb154dc	-0.08658764
47	0x3d096756	0.033545814
48	0xbdbc8c3c	-0.09206435
49	0xbd5ee067	-0.054413226
50	0xbdf7fcd7	-0.12108772
51	0xbc8ae254	-0.016953625
52	0xbd8d4044	-0.06897023
53	0x3daa806d	0.083252765
54	0x3e1d5cde	0.15367457
55	0x3da75984	0.081713706
56	0x3d7d58ab	0.06185214
57	0x3db2dfee	0.087341174
58	0xbdabf40d	-0.08396158
59	0x3d6cab48	0.057780534
60	0xbe5cb659	-0.21553935
61	0x3ceaa5d8	0.028643534
62	0x3c6cc5ca	0.014451453
63	0xbe10bf5e	-0.14135501
64	0x3c154af0	0.009112105
65	0x3d4f8414	0.05066307
66	0xbe18eded	-0.14934511
67	0xbd8d9562	-0.06913258
68	0x3dfab9d3	0.122424744
69	0x3d559a6b	0.052149218
70	0x3ddda333	0.108221434
71	0xbe102eb5	-0.14080317
72	0xbde6f28e	-0.112767324
73	0x3dba1b66	0.09087257
74	0xbdf1aab5	-0.11800138
75	0x3cdccf04	0.026954181
76	0x3df7cc96	0.120995685
77	0x3dba401c	0.09094259
78	0x3dff1106	0.12454419
79	0x3db1581a	0.08659382
80	0x3df2710a	0.11837967
81	0x3de40752	0.11134209
82	0x3d569581	0.05238867
83	0x3e75549a	0.23958054
84	0x3daa88b8	0.08326858
85	0x3d219bcf	0.03945523
86	0x3d7984b8	0.060917586
87	0xbd11ea19	-0.035623644
88	0xbc5ce0c0	-0.013481319
89	0x3bb90a79	0.0056470004
90	0xbd92944e	-0.07157193
91	0x3da0d2c8	0.07852703
92	0xbdb5a105	-0.08868603
93	0x3d62fb99	0.055415723
94	0x3da5e448	0.08100182
95	0x3c9d892b	0.019230446
96	0xbd9f3b7d	-0.07775018
97	0x3d9525ee	0.07282625
98	0x3de79299	0.11307258
99	0x3dc88967	0.097918324
100	0x3c9091d6	0.017647665
101	0x3d77706e	0.060409956
102	0xbe10c647	-0.14138137
103	0xbd9c11e0	-0.07620597
104	0x3d2a6202	0.041597374
105	0xbddba161	-0.1072414
106	0xbb3fae69	-0.0029248244
107	0xbd991fa9	-0.07476742
108	0x3da73f02	0.08166315
109	0x3e09170d	0.133877
110	0xbe2974de	-0.16548488
111	0x3d704a54	0.058664635
112	0x3df683d7	0.12036865
113	0xbce36651	-0.02775875
114	0x3dc9a010	0.098449826
115	0xbdbe2981	-0.0928526
116	0x3e0b6045	0.13610943
117	0x3e07cefd	0.13262554
118	0x3d09c8d4	0.03363879
119	0x3cf9ae0a	0.030478496
120	0x3da9a414	0.082832485
121	0x3de54598	0.111949146
122	0x3e1c6df6	0.15276322
123	0x3d658240	0.05603242
124	0xbda06ed7	-0.07833641
125	0x3e0410da	0.12897053
126	0x3df8d582	0.121500984
127	0xbceddd79	-0.02903627
128	0x3ce65e13	0.02812103
129	0xbd3fe1fa	-0.046846367
130	0xbd6f06c1	-0.05835605
131	0xbd3da28b	-0.04629759
132	0x3e147f96	0.14501795
133	0x3e87b53b	0.26505455
134	0xbc4f60b0	-0.012657329
135	0xbc09f337	-0.008419803
136	0xbde51ecd	-0.111875154
137	0xbd805416	-0.06266038
138	0xbdaaff58	-0.08349484
139	0x3e101301	0.1406975
140	0x3df19559	0.11796064
141	0xbd80b4e3	-0.062845014
142	0x3d296878	0.041359395
143	0xbd8d3e5f	-0.06896662
144	0xbdb3c910	-0.08778584
145	0xbdf074a7	-0.11741
146	0xbe0c8272	-0.13721636
147	0xbdf8db41	-0.12151194
148	0x3cf12824	0.029438086
149	0xbd8b946b	-0.06815418
150	0xbd3b348b	-0.045704406
151	0x3e1ad392	0.1511977
152	0x3a791d00	0.00095029175
153	0x3dfb17c4	0.12260392
154	0x3d240faa	0.040054
155	0x3dbecd9d	0.09316561
156	0xbddc35bd	-0.10752437
157	0xbd1130c4	-0.035446897
158	0x3e0a8257	0.13526283
159	0xbd560566	-0.052251242
160	0xbda67ddb	-0.08129474
161	0x3d104fbc	0.03523229
162	0xbd3d6352	-0.046237297
163	0x3d99b01c	0.07504293
164	0xbdc0e9ca	-0.09419592
165	0x3b8a2112	0.004215368
166	0xbd2d0654	-0.042242363
167	0xbdb4f2ef	-0.088353984
168	0xbc3e75de	-0.011624781
169	0xbdcdcd9d	-0.10048983
170	0xbd301c57	-0.042995777
171	0xbcc062e2	-0.023484651
172	0x3e1eba6c	0.15500802
173	0x3d59e521	0.05319703
174	0x3dd95b5f	0.10613131
175	0x3dcd87ca	0.10035665
176	0x3e0405c7	0.12892829
177	0x3d9319d4	0.07182661
178	0x3ddc3908	0.10753065
179	0x3d9cebd4	0.07662168
180	0xbdb6b2c5	-0.08920816
181	0x3e0c312f	0.13690637
182	0xbd15fe60	-0.036619544
183	0x3decce42	0.11562778
184	0x3d1f7f70	0.038939893
185	0x3e183a8a	0.14866081
186	0x3dafbbfe	0.085807785
187	0x3d1687c2	0.036750562
188	0xbd88c4df	-0.06678175
189	0xbb571a1b	-0.0032821957
190	0xbe042e42	-0.12908271
191	0x3c951a0c	0.018200897
192	0x3ce34bd8	0.027746126
193	0x3dea54ca	0.114419535
194	0xbdcb0db1	-0.09914721
195	0xbd6ae472	-0.05734677
196	0xbc8fde78	-0.017562136
197	0x3db57f18	0.08862132
198	0xbcbf07af	-0.023319094
199	0x3dd85752	0.1056353
200	0x3df60dc2	0.12014343
201	0xbd8fd711	-0.070234425
202	0x3d5e6514	0.054295614
203	0xbdb98234	-0.090580374
204	0x3e019577	0.12654673
205	0xb6cb8000	-6.0647726e-06
206	0xbe08a5eb	-0.13344543
207	0x3deee64a	0.11665018
208	0xbdb27860	-0.08714366
209	0x3d2eb140	0.042649508
210	0x3ce65a88	0.02811934
211	0x3e05bf0d	0.13061161
212	0x3d2ead4c	0.042645738
213	0xbdc8a3e0	-0.09796882
214	0xbdd7515a	-0.105135635
215	0x3d9aa5e2	0.07551171
216	0x3d89bf74	0.0672597
217	0xbcb09ee4	-0.02156014
218	0x3d3e1df8	0.0464153
219	0xbe0848b4	-0.13308984
220	0x3d51e5b4	0.051244453
221	0x3e0686eb	0.13137405
222	0xbdee947e	-0.116494164
223	0xbdb10498	-0.08643454
224	0x3ddcf09e	0.107880816
225	0xbd95a5a7	-0.07306986
226	0xbd07f7c6	-0.03319528
227	0x3c862220	0.016373694
228	0xbc894d54	-0.016760506
229	0xbd4c1278	-0.0498223
230	0xbdcf920d	-0.10135279
231	0xbc8e1758	-0.017345116
232	0x3c149b80	0.009070277
233	0xbde9a426	-0.11408262
234	0xbcf4c8dc	-0.029880933
235	0xbd990369	-0.074713536
236	0x3c936540	0.017992616
237	0xbdff821f	-0.124759905
238	0x3df0d156	0.11758678
239	0x3c5658a0	0.013082653
240	0xbd85b372	-0.06528367
241	0xbc8e899c	-0.017399602
242	0xbdd47cfe	-0.10375403
243	0x3d69df48	0.057097703
244	0xbd448bf8	-0.047985047
245	0xbdfee8e2	-0.124467626
246	0x3df25ac6	0.1183372
247	0xbdc93924	-0.09825352
248	0xbdd62c58	-0.10457677
249	0x3d8166d4	0.06318441
250	0x3d4a0994	0.04932554
251	0xbdbb00b2	-0.09130992
252	0xbd8bafe3	-0.06820657
253	0x3d728694	0.059210375
254	0x3dd5693f	0.10420465
255	0xbe140cb7	-0.14457975

stacks.0.blocks.0.fc3.bias f4 [50]
0	0x3cb35457	0.021890802
1	0x3df01f3c	0.117247075
2	0x3ca51ebe	0.02015626
3	0x3d55c45d	0.05218922
4	0xbca1c4bc	-0.01974713
5	0x3c8be090	0.017074853
6	0x3da1f36d	0.07907758
7	0xbc8f20f8	-0.017471775
8	0xbb9c47ff	-0.004769325
9	0x3d4deaaa	0.05027262
10	0xbdde66ac	-0.10859427
11	0xbdc92163	-0.09820821
12	0x3c0fbf3c	0.008773621
13	0x3db419e2	0.08793999
14	0xbcf6e409	-0.030138033
15	0xbd306a11	-0.043069903
16	0x3dcfc54a	0.10145052
17	0x3e267d5e	0.16258761
18	0xbb381100	-0.0028086305
19	0xbdf04021	-0.117309816
20	0xbce8e0b4	-0.02842746
21	0x3d59b8cd	0.053154755
22	0x3dbd980c	0.09257516
23	0xbdd31cba	-0.103082135
24	0x3e076fee	0.13226292
25	0x3d19ae50	0.037519753
26	0x3e185cc6	0.1487914
27	0xbd78332d	-0.06059568
28	0xbd76e813	-0.060279917
29	0x3df7ca29	0.12099106
30	0x3d35ca34	0.04438229
31	0xbe04c1e6	-0.12964591
32	0x3dccd68a	0.100018576
33	0xbdf050ff	-0.11734199
34	0xbc9f431b	-0.019441178
35	0x3e0022df	0.12513302
36	0xbbb610b9	-0.0055561927
37	0x3dc3c612	0.09559263
38	0xbcd7e3ae	-0.026353683
39	0x3e09804b	0.13427846
40	0x3db45e56	0.08807056
41	0xbc5a2ab3	-0.013315844
42	0xbd5cd9ee	-0.05391877
43	0xbdaa4911	-0.083147176
44	0x3dcc26e4	0.09968355
45	0x3dc0aa38	0.09407467
46	0x3e101d3f	0.14073656
47	0xbda89671	-0.082318194
48	0x3d9e8c35	0.07741586
49	0xbdd1587d	-0.10221956

stacks.0.blocks.0.fc4.weight f4 [50, 50]
0	0xbe0c32b7	-0.13691221
1	0x3d618ac2	0.05506397
2	0x3cf06438	0.029344663
3	0xbdedfabd	-0.1162009
4	0xbd819bdd	-0.06328557
5	0x3d9b2530	0.07575452
6	0xbc18b1ea	-0.009319762
7	0x3da75e8f	0.081723325
8	0x3dc74426	0.09729795
9	0x3de29e5c	0.11065361
10	0xbd87fe2e	-0.06640278
11	0x3db72ff7	0.089446954
12	0xbc253c1e	-0.010085134
13	0x3e00ad60	0.12566137
14	0x3dd3ecb6	0.103478834
15	0xbd49a66e	-0.049230985
16	0xbdb3d16b	-0.08780178
17	0x3d4a7198	0.049424738
18	0x3d86a270	0.06573951
19	0xbcd6de27	-0.026228977
20	0x3d046b61	0.032328967
21	0x3de0c89f	0.109757654
22	0x3caf5a10	0.02140525
23	0x3dc09ce4	0.094049245
24	0x3d0c31be	0.034227125
25	0xbd2d7f8a	-0.04235796
26	0xbdb75f34	-0.089537054
27	0xbc46fcd6	-0.012145242
28	0xbdc02cfb	-0.09383579
29	0x3de8d46b	0.113686405
30	0x3db3796f	0.08763396
31	0x3df2b816	0.11851518
32	0xbdbc2992	-0.091876164
33	0x3bd11de0	0.006381735
34	0xbde3b4dd	-0.11118481
35	0xbe06b353	-0.13154344
36	0x3d824771	0.063612826
37	0x3d615a98	0.055018038
38	0x3db0d8e0	0.086351156
39	0xbe0a71a1	-0.13519908
40	0xbdfe811f	-0.12426972
41	0xbcff4122	-0.031158987
42	0xbe08c274	-0.13355428
43	0x3df22116	0.11822717
44	0x3e0ef2db	0.1395983
45	0xbdec2c1a	-0.11531849
46	0xbe04f5a5	-0.12984331
47	0xbe0284e1	-0.12746002
48	0xbd4c77a8	-0.0499188
49	0xbc319ed5	-0.010841091
50	0xbd45b496	-0.048267923
51	0xbcf2b2f5	-0.029626349
52	0xbdcc3c3c	-0.09972426
53	0xbd14b57a	-0.036305882
54	0x3e0f4095	0.1398948
55	0xbe0e1d21	-0.138783
56	0xbe102910	-0.14078164
57	0x3d3394c6	0.043843053
58	0x3c868225	0.01641948
59	0xbdc916ef	-0.09818827
60	0x3db40fd0	0.087920785
61	0x3deb3ccc	0.114862055
62	0xbd76ea91	-0.060282294
63	0x3b9f75f8	0.004866358
64	0xbcc36e69	-0.023856359
65	0x3c3670cb	0.01113529
66	0xbe035b32	-0.12827757
67	0xbd67f31e	-0.05662834
68	0x3d086718	0.033301443
69	0x3da1596c	0.07878384
70	0x3d3344cb	0.043766778
71	0x3d69f65a	0.057119705
72	0x3df44472	0.119271174
73	0xbdc8044b	-0.09766444
74	0xbd94e9bd	-0.072711445
75	0x3dd6353c	0.104593724
76	0xbde94f29	-0.11392052
77	0x3d8cd747	0.068769984
78	0xbd1ad229	-0.03779808
79	0xbe066572	-0.13124636
80	0xbd0ebd00	-0.034848213
81	0xbd21162c	-0.039327785
82	0x3db37771	0.08763016
83	0xbd4d29aa	-0.050088562
84	0x3cbf5cd9	0.023359703
85	0xbe09849a	-0.1342949
86	0xbd4a9775	-0.049460847
87	0x3e0afaef	0.13572286
88	0x3dfd4620	0.12366891
89	0x3d693a58	0.056940407
90	0x3d28eb0e	0.04123979
91	0xbdda8f84	-0.10671905
92	0xbd01c632	-0.031683154
93	0x3d25328d	0.040331412
94	0xbd0646e2	-0.032782443
95	0xbcd8727c	-0.026421778
96	0x3dedbcce	0.11608277
97	0x3dfc831c	0.12329695
98	0x3d10240d	0.03519063
99	0xbced5b93	-0.02897433
100	0x3da6ce1e	0.081447825
101	0x3c299116	0.010349533
102	0x3ddaf88e	0.10691939
103	0x3cdf469c	0.027255349
104	0x3dd7ad22	0.10531069
105	0xbdcd4528	-0.10022956
106	0xbdf7f8ce	-0.121080026
107	0xbd746114	-0.059662893
108	0x3dd3f574	0.10349551
109	0x3dc80c48	0.097679675
110	0xbcf09794	-0.029369153
111	0x3d6adaa3	0.057337414
112	0x3d4b3703	0.04961301
113	0x3cd5024e	0.026002076
114	0xbce5f885	-0.028072605
115	0x3dd46307	0.103704505
116	0xbceecc15	-0.029150048
117	0x3db037d5	0.08604399
118	0x3dc891a8	0.09793407
119	0xbdbb855d	-0.091562964
120	0xbd2ab2c6	-0.041674398
121	0xbe0b54f0	-0.1360662
122	0xbd9c8878	-0.07643217
123	0x3df8555e	0.121256575
124	0xbd599b98	-0.0531269
125	0xbc3b9e6b	-0.011451344
126	0x3db9f14a	0.09079225
127	0xbda49abd	-0.080373265
128	0x3d4856cc	0.0489109
129	0xbbdd7863	-0.006758736
130	0x3d89e0fe	0.06732367
131	0xbd82b990	-0.063830495
132	0xbd8b12af	-0.06790673
133	0xbd9d5e79	-0.07684035
134	0xbca4f58c	-0.020136617
135	0x3e0b6f99	0.1361679
136	0xbdbd4474	-0.09241572
137	0xbbf46cc0	-0.007459253
138	0xbe0658e3	-0.13119845
139	0xbd915442	-0.07096149
140	0xbe0d8294	-0.13819343
141	0x3ddbb1fa	0.10727306
142	0x3d8d48ea	0.06898673
143	0xbd5ed33e	-0.054400675
144	0xbdbb2604	-0.0913811
145	0xbd06629e	-0.032808892
146	0xbc4b25f0	-0.012399182
147	0xbd2b4ed3	-0.04182322
148	0x3d74d2a3	0.05977119
149	0x3d349f37	0.04409715
150	0x3d989fdc	0.07452366
151	0x3ca72320	0.020402491
152	0xbcbd98c2	-0.02314413
153	0xbaf9da0c	-0.0019062175
154	0xbd7a3bd8	-0.061092228
155	0xbdbd3163	-0.092379354
156	0xbe04fedb	-0.12987845
157	0x3dae3dd3	0.08507886
158	0xbe14f8b8	-0.14548004
159	0x3de2f79f	0.11082386
160	0x3dc85640	0.09782076
161	0x3ce51a77	0.027966721
162	0xbd984770	-0.074355006
163	0xbb5bb908	-0.0033527035
164	0xbdd2bb68	-0.10289651
165	0xbd8455fe	-0.06461714
166	0x3c592188	0.013252623
167	0xbdc51220	-0.09622598
168	0x3d0d31e8	0.034471422
169	0xbdb69e7a	-0.08916946
170	0x3d9a7bc4	0.07543138
171	0xbd2d812e	-0.042359523
172	0xbd293dfe	-0.041318886
173	0x3df86985	0.12129501
174	0x3d94f8c7	0.07274013
175	0x3d24e911	0.040261332
176	0x3cedf91b	0.029049447
177	0xbda77e18	-0.08178347
178	0xbd45315e	-0.048142783
179	0xbe082b2e	-0.13297722
180	0x3d012bb0	0.031535804
181	0x3dce3080	0.100678444
182	0xbda65e4c	-0.081234545
183	0x3c077080	0.008266568
184	0x3d040fd5	0.03224166
185	0x3df47f1a	0.11938305
186	0x3d102eba	0.035200812
187	0x3db313fe	0.087440476
188	0xbb7b5189	-0.003834816
189	0x3d9e8802	0.07740785
190	0xbd9dfc0a	-0.07714088
191	0xbd0f8c99	-0.035046194
192	0x3ca7fa20	0.020505011
193	0xbe098292	-0.13428715
194	0x3d0d017c	0.034425244
195	0x3d66d654	0.056356743
196	0x3c882a38	0.016621694
197	0xbd9c9843	-0.07646229
198	0x3debde63	0.11517026
199	0x3d9549b0	0.072894454
200	0xbcc41d9f	-0.023939906
201	0x3bc058e6	0.0058699725
202	0xbb59e306	-0.0033246889
203	0xbcd8527c	-0.02640652
204	0xbd899c3d	-0.06719253
205	0x3da14510	0.07874501
206	0x3db49ecf	0.08819353
207	0xbd2f97e4	-0.042869464
208	0xbafcce9a	-0.0019287646
209	0xbd79b7d0	-0.060966313
210	0xbd3df9bc	-0.046380743
211	0xbd56cdab	-0.052442234
212	0xbded8bac	-0.11598906
213	0x3d8e0148	0.06933838
214	0xbd53df04	-0.051726356
215	0xbc44a9c3	-0.012003365
216	0x3c4f42a6	0.012650168
217	0xbdee3276	-0.116307184
218	0x3d315690	0.043295443
219	0x3ddc5291	0.10757936
220	0xbdc5fec2	-0.09667732
221	0x3d054df7	0.032545056
222	0xbd11e22a	-0.035616077
223	0xbdc425e0	-0.095775366
224	0x3dc0dc79	0.09417052
225	0x3cffd33a	0.03122865
226	0xbe082d51	-0.13298537
227	0x3ded7ff6	0.11596672
228	0x3daa252f	0.083078735
229	0xbdc18f46	-0.09451155
230	0xbcf62749	-0.03004803
231	0xbc5a7860	-0.013334364
232	0xbd980b0b	-0.07423981
233	0x3daa3394	0.08310619
234	0xbc02155a	-0.007939661
235	0xbdd0a9a6	-0.10188608
236	0xbdfe935c	-0.1243045
237	0xbdd49554	-0.103800446
238	0x3c918d91	0.0177677
239	0x3d995e68	0.0748871
240	0x3db9648e	0.090523824
241	0xbdb32f6b	-0.08749279
242	0xbcbd05c4	-0.023074038
243	0xbd43dcf0	-0.047818124
244	0x3d7a6d18	0.061139196
245	0x3cc8a68e	0.024493482
246	0xbd4c3b12	-0.04986102
247	0xbd5369e4	-0.051614657
248	0xbde27b60	-0.11058688
249	0xbdb11e8e	-0.08648406
250	0x3d842d71	0.0645398
251	0xbe109f71	-0.14123322
252	0xbc3cb4ba	-0.011517698
253	0xbb6e08af	-0.0036321094
254	0x3c5404d0	0.0129406005
255	0xbd342218	-0.043977827

stacks.0.blocks.0.fc4.bias f4 [50]
0	0xbd808b8b	-0.06276616
1	0xbd70f38d	-0.058826018
2	0x3dce2f9c	0.100676745
3	0x3da55c8f	0.08074295
4	0xbcfb6117	-0.030685944
5	0x3d74d172	0.059770055
6	0x3e22f1b2	0.15912512
7	0x3dbe1320	0.092809916
8	0x3e0076e1	0.12545349
9	0x3db5d027	0.088775925
10	0xbc492824	-0.012277637
11	0x3bde9692	0.0067928517
12	0x3bb61f9f	0.0055579687
13	0xbdafcd08	-0.085840285
14	0xbd2566ca	-0.04038123
15	0xbd9ed5c5	-0.07755617
16	0xbd153509	-0.03642753
17	0x3d84730e	0.064672574
18	0x3d45c0cc	0.04827957
19	0xbdd39bfd	-0.10332487
20	0x3d916202	0.07098772
21	0xbc760e31	-0.015018032
22	0x3c79649e	0.015221743
23	0xbd2a747d	-0.041614998
24	0xbdfc709d	-0.12326167
25	0xbdfa856c	-0.122324795
26	0xbde82daf	-0.113368385
27	0xbd082c22	-0.033245213
28	0xbdb6228e	-0.088933095
29	0x3d891c3c	0.066948384
30	0xbd7cda8d	-0.061731864
31	0xbd2c98d6	-0.042137943
32	0xbe12326b	-0.14277045
33	0x3d454bac	0.04816787
34	0xbdea05ed	-0.114269115
35	0xbdbd40cb	-0.09240874
36	0x3cc01005	0.023445139
37	0x3b286663	0.0025695793
38	0x3d05020c	0.032472655
39	0xbd9887fd	-0.07447813
40	0x3dc81066	0.09768753
41	0x3d673e2e	0.056455784
42	0x3dd564c7	0.104196124
43	0x3d821d02	0.06353189
44	0x3ddfb8cf	0.10923921
45	0x3ce4f7b2	0.027950142
46	0xbd64ced2	-0.0558613
47	0x3dbdbb8e	0.09264289
48	0xbd9e42f1	-0.07727612
49	0x3e043437	0.12910543

stacks.0.blocks.0.theta_layer.weight f4 [43, 50]
0	0x3e04daac	0.12974042
1	0x3ce122dc	0.027482443
2	0xbb6092ef	-0.0034267267
3	0x3d966e3b	0.073452435
4	0xbda9967f	-0.08280658
5	0x3adc27e3	0.0016796555
6	0x3cefed8c	0.029288076
7	0xbd679d5e	-0.05654656
8	0xbda90a6c	-0.08253941
9	0x3c7997a1	0.015233905
10	0x3d099a83	0.03359462
11	0xbde8be02	-0.11364366
12	0x3c8a85ea	0.016909558
13	0x3c8069f0	0.015675515
14	0x3db5d488	0.08878428
15	0x3d9bfdd3	0.076167725
16	0xbe0537f0	-0.1300962
17	0xbaf7cafb	-0.0018905097
18	0x3d3388c4	0.0438316
19	0xbe26a0df	-0.16272305
20	0x3dc4e711	0.09614385
21	0xbd8c8a17	-0.06862276
22	0x3cf655dc	0.030070238
23	0x3c620ec9	0.01379747
24	0xbc53d3b0	-0.012928888
25	0xbe1319a5	-0.14365251
26	0xbdc48f83	-0.09597685
27	0xbdf7068c	-0.120617956
28	0xbe0d4a88	-0.13797963
29	0x3da54d9e	0.08071445
30	0xbdef7da6	-0.116938874
31	0xbd72099f	-0.059091207
32	0xbdd1d708	-0.10246092
33	0x3baeed1f	0.0053383256
34	0x3da49110	0.08035481
35	0xbd9b9f61	-0.075987585
36	0xbd22ca87	-0.039743926
37	0xbdf20e76	-0.118191645
38	0x3d6cf6ab	0.05785243
39	0x3db01d98	0.085993946
40	0xbc3bbd33	-0.011458683
41	0xbdb29e73	-0.08721628
42	0xbe0e5b06	-0.1390191
43	0xbb38fb40	-0.0028225929
44	0x3de70d07	0.11281782
45	0xbd8ee6ce	-0.06977616
46	0xbdf74e82	-0.12075521
47	0xbdf25d50	-0.11834204
48	0xbdf27a16	-0.11839692
49	0xbd80e92c	-0.06294474
50	0x3bcf3dc3	0.0063245012
51	0x3d89d51e	0.06730102
52	0xbd1ef5f0	-0.038808763
53	0x3db14a32	0.0865673
54	0xbda54d8b	-0.08071431
55	0x3d83faf4	0.0644435
56	0xbda05296	-0.07828252
57	0x3c3dbda0	0.011580855
58	0x3de121de	0.10992788
59	0x3d474a67	0.04865494
60	0xbc2abb3b	-0.010420616
61	0x3dad4a1b	0.084614
62	0xbdb3712e	-0.08761822
63	0x3d3b06b8	0.045660704
64	0xbdbddf1c	-0.0927107
65	0xbe0b2373	-0.13587742
66	0xbd06889c	-0.032845125
67	0xbd6dc0c8	-0.05804518
68	0xbcc15c68	-0.023603633
69	0xbda6c6e2	-0.08143403
70	0x3de42056	0.1113898
71	0x3ce3400d	0.027740503
72	0x3d19a6e6	0.037512682
73	0xbdd5a503	-0.10431864
74	0x3d502d2f	0.05082434
75	0xbdaf4cc5	-0.085595645
76	0xbd6bb3ff	-0.057544705
77	0x3ddcc332	0.10779418
78	0xbdd25a6b	-0.10271152
79	0xbdd40055	-0.10351626
80	0x3d463b9c	0.04839669
81	0xbdfb32bd	-0.12265537
82	0xbd87cfff	-0.06631469
83	0xbdfb80b5	-0.12280408
84	0xbe05c5d9	-0.13063754
85	0x3e0d6ddd	0.13811441
86	0xbd8f0dd8	-0.06985062
87	0xbdfad644	-0.12247899
88	0xbd8d5af7	-0.06902116
89	0xbca3fdc4	-0.020018466
90	0xbd59c56c	-0.05316679
91	0xbe0bb6e5	-0.13643987
92	0xbd947cbe	-0.07250355
93	0x3e01a5d3	0.12660913
94	0xbc637e6b	-0.013885121
95	0xbdbc4f18	-0.091947734
96	0x3e09ac0f	0.13444541
97	0x3d18c85c	0.037300453
98	0xbd8ceea4	-0.068814546
99	0x3d867952	0.06566109
100	0x3d7ee4ca	0.06222991
101	0xbc9909ff	-0.018681524
102	0x3cdc3c16	0.02688412
103	0x3c9a5289	0.018838184
104	0xbdaed83f	-0.085373394
105	0xbc1ef830	-0.009702727
106	0x3d461ef7	0.048369374
107	0xbd8141d1	-0.063113816
108	0x3dd89246	0.105747744
109	0x3d4c2ba5	0.04984631
110	0x3ddc540c	0.10758218
111	0xbd0a68e3	-0.033791434
112	0xbd3d387f	-0.046196457
113	0xbd2e0e72	-0.042494245
114	0x3dad24ba	0.08454271
115	0x3c7ee20c	0.015556823
116	0xbd312044	-0.04324366
117	0x3c51cf45	0.012805765
118	0x3dc96e78	0.09835523
119	0xbd7977f5	-0.060905416
120	0x3dcad255	0.09903399
121	0x3c47c9b8	0.01219409
122	0x3d0f2885	0.03495075
123	0x3d21aeb8	0.039473265
124	0xbd56aa29	-0.05240837
125	0x3d5804d2	0.052738972
126	0x3e0629c3	0.13101868
127	0xbdee267f	-0.11628436
128	0x3dfd71be	0.1237521
129	0x3cd1a8c8	0.025593176
130	0xbe0fca78	-0.1404208
131	0x3e052790	0.13003373
132	0xbd36a89f	-0.044594403
133	0xbd6246ff	-0.05524349
134	0xbe00f002	-0.12591556
135	0x3ded965e	0.11600946
136	0x3c967aa6	0.01836903
137	0xbda2b926	-0.079454705
138	0x3dfbe8bc	0.1230025
139	0x3ddf21ba	0.10895105
140	0xbcf048e4	-0.029331632
141	0x3d6e83f0	0.058231294
142	0xbd06be75	-0.032896478
143	0xbdd89815	-0.10575882
144	0xbdef2c36	-0.116783544
145	0xbdd834ac	-0.10556921
146	0x3d535c4c	0.051601693
147	0x3cafcc56	0.02145974
148	0x3d99eeec	0.07516274
149	0xbd880e3a	-0.066433385
150	0xbd3d0592	-0.04614789
151	0xbdc504f2	-0.09620084
152	0x3d87030a	0.065923765
153	0x3de4babc	0.11168429
154	0x3e0001d0	0.12500691
155	0x3deddb3d	0.11614082
156	0x3dffc096	0.12487905
157	0xbe049902	-0.12948993
158	0xbdfd0d41	-0.123560436
159	0x3da5fa94	0.081044346
160	0xbcbc6eae	-0.023001995
161	0x3d58442e	0.052799396
162	0xbdc45713	-0.095869206
163	0xbd6040cc	-0.054749295
164	0x3de42c8e	0.11141311
165	0xbb971801	-0.004611016
166	0x3dc4070f	0.09571659
167	0xbd6da0b4	-0.058014587
168	0x3d8b110e	0.06790362
169	0x3dcb91b1	0.09939898
170	0x3e0f1ed3	0.13976602
171	0xbde7e19d	-0.11322329
172	0xbd6b3d77	-0.057431664
173	0x3d9a7d2c	0.07543406
174	0xbddf65ec	-0.10908112
175	0xbd9b023a	-0.07568784
176	0xbd209c70	-0.03921169
177	0x3d0e93df	0.03480899
178	0x3d5519fc	0.052026734
179	0x3cea6b07	0.028615488
180	0x3c7f9b74	0.015601028
181	0x3d808eed	0.06277261
182	0xbe02cd51	-0.12773634
183	0x3cdaca90	0.026707917
184	0xbdf8c1ff	-0.12146377
185	0xbd8eb0ff	-0.06967353
186	0xbd765826	-0.06014266
187	0x3d76d958	0.06026587
188	0x3e123e47	0.1428157
189	0x3dff035c	0.124518126
190	0xbd139212	-0.036027975
191	0x3e008489	0.12550558
192	0x3dfb2a5d	0.122639395
193	0x3d958c18	0.073021114
194	0x3e012e5a	0.12615338
195	0x3d36e203	0.044649135
196	0x3c3457b0	0.011007234
197	0xbd61978b	-0.055076163
198	0xbdde4984	-0.10853866
199	0xbdc5e7b8	-0.096633375
200	0xbd38a0b0	-0.04507512
201	0x3dd9015e	0.10595964
202	0xbbe968d8	-0.007123094
203	0xbde7179f	-0.11283802
204	0xbe1fe764	-0.15615612
205	0xbc673c36	-0.0141134765
206	0xbe01a095	-0.12658913
207	0x3cb49918	0.022045657
208	0xbdf8d3a6	-0.12149744
209	0xbd48311d	-0.048874963
210	0xbde33442	-0.11093952
211	0x3d771207	0.060319927
212	0xbda8a8ad	-0.08235297
213	0xbe10a08f	-0.14123748
214	0x3d6180bb	0.055054408
215	0xbddd02cb	-0.10791548
216	0xbdfefc14	-0.12450424
217	0x3d66b22e	0.05632227
218	0x3d557440	0.052112818
219	0xbce19cb5	-0.027540544
220	0x3c72fd22	0.014830859
221	0x3b66a149	0.0035191348
222	0xbb923d90	-0.004462905
223	0xbd9bf6f1	-0.0761546
224	0xbcd61dcc	-0.026137255
225	0xbddf5e44	-0.109066516
226	0x3e08a58d	0.13344403
227	0x3db77e83	0.08959677
228	0xb8088000	-3.2544136e-05
229	0xbe0b5f6e	-0.13610622
230	0xbd6de4e0	-0.0580796
231	0xb9a57a12	-0.00031562202
232	0x3db04e10	0.08608639
233	0xbdea5e4e	-0.114437684
234	0xbd9314c2	-0.071816936
235	0xbde9a5e0	-0.11408591
236	0xbd295b65	-0.041346926
237	0xbdbc8e23	-0.09206798
238	0xbdd3537d	-0.103186585
239	0xbd498d8a	-0.049207248
240	0x3ddbbd77	0.10729497
241	0x3da0be33	0.078487776
242	0x3d948423	0.072517656
243	0x3df9c8da	0.121965125
244	0xbdb57e33	-0.08861961
245	0x3d8b7cd4	0.068109185
246	0x3c137f20	0.009002477
247	0xbd4e0c97	-0.050304975
248	0x3c4dbc70	0.012557134
249	0x3d05e7b0	0.032691658
250	0x3da7a2ac	0.08185324
251	0xbdb4cf63	-0.088286184
252	0xba947ec8	-0.0011329288
253	0xbda03250	-0.07822096
254	0x3d0b3964	0.03399028
255	0xbded9757	-0.116011314

stacks.0.blocks.0.theta_layer.bias f4 [43]
0	0xbe0412f3	-0.12897854
1	0xbc436e1e	-0.011928109
2	0x3d81aa50	0.06331313
3	0x3dd39d47	0.10332733
4	0xbd297aa1	-0.041376714
5	0x3b1eafff	0.0024213789
6	0xbc638b52	-0.013888197
7	0x3cf61300	0.030038357
8	0xbc81ac8e	-0.01582935
9	0xbdf0e5ac	-0.117625564
10	0x3caa1564	0.020762153
11	0x3da1a36f	0.078925006
12	0x3c65b9ae	0.01402132
13	0xbd51dc99	-0.05123577
14	0xbe0383ff	-0.12843321
15	0xbe280cd0	-0.16411138
16	0xbd029f90	-0.031890452
17	0xbd33d2d6	-0.04390224
18	0xbe121d07	-0.14268886
19	0xbdf47016	-0.11935441
20	0x3e1ea0ca	0.15491024
21	0x3da73d0b	0.0816594
22	0xbd9d5562	-0.07682301
23	0x3d8fdac0	0.07024145
24	0x3ceefb29	0.029172497
25	0xbe0ad5cf	-0.13558124
26	0x3dbf9e87	0.093564086
27	0x3dc31664	0.09525755
28	0x3bf718c8	0.007540796
29	0xbdb4447f	-0.08802127
30	0xbd14d9d9	-0.03634057
31	0xbc39c49d	-0.01133838
32	0x3da61591	0.08109582
33	0xbbd7a17e	-0.0065805307
34	0xbdfe13f4	-0.124061495
35	0xbd382366	-0.044955634
36	0x3d87472f	0.06605374
37	0x3b9b98e0	0.0047484487
38	0xbcb97e05	-0.022643099
39	0xbd28cdcd	-0.041211892
40	0xbc2ee0e5	-0.010673736
41	0xbe1f0991	-0.15530993
42	0xbd6ed1b5	-0.05830546

stacks.0.blocks.1.fc1.weight f4 [50, 42]
0	0x3dec322d	0.11533008
1	0x3c90bc9b	0.01766806
2	0xbdaef227	-0.08542281
3	0x3de1b36a	0.11020549
4	0xbb33db3a	-0.0027443902
5	0x3c9efbec	0.019407235
6	0xbd15ba47	-0.0365546
7	0xbe087d81	-0.13329126
8	0x390331b4	0.0001251165
9	0xbe195402	-0.14973453
10	0x3cb7a1f1	0.022416087
11	0x3d1331b6	0.03593608
12	0x3bf453be	0.007456272
13	0xbd70d80f	-0.0587998
14	0xbd6f7a57	-0.05846628
15	0x3da110af	0.0786451
16	0x3dcc4054	0.09973207
17	0xbe19582f	-0.14975046
18	0xbc68a15e	-0.014198629
19	0x3cf67c85	0.030088672
20	0xbce72800	-0.028217316
21	0xbdbd3169	-0.0923794
22	0x3cb36bc0	0.021901965
23	0x3d4bc299	0.04974613
24	0xb99b5f0f	-0.00029634728
25	0x3b7b54f4	0.0038350197
26	0x3df6ada3	0.12044837
27	0xbdb827f3	-0.08991995
28	0x3dc975ba	0.09836908
29	0xbd2fdb55	-0.04293378
30	0xbd45f9e9	-0.048334036
31	0x3dcc139c	0.09964678
32	0xbe166e1b	-0.1469044
33	0xbc10be76	-0.008834472
34	0x3d15d348	0.036578447
35	0x3dad04f4	0.0844821
36	0xbd24a21b	-0.04019366
37	0xbe1ceeea	-0.15325513
38	0x3d0b809e	0.034058206
39	0xbd146f5e	-0.03623902
40	0xbbd2505b	-0.0064182705
41	0xbccc2239	-0.024918662
42	0x3ccf1131	0.025276752
43	0x3d6763ac	0.05649154
44	0xbd21519e	-0.039384477
45	0x3ccd78ef	0.02508208
46	0xbb90fea6	-0.0044248877
47	0x3e17e1bb	0.14832203
48	0xbe03cbe3	-0.12870745
49	0x3d3bafe7	0.04582205
50	0xbe0bd24a	-0.13654438
51	0x3dc3dba2	0.09563376
52	0xbd2ed850	-0.04268676
53	0x3cb00da4	0.02149088
54	0xbdbf00c6	-0.093263194
55	0xbd5e49be	-0.054269545
56	0xbdd7ab54	-0.10530725
57	0x3cbb8512	0.022890601
58	0x3d7d7b5b	0.06188522
59	0xbde870f7	-0.11349671
60	0x3de10be8	0.10988599
61	0xbd4b0900	-0.04956913
62	0x3de7ddb3	0.11321583
63	0x3d417e4c	0.047239587
64	0x3d6a7b0a	0.057246245
65	0xbda46654	-0.0802733
66	0x3dfd838d	0.12378607
67	0xbc83dbe4	-0.016096063
68	0xbdcc64c6	-0.099801585
69	0xbe07a8d6	-0.13248
70	0x3dea576e	0.11442457
71	0xbd26e062	-0.040741332
72	0xbe20c5cb	-0.15700452
73	0xbd20cd25	-0.03925814
74	0xbd7b1b9d	-0.06130563
75	0xbde8d7e6	-0.11369304
76	0xbe20eec8	-0.15716088
77	0xbdee5938	-0.11638111
78	0xbcbac3b0	-0.02279839
79	0x3dc08e2f	0.09402119
80	0x3dcd8414	0.100349575
81	0x3d02145e	0.031757705
82	0x3e046a5d	0.129312
83	0x3c4fee5e	0.0126911085
84	0xbe1920fa	-0.14953986
85	0xbc9c101d	-0.019050652
86	0xbd31264b	-0.04324941
87	0xbe1bc90a	-0.15213409
88	0x3dfef0e1	0.12448288
89	0xbe256b11	-0.16154124
90	0xbdc766f2	-0.09736432
91	0xbb672691	-0.003527079
92	0xbd298fac	-0.04139678
93	0x3db3f2f1	0.08786572
94	0x3cb0a588	0.021563306
95	0x3d90f5c2	0.070781246
96	0x3dec3dcc	0.11535224
97	0xbb6fabb8	-0.0036570858
98	0x3bc57065	0.0060253614
99	0xbdd8f060	-0.10592723
100	0x3e01e48a	0.12684837
101	0xbd64c282	-0.05584956
102	0x3cc2ef43	0.02379573
103	0x3daabcf9	0.08336825
104	0xbd692727	-0.056922104
105	0x3d4983ba	0.04919789
106	0x3d282f03	0.04106046
107	0x3cea5b3b	0.028607955
108	0x3db3630f	0.08759128
109	0x3d90b1a9	0.07065136
110	0xbd9020f6	-0.07037537
111	0xbdeebfae	-0.11657654
112	0x3ca367af	0.019946901
113	0x3d8f2638	0.069897115
114	0x3d45bb7d	0.048274506
115	0x3cd820f6	0.026382904
116	0x3d717639	0.058950637
117	0x3d2b47a8	0.041816384
118	0xbd274833	-0.04084034
119	0xbc73793d	-0.014860448
120	0xbc80e83c	-0.015735738
121	0xbd397504	-0.04527761
122	0xbde24e68	-0.11050111
123	0xbe170527	-0.14748059
124	0xbddc1db0	-0.1074785
125	0x3be5b85d	0.007010503
126	0xbcd53a80	-0.026028872
127	0xbd0a950e	-0.033833556
128	0x3e17137a	0.14753523
129	0x3cf5199c	0.029919438
130	0x3e0442a4	0.12916046
131	0xbdc61e5c	-0.09673759
132	0x3befd899	0.0073195216
133	0xbdc33177	-0.09530919
134	0xbd35630e	-0.04428392
135	0x3e02a85e	0.1275954
136	0xbe1b3be8	-0.15159571
137	0xbd88c8d7	-0.06678932
138	0x3dc5a2e8	0.096502125
139	0x3d643c01	0.055721287
140	0xbce077f7	-0.027400954
141	0x3d2663b2	0.04062242
142	0xbd25637d	-0.040378083
143	0x3df313eb	0.118690334
144	0xbc8aeed5	-0.016959587
145	0xbd0615f8	-0.032735795
146	0xbd0e3f4e	-0.03472834
147	0x3d9486af	0.07252251
148	0xbde9dd7c	-0.11419198
149	0xbe0512a7	-0.12995397
150	0x3dc36fb1	0.09542788
151	0x3de3d70b	0.111250006
152	0xbc026f7d	-0.007961151
153	0xbd82171d	-0.06352065
154	0xbd1e8922	-0.038705
155	0xbc842c6e	-0.016134467
156	0x3d3fc6ca	0.04682044
157	0xbd58676a	-0.052833
158	0x3d9ba524	0.075998574
159	0x3dc6f9a5	0.09715585
160	0xbca7a84b	-0.02046599
161	0xbe1fee59	-0.15618266
162	0xbd1bf82a	-0.038078465
163	0x3cf4fba2	0.029905144
164	0xbdcfc5ff	-0.10145187
165	0x3dbe5527	0.09293585
166	0xbdee48c9	-0.116349764
167	0xbdaa4801	-0.08314515
168	0xbdd72f50	-0.10507071
169	0x3de5434b	0.11194476
170	0x3d58c5d8	0.052923054
171	0x3ddd8d49	0.10817964
172	0xbd50ba4e	-0.050958924
173	0x3cd083f8	0.025453553
174	0x3dc014d8	0.09378976
175	0xbd12b642	-0.035818346
176	0xbcb796e1	-0.022410812
177	0xbd3ec31b	-0.046572786
178	0x3df864ed	0.12128625
179	0x3d413367	0.04716816
180	0xbdfcf827	-0.12352019
181	0x3d20a9d2	0.039224453
182	0x3d3610ba	0.044449545
183	0x3ddbb80c	0.107284635
184	0xbdc05fec	-0.09393296
185	0x3e0fee25	0.14055689
186	0x3dddb0ef	0.10824763
187	0xbdcda525	-0.100412644
188	0xbd82ccdc	-0.0638673
189	0x3d1b871a	0.03797064
190	0x3db71d92	0.08941187
191	0x3df6a952	0.12044014
192	0x3df542f8	0.11975664
193	0xbdde765e	-0.108624205
194	0x3d8e7122	0.06955172
195	0xbded8dcc	-0.11599311
196	0x3db67078	0.089081705
197	0x3d99e9cb	0.075152956
198	0xbd637097	-0.055527296
199	0x3ccd22bd	0.025040979
200	0x3df7bf2e	0.120970115
201	0x3d9f001d	0.077636935
202	0xbc2d2fa2	-0.010570439
203	0xbc0cd31c	-0.008595254
204	0x3d683021	0.056686524
205	0x3e26ad62	0.16277078
206	0x3cf901a8	0.030396298
207	0xbe1394fc	-0.14412302
208	0x3db713e6	0.08939342
209	0xbd78be85	-0.06072857
210	0x3c7a6460	0.01528272
211	0x3de90016	0.113769695
212	0x3d4ae824	0.049537793
213	0xbe04ae28	-0.1295706
214	0x3dff7de2	0.12475182
215	0xbd9744f7	-0.07386201
216	0x3bb593c0	0.005541295
217	0xbd93ebc0	-0.072227
218	0x3dafec0e	0.08589946
219	0xbc6c8850	-0.014436796
220	0xbdc48750	-0.09596121
221	0xbe1da8bb	-0.15396397
222	0xbdef9fa8	-0.11700374
223	0xbdd1c131	-0.102419265
224	0xbca4b3d8	-0.020105287
225	0xbca3b470	-0.0199835
226	0xbd6349c0	-0.055490255
227	0x3d39eda4	0.045392647
228	0xbe0ab36e	-0.1354501
229	0xbe18649a	-0.14882126
230	0xbc843070	-0.016136378
231	0x3ca5e3b8	0.020250186
232	0x3dad4dfc	0.0846214
233	0xbe0f351c	-0.13985103
234	0x3d9f38c4	0.07774499
235	0xbe0e01cf	-0.13867877
236	0xbdd9efd2	-0.10641445
237	0xbd524392	-0.05133397
238	0xbdc54eea	-0.09634192
239	0x3e04d341	0.12971212
240	0xbe0c0cba	-0.1367673
241	0x3e088e59	0.13335551
242	0xbe02d913	-0.1277812
243	0x3d2ec2b8	0.042666167
244	0xb9ff1a00	-0.00048656762
245	0x3d25f9a0	0.040521264
246	0x3d03893c	0.0321133
247	0x3e1d63c9	0.15370096
248	0xbdf24b62	-0.118307844
249	0xbdd3c6f0	-0.10340679
250	0x3e1dca27	0.15409146
251	0xbd9e40cf	-0.07727205
252	0x3d9348c9	0.07191617
253	0x3e15a8d3	0.14615183
254	0x3d399f6c	0.045318052
255	0xbd0379ef	-0.032098707

stacks.0.blocks.1.fc1.bias f4 [50]
0	0x3df3c3d5	0.11902586
1	0xbe1050ad	-0.14093275
2	0xbe0a8215	-0.13526185
3	0xbdacfeb9	-0.08447022
4	0x3e214666	0.15749511
5	0xbdca4726	-0.09876852
6	0x3e049c1d	0.12950177
7	0x3db57513	0.08860221
8	0xbd60f468	-0.054920584
9	0xbdd917be	-0.106002316
10	0xbd84b10a	-0.0647908
11	0x3e26d213	0.16291074
12	0x3cf80d58	0.0302798
13	0x3b000b8a	0.0019538128
14	0xbdf389a3	-0.118914865
15	0x3d469fdb	0.048492294
16	0x3df4efec	0.11959824
17	0x3d1ece54	0.03877099
18	0xbdf372c3	-0.118871234
19	0xbda76d22	-0.08175112
20	0x3d9ea1d2	0.077457085
21	0x3e16355f	0.14668797
22	0x3dd4b886	0.103867576
23	0x3e1e55ff	0.15462492
24	0x3dbf65f4	0.09345618
25	0x3bcb7647	0.006209168
26	0x3d407269	0.04698411
27	0xbe117da5	-0.14208086
28	0xbdba43ea	-0.09094985
29	0x3db70c92	0.089379445
30	0x3d91494d	0.07094059
31	0xbd9612ea	-0.07327826
32	0xbc4113ed	-0.011784536
33	0x3dcfa46a	0.10138781
34	0xbdcdcbdd	-0.100486495
35	0xbe198afd	-0.14994426
36	0xbd90fef2	-0.07079877
37	0xbc6d0912	-0.014467495
38	0x3ddeeade	0.10884641
39	0x3da5dc84	0.08098701
40	0x3d92f0f3	0.07174864
41	0xbc5276e6	-0.01284573
42	0x3d0fc716	0.035101973
43	0x3db4196a	0.0879391
44	0xbd92a488	-0.07160288
45	0x3de24be4	0.11049631
46	0x3ea68934	0.32526553
47	0xbd66ee56	-0.05637964
48	0xbdeb0e55	-0.11477343
49	0xbd9fa83d	-0.07795761
