RNN_models/close_slope_45_5_zscore_15min_t2.pth (torch, 172046 bytes, 30 tensors)

stacks.0.blocks.0.fc1.weight f4 [50, 56]
-0.07527145 0.054859933 -0.12998226 -0.09477983 -0.07219795 -0.077326566 -0.04377941 0.12793182
-0.0062381593 -0.05872702 -0.1024176 0.09096318 -0.12806349 -0.016423065 0.03456248 -0.12909485
-0.05214216 -0.07075115 0.082454994 -0.0020868864 -0.056705166 0.054368414 0.041634984 -0.072694086
-0.05161557 0.04119583 0.017966684 0.076279655 0.09643348 0.048234083 -0.04716138 0.091023006
-0.008899068 -0.030459318 0.11053629 -0.06321313 0.06500948 -0.13673754 0.03806679 -0.02390449
-0.10133302 -0.24007235 0.06092638 -0.012838161 -0.15581952 -0.030792477 0.080767184 0.12987615
-0.17406423 0.008686992 0.0061112843 0.09938064 0.16815953 0.08736335 0.14749098 0.05410906
-0.11331156 -0.07863249 0.07910842 0.076351956 0.08556566 0.15590401 0.04382839 -0.05470742
-0.10767043 0.042170417 -0.044926543 -0.051117044 0.00058816205 0.07366297 -0.037082493 0.060191695
-0.086873814 -0.041168403 -0.003499952 0.0167246 0.012673263 -0.09813609 0.123727925 -0.10955161
0.12476355 0.007922411 -0.031258747 -0.06733221 0.13031334 -0.042721044 -0.10002993 -0.051203765
-0.121203035 -0.09058483 -0.09115567 0.07337429 -0.124321476 -0.070917524 -0.0789435 0.05638568
0.036820285 -0.005769512 0.1059845 -0.005938178 -0.061165255 0.13104513 -0.11771261 0.0010466998
-0.09936864 -0.008538133 -0.123403884 -0.036777325 0.007631699 0.10961472 -0.14314689 -0.14127731
0.0031219018 0.0831058 0.019066181 0.054880254 0.076149136 -0.012525857 -0.08478808 -0.14447992
0.024043718 -0.0055348743 -0.09160502 -0.048226416 0.031390347 -0.009831779 -0.007969695 0.102292374
0.11310486 -0.014016679 -0.12587443 -0.10585194 -0.0757137 0.036266938 0.026470508 -0.028584076
-0.055944405 -0.03493795 0.029282516 0.06708297 0.0016705721 0.05144611 0.007163092 -7.217248e-05
-0.076950744 0.10902101 -0.026951438 -0.039334156 0.082190074 -0.0597943 -0.08289033 0.09221233
-0.15271133 -0.020526934 0.1014701 0.03756143 0.15250866 -0.030369954 0.19985625 -0.09513087
-0.007994028 0.08243299 0.049112186 -0.08640759 0.17417137 -0.089574955 0.22515853 0.03972029
-0.08035724 -0.07544767 0.051449377 0.045617145 -0.08415014 -0.02644565 -0.0032183218 0.020541903
-0.10250438 0.11895293 0.017690415 -0.067839496 0.13645735 -0.025046399 0.08152685 -0.043107327
-0.054642525 0.1166556 -0.10740245 -0.033152495 0.11607099 -0.0069091525 0.041437443 0.05202363
-0.034633394 0.12158316 0.11059555 -0.086744495 0.01718055 -0.013889244 0.017462077 0.12303507
0.110631116 -0.018484056 -0.017426524 -0.03272989 0.10105777 -0.08437433 0.11926307 0.058349192
0.027435377 -0.09534476 0.07055794 -0.1415344 0.12770732 -0.056316756 -0.07226952 0.099333875
-0.022580886 0.003994393 0.06352079 0.117634945 0.029646492 0.12851572 0.23235132 -0.11177016
-0.05718511 -0.073398575 -0.08961922 0.018476745 0.08215954 0.08119754 0.11057841 0.027455263
0.1239833 0.134892 -0.07288587 -0.105635 0.06307271 -0.024024077 0.021477964 -0.13815632
-0.022264684 0.08904391 0.011639877 0.060799718 -0.06528381 -0.13398486 -0.08000309 -0.09307932
-0.008081929 -0.033926748 0.1124244 -0.032063432 0.09944375 0.0018829536 -0.004687217 -0.11188205
00000000: eb27 9abd cfb4 603d 121a 05be ed1b c2bd
00000010: 85dc 93bd 645d 9ebd 0a52 33bd 8f00 033e
00000020: 7969 ccbb be8b 70bd 52c0 d1bd e74a ba3d
00000030: 1323 03be aa89 86bc 6391 0d3d 7131 04be
00000040: 0493 55bd fbe5 90bd 2ade a83d 25c4 08bb
00000050: ad43 68bd 6ab1 5e3d 7289 2a3d a3e0 94bd
00000060: d96a 53bd f5bc 283d de2e 933c 8238 9c3d
00000070: eb7e c53d 1a91 453d 4b2c 41bd 456a ba3d
00000080: 66cd 11bc d285 f9bc da60 e23d e375 81bd
00000090: b123 853d ed04 0cbe eceb 1b3d 59d3 c3bc
000000a0: b087 cfbd 87d5 75be f18d 793d 2657 52bc
000000b0: 278f 1fbe 8140 fcbc 4469 a53d 41fe 043e
000000c0: e53d 32be e353 0e3c 2b41 c83b 1488 cb3d
000000d0: 0332 2c3e 8eeb b23d e007 173e 76a1 5d3d
000000e0: e40f e8bd 120a a1bd 9803 a23d 6a5e 9c3d
000000f0: 0c3d af3d 4da5 1f3e 6685 333d e314 60bd
00000100: 5082 dcbd e3ba 2c3d e504 38bd 1b60 51bd
00000110: e32e 1a3a 9cdc 963d d0e3 17bd 918b 763d
00000120: e6ea b1bd 33a0 28bd 735f 65bb 0702 893c
00000130: 85a3 4f3c 93fb c8bd 1165 fd3d 985c e0bd
00000140: 0884 ff3d 00cd 013c 2c09 00bd 78e5 89bd
00000150: dc70 053e 43fc 2ebd 7edc ccbd 0abb 51bd
00000160: 4c39 f8bd 8a84 b9bd d3af babd 4245 963d
00000170: 429c febd 353d 91bd 21ad a1bd acf4 663d
00000180: ded0 163d 2d0e bdbb 670e d93d 0c95 c2bb
00000190: 6b88 7abd b230 063e 4f13 f1bd 6b31 893a
000001a0: c981 cbbd 87e3 0bbc 2dbb fcbd d2a3 16bd
000001b0: 5513 fa3b af7d e03d 1995 12be 00ab 10be
000001c0: d298 4c3b 6033 aa3d ae30 9c3c 1eca 603d
000001d0: 14f4 9b3d 4139 4dbc 5fa5 adbd 8bf2 13be
000001e0: 55f7 c43c e45d b5bb 6a9b bbbd 1089 45bd
000001f0: 2a93 003d 7815 21bc 5393 02bc aa7e d13d
00000200: 85a3 e73d 36a6 65bc 3ae5 00be e7c8 d8bd
00000210: c90f 9bbd a48c 143d aed8 d83c 2729 eabc
00000220: f625 65bd 191b 0fbd e3e1 ef3c cc62 893d
00000230: 19f7 da3a 28b9 523d 5fb8 ea3b 4e5b 97b8
00000240: 5a98 9dbd 6846 df3d 43c9 dcbc da1c 21bd
00000250: 4553 a83d deea 74bd 68c2 a9bd d1d9 bc3d
00000260: 5c60 1cbe 1a28 a8bc 8ecf cf3d 04da 193d
00000270: 3b2b 1c3e 69ca f8bc 1ea7 4c3e f9d3 c2bd
00000280: 62f9 02bc a1d2 a83d dc29 493d 76f6 b0bd
00000290: fb59 323e 1373 b7bd f58f 663e beb1 223d
000002a0: 5692 a4bd 4f84 9abd 95bc 523d 0bd9 3a3d
000002b0: e956 acbd 8ca4 d8bc 7bea 52bb 7e47 a83c
000002c0: d1ed d1bd 989d f33d 7deb 903c 6fef 8abd
000002d0: 7abb 0b3e 1b2e cdbc 8df7 a63d 4f91 30bd
000002e0: d7d0 5fbd 22e9 ee3d d1f5 dbbd e9ca 07bd
000002f0: a1b6 ed3d 2c66 e2bb 4fba 293d bb16 553d
00000300: bfdb 0dbd 9700 f93d eb7f e23d 19a7 b1bd
00000310: 3abe 8c3c b68f 63bc a10c 8f3c d0f9 fb3d
00000320: 9192 e23d e06b 97bc 12c2 8ebc c70f 06bd
00000330: 60f7 ce3d 73cc acbd 3240 f43d 90ff 6e3d
00000340: 28c0 e03c 1d44 c3bd ae80 903d 65ee 10be
00000350: b5c5 023e 66ac 66bd 0b02 94bd 8f6f cb3d
00000360: 8dfb b8bc 66e3 823b 3017 823d 97ea f03d
00000370: 33dd f23c a099 033e 81ed 6d3e c1e7 e4bd
00000380: ef3a 6abd fe51 96bd 488a b7bd 8b5c 973c
00000390: 4343 a83d e54a a63d ef76 e23d dce9 e03c
000003a0: f5ea fd3d 2121 0a3e 3045 95bd 2a57 d8bd
000003b0: 442c 813d 24ce c4bc 8ef2 af3c da78 0dbe
000003c0: 6d64 b6bc a75c b63d 2fb5 3e3c 2009 793d
000003d0: 85b3 85bd 5433 09be a9d8 a3bd 5fa0 bebd
000003e0: 116a 04bc c6f6 0abd c43e e63d f254 03bd
000003f0: 2aa9 cb3d 70cd f63a 3a97 99bb 6b22 e5bd

stacks.0.blocks.0.fc1.bias f4 [50]
0.18528666 0.0009668453 -0.061216332 -0.024824457 -0.067679904 0.06155674 0.13102584 0.024971744
0.013604277 -0.08768321 -0.1188506 -0.10322643 -0.004424834 -0.018082684 -0.07496434 -0.0383735
0.15151885 0.037406683 -0.16196844 0.09973204 -0.0006849054 -0.08430285 -0.046701726 -0.06800135
0.004919639 -0.1674842 0.051414177 -0.053852327 0.017331881 -0.1552466 -0.04506673 -0.022342548
-0.065818176 -0.04686418 0.114973895 -0.1208769 0.13403071 -0.010893094 -0.08611025 -0.05507235
0.1338195 -0.010358987 0.057496335 0.07258608 0.13165715 -0.026236622 0.059534602 0.1464265
0.00766255 -0.067307174
00000000: c9bb 3d3e e473 7d3a fabd 7abd a95c cbbc
00000010: c39b 8abd ec22 7c3d a32b 063e 8b91 cc3c
00000020: 79e4 5e3c 4193 b3bd f267 f3bd 6168 d3bd
00000030: 33fe 90bb 2322 94bc e786 99bd 882d 1dbd
00000040: c227 1b3e c037 193d 0edb 25be 5040 cc3d
00000050: 398b 33ba f9a6 acbd 4f4a 3fbd 4b44 8bbd
00000060: ec34 a13b fa80 2bbe ac97 523d 4294 5cbd
00000070: 97fb 8d3c f7f8 1ebe e497 38bd b807 b7bc
00000080: aecb 86bd a8f4 3fbd 6f77 eb3d 4f8e f7bd
00000090: 593f 093e f378 32bc 925a b0bd 8b93 61bd
000000a0: fb07 093e beb8 29bc 4781 6b3d 03a8 943d
000000b0: 22d1 063e 2fee d6bc 8eda 733d d4f0 153e
000000c0: 2116 fb3b 58d8 89bd

stacks.0.blocks.0.fc2.weight f4 [50, 50]
-0.06660744 -0.0035162591 0.14045314 0.006252169 0.08052201 0.11634301 0.026419234 0.13486525
0.017697493 0.075048216 0.10586659 0.031136092 -0.0071835844 0.14199619 -0.00739123 -0.09821047
0.13336477 -0.011865184 -0.07810226 0.021307856 -0.09678442 0.05486256 0.035799913 -0.03172298
0.06452893 -0.117191926 -0.040977072 0.01082524 0.080457106 -0.041935846 -0.1303873 0.12937362
-0.10232586 -0.034165565 0.0043906486 -0.1179448 -0.0013160035 -0.020813141 0.024117045 -0.06749677
0.13485518 -0.09729778 -0.04355752 0.15631618 0.034820996 0.02931616 0.12742278 0.14480282
-0.024473816 0.09598967 -0.12311506 -0.00792854 -0.06725073 0.15282275 0.10629063 0.012162064
-0.025146032 -0.00848144 0.10871137 -0.077839375 0.13762613 -0.08683676 0.027013639 -0.10146688
-0.12947154 0.0023515534 0.05380841 -0.0058227684 0.15665765 0.09094864 0.027827442 0.018251874
-0.06297875 -0.077349715 0.1373348 -0.045975763 -0.06799498 -0.054929886 0.12362707 -0.055871844
-0.0027372264 -0.12044773 -0.0052633067 -0.10159853 -0.01173409 0.15435831 0.03791485 0.13163938
0.048577253 0.01908722 -0.038441848 -0.04556335 0.0912453 0.020545604 -0.032462735 -0.028124796
0.057444632 0.1683462 0.11840911 -0.0026021688 -0.11723907 0.05474815 0.08005872 0.00057552895
0.053032752 -0.0960781 0.10684171 -0.062620014 -0.012651392 -0.0628269 0.06492269 -0.07338998
-0.15785117 -0.054552633 -0.21927555 -0.026648149 -0.042039357 0.13572021 0.051612794 -0.0660038
-0.0925197 0.017616356 0.022148393 0.09807023 0.028291257 -0.104200125 -0.0052110385 0.15741876
0.02279837 -0.026863405 -0.082307346 0.07241536 0.052194748 0.004275571 -0.1448189 -0.063152194
0.18331593 0.066307016 -0.0069829705 0.028319238 0.14983694 -0.11592807 -0.06822208 -0.09455157
0.054970756 -0.053231973 -0.0594962 0.1417417 0.030051911 0.07583901 0.028311858 0.0070453454
0.18498665 -0.00085976615 0.039752144 -0.11853299 0.07997557 -0.071291484 -0.03303999 -0.09853415
-0.24284355 0.0037886044 0.16923724 -0.057213202 0.12881835 0.102618225 -0.03678257 -0.0073178248
-0.050034646 0.10157718 -0.072065614 0.16506885 -0.09765741 0.058709774 -0.2588651 -0.04581098
-0.05371836 0.072286434 0.040874343 0.034966704 0.027918963 -0.07467218 0.01516046 -0.098115355
-0.017209183 0.040143948 -0.08971898 -0.07563109 0.13092142 -0.005102477 -0.0128462585 -0.00921879
-0.08873153 0.18528275 0.012554053 0.13293317 -0.123150624 -0.15431072 0.10517994 0.031090844
0.13390823 0.0012126443 0.21142489 -0.013299495 0.01187127 0.042893972 0.1751107 0.048597746
-0.04423943 -0.035523456 -0.08465221 0.074011125 0.12775892 0.003187223 0.025071632 -0.091692075
0.05998989 -0.11250069 -0.08661907 -0.13848053 0.065528475 -0.022385199 0.09910135 0.008501873
-0.10189213 0.030457169 -0.056975655 -0.13708399 0.06769445 -0.11962259 0.04297558 -0.073654786
-0.12680128 -0.030688254 0.12860397 0.06854755 -0.118200555 0.15835078 -0.030249055 -0.04175904
-0.114181034 -0.0035071792 -0.030281086 -0.102863796 0.108594716 -0.10261145 -0.07746763 -0.07618123
-0.030806933 -0.1630872 -0.12168248 -0.089433014 -0.032465253 -0.102087945 -0.03872732 -0.15325026
00000000: 7b69 88bd 0a71 66bb f3d2 0f3e ffde cc3b
00000010: b9e8 a43d 3e45 ee3d 266d d83c 1e1a 0a3e
00000020: 55fa 903c e1b2 993d 95d0 d83d 1e11 ff3c
00000030: 4664 ebbb 7367 113e 2232 f2bb 9222 c9bd
00000040: c690 083e 3066 42bc 14f4 9fbd d08d ae3c
00000050: e936 c6bd 90b7 603d eea2 123d f5ef 01bd
00000060: be27 843d 5202 f0bd 93d7 27bd 595c 313c
00000070: b2c6 a43d ecc4 2bbd 4084 05be 857a 043e
00000080: 3890 d1bd 31f1 0bbd 6edf 8f3b 0b8d f1bd
00000090: c07d acba 5280 aabc 1c91 c53c bf3b 8abd
000000a0: 7a17 0a3e 0f44 c7bd 5f69 32bd 5911 203e
000000b0: 76a0 0e3d 7228 f03c 1e7b 023e 3147 143e
000000c0: 507d c8bc 3b96 c43d c023 fcbd b5e6 01bc
000000d0: c0ba 89bd 917d 1c3e e7ae d93d 6543 473c
000000e0: 0dff cdbc bdf5 0abc 11a4 de3d 406a 9fbd
000000f0: dded 0c3e 79d7 b1bd b54b dd3c decd cfbd
00000100: 3094 04be 851c 1a3b 3566 5c3d eccc bebb
00000110: dd6a 203e 4843 ba3d 60f6 e33c f484 953c
00000120: 01fb 80bd 8769 9ebd 7ea1 0c3e 1551 3cbd
00000130: f440 8bbd 29fe 60bd 3030 fd3d e0d9 64bd
00000140: 0a63 33bb 4dad f6bd d177 acbb e412 d0bd
00000150: 5740 40bc 1b10 1e3e 9a4c 1b3d 79cc 063e
00000160: f1f8 463d cd5c 9c3c 3375 1dbd a3a0 3abd
00000170: d1de ba3d 414f a83c a5f7 04bd f965 e6bc
00000180: 104b 6b3d f262 2c3e 7a80 f23d 2689 2abb
00000190: 0a1b f0bd 993f 603d d4f5 a33d 18df 163a
000001a0: df38 593d 98c4 c4bd d4cf da3d ec3e 80bd
000001b0: c947 4fbc 64ab 80bd 30f6 843d 7c4d 96bd
000001c0: bda3 21be 9572 5fbd c589 60be 384d dabc
000001d0: 7631 2cbd 3dfa 0a3e f067 533d 002d 87bd
000001e0: f87a bdbd 2d50 903c 8c70 b53c 0bd9 c83d
000001f0: 11c3 e73c e066 d5bd 5cc1 aabb 6232 213e
00000200: a6c3 ba3c a510 dcbc c190 a8bd 814e 943d
00000210: 29ca 553d 171a 8c3b 684b 14be f055 81bd
00000220: 2cb7 3b3e f9cb 873d 67d1 e4bb bffd e73c
00000230: db6e 193e b26b edbd 05b8 8bbd 41a4 c1bd
00000240: 0429 613d c509 5abd 4ab2 73bd bc24 113e
00000250: 6d2f f63c 7c51 9b3d 45ee e73c a4dc e63b
00000260: 246d 3d3e ee61 61ba 25d3 223d 6dc1 f2bd
00000270: 3bca a33d 4501 92bd f154 07bd 46cc c9bd
00000280: fbab 78be 3c4a 783b 874c 2d3e 6458 6abd
00000290: f5e8 033e 8129 d23d 52a9 16bd 5dca efbb
000002a0: 21f1 4cbd b207 d03d 2397 93bd cf07 293e
000002b0: 9c00 c8bd a979 703d f789 84be 4ba4 3bbd
000002c0: c807 5cbd e90a 943d db6b 273d 3f39 0f3d
000002d0: 4fb6 e43c baed 98bd 9463 783c b4f0 c8bd
000002e0: 46fa 8cbc fb6d 243d 96be b7bd 79e4 9abd
000002f0: 4410 063e ae32 a7bb 1d79 52bc 680a 17bc
00000300: e0b8 b5bd c3ba 3d3e 84af 4d3c a21f 083e
00000310: 6536 fcbd a103 1ebe 9568 d73d 3ab2 fe3c
00000320: 3d1f 093e 97f1 9e3a c47f 583e 20e6 59bc
00000330: b77f 423c 97b1 2f3d 3850 333e 6e0e 473d
00000340: 6834 35bd 0b81 11bd 235e adbd 2593 973d
00000350: 3cd3 023e bbe0 503b 0663 cd3c 0ec9 bbbd
00000360: f5b7 753d c366 e6bd 5765 b1bd d7cd 0dbe
00000370: cb33 863d 2a61 b7bc a6f5 ca3d 714b 0b3c
00000380: d2ac d0bd 5081 f93c 4e5f 69bd bf5f 0cbe
00000390: 63a3 8a3d b0fc f4bd 2907 303d 52d8 96bd
000003a0: 32d8 01be ef65 fbbc c2b0 033e a862 8c3d
000003b0: 2213 f2bd b526 223e decc f7bc 870b 2bbd
000003c0: bfd7 e9bd b4d8 65bb 0a10 f8bc 41aa d2bd
000003d0: e866 de3d f425 d2bd 59a7 9ebd e804 9cbd
000003e0: d25e fcbc 5500 27be aa34 f9bd a828 b7bd
000003f0: 49fa 04bd 7c13 d1bd 8aa0 1ebd a3ed 1cbe

stacks.0.blocks.0.fc2.bias f4 [50]
-0.023186736 0.12324075 0.049559016 -0.005436719 0.016385516 -0.21584602 0.15019011 -0.012777805
-0.17526335 0.058991633 0.07162554 0.03394338 -0.098069765 -0.006703471 -0.14518285 -0.11223507
0.0024218154 0.059106898 0.08538003 -0.031381726 -0.10437075 0.056104645 -0.09450223 0.104425065
0.074798495 -0.16531324 -0.13133161 -0.07536622 0.15535831 0.008098127 -0.02794424 -0.033654734
-0.13204896 -0.090257905 0.12817304 0.1572531 -0.033238754 -0.05462966 -0.040190063 -0.060164824
-0.0722816 0.07679781 -0.111335054 0.05720926 -0.010345808 0.13314933 -0.10738553 0.10593903
-0.019844066 0.12142693
00000000: 1cf2 bdbc a565 fc3d 65fe 4a3d 8126 b2bb
00000010: eb3a 863c bd06 5dbe 70cb 193e 005a 51bc
00000020: 3c78 33be 36a1 713d 69b0 923d 3708 0b3d
00000030: cdd8 c8bd caa8 dbbb d0aa 14be 80db e5bd
00000040: 52b7 1e3b 131a 723d badb ae3d 208a 00bd
00000050: 55c0 d5bd fccd 653d 638a c1bd cfdc d53d
00000060: f42f 993d e047 29be cb7b 06be 9b59 9abd
00000070: 4016 1f3e 02ae 043c 52eb e4bc 8cd9 09bd
00000080: d837 07be 23d9 b8bd cb3f 033e f506 213e
00000090: 5c25 08bd 5ac3 5fbd 569e 24bd 646f 76bd
000000a0: 6008 94bd 2c48 9d3d a203 e4bd 4254 6a3d
000000b0: 7781 29bc 4c58 083e f2ec dbbd 90f6 d83d
000000c0: 0690 a2bc afae f83d

stacks.0.blocks.0.fc3.weight f4 [50, 50]
-0.11182008 0.0443665 -0.03812093 0.103197 0.123622976 0.10857391 -0.06580815 0.1310826
0.099820666 0.005119566 -0.082181 -0.0066897124 -0.088428125 -0.0890521 -0.008050337 -0.051494516
-0.13568152 -0.13798523 -0.10819998 -0.093659215 -0.030589668 0.12896436 -0.07990254 0.08128215
-0.11771474 -0.05274514 -0.09705281 -0.043836825 -0.007230893 -0.13325974 0.0026603846 0.0051820753
0.039902776 -0.03986332 -0.020553552 -0.066440955 0.09348993 -0.091187745 0.018270353 -0.051581237
0.02605486 0.014114774 0.115461215 0.06625325 0.029378567 0.012158462 0.06504845 -0.05701238
0.06298162 -0.012311628 0.007823963 -0.10794462 0.1034424 0.10452329 0.019175943 -0.04166804
-0.010543954 -0.009034839 -0.03093907 0.008400761 -0.08384353 0.06627859 -0.034649726 -0.059272125
-0.0028011717 -0.03857966 0.049519602 0.026389057 -0.11704325 -0.122036695 -0.09012039 0.0821024
0.08545632 0.035207126 0.032338854 0.08245473 -0.12432808 -0.09925505 -0.020717418 -0.12242653
0.063683264 0.07804167 0.031322177 0.08932655 0.03506943 -0.088424265 -0.14231536 0.09218456
0.074698254 -0.094702154 -0.061176393 0.0034731156 -0.17966485 -0.059171602 0.011535073 0.11288043
0.05675325 0.12666774 -0.040759444 0.11433391 -0.086922236 -0.054000072 -0.08150061 0.12298094
-0.07245631 -0.00690305 0.12055097 -0.07229737 -0.111253865 -0.02611743 -0.015956 0.12121847
-0.01311068 0.08535035 0.133563 0.09344151 0.1428972 0.123435944 0.07080308 -0.092858955
0.06513198 -0.019769896 -0.10396355 0.110486016 0.022025563 -0.1135884 0.061269473 -0.042476058
-0.05910445 -0.028342418 -0.13490325 0.115222156 -0.08417058 0.057094768 -0.033831276 0.06773198
0.053959772 -0.07436983 0.028377054 0.044223115 0.035259955 -0.02409544 -0.038650393 0.10320523
0.08848714 0.14353266 -0.07196923 0.044876385 -0.13608222 -0.007145924 -0.00024763535 0.097798504
-0.13247849 0.117133774 -0.07323728 0.08454223 0.08778027 -0.15481527 0.106668174 0.061771944
0.045036152 0.006061773 -0.051486637 0.055440396 0.024712663 0.09850992 -0.04993309 0.09270493
-0.1486527 0.13023889 -0.024527913 0.03357406 0.15446362 -0.1901649 -0.083003856 -0.12502094
0.07902907 0.1154133 0.15878111 -0.015704839 -0.080646195 -0.0014881694 0.02695447 0.16111621
0.105113395 -0.14474908 0.016229227 0.09624502 0.033499464 -0.124702 -0.020212915 0.0093975905
-0.13406612 0.0006568947 0.04643416 -0.12428577 -0.13884251 0.08322461 -0.11590421 0.13067196
0.060504742 -0.09316056 0.11186865 0.0693014 -0.022025399 0.07734441 0.0017464602 -0.112790845
0.07256359 -0.06036166 0.087736145 -0.11599671 -0.111183174 0.09562763 0.04115076 0.040379494
-0.070752285 0.048432473 0.027004275 0.0870719 -0.06935222 0.016165642 0.06662806 0.0031377915
0.04080553 -0.1269126 -0.07005209 -0.008333773 0.092896454 -0.102306895 -0.15645263 -0.091130614
-0.11458858 0.013025463 -0.115346916 -0.037715293 -0.13847694 0.010339442 -0.13175073 -0.012770885
-0.10080676 -0.030646464 -0.08294684 0.12807646 0.044721976 0.028733373 -0.066632204 -0.15794636
-0.07379617 -0.06919012 0.03290196 -0.0057882033 -0.07085718 -0.08382636 0.04000736 -0.017889222
00000000: ed01 e5bd a6b9 353d b124 1cbd f358 d33d
00000010: 0b2e fd3d 005c de3d 6cc6 86bd 843a 063e
00000020: c76e cc3d 08c2 a73b 834e a8bd 6035 dbbb
00000030: ce19 b5bd f360 b6bd 90e5 03bc eaeb 52bd
00000040: 19f0 0abe 004c 0dbe f397 ddbd 67d0 bfbd
00000050: 2f97 fabc 3c0f 043e f1a3 a3bd 4177 a63d
00000060: 6d14 f1bd 4a0b 58bd a0c3 c6bd 3e8e 33bd
00000070: 20f1 ecbb 3e75 08be d959 2e3b 66ce a93b
00000080: 1871 233d b847 23bd ec5f a8bc 3212 88bd
00000090: a677 bf3d a4c0 babd b5ab 953c d946 53bd
000000a0: 0071 d53c a741 673c ee76 ec3d c9af 873d
000000b0: 52ab f03c 4934 473c 1f38 853d d085 69bd
000000c0: 82fc 803d b6b6 49bc 1430 003c 1212 ddbd
000000d0: 9cd9 d33d 4f10 d63d de16 9d3c 1bac 2abd
000000e0: 8cc0 2cbc dd06 14bc ef73 fdbc 58a3 093c
000000f0: 28b6 abbd 12bd 873d dfec 0dbd 54c7 72bd
00000100: dd93 37bb b505 1ebd 11d5 4a3d dd2d d83c
00000110: 5fb4 efbd 60ee f9bd 0a91 b8bd 4e25 a83d
00000120: b903 af3d 5935 103d bf75 043d 07de a83d
00000130: b89f febd 3b46 cbbd 93b7 a9bc c3ba fabd
00000140: 5f6c 823d 50d4 9f3d af4b 003d d7f0 b63d
00000150: f6a4 0f3d c817 b5bd 1ebb 11be 42cb bc3d
00000160: 66fb 983d 34f3 c1bd 1994 7abd 369d 633b
00000170: 10fa 37be ec5d 72bd 9afd 3c3c db2d e73d
00000180: 1976 683d 30b5 013e 60f3 26bd e627 ea3d
00000190: 4904 b2bd 2e2f 5dbd cbe9 a6bd 6edd fb3d
000001a0: f963 94bd fb32 e2bb 6de3 f63d a510 94bd
000001b0: 11d9 e3bd 38f4 d5bc 28b6 82bc 6441 f83d
000001c0: 2dce 56bc 2acc ae3d bdc4 083e 435e bf3d
000001d0: a553 123e fccb fc3d 3501 913d d62c bebd
000001e0: ea63 853d 7af4 a1bc d7ea d4bd 7e46 e23d
000001f0: f46e b43c 09a1 e8bd b3f5 7a3d 60fb 2dbd
00000200: 8217 72bd 5c2e e8bc 1424 0abe 98f9 eb3d
00000210: a061 acbd 34dc 693d aa92 0abd 10b7 8a3d
00000220: ec04 5d3d 364f 98bd ff76 e83c 4c23 353d
00000230: be6c 103d cd63 c5bc e04f 1ebd 435d d33d
00000240: bf38 b53d 3afa 123e 9b64 93bd 4dd0 373d
00000250: 2359 0bbe 5b28 eabb 0ed5 81b9 954a c83d
00000260: 71a8 07be d5e3 ef3d 6dfd 95bd 7a24 ad3d
00000270: 24c6 b33d e587 1ebe d874 da3d 9404 7d3d
00000280: d477 383d d6a1 c63b a7e3 52bd 7815 633d
00000290: 3672 ca3c 92bf c93d a486 4cbd 15dc bd3d
000002a0: 6a38 18be 585d 053e c3ee c8bc f484 093d
000002b0: b62b 1e3e 96ba 42be edfd a9bd 7d05 00be
000002c0: fed9 a13d cf5d ec3d 8497 223e 6fa7 80bc
000002d0: d529 a5bd ae0e c3ba 9fcf dc3c a6fb 243e
000002e0: b145 d73d 1a39 14be 28f3 843c 1c1c c53d
000002f0: bc36 093d c363 ffbd 8e95 a5bc 5af8 193c
00000300: a148 09be 7533 2c3a bf31 3e3d 8a89 febd
00000310: bb2c 0ebe aa71 aa3d 305f edbd dfce 053e
00000320: d2d3 773d f7ca bebd 641b e53d e4ed 8d3d
00000330: 9c6e b4bc bf66 9e3d 7be9 e43a e3fe e6bd
00000340: 389c 943d ca3d 77bd 02af b33d af8f edbd
00000350: 01b4 e3bd 6bd8 c33d b38d 283d f864 253d
00000360: 93e6 90bd 2161 463d 1238 dd3c c152 b23d
00000370: 8908 8ebd cf6d 843c 4b74 883d 68a3 4d3b
00000380: b323 273d 60f5 01be 7877 8fbd 618a 08bc
00000390: 7f40 be3d 4786 d1bd 1e35 20be b0a2 babd
000003a0: 6bad eabd c068 553c 013b ecbd 5a7b 1abd
000003b0: e6cc 0dbe c366 293c aae9 06be f93c 51bc
000003c0: c673 cebd 4b0e fbbc 08e0 a9bd 7a26 033e
000003d0: 642e 373d 4062 eb3c 7776 88bd b1bc 21be
000003e0: 7222 97bd 8db3 8dbd 35c4 063d f8aa bdbb
000003f0: 921d 91bd 28ad abbd c2de 233d 6b8c 92bc

stacks.0.blocks.0.fc3.bias f4 [50]
-0.113976784 0.12998237 -0.051666904 -0.15284204 -0.16042888 -0.10896495 -0.052711256 -0.056072522
-0.06540653 0.0052698953 -0.114710756 -0.14136717 0.1511918 -0.047017418 0.060753886 0.036807735
0.028633613 0.086349316 -0.14359191 0.020038048 0.051733054 0.11187432 -0.14091556 0.072541885
0.038006365 -0.15140574 0.10793853 -0.11217815 -0.12614892 0.023784734 0.006055498 0.050813276
-0.04257263 0.06051379 -0.0055377427 0.06529447 -0.022931123 0.09905875 -0.13192204 -0.13068822
0.012455131 -0.048702907 0.09820602 0.07005356 -0.07762338 -0.12523934 0.14366949 -0.04737636
-0.02825482 -0.022894435
00000000: a96c e9bd 191a 053e ada0 53bd a082 1cbe
00000010: 7847 24be 0429 dfbd c2e7 57bd 4dac 65bd
00000020: dcf3 85bd 16af ac3b 79ed eabd 8ec2 10be
00000030: 06d2 1a3e 5695 40bd 11d9 783d b5c3 163d
00000040: 0a91 ea3c e9d7 b03d c209 13be d526 a43c
00000050: 0ae6 533d 5d1e e53d 2b4c 10be d790 943d
00000060: 90ac 1b3d 1b0a 1bbe e00e dd3d a8bd e5bd
00000070: 2f2d 01be 34d8 c23c 336d c63b 9521 503d
00000080: a360 2ebd 4fdd 773d f475 b5bb 1bb9 853d
00000090: 0dda bbbc 50df ca3d 9216 07be 22d3 05be
000000a0: 9b10 4c3c b37c 47bd 3d20 c93d 3e78 8f3d
000000b0: 02f9 9ebd be3e 00be 181e 133e b70d 42bd
000000c0: a776 e7bc 1c8d bbbc

stacks.0.blocks.0.fc4.weight f4 [50, 50]
-0.039579358 -0.040326145 -0.029116465 0.09731358 -0.0735833 0.007886844 -0.034785956 -0.08186221
0.021082263 -0.09963466 -0.03341071 -0.020942489 -0.082417384 0.027029049 -0.0011681818 0.09788695
-0.10660837 0.13590606 -0.04218101 0.042857066 -0.09713951 0.016235823 -0.06871253 -0.028781692
0.10836437 0.13384639 -0.036680706 0.0894779 -0.07136278 0.07947366 -0.05557426 0.034233145
0.10176545 -0.08637293 -0.08431267 -0.062166993 0.093746826 -0.06713283 -0.08647761 -0.11216316
-0.09360954 -0.105196506 -0.016031535 0.0974188 -0.117265984 -0.072627954 0.15900642 -0.03239312
-0.09420809 0.117866196 -0.08291626 0.057701323 -0.14660628 -0.07099212 -0.11019835 -0.036440156
0.100168206 -0.0848713 -0.13650683 -0.104160726 -0.043935627 0.13780399 0.06384148 0.074663505
0.09291889 -0.12896082 -0.11674052 -0.13789293 0.09310295 0.010531986 0.015005796 -0.071906134
0.042908404 0.12250139 -0.1394067 -0.046524685 -0.116575554 0.0055400725 0.10203296 -0.14070089
0.124365255 0.06462489 -0.1359732 0.06336483 0.11458759 0.09739838 -0.14021811 0.0069097546
0.115269065 -0.053489886 0.06364484 0.056751274 -0.04733759 0.062508225 -0.007299915 0.010100407
-0.047262356 0.052325726 -0.14544643 -0.045085784 0.012780582 0.05862518 0.057358585 0.043204024
-0.06441963 0.04896317 0.07188932 0.100491725 -0.053518157 -0.15073635 0.028130174 0.0630895
-0.027365038 -0.083048135 0.017684953 -0.12476759 -0.0036399954 -0.057868868 -0.03148616 0.050837394
-0.10606358 -0.021355856 0.08904265 -0.020905215 0.030673241 -0.058144663 0.07753594 0.088296525
0.06339547 0.019010223 -0.07641759 -0.13086313 0.03073313 -0.024583772 0.13058457 0.012793024
0.017612971 -0.16922137 -0.09168373 -0.061642647 -0.08076812 0.008571609 -0.081545524 0.04628575
0.05116594 -0.018405462 0.08145728 0.06261607 0.1157706 -0.10358901 -0.0064888746 -0.18162203
-0.03312212 0.12196614 0.032010555 0.020194761 -0.008354395 -0.13949786 -0.03347063 -0.05174238
-0.00998714 -0.052082382 0.04284824 -0.04896879 0.082898945 -0.1233259 0.0333345 -0.08108166
0.055284023 -0.099017285 -0.10180796 0.07887685 0.04508998 -0.09539955 -0.1725708 0.023451043
0.09855239 0.059550323 0.006505087 -0.11220064 0.031072378 -0.13061975 -0.01165775 -0.03694915
0.25777012 0.032503024 0.09664023 -0.20448543 -0.1273252 -0.08408947 -0.095650665 0.114876226
0.1498207 -0.013667929 -0.13275285 0.10941662 -0.3411489 0.07618691 0.053790987 -0.012491089
-0.13471445 -0.06464342 -0.004905343 0.06781484 0.13924326 -0.0958637 -0.034722783 0.14023896
-0.05177515 0.07388969 -0.042197965 0.09239435 -0.06943523 0.07734318 -0.11262367 0.06924744
0.058440953 0.13522603 0.11020918 -0.115701094 -0.04578451 -0.025717214 -0.05666651 -0.09845115
-0.03588152 0.110292956 -0.09950583 0.038736835 0.04017359 -0.11221142 -0.099531524 -0.051635638
0.0072390735 0.006783977 0.07983482 -0.0867905 0.04057263 0.06012936 -0.07551608 -0.12307088
0.033785164 0.13927524 0.06686492 0.13341765 -0.06423659 0.060703278 0.079253465 0.11475526
-0.024179965 -0.10433094 0.090075225 -0.1518744 -0.011284024 0.016180443 0.0065875673 0.109258756
00000000: f71d 22bd 072d 25bd a785 eebc 584c c73d
00000010: d7b2 96bd d237 013c b87b 0ebd 60a7 a7bd
00000020: b6b4 ac3c 420d ccbd abd9 08bd 958f abbc
00000030: 72ca a8bd 066c dd3c ad1d 99ba f478 c83d
00000040: 7d55 dabd f52a 0b3e ffc5 2cbd e48a 2f3d
00000050: 14f1 c6bd fd00 853c 28b9 8cbd 95c7 ebbc
00000060: 24ee dd3d 070f 093e 823e 16bd 3040 b73d
00000070: a626 92bd 16c3 a23d d6a1 63bd 0e38 0c3d
00000080: 676a d03d 4ae4 b0bd 1fac acbd d1a2 7ebd
00000090: 56fe bf3d f07c 89bd 2c1b b1bd cdb5 e5bd
000000a0: 5cb6 bfbd 4471 d7bd 9154 83bc 8283 c73d
000000b0: 2629 f0bd f7bd 94bd 94d2 223e a6ae 04bd
000000c0: 2cf0 c0bd d563 f13d 00d0 a9bd 3958 6c3d
000000d0: f51f 16be 5164 91bd acaf e1bd 4642 15bd
000000e0: fd24 cd3d 01d1 adbd 72c8 0bbe 3852 d5bd
000000f0: d8f5 33bd 7d1c 0d3e 52bf 823d 2ee9 983d
00000100: 424c be3d 4e0e 04be a715 efbd ce33 0dbe
00000110: c2ac be3d 5a8e 2c3c dfda 753c 8643 93bd
00000120: b9c0 2f3d 02e2 fa3d a1c0 0ebe ab90 3ebd
00000130: 2abf eebd 7f89 b53b a8f6 d03d e513 10be
00000140: 36b3 fe3d 0e5a 843d 8f3c 0bbe 6cc5 813d
00000150: e6ac ea3d cd78 c73d 5695 0fbe 396b e23b
00000160: 3012 ec3d 3618 5bbd 3a58 823d 0674 683d
00000170: 10e5 41bd 5004 803d 2034 efbb 2d7c 253c
00000180: 2c96 41bd 8053 563d e9ef 14be dfab 38bd
00000190: a565 513c f520 703d d6f0 6a3d b4f6 303d
000001a0: 70ee 83bd 9b8d 483d b53a 933d 9bce cd3d
000001b0: db35 5bbd a15a 1abe 4071 e63c 1135 813d
000001c0: a52c e0bc 2415 aabd 09e0 903c 2686 ffbd
000001d0: fd8c 6ebb e807 6dbd a2f7 00bd df3a 503d
000001e0: dd37 d9bd 7af2 aebc fe5b b63d 6a41 abbc
000001f0: 7346 fb3c 1929 6ebd 2acb 9e3d cfd4 b43d
00000200: 7cd5 813d 54bb 9b3c d380 9cbd fc00 06be
00000210: 0cc4 fb3c e863 c9bc f6b7 053e d599 513c
00000220: 1449 903c 5e48 2dbe aec4 bbbd 007d 7cbd
00000230: c269 a5bd ef6f 0c3c 5701 a7bd 2096 3d3d
00000240: 6093 513d 0dc7 96bc 13d3 a63d db3c 803d
00000250: 2319 ed3d 7a26 d4bd a0a0 d4bb 20fb 39be
00000260: 0fab 07bd 62c9 f93d 801d 033d 7c6f a53c
00000270: dfe0 08bc 87d8 0ebe 8018 09bd d1ef 53bd
00000280: 1aa1 23bc 5654 55bd a381 2f3d 7f93 48bd
00000290: ecc6 a93d 4a92 fcbd c289 083d 240e a6bd
000002a0: 8071 623d 93c9 cabd b180 d0bd 308a a13d
000002b0: 45b0 383d d760 c3bd 66b6 30be 671c c03c
000002c0: d6d5 c93d 0aeb 733d a028 d53b 73c9 e5bd
000002d0: 808b fe3c 2fc1 05be 2600 3fbc fe57 17bd
000002e0: 72fa 833e e421 053d 50eb c53d a164 51be
000002f0: 8a61 02be 1a37 acbd 7fe4 c3bd 3a44 eb3d
00000300: 996a 193e 73ef 5fbc 5df0 07be d215 e03d
00000310: 12ab aebe e207 9c3d f053 5c3d 6da7 4cbc
00000320: 96f2 09be c563 84bd 00bd a0bb 82e2 8a3d
00000330: c995 0e3e 3054 c4bd 7a39 0ebd cd9a 0f3e
00000340: 2e12 54bd 7a53 973d c6d7 2cbd 4039 bd3d
00000350: 0f34 8ebd 1a66 9e3d 3da7 e6bd 9ad1 8d3d
00000360: c85f 6f3d b178 0a3e 5ab5 e13d b2f4 ecbd
00000370: 8a88 3bbd e8ac d2bc 241b 68bd c2a0 c9bd
00000380: 80f8 12bd 46e1 e13d b6c9 cbbd 84aa 1e3d
00000390: 108d 243d 1acf e5bd 2fd7 cbbd e47f 53bd
000003a0: c035 ed3b 204c de3b 7080 a33d 38bf b1bd
000003b0: 7c2f 263d 344a 763d 2da8 9abd 960c fcbd
000003c0: 5062 0a3d 2b9e 0e3e 7af0 883d a39e 083e
000003d0: 798e 83bd 00a4 783d a44f a23d ce04 eb3d
000003e0: 1015 c6bc 76ab d5bd 5c79 b83d f684 1bbe
000003f0: a1e0 38bc d98c 843c 85dc d73b 0ec3 df3d

stacks.0.blocks.0.fc4.bias f4 [50]
0.10817957 -0.113663346 -0.16471937 -0.09773824 -0.09653635 -0.093167424 -0.13455266 -0.08913979
0.07657382 0.0781208 0.06773894 -0.09707345 0.07533804 0.011539344 0.16131249 -0.095505685
-0.080888405 -0.08301425 0.08105878 0.050897058 -0.07012875 0.08544345 -0.058328886 0.14277092
0.1293875 -0.07747259 0.044844687 -0.066660024 -0.114475034 -0.079549044 -0.02520536 -0.067482226
0.06381928 -0.06717861 0.12589395 -0.020676572 0.011368153 -0.014315204 0.08471528 -0.095695615
0.05200101 -0.098781586 0.12989737 -0.0794667 -0.039428588 0.003169638 0.07963142 -0.060853086
-0.046479307 0.07694689
00000000: 408d dd3d 54c8 e8bd 32ac 28be fd2a c8bd
00000010: dab4 c5bd 90ce bebd 2cc8 09be ec8e b6bd
00000020: bcd2 9c3d ccfd 9f3d b7ba 8a3d 72ce c6bd
00000030: d54a 9a3d 840f 3d3c 1a2f 253e 7c98 c3bd
00000040: d2a8 a5bd 6003 aabd 2502 a63d 6f79 503d
00000050: a99f 8fbd fafc ae3d 45ea 6ebd 8a32 123e
00000060: 287e 043e f3a9 9ebd 10af 373d 0d85 88bd
00000070: e371 eabd 9cea a2bd 797b cebc 1f34 8abd
00000080: afb3 823d f094 89bd 58ea 003e ea61 a9bc
00000090: 7d41 3a3c 518a 6abc 347f ad3d 10fc c3bd
000000a0: 03ff 543d 004e cabd d103 053e 70bf a2bd
000000b0: df7f 21bd b4b9 4f3b cc15 a33d 1641 79bd
000000c0: 1661 3ebd 5596 9d3d

stacks.0.blocks.0.theta_layer.weight f4 [57, 50]
0.038115494 0.12875913 0.0029335143 0.1836894 -0.031172134 0.122982055 0.07591527 0.15194386
0.015203388 0.03255778 -0.044583276 -0.07241519 -0.023838338 0.120572105 0.13951287 -0.082793064
-0.019108716 0.08394966 -0.023936128 0.0640741 0.19610046 0.14887527 0.13549939 0.09643672
0.09147024 -0.05626474 0.016211607 0.0061333803 -0.05939111 0.11228697 0.107716 -0.036147792
0.031056808 -0.07503382 -0.106244355 -0.100809455 0.026706012 0.043166794 -0.045089766 0.1480068
0.13162045 -0.09489531 0.061005518 0.11038499 -0.067916065 0.03952246 0.065125085 -0.13624695
-0.062180948 0.087591685 0.12687647 0.08841457 0.11988621 -0.10243113 0.039428845 0.10928089
0.08677866 -0.06853617 -0.029503126 -0.061698552 0.08689354 -0.13845298 0.089880295 -0.0431575
0.0734359 -0.12388695 0.12164847 -0.15590495 0.02203228 -0.061873417 0.01099929 0.085076585
0.13588755 0.0802667 -0.06236532 0.11062917 0.11920244 -0.003051946 0.05240088 0.13798566
0.10431522 0.07317714 -0.015417221 0.07472676 -0.1382525 0.024926914 -0.07307692 0.08307287
-0.008904606 -0.045926746 -0.0786753 0.08049214 0.08101964 0.06790683 -0.09034378 -0.028807707
0.08614495 0.13134722 -0.12586471 -0.07134153 0.111809835 0.10059105 0.1723933 0.13910213
-0.097758055 0.09919106 -0.0865885 0.018464096 0.18745749 -0.016107492 -0.005809907 0.0019792267
0.0625287 -0.068993874 -0.02682679 -0.11056433 0.08193417 0.03499604 -0.0041713966 -0.0030883078
-0.06259855 0.10860424 0.11708429 -0.033084515 0.07641974 0.014692759 0.039607108 -0.013813508
0.018180978 -0.049689807 0.14329939 0.07795764 -0.15279968 -0.03978137 0.1128085 0.14761415
-0.13537219 0.12276541 0.10261354 0.1421049 0.06834994 -0.13126102 -0.07132068 0.07636429
-0.11038459 -0.015740605 -0.14217745 -0.08779822 0.008914349 0.17522435 -0.17276096 0.09496545
-0.09497311 -0.16565022 -0.014946818 0.020005891 -0.10427509 -0.04563586 -0.10695222 0.054470435
-0.12546098 0.0370524 0.09634192 -0.13751347 -0.18322052 0.0041181576 0.14603685 0.028119965
0.08238248 -0.15274389 -0.06911999 0.12872487 0.06302369 0.07028559 -0.08973339 0.1398239
-0.021956604 -0.092067994 0.11598166 -0.08291454 0.11176005 -0.11442841 -0.031478155 -0.016652137
0.059318498 0.012165655 0.10714181 0.037478264 -0.11942916 -0.124841 -0.03900887 -0.037257873
-0.07768888 -0.06057973 0.07657275 -0.013822419 -0.10362488 -0.0522099 0.027915627 0.15935579
0.039629724 -0.028275909 0.09801662 -0.097609974 -0.053535417 0.115617745 0.048943635 -0.08344064
0.13146734 -0.0076214615 -0.11613003 -0.012340249 -0.008810059 -0.05091337 -0.07843023 0.09630304
0.113050215 -0.0075189234 -0.12588947 -0.073828675 0.06868218 0.06368603 0.04534628 0.040148616
0.0925516 -0.080058984 -0.09999955 0.038165174 -0.14148048 -0.0077037364 0.13312323 0.006555087
0.031409346 0.0137566775 -0.12129734 -0.10202496 0.085220985 0.011657349 0.12879406 0.0054574045
-0.079626106 -0.115783885 0.03367207 0.023649853 0.08028904 0.10932893 -0.14247815 0.13042764
0.10922715 0.110803574 0.093560636 0.08150716 0.09760926 0.06924064 -0.10433377 0.078767814
00000000: fe1e 1c3d 6fd9 033e 3440 403b 1319 3c3e
00000010: b45c ffbc 04de fb3d 7779 9b3d 2c97 1b3e
00000020: a217 793c 4f5b 053d f49c 36bd 6a4e 94bd
00000030: 9e48 c3bc 82ee f63d 76dc 0e3e 698f a9bd
00000040: e289 9cbc cded ab3d b315 c4bc 4839 833d
00000050: 8fce 483e c272 183e 5ac0 0a3e 9d80 c53d
00000060: c054 bb3d db75 66bd 34ce 843c 86fa c83b
00000070: 1844 73bd b6f6 e53d 359a dc3d b50f 14bd
00000080: d96a fe3c 55ab 99bd a496 d9bd 3075 cebd
00000090: 91c6 da3c aacf 303d 0cb0 38bd 188f 173e
000000a0: 83c7 063e 7958 c2bd ece0 793d 8711 e23d
000000b0: 9417 8bbd 4ee2 213d 4d60 853d 5284 0bbe
000000c0: 73b1 7ebd 4563 b33d e8eb 013e b312 b53d
000000d0: e786 f53d 6ac7 d1bd 2480 213d a9ce df3d
000000e0: 03b9 b13d b15c 8cbd 8ab0 f1bc 9fb7 7cbd
000000f0: 3ef5 b13d 9ec6 0dbe 2913 b83d ebc5 30bd
00000100: 9065 963d 71b8 fdbd d522 f93d 8ca5 1fbe
00000110: 0a7d b43c fb6e 7dbd 5e36 343c a23c ae3d
00000120: 1b26 0b3e de62 a43d c772 7fbd 8c91 e23d
00000130: 6920 f43d 2803 48bb 4ea2 563d 1d4c 0d3e
00000140: 38a3 d53d e5dd 953d 8398 7cbc 580a 993d
00000150: 1092 0dbe 8733 cc3c 5aa9 95bd 1c22 aa3d
00000160: a0e4 11bc af1d 3cbd 8420 a1bd 10d9 a43d
00000170: a0ed a53d bc12 8b3d 2906 b9bd 24fe ebbc
00000180: c36c b03d e37f 063e aee2 00be 821b 92bd
00000190: 8efc e43d ae02 ce3d df87 303e ca70 0e3e
000001a0: 6035 c8bd af24 cb3d 5055 b1bd 0442 973c
000001b0: dbf4 3f3e dcf3 83bc 0861 bebb eab5 013b
000001c0: 0c0f 803d a94c 8dbd dbc3 dbbc 8d6f e2bd
000001d0: 1acd a73d 0258 0f3d 36b0 88bb 3565 4abb
000001e0: ab33 80bd e66b de3d e3c9 ef3d a183 07bd
000001f0: f481 9c3d e6b9 703c 103b 223d 0d52 62bc
00000200: 46f0 943c 8a87 4bbd 13bd 123e 41a8 9f3d
00000210: 8577 1cbe caf1 22bd 2508 e73d 2a28 173e
00000220: 029f 0abe 6e6c fb3d 0c27 d23d f283 113e
00000230: 0efb 8b3d 4a69 06be 9410 92bd e264 9c3d
00000240: 5111 e2bd 71f2 80bc f796 11be 8ecf b3bd
00000250: 7d0d 123c 036e 333e 40e8 30be 3f7d c23d
00000260: 4381 c2bd 36a0 29be 80e3 74bc 65e3 a33c
00000270: 2e8e d5bd abec 3abd c409 dbbd 641c 5f3d
00000280: d878 00be 42c4 173d ea4e c53d 55d0 0cbe
00000290: 299e 3bbe 9cf1 863b af8a 153e d75b e63c
000002a0: 25b8 a83d e568 1cbe c88e 8dbd 74d0 033e
000002b0: 9012 813d e4f1 8f3d 24c6 b7bd ff2d 0f3e
000002c0: 56de b3bc 258e bcbd cb87 ed3d 19cf a9bd
000002d0: 74e2 e43d 7159 eabd 3def 00bd 106a 88bc
000002e0: f4f7 723d 7552 473c 2a6d db3d cf82 193d
000002f0: 4797 f4bd a3ac ffbd c4c7 1fbd b69b 18bd
00000300: 591b 9fbd 7322 78bd 2dd2 9c3d 6d77 62bc
00000310: 4839 d4bd 0cda 55bd 50af e43c 2a2e 233e
00000320: c752 223d e1a2 e7bc f0bc c83d bde7 c7bd
00000330: f447 5bbd ffc8 ec3d 1f79 483d ede2 aabd
00000340: 609f 063e 74bd f9bb 95d5 edbd c12e 4abc
00000350: 1158 10bc 8a8a 50bd 07a0 a0bd 873a c53d
00000360: df86 e73d 4d61 f6bb 2be9 00be 7d33 97bd
00000370: 3ea9 8c3d d26d 823d 05bd 393d e072 243d
00000380: b18b bd3d f7f5 a3bd 90cc ccbd 1653 1c3d
00000390: 42e0 10be a06f fcbb 7551 083e 0ecc d63b
000003a0: 16a7 003d b063 613c bd6a f8bd 76f2 d0bd
000003b0: 5788 ae3d 77fe 3e3c 97e2 033e 07d4 b23b
000003c0: 0313 a3bd 1a20 edbd b9eb 093d 56bd c13c
000003d0: 956e a43d d9e7 df3d cbe5 11be d38e 053e
000003e0: 7cb2 df3d fcec e23d b89c bf3d 3aed a63d
000003f0: 5de7 c73d 09ce 8d3d f2ac d5bd 0551 a13d

stacks.0.blocks.0.theta_layer.bias f4 [57]
0.1279808 0.042690977 -0.023016237 0.11785238 0.021771828 0.058013197 0.06977078 -0.037627608
0.10219379 0.14748341 -0.025418594 -0.08828971 0.09120205 -0.13203646 -0.041281816 0.030378887
0.09466209 -0.0023107557 -0.15752871 -0.08714829 0.052852884 0.08821145 -0.09869328 -0.09643855
-0.14638238 0.022846505 -0.041627947 -0.09444599 -0.11900478 0.051093012 -0.1315151 -0.017097015
-0.08900104 0.0018367994 -0.08391182 -0.0041250153 -0.0021913375 -0.12459593 -0.05795703 -0.038676474
-0.106469326 -0.06761304 -0.10444872 0.037555523 -0.050158624 -0.020875664 0.14974073 0.038614325
0.04324928 0.022901826 -0.021656733 -0.12893608 -0.020073721 -0.0024191376 -0.056093205 0.015373133
0.013449535
00000000: 660d 033e bcdc 2e3d 8c8c bcbc 975c f13d
00000010: d55a b23c 3f9f 6d3d fce3 8e3d 681f 1abd
00000020: fa4a d13d e405 173e a83a d0bc 3cd1 b4bd
00000030: 24c8 ba3d 9134 07be 1f17 29bd 25dd f83c
00000040: 33de c13d 0c70 17bb 354f 21be cd7a b2bd
00000050: 447c 583d 34a8 b43d b41f cabd 9381 c5bd
00000060: 43e5 15be 9828 bb3c 1182 2abd e66c c1bd
00000070: c7b8 f3bd e846 513d e5ab 06be 0a0f 8cbc
00000080: 2d46 b6bd c3c0 f03a f6d9 abbd 232b 87bb
00000090: 8b9c 0fbb 272c ffbd 5a64 6dbd 396b 1ebd
000000a0: 970c dabd b578 8abd 36e9 d5bd d2d3 193d
000000b0: 2173 4dbd 7103 abbc a255 193e 0e2a 1e3d
000000c0: 2826 313d 9c9c bb3c 7669 b1bc d207 04be
000000d0: a571 a4bc 658a 1ebb fdc1 65bd 98df 7b3c
000000e0: 705b 5c3c

stacks.0.blocks.1.fc1.weight f4 [50, 56]
-0.04231384 -0.07361775 0.07157663 0.022021275 0.10452191 0.13236982 -0.064416386 0.089447096
-0.08937261 0.059456486 -0.03441089 -0.10462471 -0.099248715 0.011519809 -0.10438382 0.0028575845
-0.1052369 0.08886905 0.05401363 0.11374034 0.055949125 0.00732017 -0.05828424 -0.119521275
0.062096804 0.078108855 0.12355609 0.08294124 -0.089180484 -0.027329138 0.12414982 0.051435765
0.011435477 0.06764476 -0.06317593 0.058342244 0.0020857542 0.10593186 0.0009220972 -0.09777566
0.005556725 -0.08681238 -0.097374074 -0.012417983 -0.071545124 -0.008837411 -0.059106853 0.023601059
-0.083771355 -0.035857424 -0.15414551 -0.032390162 -0.121383615 0.00047874343 -0.1149644 -0.13714509
0.0251102 -0.07650409 0.12650467 0.03620225 -0.04676502 0.14352989 -0.012490331 0.0565587
0.123536475 -0.12855169 -0.07895003 0.07002062 0.07098397 -0.11176772 -0.12800345 0.0444092
-0.07660698 -0.13562024 0.13233334 0.098560415 0.014095317 -0.06943247 0.122271076 -0.07744668
-0.07273589 0.08462955 0.08072722 0.08110686 -0.07655644 -0.016572751 -0.09955781 -0.032874864
-0.07428999 0.016635975 0.044277437 0.035666846 0.062701136 -0.026770225 0.048693184 0.09263918
0.09900374 0.12862207 0.006790244 0.11231844 -0.030029261 -0.020827545 0.040382426 0.11296928
-0.0987518 0.13436162 0.051082816 -0.14282855 0.17713308 0.03456845 -0.007061243 0.11702638
0.121399015 0.13292797 -0.027210465 -0.009182775 -0.06029792 0.11480226 -0.111092344 0.08949196
-0.073848024 0.05262299 -0.09912324 -0.053352386 0.05305209 -0.042547043 0.035373054 -0.0024660304
0.046161443 -0.09139313 0.032035273 -0.037917696 0.04166388 -0.11147895 -0.10767363 -0.07674448
0.06756143 0.055867188 0.010397727 -0.044030547 -0.08774987 -0.004646393 -0.0051201964 -0.015802424
-0.081811294 -0.11582898 -0.1292936 -0.12675518 -0.08128358 -0.009357798 -0.09037976 -0.09118671
0.072825246 0.090883516 0.09944518 -0.076858796 0.1079944 0.05930483 0.09562916 -0.044592906
0.11193219 -0.17559053 0.02308025 0.04358354 -0.0776582 -0.03518612 -0.04816849 -0.008499243
0.008512923 0.064074874 -0.068191454 0.08331837 0.0016602558 -0.0013850405 -0.07776028 0.033960707
-0.0585529 0.052242704 -0.12038675 0.041813213 -0.041135024 0.020395923 0.071074486 0.009539661
0.052620728 0.11422689 -0.11144207 0.08207287 -0.024382774 0.022635015 -0.11590057 0.06358543
-0.1351043 0.10249358 0.06838048 -0.067513846 -0.037278302 -0.0005960237 -0.04571504 -0.043493833
0.07667691 -0.13046607 -0.00619607 0.06139044 0.029221525 -0.0035799013 -0.009176802 -0.008505634
0.03375456 -0.0047994424 0.03168421 0.06883113 0.075018555 0.066264786 -0.112831 -0.06344592
-0.11158119 -0.05676607 0.115134396 0.00046890104 -0.00659381 0.08144927 0.11961013 0.09985615
-0.02087409 0.09413078 0.08502677 -0.013570728 -0.06560194 0.0654144 0.03350266 0.08821545
0.003269522 0.08375572 -0.012802185 -0.085749574 -0.13368419 0.007638943 -0.101053596 -0.0065219007
-0.06559345 -0.07103329 -0.024014128 0.038316447 0.117019065 -0.080637164 -0.09562897 0.10732808
0.075974464 -0.019361798 -0.12776768 -0.109414265 -0.11340445 -0.03467125 0.038630858 -0.062275317
00000000: 4751 2dbd e7c4 96bd c596 923d f665 b43c
00000010: 950f d63d f48b 073e bdec 83bd 0a30 b73d
00000020: fd08 b7bd a588 733d 6ff2 0cbd 7b45 d6bd
00000030: e942 cbbd 95bd 3c3c 2fc7 d5bd 5046 3b3b
00000040: 7286 d7bd fa00 b63d 653d 5d3d b2f0 e83d
00000050: e92a 653d 09de ef3b 75bb 6ebd 92c7 f4bd
00000060: 3859 7e3d 89f7 9f3d fa0a fd3d 19dd a93d
00000070: 42a4 b6bd 5be1 dfbc 4342 fe3d 4fae 523d
00000080: de5b 3b3c 5689 8a3d 6262 81bd 47f8 6e3d
00000090: 26b1 083b cef2 d83d e5b8 713a 9b3e c8bd
000000a0: 3015 b63b b0ca b1bd 0f6c c7bd cc74 4bbc
000000b0: 4086 92bd caca 10bc 071a 72bd 0257 c13c
000000c0: 5190 abbd 3cdf 12bd 52d8 1dbe 8cab 04bd
000000d0: f997 f8bd dbff fa39 7572 ebbd c36f 0cbe
000000e0: e8b3 cd3c 2dae 9cbd 718a 013e cf48 143d
000000f0: ad8c 3fbd 80f9 123e 3fa4 4cbc 18aa 673d
00000100: b100 fd3d 0ea3 03be 8eb0 a1bd f966 8f3d
00000110: 0b60 913d 79e6 e4bd 5613 03be 6ce6 353d
00000120: 1fe4 9cbd 08e0 0abe 6482 073e 0bda c93d
00000130: 0bf0 663c 9c32 8ebd 4269 fa3d 5d9c 9ebd
00000140: 8ef6 94bd 4252 ad3d 5054 a53d 5a1b a63d
00000150: 9fc9 9cbd 94c3 87bc f7e4 cbbd cba7 06bd
00000160: 5a25 98bd 2b48 883c 425c 353d 6617 123d
00000170: 7469 803d 3b4d dbbc 8172 473d 9cb9 bd3d
00000180: 79c2 ca3d 81b5 033e b280 de3b 3607 e63d
00000190: edff f5bc 879e aabc 0b68 253d 705c e73d
000001a0: 623e cabd 1896 093e 373c 513d a641 12be
000001b0: 6062 353e a697 0d3d 0062 e7bb 87ab ef3d
000001c0: 0ca0 f83d 451e 083e 7be8 debc 5a73 16bc
000001d0: f4fa 76bd 731d eb3d 6284 e3bd 9047 b73d
000001e0: a23d 97bd 348b 573d 2001 cbbd 0888 5abd
000001f0: 264d 593d cf45 2ebd 56e3 103d 209d 21bb
00000200: c813 3d3d 522c bbbd 6b37 033d 964f 1bbd
00000210: bfa7 2a3d 134f e4bd fe83 dcbd 362c 9dbd
00000220: a65d 8a3d fed4 643d 3a5b 2a3c 6059 34bd
00000230: 34b6 b3bd c540 98bb 52c7 a7bb 1674 81bc
00000240: ae8c a7bd bf37 edbd 8b65 04be 1ccc 01be
00000250: 0178 a6bd 7351 19bc 0619 b9bd 19c0 babd
00000260: 6725 953d 2321 ba3d eaa9 cb3d 2568 9dbd
00000270: 2b2c dd3d 9fe9 723d 39d9 c33d 0da7 36bd
00000280: b43c e53d 01ce 33be cb12 bd3c a784 323d
00000290: 430b 9fbd 521f 10bd 534c 45bd 6940 0bbc
000002a0: c979 0b3c b039 833d f6a7 8bbd d2a2 aa3d
000002b0: f19c d93a 3f8a b5ba c840 9fbd 621a 0b3d
000002c0: 2ad5 6fbd 72fc 553d 548d f6bd 5544 2b3d
000002d0: 337d 28bd 5a15 a73c 808f 913d 3d4c 1c3c
000002e0: d588 573d caef e93d bd3b e4bd d215 a83d
000002f0: 62be c7bc 116d b93c 475d edbd 1439 823d
00000300: c858 0abe 27e8 d13d 110b 8c3d b344 8abd
00000310: 22b1 18bd 793e 1cba b23f 3bbd 9726 32bd
00000320: c908 9d3d e698 05be 6708 cbbb 8b74 7b3d
00000330: fb61 ef3c c79c 6abb 4c5a 16bc 375b 0bbc
00000340: 3942 0a3d a444 9dbb 4dc7 013d 56f7 8c3d
00000350: 54a3 993d d5b5 873d f013 e7bd efef 81bd
00000360: ae84 e4bd 8a83 68bd 95cb eb3d d5d6 f539
00000370: e310 d8bb e0ce a63d 28f6 f43d 6281 cc3d
00000380: 2400 abbc a3c7 c03d 8422 ae3d c257 5ebc
00000390: 4f5a 86bd fcf7 853d 163a 093d 4daa b43d
000003a0: 7a45 563b 1e88 ab3d 41c0 51bc 799d afbd
000003b0: 82e4 08be 1950 fa3b 30f5 cebd abb5 d5bb
000003c0: dc55 86bd e779 91bd 47b9 c4bc b5f1 1c3d
000003d0: b1a7 ef3d 1925 a5bd 1fd9 c3bd d3ce db3d
000003e0: 8098 9b3d a29c 9ebc 88d5 02be 9614 e0bd
000003f0: 9840 e8bd 7103 0ebd 643b 1e3d 6714 7fbd

stacks.0.blocks.1.fc1.bias f4 [50]
-0.0069626286 0.115299396 0.029269086 -0.014226277 -0.011992585 0.024139153 0.044722024 -0.05542647
-0.111258015 0.09767498 -0.11477776 -0.022344297 -0.1401679 0.10808317 0.07171101 0.093353786
0.044624742 -0.040316094 0.120535746 0.035109248 -0.14880022 0.06053257 -0.1317366 0.05519399
0.035638496 -0.013480415 -0.13180676 -0.020610915 -0.043753367 -0.034803566 0.014134994 -0.0140987765
0.06087052 -0.023799628 -0.09713949 -0.019419344 -0.029199932 -0.035765294 0.07688548 -0.053965654
0.083909385 0.04213786 -0.03994145 0.12365323 0.14741714 -0.11413009 0.13305825 -0.012622433
0.0484589 0.116008736
00000000: c326 e4bb 1722 ec3d b9c5 ef3c 5515 69bc
00000010: 8c7c 44bc 79bf c53c 712e 373d de06 63bd
00000020: 3edb e3bd d209 c83d 9a10 ebbd 630b b7bc
00000030: 2d88 0fbe b65a dd3d 39dd 923d 4530 bf3d
00000040: 6fc8 363d 7d22 25bd 72db f63d b7ce 0f3d
00000050: 165f 18be 00f1 773d f6e5 06be 1813 623d
00000060: acf9 113d f5dc 5cbc 5af8 06be 39d8 a8bc
00000070: bb36 33bd 2f8e 0ebd 7696 673c 8efe 66bc
00000080: 5e53 793d 70f7 c2bc 12f1 c6bd 5115 9fbc
00000090: b234 efbc a17e 12bd 2276 9d3d 170b 5dbd
000000a0: afd8 ab3d c098 2c3d a599 23bd e83d fd3d
000000b0: 85f4 163e 09bd e9bd 6c40 083e 52ce 4ebc
000000c0: d77c 463d fd95 ed3d
