RNN_models/close_slope_25_2_raw_15min_binary_t4.pth (torch, 522262 bytes, 30 tensors)

stacks.0.blocks.0.fc1.weight f4 [100, 60]
0.069197744 0.00014403928 0.1226506 -0.08271843 0.0026193394 -0.06814915 0.15181142 0.048322897
0.01853253 0.01675048 -0.046634976 -0.17924643 0.18166742 0.16297124 -0.15547961 -0.12306405
-0.0014064756 0.022586228 -0.04729556 -0.037026234 0.025215408 0.025176927 -0.10791132 -0.082127444
0.15295178 0.13607521 -0.06820134 -0.0036327534 -0.1475599 -0.005307744 0.06528958 0.14743446
0.08027438 -0.21217558 -0.0731767 -0.12635195 0.14567536 -0.080786966 0.07795538 0.0014998226
-0.02352489 -0.106666654 -0.19045523 -0.26646557 -0.45728436 0.06880303 -0.035362158 -0.28674713
-0.3029353 -0.42731413 -0.6988271 0.07041242 0.052225154 -0.29889265 0.26836336 0.12992981
0.6488186 0.009859779 0.030807614 -0.01612474 -0.08885255 -0.12373777 0.18515489 0.01230913
0.039678633 -0.040399924 -0.114299946 0.08975225 0.21890163 -0.042113308 -0.0063568265 0.0073373546
-0.13893755 0.044590835 -0.0713948 0.022163548 0.024132887 0.20173433 -0.15725058 0.096457325
0.06142103 -0.07868703 0.016694324 0.02715478 -0.15843184 0.11954765 -0.0315525 -0.08293877
0.0898609 -0.057495065 0.038193382 -0.110388346 0.14473762 0.07840191 -0.01291556 0.022899138
-0.11624407 -0.0125305895 -0.14646587 0.026865937 -0.011713146 -0.097007 -0.034900595 0.02263365
-0.08440909 -0.0444211 -0.074076466 -0.15391523 0.08265508 0.23190719 0.64720017 -0.013015522
0.07015875 0.18183191 -0.704982 -0.6464918 -1.2422345 0.08380802 -0.09890585 -0.22708717
0.064175844 -0.04292024 -0.17778176 -0.02669482 -0.029723452 -0.5125704 0.06699843 -0.2449985
0.012008188 -0.09282339 -0.021467991 -0.52173454 0.0061995294 -0.181636 0.17636704 0.06492826
0.008589775 -0.269976 0.14867567 -0.07378893 0.30088934 -0.19078834 0.010325717 0.16914773
0.021598747 -0.14840235 0.082646355 -0.08115619 -0.12955093 0.24262182 -0.13053736 -0.12784868
0.1260301 0.11743422 0.09557083 0.11293993 -0.11127554 0.04800079 -0.0012548289 0.09135188
-0.028572273 0.09172205 -0.027016971 0.09490583 0.060352627 0.00049182883 -0.20335867 0.034800053
-0.12876841 0.028051341 0.0050362605 -0.0662806 0.098107725 0.07900194 0.19672473 0.31949392
0.5199021 0.036508933 0.023134109 0.20151958 -0.2875622 0.021693107 0.13066667 0.1009463
-0.029508807 0.23092069 -0.19256757 -0.14324763 -0.020684185 -0.028621908 0.04105808 0.1460986
0.022810528 -0.1387335 0.079819344 0.051825933 0.02790458 0.018806977 0.11525324 -0.041759685
0.0032152657 0.11686456 0.04760031 0.059146103 0.04348125 0.007875876 -0.026821164 0.018084608
0.010235578 0.2796675 -0.09530511 0.037296586 -0.19054195 -0.06079184 0.09067305 0.21769054
0.13273296 0.040604662 -0.027856113 -0.00440533 0.012178271 0.21727355 -0.046485387 -0.12009058
-0.063329294 -0.0052319095 -0.06357027 0.05281691 -0.16298822 -0.33287248 -0.8931225 -0.017058095
0.101112396 -0.20743327 0.7359436 0.6995054 1.6240579 -0.062929384 0.08473462 0.20821212
0.11452252 -0.088038735 -0.23231518 -0.06977176 0.08158366 -0.54778445 0.17005879 0.0043604183
-0.06623662 0.078024514 -0.03402782 -0.232669 0.0485823 0.04274115 -0.032264464 -0.065404154
00000000: 8cb7 8d3d 4009 1739 3d30 fb3d 4868 a9bd
00000010: 39a9 2b3b c891 8bbd 7474 1b3e 3bee 453d
00000020: 88d1 973c 4d38 893c 5104 3fbd 608c 37be
00000030: 0607 3a3e efe1 263e 0c36 1fbe 0109 fcbd
00000040: 7d59 b8ba c106 b93c fdb8 41bd d2a8 17bd
00000050: 8b90 ce3c d83f ce3c 9c00 ddbd 6f32 a8bd
00000060: 649f 1c3e 4d57 0b3e 25ad 8bbd 7d13 6ebb
00000070: f119 17be 95ec adbb 8bb6 853d 0ff9 163e
00000080: e566 a43d 8e44 59be aadd 95bd 6862 01be
00000090: ec2b 153e a373 a5bd 12a7 9f3d b295 c43a
000000a0: 45b7 c0bc 0c74 dabd b206 43be 2d6e 88be
000000b0: 2d21 eabe 9ae8 8c3d e9d7 10bd 85d0 92be
000000c0: 561a 9bbe ebc8 dabe 55e6 32bf 6334 903d
000000d0: 0bea 553d 7508 99be ec66 893e 520c 053e
000000e0: fa18 263f e98a 213c 4060 fc3c 0818 84bc
000000f0: 53f8 b5bd 3a6a fdbd 3e99 3d3e 3cac 493c
00000100: 1086 223d 647a 25bd 1716 eabd 07d0 b73d
00000110: c027 603e 017f 2cbd ed4c d0bb 316e f03b
00000120: a545 0ebe e1a4 363d 7037 92bd 5490 b53c
00000130: 55b2 c53c 7293 4e3e 4c06 21be 6b8b c53d
00000140: 9e94 7b3d aa26 a1bd 89c2 883c b473 de3c
00000150: f53b 22be 66d5 f43d 323d 01bd cddb a9bd
00000160: fe08 b83d f27f 6bbd aa70 1c3d 4913 e2bd
00000170: 1936 143e 2e91 a03d c99b 53bc f996 bb3c
00000180: 5f11 eebd 1a4d 4dbc 26fb 15be f415 dc3c
00000190: 7fe8 3fbc 9bab c6bd edf3 0ebd 346a b93c
000001a0: acde acbd e6f2 35bd 67b5 97bd f49b 1dbe
000001b0: 1147 a93d 1479 6d3e e9ae 253f 0e3f 55bc
000001c0: 64af 8f3d 2532 3a3e b379 34bf 7d80 25bf
000001d0: 8a01 9fbf 8aa3 ab3d 268f cabd 8a89 68be
000001e0: a06e 833d 22cd 2fbd 6c0c 36be 18af dabc
000001f0: 997e f3bc d037 03bf 7936 893d e3e0 7abe
00000200: febd 443c 311a bebd a4dd afbc 6590 05bf
00000210: 6c25 cb3b cafe 39be 9099 343e 1cf9 843d
00000220: 21bc 0c3c 4b3a 8abe 6f3e 183e a71e 97bd
00000230: 2b0e 9a3e 055e 43be 322d 293c 1035 2d3e
00000240: dbef b03c c9f6 17be 7e42 a93d 3735 a6bd
00000250: 00a9 04be db71 783e 96ab 05be c4ea 02be
00000260: 090e 013e 5a81 f03d a4ba c33d 0d4d e73d
00000270: 6ee4 e3bd 7a9c 443d 1279 a4ba b216 bb3d
00000280: 6610 eabc c5d8 bb3d b252 ddbc fd5d c23d
00000290: 5134 773d 13ee 003a 413d 50be 808a 0e3d
000002a0: dedb 03be edcb e53c 3707 a53b 20be 87bd
000002b0: b4ec c83d c5cb a13d 3572 493e b594 a33e
000002c0: 4e18 053f 648a 153d be83 bd3c 265b 4e3e
000002d0: 5a3b 93be beb5 b13c 7ccd 053e efbc ce3d
000002e0: 74bc f1bc 7976 6c3e 6f30 45be 82af 12be
000002f0: e171 a9bc 7e78 eabc 842c 283d df9a 153e
00000300: 25dd ba3c 2810 0ebe 5378 a33d 6e47 543d
00000310: 2598 e43c 1711 9a3c e409 ec3d 340c 2bbd
00000320: 35b7 523b b056 ef3d 8bf8 423d 2f43 723d
00000330: 6519 323d d109 013c 0fb8 dbbc 2c26 943c
00000340: 20b3 273c 9430 8f3e 532f c3bd 4ec4 183d
00000350: 6e1d 43be dd00 79bd cbb2 b93d 45ea 5e3e
00000360: 26eb 073e 1351 263d 8132 e4bc 965a 90bb
00000370: 5f87 473c f57c 5e3e 7667 3ebd 0df2 f5bd
00000380: cab2 81bd 7070 abbb 2131 82bd 8b56 583d
00000390: 62e6 26be 436e aabe ada3 64bf 6bbd 8bbc
000003a0: 0414 cf3d 6369 54be cd66 3c3f c912 333f
000003b0: 21e1 cf3f 1fe1 80bd 5889 ad3d 8f35 553e
000003c0: c88a ea3d a74d b4bd 08e4 6dbe 7fe4 8ebd
000003d0: 5515 a73d 9a3b 0cbf e423 2e3e d7e1 8e3b
000003e0: 11a7 87bd 51cb 9f3d c160 0bbd c840 6ebe
000003f0: 3cfe 463d 5811 2f3d be27 04bd 9df2 85bd

stacks.0.blocks.0.fc1.bias f4 [100]
0.033328902 0.17112447 0.04750775 -0.0970275 0.033699512 -0.004956623 -0.044542532 -0.015969416
-0.08383574 0.033264913 0.009551555 0.011211124 -0.013074055 0.13208921 0.10575323 -0.2139287
-0.09308989 -0.095913194 -0.19431527 -0.14142676 0.01964548 -0.07239739 -0.15645513 -0.1368482
-0.032307517 0.092965566 0.060123343 -0.050478496 0.052296095 0.024887985 -0.01105253 -0.15053725
-0.12360675 -0.16626799 0.04816434 -0.10652694 0.11123658 -0.08318956 0.028057095 0.038373932
0.16328143 -0.0035865789 0.08954655 -0.06058291 0.1357803 -0.07426088 -0.08065314 -0.1281499
0.013021352 -0.012734349 -0.09415131 -0.00044165683 0.025127694 -0.19516417 -0.035245027 -0.22914195
-0.04765991 -0.078138374 -0.023292271 0.025348688 -0.23878141 -0.05419003 0.039574787 0.066873394
-0.16332284 -0.1345055 -0.07906805 -0.1529258 -0.036115587 -0.04956986 -0.09477346 -0.1540966
-0.004896437 -0.11306929 -0.08823632 0.09462215 -0.053772856 0.072636425 -0.108172946 0.010714934
-0.10298878 0.08171214 -0.105201356 -0.09719828 -0.035085075 0.10039806 0.10655548 -0.10146432
-0.069934405 -0.16620576 0.0019815757 0.023347082 0.06604909 0.00996657 0.06634022 0.12889418
-0.016794005 -0.20092778 -0.004494712 -0.03117783
00000000: e383 083d 413b 2f3e 7d97 423d 5bb6 c6bd
00000010: 8008 0a3d 2b6b a2bb 3b72 36bd 4bd2 82bc
00000020: 13b2 abbd ca40 083d 207e 1c3c ddae 373c
00000030: 9034 56bc 6542 073e 2695 d83d 2010 5bbe
00000040: eaa5 bebd 236e c4bd 95fa 46be 2dd2 10be
00000050: 8fef a03c 1545 94bd c635 20be ef21 0cbe
00000060: e354 04bd bb64 be3d e543 763d 8ac2 4ebd
00000070: 6e34 563d e3e1 cb3c ac15 35bc 7026 1abe
00000080: 8925 fdbd 2842 2abe f947 453d cc2a dabd
00000090: 01d0 e33d 4a5f aabd fed7 e53c fc2d 1d3d
000000a0: 3f33 273e cf0c 6bbb 2e64 b73d c925 78bd
000000b0: fe09 0b3e 1716 98bd 792d a5bd ba39 03be
000000c0: 8257 553c bba3 50bc 67d2 c0bd 2d8e e7b9
000000d0: 98d8 cd3c 1ed9 47be 175d 10bd 30a4 6abe
000000e0: 0a37 43bd 0307 a0bd 6fcf bebc 0da8 cf3c
000000f0: 1d83 74be 5df6 5dbd 2c19 223d ebf4 883d
00000100: 1a3e 27be cfbb 09be 6eee a1bd 9598 1cbe
00000110: f0ed 13bd c409 4bbd 9618 c2bd 80cb 1dbe
00000120: 4a72 a0bb df90 e7bd 3eb5 b4bd 42c9 c13d
00000130: ed40 5cbd 68c2 943d c789 ddbd b18d 2f3c
00000140: c8eb d2bd b258 a73d cf73 d7bd e40f c7bd
00000150: 5eb5 0fbd 809d cd3d c239 da3d 87cc cfbd
00000160: c539 8fbd d831 2abe 53dd 013b 6142 bf3c
00000170: bf44 873d d34a 233c 62dd 873d d6fc 033e
00000180: 9593 89bc 03c0 4dbe 6148 93bb a668 ffbc

stacks.0.blocks.0.fc2.weight f4 [100, 100]
0.12913671 0.07115485 -0.12042852 -0.16798095 0.020053629 -0.022103034 0.08161717 -0.12339591
0.018635223 0.0055313 -0.118160196 0.052960336 -0.25860393 0.2894776 -0.13200802 -0.4542296
-0.095385425 -0.07729892 -0.047235943 0.026813854 -0.09239883 -0.11289259 -0.100540966 -0.17369583
-0.03222727 -0.16235703 -0.037849996 -0.17490503 -0.038515117 0.008626372 0.049696084 -0.0826425
0.044930868 0.050166108 -0.035395984 -0.090700045 0.23278378 0.051079266 0.057203155 -0.23555791
-0.23932478 -0.1845042 -0.020038823 0.07157724 -0.046394564 -0.10404472 -0.1468123 -0.11089507
-0.36290145 0.029155992 -0.0013332623 -0.12316741 -0.039321084 -0.039810363 0.13862193 -0.28017536
0.04154102 0.27330127 -0.10711354 0.14219199 -0.22746345 0.055851687 -0.060418084 -0.22059157
-0.07842173 0.09835041 -0.095536694 0.031190697 -0.08813019 0.056052003 -0.22556065 0.04799585
-0.12793732 -0.24053489 0.05357989 -0.04833528 0.010751233 -0.057735417 0.025224417 -2.2359916e-05
0.06432183 -0.12633419 -0.20955773 0.03668891 0.08971398 0.09540486 0.25951838 -0.037356477
0.002787681 0.2266727 0.07576963 -0.10136616 0.013135269 0.107188 0.07530972 0.05751623
0.0055109635 -0.18868516 -0.09302983 -0.061734762 0.023570837 -0.01909335 0.046807703 0.1661386
-0.04880939 0.04134674 0.07249948 0.18005909 0.019954508 0.04376134 -0.072277464 0.090960205
0.019140359 0.06303672 0.08991507 -0.17424758 -0.063370526 0.048873033 0.0665561 0.013737453
0.087086335 -0.07353818 0.17628387 0.04968136 0.12223035 0.097208194 0.012357345 0.14219707
-0.0010039947 -0.042012252 -0.041040838 -0.022398869 0.12696014 -0.13251606 -0.04371168 -0.0071331365
0.011023881 -0.069950424 -0.028198263 0.049661268 0.2502188 -0.091263205 -0.028749919 -0.07444384
0.056067076 -0.0005440187 -0.12604707 0.10987533 -0.13041939 0.04146769 -0.03212264 -0.08163056
0.033083536 -0.032857303 0.07706562 -0.19744347 0.009078547 0.14446649 0.048614327 0.0044540805
0.027826725 -0.20284711 0.1502071 0.09691772 0.0668109 0.21179995 0.032528207 -0.15422416
-0.042716533 -0.10334661 0.011697258 -0.040331617 0.08515788 -0.10034529 0.07207859 0.039015535
0.08826368 0.032116685 0.038235005 0.05375144 0.19747101 0.07529055 0.0069789113 0.08105633
-0.040355653 -0.109388 -0.21525179 -0.12069749 0.027544605 0.21060744 -0.026793705 -0.039019432
0.04527814 -0.06317654 -0.1983087 -0.11759474 0.04595104 -0.008502743 0.044366755 -0.061749984
0.12496352 0.1810522 -0.22417048 -0.2146532 0.15285769 0.06548799 0.11877093 -0.06225764
-0.07212144 0.07630064 -0.11151772 0.08883212 -0.035586957 0.064811856 -0.012778619 -0.28693593
-0.032503918 -0.025785856 -0.1103919 0.049912997 0.096812375 0.09295529 -0.13490932 -0.1586757
0.078597456 -0.21454352 -0.031798817 -0.08848831 0.07578236 0.08411702 0.074947976 -0.16000828
0.117645904 -0.3060708 0.12181283 -0.009588238 0.09582619 0.036768246 -0.11519399 -0.062556624
-0.06195516 -0.3528315 0.18845695 0.09526291 0.14076923 0.101053566 0.008998014 -0.038867358
-0.13669051 0.033420384 0.07920352 0.072079204 -0.040114637 -0.014803127 -0.054911174 -0.0020220226
00000000: 6a3c 043e a2b9 913d 3aa3 f6bd 3303 2cbe
00000010: 8247 a43c 6c11 b5bc e726 a73d ffb6 fcbd
00000020: e5a8 983c e83f b53b f9fd f1bd f0ec 583d
00000030: bc67 84be 6836 943e 1c2d 07be c890 e8be
00000040: 6f59 c3bd e54e 9ebd 7a7a 41bd baa8 db3c
00000050: 993b bdbd 3b34 e7bd 6ce8 cdbd 52dd 31be
00000060: be00 04bd ec40 26be 9908 1bbd 4e1a 33be
00000070: 07c2 1dbd a055 0d3c 1f8e 4b3d 7940 a9bd
00000080: 6e09 383d fa7a 4d3d 61fb 10bd f2c0 b9bd
00000090: df5e 6e3e 7e38 513d db4d 6a3d 1836 71be
000000a0: 8e11 75be abee 3cbe 7528 a4bc 1797 923d
000000b0: 3a08 3ebd 6615 d5bd f755 16be f41c e3bd
000000c0: 38ce b9be 8cd8 ee3c dcc0 aeba 323f fcbd
000000d0: 250f 21bd 3110 23bd e8f2 0d3e 2573 8fbe
000000e0: eb26 2a3d 25ee 8b3e 585e dbbd c79a 113e
000000f0: 2eec 68be bdc4 643d f478 77bd c2e2 61be
00000100: 929b a0bd f16b c93d bea8 c3bd a283 ff3c
00000110: 9a7d b4bd c996 653d 5ff9 66be 4c97 443d
00000120: 0002 03be c74e 76be 9676 5b3d 37fb 45bd
00000130: f125 303c f97b 6cbd 70a3 ce3c 8e91 bbb7
00000140: 2abb 833d c05d 01be 4d96 56be 1c47 163d
00000150: f7bb b73d a063 c33d 98df 843e 1b03 19bd
00000160: 87b1 363b e31c 683e 1c2d 9b3d 1099 cfbd
00000170: 5035 573c 6285 db3d fc3b 9a3d 2396 6b3d
00000180: 5095 b43b af36 41be 6c86 bebd 97dd 7cbd
00000190: a117 c13c a869 9cbc 6fb9 3f3d 3d20 2a3e
000001a0: 5bec 47bd 335b 293d 9b7a 943d 6961 383e
000001b0: a377 a33c 173f 333d 3506 94bd 5849 ba3d
000001c0: 3ecc 9c3c 6519 813d 6425 b83d f56d 32be
000001d0: 68c8 81bd 172f 483d 914e 883d 0e13 613c
000001e0: 525a b23d 2f9b 96bd c283 343e af7e 4b3d
000001f0: e853 fa3d 1715 c73d 7676 4a3c 1c9c 113e
00000200: 7998 83ba 0a15 2cbd 701a 28bd d57d b7bc
00000210: d701 023e 4ab2 07be 050b 33bd 16bd e9bb
00000220: 829d 343c 2b42 8fbd 0b00 e7bc 9d69 4b3d
00000230: ae1c 803e 34e8 babd f384 ebbc 0376 98bd
00000240: 97a6 653d 7a9c 0eba 7c12 01be 5106 e13d
00000250: a98c 05be 06da 293d 0893 03bd ec2d a7bd
00000260: 9a82 073d 6195 06bd 94d4 9d3d 9f2e 4abe
00000270: 30be 143c 06ef 133e d11f 473d 89f3 913b
00000280: dff4 e33c 27b7 4fbe e4cf 193e cc7c c63d
00000290: 27d4 883d 16e2 583e 4c3c 053d f0ec 1dbe
000002a0: 88f7 2ebd 63a7 d3bd dba5 3f3c c432 25bd
000002b0: 4167 ae3d d581 cdbd f19d 933d c1ce 1f3d
000002c0: 97c3 b43d c98c 033d 4f9c 1c3d 782a 5c3d
000002d0: d735 4a3e ef31 9a3d 5aaf e43b dc00 a63d
000002e0: f84b 25bd d106 e0bd f76a 5cbe 3f30 f7bd
000002f0: 39a5 e13c 7aa9 573e 797e dbbc d7d2 1fbd
00000300: 9275 393d b462 81bd 7011 4bbe 83d5 f0bd
00000310: 2837 3c3d 174f 0bbc eab9 353d 8ded 7cbd
00000320: e0ec ff3d bf65 393e f28c 65be 0cce 5bbe
00000330: ba86 1c3e 911e 863d 2c3e f33d de01 7fbd
00000340: 68b4 93bd 8343 9c3d 6763 e4bd 9ded b53d
00000350: a1c3 11bd 14bc 843d 6a5d 51bc 44e9 92be
00000360: d422 05bd dc3c d3bc 2615 e2bd 9271 4c3d
00000370: 9145 c63d 585f be3d ab25 0abe e27b 22be
00000380: b4f7 a03d 4cb1 5bbe 7a3f 02bd 5c39 b5bd
00000390: c833 9b3d 8b45 ac3d 537e 993d 36d9 23be
000003a0: 56f0 f03d 50b5 9cbe 0179 f93d fc17 1dbc
000003b0: 8640 c43d 4d9a 163d d4ea ebbd b01d 80bd
000003c0: b2c4 7dbd 55a6 b4be dcfa 403e 3319 c33d
000003d0: cf25 103e 2cf5 ce3d 686c 133c 6133 1fbd
000003e0: 99f8 0bbe d0e3 083d 7535 a23d 439e 933d
000003f0: 3f4f 24bd d188 72bc 8aea 60bd e983 04bb

stacks.0.blocks.0.fc2.bias f4 [100]
0.07430904 0.052500032 -0.030356733 0.14744121 -0.033402655 -0.016320867 -0.019432725 0.100399606
-0.07048167 0.046219975 0.11543591 0.04151532 -0.009588763 0.022053637 0.0840587 -0.042312615
-0.17697713 -0.093303375 -0.01482921 0.034324873 -3.8419836e-05 -0.017958414 0.08963405 0.13083896
-0.15068746 -0.0798601 0.09236029 0.03655663 0.016419234 0.04348347 0.07318854 -0.055758532
0.0033072976 -0.1497487 0.0905784 0.015745195 0.06458009 0.07349743 -0.021603985 0.0362027
0.0065970724 0.08389464 -0.04088912 -0.030501982 0.112785995 0.114584446 0.0032711446 -0.047717724
0.07962696 -0.12171905 -0.05016829 0.12635946 -0.008873013 -0.033486288 0.045846976 0.046610788
-0.068761244 0.05450103 -0.09779699 0.096238725 0.030978257 0.059705235 -0.13296296 -0.023157751
0.03058918 0.048167937 -0.035041865 -0.13390099 -0.09652669 0.08300476 -0.10827432 -0.007696232
0.13152035 0.06845943 0.105780125 -0.104635164 -0.18718718 -0.041988574 -0.010328272 0.07326503
-0.10575485 -0.13640144 -0.09804875 0.10545388 -0.01654985 0.02862379 0.09507085 0.06719537
-0.13103813 0.11659573 -0.051146533 0.034023523 -0.016625173 0.094172925 -0.11458667 -0.08286392
-0.06310779 0.007104603 -0.0017826827 0.035193384
00000000: 572f 983d 460a 573d afae f8bc d4fa 163e
00000010: 39d1 08bd 57b3 85bc 6131 9fbc 4f9e cd3d
00000020: b258 90bd 2851 3d3d aa69 ec3d f80b 2a3d
00000030: 301a 1dbc d4a9 b43c f826 ac3d fe4f 2dbd
00000040: 7e39 35be d715 bfbd 37f6 72bc 3d98 0c3d
00000050: fc24 21b8 861d 93bc 0f92 b73d a6fa 053e
00000060: d04d 1abe b18d a3bd 6427 bd3d 68bc 153d
00000070: a181 863c b91b 323d e0e3 953d 0f63 64bd
00000080: 3fbf 583b b957 19be 2b81 b93d 11fc 803c
00000090: 9142 843d d285 963d d7fa b0bc 4849 143d
000000a0: 412c d83b f4d0 ab3d 5a7b 27bd 4bdf f9bc
000000b0: 58fc e63d 40ab ea3d b360 563b a973 43bd
000000c0: 7613 a33d d647 f9bd 447d 4dbd 6064 013e
000000d0: 1d60 11bc eb28 09bd 0aca 3b3d f4ea 3e3d
000000e0: b2d2 8cbd 793c 5f3d ca49 c8bd cf18 c53d
000000f0: 1dc6 fd3c 7a8d 743d 7127 08be 53b5 bdbc
00000100: 2996 fa3c be4b 453d 0f88 0fbd 571d 09be
00000110: c9af c5bd 66fe a93d edbe ddbd ac30 fcbb
00000120: 45ad 063e 7534 8c3d 40a3 d83d f64a d6bd
00000130: ffad 3fbe 36fc 2bbd ea37 29bc fa0b 963d
00000140: 0096 d8bd d2ac 0bbe c8cd c8bd 34f8 d73d
00000150: 8d93 87bc 707c ea3c 81b4 c23d ba9d 893d
00000160: dc2e 06be bec9 ee3d 077f 51bd 405c 0b3d
00000170: 8431 88bc bcdd c03d 6bac eabd 8fb4 a9bd
00000180: a83e 81bd bbcd e83b e8a8 e9ba f026 103d

stacks.0.blocks.0.fc3.weight f4 [100, 100]
0.053095117 -0.14673282 -0.060074404 0.15035596 -0.23621307 -0.004466533 0.014103316 -0.009482859
0.027730519 0.050063685 0.06468513 -0.04350982 0.078404695 -0.032510664 0.016981108 0.08788664
-0.0608675 0.038567156 0.03395158 0.24648985 0.00046765784 -0.025920447 -0.11691682 -0.077563815
-0.13844375 -0.11838694 -0.0941529 -0.030987214 -0.008733533 0.06421214 -0.047189083 -0.07569587
-0.104374036 0.025229977 0.10169323 -0.09333329 0.06902548 -0.04521473 0.11027226 0.14640668
0.0044411486 -0.18839848 -0.081915855 -0.03291551 0.08439938 -0.0032154731 0.112512246 0.10322327
0.079592496 -0.030729547 0.08256839 -0.12896995 0.10848058 0.1230097 0.07340874 -0.13170455
0.29911795 0.12939961 0.23930511 0.07121647 0.114416815 0.089567065 -0.068537995 0.071522616
-0.04956381 0.048746347 0.03813972 0.062224735 -0.062590115 -0.10010791 0.0837053 0.05766526
0.0046334616 -0.009744856 -0.10065775 0.122446544 -0.18073095 0.11704022 -0.070832334 -0.06909776
-0.21015042 0.015162279 -0.010733476 -0.057200607 0.037806343 -0.00079316593 -0.035825565 -0.12393102
-0.11928801 0.13405877 0.0065304223 0.025187233 0.10011715 0.10011417 -0.009218758 0.09738837
-0.038471136 -0.06112719 -0.071571745 -0.19697581 0.08059829 -0.117819756 0.1612202 0.26083848
-0.15591297 0.0013027433 0.06480155 -0.056267202 -0.005472295 0.03676162 0.08571178 0.018663846
0.13491324 0.012812337 -0.013267473 0.001059682 0.06675897 -0.06498249 -0.08919077 0.15268038
-0.087108985 -0.0024416035 -0.046494216 -0.04488343 -0.09077942 0.0055341865 -0.12144072 0.044673067
-0.090130955 0.06625173 -0.1247729 -0.0366233 -0.07505718 -0.03830334 0.16367753 -0.08116892
0.044496756 0.03129094 0.15800919 0.07442989 -0.070555046 -0.0326452 -0.082599625 -0.0035204962
-0.027901242 -0.12465832 0.04489693 -0.031221613 0.1682411 -0.08795633 -0.029629033 -0.040309712
0.109670274 0.21637617 0.0847789 -0.06822005 0.30320668 0.118393905 0.28941765 0.21926238
0.07909766 0.0974006 -0.063823774 0.053372685 0.16709852 0.07142317 0.0021014581 0.0732754
-0.11429135 -0.093848005 0.19701336 0.06819097 -0.15649498 -0.12756266 0.026902322 -0.061241653
-0.1114334 0.16224103 0.028939068 -0.061179 -0.15066782 0.05006584 -0.018760085 -0.18526764
0.13095266 -0.0016431417 0.14766493 -0.14528316 -0.13550837 0.07519828 0.08118818 0.09276794
0.038538285 0.16986385 -0.013500154 -0.050004296 -0.08766137 0.04600224 0.107398 -0.10379236
-0.036442447 -0.114110604 -0.18041658 0.00060037174 0.06418852 -0.006321026 0.03755334 0.07390736
-0.013594474 0.018377485 0.007112383 0.054552212 -0.027859157 0.008445424 -0.13981232 0.058674965
-0.12534308 -0.027973138 -0.012971718 0.0100644585 -0.039457202 0.021465845 0.009466805 0.011417972
-0.09565871 -0.14363264 0.09291695 -0.05255108 -0.105966024 0.05067218 0.060354933 -0.021602243
-0.049273454 0.05171973 -0.12633443 0.08065069 -0.041855026 0.0019771622 -0.08506536 -0.038544316
0.022175573 -0.10194258 0.023619516 -0.035050903 0.06607772 -0.12372833 0.02081494 0.064034425
0.004048559 0.057321914 -0.030671202 0.058364585 0.0030311577 -0.015568683 -0.16552633 -0.011755819
00000000: 447a 593d 2141 16be 9410 76bd eaf6 193e
00000010: d7e1 71be ff5b 92bb 9811 673c fe5d 1bbc
00000020: 1d2b e33c 940f 4d3d a379 843d 5a37 32bd
00000030: a492 a03d e729 05bd f71b 8b3c e9fd b33d
00000040: 3350 79bd 98f8 1d3d d010 0b3d d667 7c3e
00000050: f92f f539 1e57 d4bc 1672 efbd c7d9 9ebd
00000060: 33c4 0dbe da74 f2bd 3cd3 c0bd e6d8 fdbc
00000070: 1817 0fbc a881 833d 5749 41bd 7006 9bbd
00000080: 0ec2 d5bd 19af ce3c 8a44 d03d 8625 bfbd
00000090: 3b5d 8d3d 1533 39bd 6cd6 e13d a2eb 153e
000000a0: 0e87 913b 88eb 40be 80c3 a7bd 6ad2 06bd
000000b0: 95d9 ac3d b0ba 52bb d26c e63d b966 d33d
000000c0: 6401 a33d 88bc fbbc 9e19 a93d b310 04be
000000d0: 112b de3d 82ec fb3d 5257 963d 8fdd 06be
000000e0: fd25 993e 5581 043e 660c 753e f1d9 913d
000000f0: 5d53 ea3d f06e b73d a65d 8cbd 737a 923d
00000100: 6c03 4bbd 40aa 473d 6538 1c3d 5ddf 7e3d
00000110: 3f2f 80bd 6005 cdbd af6d ab3d 6832 6c3d
00000120: 4bd4 973b e3a8 1fbc a725 cebd 41c5 fa3d
00000130: 8911 39be c8b2 ef3d 8b10 91bd 2083 8dbd
00000140: ac31 57be 356b 783c 76db 2fbc 2f4b 6abd
00000150: d3da 1a3d 77ec 4fba d4bd 12bd 8ccf fdbd
00000160: 464d f4bd b446 093e 27fd d53b 7555 ce3c
00000170: 380a cd3d a808 cd3d 460a 17bc 8e73 c73d
00000180: e993 1dbd 8160 7abd 3594 92bd 07b4 49be
00000190: b710 a53d 7c4b f1bd e816 253e 9f8c 853e
000001a0: a6a7 1fbe d0c0 aa3a adb6 843d 7078 66bd
000001b0: f050 b3bb 5a93 163d a889 af3d ece4 983c
000001c0: b226 0a3e d6ea 513c d15f 59bc 07e5 8a3a
000001d0: edb8 883d 8a15 85bd a7a9 b6bd 3f58 1c3e
000001e0: 3266 b2bd 4f03 20bb b870 3ebd b0d7 37bd
000001f0: 90ea b9bd 1f58 b53b eab5 f8bd 1bfb 363d
00000200: 9496 b8bd fdae 873d ef88 ffbd 5002 16bd
00000210: 94b7 99bd f7e3 1cbd 159b 273e e43b a6bd
00000220: 3b42 363d ee2a 003d 29cd 213e b36e 983d
00000230: 2a7f 90bd f9b6 05bd fe29 a9bd 20b8 66bb
00000240: 2591 e4bc dc4c ffbd d8e5 373d 78c4 ffbc
00000250: 6547 2c3e 7322 b4bd 96b8 f2bc cc1b 25bd
00000260: cf9a e03d b791 5d3e 8fa0 ad3d f4b6 8bbd
00000270: e83d 9b3e 8178 f23d 8d2e 943e 5186 603e
00000280: f4fd a13d f779 c73d 0ab6 82bd 519d 5a3d
00000290: e01b 2b3e 5046 923d 9eb8 093b 6a11 963d
000002a0: 9511 eabd 6233 c0bd dfbd 493e b5a7 8b3d
000002b0: 3840 20be c99f 02be 4262 dc3c 87d8 7abd
000002c0: 3237 e4bd 8322 263e a011 ed3c d596 7abd
000002d0: aa48 1abe d711 4d3d c0ae 99bc cdb6 3dbe
000002e0: 7418 063e b05e d7ba 7a35 173e 1cc5 14be
000002f0: b5c2 0abe 8e01 9a3d fd45 a63d 1efd bd3d
00000300: 52da 1d3d caf0 2d3e c02f 5dbc 4ed1 4cbd
00000310: ce87 b3bd d86c 3c3d 7cf3 db3d 1791 d4bd
00000320: ad44 15bd d2b2 e9bd 20bf 38be 4462 1d3a
00000330: 4575 833d 9c20 cfbb 88d1 193d be5c 973d
00000340: 5bbb 5ebc 618c 963c fe0e e93b 2472 5f3d
00000350: e338 e4bc ad5e 0a3c f62a 0fbe 2955 703d
00000360: f059 00be ec27 e5bc 5487 54bc 66e5 243c
00000370: e09d 21bd 24d9 af3c a81a 1b3c 7212 3b3c
00000380: b7e8 c3bd 6f14 13be 3e4b be3d cd3f 57bd
00000390: b704 d9bd a28d 4f3d bc36 773d 30f7 b0bc
000003a0: f6d2 49bd 11d8 533d d05d 01be 302c a53d
000003b0: 2d70 2bbd 4793 013b bf36 aebd a5e0 1dbd
000003c0: 8ca9 b53c 45c7 d0bd b77d c13c 8991 0fbd
000003d0: c153 873d 4765 fdbd 1884 aa3c 7b24 833d
000003e0: c6a9 843b 62ca 6a3d 2c42 fbbc b40f 6f3d
000003f0: 63a6 463b ca13 7fbc bc7f 29be 7b9b 40bc

stacks.0.blocks.0.fc3.bias f4 [100]
0.09049726 0.07924358 -0.054845214 -0.1493059 0.027103057 -0.04169837 -0.10235271 0.055709578
-0.030977966 -0.07676787 0.08296534 0.10373067 -0.040452283 -0.12004293 -0.21948977 0.01175061
-0.01096955 -0.1514697 -0.08118461 0.07938217 0.04974812 0.0044025998 0.015855117 -0.12666483
-0.1910849 -0.08875961 -0.10061768 -0.08755453 0.027686218 -0.13529462 0.051999785 -0.07596396
-0.11711953 0.013529688 -0.04563908 0.006187348 0.020162592 0.0027165713 0.06631018 -0.09639596
-0.14254257 0.027284084 0.16215852 -0.0062446375 0.06376212 0.03583584 0.023592906 0.04109688
-0.049501665 -0.041240968 0.008157051 0.015888754 0.002422256 0.08331855 0.12625505 -0.007343984
-0.055263285 0.014439567 0.017186156 -0.1323943 -0.0853798 0.2078038 -0.122409515 -0.027788054
-0.12336951 0.02598437 -0.24202463 -0.10979939 -0.085446246 -0.024967628 -0.048390318 -0.021533644
-0.005920171 0.09663985 0.02222979 -0.13729097 0.014121163 -0.015178538 -0.13962688 -0.07277868
-0.063379966 0.01579111 0.13982758 -0.16849291 0.03167122 -0.15955578 -0.10793932 0.018602291
-0.052063495 -0.032193795 0.14835705 0.028203527 -0.01754614 0.07906795 -0.13761033 -0.10562358
0.030446535 -0.13108534 0.18866937 -0.034345392
00000000: a156 b93d 754a a23d 60a5 60bd a5e3 18be
00000010: 3b07 de3c e9cb 2abd 4c9e d1bd ba2f 643d
00000020: 81c5 fdbc 7938 9dbd bbe9 a93d bf70 d43d
00000030: 4bb1 25bd 11d9 f5bd edc1 60be a185 403c
00000040: a1b9 33bc df1a 1bbe 1e44 a6bd 1f93 a23d
00000050: afc4 4b3d af43 903b 97e2 813c 6db4 01be
00000060: c3ab 43be 99c7 b5bd a410 cebd ca4f b3bd
00000070: 35ce e23c ac8a 0abe bafd 543d fe92 9bbd
00000080: 5ddc efbd a0ab 5d3c 0bf0 3abd 3dbf ca3b
00000090: 052c a53c 8108 323b a2cd 873d 3f6b c5bd
000000a0: aef6 11be df82 df3c e20c 263e d19f ccbb
000000b0: b795 823d 9ac8 123d e945 c13c 3455 283d
000000c0: 42c2 4abd 4aec 28bd 27a5 053c 2229 823c
000000d0: b6be 1e3b eaa2 aa3d 0149 013e cea5 f0bb
000000e0: c15b 62bd ef93 6c3c fbc9 8c3c 5f92 07be
000000f0: 9bdb aebd 85ca 543e d7b1 fabd c6a3 e3bc
00000100: 27a9 fcbd 2cdd d43c 4ed5 77be 81de e0bd
00000110: 71fe aebd e988 ccbc ed34 46bd 5367 b0bc
00000120: fefd c1bb 1deb c53d 401b b63c 0196 0cbe
00000130: 735c 673c 67af 78bc 59fa 0ebe fd0c 95bd
00000140: 5bcd 81bd 5c5c 813c f62e 0f3e 6889 2cbe
00000150: aeb9 013d 9762 23be 4a0f ddbd d563 983c
00000160: 8840 55bd a4dd 03bd e9ea 173e 150b e73c
00000170: ecbc 8fbc 61ee a13d b9e9 0cbe 2d51 d8bd
00000180: 036b f93c 3c3b 06be 8b32 413e c1ad 0cbd

stacks.0.blocks.0.fc4.weight f4 [100, 100]
-0.07799237 -0.1410942 -0.070272155 -0.070846684 -0.19100077 -0.09872929 0.026492886 -0.20209314
0.1417554 0.018898409 0.054003652 -0.118245564 -0.070591785 0.09613565 0.12597832 0.06928888
-0.033508025 0.019547531 -0.08212123 -0.018825049 -0.32680956 -0.04511841 -0.04895255 -0.04618457
0.107569695 -0.025344077 -0.09352284 0.19100098 -0.082741626 -0.044118565 -0.1657442 -0.07163356
0.041254237 -0.049182896 -0.06659316 -0.02556408 0.0958017 0.07366056 -0.014496747 0.0143945385
0.004837314 -0.30656135 -0.17706259 0.03250696 0.121568665 0.035369754 -0.049294986 -0.16442601
0.033537935 -0.103752464 -0.06328229 0.02592552 0.024397984 -0.25721198 0.16171809 -0.07304138
0.19227003 -0.083646856 -0.12816893 0.035045683 0.07085627 0.3067156 -0.016788596 0.07630514
0.045083314 0.055940595 0.22875899 -0.05328456 -0.08756589 0.0444636 -0.0035664733 0.041866712
-0.111624174 0.021911327 -0.037751537 -0.0227093 -0.29068977 -0.06499639 0.09340732 0.02046296
0.058758147 -0.05414595 -0.16084686 0.0069971825 0.052298088 -0.07136067 0.09864297 -0.1345663
0.0441006 0.02007974 0.15122077 0.056823496 -0.35180908 -0.26853287 -0.061148934 0.0065265447
-0.024428856 0.008139982 0.26128983 -0.09019061 0.023495937 0.029488834 -0.06733867 -0.0769958
-0.054935947 -0.009154259 -0.0937373 0.009808191 -0.24615644 -0.016213113 -0.08371906 -8.070114e-05
0.10827336 -0.07481353 -0.16883668 0.022208193 0.008770967 -0.029209668 -0.013481523 0.025766041
-0.034646194 0.064778596 -0.014330698 0.035848968 -0.28204137 -0.05994877 0.068565026 -0.10005402
0.009582658 -0.10892977 0.07343897 -0.044770397 -0.050628394 0.08492584 0.10807643 0.101292305
0.058367364 0.036378212 -0.13351129 0.057086874 -0.037297852 0.05293867 0.1504848 0.0397607
0.07705087 0.024461638 0.10532204 -0.017886436 0.06888338 0.058820833 -0.01855425 0.10472229
-0.1040516 0.0017424447 0.055887014 0.05026232 -0.222197 0.0526052 0.017081382 0.06759141
-0.09953744 -0.0001631374 -0.06334599 0.06388381 -0.071470566 0.05470978 0.19501959 0.012110944
0.050847877 0.034551967 -0.069030106 0.05325191 0.03887313 0.14035663 0.13099673 0.026274147
-0.014454968 -0.040384267 0.08540527 0.058445834 -0.0065839705 -0.05867933 -0.042115036 -0.00991351
0.036665674 -0.1457628 -0.058793604 0.070032276 0.07336585 -0.010725898 0.0052771093 0.06640502
-0.027637742 -0.04128743 0.07887068 0.0038135275 -0.12501432 -0.01923302 0.0024273447 0.066815265
0.031846777 -0.019554341 0.034267586 0.02945783 -0.07956115 -0.007918372 -0.0003324374 0.040611673
0.064381 -0.19077015 -0.10856721 -0.008774713 -0.05537372 0.022792414 0.07748489 -0.008467516
0.036241714 0.021954652 -0.052745007 0.06599036 -0.0811535 0.051901326 0.012818391 -0.027710833
0.011359298 -0.017881917 -0.053052068 0.116931625 -0.04165752 0.098243035 0.056885075 0.079342104
-0.09670059 0.055078164 -0.04880958 0.01956054 0.04967851 -0.17663302 0.05937875 0.0440929
-0.056153458 -0.07765339 -0.1370172 0.08284466 0.07997399 0.014856747 0.08074991 -0.07338079
0.053869873 -0.01581664 -0.038919333 -0.08013035 0.053612553 -0.15039432 -0.046308942 -0.055043742
00000000: 77ba 9fbd ff7a 10be d9ea 8fbd 1118 91bd
00000010: b595 43be 9532 cabd 9c07 d93c 81f1 4ebe
00000020: 5428 113e d6d0 9a3c ef32 5d3d bb2a f2bd
00000030: 6d92 90bd c5e2 c43d 7600 013e 54e7 8d3d
00000040: b63f 09bd 2522 a03c 2d2f a8bd fd36 9abc
00000050: 9553 a7be 15ce 38bd 7882 48bd 082c 3dbd
00000060: 804d dc3d 629e cfbc e788 bfbd c395 433e
00000070: 7174 a9bd abb5 34bd d9b8 29be 9eb4 92bd
00000080: 34fa 283d 0174 49bd ff61 88bd c36b d1bc
00000090: af33 c43d 59db 963d c483 6dbc 12d7 6b3c
000000a0: 5582 9e3b 9cf5 9cbe e54f 35be 0526 053d
000000b0: fef8 f83d e0df 103d 8ae9 49bd 4b5f 28be
000000c0: 135f 093d 2c7c d4bd 259a 81bd c261 d43c
000000d0: 48de c73c 4ab1 83be 6d99 253e b896 95bd
000000e0: 6fe2 443e 0b4f abbd b73e 03be 108c 0f3d
000000f0: 181d 913d d409 9d3e 3d88 89bc df45 9c3d
00000100: 48a9 383d f721 653d cc3f 6a3e e940 5abd
00000110: bf55 b3bd 771f 363d 7ebb 69bb 6e7c 2b3d
00000120: 379b e4bd 627f b33c 5ba1 1abd db08 babc
00000130: 4ad5 94be d41c 85bd 564c bf3d f0a1 a73c
00000140: 62ac 703d 25c8 5dbd 0ab5 24be 9f48 e53b
00000150: 8536 563d 8b25 92bd 5305 ca3d c0cb 09be
00000160: d5a2 343d 447e a43c 9ed9 1a3e c1bf 683d
00000170: 5220 b4be 247d 89be 4e77 7abd a0dc d53b
00000180: 061f c8bc 8f5d 053c c8c7 853e dbb5 b8bd
00000190: 8d7a c03c 9192 f13c dbe8 89bd f9af 9dbd
000001a0: 8404 61bd bffb 15bc 57f9 bfbd 89b2 203c
000001b0: 6f10 7cbe 5dd1 84bc e674 abbd 183e a9b8
000001c0: 6cbe dd3d d637 99bd 86e3 2cbe f5ed b53c
000001d0: 1ab4 0f3c 1d49 efbc 9be1 5cbc 4e13 d33c
000001e0: 2be9 0dbd a4aa 843d 4ecb 6abc 5ed6 123d
000001f0: ba67 90be d78c 75bd d26b 8c3d 1fe9 ccbd
00000200: 9500 1d3c 9216 dfbd 2c67 963d 2a61 37bd
00000210: b85f 4fbd 99ed ad3d 2d57 dd3d 5772 cf3d
00000220: 9e12 6f3d 5201 153d 2fb7 08be edd3 693d
00000230: a2c5 18bd 38d6 583d b018 1a3e 1edc 223d
00000240: d9cc 9d3d c663 c83c 15b3 d73d 9386 92bc
00000250: bb12 8d3d 1dee 703d 15ff 97bc a478 d63d
00000260: 0119 d5bd be62 e43a c8e9 643d dddf 4d3d
00000270: 9c87 63be 8d78 573d 41ee 8b3c 5d6d 8a3d
00000280: 49da cbbd dd0f 2bb9 8bbb 81bd 84d5 823d
00000290: 295f 92bd 5d17 603d 37b3 473e fb6c 463c
000002a0: dd45 503d 5d86 0d3d a85f 8dbd ad1e 5a3d
000002b0: 6e39 1f3d a6b9 0f3e 0224 063e e13c d73c
000002c0: 88d4 6cbc f969 25bd f5e8 ae3d e664 6f3d
000002d0: 59be d7bb bd59 70bd d180 2cbd 466c 22bc
000002e0: bf2e 163d d842 15be 90d1 70bd 156d 8f3d
000002f0: d640 963d adbb 2fbc 9aeb ac3b 5bff 873d
00000300: 8c68 e2bc 021d 29bd f386 a13d 60ec 793b
00000310: c103 00be 918e 9dbc 1614 1f3b 71d6 883d
00000320: c471 023d 6d30 a0bc 2b5c 0c3d 8c51 f13c
00000330: f5f0 a2bd 0fbc 01bc fe4a aeb9 6d58 263d
00000340: 30da 833d 4059 43be 7c58 debd d0c3 0fbc
00000350: 8ecf 62bd 28b7 ba3c 66b0 9e3d 56bb 0abc
00000360: 3172 143d 3eda b33c 260b 58bd f425 873d
00000370: ce33 a6bd 7c96 543d 3b04 523c d401 e3bc
00000380: 591c 3a3c 197d 92bc 204d 59bd d979 ef3d
00000390: 13a1 2abd a533 c93d 5300 693d 1d7e a23d
000003a0: f50a c6bd a499 613d 8eec 47bd 6d3d a03c
000003b0: b17b 4b3d 49df 34be 2237 733d c29a 343d
000003c0: 2b01 66bd be08 9fbd 3d4e 0cbe 76aa a93d
000003d0: 67c9 a33d b769 733c 3560 a53d ab48 96bd
000003e0: a8a6 5c3d e691 81bc e169 1fbd 621b a4bd
000003f0: d698 5b3d f800 1abe 72ae 3dbd 8c75 61bd

stacks.0.blocks.0.fc4.bias f4 [100]
0.1434915 -0.02374539 -0.09453314 -0.046954095 -0.09553486 -0.10172827 0.059225086 -0.09039644
0.023886751 0.09314235 -0.1319724 -0.088640936 -0.12954083 -0.09313999 0.062878326 -0.08212319
0.15372474 -0.034497593 -0.028244315 -0.023337789 -0.07722321 0.093017876 0.043013703 0.16535673
0.18199946 -0.1609236 0.1342956 -0.027559659 0.047860622 -0.057298426 -0.079264484 0.017274626
0.0035274595 0.06554497 -0.103002205 0.02662255 -0.07225687 0.010865878 -0.06549777 0.18863112
-0.043562766 -0.027896065 -0.09466658 -0.11028287 0.016471645 0.0005401306 -0.14611802 -0.15073588
-0.10129253 -0.029166168 -0.09646238 -0.07771079 -0.07674315 -0.007555307 0.011364664 0.07737778
0.0054570623 -0.104987204 -0.03281619 0.03893381 0.00610943 -0.07215497 0.20958492 0.0678364
0.0067788814 -0.11093785 -0.05803213 -0.040956467 -0.007754025 -0.11985754 0.015620869 0.15509628
0.042250432 0.03170639 -0.02298974 0.046833128 -0.08766265 0.1874822 0.19432959 -0.10265576
0.018424397 0.047846194 -0.09856695 0.13589202 0.005783292 -0.09557574 -0.03130242 0.020205058
0.10881819 -0.046194304 0.00409047 0.063797794 0.2246062 0.05071363 -0.054417875 0.13846657
0.21070616 -0.0025428103 -0.111649744 0.18262461
00000000: 70ef 123e b185 c2bc 979a c1bd f052 40bd
00000010: c8a7 c3bd e956 d0bd 0196 723d c521 b9bd
00000020: 26ae c33c 6bc1 be3d c623 07be 6189 b5bd
00000030: 5aa6 04be 2ec0 bebd 5ac6 803d 3430 a8bd
00000040: 056a 1d3e 594d 0dbd 9f60 e7bc e42e bfbc
00000050: 3427 9ebd 2880 be3d 232f 303d 4653 293e
00000060: 115e 3a3e 28c9 24be c984 093e cbc4 e1bc
00000070: 8009 443d c1b1 6abd 6b55 a2bd 8483 8d3c
00000080: f32c 673b 713c 863d d2f2 d2bd 8917 da3c
00000090: 69fb 93bd cc06 323c b223 86bd 8428 413e
000000a0: df6e 32bd 4a86 e4bc 8de0 c1bd fcdb e1bd
000000b0: 8bef 863c 8d97 0d3a f69f 15be 825a 1abe
000000c0: 7572 cfbd e3ed eebc 118e c5bd d626 9fbd
000000d0: 832b 9dbd 8292 f7bb db32 3a3c 3e78 9e3d
000000e0: 28d1 b23b 8803 d7bd 456a 06bd 0f79 1f3d
000000f0: 9d31 c83b fcc5 93bd 6e9d 563e cfed 8a3d
00000100: 6121 de3b 6233 e3bd 19b3 6dbd f8c1 27bd
00000110: 7a15 febb df77 f5bd acee 7f3c 8fd1 1e3e
00000120: ca0e 2d3d 8fde 013d fb54 bcbc 18d4 3f3d
00000130: 7a88 b3bd 55fb 3f3e 56fe 463e 2f3d d2bd
00000140: c3ee 963c 5ffa 433d 78dd c9bd 4727 0b3e
00000150: c581 bd3b 37bd c3bd f736 00bd 1485 a53c
00000160: 12dc de3d 3d36 3dbd 5909 863b 6ba8 823d
00000170: 2bff 653e 18b9 4f3d 47e5 5ebd 2eca 0d3e
00000180: 5bc3 573e 47a5 26bb 9fa8 e4bd f201 3b3e

stacks.0.blocks.0.theta_layer.weight f4 [61, 100]
-0.024956383 -0.025946295 0.0037181491 0.11252734 0.00560873 0.06990716 0.07246883 -0.08055873
-0.04844817 -0.02969179 0.040885974 -0.038579535 -0.17589773 -0.058588482 0.04762692 0.10906217
0.02298085 -0.021341782 -0.009441464 -0.05187676 0.05123724 0.021847768 -0.106456 0.13263525
0.05002529 0.09914631 0.09661882 -0.0048748534 0.01223087 0.023520682 -0.039965488 -0.039959002
-0.013608278 -0.07053088 0.035166457 0.1498914 0.06280255 0.04770322 -0.014868738 0.049479682
-0.024291357 0.06463706 0.037959244 0.04619125 -0.068301365 -0.012347206 -0.058196206 -0.00939787
-0.031420767 0.03663264 -0.08980551 -0.06837138 0.04680977 -0.0313039 0.12353403 0.043496612
-0.047302306 0.013962464 0.08440688 -0.075021975 -0.008754765 0.063410886 0.083527155 0.052628305
0.02048954 -0.0154760135 0.005952911 0.041554745 -0.049665045 0.07863613 0.02358218 0.12678896
0.022354512 0.07746408 -0.0314452 -0.08655494 0.004282898 0.039873037 0.035164528 -0.0040645804
0.04869167 0.11119057 -0.092680864 0.06354998 -0.080281995 -0.005847536 -0.039666336 0.010210014
0.023759622 -0.04531649 -0.026565073 0.0021687136 0.079284094 0.08300785 -0.057671487 0.14088507
0.10732505 -0.023672618 0.043023493 0.02782757 0.0728952 -0.03906273 -0.029549224 -0.009030211
-0.13077262 -0.02660437 -0.047309294 -0.003126561 -0.027608002 -0.10984563 0.054129973 0.071449764
-0.006900619 0.009402524 -0.12579413 -0.052112583 -0.10434362 0.017834952 0.06005793 -0.108806595
0.040786304 -0.092835404 0.04978209 -0.0948627 -0.03322812 0.029096708 0.009935187 0.038295373
0.061309587 0.12002087 -0.11250799 -0.08369263 -0.059982214 -0.01590736 -0.050585955 -0.08713407
-0.046890683 0.04429273 0.012065384 -0.027201712 -0.0074191317 -0.043097217 0.07531185 0.107956365
-0.010401139 -0.0958938 0.10226385 0.0050162817 -0.020037793 0.023582984 -0.0042214165 -0.044027608
0.09268119 0.0012813209 0.006593504 0.07458857 0.09108832 0.04897249 0.07058019 -0.053726267
-0.015577916 -0.029379454 -0.075903274 0.0428237 -0.003400641 0.076920964 -0.102433495 0.020040458
0.0513091 0.082257986 -0.029680854 -0.120074466 -0.018446865 0.081940725 0.10692066 0.020257058
0.04037552 -0.08499632 -0.007056517 -0.09465944 0.07325546 0.006266371 -0.019576544 0.054514118
0.019855458 0.08840221 0.10565521 -0.098675005 0.07053412 0.078648716 0.0069915503 -0.057657573
0.043961383 0.0053167273 0.0686569 -0.08496369 -0.09963168 -0.14172141 0.010948003 -0.017355131
-0.06607393 0.055798423 -0.04785009 0.10803138 0.09255056 0.011986493 0.019045992 0.04980185
-0.11947488 0.07255731 0.011768682 -0.06620088 -0.044219047 0.05228042 -0.10529684 0.025240302
0.014470275 0.024061585 0.045800313 -0.09025215 -0.0012257169 -0.030280035 0.031608418 -0.06881723
0.020913942 -0.07815628 0.023802197 0.12658982 -0.015970657 -0.009613375 0.037300747 -0.04908979
-0.012703728 -0.13074681 0.09011708 0.059814688 0.0066068834 0.046287604 0.07097458 0.0762581
0.098146595 0.008075166 -0.0010599765 0.10456669 -0.05306535 0.024408992 0.107378624 0.01139993
-0.008088025 0.06419152 -0.063463114 -0.064645976 -0.036782753 0.07623509 0.08369486 0.1358424
00000000: 5471 ccbc 538d d4bc 31ac 733b bc74 e63d
00000010: 70c9 b73b 7c2b 8f3d 8a6a 943d fafb a4bd
00000020: 9771 46bd 323c f3bc 0d78 273d 9305 1ebd
00000030: 891e 34be 7afa 6fbd 7214 433d fd5b df3d
00000040: 5642 bc3c f6d4 aebc 5fb0 1abc ba7c 54bd
00000050: 24de 513d 17fa b23c 9a05 dabd 89d1 073e
00000060: 52e7 4c3d 380d cb3d 17e0 c53d 3cbd 9fbb
00000070: fd63 483c 72ae c03c dab2 23bd 0dac 23bd
00000080: 41f5 5ebc 7e72 90bd b40a 103d 227d 193e
00000090: a09e 803d 7464 433d 029c 73bc 35ab 4a3d
000000a0: abfe c6bc 6f60 843d 277b 1b3d 0933 3d3d
000000b0: 96e1 8bbd ef4b 4abc 255f 6ebd 86f9 19bc
000000c0: 10b3 00bd 1b0c 163d f4eb b7bd 4b06 8cbd
000000d0: 9abb 3f3d 8538 00bd 69ff fc3d 8129 323d
000000e0: 10c0 41bd d2c2 643c 84dd ac3d 1fa5 99bd
000000f0: 2570 0fbc 91dd 813d 4910 ab3d c790 573d
00000100: aed9 a73c 1b8f 7dbc a310 c33b 4f35 2a3d
00000110: 936d 4bbd fb0b a13d 6a2f c13c f7d4 013e
00000120: cf20 b73c 7da5 9e3d afcc 00bd b743 b1bd
00000130: 8d57 8c3b e951 233d ae08 103d 2c30 85bb
00000140: eb70 473d e2b7 e33d 77cf bdbd 7e26 823d
00000150: e36a a4bd b09c bfbb 2b79 22bd e747 273c
00000160: 8aa3 c23c c99d 39bd ff9e d9bc fa20 0e3b
00000170: b35f a23d 0500 aa3d f038 6cbd 2d44 103e
00000180: 3ccd db3d 14ed c1bc 6739 303d a5f6 e33c
00000190: 144a 953d 3e00 20bd 3711 f2bc 73f3 13bc
000001a0: 42e9 05be 68f1 d9bc 64c7 41bd fde6 4cbb
000001b0: 2d2a e2bc bff6 e0bd 64b7 5d3d 4154 923d
000001c0: 961e e2bb 0b0d 1a3c 2dd0 00be 0174 55bd
000001d0: 1cb2 d5bd 9b1a 923c 4eff 753d fed5 debd
000001e0: 8a0f 273d 7d20 bebd 4ee8 4b3d 6047 c2bd
000001f0: 361a 08bd 385c ee3c 32c7 223c 9cdb 1c3d
00000200: c31f 7b3d 80cd f53d 976a e6bd 0b67 abbd
00000210: e9af 75bd 2750 82bc 3833 4fbd 5973 b2bd
00000220: 7210 40bd 4b6c 353d e3ad 453c 20d6 debc
00000230: 301c f3bb b586 30bd 193d 9a3d 3a18 dd3d
00000240: 8a69 2abc f863 c4bd b66f d13d 9f5f a43b
00000250: 4c26 a4bc 1a31 c13c cf53 8abb 4b56 34bd
00000260: a3cf bd3d fff1 a73a 520e d83b e4c1 983d
00000270: 838c ba3d 6197 483d 598c 903d 1310 5cbd
00000280: 843a 7fbc 2ead f0bc 2d73 9bbd e767 2f3d
00000290: 4add 5ebb bd88 9d3d a7c8 d1bd e32b a43c
000002a0: 7e29 523d e076 a83d 4325 f3bc 9ae9 f5bd
000002b0: e11d 97bc 8ad0 a73d 38f9 da3d 21f2 a53c
000002c0: cd60 253d 8d12 aebd 5b3a e7bb cfdc c1bd
000002d0: f506 963d 2156 cd3b fd5e a0bc 324a 5f3d
000002e0: eaa7 a23c 380c b53d c261 d83d 1f16 cabd
000002f0: 3174 903d 9412 a13d 6019 e53b 592a 6cbd
00000300: da10 343d f137 ae3b fd9b 8c3d 7101 aebd
00000310: b20b ccbd 6b1f 11be 415f 333c 592c 8ebc
00000320: c551 87bd e38c 643d 75fe 43bd 8e3f dd3d
00000330: 268b bd3d ff62 443c 5706 9c3c 06fd 4b3d
00000340: 3faf f4bd ed98 943d 6ed1 403c 5494 87bd
00000350: 081f 35bd fe23 563d dfa5 d7bd c0c4 ce3c
00000360: bb14 6d3c cd1c c53c 1c99 3b3d 1fd6 b8bd
00000370: 3ca8 a0ba d60d f8bc d477 013d 0cf0 8cbd
00000380: b753 ab3c 6610 a0bd d3fc c23c c3a0 013e
00000390: e5d4 82bc 6b81 1dbc abc8 183d 6012 49bd
000003a0: 4c23 50bc 7ee2 05be 4e8f b83d 3f00 753d
000003b0: 8e7e d83b 1298 3d3d 1f5b 913d 352d 9c3d
000003c0: 1501 c93d b34d 043c e9ee 8aba 1027 d63d
000003d0: 0d5b 59bd 5ef5 c73c 53e9 db3d c6c6 3a3c
000003e0: a383 04bc d876 833d f3f8 81bd 1c65 84bd
000003f0: 83a9 16bd 2521 9c3d 3668 ab3d 451a 0b3e

stacks.0.blocks.0.theta_layer.bias f4 [61]
-0.113429315 0.13212202 0.075118 0.08474553 -0.06246101 0.01533685 -0.10755477 -0.17051733
0.15809381 0.11100315 0.22068764 0.09463826 0.11941556 0.15723191 0.1581758 0.0721376
0.015045998 -0.031102369 -0.06630652 0.11180164 0.008864573 0.07108401 0.1460314 -0.047071677
0.093358256 -0.07478781 -0.00268914 -0.020970019 0.20152026 -0.049187735 0.027140453 0.057732176
0.09928155 0.111357294 -0.055881962 0.08952624 -0.024963913 0.13037688 -0.049777176 0.15588273
0.04603343 -0.0030831299 0.036614187 0.059427585 0.109967895 0.009333871 0.09417544 -0.030197315
-0.05785997 -0.07139973 0.11843988 0.048307333 0.029116444 -0.12931728 0.013362194 0.03332182
-0.02078136 0.022956181 0.00027286453 -0.08353953 -0.07141207
00000000: a14d e8bd ff4a 073e 77d7 993d 108f ad3d
00000010: 1ed7 7fbd 6947 7b3c ad45 dcbd 189c 2ebe
00000020: 58e3 213e 9f55 e33d f1fb 613e b4d1 c13d
00000030: 2590 f43d 6701 213e d6f8 213e e1bc 933d
00000040: 7d83 763c 65ca febc b6cb 87bd 42f8 e43d
00000050: b73c 113c 7e94 913d 4189 153e 3bce 40bd
00000060: 9d32 bf3d 5a2a 99bd 483c 30bb 51c9 abbc
00000070: 545b 4e3e 1479 49bd a855 de3c 9378 6c3d
00000080: 2054 cb3d 4b0f e43d 7ce4 64bd 8959 b73d
00000090: 1f81 ccbc 8481 053e 27e3 4bbd b99f 1f3e
000000a0: 8d8d 3c3d 560e 4abb c2f8 153d 576a 733d
000000b0: d936 e13d 18ed 183c 0edf c03d 5c60 f7bc
000000c0: 93fe 6cbd 063a 92bd 9c90 f23d e9dd 453d
000000d0: 9c85 ee3c c06b 04be 1bed 5a3c 767c 083d
000000e0: ac3d aabc 9a0e bc3c 420f 8f39 c616 abbd
000000f0: 7e40 92bd

stacks.0.blocks.1.fc1.weight f4 [100, 60]
-0.13493958 -0.15007366 -0.06192405 -0.046953365 -0.019854167 0.10114034 -0.112266876 0.02336023
-0.1121739 -0.04763938 -0.056307577 0.13983513 -0.041598886 -0.08797234 -0.13913825 -0.05992653
-0.06840858 0.115867905 -0.0895991 -0.07812886 0.011812056 0.03834272 0.021970097 -0.07608803
-0.038326163 0.083650194 0.07551897 0.02467613 0.02864168 -0.06251355 -0.06395299 0.06591388
0.08974522 0.022869002 -0.22236282 0.076968655 -0.1639066 -0.028048117 -0.11219856 -0.0135713145
-0.0141366385 0.010714731 -0.017871246 -0.05790367 -0.1488951 -0.06526128 -0.07268963 -0.07997437
-0.034582946 -0.10903389 0.08880521 -0.03234103 -0.12541944 -0.06843586 0.015978398 -0.06251035
0.18580791 -0.052076623 -0.032636706 -0.053203993 0.02872316 -0.0033429237 0.008951692 -0.07225706
0.03765741 -0.0005164369 -0.1260576 -0.116302244 0.15990902 -0.076322325 0.06997302 0.10653285
-0.027293572 0.12036084 0.20883453 -0.09289395 0.104759336 -0.017633354 0.026890438 0.15317212
-0.09004689 -0.20747298 -0.030477086 -0.100029305 0.112525344 0.09623606 0.024713036 -0.13856304
-0.03316713 -0.048584264 -0.015335946 0.18853456 -0.04809395 -0.030652085 -0.1804356 -0.09799986
-0.031631794 0.18983355 -0.10381111 0.06785589 -0.11301896 0.112623066 0.03923489 0.19731718
0.053454734 0.016491177 0.0089179855 0.0018161118 -0.0017080109 0.10527365 0.027091477 -0.28531435
-0.08382663 -0.11055261 0.24919298 0.23868874 -0.025894428 -0.1424614 0.03785256 -0.06038057
-0.0058350717 -0.047185212 -0.12359903 -0.06053273 -0.05400587 0.027030932 -0.18465488 0.029082939
0.026445972 0.08570084 -0.123199575 -0.0066171745 -0.005091102 -0.08762094 -0.07362289 -0.22009563
-0.00776152 0.06377724 -0.089823894 -0.022074806 -0.032861926 -0.040391896 -0.12719038 0.1521887
-0.13738792 0.031275794 -0.010981913 -0.035405528 0.047802635 -0.03696425 -0.067820214 0.03722106
-0.14683774 -0.048913088 -0.03763848 0.041184995 0.079467736 -0.12244772 -0.01325922 -0.01766613
-0.0888054 -0.0026979938 -0.16257389 -0.02438185 -0.12495033 0.0082584815 0.0021006193 0.040262915
-0.094961114 -0.14451538 -0.15420036 0.058388386 0.070497826 0.02785648 0.14342204 0.1481261
0.49935937 0.105763756 -0.01228472 0.046288207 -0.0318953 0.0881694 -0.046623554 0.08801383
0.06910084 -0.12519567 -0.046527877 0.113256834 0.058101702 0.024752866 -0.19868648 -0.043624848
0.05189565 0.009160083 0.03186815 0.029854722 0.010839086 0.046834107 0.070362635 -0.055106163
0.051256157 0.049486037 -0.09693876 -0.08427204 0.09616612 0.039910775 -0.00066366 0.07660521
-0.17060396 -0.07948045 0.032416012 -0.027422098 -0.029061856 0.052144676 -0.29520464 0.106987216
0.1388543 0.026973786 0.023822714 0.034518015 0.15258619 0.12363787 0.08930993 0.0017918879
-0.04116659 -0.12356334 0.10330957 0.038457286 -0.062375862 0.004235847 0.010448363 -0.109317206
0.06815901 -0.17329875 0.032864634 -0.2016852 -0.1439734 -0.112320565 -0.10744077 -0.16993739
0.15663533 -0.0028511842 -0.10625166 0.04579795 -0.15040487 0.08208945 -0.033323105 0.023469482
-0.14091846 0.048368257 -0.0078222845 0.06546144 0.034369987 -0.08249911 -0.037351005 0.044885267
00000000: 9a2d 0abe e9ac 19be 13a4 7dbd 2c52 40bd
00000010: 35a5 a2bc ab22 cf3d 2dec e5bd f45d bf3c
00000020: 6ebb e5bd 8321 43bd c6a2 66bd f130 0f3e
00000030: 9863 2abd d82a b4bd 427a 0ebe 8575 75bd
00000040: cc19 8cbd 274c ed3d bc7f b7bd 0602 a0bd
00000050: 5b87 413c 420d 1d3d a2fa b33c 0bd4 9bbd
00000060: e5fb 1cbd cb50 ab3d b1a9 9a3d 9825 ca3c
00000070: f5a1 ea3c 1b07 80bd c9f9 82bd dbfd 863d
00000080: 58cc b73d c657 bb3c 14b3 63be bea1 9d3d
00000090: 22d7 27be 2ac5 e5bc 5cc8 e5bd 385a 5ebc
000000a0: 5c9d 67bc d78c 2f3c b866 92bc 662c 6dbd
000000b0: f577 18be b5a7 85bd 4dde 94bd 9ac9 a3bd
000000c0: d9a6 0dbd 294d dfbd 82df b53d 0778 04bd
000000d0: f46d 00be 1a28 8cbd 21e5 823c 6d05 80bd
000000e0: 6e44 3e3e 4c4e 55bd 11ae 05bd 6eec 59bd
000000f0: d54c eb3c f414 5bbb 1eaa 123c 82fb 93bd
00000100: a83e 1a3d 7e61 07ba 3e15 01be df2f eebd
00000110: 31bf 233e e14e 9cbd 044e 8f3d e52d da3d
00000120: c596 dfbc be7f f63d b8d8 553e 2f3f bebd
00000130: 108c d63d d373 90bc 5649 dc3c 27d9 1c3e
00000140: 816a b8bd cc73 54be 15ab f9bc 2adc ccbd
00000150: b073 e63d 6917 c53d fe72 ca3c 78e3 0dbe
00000160: 42da 07bd 4b00 47bd 9f43 7bbc 340f 413e
00000170: 29fe 44bd 151a fbbc 1cc4 38be 27b4 c8bd
00000180: 5790 01bd ba63 423e eb9a d4bd 07f8 8a3d
00000190: 7c76 e7bd eca6 e63d c4b4 203d 840d 4a3e
000001a0: 5af3 5a3d 8118 873c be1c 123c 9a0a ee3a
000001b0: 56df dfba b699 d73d f2ee dd3c b914 92be
000001c0: 4cad abbd 6869 e2bd 722c 7f3e d26a 743e
000001d0: 8d20 d4bc 67e1 11be 490b 1b3d 9e51 77bd
000001e0: 2134 bfbb 4845 41bd 7d21 fdbd 2bf1 77bd
000001f0: 4235 5dbd f96f dd3c 2b16 3dbe 583f ee3c
00000200: 39a5 d83c ec83 af3d 0f50 fcbd e2d4 d8bb
00000210: 42d3 a6bb 9b72 b3bd 99c7 96bd c060 61be
00000220: 5954 febb a49d 823d 97f5 b7bd 39d6 b4bc
00000230: 3a9a 06bd f971 25bd 323e 02be 5bd7 1b3e
00000240: 6baf 0cbe 0c1b 003d 7bed 33bc 6305 11bd
00000250: b2cc 433d d367 17bd 53e5 8abd 1c75 183d
00000260: a25c 16be 1759 48bd cf2a 1abd 99b1 283d
00000270: fbbf a23d dfc5 fabd 333d 59bc 8fb8 90bc
00000280: 9bdf b5bd d3d0 30bb c579 26be 72bc c7bc
00000290: f5e5 ffbd 954e 073c 8baa 093b baea 243d
000002a0: f97a c2bd d7fb 13be b3e6 1dbe a928 6f3d
000002b0: 2a61 903d 4633 e43c 3add 123e 5eae 173e
000002c0: 08ac ff3e ab9a d83d da45 49bc b498 3d3d
000002d0: a5a4 02bd 2992 b43d 57f8 3ebd 9840 b43d
000002e0: be84 8d3d 4b33 00be 0494 3ebd 33f3 e73d
000002f0: 0dfc 6d3d 86c6 ca3c 7874 4bbe f8af 32bd
00000300: 8890 543d 2c14 163c 2d88 023d e491 f43c
00000310: 6c96 313c 1fd5 3f3d 491a 903d 00b7 61bd
00000320: faf1 513d dfb1 4a3d d487 c6bd d296 acbd
00000330: bef2 c43d 7b79 233d 78f9 2dba 31e3 9c3d
00000340: ceb2 2ebe a5c6 a2bd a7c6 043d 4fa4 e0bc
00000350: 2113 eebc a895 553d 1025 97be 1d1c db3d
00000360: d22f 0e3e 21f8 dc3c da27 c33c c362 0d3d
00000370: 8e3f 1c3e da35 fd3d 20e8 b63d c8dd ea3a
00000380: 4c9e 28bd c70e fdbd f893 d33d 6385 1d3d
00000390: d57d 7fbd dccc 8a3b 9c2f 2b3c b3e1 dfbd
000003a0: f396 8b3d 3a75 31be 119d 063d 9186 4ebe
000003b0: c36d 13be 5308 e6bd e809 dcbd 1104 2ebe
000003c0: 0365 203e efda 3abb 789a d9bd a296 3b3d
000003d0: bc03 1abe 831e a83d cf7d 08bd 1243 c03c
000003e0: ee4c 10be cb1d 463d 0a29 00bc a610 863d
000003f0: 8bc7 0c3d 4bf5 a8bd 5efd 18bd 9dd9 373d
