RNN_models/close_slope_25_2_raw_15min_t3_TEST.pth (torch, 522194 bytes, 30 tensors)

stacks.0.blocks.0.fc1.weight f4 [100, 60]
000000 38 67 46 be c0 89 0a be 7d 75 18 3e e5 0f 75 bd
       -0.19375312 -0.1352911 0.14888568 -0.05982961
000010 8a 66 a6 3c 7d fa 62 3e 40 14 4a be 86 bb 99 be
       0.020312566 0.22165866 -0.19734287 -0.30025882
000020 33 10 aa 3d f0 08 24 be bf b0 58 bd 58 97 16 3e
       0.08303871 -0.16019034 -0.052902933 0.1470617
000030 10 57 47 be d5 25 37 be ca b9 05 3e 95 fc 73 3d
       -0.19466805 -0.17885526 0.13059154 0.059567053
000040 78 c2 7a bd a6 14 80 3d dc df e2 bd 12 54 58 bd
       -0.061220616 0.062539384 -0.11077854 -0.05281455
000050 d3 f6 11 3e a2 7f 8a bd df e2 cc 3d 7b 85 43 3e
       0.14254312 -0.06762625 0.1000421 0.19093888
000060 cc 5b 08 bd b0 b2 1d 3d 25 17 cb 3e 32 1b d2 3c
       -0.03329067 0.038500488 0.39666095 0.025647733
000070 5a ef c0 bd ea 8f 32 3e 8c eb 30 3e 9a d3 0f 3e
       -0.09420653 0.17437711 0.17277354 0.14045563
000080 ca 9a af 3e dc 69 f1 3d d2 29 14 bc 5f 6a a8 3e
       0.34297782 0.11787769 -0.009043174 0.32893655
000090 b6 7f 77 3e 31 22 d2 3e 77 7a c6 3e 46 03 c6 bd
       0.24169812 0.4104171 0.38765308 -0.09668593
0000a0 d4 ae 56 3c a9 14 ff 3e 4a 1d 72 3e 9f fb b1 3e
       0.013103206 0.4982045 0.23643985 0.34762284
0000b0 2c b9 f3 3e 07 79 98 ba 74 89 1f 3d ff 54 bd 3e
       0.47602212 -0.0011632749 0.038949445 0.3697891
0000c0 80 c9 c3 bc a1 82 40 3e 72 34 08 be a2 b7 bc 3d
       -0.023899794 0.18799831 -0.13301256 0.09214713
0000d0 ed 2b 4c 3d 8e 09 22 3e 6e 81 16 3e d2 4f 87 3d
       0.04984658 0.15823957 0.14697811 0.066070214
0000e0 91 15 ce be 21 16 53 bd 53 e6 76 be b6 c5 4f be
       -0.4025083 -0.051534776 -0.24111299 -0.20290264
0000f0 fa 44 86 3e 50 e4 1c 3e 21 88 0e be 8f 7b a8 bd
       0.262245 0.1532147 -0.13919117 -0.08226692
000100 9d 21 52 3d e1 4b ec be 9f 35 cf 3d 02 2e ff 3d
       0.051301587 -0.4615164 0.10117649 0.12459947
000110 02 1f bd 3d 5f ca bb 3c d8 e4 62 3b 38 35 f3 be
       0.0923443 0.022923646 0.0034621265 -0.4750154
000120 8e aa 18 3d 75 0e 9a bd fe fe fe 3b 14 07 f9 3c
       0.03727203 -0.07522289 0.0077818623 0.030398883
000130 55 52 52 bd b8 f6 2c be 83 b0 89 bc 90 77 07 bd
       -0.05134805 -0.1689099 -0.0168078 -0.033073008
000140 50 a1 a8 bd 7c 94 a8 3d 1f dd 71 3d b4 d9 7c be
       -0.08233893 0.08231446 0.059048768 -0.24692422
000150 14 26 34 bd 5d bc c6 bd 86 32 e5 bd 3d ec 05 3d
       -0.043981627 -0.09703896 -0.11191277 0.032695998
000160 b9 c3 8d 3d c1 96 0c be e6 f6 c8 ba cf f0 30 be
       0.06922097 -0.13729383 -0.001533237 -0.17279361
000170 03 d5 fe 3d bc dd 91 bd f3 dd 1f bd 39 1e 1f be
       0.124429725 -0.071223706 -0.039030027 -0.15538873
000180 c1 9b 4b be f6 8e 71 be 0d cb e1 bd 5b 1d dc 3b
       -0.19883634 -0.23589692 -0.11025057 0.0067173666
000190 fa ce af 3c 33 47 a7 bd 19 2f ad bd 81 28 2a 3d
       0.021460999 -0.08167877 -0.08456249 0.041542534
0001a0 6d 7b 21 3e 65 e8 53 3d ed e7 3c 3d c0 93 15 bd
       0.1576974 0.0517353 0.04611962 -0.03651786
0001b0 68 f3 96 3e 50 73 d8 3e 11 67 52 3f 28 ba 51 3c
       0.2948258 0.42275476 0.82188517 0.012800731
0001c0 0d 1e e8 3d 2a d5 cd 3e 32 15 29 bf 30 6b 47 bf
       0.11333857 0.40201694 -0.66047966 -0.7789793
0001d0 30 29 a4 bf a1 b8 24 bd d1 46 8c 3c 2b 50 04 be
       -1.282507 -0.04021514 0.017123612 -0.12921207
0001e0 09 3e b2 3d a8 e4 00 3e 32 04 96 bd 18 37 fd bd
       0.087032385 0.12587225 -0.07325019 -0.12364024
0001f0 64 bf 96 be db 1d 93 be 5f 8b 94 bd 09 1d 23 bd
       -0.29442894 -0.28733715 -0.072531454 -0.039822612
000200 58 ac c0 bd 5a 7f 7b bc aa 76 35 be 00 0d 49 bd
       -0.09407872 -0.015350187 -0.17721048 -0.049084663
000210 fd 6a ad 3d f2 32 27 3e e2 55 13 bd dc 7e 82 bc
       0.08467672 0.16328028 -0.035970576 -0.015929632
000220 ae a3 a3 bd 47 20 a1 3b 27 a3 2a 3e ba 5e cc 3d
       -0.07990204 0.004917178 0.166638 0.09979005
000230 2d 43 62 3d 5d ff af 3d a5 a0 13 be 8a 3e 58 3d
       0.055239845 0.085936286 -0.1441675 0.052794017
000240 7c 66 a8 3d 7e c6 8d bd b9 da 12 3e d3 67 86 bd
       0.08222672 -0.06922625 0.14341249 -0.06562772
000250 36 77 33 be b6 ea 99 bd b8 5d b0 3c de 78 bf bb
       -0.17525944 -0.07515471 0.021529064 -0.005843266
000260 46 d2 2a 3d 4a 5a 19 3e cb f1 5a be 2f 12 62 be
       0.04170444 0.14975849 -0.21381299 -0.22077249
000270 f2 e3 4c 3e 70 1e a0 bd 72 51 dd 3d 10 85 0c 3e
       0.20008829 -0.078183055 0.1080655 0.13722634
000280 5e 78 ad bd 84 d0 81 be 54 ad 67 3d e8 b8 83 3d
       -0.08470224 -0.25354397 0.056561783 0.064317524
000290 ed 81 a3 3d f0 46 df 3d ae ee 97 be 46 f8 6a be
       0.07983766 0.10902202 -0.29674286 -0.22946271
0002a0 2d 3d b3 3d 10 ef a5 bd 9c ae c7 3d 40 09 5b be
       0.08751903 -0.08102238 0.09750101 -0.21390247
0002b0 9d d0 0b 3e 26 01 ac bd 96 8f 99 bd 42 b6 c9 bd
       0.13653798 -0.083986565 -0.0749809 -0.09849216
0002c0 2f 85 98 be 38 95 0a bf 83 55 0e bd 50 2b 52 bc
       -0.2978911 -0.5413394 -0.03474952 -0.012827709
0002d0 2a 12 9b 3e b7 a0 ba 3d 52 73 ef 3e 86 55 ce 3d
       0.30287296 0.09112685 0.4676767 0.10074906
0002e0 5a a0 ec 3d 90 9c ac bd 76 f2 f5 3d 59 b0 9b bc
       0.11554022 -0.084282994 0.120091364 -0.019004988
0002f0 fc 2a 42 3e b5 b8 88 bc 34 c6 ba 3d 13 e6 2e 3e
       0.1896171 -0.016689638 0.091198355 0.17079954
000300 1f cd e9 bc c4 02 6d bc df 7b b3 bc 1e e9 b5 bd
       -0.028540192 -0.014465991 -0.021909652 -0.08882354
000310 4d 55 d8 be ce f1 1f bb ee f9 1d be 86 52 63 be
       -0.4225258 -0.0024405601 -0.15427372 -0.22199449
000320 57 14 31 be ec d9 3e be dc bb df be d6 2b b5 bd
       -0.17292915 -0.18637818 -0.43698013 -0.08846252
000330 bd 67 63 be 57 e0 62 bd 14 81 a6 3d dc de ab be
       -0.22207542 -0.05538973 0.081300884 -0.33568466
000340 e7 97 a4 be 3a 31 d2 bd 16 54 13 be 5a 30 39 bd
       -0.32147142 -0.102632955 -0.14387545 -0.045212127
000350 41 4a 2e bd 46 38 56 bd a6 19 75 3d 2b 12 54 3d
       -0.042551283 -0.05229976 0.059838913 0.05177514
000360 91 37 0b be 86 08 0b 3d 4f 8f 31 bd 79 8d 1d be
       -0.13595416 0.033943675 -0.04334956 -0.15385999
000370 2d b5 46 3d 3a cd e3 3d 06 6a 1b be fe 3d 58 bc
       0.048512626 0.11123128 -0.15177163 -0.013198374
000380 ec 33 1f 3e 5e 15 52 bd 1a 24 42 b9 18 16 88 3e
       0.1554715 -0.05128991 -0.0001851473 0.26579356
000390 60 60 f9 bd 2d 11 4b 3d 80 b5 1b 3e a6 66 dd bc
       -0.12176585 0.049576927 0.15205956 -0.027026486
0003a0 22 c7 c3 bd 98 ef 78 3e 99 9a 07 be 3d 6b f8 bc
       -0.09559466 0.24310148 -0.13242568 -0.030324573
0003b0 f1 0b 10 be 81 20 d6 bd e5 8e 11 be 33 d7 02 bd
       -0.14067055 -0.104554184 -0.14214666 -0.03194351
0003c0 2d b3 0c 3e 34 48 3f bd 9e 3c 43 bd 10 39 8d 3d
       0.13740225 -0.046699718 -0.04766523 0.068956494
0003d0 f8 15 15 3c c7 51 19 be d3 13 1e 3e c9 55 07 3e
       0.009099476 -0.14972602 0.1543725 0.13216318
0003e0 9e 89 c7 3d 14 f6 78 3d 4f cd a7 bd be b5 ae bd
       0.09743045 0.060781553 -0.081934564 -0.08530758
0003f0 ff 70 51 3d e6 b6 2a 3d 78 ea a2 bd 50 dd 99 bd
       0.051133152 0.04167833 -0.079548776 -0.07512915

stacks.0.blocks.0.fc1.bias f4 [100]
000000 44 2b eb bd bb 4e 60 bd d6 68 94 bd bd d7 0f bd
       -0.11482862 -0.054762583 -0.07246558 -0.035117853
000010 7b bf 05 3e 35 dc 75 3c c3 cf 9c bc ab c4 15 be
       0.13061325 0.015006115 -0.019142037 -0.14625804
000020 72 5b ae 3d 0d 19 d8 3d 27 5f 90 bd 53 a4 8f 3d
       0.085135356 0.10551653 -0.07049399 0.07013764
000030 98 13 74 3c 66 81 0a bd c6 2c ca bd f0 86 22 bd
       0.01489725 -0.03381481 -0.09871821 -0.039679468
000040 85 7f fd 3d 6e d1 d0 3d 83 53 26 3d 23 eb d8 bd
       0.12377838 0.101961955 0.040606987 -0.10591724
000050 31 fc 02 3c bd 20 54 bd 9f 95 8e 3c de 3f 1f bd
       0.007994697 -0.051789034 0.01740533 -0.038879268
000060 74 7a 80 3d c7 d0 9c bc 14 d8 cf 3d fe 15 c4 bd
       0.06273356 -0.019142522 0.101486355 -0.09574507
000070 02 be 65 be a4 96 a9 bc 4a c2 5b bb 11 41 23 be
       -0.22435763 -0.020701714 -0.0033532553 -0.1594279
000080 08 b4 e2 3c 6b de af bd c4 5a 35 3d b5 10 d8 3d
       0.027673736 -0.08587345 0.044276014 0.105500616
000090 98 fa 53 3c 18 65 73 bd e8 c4 df 3d 93 99 63 bd
       0.012938164 -0.059422582 0.10926229 -0.05556638
0000a0 2b 5c 4a be 82 b5 49 bd c3 c4 d6 3d 58 6f 65 bd
       -0.19761722 -0.049245365 0.10486748 -0.05601439
0000b0 d5 c5 3a bd 4f 62 df bd 61 ac 6c bd e2 92 a4 3d
       -0.045598824 -0.10907423 -0.05778158 0.08035828
0000c0 73 c7 fd bd cb 54 89 3d 6b 0f 3b be 6b 46 87 bd
       -0.123915575 0.06705626 -0.182676 -0.06605228
0000d0 03 df 09 3d 9a 7f 01 bd b2 7f 4b 3c e5 3e ee bd
       0.033659946 -0.03161583 0.012420582 -0.1163309
0000e0 40 83 df 3d 08 02 11 bc a2 ea a0 3d 71 ee d5 3b
       0.10913706 -0.008850582 0.07857253 0.0065286686
0000f0 8c aa 61 bd 18 f6 95 bd 12 9a be 3d 2a 6f 4d 3d
       -0.055094287 -0.07322329 0.0930673 0.050154842
000100 9e 24 02 bd 8e 4f 49 be 06 d8 5e 3c 55 15 e8 bd
       -0.031773202 -0.19659254 0.013601309 -0.11332194
000110 08 c4 db bd a9 c5 58 bd 1d 44 c4 3d b5 5f bc bc
       -0.10730749 -0.05292288 0.09583304 -0.022994855
000120 9c 9e cd bd f0 cf 84 bb f5 68 c2 bd 59 00 1c be
       -0.10040018 -0.0040531084 -0.09492675 -0.15234508
000130 12 74 9d bd 1b c4 1c bd 6d 82 da 3b af 08 56 3c
       -0.07688154 -0.03827296 0.00666838 0.013063594
000140 1a ac 27 3d c1 c3 6d 3d 72 93 cf 3d 5b d7 3a bd
       0.040935613 0.058048014 0.10135545 -0.045615535
000150 2c 7b ef bd 78 8c 42 bd f4 0c 24 3d 94 5f 26 3c
       -0.11693415 -0.047497243 0.040051416 0.010154624
000160 5d 18 3b bd 30 8c 5a bd 01 f7 eb bd 06 40 b9 3d
       -0.04567753 -0.05335635 -0.11521722 0.090454146
000170 94 9a 1b bc 5b 85 06 be fb d9 c0 bb 1c 6c e0 3d
       -0.0094973035 -0.13136809 -0.0058853603 0.1095812
000180 9c ef b2 bd 2a fb e5 bc fe e8 65 bd 00 c1 0f be
       -0.08737108 -0.028073866 -0.0561304 -0.14038467

stacks.0.blocks.0.fc2.weight f4 [100, 100]
000000 ac 91 25 be 1c 8a ad bd c6 c5 27 3e 60 36 96 3e
       -0.1616885 -0.08473608 0.16384038 0.2933836
000010 14 ad 9e bd 18 a5 0d bd e3 a4 b6 3d 96 e7 e3 bd
       -0.07747856 -0.034581274 0.089181684 -0.11128156
000020 fc 8c cd bc 98 50 d6 bd 7b 1b 0e 3e b7 8b 91 3d
       -0.02509164 -0.10464591 0.1387767 0.071067266
000030 56 18 9e bc 32 eb 55 3d 3b de 55 3e 60 29 05 be
       -0.019298714 0.052226253 0.20885555 -0.13004065
000040 2b 64 20 3d 10 e9 74 bb 29 32 cc bd 38 ba f5 bd
       0.039158028 -0.0037370361 -0.09970505 -0.11998409
000050 7b 10 10 be 90 06 49 bd 8e ab 28 3e 7f 81 c3 bc
       -0.14068787 -0.049078524 0.16471693 -0.02386546
000060 2e 37 2a bd 2c 1e 5a bc 75 a7 2c bd 21 e0 b8 bc
       -0.04155653 -0.013312858 -0.042151887 -0.02256781
000070 b2 6d 8f bd 46 6b d8 3d f7 34 90 bd ce a1 fe 3d
       -0.070033446 0.10567336 -0.07041352 0.124332055
000080 a3 0b c6 3d 99 38 f6 3d a6 d4 11 bd 95 7a 3f 3d
       0.09670188 0.12022514 -0.035603188 0.046747763
000090 ca 96 9e bd 74 45 86 be 0a 38 45 3c 7e ef 06 bd
       -0.077436045 -0.26224864 0.012037287 -0.03294324
0000a0 94 dc a2 be 4b 5b 29 be 72 e9 2f bd 46 8c 8d 3c
       -0.31808913 -0.16538732 -0.04294724 0.017278802
0000b0 1b 3c 05 3c 57 4e 4a be b2 50 02 be 8f c8 e0 3b
       0.008132006 -0.19756447 -0.12726095 0.006859846
0000c0 4c 8f 67 bd 05 73 b5 3d 24 a9 c7 be b9 ce 09 bb
       -0.056533143 0.08859829 -0.38996232 -0.0021027757
0000d0 e5 71 63 3d 6d d2 d8 bd 3d bc ac bd 29 27 b7 bd
       0.05552854 -0.105870105 -0.08434341 -0.08943016
0000e0 2e c2 44 3c d1 cf e6 3d 1b 47 05 be ff 18 7d bd
       0.012009187 0.112701066 -0.13015406 -0.061791416
0000f0 c3 cb 67 3d a4 0d 36 bc 40 73 a1 3c c2 72 cd 3d
       0.056590807 -0.011111651 0.019708276 0.10031654
000100 76 c2 e8 3c c6 e1 c5 3d 20 31 27 be 06 ed 5a 3d
       0.028413039 0.096622035 -0.16327333 0.0534487
000110 54 e1 9d bc a7 27 ba bd 39 06 9d 3c f2 2b 5a bc
       -0.019272484 -0.09089594 0.019168006 -0.013316141
000120 b5 65 4f be 9b a8 0a 3d db 8a 86 bc 05 2e 84 be
       -0.20253642 0.0338522 -0.016423633 -0.2581636
000130 d1 89 3d 3d bb 3d 13 3d d8 63 c5 bd ae a4 f5 bc
       0.04627401 0.035947543 -0.09638184 -0.029985752
000140 02 c5 7c bd 9f 5b 16 3e e8 79 3b 3d 4e 2e 3d bd
       -0.06171132 0.14683388 0.045770556 -0.046186738
000150 ef dd 3e be 94 5d be 3e 44 56 ec bd 95 b8 b4 3d
       -0.18639348 0.3718077 -0.11539891 0.08824269
000160 f7 d6 5f 3d 49 7b d3 bd 8c a7 a2 bd 21 af 36 bd
       0.054648366 -0.10326249 -0.07942113 -0.04460061
000170 8f 93 53 3d 62 17 2e bd 64 f8 d1 3d 08 b8 c2 3d
       0.051654395 -0.04250277 0.10252455 0.095077574
000180 4a 40 30 3d f0 8d 47 be df a7 c1 3d ad cf 81 be
       0.04303006 -0.19487739 0.09455847 -0.25353757
000190 e3 0c 21 bd 1a 83 3f be 10 ee bb 3d 16 95 26 3e
       -0.03931893 -0.18702355 0.09176266 0.1626781
0001a0 d8 5b 51 be 76 ed ca 3d a0 98 f1 3d 9e 04 98 3c
       -0.20445192 0.09908573 0.11796689 0.01855689
0001b0 e9 65 3e bc a0 78 8e bd 3c 3d ef bc 21 a7 21 3e
       -0.011620977 -0.06956601 -0.029204004 0.15786411
0001c0 78 14 f7 bc ae 51 2a 3d f0 b8 95 3d 68 7d b6 bc
       -0.030161127 0.041581802 0.07310665 -0.022276595
0001d0 fb 25 b0 3c e1 5a 08 3e c3 41 ea bd ed 3e ed 3d
       0.021502485 0.13315918 -0.11438324 0.11584268
0001e0 76 e0 cb bd 81 a4 8c 3d c1 60 27 3e 02 4e 48 be
       -0.09954922 0.06867314 0.16345502 -0.19561008
0001f0 43 ee 41 3d 2e 36 8d 3d bb f7 87 3c d1 3a 8b 3b
       0.047346365 0.068950996 0.01659762 0.004248955
000200 8c db 2b be 07 31 08 bc c0 da 2d be 65 88 89 3d
       -0.16782969 -0.00831247 -0.16977978 0.06715468
000210 ef 81 98 3d 36 84 0b 3d 3f 2a 60 3c ff a4 8a 3d
       0.07446658 0.034061633 0.013681947 0.06769752
000220 b0 a6 a1 3c af a6 67 bd 36 25 18 bd c1 32 09 be
       0.019732803 -0.056555446 -0.037144862 -0.13398267
000230 fd 0d ed be ce 1a 51 bd 57 2a ed 3a e7 e8 cc 3c
       -0.46299735 -0.051050954 0.0018094283 0.0250134
000240 6d c5 c6 3d 7e d3 bf bd 97 9a 4a be 42 a4 7c bc
       0.09705625 -0.09366511 -0.19785534 -0.0154200215
000250 b1 8e cf bd bb 3c d4 3b 53 34 3f bd 86 bf 5f bc
       -0.10134638 0.006476966 -0.04668076 -0.013656503
000260 ea 1a 8e 3c 95 f6 27 be 81 3c 37 3d 4e f2 5f 3c
       0.017346818 -0.16402657 0.044735435 0.01366861
000270 0b e2 8a 3d eb 4c 62 bd 8e 30 e0 bd 42 bb b9 bd
       0.067813955 -0.055249136 -0.10946761 -0.0906892
000280 4d b7 bd 3a a3 b7 79 3d 2b b1 5c bd 90 c2 69 bc
       0.0014474184 0.060966145 -0.053879898 -0.014267579
000290 04 b0 a5 3d d1 4d 8e b9 f6 18 9c bd 0c c0 01 be
       0.08090213 -0.00027142328 -0.076219484 -0.12670916
0002a0 15 36 af bd e3 7e 22 bd 27 88 3d be 3a c5 d6 3d
       -0.08555237 -0.03967179 -0.18508969 0.10486837
0002b0 22 13 7b 3d de ca 52 3e 95 fe a8 3c b9 b6 3a 3e
       0.061297543 0.205852 0.020629207 0.18233766
0002c0 ce 31 94 3d ef ed 60 3d 52 13 16 3e 3f 83 07 bd
       0.07236062 0.05491441 0.14655808 -0.03308415
0002d0 f8 dd 10 bd e4 bb 0d 3e 3b 44 3b 3d 07 f4 9d 3d
       -0.035367936 0.13841206 0.045719367 0.0771256
0002e0 f3 0a 88 be d0 cc 17 3e 09 38 5f be 04 46 7c 3c
       -0.26570854 0.14824224 -0.2179872 0.015397552
0002f0 0b 18 8b 3d df ac 14 bd 89 54 be bd a8 23 8b be
       0.06791695 -0.036297675 -0.092934676 -0.2717564
000300 e5 0b 05 3e 47 e4 27 be e2 d0 cb bd 6f 3c 2d 3d
       0.12992819 -0.16395675 -0.099519506 0.042293962
000310 04 bb 93 3d 88 ee 93 3d 70 aa 16 3b ea 7b 6c be
       0.07213405 0.072232306 0.0022989772 -0.23094144
000320 4d 5a 7f bd 23 fa 3d 3d 77 03 0f bd 37 c9 8f 3d
       -0.062341977 0.046381127 -0.034915414 0.070208006
000330 46 20 86 3b 44 49 13 3d cc 7f 69 bd f6 c6 af 3c
       0.0040932028 0.035958543 -0.057006642 0.021457177
000340 f6 bf c2 bd 13 6e 5f 3d bb 0e b1 3d fd f4 bc bd
       -0.0950927 0.054548334 0.08645388 -0.09226415
000350 7d 95 a7 bd d0 b6 4d bd 8c 62 94 3c ed 65 10 3d
       -0.081828095 -0.05022317 0.018113397 0.035253454
000360 57 9f 11 bd 35 45 87 3d 73 0d a2 bd db 4e c3 bc
       -0.03555235 0.06604997 -0.079127215 -0.023841312
000370 a9 bf 91 bb ef fc 19 bc 5f a5 97 3c cf 9a b2 bd
       -0.0044478965 -0.009398683 0.018511472 -0.08720934
000380 82 86 6a bd 72 20 b8 bd 2b 99 eb bd 40 1f 12 3d
       -0.057257183 -0.089905635 -0.11503824 0.035674334
000390 68 6b 8e bc ae be d1 bd 03 11 d0 bc 41 79 ef 3c
       -0.0173852 -0.102414474 -0.025398737 0.029232623
0003a0 66 ec 8d 3d 1a eb d4 3d a0 72 82 bd c2 54 9d 3d
       0.06929855 0.103964046 -0.06369519 0.07682182
0003b0 cd 3e 97 bd 90 6f 10 bd f6 57 85 bd 76 41 20 bc
       -0.07385025 -0.035262644 -0.06510918 -0.009781232
0003c0 e8 6a 6b 3c dc c3 8f bc a6 3d d9 3c 39 71 9f bc
       0.01436875 -0.017549448 0.026518654 -0.019463168
0003d0 90 91 e4 bd b4 39 28 bd dc 57 29 3d 07 d1 c5 bd
       -0.11160576 -0.041070655 0.041343555 -0.096590094
0003e0 3b f1 9f bd d5 4c 4c 3d 85 d8 30 bd b9 54 97 bd
       -0.07809683 0.04987796 -0.04317524 -0.073892064
0003f0 c2 c5 32 bd d1 a6 87 bd 3c c2 fe 3c 69 bc db bd
       -0.043645628 -0.066236146 0.031098478 -0.10729296

stacks.0.blocks.0.fc2.bias f4 [100]
000000 04 44 92 3c cd fb e3 3c 13 5d 6d bd 61 ec 1f bb
       0.017854698 0.027830029 -0.05795009 -0.0024402367
000010 86 06 89 bd c9 56 84 3d 8b 62 46 3d 4b 69 41 be
       -0.06690697 0.064618655 0.04843382 -0.18887822
000020 68 2a 2b 3d 7a 4f b3 3d 96 e3 7f 3e 0f 3f 02 3e
       0.04178849 0.08755393 0.24989161 0.12719367
000030 89 d0 80 bd de ba 00 bd 02 0e eb bd cc 17 0a 3d
       -0.06289775 -0.03142821 -0.11477281 0.0337141
000040 eb 37 31 3d a6 0f 55 bd e9 25 ae 3d 26 bf 8e 3e
       0.04326622 -0.052016877 0.085033245 0.2788021
000050 7b c5 eb bd 78 81 96 3d 1c e1 9d bc 97 97 04 bb
       -0.11512276 0.07348913 -0.01927238 -0.0020231956
000060 f3 9d e6 bc ee 85 dc bd 21 54 7f bd 16 f2 4d bd
       -0.028151488 -0.107677326 -0.06233609 -0.0502797
000070 6a 76 2a bd cf 61 9b 3d c7 14 12 bd db 7a 45 3c
       -0.041616835 0.07587015 -0.035664346 0.012053217
000080 7e 25 3c 3d 32 c9 71 3d 64 d7 5a 3d 43 29 30 be
       0.045934193 0.059029765 0.05342807 -0.1720324
000090 cc 4f 0b be 6c 53 8a bd 0e 49 10 be 11 42 8b 3d
       -0.13604659 -0.06754193 -0.14090368 0.067997105
0000a0 4c 90 5c bd 78 13 04 be 15 4a 29 bd f7 10 af bd
       -0.05384855 -0.12898052 -0.041330416 -0.08548158
0000b0 14 96 24 bd f4 f7 4c bd c9 23 bb 3d a8 42 34 be
       -0.04018219 -0.050041154 0.09137685 -0.17603552
0000c0 dd b0 f9 3c 61 e0 00 3d 39 74 55 3c bb 69 91 bd
       0.030479843 0.031463984 0.013028198 -0.071002446
0000d0 30 c9 c2 3c 70 fe e0 bd 7e 32 8f bc 49 63 c9 bc
       0.023777574 -0.1098603 -0.017480131 -0.024583476
0000e0 91 88 c1 3c 43 58 98 3d 9b f8 ca 3d bd a7 95 3d
       0.02362469 0.074387096 0.09910699 0.07307384
0000f0 bc 44 48 3d f2 fa 24 bc 97 a0 5f 3e 27 2c 3a 3d
       0.048893675 -0.010069596 0.21838604 0.045452263
000100 07 d6 0a 3d 7d b4 83 be c4 81 11 be 0d f3 12 bd
       0.03389552 -0.2572364 -0.14209658 -0.035876323
000110 b6 d4 30 3d 2c 56 8a 3d 84 3f a9 bd 93 b7 64 3d
       0.043171607 0.06754717 -0.08264068 0.055839133
000120 e6 c5 f4 3c fe 38 b3 bc 05 d1 81 bc 5f b9 fb bd
       0.029879522 -0.021877762 -0.015846739 -0.12291216
000130 64 4b bc 3d 1b 6c a4 bc 7f 26 1d 3d c7 c8 df 3d
       0.09194067 -0.02007108 0.03836679 0.10926967
000140 fe b7 8f bc e9 48 6c bd 69 71 e3 3b a5 da 7d bc
       -0.017543789 -0.05768672 0.00694101 -0.015494023
000150 b8 92 f0 3c 6b 0d 0f be 75 ff a1 3a ef df ef 3d
       0.029366836 -0.13969962 0.0012359457 0.11712634
000160 98 5c 8c bd ce 66 0c 3d 9f d9 76 bd 94 00 7e bd
       -0.06853598 0.03427773 -0.060266133 -0.06201227
000170 b5 7d b5 3d 9a 1b dc 3d 23 b9 cc bd 0d f2 45 bc
       0.08861867 0.10747452 -0.099962495 -0.012081635
000180 f7 18 84 3d 19 33 82 bc af 71 80 3d 25 31 98 3d
       0.06450074 -0.015893506 0.062716834 0.074312486

stacks.0.blocks.0.fc3.weight f4 [100, 100]
000000 e4 ff 13 bd d5 31 1a be 64 65 9b 3d 23 13 3a 3d
       -0.03613271 -0.15058072 0.07587698 0.045428406
000010 04 8d b9 bd 2c 5f 42 bd b6 0d a5 3d f4 3a fe bd
       -0.090601 -0.047454044 0.08059256 -0.12413588
000020 3f 4c ec bc 39 39 b8 3c 37 0e 02 3e ed 70 de 3d
       -0.02884495 0.022488223 0.12700735 0.10861383
000030 66 c1 d6 bc 2a 62 26 3d bf 21 d2 ba 42 82 13 bd
       -0.026215266 0.04062096 -0.0016031786 -0.036012895
000040 f5 c9 63 3d 92 85 bd 3c 83 76 8f 3d 39 b2 56 3d
       0.055612523 0.02313498 0.07005026 0.05241606
000050 8d 2a 3a bd 7a fe 8f bd fb e9 e2 bd 36 e1 ca bc
       -0.045450736 -0.070309594 -0.110797845 -0.024765592
000060 1e 0d c9 3d 12 f9 19 3d 04 ff 0b 3c 1d 51 2a be
       0.09816955 0.037591048 0.008544687 -0.16632505
000070 30 dd c6 3c 81 47 46 bd 46 05 0f 3c 23 0d 97 3d
       0.024275392 -0.048408035 0.008729285 0.073755525
000080 4f 06 71 3c 36 41 24 bc 96 dc ec 3c 4c 34 5f 3d
       0.014710977 -0.010025313 0.028913777 0.054493234
000090 88 9e 91 3d 9a eb 94 bd 8f 23 60 3d cc dc 42 bd
       0.071103156 -0.072715 0.05472141 -0.04757385
0000a0 dd 54 94 bd 57 33 3f be 7d ef b1 3c 8b 82 b1 3c
       -0.07242749 -0.18671928 0.021720642 0.021668693
0000b0 5e fc ce bc c2 9c c1 bd 0c 8f 65 3d 58 60 a7 bc
       -0.025266822 -0.09453727 0.056044623 -0.020431682
0000c0 4b 5d 37 3c fd ae 3b bd 01 69 22 3d c6 fa 14 3d
       0.011191676 -0.04582118 0.03965092 0.03637197
0000d0 b9 ee f7 bc 72 24 de 3d bc bb 42 bc 40 f9 cf bc
       -0.030265199 0.10846795 -0.01188558 -0.025387406
0000e0 de 04 9f 39 9d 02 d1 bc cd d6 4a bd 30 51 bf 3d
       0.0003033047 -0.025513941 -0.049521256 0.09341657
0000f0 6b 84 a6 bd 90 38 3e 3c 62 73 ae 3d 8a e9 ea bc
       -0.081307255 0.011610165 0.08518101 -0.028675813
000100 e7 6e ba bc 67 cd 5e 3d 07 49 d7 3d 95 ba 01 be
       -0.02275796 0.054395106 0.10511976 -0.12668832
000110 34 18 9b bd 9a 8f 95 3b db 09 aa bd d4 0f 7f 3d
       -0.07572976 0.004564238 -0.08302661 0.062270954
000120 13 33 d3 3c d7 0e 04 bd 13 0a b4 3d d8 04 0f 3c
       0.02578119 -0.032240715 0.08790984 0.008729182
000130 da ca fc bd 39 3e a0 bc db 6c f6 bd 93 9d e4 bd
       -0.12343378 -0.01956092 -0.12032481 -0.111628674
000140 6c 7b 3c 3d 24 69 80 3d 77 c8 79 3d 30 53 e7 bc
       0.04601614 0.06270054 0.060982194 -0.02823791
000150 53 34 92 bd 37 86 ae 3d dd 1b 6c bc f4 69 f2 bd
       -0.07138886 0.08521693 -0.01441094 -0.11836615
000160 9c f5 82 bb 62 22 c6 3d 23 c0 96 3c 9a be 38 bc
       -0.003996564 0.09674527 0.018402165 -0.011275912
000170 8d a1 70 3d ce 7e 48 bd 67 19 5c 3d d2 0d ad bd
       0.058747817 -0.048949055 0.053735163 -0.08449902
000180 09 76 10 bc 58 e9 e4 3b a6 84 e6 3a dd 9d 07 be
       -0.008817204 0.0069858246 0.001758714 -0.13243814
000190 e6 3c 76 bb 12 7a 54 bd 1a c9 38 3d 65 3c bf 3d
       -0.003757292 -0.051874228 0.04511366 0.09337691
0001a0 33 b6 6c bd 7d 90 57 be 51 27 15 be fd 3f e6 3c
       -0.057790946 -0.21051212 -0.1456578 0.028106684
0001b0 98 ba 9d 3d 5c ca 84 bb 4b 4b 49 3e d7 c4 20 3e
       0.077016056 -0.0040524434 0.19657628 0.15700088
0001c0 1e 01 3b 3d 58 14 8b 3d 64 29 e0 3c bf 6e d5 3d
       0.045655362 0.0679099 0.027363487 0.10421514
0001d0 35 0a 29 3e 8d 51 e4 3d 50 fd bc bd 6f 5d 8e 3e
       0.165078 0.11148367 -0.09228003 0.2780566
0001e0 bf c7 00 bc 94 96 02 3e 3e 42 85 3c 9d 1b 7f bd
       -0.007860123 0.12752753 0.016266938 -0.062282193
0001f0 8a 59 73 3e ce 59 23 be e4 91 05 be 57 82 8f 3d
       0.23764625 -0.15952227 -0.13043934 0.07007282
000200 61 ab ba bd cc d5 81 bc 3e 6b 90 bd 6f e1 f7 bd
       -0.09114719 -0.015849017 -0.07051705 -0.12103545
000210 0d b5 cb bd 3f b6 65 bc 86 07 ad 3b ba cb 9a bc
       -0.09946642 -0.014020502 0.005280438 -0.018895973
000220 45 a5 9c 3d 03 a6 1f 3e 34 1a f9 bd e5 50 ce 3b
       0.0764871 0.15590672 -0.12163201 0.0062962645
000230 f6 eb cc 3d 80 41 04 3e 2c 37 d3 3d 1d 01 84 3d
       0.100059435 0.12915611 0.103132576 0.06445525
000240 ef b3 bb 3c 46 63 96 3a 7b 60 8c bd d6 d1 2d bd
       0.022912947 0.0011473678 -0.0685434 -0.042436443
000250 74 30 d1 3b b0 04 72 be 1b 06 d7 3c c3 02 2e 3d
       0.00638395 -0.236346 0.026248029 0.042483103
000260 7e 5c a6 3d a2 8d c0 bd 31 b8 55 3d 8b 9c 31 3d
       0.0812311 -0.09402014 0.05217761 0.04336218
000270 a2 3a 32 3e 28 c2 7d 3d 35 0b 87 3d af a9 7e bd
       0.17405179 0.06195274 0.065939344 -0.06217354
000280 9d e8 ca bd 0f ef 75 3c 7f fe 9d 3e 30 a6 da 3d
       -0.09907649 0.015010609 0.30858228 0.10676229
000290 ae 4c 89 3d 39 c2 57 3d e0 46 35 bd 6e c3 81 bd
       0.067040786 0.05267546 -0.044257045 -0.063361034
0002a0 13 32 a7 3c 76 bb 12 bd 09 ab 8f 3c 20 92 0d 3e
       0.02040962 -0.035823308 0.01753761 0.13825274
0002b0 19 69 33 3e fa c7 ca bd a7 a2 35 3e 99 eb c8 3d
       0.1752056 -0.09901424 0.17737828 0.09810562
0002c0 68 65 be 3d 65 2d bf 3d e6 ec 4f 3d f7 05 95 3a
       0.092966855 0.0933483 0.050763033 0.0011369576
0002d0 5b 82 c1 ba 9d 8d e2 bd eb 8e 07 bc be 9a e1 3c
       -0.001476358 -0.11062167 -0.00827382 0.027539607
0002e0 55 56 69 3d 5a 36 e8 bd 88 38 14 3d 09 b7 d5 bd
       0.0569671 -0.11338492 0.036186725 -0.10435302
0002f0 5d a3 8b bd 6e 8c 86 be b8 42 0a bd fc cb dc bc
       -0.068182684 -0.26279014 -0.033755034 -0.026952736
000300 f2 cb 49 be 2f db 7c 3d 68 65 2c 3d 90 23 d3 3d
       -0.19706705 0.061732467 0.042088896 0.103095174
000310 92 27 41 3c a7 01 c4 bd f0 a9 cb bd 5d 0b a6 bd
       0.011789219 -0.09570628 -0.099445224 -0.08107636
000320 27 dc 1b be 9b 66 51 be 92 04 39 3d 41 55 c9 3c
       -0.152207 -0.20449297 0.045170374 0.024576785
000330 4e 6d 71 bd 3c fb 87 3c 82 21 ca bd 0e bd ff bb
       -0.05894213 0.01659929 -0.09869672 -0.0078045195
000340 7b e6 27 be d8 81 e5 bd 45 be b0 3d 06 19 11 be
       -0.16396515 -0.11206406 0.08630041 -0.14169702
000350 2f 0c a7 3d e5 c3 dc bd 13 17 df 3d c0 8d 26 bd
       0.08156621 -0.107795514 0.10893073 -0.040662527
000360 6a 06 5b bd 73 b7 97 bd ee 83 af bd 6c 7c 82 3d
       -0.053472914 -0.07408037 -0.085700855 0.06371388
000370 e9 a8 24 be e4 15 b5 bb 1a 99 fb bd 1c 8f b4 bd
       -0.16080059 -0.005526291 -0.12285061 -0.088163584
000380 84 e1 0c 3d 49 56 af 3d ff f0 9e 3c c2 a3 fe bc
       0.034394756 0.085613795 0.019402025 -0.031083945
000390 29 ca 5e bd 06 bd 9d 3c 51 f2 56 bd a0 65 74 bd
       -0.054392014 0.019255172 -0.052477185 -0.05966723
0003a0 9d 65 41 be 19 21 51 bc 3b d2 02 be c4 69 76 bd
       -0.18886419 -0.012764239 -0.12775509 -0.06015946
0003b0 a0 e0 49 3b cf 27 f0 3b 6b 55 03 3d ce 34 e7 bc
       0.0030804053 0.0073289643 0.032063883 -0.028223421
0003c0 8b 25 b9 bd f9 9c 3f bd ac c7 b6 bc 52 51 2f bd
       -0.09040364 -0.04678056 -0.022312008 -0.042802162
0003d0 8d 30 ca bc b9 75 92 bd 6e df 15 3c c4 53 37 3d
       -0.024681354 -0.0715136 0.009147508 0.04475762
0003e0 1b 75 a6 bd e6 7c 04 be 49 5e 51 be 99 5d f1 bc
       -0.08127805 -0.1293827 -0.20446123 -0.029463576
0003f0 96 81 d0 bd cd 32 c6 bd 28 5b 3e be 1d 7a c3 bc
       -0.101809666 -0.09677658 -0.18589461 -0.02386194

stacks.0.blocks.0.fc3.bias f4 [100]
000000 99 23 e6 bd 20 c3 1d 3c 20 70 7b bb a6 45 4c 3d
       -0.112372585 0.009629041 -0.0038366392 0.04987111
000010 00 b7 f5 bd c7 09 a3 bb f2 28 f4 bd 12 71 4d bd
       -0.11997795 -0.004975531 -0.11921872 -0.05015666
000020 bb 2c 7b bd ca 95 19 3e 9b 51 ed 3d 01 01 a2 bd
       -0.061321955 0.14998546 0.11587831 -0.07910348
000030 03 b6 bb 3d 26 24 73 3d 24 4c 06 3e e4 34 a4 bd
       0.09165575 0.059360646 0.13114983 -0.080179006
000040 3d 4f 29 3d 35 4c 78 3d 7a b1 a8 3d 3c 75 68 3d
       0.041335333 0.06061955 0.08236976 0.05675243
000050 b2 db 0c be 58 7d ac bd 68 2a f3 bc c7 21 9e 3d
       -0.13755682 -0.08422345 -0.029683307 0.07721286
000060 9a b9 03 3e 58 db c1 3c af 14 48 bd 59 7a 89 bd
       0.1286377 0.023664162 -0.04884785 -0.06712789
000070 73 33 19 be cc 47 a0 3d 48 b1 a7 bd f0 82 7a 3d
       -0.14961033 0.07826194 -0.081881106 0.061160028
000080 1f 21 3b bd fa 09 31 3c e0 dc 49 3c 88 51 0d be
       -0.045685884 0.010805601 0.012320727 -0.13800633
000090 e6 13 25 3b 41 48 34 3e d6 f3 f6 3c 1f 3e 07 3e
       0.0025188862 0.17605688 0.030145567 0.13207291
0000a0 71 30 48 3d 41 f5 df 3c 23 f8 d7 3b c7 72 c7 3d
       0.048874322 0.027338626 0.0065908595 0.09738689
0000b0 f3 79 dc 3c 99 52 dc 3d 01 25 a1 3b a9 79 0a be
       0.026913619 0.10757942 0.0049177413 -0.13522972
0000c0 00 ec 12 3e a9 b8 b3 3c 16 24 64 be 41 55 89 3e
       0.1434784 0.021938639 -0.2227939 0.26822856
0000d0 00 d3 1d 3e c4 e6 0a 3d 94 3a 98 bd 10 6d 06 3e
       0.15412521 0.03391148 -0.07433048 0.13127542
0000e0 65 79 b2 bd 2b 62 04 3e 6f a5 07 3e aa 3b 5f bc
       -0.087145604 0.12928073 0.13246702 -0.013625065
0000f0 34 6c b8 3d ea 75 80 3d 9e 4f c7 bc 78 3b e9 3c
       0.09005013 0.0627249 -0.024329957 0.02847074
000100 64 58 42 bc d1 a9 83 bc ac 74 c9 3c 71 6c 26 3d
       -0.011861894 -0.016072186 0.024591766 0.04063076
000110 95 2e a7 3d 12 30 82 3c 9f 58 3c bd e0 61 70 3e
       0.08163182 0.015892062 -0.045982953 0.23474836
000120 13 2c 91 3e 6c 68 5f 3b 3f bf 97 bc 69 0f 50 3e
       0.28353938 0.003408934 -0.01852381 0.20318379
000130 9f 56 52 3e 5c 06 a8 3d 56 ee 05 be 00 70 2e bd
       0.20540856 0.08204338 -0.13079199 -0.04258728
000140 d5 95 17 3e 37 90 49 bd ce 3f 59 3d 33 43 96 3d
       0.1480325 -0.0492098 0.053039365 0.07337036
000150 55 ca 4d 3c 0d 80 e4 3d f8 57 25 be fb b3 e4 3d
       0.012560447 0.11157236 -0.16146839 0.11167141
000160 8c 30 0f 3d af be b3 bc b2 3e 34 3d 32 78 2f 3d
       0.034958407 -0.021941511 0.044005103 0.042839237
000170 61 68 b6 bc 86 46 c8 3d 48 86 bc bc cc a9 30 3c
       -0.022266569 0.09779076 -0.023013249 0.01078267
000180 b4 49 01 3d 0a a6 58 3d 67 6b c9 bd 74 24 12 bd
       0.03156443 0.052892722 -0.098349385 -0.035679296

stacks.0.blocks.0.fc4.weight f4 [100, 100]
000000 3a c6 da bd d2 83 58 3d 75 e5 9e 3c cd d4 05 bd
       -0.1068234 0.05286009 0.019396523 -0.032673646
000010 67 78 a9 3d 01 e5 a7 3c 8b 8d 75 3d 76 a8 ab bc
       0.08274918 0.02049494 0.05994944 -0.020954352
000020 1b d1 bb 3d e7 99 19 be 12 44 b4 bd e7 b4 f7 bd
       0.09170743 -0.15000115 -0.08802046 -0.12095051
000030 01 0b 0e be 83 6b 25 be 76 4c ef bd 0d 8d 8c 3d
       -0.13871385 -0.16154294 -0.11684506 0.06862841
000040 7f 12 c9 bd 6b 87 46 bd 5a 5d f7 bd eb 69 3a bd
       -0.09817981 -0.04846899 -0.12078352 -0.045511167
000050 f3 a4 82 3c 25 c3 97 3d 50 e4 ae bd 67 9c 93 bd
       0.015947795 0.07410268 -0.08539641 -0.07207566
000060 4f 48 94 bd 39 94 fa bd 1e d9 82 3d e9 46 06 be
       -0.07240354 -0.122353025 0.06389068 -0.13112988
000070 9b 3c 55 3d 16 54 d6 bc 91 25 bf 3d af d1 e0 3c
       0.05205975 -0.026163142 0.09333337 0.027443735
000080 05 87 58 bc 12 6b 30 bd 15 6b 9c bb 75 be 69 3d
       -0.013215785 -0.04307086 -0.0047735074 0.0570664
000090 cf a0 45 3d d9 8a 4c bc 62 16 da bd 22 09 b5 bc
       0.048249062 -0.012484276 -0.106488004 -0.022099081
0000a0 34 06 5b bd 9b 30 4b 3d ab 96 90 be db 88 fa bd
       -0.053472713 0.0496069 -0.2823995 -0.12233134
0000b0 58 21 70 be f3 68 18 bd a4 75 1b be 58 44 43 bd
       -0.2345022 -0.037209462 -0.15181595 -0.0476726
0000c0 c5 27 78 bd 30 08 21 be a2 6a 20 bd 9e ea d4 3d
       -0.060584802 -0.1572578 -0.039164193 0.10396312
0000d0 5e 76 31 be cf e0 93 39 d8 b4 80 3d 9f ae 54 bd
       -0.1733031 0.0002820552 0.06284493 -0.051924344
0000e0 1b 13 c8 3b ec a5 5a be a3 f4 2c be 62 1d b3 3b
       0.006105793 -0.21352357 -0.16890197 0.005466149
0000f0 ec 5d 4d bd 34 51 4c be b8 02 34 be 96 81 62 bb
       -0.0501384 -0.19952852 -0.17579162 -0.0034562103
000100 f5 cf a7 bc e5 05 7c 3d e7 d3 21 be 5d 64 03 be
       -0.020484904 0.06152906 -0.1580349 -0.12831254
000110 b1 6b 01 be 48 74 be bd 8a be 20 bc 1c f1 d8 3d
       -0.12638737 -0.09299523 -0.009811053 0.10592863
000120 e3 dc a5 3d 27 50 d9 bc c5 d1 b5 3b 36 bb 80 3c
       0.080987714 -0.026527477 0.005548688 0.01571427
000130 7e de d4 bc db 21 05 be 1c c1 cb bd 30 db a5 bc
       -0.025984999 -0.13001196 -0.09948942 -0.020246118
000140 0c 8c 1e ba 9d 62 4d bc d2 45 72 be ad d6 37 be
       -0.000604809 -0.012535718 -0.23659447 -0.17952986
000150 67 66 10 bc c8 7d c2 3c 1a ea c2 3d ce 65 b9 bd
       -0.008813477 0.023741618 0.095173076 -0.09052621
000160 28 04 be bd 1b 89 77 3d 5e ca f8 bd 56 d8 42 3d
       -0.092781365 0.06043349 -0.121479735 0.047569595
000170 d2 d4 90 bd 92 a3 f4 bd d4 c9 96 3d 2e 61 13 be
       -0.07071842 -0.11945261 0.073627144 -0.1439254
000180 39 30 22 3d 70 37 ab bc 34 d8 d4 3c a4 47 ee bd
       0.03959677 -0.020900458 0.025982 -0.11634758
000190 7f a0 8a bd 66 98 01 3e 1e e0 fa bb 14 16 a4 3d
       -0.067688935 0.12655792 -0.0076561114 0.080120236
0001a0 0c 4d 7b bd 5d 4b 24 bd 1c 59 e9 bc 7d ed b4 bc
       -0.061352775 -0.040110935 -0.028484873 -0.0220859
0001b0 67 f8 cd 3d 19 5e a0 3d 1b 0c d4 bd 9c 22 3f bd
       0.100571446 0.07830448 -0.103538714 -0.046663865
0001c0 7d 9a 47 3e 57 90 c8 3d 3e 9f 11 bd 03 34 08 3d
       0.19492526 0.09793156 -0.035552256 0.033252727
0001d0 be ca 61 3c d5 b4 63 bc da c8 d3 3d 2b 6e a0 3d
       0.013781248 -0.013898094 0.10341044 0.07833513
0001e0 71 db ce bd 89 86 05 be 73 6e 9f bc ce 57 80 bd
       -0.10100449 -0.13039602 -0.019461846 -0.062667474
0001f0 ff 2e 26 3d 09 cf ba 3d 42 fb 89 bd 80 95 09 bd
       0.040572163 0.0912152 -0.06737377 -0.03358984
000200 ee e2 f7 3d c0 c1 0b 3c c4 b3 4d 3d 0d 8e cf 3d
       0.1210383 0.00853008 0.050220266 0.10134516
000210 5a 77 b2 bd f0 c8 db bd ab 5a 55 3d ba 8f 93 3d
       -0.08714171 -0.10731685 0.05208842 0.07205148
000220 42 db 9d 3d 43 71 b4 3c 92 31 b5 3d 75 c7 a4 3c
       0.07707836 0.022026664 0.088473454 0.02011464
000230 f0 dd a0 3c d1 30 9f 3d 49 64 d0 bd b7 a8 a2 3d
       0.019637078 0.07772983 -0.10175378 0.07942336
000240 1b 36 80 3d fe 06 be bd d6 d8 9c 3d a6 b4 c7 3d
       0.0626032 -0.092786774 0.07658546 0.09751253
000250 32 ff 8d bd 51 a3 ed 3d df be c2 bc af 04 cc 3d
       -0.0693344 0.11603416 -0.023772655 0.09961831
000260 40 1d e6 bd 2e 9e 23 3d 46 f0 65 bb 82 a3 59 3d
       -0.11236048 0.039945774 -0.003508584 0.05313445
000270 7d e5 0a 3d 84 d3 bb 3d e8 3d db 3d 1e 60 7b bd
       0.033910263 0.09171203 0.10705167 -0.06137096
000280 60 4c 54 3c 7a 97 82 3d 26 c3 cb 3d 13 e7 9a 3d
       0.012957662 0.06376548 0.09949331 0.07563605
000290 2b e6 85 3c 9c ba 66 bd c4 74 69 3d b6 2f 9a bd
       0.016345104 -0.05633031 0.056996122 -0.075286314
0002a0 99 d5 1b bd ad bf 25 3d 6a 58 24 3d 3d f9 25 3e
       -0.0380455 0.040466 0.04012338 0.16208358
0002b0 bd fa 1b 3e 54 c0 ba bc f9 81 56 3d 5d a7 80 bd
       0.15232368 -0.022796787 0.052370045 -0.06281922
0002c0 6d 7f f6 3b f1 55 a7 3c 07 d2 f4 3c f5 63 82 3d
       0.0075225146 0.020426722 0.029885305 0.063667215
0002d0 a9 53 ff bc 67 d2 96 3c 3a 36 f8 bd fe 02 b5 bb
       -0.031167822 0.018410875 -0.12119718 -0.0055240383
0002e0 6b b1 47 3d 44 7b 1f 3d 03 ef 8d bd ea 68 de bc
       0.048753183 0.038935915 -0.069303535 -0.027149636
0002f0 f6 63 87 bd 64 af 16 3d 1a d6 af 3d c5 1a c8 3d
       -0.06610863 0.03678836 0.085857585 0.09770731
000300 2c 44 94 3d f4 73 be bd af 4b af 3c 3e 35 1b bd
       0.07239565 -0.0929946 0.021398393 -0.037892573
000310 52 31 9f 3d 27 cf 8b bd 89 77 7b 3d 8a 77 91 3d
       0.07773079 -0.068266205 0.061393294 0.071028784
000320 b8 1c 3c 3d d7 0d d4 3d b0 55 9e 3c 6c a1 00 3d
       0.045925826 0.10354202 0.019327968 0.031403944
000330 9b e0 8b bd 52 77 59 bd f8 96 0f 3e 99 4e a8 3d
       -0.068299495 -0.05309231 0.14022434 0.08218116
000340 1e 0a 71 bd 42 6f e4 3c b7 fb 83 bd 9e 6f 6f bd
       -0.05884754 0.027885083 -0.06444495 -0.058456056
000350 21 54 2e 3d 94 4a 33 bd 6c 84 f5 bc 18 d5 7d 3d
       0.0425607 -0.043772295 -0.02997037 0.0619708
000360 06 ac ff 3c 97 df 80 3b 96 1f 8d bd c2 c8 3a bd
       0.031209957 0.003932904 -0.0689079 -0.045601614
000370 f0 8a 93 3d 47 a1 57 be 69 b3 ec 3c 12 4e 08 3d
       0.072042346 -0.21057616 0.028894143 0.03327758
000380 b7 8e 9c bd f3 9e af bd 7b 09 de 3c 3d 37 95 3a
       -0.07644408 -0.08575239 0.02710413 0.001138426
000390 d3 3e b4 3d 16 1b b6 3d 99 fe 90 3c 46 8b cb 3c
       0.08801045 0.08891885 0.017699527 0.024846684
0003a0 39 dc 73 3c 40 9e a0 3b 1e 63 6a 3d cb dc 2b bd
       0.014884048 0.0049016774 0.05722343 -0.04195861
0003b0 7d 03 20 bd dd bd 45 3e c4 07 c2 3d c9 a9 85 3d
       -0.039065827 0.19310708 0.094741374 0.065265246
0003c0 a6 2f 4a bd 93 0d d1 3c 74 9c e0 bd f8 90 b3 bb
       -0.049361847 0.025519168 -0.10967341 -0.005479928
0003d0 e9 50 06 be a2 0d 43 3d a4 d8 a4 bd 4c c2 73 3e
       -0.13116802 0.047620423 -0.080491334 0.23804587
0003e0 d3 57 42 be d7 90 e3 bd 44 d0 19 3d ae 1a 65 3e
       -0.18978815 -0.111116104 0.037552133 0.22373459
0003f0 0a 65 00 be 62 b3 48 3d 3f f4 c9 bd 7e 3d c6 3d
       -0.12538543 0.048999198 -0.09861039 0.096796975

stacks.0.blocks.0.fc4.bias f4 [100]
000000 c5 80 53 3e e1 aa 1b 3e 58 23 4e 3e 35 ce 79 3e
       0.2065459 0.15201904 0.2013067 0.24395068
000010 64 e7 00 be 35 99 da 3d f9 8b e4 bd 8e c4 7b bd
       -0.12588269 0.10673753 -0.1115951 -0.061466746
000020 76 db b0 3c 43 a5 35 3e 0e 6b a2 3e a5 91 6a 3e
       0.021589022 0.17738824 0.317223 0.22907121
000030 72 ed ec 3d 5c 79 b3 bc ed 9c cb bd 36 2f 31 3e
       0.115687266 -0.021908455 -0.099420406 0.17303166
000040 c1 17 98 3d 9b 1d 1e be f9 a6 70 bd e6 5b 93 3e
       0.07426406 -0.15440981 -0.058752988 0.2878105
000050 87 c4 bd 3d d2 91 20 3e 4f 1e c9 bd fa c6 4b 3e
       0.09266 0.15680626 -0.09820234 0.19900122
000060 eb 86 d9 3d 9e 04 24 3e 3e 78 ab bd 81 49 2f 3d
       0.10621437 0.16017386 -0.08372544 0.04279471
000070 49 5e 39 3e 76 94 45 3d 2a 1f 25 3e 97 4d a2 3e
       0.18102373 0.048237287 0.1612517 0.3169982
000080 f8 db 81 bd 07 79 f6 3c 42 df 8e 3d 0b 28 ea 3d
       -0.06340784 0.030087007 0.06976177 0.11433419
000090 10 ed f4 3c 5e ee a2 3e 47 66 bc bc c6 68 f2 3d
       0.029898196 0.31822485 -0.022997988 0.1183639
0000a0 18 af bc 3d 84 8b b4 3d ea 1a 95 3d e1 fb 0a be
       0.09213084 0.08815673 0.07280524 -0.13572647
0000b0 2a 75 65 3e 3f 0d 85 bd 0a b6 a6 bd 6d b1 b2 3d
       0.22407976 -0.06496667 -0.0814019 0.087252475
0000c0 7f fa 99 bd c8 f1 8a 3c 13 90 ef 3d 05 d8 b4 bd
       -0.075184815 0.016960993 0.11697402 -0.08830265
0000d0 eb 29 7e 3d 94 1b 93 bd ee 05 07 bc 2b 53 73 3e
       0.062051695 -0.071829945 -0.00824116 0.23762195
0000e0 e1 cf 96 bd 5c 4b cc 3e 5a f9 c1 3c aa 88 d8 bd
       -0.073638685 0.39901245 0.02367847 -0.105729416
0000f0 23 0c 31 3e 99 b6 c9 3e a2 95 1e 3e 0b 58 a4 bd
       0.17289786 0.39397123 0.15486768 -0.08024605
000100 da bb 81 3d 47 88 c5 3d 76 62 f4 bd e0 02 b1 bc
       0.06334658 0.096451335 -0.119328424 -0.021607816
000110 88 b9 9e 3e b3 c6 ac 3d d6 29 7e bc 5f e4 a6 3d
       0.31000924 0.08436336 -0.015512904 0.08149027
000120 43 14 9b bd a4 f1 ab bd d5 03 c0 3c 21 a0 d2 bd
       -0.07572224 -0.08395699 0.023439327 -0.102844484
000130 8e b9 0e be 58 49 a0 bc af e8 f9 bd 3d 45 66 bb
       -0.13937971 -0.019566223 -0.12202584 -0.0035136484
000140 b9 9e 47 3e 63 c3 f9 bd 2a cc 5e bd bb 91 b8 bd
       0.19494142 -0.1219547 -0.054393925 -0.09012171
000150 ee a7 85 3e a2 e7 c6 bd 54 3d 84 3e cc fd 28 3e
       0.26104683 -0.09712149 0.2582804 0.16503066
000160 c5 0f 0f bd 0c a5 8c 3d 87 0b ef bd 9a a4 07 3e
       -0.03492715 0.06867418 -0.116721205 0.13246384
000170 cb 2c 48 3e a6 d9 60 3e ee 4a c6 3d 96 97 e9 bd
       0.19548337 0.21958026 0.096822605 -0.11405866
000180 be 9e e5 bd 23 ba 55 3d e4 f1 8b 3e e3 f9 58 bd
       -0.11211918 0.052179467 0.27332985 -0.052972686

stacks.0.blocks.0.theta_layer.weight f4 [61, 100]
000000 73 e1 3e bd 21 b1 8a 3d 89 0f c2 bd 07 b0 b1 bd
       -0.046601724 0.06772066 -0.09475619 -0.08676153
000010 d3 c5 2e 3d 7e d0 b6 bb 2f 15 9e 3d 0d 3a b9 3d
       0.04266913 -0.0055790534 0.07718884 0.090442754
000020 fe 93 75 bd 17 b6 aa bc 0d 20 aa bd cc 89 73 3c
       -0.05995559 -0.02083878 -0.083068945 0.014864396
000030 a4 2e 10 3d a2 d3 10 3d d7 f2 26 3d d9 66 76 bd
       0.03520073 0.03535808 0.040758934 -0.060156677
000040 66 33 1c bd 22 6d c9 bd 0e a9 3c bb 7a 2a b7 3d
       -0.038134955 -0.098352686 -0.0028787288 0.08943649
000050 b6 b0 b7 bc 66 e9 33 bd 77 67 c1 bc e9 aa 4f bd
       -0.02242313 -0.043923758 -0.023608906 -0.050700102
000060 a5 85 88 3d 2f e7 fb bc 69 bb 22 bc a5 c9 26 3d
       0.06666116 -0.030749885 -0.009932377 0.040719647
000070 35 bd 20 bd 7c c4 94 3d c4 0d cc bc 63 3d 83 bc
       -0.039242942 0.07264039 -0.024908908 -0.016020482
000080 bd e6 42 3d e4 09 28 bc a7 dc 90 3d 02 20 a1 bb
       0.04758333 -0.010256264 0.07073336 -0.0049171457
000090 58 5a 44 bd 21 e3 28 3d 6e bc d4 bd 2f 9b 75 3d
       -0.04793772 0.041232232 -0.103875026 0.059962448
0000a0 da a4 a2 3d b3 2f 9c bc 2a da e1 3b 6c 2a ce 3d
       0.07941599 -0.019065714 0.0068924623 0.10066685
0000b0 a5 12 a8 3c c4 76 7f bd 73 f2 ad 3d 77 a1 aa 3c
       0.020516703 -0.062369123 0.08493509 0.020828946
0000c0 38 5c b9 3b dd d5 85 bd 73 70 7a bd 9e 07 51 bd
       0.0056567453 -0.06534932 -0.061142396 -0.051032655
0000d0 e0 c1 c6 bd 97 db 0e 3d 4b bd da bd aa 3e 95 bd
       -0.097049475 0.034877386 -0.10680636 -0.07287343
0000e0 f9 00 7e bd 48 01 b6 3d f1 3a aa 3b 01 e4 45 3d
       -0.062012646 0.08886963 0.0051950146 0.048313145
0000f0 9b 2f 06 3e 3b 9c 87 3d 1d 2b 57 3d 25 e0 20 bc
       0.13104098 0.066215955 0.05253135 -0.009819065
000100 96 79 c6 3d 97 e1 5e bd e6 0e 1b bd 59 2e a2 3d
       0.096911594 -0.054414358 -0.037856005 0.07918996
000110 6e 73 04 bd ab 4f 42 bc b1 b3 cf 3d 04 15 81 3d
       -0.032336645 -0.011859815 0.10141695 0.063028365
000120 12 e4 c1 3d 21 a2 db 3c a2 3b ac 3d 81 1e a6 bd
       0.09467329 0.026810708 0.084098116 -0.08111287
000130 61 55 07 3e bc 6e b8 3b 2a 04 ab bd 13 61 4f 3d
       0.13216163 0.005628435 -0.083504036 0.050629687
000140 38 72 eb 3c e4 23 99 bd e1 c0 c1 3d 16 7e b6 3d
       0.028740987 -0.07477549 0.09460617 0.08910768
000150 a6 e3 29 bd 6c c2 4a 3d 8b 75 34 bd 0b 56 c3 bd
       -0.041476868 0.04950182 -0.04405741 -0.09537896
000160 d0 a4 14 3e fd ef 92 3d 12 f1 e9 bc 2d 88 bb bd
       0.14515996 0.071746804 -0.028557334 -0.09156833
000170 a2 f3 e0 3c c1 b7 96 3d 4d f0 ac 3d 74 33 aa bd
       0.027459923 0.07359267 0.08444271 -0.08310595
000180 a3 e2 e2 bc 9e 29 ab bc 4a d3 a6 bc d9 ec e8 3c
       -0.02769596 -0.020893868 -0.020364422 0.02843325
000190 54 17 a0 bc 1b 82 ab 3d 28 d3 ab bd c2 7a e0 3c
       -0.019542374 0.08374425 -0.08389884 0.027402285
0001a0 8c 9c 1d 3d 82 54 13 3d b5 d4 f4 bc 85 05 c5 3d
       0.038479373 0.035969265 -0.029886583 0.096201934
0001b0 5d b3 a6 bd 93 59 79 3c 74 af 2a bd 72 1b 0d 3c
       -0.081396796 0.01521911 -0.04167123 0.0086125005
0001c0 86 bb 2a 3c 11 ec a0 bd ae 5d b9 3d f2 39 1e 3d
       0.010420686 -0.07857526 0.09051071 0.03862948
0001d0 1a f9 10 3d 2b 2f d3 bd da ba 9a 3d 04 4e c3 3d
       0.03539381 -0.10311731 0.0755517 0.09536365
0001e0 79 7e a7 3c bd c2 67 3d 47 d5 86 bd bd 2a db bb
       0.020446049 0.0565822 -0.06583648 -0.0066884444
0001f0 24 00 a9 3b 42 0c 0c 3e a6 d2 7f 3c 60 3e 0e 3e
       0.0051574875 0.13676551 0.015614187 0.13890982
000200 52 f7 98 3d 86 7f ba 3d 4a 51 b3 bc 6e ea 96 bd
       0.074690476 0.091063544 -0.021889348 -0.07368933
000210 42 9d 89 3c d4 2a 8e 3c 6f 84 65 3b ec 16 73 bd
       0.01679862 0.017354406 0.0035021564 -0.059348032
000220 e8 9f b8 3d 48 2f 62 3d dc a0 01 be 8f 93 30 3d
       0.09014875 0.055220872 -0.12659019 0.043109473
000230 a0 68 fb 3c 16 05 cc bc c0 17 4c 3d d4 ac 11 3e
       0.030689538 -0.024904769 0.049827337 0.14226085
000240 ff 4d 04 bd 6c fe 19 be 94 6b ad bd 9b f3 3e bd
       -0.032300945 -0.1503846 -0.084677845 -0.04661904
000250 e7 6c fd 3b b4 d3 b3 bc 54 bc b3 ba 5f 4e 88 bc
       0.0077339294 -0.021951534 -0.0013712742 -0.016638933
000260 a5 51 81 bd 2b 7d a8 bd f6 a6 c8 bd 84 f7 b2 bc
       -0.063144006 -0.08226999 -0.0979747 -0.02184654
000270 d9 40 b3 bd 70 66 96 3b 82 05 05 bd 2e 15 84 3c
       -0.08752603 0.004589848 -0.032475956 0.01612338
000280 58 e9 d3 3d d1 c8 15 3d 36 84 3e 3d f7 53 f2 3d
       0.10347241 0.036568467 0.046512805 0.11832421
000290 29 5a 8f bd 27 4c 19 3d 1c d7 89 3d 9c de a7 bd
       -0.069996186 0.03742614 0.06730482 -0.08196756
0002a0 e6 67 9a 3d cd 37 9a 3d 89 9f 99 3c 8d 29 22 3e
       0.07539348 0.075301744 0.01875283 0.15836163
0002b0 2e 6c 6a bc 8a aa 02 3d 7e d2 d9 3c 3d 52 2c 3d
       -0.014308019 0.03190092 0.026589628 0.042070616
0002c0 a3 ac a8 3d 44 ce b0 bc 5f 47 1b 3d 14 19 80 bd
       0.08236053 -0.02158273 0.03790986 -0.06254783
0002d0 8f 40 34 3d b1 81 8c bd 5b 21 dd 3d 2b 93 09 3d
       0.04400688 -0.06860674 0.10797378 0.033587616
0002e0 f9 5f 7a 3d da 80 53 bc 9a 80 21 3d 42 db 76 bd
       0.061126683 -0.012909139 0.039429285 -0.060267694
0002f0 13 3e 04 3e d1 da 65 bd 4c 54 3f bd ee b7 c3 bd
       0.12914304 -0.056116883 -0.04671125 -0.09556566
000300 08 f3 59 3c 3e 87 e5 3c 5c a4 fa 3a 62 1d a7 bc
       0.013302572 0.02801859 0.0019122469 -0.020399753
000310 0d ed b8 3d 31 de f7 3b bb 39 d4 3b b5 15 22 bc
       0.09029589 0.007564329 0.0064766086 -0.009892871
000320 a6 39 5c 3d 58 b6 c5 3d 29 04 91 3d 2f 9a 38 bd
       0.053765915 0.0965392 0.070808716 -0.045068916
000330 63 f2 68 bd 2a 59 86 3c ab f5 df 3d e6 fb 03 3e
       -0.056871783 0.016399939 0.10935529 0.1288906
000340 f1 55 5b bc 67 1d a8 bd d7 75 10 bd 0b 42 96 3d
       -0.013387189 -0.08208733 -0.03526863 0.073368154
000350 f9 9c 00 bd d0 ac 45 bd e7 57 1c bd d2 7e 2c ba
       -0.0313997 -0.04826051 -0.038169768 -0.0006580177
000360 5e fe be bc d6 8f ad bd f6 31 f1 3d a5 30 4d 3d
       -0.023314651 -0.084747 0.117771074 0.05009522
000370 d9 dc 99 3c ce ce ac 3d 38 2c a9 bd 20 77 e3 bc
       0.018782066 0.08437882 -0.08260387 -0.027766764
000380 03 d4 7e 3c 05 8f 1b 3e 4b 50 35 bd 86 9d a1 3d
       0.015553477 0.15191276 -0.044266026 0.07891373
000390 d5 73 16 bd 1c 28 4c bd 14 c7 a8 3d 96 5a b0 bd
       -0.03673156 -0.04984294 0.08241096 -0.08611028
0003a0 dc be f4 3c b5 a4 91 3d 5e 9b 77 bd 93 4f b5 3d
       0.029876165 0.071114935 -0.060450904 0.08853068
0003b0 fe 9b f9 3c 95 31 b2 3c 33 f4 18 be 59 df bf bc
       0.03046989 0.021752158 -0.14936905 -0.02342193
0003c0 39 d3 e4 3d 8a 1e 88 bb 20 c4 03 bd c5 36 3e 3d
       0.111731 -0.004154031 -0.03216946 0.04643895
0003d0 d9 9b c7 3c f1 26 22 be 97 d9 97 3d 9e 83 6c bc
       0.024366306 -0.15835167 0.07414549 -0.014435677
0003e0 c8 92 2c 3c 9a 46 58 3c de 0d 84 bd 46 70 82 bd
       0.010533042 0.0132004265 -0.064479575 -0.06369071
0003f0 97 c3 27 3d 5e d2 9e bd 95 dc b6 3b 6d 82 ae 3d
       0.040958013 -0.07754968 0.0055804946 0.085209705

stacks.0.blocks.0.theta_layer.bias f4 [61]
000000 25 c7 b1 bc 24 7f e8 bd 91 51 43 39 5d 38 a2 3c
       -0.021701405 -0.11352375 0.00018627035 0.019802267
000010 a4 56 55 bd 69 26 cb 3c 61 a6 e4 bc f5 21 53 3d
       -0.05208458 0.024798589 -0.027911367 0.051546056
000020 8c a0 a2 3d 2a c3 5c 3c dd 69 23 3d 70 c9 b1 bc
       0.07940778 0.013474265 0.03989588 -0.021702498
000030 37 83 35 3d 44 50 19 3d fb c4 f7 bc b9 78 9c bd
       0.04431459 0.037430063 -0.030245295 -0.076402135
000040 cd 55 90 3d d9 7d 0d bd ff 45 f2 3d 94 e6 c6 3b
       0.07047615 -0.034543846 0.11829757 0.0060699675
000050 24 06 ca bc b8 a7 8e 3d ce d5 47 bc 2f e3 90 bd
       -0.024661131 0.069655836 -0.012196971 -0.07074582
000060 ce 32 5f 3c 60 f5 68 bd 81 4b 03 3e 41 9b 17 bd
       0.013622953 -0.056874633 0.12821771 -0.037013296
000070 cf f0 c6 3d 14 63 ec bd e0 03 a3 bb 7b ca 8c bc
       0.09713899 -0.11542335 -0.004974827 -0.017186394
000080 bb fe 25 bd d9 46 aa 3d 05 b3 11 3d e4 cc 0c bb
       -0.040526133 0.08314294 0.035571117 -0.002148443
000090 a0 f2 7c b9 ad 49 c8 3d de 46 9c 3d 5c 15 43 3d
       -0.00024122978 0.097796775 0.07630704 0.04762779
0000a0 33 af 49 3d 55 04 ab 3d df 7a 28 bd 24 fa 7e 3c
       0.04923935 0.08350436 -0.041132804 0.015562568
0000b0 19 4b bd bc 0c 47 c4 3d 89 54 d3 3d 5b b7 eb 3d
       -0.023107098 0.095838636 0.10318858 0.11509582
0000c0 e0 18 72 3d 70 a9 8f bd 12 8b ab bb 70 35 2a bd
       0.059105754 -0.070147395 -0.0052350843 -0.04155487
0000d0 92 91 15 bd bd b2 1c 3e 9e c7 ea 3c c8 8c a1 bd
       -0.03651578 0.15302558 0.028659638 -0.0788818
0000e0 66 ed f9 3c 44 78 da 3d df 63 a3 3c b3 82 58 bd
       0.030508708 0.1066747 0.019945083 -0.05285902
0000f0 31 66 1e bb
       -0.0024169798
