RNN_models/close_slope_15_5_zscore_15min_t4.pth (torch, 97906 bytes, 20 tensors)

stacks.0.blocks.0.fc1.weight f4 [50, 35]
0	0xbd596e90	-0.053083956
1	0xbc369094	-0.011142869
2	0x3d2ec6de	0.042670123
3	0xbdc0280c	-0.09382638
4	0x3e36b61e	0.1784291
5	0x3d05078c	0.0324779
6	0xbd041b27	-0.032252457
7	0x3d881c32	0.06646003
8	0xbde718b3	-0.11284008
9	0x3ceded19	0.029043721
10	0xbe2c67f9	-0.16836537
11	0x3e0c30d3	0.136905
12	0x3d8b6ce3	0.06807878
13	0xbddaba68	-0.106800854
14	0x3e060ed9	0.13091601
15	0x3e111c0d	0.14170857
16	0x3c106c87	0.008814937
17	0x3dc94925	0.09828404
18	0xbd0d39d7	-0.03447899
19	0xbd543bb6	-0.051814757
20	0x3dbd0428	0.09229308
21	0x3ca5b30d	0.02022698
22	0x3cbd514a	0.02311005
23	0x3df6c208	0.12048727
24	0xbdffa3e7	-0.12482434
25	0x3cf095ba	0.02936827
26	0xbc26292b	-0.010141651
27	0x3e20b1af	0.15692781
28	0x3e375ccf	0.17906497
29	0xbc284a9b	-0.010271694
30	0x3dd5e33f	0.104437344
31	0xbe45ce5f	-0.19317006
32	0xbb4a1da4	-0.003084042
33	0xbe102190	-0.14075303
34	0xbdf396e7	-0.11894017
35	0xbd7e4407	-0.062076595
36	0xbd402166	-0.04690685
37	0x3db07691	0.08616365
38	0xbdfdfd37	-0.124018125
39	0xbd96bc8e	-0.07360183
40	0xbce45dd1	-0.027876766
41	0x3d5648ad	0.052315403
42	0xbcd1f425	-0.025629112
43	0xbd54e5b1	-0.051976863
44	0x3e041636	0.12899098
45	0x3cf4f3e5	0.029901454
46	0x3d6a19ac	0.05715339
47	0x3dd014b4	0.10160199
48	0xbdb50d82	-0.08840467
49	0x3dffc768	0.124892056
50	0x3db38e05	0.087673225
51	0x3d959402	0.07303621
52	0xbe19e118	-0.15027273
53	0xbdf5991e	-0.119920954
54	0x3e21def6	0.15807709
55	0xbe017f19	-0.1264614
56	0x3d760295	0.060061056
57	0x3d9493e7	0.07254773
58	0xbb007444	-0.001960055
59	0x3e0e2bc0	0.13883877
60	0xbdb32028	-0.08746368
61	0x3e044b12	0.12919262
62	0x3d6a01ba	0.057130553
63	0x3d8a577d	0.06754968
64	0x3df3d416	0.119056866
65	0xbdeb0d81	-0.11477185
66	0xbe8fd00d	-0.28088418
67	0xbe191e85	-0.14953049
68	0xbdfab8fa	-0.12242313
69	0xbdde7c89	-0.10863597
70	0xbe210ba3	-0.15727095
71	0x3d5bb39b	0.053638082
72	0x3de9f91d	0.11424468
73	0xbdac28b5	-0.08406202
74	0xbdd2dcd8	-0.10296029
75	0xbde04bb3	-0.109519385
76	0xbde799b5	-0.11308614
77	0x3df1c04e	0.11804257
78	0x3d97d8d5	0.07414404
79	0x3dea5d7e	0.114436135
80	0xbdf68c29	-0.12038452
81	0x3d9d7958	0.0768916
82	0xbd30099a	-0.042977907
83	0x3dcd914b	0.10037478
84	0xbe17a713	-0.14809828
85	0x3cd7889a	0.026310254
86	0xbe12e353	-0.1434453
87	0xbc7b4dcb	-0.0153383715
88	0x3dfaffe6	0.1225584
89	0xbdfa8597	-0.122325115
90	0x3e0c3e5c	0.13695663
91	0xbd43c484	-0.047794834
92	0x3dd123be	0.102118954
93	0x3e0a4b39	0.13505258
94	0xbdcd3223	-0.100193284
95	0xbcf0bf8a	-0.029388208
96	0x3c9999dc	0.018750124
97	0x3ddb0b9a	0.10695572
98	0x3d7941ff	0.060853954
99	0x3c41677c	0.011804458
100	0xbe1e0ec7	-0.15435325
101	0x3e941a68	0.28926396
102	0x3d69d277	0.05708548
103	0xbdfbb6fc	-0.12290761
104	0x3d1b0e0e	0.0378552
105	0xbd2c6ca4	-0.042095795
106	0x3c8c2cd2	0.017111216
107	0x3dac51e9	0.084140606
108	0xbe4b01ca	-0.19824901
109	0xbbf979bb	-0.0076133884
110	0xbd6b511b	-0.057450395
111	0x3c6baeef	0.014384969
112	0xbcbba45c	-0.022905521
113	0xbcb4fe45	-0.022093901
114	0x3dc2a324	0.09503773
115	0xbd4cf659	-0.050039623
116	0x3b4c3ed9	0.003116539
117	0xbd486914	-0.048928335
118	0xbd74885a	-0.059700347
119	0x3e24aed3	0.16082315
120	0x3db27b11	0.08714879
121	0x3dd16e9e	0.10226177
122	0x3d003935	0.031304557
123	0xbceaa267	-0.028641893
124	0xbd944978	-0.072405756
125	0x3de4b063	0.111664556
126	0xbe06a8a7	-0.13150273
127	0xbe128b15	-0.14310868
128	0x3d5d4f32	0.054030605
129	0x3d72addb	0.059247833
130	0xbdcc037b	-0.09961601
131	0xbe79310a	-0.24335113
132	0xbd950bb3	-0.07277622
133	0xbcc4dff8	-0.024032578
134	0x3b3614d0	0.0027783401
135	0xbdb55652	-0.08854355
136	0x3e16500d	0.14678974
137	0xbdc21668	-0.0947693
138	0xbd1893dd	-0.03725039
139	0x3d1f6cd4	0.038922146
140	0x3d20b133	0.03923149
141	0xbe157d4f	-0.14598583
142	0xbde7e5b2	-0.11323108
143	0xbe1e380b	-0.15451066
144	0x3e124e44	0.14287668
145	0x3cf25595	0.029581824
146	0x3df578cc	0.11985931
147	0xbd15b428	-0.036548764
148	0x3cbb59d6	0.022869986
149	0xbd57d6f6	-0.052695237
150	0x3c9e30dd	0.01931041
151	0xbe21b385	-0.15791138
152	0x3dd69ab9	0.1047873
153	0x3e0b2eba	0.13592044
154	0x3d305229	0.043047104
155	0x3e10fa46	0.14157972
156	0xbcae8289	-0.021302478
157	0x3e1d1f06	0.15343866
158	0xbbdc8218	-0.0067293756
159	0x3e2871a8	0.16449606
160	0xbe01d087	-0.12677203
161	0xbe23dd5f	-0.16002415
162	0x3d900053	0.07031312
163	0xbc199ed6	-0.009376248
164	0x3dfbbbfb	0.12291714
165	0xbdb0652a	-0.086130455
166	0xbdf87673	-0.121319674
167	0x3dd2396d	0.10264859
168	0x3c1cac37	0.009562544
169	0xbd34bb54	-0.044123963
170	0xbc35a47c	-0.011086579
171	0x3e9afb38	0.3026979
172	0x3e126a67	0.14298402
173	0xbd126673	-0.035742234
174	0x3e2139fb	0.15744774
175	0xbc9c5bd8	-0.019086763
176	0x3d401186	0.04689171
177	0xbc4bbab2	-0.012434648
178	0x3dc01a83	0.09380057
179	0x3e469587	0.19392978
180	0xbcc1ba45	-0.02364839
181	0xbe247084	-0.16058546
182	0xbddfabff	-0.109214775
183	0xbd78b994	-0.060723856
184	0xbd9d5c04	-0.07683566
185	0xbe1a90a5	-0.1509424
186	0x3d1b9e99	0.037993047
187	0x3deaf07e	0.114716515
188	0xbdcf930a	-0.10135467
189	0x3ccfd217	0.025368733
190	0x3e1d361f	0.15352677
191	0x3d6d8c57	0.057995167
192	0x3d1d52f9	0.038409207
193	0xbdc9635d	-0.09833405
194	0x3e28257d	0.1642055
195	0xbb63e458	-0.0034773555
196	0x3dd232dd	0.10263608
197	0xbd705187	-0.0586715
198	0x3c7ed4e1	0.015553684
199	0x3e2269a2	0.15860608
200	0x3bcc633c	0.0062374156
201	0xbbcb351e	-0.0062014004
202	0x3dc9b37d	0.09848688
203	0xbbceb82b	-0.0063085756
204	0x3e0ff080	0.14056587
205	0xbd83178c	-0.064009756
206	0xbe33dd7e	-0.17564961
207	0xbd87124e	-0.06595288
208	0xbe0d1769	-0.13778462
209	0x3d65ae57	0.056074467
210	0xbdb5abc7	-0.088706546
211	0x3d64ec20	0.05588925
212	0x3e1e5d65	0.15465315
213	0xbdeb8b42	-0.11501171
214	0x3d2aef57	0.04173216
215	0xbd057993	-0.032586645
216	0xbb5884f9	-0.0033038242
217	0x3e1c4966	0.15262374
218	0xbde513e9	-0.11185438
219	0x3ab6e410	0.0013953466
220	0xbd667e46	-0.056272767
221	0xbdf05203	-0.117343925
222	0x3c70bd7a	0.014693612
223	0x3d8efbb4	0.06981602
224	0x3e485ed4	0.19567424
225	0xbd5f8fe0	-0.05458057
226	0xbe05a219	-0.13050117
227	0x3e0fe188	0.14050877
228	0x3e3611f2	0.17780283
229	0xbd9e8ba7	-0.0774148
230	0xbe014e0a	-0.12627426
231	0x3d84750b	0.06467637
232	0x3dd7900b	0.10525521
233	0xbe0cf096	-0.13763651
234	0x3b53a3eb	0.0032293748
235	0x3dea33a7	0.11435633
236	0xbd91cb54	-0.0711886
237	0xbb0a0bb8	-0.0021064114
238	0x3c0097f0	0.007848725
239	0xbba5cd74	-0.0050598923
240	0xbdbfdb08	-0.09367949
241	0xbe4872e3	-0.19575076
242	0xbe392cdd	-0.1808352
243	0x3d082d38	0.03324625
244	0xbd95c8e6	-0.07313709
245	0x3e1c790b	0.15280549
246	0xbdecb9e7	-0.115588956
247	0x3e365880	0.17807198
248	0x3de44d19	0.11147518
249	0xbd6cd592	-0.057820864
250	0xbdcf7d22	-0.10131289
251	0xbdfda734	-0.12385407
252	0xbcbde490	-0.023180276
253	0x3ddfadc4	0.10921815
254	0x3c4ff726	0.012693202
255	0x3dc08fbf	0.094024174

stacks.0.blocks.0.fc1.bias f4 [50]
0	0xbcaddce6	-0.021223497
1	0x3d8edf37	0.069761686
2	0x3d8fc941	0.07020808
3	0xbdc32c0a	-0.09529884
4	0xbd2cab37	-0.04215547
5	0x3a1443df	0.00056558655
6	0x3d4442b8	0.04791519
7	0xbe029340	-0.12751484
8	0x3df88dd4	0.121364266
9	0x3dd6fba9	0.10497219
10	0x3e66f44a	0.22554126
11	0x3d7255b0	0.05916375
12	0xbdbac29a	-0.091191486
13	0xbdf84a8c	-0.12123594
14	0x3db51729	0.08842308
15	0x3e4c9528	0.19978774
16	0xba98f365	-0.0011669217
17	0x3daa1339	0.08304448
18	0x3dd1a417	0.10236376
19	0x3e83d38e	0.2574734
20	0xbd1ffd73	-0.039060067
21	0xbd3aa3e8	-0.04556647
22	0x3caaa1f5	0.02082918
23	0xbe96ad14	-0.29428923
24	0x3cd14748	0.025546685
25	0x3c8dac7f	0.017294167
26	0x3e1d9007	0.15386973
27	0x3dcdcfea	0.10049422
28	0xbbdfa274	-0.006824786
29	0xbe0c7d98	-0.13719785
30	0x3c84bba5	0.016202757
31	0x3e4f387c	0.20236391
32	0xbd812165	-0.063051976
33	0x3e15ca5c	0.14627975
34	0x3e048d96	0.12944636
35	0x3de566a9	0.112012215
36	0xbcf32813	-0.029682195
37	0xbdf2e229	-0.11859543
38	0x3dada559	0.08478803
39	0x3e10dc16	0.14146456
40	0xbd868d02	-0.06569864
41	0x3d929174	0.07156649
42	0xbca3bb10	-0.01998666
43	0x3e3967d4	0.18106014
44	0xbccc7bfe	-0.024961468
45	0x3d533042	0.051559694
46	0x3d9c4196	0.07629697
47	0x3d4793ed	0.048725057
48	0xbde7dbfc	-0.113212556
49	0x3dd940a1	0.1060803

stacks.0.blocks.0.fc2.weight f4 [50, 50]
0	0x3d63df2f	0.055632766
1	0x3dee95df	0.116496794
2	0x3c357e3e	0.011077462
3	0x3dd793c8	0.10526234
4	0xbc164a31	-0.009172962
5	0x3df17594	0.117900044
6	0xbdab8aa8	-0.08376056
7	0x3d16f3cc	0.036853597
8	0x3cb49f82	0.022048716
9	0xbca60e25	-0.020270417
10	0xbe00ceac	-0.12578839
11	0xbcc3898d	-0.0238693
12	0x3d3a2c4b	0.045452397
13	0x3c6c12ae	0.01440875
14	0x3d270282	0.040773876
15	0x3e291aa6	0.16514072
16	0xbd96b97b	-0.07359596
17	0xbd4d373d	-0.050101507
18	0x3d911a99	0.07085151
19	0xbe109456	-0.14119086
20	0xbd7b59a2	-0.061364777
21	0x3da8493b	0.082170926
22	0x3c802bfb	0.015645972
23	0xbe0e38e1	-0.13888885
24	0x3bc0799e	0.005873873
25	0x3d8845c4	0.06653932
26	0x3dd2e90a	0.10298355
27	0x3e0becc6	0.1366454
28	0x3cec3301	0.028832914
29	0xbcdf2701	-0.027240278
30	0x3e1f0806	0.15530404
31	0x3e07835d	0.13233705
32	0x3d16faf0	0.036860406
33	0xbe0b54fe	-0.1360664
34	0xbd9fb766	-0.07798652
35	0x3d360895	0.04444178
36	0x3d75fd2a	0.06005589
37	0x3d02f023	0.031967293
38	0x3e0cd0a5	0.13751467
39	0xbda5eeb2	-0.08102168
40	0xbe0a1415	-0.13484223
41	0xbda03729	-0.07823021
42	0xbde98dd8	-0.11404008
43	0xbe1cfc86	-0.15330705
44	0x3cd3de6d	0.025862897
45	0x3dde2d94	0.10848537
46	0x3cb82fa5	0.022483656
47	0xbdf38083	-0.11889746
48	0x3ce62649	0.028094428
49	0x3ccb84c9	0.02484359
50	0x3bb4413c	0.0055009406
51	0xbdf85054	-0.121246964
52	0x3dae6b69	0.085165806
53	0x3d00f154	0.03148015
54	0xbd788f13	-0.06068332
55	0xba0a30b1	-0.0005271538
56	0x3d793abf	0.06084704
57	0xbdf04df7	-0.117336206
58	0xbd9c0fe5	-0.07620219
59	0x3d668bf7	0.056285825
60	0xbb7fcbc9	-0.0039031378
61	0xbdf2a08d	-0.11847029
62	0xbe035a19	-0.12827338
63	0xbdb4842c	-0.08814272
64	0x3e3ce707	0.18447505
65	0x3dbf4043	0.09338429
66	0x3de3544c	0.11100063
67	0xbdd761e3	-0.10516717
68	0x3dd04d9d	0.101710536
69	0xbdaeda2f	-0.08537709
70	0x3da8acb4	0.082360655
71	0xbe3bc1bd	-0.18335624
72	0xbd8fec94	-0.070275456
73	0x3de939f7	0.11388009
74	0x3cc6dd92	0.024275575
75	0x3d6685c7	0.056279924
76	0xbd9bd7d8	-0.07609528
77	0x3c96b8a7	0.018398596
78	0x3e08df78	0.13366497
79	0x3e16e4b4	0.14735681
80	0xbda909d3	-0.08253827
81	0x3baa676f	0.0052003185
82	0x3d931315	0.07181374
83	0x3d081472	0.033222623
84	0xbe322254	-0.17395908
85	0xbe051914	-0.12997848
86	0xbe02f82c	-0.12789983
87	0xbd731dab	-0.059354465
88	0xbd2b9ba5	-0.04189648
89	0x3d7b7e8c	0.06139998
90	0xbed4c6c9	-0.4155791
91	0xbe8c2eb1	-0.27379373
92	0x3d8f933c	0.070105046
93	0x3de2b34e	0.11069356
94	0xbdcedd06	-0.101007506
95	0xbdd53ca4	-0.10411957
96	0xbe58bd98	-0.21166074
97	0xbdb47a4c	-0.08812389
98	0xbda29bf4	-0.07939902
99	0x3da8999b	0.08232423
100	0x3cee1425	0.02906234
101	0x3e08f0fe	0.13373181
102	0x3de907d8	0.11378449
103	0xbe25312f	-0.16132043
104	0xbd6c0d66	-0.057629965
105	0x3d98661c	0.07441351
106	0x3d57a8f5	0.052651364
107	0x3bddf543	0.0067736222
108	0xbd74753b	-0.059682112
109	0xbd070b3c	-0.0329697
110	0x3d8aa103	0.06768992
111	0xb9a43811	-0.0003132229
112	0xbe348d02	-0.17631915
113	0x3d93ed72	0.072230235
114	0xbdf69738	-0.120405614
115	0x3d21d8f4	0.039513543
116	0xbc573b71	-0.0131367305
117	0xbe0d7e6d	-0.13817759
118	0x3e0282c7	0.127452
119	0x3db36e4d	0.087612726
120	0x3ca4cbb6	0.020116668
121	0xbe16a15a	-0.14709988
122	0xbbcbd0a9	-0.0062199426
123	0x3db46e51	0.08810104
124	0xbdd34ed5	-0.103177704
125	0xbdb0f9ab	-0.086413704
126	0xbcffabe6	-0.031209897
127	0x3d0137bb	0.03154729
128	0x3d7e4498	0.062077135
129	0xbdc0fd53	-0.09423318
130	0x3d03a37c	0.032138333
131	0x3c784f49	0.015155622
132	0xbddcb844	-0.107773334
133	0xbd81aa56	-0.06331317
134	0x3c7a77fb	0.015287395
135	0x3dab076c	0.08351025
136	0xbdb3fc48	-0.08788353
137	0xbdf9504a	-0.12173517
138	0xbcf333b0	-0.029687732
139	0x3dc989cf	0.09840738
140	0x3dd6ffeb	0.10498031
141	0x3d946c09	0.072471686
142	0xbdd47634	-0.10374108
143	0xbd12afa0	-0.03581202
144	0x3d0c6dfc	0.034284577
145	0x3e061ac5	0.1309615
146	0x3dec1b50	0.11528647
147	0x3d80ff8e	0.06298743
148	0x3e3e9597	0.18611751
149	0x3de3dbcc	0.11125907
150	0x3c2c4d85	0.010516529
151	0x3df61278	0.120152414
152	0xbd41d02e	-0.047317676
153	0xbc3936e2	-0.011304589
154	0xbd68754d	-0.05675249
155	0xbd467fb9	-0.04846165
156	0x3d8d25c9	0.068919726
157	0x3e1c7e06	0.15282449
158	0xbd6c5f5d	-0.057708133
159	0xba469637	-0.00075754843
160	0xbe04339e	-0.12910315
161	0xbd337a06	-0.043817542
162	0xbc8ea847	-0.017414225
163	0x3e118174	0.14209539
164	0xbdbdf85b	-0.09275886
165	0x3e032da2	0.12810376
166	0x3d07e6de	0.033179156
167	0x3d657ed2	0.05602915
168	0xbcc72753	-0.024310743
169	0xbdde413c	-0.10852286
170	0x3e1786e2	0.14797547
171	0xbcc524ce	-0.024065401
172	0xbd82a903	-0.06379893
173	0xbd8b0d91	-0.06789697
174	0x3e000354	0.1250127
175	0x3d664d4b	0.056226056
176	0x3deb11a3	0.11477973
177	0xbd8733a5	-0.06601647
178	0x3db4bc91	0.08825029
179	0x3d80cd96	0.062892124
180	0x3e125c86	0.14293107
181	0x3dc4762f	0.09592854
182	0x3d4bb209	0.049730334
183	0x3d96a3ae	0.07355438
184	0xbdbd6063	-0.092469
185	0x3dd0a1f3	0.10187139
186	0x3c378d79	0.011203163
187	0x3d76d4c3	0.0602615
188	0xbde81e4b	-0.11333903
189	0x3bb39280	0.0054801106
190	0xbd50b2ca	-0.050951757
191	0xbe21ed0e	-0.15813085
192	0x3d846776	0.06465046
193	0xbe1418bd	-0.14462562
194	0xbd2efdf1	-0.042722646
195	0xbe219033	-0.15777664
196	0xbe09f98e	-0.13474104
197	0x3e14770f	0.14498542
198	0x3cc4545e	0.02396601
199	0xbd9aaefc	-0.07552907
200	0xbe2db068	-0.16961825
201	0xbe20d40e	-0.15705892
202	0xbe24de4f	-0.16100429
203	0xbd8a21a4	-0.06744698
204	0xbc3feec1	-0.011714638
205	0x3dbe6bf0	0.09297931
206	0xbdac22eb	-0.084050976
207	0x3c836393	0.016038692
208	0x3de05ba4	0.10954979
209	0xbe5e4184	-0.2170468
210	0x3d95de05	0.073177375
211	0xbd99bfe5	-0.07507304
212	0xbe35d57c	-0.17757219
213	0xbe953a7e	-0.29146188
214	0x3ddf052e	0.1088966
215	0x3d8e5ec8	0.06951672
216	0x3d924ec2	0.07143928
217	0xbe2f7a4f	-0.17136501
218	0xbe805f13	-0.25072536
219	0xbe428e90	-0.18999696
220	0x3d9f7ee7	0.077878766
221	0xbe935574	-0.28776133
222	0xbcf7f327	-0.030267311
223	0x3d9d5916	0.076830074
224	0xbe658e87	-0.22417651
225	0xbe1ff27c	-0.15619844
226	0xbe1acfea	-0.15118375
227	0x3c62efac	0.013851088
228	0xbd08263b	-0.033239584
229	0xbda50514	-0.08057609
230	0x3e5c7611	0.21529414
231	0xbe3e57be	-0.18588158
232	0xbdf2d8f3	-0.11857786
233	0xbe15fa2a	-0.14646211
234	0xbe0c9b1c	-0.13731045
235	0xba3f7536	-0.00073035376
236	0xbda36ccf	-0.07979738
237	0xbe4898e1	-0.19589569
238	0x3db19da6	0.08672647
239	0xbe1c64e4	-0.15272862
240	0x3c136405	0.0089960145
241	0xbdcb8a9f	-0.09938549
242	0xbd90ab52	-0.07063927
243	0xbe30013c	-0.17187971
244	0xbe310ee0	-0.1729083
245	0x3d890089	0.06689555
246	0xbd0b928b	-0.0340753
247	0xbd38684b	-0.045021337
248	0x3dc8b627	0.09800368
249	0xbd62dd6a	-0.05538694
250	0x3d36c888	0.044624835
251	0x3e081c5e	0.13292071
252	0x3db20cee	0.086938724
253	0xbd49bfa7	-0.04925504
254	0xbe013445	-0.12617595
255	0xbbc24e8e	-0.0059297746

stacks.0.blocks.0.fc2.bias f4 [50]
0	0x3e1d3d8f	0.15355514
1	0xbe85154f	-0.2599282
2	0x3e111d37	0.14171301
3	0x3d755e6a	0.059904493
4	0x3cf9a434	0.030473806
5	0x3e1c3fe3	0.15258746
6	0x3e17a23f	0.14807986
7	0x3de23ce9	0.11046774
8	0xbd393a98	-0.045221895
9	0x3d15e68e	0.036596827
10	0xbdbf29dc	-0.09334156
11	0xbe1acd8e	-0.15117475
12	0xbdf61eaa	-0.120175675
13	0xbe07258d	-0.13197918
14	0xbddb8bb4	-0.10720006
15	0x3da5796d	0.08079801
16	0x3d551cf6	0.052029572
17	0x3e0dbf43	0.13842492
18	0x3d6c2ab6	0.05765792
19	0xbeb7cd80	-0.35898972
20	0x3c52b3b8	0.012860231
21	0x3d91c7ea	0.07118209
22	0xbdc1e7d7	-0.09468048
23	0xbe1457d8	-0.14486635
24	0x3e1e7a0d	0.15476246
25	0xbcbb39c5	-0.022854695
26	0x3d54f5ed	0.051992346
27	0xbd6ddf98	-0.058074564
28	0x3d4dd026	0.050247334
29	0x3d390cb8	0.045178145
30	0xbe09be92	-0.13451603
31	0x3c903daf	0.017607538
32	0x3def6227	0.11688643
33	0x3e2bcc93	0.16777258
34	0x3d5add93	0.053433966
35	0xbd9acdd1	-0.075587876
36	0x3e12750f	0.14302467
37	0xbdbb98bd	-0.09159992
38	0x3da9e314	0.08295265
39	0x3dc3f369	0.09567911
40	0x3d90fe67	0.070797734
41	0xbdc5b094	-0.0965282
42	0x3cec0aa4	0.028813668
43	0x3e3691af	0.17829011
44	0x3df2644d	0.11835537
45	0xbe15c2eb	-0.14625137
46	0x3e03e200	0.12879181
47	0x3e0803be	0.13282678
48	0xbcbb9855	-0.022899786
49	0x3de74bb7	0.11293738

stacks.0.blocks.0.fc3.weight f4 [50, 50]
0	0x3d8888da	0.06666727
1	0xbe30895f	-0.17239903
2	0xbe2dec0a	-0.16984573
3	0x3d43d823	0.047813546
4	0x3d76a6bf	0.060217615
5	0x3d96bba4	0.07360008
6	0x3d6c2eee	0.057661943
7	0x3d423d92	0.047422
8	0xbde0fcdc	-0.10985729
9	0x3d944c80	0.07241154
10	0x3dd755cf	0.105144136
11	0x3cabef21	0.020988049
12	0xbe0a68bf	-0.1351652
13	0x3e6610b2	0.22467306
14	0xbe0ca3e0	-0.13734388
15	0xbcb93851	-0.022609862
16	0x3dada82a	0.084793404
17	0x3dafacd0	0.08577883
18	0x3e828a69	0.25496224
19	0xbe8744a7	-0.26419565
20	0xbdb45a34	-0.088062674
21	0xbdce007b	-0.100586854
22	0x3de2d536	0.11075823
23	0x3e1a229f	0.1505227
24	0x3c9a85fa	0.018862713
25	0xbe025ba9	-0.12730278
26	0x3dc4e0ed	0.09613214
27	0xbd6fc35b	-0.058535915
28	0x3dc25e0e	0.09490596
29	0xbddff692	-0.109357014
30	0xbd51d2f1	-0.05122656
31	0x3e550dc3	0.20806031
32	0x3dd9682f	0.106155746
33	0xbdc6f957	-0.097155266
34	0xbe0d6005	-0.1380616
35	0x3d92e3e6	0.071723744
36	0x3da9a9f3	0.08284368
37	0x3dc6d81d	0.09709189
38	0x3b34c498	0.0027583
39	0xbe0e5496	-0.13899454
40	0x3d3085db	0.043096405
41	0xbda9cf0b	-0.082914434
42	0x3daad2aa	0.08340962
43	0xbec870ca	-0.3914855
44	0x3d210f4f	0.03932124
45	0x3dcba101	0.099428184
46	0x3e1cc83f	0.15310763
47	0xbd280721	-0.041022424
48	0x3d14538e	0.036212496
49	0xbdb6389a	-0.08897515
50	0xbe131260	-0.14362478
51	0xbdeb7322	-0.11496569
52	0x3d1e5dc6	0.038663648
53	0xbd347081	-0.044052605
54	0xbd8a7d99	-0.06762237
55	0x3ddce584	0.10785964
56	0xbe0cd345	-0.13752468
57	0x3d9e1228	0.07718307
58	0xbda8c43e	-0.08240555
59	0xbe017c08	-0.1264497
60	0xbc9b3a30	-0.018948644
61	0x3ddc1386	0.10745911
62	0x3ddeb9e8	0.108753026
63	0xbd39356a	-0.045216955
64	0x3d0d5fd5	0.03451522
65	0xbe008c31	-0.12553479
66	0xbd81de17	-0.063411884
67	0xbe2c4004	-0.16821295
68	0xbdeabd41	-0.114618786
69	0x3c9760d0	0.018478781
70	0x3cb1db1c	0.021710925
71	0xbc3baecb	-0.011455248
72	0xbd16aaf7	-0.03678414
73	0xbd6279d1	-0.055291954
74	0xbe07354a	-0.13203922
75	0x3dc866c9	0.0978523
76	0x3d6edca6	0.058315895
77	0x3da9f01e	0.08297752
78	0xbde618d7	-0.112352066
79	0xbe0d7406	-0.1381379
80	0xbd418cfa	-0.047253586
81	0x3d515ed0	0.05111581
82	0x3ccfb4cd	0.025354767
83	0x3d771da6	0.06033101
84	0xbc67fa4f	-0.014158799
85	0x3ca996b0	0.020701736
86	0x3caaca6d	0.020848477
87	0xbe0a672b	-0.13515918
88	0x3d16cbb6	0.036815368
89	0x3c9a0177	0.018799527
90	0x3df08f52	0.11746086
91	0x3cdba152	0.026810322
92	0x3dbfa7f8	0.09358209
93	0xbdfdc65b	-0.12391349
94	0x3d58a775	0.052894074
95	0xbdf4be6c	-0.119503826
96	0x3de61075	0.11233608
97	0xbe2d351f	-0.16914795
98	0x3cc9bba5	0.024625609
99	0xbd8c6c1c	-0.06856558
100	0x3d4aa15c	0.04947029
101	0xbd9900c3	-0.074708484
102	0xbd15571f	-0.03646004
103	0xbc0a2b7f	-0.008433222
104	0x3da005fc	0.078136414
105	0xbd93e389	-0.07221133
106	0xbdf4c5ca	-0.11951788
107	0xbbafb27b	-0.0053618527
108	0xbe3008f2	-0.17190912
109	0x3d80953c	0.06278464
110	0xbce676d3	-0.028132832
111	0xbd40d172	-0.047074743
112	0xbe76eddb	-0.24114172
113	0x3e44ffbf	0.19238184
114	0x3e4c953b	0.19978802
115	0x3d911062	0.07083203
116	0x3e0d4b6d	0.13798304
117	0x3e02dfe1	0.12780716
118	0xbd1c94d2	-0.038227864
119	0xba278d54	-0.0006391604
120	0xbd8aea94	-0.067830235
121	0x3dbe7847	0.09300285
122	0x3cb34fb1	0.021888586
123	0xbd74a20c	-0.059724852
124	0x3d51cf0d	0.05122285
125	0x3e10f90f	0.14157508
126	0x3dee1aca	0.11626203
127	0x3c829d88	0.015944257
128	0xbc9fca71	-0.019505711
129	0x3e2f7365	0.17133863
130	0x3dc10df9	0.09426493
131	0x3da2af1a	0.07943554
132	0x3d830568	0.063975155
133	0x3da6ab83	0.08138182
134	0xbe76f74f	-0.24117778
135	0x3cb03e2f	0.021514026
136	0xbde7f0d1	-0.11325229
137	0xbdb6a69d	-0.08918498
138	0x3d973c23	0.07384517
139	0x3d161629	0.036642227
140	0x3d6ff728	0.058585316
141	0xbd44b892	-0.048027582
142	0xbd879327	-0.06619864
143	0x3cf41efc	0.02979993
144	0x3c9cbfe5	0.019134471
145	0xbd7c1a8d	-0.06154876
146	0x3d820ab9	0.063497014
147	0x3d865f8c	0.06561193
148	0xbde1e9b3	-0.11030903
149	0x3daa6c4f	0.083214395
150	0xbd7d2711	-0.061804835
151	0xbd5beee4	-0.05369462
152	0xbe2c2c2a	-0.16813722
153	0x3d7169f3	0.05893893
154	0x3cd9e2d3	0.026597416
155	0x3c521b13	0.012823838
156	0x3dccc51b	0.099985324
157	0x3dc9a889	0.09846599
158	0xbd1c6f8c	-0.038192317
159	0xbe6fe6ed	-0.23427935
160	0xbdf2138e	-0.11820136
161	0x3db62c9b	0.088952266
162	0x3d8983ea	0.06714614
163	0x3b7638eb	0.0037570547
164	0xbd6a575d	-0.057212222
165	0xbd4b085a	-0.04956851
166	0xbe3ca8db	-0.18423788
167	0xbe3c3a1d	-0.18381543
168	0xbdde4b7d	-0.10854242
169	0x3e235396	0.15949854
170	0x3db21bbb	0.086966954
171	0xbd9457cf	-0.07243311
172	0x3d6dca6d	0.058054376
173	0x3dce2d58	0.100672424
174	0x3c4b0110	0.01239039
175	0x3c0bf437	0.008542112
176	0x3d9a16c3	0.07523873
177	0xbddcbdc6	-0.10778384
178	0xba997e8a	-0.0011710685
179	0x3d5f10de	0.054459445
180	0x3d9db953	0.077013634
181	0x3c8efc67	0.01745434
182	0xbcc3ea7e	-0.023915526
183	0xbc93060d	-0.017947221
184	0x3d935163	0.07193258
185	0xbc308e90	-0.010776177
186	0xbd98481e	-0.0743563
187	0x3e507926	0.20358714
188	0xbd3f82c2	-0.04675556
189	0xbe1a0ce7	-0.15043984
190	0xbd0cc02d	-0.03436296
191	0x3bb8d1f8	0.0056402646
192	0x3dc3e3f7	0.09564965
193	0xbd8144b1	-0.0631193
194	0xbd9f453b	-0.077768765
195	0xbd833207	-0.06406026
196	0x3ddcdf53	0.10784783
197	0xbe636172	-0.22205141
198	0x3d55716e	0.052110128
199	0x3c958c03	0.01825524
200	0xbd9120ef	-0.0708636
201	0xbccc630c	-0.024949573
202	0xbdd5ef6a	-0.10446055
203	0x3c6f2b20	0.014597684
204	0x3bb3a260	0.005482003
205	0xbe05f1c0	-0.13080502
206	0xbd9a7699	-0.07542152
207	0x3ce561b3	0.028000688
208	0xbd9b2301	-0.07575036
209	0x3d3d94b8	0.046284407
210	0x3d16df5e	0.036834113
211	0xbd20fa49	-0.03930119
212	0x3d2861ce	0.0411089
213	0xbc232fa9	-0.009960094
214	0xbda5df90	-0.08099282
215	0xbd9de86a	-0.07710345
216	0x3bd27775	0.006422932
217	0x3d54a8d0	0.051918805
218	0x3dcf9ade	0.101369604
219	0xbdb277a8	-0.08714229
220	0xbddfe83f	-0.10932969
221	0x3bac9713	0.005267033
222	0xbbc21fa7	-0.0059241834
223	0xbd918b60	-0.07106662
224	0x3df661c6	0.120303676
225	0xbdd73ae7	-0.105092816
226	0x3d9b8668	0.07593995
227	0x3de5ca89	0.11220271
228	0xbe0808e3	-0.1328464
229	0x3dd05664	0.10172728
230	0xbd6a5d97	-0.05721816
231	0xbdc259a7	-0.09489756
232	0x3de65bfa	0.11248012
233	0xbe09ea89	-0.13468374
234	0x3cd58696	0.026065152
235	0xbd158a06	-0.036508583
236	0xbdfa9b59	-0.122366615
237	0x3ca87d26	0.020567488
238	0x3e062798	0.13101041
239	0x3d0203b4	0.031741813
240	0xbe01eb80	-0.12687492
241	0x3c3ff280	0.011715531
242	0xbd170364	-0.036868468
243	0x3d37ab19	0.044840906
244	0xbdd1116f	-0.10208403
245	0x3e0165cb	0.12636487
246	0xbe153dc2	-0.1457434
247	0xbe1c92d6	-0.15290388
248	0xbdd1bb72	-0.102408305
249	0xbda7d673	-0.081952
250	0xbe0c7ffa	-0.13720694
251	0xbe0f9fb2	-0.14025763
252	0xbd04ceab	-0.032423656
253	0xbc49a4b8	-0.012307338
254	0xbcc81565	-0.024424264
255	0xbcebef99	-0.028800773

stacks.0.blocks.0.fc3.bias f4 [50]
0	0xbd5b3ec7	-0.053526666
1	0x3d0b4584	0.034001842
2	0xb966cff1	-0.00022011973
3	0xbea3a3b6	-0.3196084
4	0xbd8f6d09	-0.07003219
5	0x3d5cd322	0.05391229
6	0x3dd1cbd5	0.10243956
7	0xbde4e634	-0.1117672
8	0xbd565683	-0.052328598
9	0xbe165155	-0.14679463
10	0x3dcc57cc	0.099776834
11	0xbd8b4b75	-0.06801502
12	0x3e12d3cf	0.14338611
13	0x3d7712eb	0.060320776
14	0xbe0e212b	-0.1387984
15	0xbad9b78b	-0.0016610486
16	0x3db5ab2b	0.08870538
17	0x3d7a0d46	0.061047815
18	0x3dfddfa8	0.12396175
19	0x3cb17378	0.021661505
20	0x3dd839c9	0.10557897
21	0x3dda9f03	0.1067486
22	0xbdb7ef7c	-0.08981225
23	0x3c2a7f42	0.010406317
24	0x3dd0b52a	0.10190804
25	0xbd580f09	-0.052748714
26	0x3dad3f64	0.084593564
27	0xbda9aac2	-0.082845226
28	0x3e031805	0.12802131
29	0x3d1dfb33	0.03856964
30	0x3d0304ba	0.03198693
31	0xbd55cc85	-0.052197
32	0xbd604800	-0.054756165
33	0xbd2bdbd3	-0.041957688
34	0x3dd04903	0.10170176
35	0x3e013c2c	0.1262061
36	0x3d8bb243	0.0682111
37	0x3bef1f53	0.0072974353
38	0x3dbe4e8b	0.09292325
39	0x3d505e39	0.050871108
40	0xbb909cec	-0.004413238
41	0x3dd108dc	0.10206768
42	0x3d36b33e	0.044604532
43	0x3daaa860	0.08332896
44	0x3e23c335	0.15992434
45	0xb933d829	-0.00017151296
46	0xbea62ba9	-0.32455185
47	0x3dd51b25	0.10405568
48	0xbd777986	-0.06041863
49	0xbdb16cd6	-0.08663337

stacks.0.blocks.0.fc4.weight f4 [50, 50]
0	0xbe09d7a1	-0.13461162
1	0xbdb24cbc	-0.08706042
2	0x3e32465c	0.17409652
3	0xbde6b1b7	-0.11264365
4	0x3d971c3a	0.07378431
5	0xbe0d3aeb	-0.13792007
6	0xbb211d84	-0.0024584243
7	0x3d8cff94	0.06884685
8	0x3de9f2a1	0.11423231
9	0xbd917cb4	-0.07103863
10	0x3e2302fc	0.15919107
11	0xbdb96648	-0.09052712
12	0x3e2ed0a7	0.17071782
13	0x3e169992	0.1470702
14	0x3dc92e3d	0.098232724
15	0x3dd234dd	0.10263989
16	0x3b6851dc	0.0035449183
17	0xbdaa2e2e	-0.08309589
18	0x3c4ed184	0.012623195
19	0xbd084ef9	-0.03327844
20	0xbdd2c102	-0.102907196
21	0x3dffe5b9	0.12494988
22	0x3cdb3173	0.026756978
23	0xbbdba103	-0.0067025437
24	0x3db799be	0.08964871
25	0x3d7a3f60	0.061095595
26	0xbdb21451	-0.08695281
27	0xbd8ed8a0	-0.06974912
28	0x3db91098	0.09036368
29	0x3ceddace	0.029034998
30	0xbd80eb16	-0.06294839
31	0x3e2d34c5	0.16914661
32	0xbdda3a1d	-0.106556155
33	0xbdc63b53	-0.09679284
34	0xbdd8392f	-0.10557782
35	0x3d6361c4	0.05551316
36	0x3c971a83	0.018445259
37	0xbd413d7f	-0.047177788
38	0x3e2cea0e	0.1688616
39	0x3b144dd3	0.0022629395
40	0x3e439077	0.19098078
41	0x3a95b464	0.0011421558
42	0xb9e97f58	-0.00044536102
43	0x3dd768d5	0.10518042
44	0x3dd84f23	0.10561969
45	0x3d01d310	0.031695426
46	0x3e63dbc1	0.22251798
47	0x3e3b4bc5	0.18290623
48	0x3d12c7cc	0.035835072
49	0xbdac2365	-0.084051885
50	0x3cf32354	0.029679932
51	0xbdfd7439	-0.12375683
52	0xbd0516a9	-0.032492314
53	0x3de79dcc	0.11309394
54	0xbbb78144	-0.0056001265
55	0xbd1590a8	-0.036514908
56	0xbdaf3284	-0.08554557
57	0xbdac3ef4	-0.08410445
58	0xbdee4dcd	-0.11635933
59	0x3db46833	0.08808937
60	0xbd9cae16	-0.07650392
61	0xbd40eaf1	-0.047099058
62	0x3db4a0f1	0.0881976
63	0x3e1d1d05	0.15343101
64	0x3e0cf0d9	0.13763751
65	0xbd8eacad	-0.06966529
66	0xbd836bca	-0.064170435
67	0xbdcac59f	-0.099009745
68	0xbd24aaba	-0.04020188
69	0xbbfde1f1	-0.0077478816
70	0xbd696860	-0.056984305
71	0x3e176740	0.1478548
72	0x3d792d38	0.06083414
73	0xbdcae866	-0.09907608
74	0xbe19c462	-0.1501632
75	0x3cfd5d0d	0.03092816
76	0x3e1c4b93	0.15263204
77	0x3d8d20f7	0.06891053
78	0xbe0182d3	-0.12647562
79	0x3d792b50	0.06083232
80	0xbd663eda	-0.056212284
81	0xbdd2fcbc	-0.103021115
82	0x3ddc3c31	0.10753668
83	0xbdfd6fb7	-0.123748235
84	0xbda49f59	-0.08038206
85	0xbe0ff1e4	-0.14057118
86	0x3d414378	0.047183484
87	0xbe028fe2	-0.127502
88	0xbd030165	-0.03198375
89	0x3db97c7a	0.09056945
90	0xbd2887c2	-0.041145094
91	0xbc7a6595	-0.015283008
92	0x3d3d3d80	0.04620123
93	0x3d0ffdf3	0.035154294
94	0x3e22c7f5	0.1589659
95	0xbdf0149b	-0.1172268
96	0xbd337186	-0.043809436
97	0x3d93d14f	0.07217657
98	0xbdaf3937	-0.08555835
99	0xbda0e9f6	-0.078571245
100	0xbc715f45	-0.014732187
101	0x3d8d2302	0.06891443
102	0xbe031dba	-0.12804309
103	0xbdcaa926	-0.09895544
104	0xbbb9a304	-0.005665185
105	0x3e1df68e	0.15426084
106	0xbdb7cd34	-0.08974686
107	0x3df684b0	0.12037027
108	0x3df6342e	0.12021671
109	0xbb103d23	-0.0022009097
110	0xbdd707ce	-0.104995355
111	0xbc42d1a2	-0.011890801
112	0xbe0ed279	-0.13947476
113	0x3ba60bc3	0.00506732
114	0x3b8f4980	0.0043727756
115	0x3de5f130	0.112276435
116	0xbc00cb0f	-0.007860913
117	0x3d910ed8	0.07082909
118	0x3ddbfbf9	0.10741419
119	0xbdb72812	-0.0894319
120	0x3ce3e558	0.02781932
121	0x3dc835ad	0.09775863
122	0x3d1742a4	0.036928788
123	0x3d8ebd89	0.06969745
124	0xbdd2849b	-0.10279199
125	0x3e042933	0.12906341
126	0x3dee888d	0.11647139
127	0x3d7fdd5e	0.06246697
128	0x3d8c9ad2	0.06865467
129	0xbd84dabd	-0.064870335
130	0x3d07e752	0.03317959
131	0x3b5acb97	0.003338551
132	0x3e3ba645	0.18325146
133	0xbca43f9c	-0.020049863
134	0x3e073cbd	0.13206764
135	0x3d88843b	0.06665846
136	0xbd5cfc2f	-0.05395144
137	0x3ddc9465	0.107704915
138	0xbdb194ff	-0.08670997
139	0x3e3c88a1	0.18411495
140	0xbdf411e2	-0.119174734
141	0xbbcce5a9	-0.0062529636
142	0x3d946609	0.07246024
143	0x3db4700b	0.08810433
144	0xba8b5a39	-0.0010631747
145	0xbd4d81be	-0.05017256
146	0xbdd3339e	-0.103125796
147	0xbd83c506	-0.064340636
148	0x3e0ca2cb	0.13733976
149	0xbdaf4ef3	-0.0855998
150	0xbe3e6c1f	-0.18595932
151	0x3cdbb701	0.026820662
152	0xbdb474a7	-0.08811312
153	0x3dcf8edb	0.101346694
154	0xbd3dc749	-0.04633263
155	0x3be09f18	0.006854903
156	0xbd742041	-0.059601072
157	0xbcee748b	-0.029108306
158	0xbd3b5017	-0.045730677
159	0x3ce6a3f9	0.02815436
160	0xbd9d2ecb	-0.07674941
161	0x3deb6c09	0.114952154
162	0xbd3a9f5e	-0.04556214
163	0x3e220e53	0.15825777
164	0xbde0a1d5	-0.10968367
165	0x3d3fd469	0.04683343
166	0xbe4ab534	-0.19795686
167	0x3c516d7c	0.012782451
168	0x3df977d8	0.121810615
169	0xbcae6d5f	-0.021292387
170	0x3d9993c9	0.07498891
171	0xbe2a6570	-0.16640258
172	0xbc96fb48	-0.018430367
173	0xbdd023be	-0.10163067
174	0xbe17c5f2	-0.14821604
175	0xbce3bfff	-0.027801512
176	0xbcb8af61	-0.022544565
177	0xbc291940	-0.0103209615
178	0xbbcfc961	-0.006341145
179	0xbbbae0c1	-0.0057030623
180	0xbe0c817f	-0.13721274
181	0xbe1ce2bf	-0.15320872
182	0x3dc3f4fe	0.09568213
183	0x3c9eee6c	0.019400798
184	0x3ca387c9	0.019962208
185	0xbdd808cb	-0.10548552
186	0x3d4b9fb2	0.049712844
187	0xbc0e6473	-0.008690941
188	0x3ca36979	0.019947754
189	0x3e3fcab8	0.18729675
190	0xbe502bf7	-0.20329271
191	0xbd0e51f2	-0.034746118
192	0xbd7d624d	-0.061861325
193	0x3d75cb7c	0.06000851
194	0x3db6fd4a	0.0893503
195	0xbe3c8862	-0.18411401
196	0xbe8f29a0	-0.27961445
197	0xbd1218e7	-0.03566828
198	0x3e03d156	0.12872824
199	0x3d483ea6	0.04888787
200	0xbe156b9c	-0.14591831
201	0x3ddf8d35	0.10915605
202	0xbe07fca4	-0.13279969
203	0x3cfcf49e	0.030878361
204	0xbd22ef41	-0.03977895
205	0xbd81fdb1	-0.06347216
206	0xbda82057	-0.08209293
207	0xbddc59d2	-0.10759319
208	0xbe12e31a	-0.14344445
209	0x3c2eceb6	0.010669401
210	0xbdde8865	-0.10865859
211	0x3d8f74d4	0.07004705
212	0xbde45623	-0.11149242
213	0x3d8ab495	0.067727245
214	0xbdcb4067	-0.09924393
215	0x3cc27070	0.023735255
216	0xbda2f0d7	-0.07956093
217	0x3d62f454	0.05540879
218	0xbd4419ec	-0.047876284
219	0xbd7463e5	-0.05966558
220	0xbd952837	-0.07283061
221	0xbddc6882	-0.10762121
222	0x3de33648	0.11094338
223	0xbcba5d25	-0.022749493
224	0x3d55c991	0.05219418
225	0xbe29296d	-0.16519709
226	0xbde8fab4	-0.11375943
227	0x3d17210b	0.036896747
228	0x3c79080a	0.015199671
229	0x3b658c2d	0.0035026178
230	0xbe427e8f	-0.18993591
231	0xbd9a12a7	-0.07523089
232	0x3d26b8b6	0.040703498
233	0xbe00738a	-0.12544075
234	0x3cdd2edd	0.026999885
235	0xbe09029e	-0.13379905
236	0xbe461dec	-0.19347352
237	0xbdc983b0	-0.098395705
238	0xbdb8e320	-0.09027696
239	0x3e165e26	0.14684352
240	0xbe007116	-0.12543139
241	0xbca36a99	-0.01994829
242	0x3e1fc7a4	0.156035
243	0x3d60214e	0.05471926
244	0x3dc78984	0.09743026
245	0xbdf61d3b	-0.12017294
246	0xbd849bb2	-0.06475009
247	0xbe63c9aa	-0.22244897
248	0xbb8db3ed	-0.0043244273
249	0xbd63a294	-0.05557497
250	0xbd88be22	-0.0667689
251	0xbd926342	-0.07147838
252	0x3d1dd7a1	0.038535718
253	0x3d3e86d3	0.046515297
254	0x3d39a7dc	0.0453261
255	0xbe278890	-0.16360688

stacks.0.blocks.0.fc4.bias f4 [50]
0	0x3c87ef2d	0.01659354
1	0x3da7a6d5	0.081861176
2	0x3e09e050	0.13464475
3	0x3db60fd1	0.088897355
4	0x3de4c71e	0.11170791
5	0xbdce0e9c	-0.1006138
6	0x3db02336	0.08600466
7	0x3d21301a	0.039352514
8	0xbcd8d37f	-0.026468037
9	0xbd99b858	-0.07505864
10	0xbd9e8fb2	-0.077422515
11	0xbd62a812	-0.055336066
12	0x3c65e1a6	0.01403085
13	0x3d8b0a8c	0.06789121
14	0x3d32ae0a	0.043623008
15	0x3d88826a	0.066654995
16	0x3c50f1b4	0.012752939
17	0x3e0976db	0.13424246
18	0x3db01f85	0.08599762
19	0xbd162b38	-0.03666231
20	0x3c8619ed	0.016369784
21	0x3c9a1db9	0.018813001
22	0xbd03a3f8	-0.032138795
23	0x3c6c8e8d	0.014438284
24	0xbdfdd2df	-0.12393736
25	0xbcba6d47	-0.022757186
26	0xbcd2d3e9	-0.025735812
27	0xbcd5d299	-0.026101397
28	0xbd9b8f47	-0.07595687
29	0x3de6fb94	0.112784535
30	0xbcaf0d44	-0.02136863
31	0x3c9a003f	0.018798945
32	0xbc299bca	-0.010352084
33	0xbe21e364	-0.15809399
34	0x3d0cacda	0.03434453
35	0x3ddcff77	0.107909136
36	0xbc89fda7	-0.016844584
37	0xbdc69db6	-0.0969805
38	0xbe25c2ef	-0.16187643
39	0xbe655659	-0.2239622
40	0xbddeb0c9	-0.10873563
41	0x3d4e9df2	0.050443597
42	0x3ddc5b3c	0.10759589
43	0x3d9b02de	0.07568906
44	0xbafcd47d	-0.0019289401
45	0x3dbf6ce2	0.093469396
46	0x3e165d00	0.14683914
47	0xbdf9d43a	-0.12198682
48	0xbde7606c	-0.11297688
49	0xbdf66079	-0.120301194

stacks.0.blocks.0.theta_layer.weight f4 [36, 50]
0	0xbdf837ea	-0.1212004
1	0x3d2453e6	0.040119074
2	0x3d5f23b5	0.054477412
3	0xbe4bff6d	-0.19921656
4	0xbe5a451d	-0.21315427
5	0x3ca9ab2f	0.02071151
6	0x3d938ed7	0.07204979
7	0xbdc20d8d	-0.09475241
8	0x3e28d413	0.1648715
9	0xbc48f12d	-0.012264532
10	0xbe104ca1	-0.14091732
11	0x3c31d140	0.010853112
12	0x3c72fc90	0.014830723
13	0x3dd89d64	0.10576895
14	0xbd55fc0f	-0.052242335
15	0xbbc65fa0	-0.00605388
16	0xbdc6d7d0	-0.09709132
17	0x3d4b2757	0.049598064
18	0xbda713fb	-0.08158108
19	0x3dc308c0	0.09523153
20	0xbba2e2e6	-0.004970896
21	0x3e057b51	0.13035323
22	0x3d1eebe1	0.03879917
23	0xbe02fc2c	-0.12791508
24	0xbd3b566d	-0.04573672
25	0xbc89a8ad	-0.016804064
26	0x3d0ddf17	0.034636583
27	0xbcaa486c	-0.020786487
28	0xbdf5a94f	-0.11995184
29	0xbcbea9e8	-0.023274377
30	0xbd987076	-0.07443325
31	0xbe6e1233	-0.2324913
32	0xbdb25e11	-0.08709348
33	0xbd0f6f40	-0.035018206
34	0x3d8ede6d	0.06976018
35	0x3d973fb6	0.07385199
36	0x3daf437d	0.08557794
37	0xbd3816cc	-0.044943616
38	0xbdd6d330	-0.104894996
39	0x3c3899ed	0.0112671675
40	0x3d1a5222	0.037675984
41	0xbdab54e7	-0.08365803
42	0x3dea1a4a	0.114307955
43	0xbdd6b2da	-0.10483332
44	0xbda3b5a5	-0.0799363
45	0xbcc9a0d1	-0.024612816
46	0x3cdebc3f	0.027189372
47	0xbd9c6a47	-0.07637458
48	0xbe114563	-0.14186625
49	0x3dafdf4a	0.08587511
50	0xbe337e3f	-0.17528628
51	0x3d6836aa	0.056692757
52	0xbd837db8	-0.06420463
53	0x3e02ec49	0.12785448
54	0x3d9c3b55	0.07628504
55	0x3dfda05a	0.123841
56	0xbe1fc120	-0.15601015
57	0xbdac431b	-0.08411237
58	0xbdfcb8a3	-0.12339904
59	0x3dcfff2b	0.10156091
60	0x3d86f02c	0.06588778
61	0xbe03d4db	-0.12874167
62	0xbe0ad44c	-0.13557547
63	0xbd46e2a2	-0.048555978
64	0xbdbe4f29	-0.09292442
65	0x3b3cfd2e	0.002883743
66	0x3c5238fc	0.012830969
67	0x3df1dbd3	0.11809506
68	0x3ccaa6d9	0.024737762
69	0x3d286940	0.041116
70	0xbe2332f2	-0.15937403
71	0xbc00c520	-0.007859498
72	0x3b9ab363	0.0047210916
73	0xbdb0ce4e	-0.086330995
74	0xbca3f32c	-0.020013414
75	0xbe226311	-0.15858103
76	0x3dbec180	0.09314251
77	0xbe416eee	-0.18889973
78	0xbe09c74e	-0.13454935
79	0x3dde9b09	0.10869414
80	0xbe510b46	-0.20414457
81	0x3c0aea0a	0.008478651
82	0xbd8d5d10	-0.06902516
83	0xbda9d7c1	-0.08293105
84	0xbe29d9eb	-0.16587035
85	0xbdd989be	-0.10621975
86	0xbd2e4b0d	-0.042552043
87	0x3dc23618	0.09482974
88	0x3e10cf38	0.14141548
89	0xbe069c0a	-0.13145462
90	0xbe0998e9	-0.13437237
91	0x3da9ffd0	0.083007455
92	0x3e41f96b	0.18942802
93	0xbcd764f7	-0.026293261
94	0xbd81bb45	-0.06334547
95	0x3e2e6ee0	0.17034483
96	0xbc8002e6	-0.015626382
97	0xbdeee3a7	-0.11664515
98	0x3d265ea5	0.040617604
99	0xbe04b47b	-0.12959473
100	0x3e09f350	0.13471723
101	0x3e0490c2	0.12945846
102	0xbd7ce917	-0.06174573
103	0x3e02d699	0.12777175
104	0x3d1e9d31	0.03872413
105	0xbe039ffb	-0.12853996
106	0x3c9dc324	0.01925809
107	0x3e0b9a12	0.13632992
108	0x3c3f463f	0.011674463
109	0xbc9d0ce3	-0.019171184
110	0xbd804164	-0.06262472
111	0xba8ec400	-0.0010892153
112	0x3d220c88	0.039562732
113	0x3c9a1c69	0.018812375
114	0x3d8cab7f	0.06868648
115	0xbd7649e9	-0.06012908
116	0x3e4dc9d5	0.20096524
117	0x3d7107a4	0.058845177
118	0x3d6a563a	0.05721114
119	0x3e33b2f2	0.17548731
120	0x3da64111	0.08117879
121	0x3d8497ff	0.064743035
122	0x3c8aa00d	0.016922021
123	0xbd72dc78	-0.059292287
124	0xbd6172ea	-0.05504123
125	0x3e0aa912	0.13541058
126	0xbd9a83ba	-0.07544656
127	0x3c059796	0.008153817
128	0x3e11637b	0.14198105
129	0xbda1c6cd	-0.07899246
130	0xbd05e76a	-0.032691397
131	0xbe7fb6cb	-0.24972074
132	0xbcccb05f	-0.024986444
133	0x3e0b6934	0.1361435
134	0x3d4ee0d1	0.05050737
135	0xbd012fa2	-0.031539567
136	0xbe0504d5	-0.12990125
137	0x3ce51dc8	0.027968302
138	0x3db7e937	0.08980029
139	0x3d63c773	0.05561013
140	0x3dcc1cfc	0.09966466
141	0x3dde86ee	0.108655795
142	0x3a8b7314	0.0010639154
143	0x3ca1ec07	0.019765867
144	0x3e126f6b	0.14300315
145	0x3e3c5a57	0.18393837
146	0x3e3d2747	0.18472014
147	0x3cba67b1	0.022754522
148	0xbd52b348	-0.051440507
149	0x3e15c819	0.14627112
150	0x3e095e8e	0.13414976
151	0xbcf5d0a7	-0.03000672
152	0x3d076156	0.03305181
153	0xbd29c349	-0.041446004
154	0x3d2690ef	0.040665563
155	0x3db81de1	0.08990074
156	0xbc993e0c	-0.018706344
157	0xbc33bb3e	-0.010969935
158	0x3e4a49a1	0.1975465
159	0xbdd487e2	-0.1037748
160	0x3ca84186	0.020539057
161	0xbcdef628	-0.027216986
162	0x3e0e3b2a	0.13889757
163	0x3d599587	0.053121116
164	0xbc7e89ed	-0.015535814
165	0x3dc9ed67	0.09859734
166	0xbcb70bb6	-0.022344451
167	0x3cf930e9	0.03041883
168	0xbce228d3	-0.027607357
169	0x3d51794b	0.051141065
170	0xbdf17b49	-0.11791093
171	0xbd1fcfc8	-0.039016515
172	0xbd8bd2de	-0.06827329
173	0x3d276289	0.040865455
174	0x3d548c10	0.051891387
175	0x3df5cc58	0.12001866
176	0x3c792d70	0.015208587
177	0xbc9d5206	-0.01920415
178	0x3c2ccbc5	0.010546629
179	0x3e0eb282	0.13935283
180	0xbd6eb1f7	-0.05827519
181	0x3dd4f14c	0.10397586
182	0xbd734219	-0.059389208
183	0x3d6e83e4	0.05823125
184	0x3e191b4a	0.14951816
185	0x3e3093dc	0.17243904
186	0xbd9b2a7f	-0.07576465
187	0xbe081530	-0.13289332
188	0xbc5fa652	-0.013650494
189	0xbe03ac3d	-0.12858672
190	0xbdfad384	-0.12247375
191	0xbdcf7570	-0.10129821
192	0x3db02c73	0.08602228
193	0xbdd3244d	-0.10309658
194	0x3deccffa	0.11563106
195	0x3d9fbacb	0.077993
196	0xbd9f699d	-0.07783816
197	0x3d0f3f1c	0.034972295
198	0x3d888425	0.066658296
199	0x3de83e93	0.1134006
200	0x3da6dd02	0.08147623
201	0x3dd2d509	0.102945395
202	0xbd9277bb	-0.07151743
203	0x3e0b4bad	0.13603087
204	0xbc701898	-0.014654301
205	0x3c373280	0.011181474
206	0x3ced23d3	0.028947746
207	0x3dcf63f5	0.10126487
208	0xbd49e003	-0.0492859
209	0xbd4a0789	-0.049323592
210	0x3bb339b9	0.0054695276
211	0xbdf22506	-0.11823468
212	0x3b9e6450	0.0048337355
213	0x3da22cfe	0.07918738
214	0x3c4daf45	0.012553995
215	0xbd194147	-0.03741577
216	0x3c473105	0.012157683
217	0xbd8ab3d5	-0.067725815
218	0x3c9140ae	0.017731037
219	0xbc838ea2	-0.016059224
220	0xbd863b21	-0.06554247
221	0x3de1e914	0.11030784
222	0xbe0f2ff3	-0.13983135
223	0x3cc9b6a0	0.024623215
224	0x3e006fbc	0.12542623
225	0x3c12cb12	0.008959549
226	0xbdd6ba0a	-0.10484703
227	0xbdac73b2	-0.08420505
228	0xbdafebe6	-0.08589916
229	0x3cee85cb	0.029116532
230	0x3d860cb0	0.06545389
231	0x3b94cba6	0.0045408783
232	0x3d85db97	0.06536024
233	0xbdba0ee8	-0.090848744
234	0x3c6e3654	0.01453932
235	0xbdbc6e02	-0.0920067
236	0xbe077d88	-0.1323148
237	0x3e018a4f	0.12650417
238	0x3e1929dd	0.14957376
239	0xbc5e512a	-0.013569156
240	0xbca3e969	-0.02000876
241	0x3e435744	0.19076258
242	0x3d357487	0.044300582
243	0x3e09f3c3	0.13471894
244	0x3ddc8148	0.10766846
245	0x3e0046d4	0.12527019
246	0xbcb47b01	-0.02203131
247	0xbdd608f4	-0.104509264
248	0xbc884c17	-0.016637845
249	0x3e093bb5	0.13401683
250	0xbe12df65	-0.14343031
251	0xbcbbb474	-0.022913195
252	0xbb4aa1f2	-0.003091928
253	0xbc405089	-0.011737951
254	0x3dbf243d	0.09333084
255	0x3d1c0714	0.038092688

stacks.0.blocks.0.theta_layer.bias f4 [36]
0	0x3d77970a	0.060446776
1	0x3ded61eb	0.11590942
2	0x3e32a178	0.17444408
3	0x3dc3b4a1	0.095559366
4	0x3d864e0a	0.065578535
5	0xbdd22431	-0.10260809
6	0xbd0fbda5	-0.03509297
7	0x3ccc67b7	0.024951799
8	0xbccee9b5	-0.025257925
9	0xbc233565	-0.009961461
10	0x3d7e3f92	0.062072344
11	0xbb661485	-0.0035107445
12	0xbc3e8a15	-0.011629601
13	0x3e070088	0.13183796
14	0x3bff2b90	0.0077871755
15	0x3d24f840	0.040275812
16	0x3dab8560	0.08375049
17	0x3e1b8556	0.15187582
18	0x3e15c507	0.14625941
19	0xbdc1a7f9	-0.09455866
20	0xbcfe7db1	-0.031065794
21	0x3d894cfb	0.06704136
22	0xbce70c27	-0.028204037
23	0xbd546a36	-0.051859103
24	0xbdea43bb	-0.114387
25	0xbde534e8	-0.11191732
26	0x3cb18481	0.021669628
27	0xbda6ea1f	-0.08150124
28	0x3d3786d4	0.044806316
29	0xbdb0bc1a	-0.086296275
30	0xbdcecbcf	-0.10097467
31	0xbcf1eef9	-0.029532896
32	0x3d12ec3e	0.03586983
33	0x3d69f382	0.057116993
34	0x3d130b44	0.035899416
35	0x3df52674	0.11970225

stacks.0.blocks.1.fc1.weight f4 [50, 35]
0	0xbde7230a	-0.1128598
1	0xbdebfa75	-0.1152238
2	0x3bd41b23	0.0064729615
3	0xbd0f19af	-0.034936603
4	0x3d379cf7	0.044827428
5	0xbde8bf13	-0.113645695
6	0x3d0e7e70	0.03478855
7	0x3c8aeeef	0.016959636
8	0x3cfcd14a	0.030861516
9	0xbb3431da	-0.0027495534
10	0xbdd74f39	-0.105131574
11	0x3db0dd94	0.08636013
12	0x3de57cb4	0.11205426
13	0xbe01fe80	-0.1269474
14	0xbdbc81e1	-0.0920446
15	0x3da9138a	0.0825568
16	0x3dd35241	0.10318423
17	0xbe36ecda	-0.17863789
18	0x3ded560d	0.115886785
19	0xbe0c8c88	-0.13725483
20	0xbcd3906d	-0.025825704
21	0x3c885992	0.016644273
22	0x3e034c30	0.12822032
23	0xbe15a880	-0.14615059
24	0xbdc93ae2	-0.09825684
25	0x3df16f05	0.117887534
26	0x3db967d5	0.090530075
27	0x3e7b6979	0.24551953
28	0xbe08887d	-0.13333316
29	0xbd1b0f71	-0.037856523
30	0xbda20185	-0.07910446
31	0xbe7b3de8	-0.24535334
32	0xbe0256a7	-0.12728368
33	0x3dad0022	0.08447291
34	0xbd9739a7	-0.07384043
35	0xbe255486	-0.16145524
36	0xbe02565b	-0.12728254
37	0x3e29d761	0.16586067
38	0x3e0254ce	0.12727663
39	0x3da2f84e	0.079575166
40	0xbdf5b3f6	-0.119972154
41	0xbdcd5eee	-0.10027872
42	0x3d9cfdc4	0.076655895
43	0xbdb13410	-0.08652508
44	0x3da6befc	0.08141896
45	0x3d9f6c83	0.07784369
46	0xbda7fd6c	-0.08202633
47	0x3db6547f	0.08902835
48	0xbbfc2096	-0.0076943142
49	0x3dcf1739	0.10111851
50	0xbdf2fe4b	-0.11864909
51	0x3d14a7a2	0.03629268
52	0x3d94b2bb	0.07260653
53	0x3d92e633	0.07172813
54	0xbce9fe7f	-0.028563736
55	0x3e16bc75	0.14720328
56	0xbdbe5e46	-0.09295325
57	0x3e0fdd50	0.14049268
58	0xbcf93f84	-0.030425794
59	0x3e03b9e7	0.12863885
60	0x3e1974fa	0.1498603
61	0xbd82681a	-0.06367512
62	0xbe0d3625	-0.13790186
63	0xbd90b924	-0.07066563
64	0x3e156b3d	0.1459169
65	0x3dd2f4fd	0.10300634
66	0xbe8a7953	-0.27045688
67	0xbdcf309b	-0.10116693
68	0x3dce1495	0.100625195
69	0xbe1b6c72	-0.15178087
70	0xbdda6a20	-0.10664773
71	0x3cb971fa	0.022637356
72	0x3e025726	0.12728557
73	0x3c685853	0.014181214
74	0xbe22634e	-0.15858194
75	0xbd4793cd	-0.04872494
76	0xbe12355f	-0.14278172
77	0xbd8e9938	-0.06962818
78	0xbdae9c43	-0.08525898
79	0x3ded057a	0.1157331
80	0x3ddec070	0.10876548
81	0x3d3e6122	0.04647935
82	0x3e04c9c2	0.1296759
83	0x3e0ed8dd	0.13949914
84	0xbc7170de	-0.014736382
85	0xbdab57ed	-0.0836638
86	0x3ddc1d83	0.107478164
87	0xbe26cff9	-0.16290273
88	0x3db8182f	0.08988988
89	0x3e150c15	0.1455539
90	0xbdab62ad	-0.0836843
91	0x3e0fed93	0.14055471
92	0x3de70dd5	0.11281935
93	0xbd1887d4	-0.03723891
94	0xbc05eba1	-0.008173854
95	0x3b4d03fc	0.0031282892
96	0xbe2e61c3	-0.1702948
97	0xbb20ef4a	-0.002455669
98	0xbdf9f592	-0.12205042
99	0xbb5d1bb3	-0.0033738434
100	0x3d921525	0.07132939
101	0x3e289e68	0.16466677
102	0xbe2f600c	-0.17126483
103	0xbd604642	-0.054754503
104	0x3d9c2964	0.07625082
105	0xbdd30120	-0.10302949
106	0x3e213a00	0.15744781
107	0x3ddab57c	0.10679147
108	0xbdbbea7d	-0.091755845
109	0xbd45b8b1	-0.04827184
110	0xbceed5b4	-0.029154636
111	0xbbca964e	-0.0061824685
112	0x3e316713	0.17324476
113	0xbe3970c0	-0.18109417
114	0xbe179dd8	-0.14806306
115	0x3da70ef1	0.08157147
116	0xbe3a3acd	-0.18186493
117	0xbcd91b45	-0.026502261
118	0x3dd6a055	0.104798
119	0xbc24a62c	-0.010049384
120	0xbe0588c6	-0.13040456
121	0x3dccf25a	0.100071624
122	0xbcbf0321	-0.023316922
123	0xbd11eeb8	-0.03562805
124	0x3d8cc8dc	0.068742484
125	0xbda7d422	-0.08194758
126	0x3db25860	0.087082624
127	0x3cad3a66	0.02114601
128	0xbe05bdf3	-0.13060741
129	0xbd72289f	-0.05912077
130	0x3d07b8d1	0.03313524
131	0x3c609d0b	0.013709317
132	0xbc43015f	-0.011902182
133	0x3e0e09ee	0.13870975
134	0x3d9eace2	0.077478185
135	0x3d05cbed	0.032665182
136	0xbe08125c	-0.13288254
137	0x3e29af11	0.16570689
138	0xbd86f2d1	-0.06589282
139	0xbd971c49	-0.07378442
140	0xbcabbf7a	-0.020965327
141	0xbce09613	-0.027415311
142	0x3df87ae2	0.12132813
143	0x3ded46c3	0.11585762
144	0xbd33687a	-0.04380081
145	0x3ce9b67b	0.028529396
146	0x3c057f78	0.008148067
147	0xbce83245	-0.028344283
148	0xbe2f622c	-0.17127293
149	0xbcbbaa61	-0.022908391
150	0xbdf5062e	-0.11964069
151	0x3e27dad0	0.16392064
152	0x3dba34bd	0.0909209
153	0x3d078461	0.03308523
154	0x3d84bf9a	0.064818576
155	0xbe16b9f2	-0.1471937
156	0xbc810075	-0.015747288
157	0x3c123b17	0.008925221
158	0x3d9608ad	0.073258735
159	0x3d0b14c5	0.033955354
160	0xbde2c0e5	-0.11071948
161	0xbdb30f23	-0.087431215
162	0x3e04af01	0.12957384
163	0x3df36532	0.11884536
164	0xbe255eea	-0.16149488
165	0x3d2595fb	0.040426236
166	0xbd4465f8	-0.047948807
167	0xbd91db4a	-0.07121904
168	0x3d8758ff	0.066087715
169	0x3d4b3f08	0.04962066
170	0x3cdcf891	0.026973994
171	0x3db2ba89	0.08726985
172	0x3c84ddb0	0.01621899
173	0xbd90a795	-0.07063214
174	0xbd889bb4	-0.06670323
175	0x3d272c1a	0.040813543
176	0x3d377542	0.04478956
177	0xbcc0e6c3	-0.023547536
178	0xbd70ecc8	-0.058819562
179	0x3d530b06	0.051524185
180	0xbdc96114	-0.09832969
181	0xbd90555a	-0.070475295
182	0xbdff73ae	-0.12473236
183	0xbd151536	-0.03639718
184	0x3e0ea7b6	0.13931164
185	0x3ccb13fc	0.024789803
186	0x3d4eb265	0.0504631
187	0xbe09bd84	-0.134512
188	0x3d24fe4f	0.04028159
189	0x3cf44ee3	0.029822772
190	0x3e386fda	0.18011418
191	0xbd9db41e	-0.0770037
192	0x3dafaafd	0.08577535
193	0xbde356de	-0.11100553
194	0xbdf8e8f5	-0.12153808
195	0xbe0cfbef	-0.1376798
196	0xbce90ae4	-0.028447576
197	0x3b99ded8	0.0046957545
198	0x3ab80348	0.0014039064
199	0x3d3bf34e	0.04588633
200	0xbe183402	-0.1486359
201	0x3cee7b25	0.029111454
202	0xbdfd10b3	-0.12356701
203	0x3d10633e	0.035250895
204	0x3d6f4ebf	0.058424708
205	0x3dc22529	0.09479744
206	0x3d0c5b00	0.034266472
207	0x3d9ec751	0.0775286
208	0xbdc7aaad	-0.09749351
209	0x3d591d7e	0.05300664
210	0xbdfdfaac	-0.124013275
211	0x3d6c3732	0.057669826
212	0x3d27b510	0.04094416
213	0xbc121319	-0.008915686
214	0xbcb10ee7	-0.021613551
215	0x3c6853a7	0.0141801005
216	0xba3419c2	-0.00068702933
217	0xbe256b0b	-0.16154115
218	0x3dd284b9	0.10279221
219	0x3d8bf077	0.068329744
220	0x3d4464be	0.047947638
221	0x3dee3446	0.11631064
222	0xbd88e530	-0.06684339
223	0xbc5ae841	-0.013361038
224	0x3d50fecf	0.051024254
225	0x3e0cd251	0.13752104
226	0xbe07b4f6	-0.13252625
227	0x3e1d871e	0.15383574
228	0x3c5af8f7	0.013365022
229	0xbd156465	-0.036472697
230	0xbd43e339	-0.04782412
231	0xbb4d118d	-0.0031290979
232	0x3d913996	0.07091062
233	0xbe52ec74	-0.20598012
234	0x3c3084d1	0.010773853
235	0xbe227b11	-0.15867259
236	0xbe2674b0	-0.1625545
237	0xbe134deb	-0.14385192
238	0x3daca47f	0.08429813
239	0x3cabee48	0.020987645
240	0x3e16354f	0.14668773
241	0x3e236710	0.15957284
242	0x3d07616a	0.033051886
243	0x3e094a2c	0.134072
244	0xbdf6983a	-0.12040754
245	0xbdcf55c2	-0.10123779
246	0xbd8476f2	-0.064679995
247	0x3d80a36f	0.062811725
248	0xba9e3e9b	-0.0012073101
249	0x3ae5b6b1	0.001752576
250	0x3e029e66	0.12755737
251	0x3d07b799	0.033134077
252	0xbdec6ad3	-0.115438126
253	0x3dc6def3	0.09710493
254	0x3e0fbd91	0.14037158
255	0x3df731ea	0.12070067

stacks.0.blocks.1.fc1.bias f4 [50]
0	0x3dcf65b4	0.1012682
1	0xbc7c8036	-0.015411427
2	0x3df8bf98	0.121459186
3	0xbe8e6c64	-0.2781707
4	0xbe04fe11	-0.12987544
5	0x3dc180b9	0.0944838
6	0x3d651078	0.05592391
7	0xbdfd0d1b	-0.12356015
8	0x3d4b2627	0.04959693
9	0x3cbce83c	0.023059957
10	0x3cf060f8	0.029343113
11	0xbcf1b586	-0.029505502
12	0xbd2198fc	-0.039452538
13	0x3d978af1	0.07399548
14	0x3dd8779e	0.1056969
15	0xbdd20b25	-0.10256032
16	0x3e05a1c3	0.13049988
17	0x3cf2738f	0.029596118
18	0xbd8f76b6	-0.07005064
19	0xbd353a9b	-0.044245344
20	0xbdad2acd	-0.08455429
21	0x3d55820d	0.05212598
22	0xbcfed57d	-0.031107659
23	0xbdf25a42	-0.118336216
24	0x3cb7f568	0.022455886
25	0xbded4273	-0.1158494
26	0xbe2a501b	-0.1663212
27	0x3e3cf08c	0.18451136
28	0xbe6ad7e5	-0.2293392
29	0x3d37f39a	0.04491005
30	0xbe34c6f4	-0.1765402
31	0x3cba163b	0.022715678
32	0x3c9c2606	0.0190611
33	0xba87a4be	-0.001034878
34	0xbc15956c	-0.009129863
35	0xbdbc07de	-0.09181188
36	0xbc31b7b5	-0.010847022
37	0xbe69cb71	-0.22831513
38	0x3dc98b06	0.0984097
39	0x3e05ecba	0.13078585
40	0x3c1d9275	0.009617438
41	0xbda3d97e	-0.08000468
42	0x3d955ce3	0.07293107
43	0x3d11ed5c	0.035626754
44	0x3dcb3024	0.099212915
45	0x3e0ed941	0.13950063
46	0xbdb68205	-0.08911518
47	0xbc42184c	-0.011846613
48	0xbcfac387	-0.030610813
49	0x3e174602	0.147728
