RNN_models/close_slope_25_2_raw_t4.pth (torch, 16388 bytes, 5 tensors)

weight_ih_l0 f4 [50, 11]
000000 89 64 c1 bd dc cb 0e be a5 03 b3 3c 3e ae 8a bd
       -0.09443004 -0.13944954 0.021852324 -0.06771515
000010 9e d9 94 3d 7c fe 7c 3c e9 ca 90 bd 79 29 91 3d
       0.0726807 0.015441533 -0.07069952 0.070879884
000020 bb 24 25 be 07 18 cf bd c7 b6 98 3c db 29 3a 3d
       -0.16127293 -0.10112005 0.018641843 0.045450073
000030 59 a5 59 3d e9 9a 05 be c1 2a ec 3b 87 92 48 3d
       0.053136203 -0.13047375 0.007207245 0.048967864
000040 30 d1 c4 3c bc de 48 3d 83 02 95 bd 5a 2e 1f 3d
       0.02402553 0.04904054 -0.0727587 0.038862564
000050 ab cf 2d 3e 5e 6f ad 3d 9e da 2c 3d 65 95 0e 3e
       0.1697375 0.08468507 0.042200677 0.13924177
000060 b8 43 52 3c 18 9b c0 3a 62 be 09 be 77 69 da 3d
       0.012833528 0.0014694659 -0.13451532 0.10664647
000070 ab cb 6f 3d 45 aa d9 3d b9 0a 0c bd 01 6e b0 bd
       0.058543842 0.106281795 -0.034189913 -0.086147316
000080 e1 69 0d 3e b0 3e 2a bd 8b 6d 26 3e 07 5b 00 bb
       0.13809921 -0.04156369 0.16252725 -0.0019585507
000090 1a 90 1b be 13 d3 94 bd 53 6e 5a bd 06 51 d6 3d
       -0.15191689 -0.07266822 -0.05332787 0.10464673
0000a0 e6 de 26 3e 22 d9 22 3d 48 65 ff 3d 51 16 9e 3e
       0.16295967 0.039757855 0.1247049 0.308764
0000b0 ba ad c2 3d 49 bf 5b bd f7 5f 82 bd cb 7a 1e 3d
       0.09505792 -0.05364922 -0.0636596 0.038691323
0000c0 cf 5f cc 3d 7e 6e b2 3d 34 65 cf bd 88 e9 01 be
       0.099792115 0.08712481 -0.10126725 -0.12686741
0000d0 21 30 0c 3d c2 f4 49 bd cf 2c 35 3d cc 94 50 bc
       0.034225587 -0.049305685 0.044232186 -0.012730788
0000e0 eb 07 3d 3e 4a 45 cd 3b e7 8e c6 bd b6 3f 97 bd
       0.18460052 0.0062643634 -0.09695225 -0.07385199
0000f0 9e cd c4 bc b9 59 a1 bc b6 63 36 be aa 59 10 be
       -0.024023827 -0.019696103 -0.17811474 -0.14096704
000100 99 c6 c4 bd a4 b7 0e 3e 79 e3 46 3e 8f 15 48 bd
       -0.09608192 0.13937241 0.19422711 -0.048848685
000110 fc 1e 23 3e b1 b4 99 3d 51 7f a4 bd a0 c0 d6 bd
       0.15929788 0.07505167 -0.08032096 -0.10485959
000120 ae 48 17 be aa 17 c6 bd 79 81 e6 bb e7 22 2e be
       -0.14773819 -0.09672482 -0.0070344773 -0.17005502
000130 54 61 ca 3c c1 89 18 3d 3f 2b 68 3d 04 2d db bb
       0.024704613 0.037240747 0.056681868 -0.006688716
000140 2f 17 11 bc 12 44 0a 3b 76 8d 0c be 52 4a e6 bd
       -0.008855625 0.0021097702 -0.13725838 -0.11244644
000150 35 a0 87 bd 38 47 04 be a5 de 32 be bb 85 71 3c
       -0.06622354 -0.12917793 -0.17467745 0.0147413565
000160 e5 f4 da bc 81 dc e8 bd 36 4a c2 3d b9 85 db 3d
       -0.026728103 -0.11370183 0.09486811 0.10718865
000170 64 67 90 bd ff ca 1d 3c e9 63 d0 3d c7 5e e3 bd
       -0.0705097 0.009630918 0.10175306 -0.11102062
000180 28 b6 00 be f0 1f 28 be ca 39 12 be 18 01 de 3d
       -0.12569487 -0.16418433 -0.14279857 0.10840052
000190 b4 c9 d7 bd 47 b6 e0 3d 0a f3 a9 bd 3c 76 eb 39
       -0.10536519 0.10972267 -0.08298309 0.00044910784
0001a0 0a 07 b4 3c 71 97 04 3d 85 15 be bb 60 6f fa 3c
       0.021976013 0.03237099 -0.005800905 0.030570686
0001b0 6a 22 fa bd 67 22 b5 bd fb b9 dc bd 3c 15 c7 bd
       -0.12213595 -0.08844452 -0.107776605 -0.09720847
0001c0 28 de 49 3d f0 42 cd bb af d0 00 3e 6e 7d be 3b
       0.04928413 -0.006264083 0.12579606 0.005813292
0001d0 5b 44 1c bc a3 30 b0 bd 51 e3 9b 3d 4f f9 2e 3d
       -0.009537782 -0.08603027 0.076117165 0.042718228
0001e0 c6 2c 93 bd 5d 97 06 3e 46 96 f5 bd e7 88 a9 3d
       -0.07186274 0.13143678 -0.11991553 0.08278065
0001f0 8c dd 33 bc a1 fc ae 3d 27 24 71 3d de 20 0a 3e
       -0.010978114 0.08544279 0.05887237 0.134891
000200 ee fa 0a be b6 a1 0a bd 22 77 8a bd 90 ab 1a be
       -0.13572285 -0.033845626 -0.06761004 -0.15104508
000210 7e 5f 25 be d8 60 25 3d 32 94 c0 bd 1d 55 97 3d
       -0.16149709 0.04037556 -0.09403266 0.07389281
000220 08 e8 a7 3c 28 2d 25 3d 84 31 1e 3c 01 86 17 be
       0.020496383 0.040326267 0.00965536 -0.14797212
000230 27 88 33 be 2f e2 3b 39 02 6d ba bd a5 93 90 3b
       -0.17532407 0.0001791797 -0.09102823 0.004412132
000240 f4 4f 46 3c f7 0e b8 bc ed b8 ec bb 47 4a e1 bc
       0.012104023 -0.022468073 -0.0072241933 -0.027501239
000250 c9 52 9f bc 88 72 9c 3d f4 96 5d be 77 76 58 3d
       -0.019448655 0.076390326 -0.21639615 0.052847352
000260 80 c3 47 3d 0f b9 c7 3d f1 4b 56 3d 59 49 0b 3e
       0.048770428 0.09752094 0.052318517 0.13602199
000270 4c df 1b 3e 1a 95 4c 3d 2e 0e 98 3d e1 44 21 bd
       0.152219 0.04994688 0.074245796 -0.03937233
000280 1d 7b 1c 3e 3e 84 56 3e c7 74 ea 3d cb 4a 84 bd
       0.15281339 0.20948884 0.11448055 -0.06459578
000290 85 f2 65 3d ea 63 85 3d 8c 6f a5 3d 75 57 70 bd
       0.056139488 0.06513198 0.080779165 -0.058677156
0002a0 1e db ec bd b1 7a a7 3d 51 bb 54 bd cc 1f aa 3d
       -0.11565231 0.081776984 -0.05193645 0.08306846
0002b0 45 ae 76 be 47 81 16 be a3 9b 63 3d 3a 83 bf 3d
       -0.24089916 -0.14697753 0.05556835 0.09351201
0002c0 76 46 19 3e 38 6c 34 3d 6b 94 85 bd 17 aa d6 bd
       0.14968285 0.044048518 -0.06522449 -0.10481661
0002d0 c0 c7 a9 3c 59 a5 ad 3d 5f e8 b0 bd d8 40 63 3d
       0.020725131 0.08478803 -0.08638071 0.05548176
0002e0 ff f4 76 3a 60 29 16 bd b3 23 28 bd 00 4e 80 bc
       0.00094206625 -0.036660552 -0.04104967 -0.015662193
0002f0 bc 30 b4 bc e1 36 cb bc 39 d1 b3 bd 5c b5 00 bd
       -0.021995895 -0.024806442 -0.087801404 -0.031422958
000300 13 37 ab 3c 99 48 93 bd 4c 30 a1 3d d4 6a c8 3d
       0.020900285 -0.07191581 0.0787054 0.09786001
000310 90 59 d7 bd 2f 13 b5 bd e2 3e df 3d ab c6 03 3b
       -0.105151296 -0.088415496 0.10900666 0.002010743
000320 20 5f ab 3d 14 fb 0b 3e d0 b3 13 3e ce 46 b1 bc
       0.08367753 0.13669997 0.14424062 -0.021640208
000330 8a 5a eb bd 20 82 2f 3d 8b b6 d1 bd f3 80 54 bd
       -0.11491878 0.042848706 -0.102398954 -0.051880788
000340 b6 4f a0 bb 78 0c 30 be 4d 2d 39 bd 21 2e 90 3d
       -0.004892315 -0.17192256 -0.045209218 0.070400484
000350 90 55 c1 bd 1c 1d 92 3d 25 8b f6 3c 07 99 f7 3d
       -0.09440148 0.071344584 0.030095646 0.120897345
000360 e8 f1 5f bd af 73 57 bd 2c e6 e4 bc f0 6c 0f 3e
       -0.05467406 -0.05260056 -0.027941786 0.140064
000370 f2 5c b0 3d fa 62 c7 bd 98 23 72 bd 9d 82 06 3d
       0.08611478 -0.09735675 -0.059115976 0.032839406
000380 67 3e fe b9 7e e3 cc 3d 8b fa 07 be 97 d6 50 3e
       -0.0004849315 0.10004328 -0.13279168 0.2039436
000390 00 28 72 bd 9e 3e b5 3d b6 84 07 3e 3a 65 c1 bc
       -0.05912018 0.08849834 0.13234219 -0.023607839
0003a0 0f 3a b1 bd d9 b9 09 3d 76 cd 23 3d 97 10 03 bd
       -0.08653652 0.033624504 0.039990865 -0.031998243
0003b0 99 4d 1a 3e 4a 6d b2 3d d4 92 be bd c8 ba f2 bc
       0.15068664 0.087122515 -0.09305349 -0.02963008
0003c0 87 d2 85 3d 70 b5 ba bc 51 3a 30 3d 27 aa 09 3e
       0.065342955 -0.022791594 0.043024365 0.13443814
0003d0 40 db cf 3d 83 29 0e 3e 33 2b 55 3d f0 38 69 3d
       0.101492405 0.13883023 0.05204315 0.056939065
0003e0 40 de c1 3d 77 2e f9 3d 7f 9b 95 bc 71 0a d6 3d
       0.09466219 0.121670656 -0.018262623 0.1045121
0003f0 e4 a7 20 3e 6c 23 17 3d db a8 b6 3d ef b4 2c 3d
       0.15689045 0.036899015 0.089189254 0.04216474

weight_hh_l0 f4 [50, 50]
000000 9e 29 d3 bc 8b 4f 7e bd cd 62 15 3e 4f b8 0a 3e
       -0.02577668 -0.062087577 0.14588471 0.1354687
000010 1f a0 4c 3d f1 c8 2e bd 33 62 49 3d 34 d8 3c 3c
       0.04995739 -0.0426721 0.049165916 0.011526156
000020 c3 1f fe bc 4e 23 a8 3d 89 e9 c2 bd 7b 31 ff 3d
       -0.031021005 0.08209859 -0.095171995 0.124606095
000030 64 e9 15 bd 44 53 71 bd 3f 6a 91 3d 7a 7e e0 3d
       -0.03659953 -0.0589173 0.07100343 0.109616235
000040 b7 aa 4b 3d 33 f0 85 3d d5 27 31 bc ad 06 39 3e
       0.049723353 0.06539955 -0.010812719 0.18068953
000050 fb b5 be 3d 1e 97 dd 3d d2 35 51 3d dd 50 84 bd
       0.09312054 0.10819839 0.051076718 -0.06460736
000060 2a 84 a8 3c db 22 0b be 25 2b ea bd 0f 9c e7 3c
       0.020570833 -0.13587515 -0.114340104 0.028272657
000070 b0 59 e5 3d 85 7a bf 3d 8f 8f d1 3d 84 be 4d 3d
       0.11198747 0.093495406 0.1023246 0.050230518
000080 90 61 91 3c 15 c1 0c bd 1b 8c d7 3c 7a d3 d4 bd
       0.017746717 -0.034363825 0.026311925 -0.103918985
000090 cf 20 12 bd af 80 1f 3d 02 83 8a 3d 7e 64 6f 3c
       -0.03567582 0.03894108 0.06763269 0.014611362
0000a0 fc e9 06 3e bb 79 ea bd a9 a7 02 be 59 57 92 bc
       0.13175195 -0.114489995 -0.1275927 -0.017863916
0000b0 53 4a 49 3d 89 02 cd bd 6f 54 ef bc 46 9f a4 3d
       0.049143147 -0.10010249 -0.029215066 0.080381915
0000c0 49 d2 9e 3d ae 09 1f 3d db 59 0c 3e e2 a0 a2 bc
       0.077549525 0.03882759 0.13706152 -0.019852106
0000d0 da c5 c3 bd 55 fb 1c bb 17 a8 4b 3c f7 0a df 3d
       -0.095592216 -0.0023953517 0.012430212 0.10890763
0000e0 56 22 58 3e 71 34 e1 3d 39 5f 24 bd a1 ee 91 3c
       0.21106848 0.109963305 -0.040129874 0.017813982
0000f0 25 b9 0b 3d 32 d9 06 be f8 e2 70 bd 94 df 19 3e
       0.034112114 -0.13168791 -0.058810204 0.15026695
000100 ed 74 74 3d 14 ac 21 3e d8 51 50 3d 27 95 3c ba
       0.05968182 0.15788299 0.050859302 -0.0007193856
000110 74 6b eb bd 9a 3b e1 3d 9c 47 a5 bd 40 03 26 3b
       -0.114951044 0.10997696 -0.08070299 0.0025331527
000120 c6 2d 9b 3d e0 90 03 be fa 86 18 3c d6 19 e1 3d
       0.0757709 -0.12848234 0.009309525 0.10991256
000130 73 1f c8 3d 95 f4 de bd 67 91 05 3e e5 07 01 3d
       0.097716235 -0.10886494 0.13043748 0.03150167
000140 55 1c a2 3d 32 23 2f bc 35 d3 d8 3c a9 f5 87 bd
       0.0791556 -0.010689544 0.026467899 -0.06638653
000150 1e 9e 62 bd 62 ba 90 bd 0d a1 8a bd ca 1e 2d be
       -0.055326574 -0.070668 -0.06768999 -0.16906276
000160 f1 40 70 bd dc b4 07 be 9d 8d 41 bd 29 cc fd 3d
       -0.058655683 -0.13252586 -0.047254194 0.12392456
000170 d4 20 0b 3e e9 e7 e1 bd a4 ed 46 bd 16 b7 9c 3d
       0.13586742 -0.110305615 -0.048566476 0.07652108
000180 ce 27 e5 bb 73 ce 38 bd fb 70 9e 3d e7 af 31 3e
       -0.0069932705 -0.04511876 0.07736393 0.17352258
000190 ef 93 17 bd bd a9 b7 bd 72 9b 6f bc 3e 69 27 bd
       -0.037006315 -0.08967922 -0.014624463 -0.04087185
0001a0 24 3d b5 bd 57 d5 5b bc 85 be dd bd 2d 20 15 3e
       -0.08849552 -0.013417563 -0.10827354 0.14563055
0001b0 b1 78 95 bd f3 e5 08 be 1b 5f 1f be 6f f1 da bc
       -0.07298411 -0.13368969 -0.15563624 -0.026726453
0001c0 c8 04 12 3e 42 99 04 3b fb 03 88 3c fa 2b ac 3c
       0.14259636 0.002023295 0.01660346 0.021017063
0001d0 32 3d a5 3d e4 18 d5 3d c0 b5 79 bd 0f 5b ce 3c
       0.08068313 0.10405138 -0.060964346 0.025189904
0001e0 ab dc 27 be fe 9d 76 3c 80 28 ab 3d 12 69 29 3d
       -0.16392772 0.015052317 0.08357334 0.04135997
0001f0 d7 39 11 bd 04 5b f7 3d a3 0d 26 3c 42 ac fd bc
       -0.03545555 0.12077907 0.010135087 -0.030965928
000200 e0 0c df bd 07 cb e7 bd bf 69 40 bc 83 3a 77 bd
       -0.108911276 -0.11318021 -0.011743962 -0.060358535
000210 15 32 c0 bd f3 95 d3 bd 6c 59 1e be ea 72 dd 3c
       -0.093845524 -0.10331335 -0.15463799 0.027032334
000220 af 73 c0 bd db 57 0c be 05 09 93 3d d6 f2 b7 3d
       -0.09397065 -0.13705389 0.07179455 0.08981864
000230 da 1b 02 3e 87 54 96 bd 88 af a5 bd 32 d6 23 bd
       0.12705937 -0.07340341 -0.080901206 -0.039999194
000240 2b 0d af bd df aa e1 bd 25 84 2c 3b 9e ee 13 3e
       -0.085474335 -0.11018919 0.0026323881 0.14446494
000250 d8 b5 a9 bd 01 46 4e 3d 86 f0 cc 3d 17 b8 af 3c
       -0.08286637 0.05035973 0.10006814 0.021450086
000260 e0 a4 84 3c 93 bf dd 3d e4 fc 21 3d 02 b9 00 be
       0.0161919 0.108275555 0.039547816 -0.12570575
000270 92 d4 c9 bd 9e 77 60 3d 97 b2 d4 ba c6 1d ef 3d
       -0.09854998 0.054801576 -0.001622754 0.11675601
000280 ce 04 f5 bc 03 49 9f 3d 50 98 27 3e 1c 96 19 3d
       -0.029909518 0.07777598 0.16366696 0.03749667
000290 56 06 06 be 83 03 04 3e 1d 00 0d 3e 52 0f 5b bd
       -0.13088354 0.12891965 0.13769574 -0.053481407
0002a0 81 6f e9 bc 6f 9b 12 bd 15 71 ab 3d eb 97 c7 bd
       -0.028495552 -0.035792764 0.08371178 -0.09745773
0002b0 d3 6c 78 bd e6 2c e8 bd 1a 0b 22 be ed 4f 4f 3d
       -0.060650658 -0.11336689 -0.15824547 0.050613333
0002c0 1c a0 cb bc 17 89 d9 bd 4b da 16 3d 20 c8 fb bd
       -0.02485662 -0.10621851 0.036829274 -0.1229403
0002d0 96 26 a8 3d af f0 51 3d bc 2c 7a 3c 81 36 3b bd
       0.08210485 0.051254924 0.015269455 -0.045706276
0002e0 fb 7b 42 3d 23 67 04 3e 35 24 da bd ce 67 97 bd
       0.04748152 0.12929969 -0.10651437 -0.07392846
0002f0 39 47 79 3d 24 19 15 3e c2 7e df 3c bc 09 b6 3d
       0.06085894 0.14560372 0.027282123 0.088885754
000300 8a ee a1 bd 05 33 81 3d 05 89 87 be b5 0d e2 bd
       -0.07906826 0.06308559 -0.26471725 -0.11037771
000310 28 51 90 bb 77 c7 e8 bd 6a 3b f4 bc 4e 2b 21 3e
       -0.004404206 -0.1136617 -0.029813487 0.15739176
000320 b4 aa ec bd 71 0c fd 3d 12 89 56 3d 9d 41 07 be
       -0.115559965 0.12355889 0.052376814 -0.13208623
000330 62 09 a9 3d 6e dc 11 3d 01 c5 c0 3c 25 31 50 3d
       0.08253743 0.03561061 0.023531439 0.050828118
000340 3d 85 06 be aa 67 82 3d 8c 34 9d bd 8d 6f 48 bd
       -0.13136764 0.063674286 -0.07676038 -0.048934508
000350 21 94 83 bc b8 91 90 bd 38 e2 af bd 6f d9 d2 3d
       -0.016061844 -0.07059044 -0.0858807 0.102953784
000360 c8 cf 7c 3d d2 4e 41 3d f3 d6 c4 3d 15 62 28 bd
       0.061721593 0.04719431 0.09611311 -0.041109163
000370 20 0b 9e bd 12 ee 8d 3d 1e 27 b1 bd 75 cc cb bd
       -0.07716966 0.06930174 -0.08650039 -0.099511065
000380 e5 f6 2d 3c ae 58 3d bd f9 85 19 3e c8 e7 77 bd
       0.010617946 -0.04622715 0.14992513 -0.06052378
000390 b4 b1 c1 bd 79 b3 99 3d 14 a5 95 3d 93 25 9b bd
       -0.09457722 0.07504935 0.07306877 -0.07575526
0003a0 b1 66 d6 bc 12 fd 4d be 24 11 de bd a2 75 1c 3e
       -0.026172014 -0.2011607 -0.10843113 0.15279248
0003b0 32 6b 30 3d 48 ae e8 3d cf 0e 0a 3d b8 35 4e bd
       0.04307098 0.113613665 0.03370553 -0.0503442
0003c0 78 2c 0e 3e 6b 25 3f 3d 5f 83 00 3d 69 12 0b be
       0.13884151 0.046666544 0.031375285 -0.13581242
0003d0 1f d2 20 bc 4f 23 1b 3d 96 0d ac bd 1c ea 00 3b
       -0.009815722 0.03787547 -0.08401029 0.001967079
0003e0 e7 1d 35 3b de 4c 52 3d a4 02 08 3d 04 e7 ea 3d
       0.0027636231 0.051342838 0.033205643 0.11469844
0003f0 17 81 94 3d 5f 09 53 3d 0a 0f 04 3e 1a 4a dd 3d
       0.072511844 0.05152261 0.12896362 0.108051494

bias_ih_l0 f4 [50]
000000 f6 57 97 3d 28 ad 91 bd dd ac 53 bd 25 ca 57 3d
       0.07389824 -0.07113105 -0.051678527 0.052683014
000010 42 46 a7 bd d3 67 81 bd d6 50 43 3d 7f cb c0 3d
       -0.081676975 -0.06318631 0.047684513 0.09413814
000020 00 45 ee bd 64 fb 9a bd b1 4c fb 3d 1d 3d e1 bc
       -0.116342545 -0.0756748 0.12270487 -0.027494961
000030 f4 08 48 bd ef 40 f0 ba 21 c5 c4 bd 8d 97 ac bd
       -0.048836663 -0.0018329899 -0.09607912 -0.084273435
000040 02 3c ef 3d 72 30 12 be 1f c2 0b be 29 0d 3b bc
       0.116813675 -0.14276293 -0.1364827 -0.011416712
000050 16 46 92 3d f3 10 07 bd ec a9 4d 3d 52 b2 a1 3d
       0.07142274 -0.03297515 0.05021088 0.0789534
000060 de 4b 8a 3b 9a d9 85 3d 1c 78 b2 3c f2 20 c5 3d
       0.00422047 0.06535645 0.021785788 0.096254244
000070 65 98 55 3d a5 59 02 be 8b 45 c5 3d 24 a1 b3 3d
       0.052147288 -0.12729509 0.09632405 0.087709695
000080 bb b1 c5 bd f5 76 9f bc ee 77 95 bc df 61 cc bd
       -0.0965304 -0.019465903 -0.018245663 -0.09979605
000090 0d 57 d2 bd 86 ff 66 3d 68 44 07 3e be b4 a1 bc
       -0.1027051 0.05639603 0.13209689 -0.019739505
0000a0 a7 80 e1 bd b9 ee a9 3d 6f 6a 36 3d e2 8f 81 3d
       -0.110108666 0.08297486 0.044535097 0.063262716
0000b0 96 18 c4 3d 30 08 92 bd bc 80 b2 3d 6b 24 81 3d
       0.09575002 -0.07130468 0.087159604 0.06305774
0000c0 fd 32 78 bd c2 49 ac 3d
       -0.0605955 0.08412506

bias_hh_l0 f4 [50]
000000 2e f5 97 bc dd b5 da bc a3 d9 d0 bc 0e 10 1d 3d
       -0.018549528 -0.026698047 -0.025494402 0.03834539
000010 97 ee 0e bd 67 ac b4 bd bb 3b a3 bd 31 e2 e9 bd
       -0.034895506 -0.08821946 -0.07970377 -0.11420096
000020 4c 47 8e 3d 43 f1 8c bb 6b 0a 10 be b2 48 ca bd
       0.069471925 -0.0043012216 -0.14066474 -0.09877147
000030 a6 62 cd bd a1 9a 07 bd e5 e9 0d bd 73 c9 ef bd
       -0.10028581 -0.03310645 -0.034646887 -0.11708345
000040 61 dd 03 3e 93 62 c1 bd 63 7c 56 3c 4c ed b1 3d
       0.12877418 -0.0944263 0.01309118 0.08687839
000050 29 1f ad 3c 90 ed 4c bd dd 98 92 3d eb 50 3a bd
       0.021133022 -0.050031245 0.071580626 -0.045487326
000060 10 f9 e9 bc 81 6e f1 3d 49 03 9d bd 0a 3f dd 3d
       -0.028561145 0.11788655 -0.07666642 0.10803039
000070 da 96 cc 3d b7 26 84 3d 62 f7 f1 bd b7 df f0 bd
       0.0998971 0.06452697 -0.11814763 -0.1176142
000080 82 e5 8d bd 8f aa 5c 3d 40 28 e8 bd 52 d9 cb bd
       -0.06928541 0.053873595 -0.11335802 -0.0995356
000090 d0 2a 3e 3d 09 95 2d 3b 17 78 98 bd 8c 43 06 3d
       0.046427548 0.0026486537 -0.0744478 0.03277926
0000a0 06 26 f0 bd 35 47 88 3d 9d 19 fd 3c 5c b2 6c 3d
       -0.117260024 0.06654207 0.030896002 0.057787284
0000b0 7c 29 e7 3d b2 b0 b5 bd 5d 75 05 3e 99 fc e7 bd
       0.112872094 -0.088715926 0.13033052 -0.11327476
0000c0 23 8a 81 bb a2 8a c0 bb
       -0.0039532348 -0.0058759013

weight f4 [1, 50]
000000 f2 88 07 be 61 ae 16 3d 9b 8a 86 3d 0e c3 9b 3d
       -0.13235834 0.036787394 0.06569406 0.07605563
000010 ef 37 9b bd a1 ad 16 bd a6 75 07 be b5 4a 08 be
       -0.07579028 -0.03678668 -0.13228473 -0.13309748
000020 00 17 a2 bd fa ac c7 bd e9 bf 7d 3d 3e 59 29 be
       -0.07914543 -0.097497895 0.061950598 -0.1653795
000030 3b ed a9 bd a8 26 66 bd 6d ce ff 3d 38 a2 7f bd
       -0.08297201 -0.05618921 0.124905445 -0.062410563
000040 85 59 8f bd 73 7e 42 bd 24 a6 e2 bc 83 1e d5 bc
       -0.06999496 -0.047483873 -0.027667113 -0.026015526
000050 3d aa a0 3d 7a 9f 19 3d d7 31 48 3e 2d 42 d9 3d
       0.078449704 0.037505604 0.19550262 0.10608325
000060 c9 a5 ed bd df 21 60 bc a0 bf 5d bd 4e b3 4e bc
       -0.11603887 -0.0136799505 -0.054137826 -0.012615992
000070 6f ed 18 3e 9f 44 f4 3c b3 7f db 3c e5 d0 07 be
       0.14934324 0.029817877 0.02679429 -0.1326328
000080 1f bb 4e be 16 f5 e9 3c e6 df 01 be 30 5c 03 be
       -0.20188569 0.028559249 -0.12683067 -0.12828135
000090 6c 1f af 3d 7d 22 14 3e b4 07 a4 ba 16 55 f8 3d
       0.08550915 0.14466281 -0.0012514503 0.12125604
0000a0 8e 74 c1 bd 06 3e d0 bd d4 8b 2d 3e 2b d5 c9 bd
       -0.09446059 -0.1016808 0.16947871 -0.09855112
0000b0 5a 73 eb bd 8d c4 d2 3d a7 ef 4a 3d a3 d5 3d be
       -0.11496611 0.10291395 0.049544957 -0.18538527
0000c0 3c 01 d4 3d ee 11 3d bd
       0.10351798 -0.046159677
