RNN_models/sqz_momentum_30_15min_t3.pth (torch, 154686 bytes, 30 tensors)

stacks.0.blocks.0.fc1.weight f4 [50, 42]
000000 73 f8 d3 bb 5e 20 a1 bd 62 60 73 bd 88 9f 2c be
       -0.0064688264 -0.07867502 -0.05941809 -0.16857731
000010 ce 63 e5 3d b3 26 5f bd e1 f2 58 bd 61 14 1f 3d
       0.11200677 -0.054480266 -0.052966002 0.038837794
000020 e7 44 d0 bc c8 9b 2d be 35 60 ae 3d b8 73 a2 3d
       -0.02542348 -0.16953957 0.08514444 0.07932228
000030 66 a8 dc 3c 1c 5b e6 3d a6 60 b3 3d 78 5d 46 bd
       0.026935767 0.112478465 0.087586686 -0.048428982
000040 61 10 17 bd 87 5c e6 3c 8b 55 f9 3d a4 95 94 3d
       -0.036880855 0.028120292 0.12174519 0.07255104
000050 ec 8f 18 be c4 c3 e4 bd db fa 34 be b7 31 47 3c
       -0.14898652 -0.11170152 -0.17673819 0.012157849
000060 ed 05 39 3d 4b 86 0f 3e 8b 01 c0 3b 04 52 c0 3b
       0.045171667 0.14016072 0.005859559 0.005869152
000070 bf a6 60 3d e2 b6 e4 bd 18 7f 9b bd ff 5a 16 3d
       0.05484652 -0.11167695 -0.075926006 0.036707874
000080 20 7e 08 bc 40 00 a3 3c 64 9f b9 3d 8f cd fb 3d
       -0.008330852 0.01989758 0.090636045 0.122950666
000090 e2 f9 a1 bd f5 d9 18 bd 83 03 1c be 0e 09 19 bd
       -0.079089895 -0.037317235 -0.15235715 -0.03736215
0000a0 b7 1c 0f be 2a 93 26 bc 94 6d a9 3d dd 5e 74 3d
       -0.13975798 -0.010166923 0.082728535 0.05966078
0000b0 d4 7c 16 bd b4 2e ea bc c9 a7 6a bd e2 0a 75 3e
       -0.03674014 -0.028586723 -0.05728892 0.23929933
0000c0 46 67 ad bc 6a 79 23 3d d2 78 10 3d c2 ab 3e be
       -0.021167409 0.03991071 0.035271473 -0.18620208
0000d0 b5 be a9 3d 03 a8 b2 3c 6a 76 95 bc 71 c4 01 3e
       0.082883276 0.02180863 -0.01824494 0.12672593
0000e0 a8 a6 9a 3d df 5f 1c 3d 75 b4 e4 bd 9d 4b 15 3e
       0.075513184 0.038177367 -0.11167232 0.14579625
0000f0 dc 04 8f bb 40 24 ab bd 22 73 1e be 33 eb 77 bc
       -0.004364593 -0.083565235 -0.15473607 -0.015131759
000100 88 92 68 bd 2f 13 76 3e 83 bd 5d 3d 22 41 b2 3c
       -0.056780368 0.24030755 0.05413581 0.021759573
000110 8d a7 b9 bc 19 ab 4d be af 39 ed bd e8 ee cb 3d
       -0.022662902 -0.200848 -0.11583268 0.09957677
000120 67 bd 8f bd 63 33 b3 3d 91 dc b5 3d aa d4 12 3b
       -0.070185475 0.087500356 0.0887996 0.002240459
000130 bf bc 17 3e 6f bd 28 3d 4b 55 cc 3d 70 95 bf 3d
       0.14818095 0.041196283 0.09977206 0.09354675
000140 76 d3 dc 3d e2 4e 0b bc 8a ca 1f 3e c1 76 e9 3d
       0.107825205 -0.008502694 0.15604606 0.11399604
000150 36 21 29 be 62 00 97 bd ed e9 71 3b f6 67 71 bd
       -0.16516575 -0.0737312 0.0036913112 -0.058937036
000160 20 56 0a 3e 96 1c 9f bd f7 a8 c7 3d 96 b1 46 ba
       0.13509417 -0.07769124 0.09749024 -0.0007579563
000170 85 fc 0a bd a0 ba d5 bd d8 33 00 3e 5c ff 58 3d
       -0.033932228 -0.104359865 0.12519777 0.052977905
000180 82 a4 fd bc be a7 d8 bd f7 08 1a 3e e8 bc d5 3d
       -0.030962233 -0.10578869 0.15042482 0.10436422
000190 1c 94 d8 bb a6 c7 f4 3d 44 93 aa bd ea e2 17 be
       -0.006609453 0.119521424 -0.0832887 -0.14832655
0001a0 a4 e7 c0 bd 80 84 27 be 7a 44 63 3b 6f 76 95 bd
       -0.09419182 -0.16359138 0.0034678266 -0.0729798
0001b0 63 2b 8b bd 04 d3 a2 bd fb 43 1e 3d 81 01 72 bc
       -0.06795385 -0.07950404 0.03863905 -0.014770866
0001c0 f7 96 34 bd 81 2d 91 bd bd a7 5b 3d ef 11 1e 3e
       -0.044089284 -0.07088757 0.053626765 0.15436529
0001d0 0b 89 41 be 57 db d0 bd 78 96 06 3d 6f 91 67 bc
       -0.18899934 -0.10198086 0.032858342 -0.014133795
0001e0 1f 1a 28 be 0d 46 2a 3e 08 1d a6 bd 60 f4 74 3d
       -0.16416214 0.16628285 -0.08111006 0.059803367
0001f0 55 d0 0a be 6c ff 26 3d 5f dd dd 3d f0 3c 99 bd
       -0.13556035 0.040770933 0.10833239 -0.07482326
000200 1a 79 0c bc 49 45 e4 3d b2 62 95 bd 1a b5 09 be
       -0.008573795 0.111460276 -0.07294215 -0.13447991
000210 2a e3 30 be 24 54 fb bd 88 11 82 bd 83 53 ef 3c
       -0.17274156 -0.12271908 -0.06351 0.029214626
000220 56 cd 66 3d a9 22 e3 bd 8c 02 fa 3d 9c c3 36 3d
       0.056348167 -0.11090595 0.12207517 0.04462014
000230 5e 8f b7 bc 14 d6 d7 3c 7e 22 01 bd 44 c9 49 be
       -0.02240723 0.026347198 -0.031527035 -0.19705683
000240 06 54 a6 3d 11 0c 73 3d 8e 38 7f bd f4 4a 3f bd
       0.08121495 0.05933768 -0.062309794 -0.04670234
000250 86 b9 26 be 2e c9 b3 3d 38 2a c7 3d 0a 67 99 3c
       -0.16281709 0.08778606 0.097248495 0.01872589
000260 7d 13 15 be 05 d0 00 be 4d 44 28 bd 47 9b 10 bd
       -0.14558215 -0.12579353 -0.04108076 -0.035304334
000270 37 83 54 3d e6 d4 0a 3d 4b ec 8a 3a 18 11 a0 3d
       0.05188295 0.033894442 0.0010598985 0.078157604
000280 42 67 3b 3c 67 8b f8 bd a1 8b 11 bd f6 c5 5f 3d
       0.011438193 -0.12135964 -0.03553355 0.05463215
000290 29 0e 71 3a 11 5c 48 3c ca eb 22 3e 29 1f 00 3d
       0.00091955304 0.012228982 0.15910259 0.031279717
0002a0 64 a2 b6 bd 6c ee f2 bd a7 bd a8 3d 1e 8e 56 bd
       -0.08917692 -0.118618816 0.08239298 -0.052381627
0002b0 cf 6b 34 3e ad 6e 86 be 73 b5 6e 3c 2a 2a 28 be
       0.1761925 -0.26256314 0.014569628 -0.16422334
0002c0 b1 56 e2 3d 08 eb 0e 3e d5 6a 04 3e cd 63 e6 bc
       0.11051691 0.13956845 0.12931378 -0.02812376
0002d0 af ca 6c 3d c0 94 71 be 8f 8b 0b 3e 32 b2 cc bd
       0.05781048 -0.235919 0.13627456 -0.099949256
0002e0 50 23 a3 bd 47 9e 3d be 0d 67 c2 3c c0 e2 76 bd
       -0.0796572 -0.1851741 0.023730779 -0.06027484
0002f0 d2 95 1a 3d 14 8c 18 be 04 46 f9 bd b5 d3 6a bb
       0.037740536 -0.14897186 -0.121715575 -0.0035831754
000300 7b 94 31 3e 01 d7 30 be 6d cf de 3d c5 c0 b0 3d
       0.17341797 -0.17269517 0.10879407 0.08630518
000310 fd bc b4 bd 28 d2 60 bc d5 cb 8a 3d bd 53 00 3c
       -0.08825109 -0.01372198 0.06777159 0.007832465
000320 9c 8a 5b be db 30 eb 3c b9 d3 25 be 0f 23 a0 3c
       -0.21439594 0.02870982 -0.16194047 0.019547967
000330 e5 c1 86 be 51 47 d4 3c d3 54 29 be ac 8b b5 3d
       -0.26319805 0.025912913 -0.16536264 0.08864531
000340 46 fd db bc f3 c3 3a 3c 9d 62 44 3d 64 d4 06 be
       -0.026854169 0.011399257 0.047945607 -0.13166958
000350 92 9c c6 bd 41 27 40 be 47 da a6 3d 36 60 a4 3d
       -0.09697832 -0.18764974 0.08147102 0.08026163
000360 6e ea 59 bd 31 ee 28 3d 5e 25 a9 bd b7 89 dc bd
       -0.053202085 0.041242782 -0.0825908 -0.107684545
000370 c7 2d 16 be 1f aa 5f 3e 20 ee 21 be 00 5c f8 bd
       -0.146659 0.2184224 -0.15813494 -0.121269226
000380 3a b0 1b 3d d0 3d 23 bc 39 c3 e6 bd 11 ab d4 bc
       0.03800986 -0.009963468 -0.112677045 -0.025960477
000390 80 22 37 bc e6 22 8d bd 50 83 2d 3c d2 5b 07 3d
       -0.011177659 -0.06891422 0.010590389 0.03304655
0003a0 f6 8d 27 3d 1a 56 25 3e d0 68 70 be 2e f0 be bc
       0.04090687 0.16146126 -0.23477483 -0.023307886
0003b0 61 2a 3f be 26 92 be 3c 57 24 ba 3c 08 97 a6 bd
       -0.1866851 0.023263048 0.022722406 -0.08134276
0003c0 60 84 06 be b4 e1 15 be 07 40 21 bd 4a 7e bc 3d
       -0.13136435 -0.1463688 -0.0393677 0.09203775
0003d0 d1 b7 26 3e 3b f0 bb 3d d9 5e 50 3d 31 79 56 3c
       0.16281058 0.0917668 0.050871704 0.013090418
0003e0 bb 8c f5 3d 78 e1 27 be c4 52 90 3c a8 3e 26 3d
       0.11989733 -0.16394603 0.01761759 0.040587097
0003f0 ff 30 3f be dd f0 98 3c 98 b7 29 be 7c 6e e7 3c
       -0.18671034 0.01866954 -0.16573942 0.028250925

stacks.0.blocks.0.fc1.bias f4 [50]
000000 2f 72 62 be 8c 57 01 3e b5 8e a6 bc 38 c8 4d 3d
       -0.2211387 0.12631053 -0.02033172 0.05023977
000010 19 51 ac 3d ae d7 28 3e 90 33 2b be f5 ef 94 bd
       0.08413906 0.16488525 -0.16718888 -0.07272331
000020 1c 77 8c 3d ad ae b3 3d 8b 00 e0 bc d3 cb e6 bd
       0.06858656 0.08773551 -0.027344009 -0.11269345
000030 3f fb 57 bd 11 d1 e2 3d a5 ec 57 be e6 bf 39 3e
       -0.05272984 0.110750325 -0.21086366 0.1813961
000040 7f 4b 87 bd 41 ca 5a bd e0 56 91 3d 3f 0e ed 3c
       -0.066061966 -0.05341554 0.07096648 0.028937457
000050 b6 ac d1 3c 3d dd a1 bd b2 91 1b be b4 3e 85 3c
       0.02559505 -0.07903526 -0.15192297 0.01626525
000060 0b 1b 1f be cb d7 db bd 3b 78 cf bd ea b1 88 3c
       -0.1553766 -0.107345186 -0.10130354 0.016686399
000070 fc 7d 7e be 68 1d 66 be 26 c1 d5 bd dd af a3 3d
       -0.24852747 -0.22472155 -0.10437231 0.07992528
000080 54 09 9f 3d 3d bb e3 3d 96 3b f0 3d 9a 13 f6 bd
       0.07765451 0.11119697 0.11730115 -0.120154575
000090 6b de 12 be 97 4d c2 3d e4 be 1a 3d 31 63 47 be
       -0.14342658 0.09487455 0.037779704 -0.19471432
0000a0 6b 8b dc bd 33 f6 44 3d 3a a8 42 be ca cc 7f ba
       -0.10768779 0.048086356 -0.19009486 -0.0009757994
0000b0 92 8f 2a bd 91 8b e3 3d 3b fa c4 bd 22 ef d3 3b
       -0.041640826 0.111106046 -0.0961804 0.006467716
0000c0 fd c6 89 3d 5d 4c e1 bc
       0.06727407 -0.027502233

stacks.0.blocks.0.fc2.weight f4 [50, 50]
000000 d8 ff 13 3d 4a c3 24 be 13 ea 33 3c 02 e2 65 bc
       0.036132663 -0.16090122 0.010981101 -0.014030935
000010 49 f2 05 3a dd 0c a9 3d 01 d2 b4 bd c8 ae 24 bd
       0.00051096507 0.082544066 -0.088291176 -0.040205747
000020 40 6b b4 3d 1f 90 0c be 89 4d c5 3d 3c e4 eb bd
       0.08809519 -0.13726853 0.09633929 -0.115181416
000030 42 36 7a 3d f9 93 a9 3c 99 62 c1 3d 63 44 28 bc
       0.0610869 0.020700442 0.09442634 -0.010270211
000040 6c 2b c6 bc 95 e4 25 bc 9b c6 8c 3d 64 29 a7 3d
       -0.024190627 -0.010125299 0.068738185 0.081621915
000050 71 cc 13 be 2a 92 f2 3d 61 d9 16 3e 8a fa 12 3e
       -0.14433457 0.11844285 0.14731361 0.14353386
000060 b5 31 08 be a2 bc 06 be 9e 70 10 be 19 aa d2 bd
       -0.13300212 -0.13157895 -0.1410546 -0.1028635
000070 53 fb 0d be 03 f0 75 bd a6 37 f2 bd f7 5f 2b 3d
       -0.13865404 -0.060043346 -0.1182702 0.041839566
000080 83 e5 8f 3b 54 72 64 bd a1 82 4b 3d 2d 44 a8 bb
       0.0043913736 -0.055773094 0.049685124 -0.0051350803
000090 e1 c5 cf bc 26 3c 07 be 64 38 0d be 78 d9 9b bc
       -0.02536291 -0.13206539 -0.13791043 -0.019024596
0000a0 fa 90 d4 3d 2d 5a a2 bd 2a f6 5d 3d 0a 3e 2a be
       0.103792146 -0.07927356 0.05418984 -0.16625229
0000b0 7f 4a 94 3d 43 37 08 be 26 43 f0 3d 6d d4 2a bc
       0.072407715 -0.1330233 0.117315575 -0.010426623
0000c0 c9 0b 1a be b2 8d 1e bc 06 e1 c9 3d 94 a6 bd bb
       -0.15043558 -0.0096773375 0.09857373 -0.00578768
0000d0 8e 17 b1 bc 1c f7 19 be 51 c6 a6 3c b9 d2 b5 bc
       -0.021617677 -0.15035671 0.020358237 -0.022195207
0000e0 b5 79 8b 3d 24 16 5d 3d 20 b4 3f 3d 34 ff 91 bd
       0.06810323 0.053976193 0.04680264 -0.07128754
0000f0 5b 68 be 3c 98 17 e5 bd 18 2b f3 bd f0 1c fc bd
       0.02324312 -0.11186141 -0.11873454 -0.12310207
000100 24 6d 13 be 60 26 9b 3d af 28 bc bd 8b 00 1f be
       -0.14397103 0.07575679 -0.09187447 -0.15527551
000110 f0 e3 0b 3d d0 e7 d4 3d 26 a3 24 3d bf 45 22 bd
       0.034152925 0.10395777 0.040194653 -0.039617296
000120 50 ae 0f bc c0 32 8a bd c0 b8 c1 bd 2d ea 11 be
       -0.008769587 -0.06747961 -0.094590664 -0.14249487
000130 2d 6a 5c 3d 3f 6a 85 3d 0c 49 2d 3d 4a f1 3f bd
       0.053812195 0.065144055 0.04230599 -0.04686097
000140 d6 ed e3 bd 44 77 09 bd 89 9a 61 3d 21 ba c6 3d
       -0.11129348 -0.033561006 0.055079017 0.0970347
000150 71 e0 7b bd 18 16 bf 3b 8d b3 c3 3d 2d b5 bd 3d
       -0.06149334 0.005831491 0.09555731 0.09263072
000160 61 53 bf bd 54 2e d8 bd f7 6d c8 3d ca c4 9f 3d
       -0.09342075 -0.105557114 0.09786599 0.078012064
000170 ac 34 f3 bd 07 d4 85 bd b3 36 ce bd b7 5e 97 bc
       -0.11875281 -0.06534582 -0.10069027 -0.01847778
000180 a2 61 86 bd d5 b2 47 3c 14 1e d5 3d 4f d7 6d bd
       -0.06561591 0.012188633 0.104061276 -0.058066662
000190 bd f7 3d 3d 46 8d 05 3d 6c 30 78 3d 98 84 2e bc
       0.04637884 0.032605432 0.060593054 -0.01065173
0001a0 79 96 b2 bd 92 14 f0 bd 16 12 7e bd 61 60 8a 3d
       -0.08720107 -0.117226735 -0.062028967 0.06756664
0001b0 5e 35 bc bd c1 60 df bd 9f 54 81 bd 70 3a 07 3d
       -0.091898665 -0.10907126 -0.06314968 0.033014715
0001c0 ed a0 d1 bc 56 6a 86 bd 62 9a da bd 47 89 43 bd
       -0.02558943 -0.06563251 -0.106739774 -0.04773834
0001d0 83 4f 84 bd c2 79 8b 3d 3b 99 f7 bd 6c 7e 83 bd
       -0.06460478 0.06810333 -0.12089773 -0.064205974
0001e0 0d 50 17 3d e8 e1 b0 bd 55 2f d9 bd 37 4f 9f bd
       0.036941577 -0.08636838 -0.10604731 -0.07778781
0001f0 80 c0 d8 bd 7e 45 d0 bd 7f 48 7e bd 61 3c f4 bd
       -0.105835915 -0.101695046 -0.062080856 -0.11925579
000200 37 9b a9 bd c6 3b e9 3d 19 40 f4 3d 59 eb 13 3d
       -0.08281558 0.11388354 0.11926288 0.036113117
000210 c1 22 a6 bd dc fb 85 bd 80 e0 1e 3d cc ac ad bd
       -0.081120975 -0.06542179 0.03878832 -0.08480224
000220 83 d0 02 3c e8 1d 6e 3c 76 a8 09 bd 28 15 01 3e
       0.007984283 0.014533497 -0.033607922 0.12605727
000230 3f bb ac 3d fc ce f6 3c 9d 68 b2 3d b9 61 af 3d
       0.08434152 0.030127995 0.0871136 0.08563561
000240 b2 01 67 bd 88 e2 e5 bd 04 72 21 bd 47 be 9a bc
       -0.0563981 -0.11224848 -0.039415374 -0.01888956
000250 31 f0 d3 bd 01 cb c6 bc ee ef a3 bb fc cd fa 3d
       -0.10348547 -0.024266722 -0.005002967 0.1224632
000260 01 2f 94 3a 21 57 19 3d 3f 94 c2 bd 3d 1d ae bd
       0.0011305512 0.03743661 -0.09500932 -0.085016705
000270 e9 3f dc bb f0 2d 31 be eb 0b d4 3c 30 bf 05 be
       -0.006721486 -0.1730268 0.02588459 -0.13061213
000280 70 10 06 3d 27 eb 37 bd 4c 43 95 bc bb 45 b5 bd
       0.03273052 -0.044901993 -0.018220566 -0.08851191
000290 d9 34 41 bd 46 f8 dd 3d 0b 8b 51 bd e3 7d ed 3d
       -0.04716954 0.1083837 -0.051157992 0.115962766
0002a0 d9 97 d3 3c 53 6f c4 3d 0e 34 09 3e 7c 5c a9 bd
       0.025829243 0.09591546 0.13398764 -0.08269593
0002b0 b0 28 b9 3d 23 d9 a6 3d 02 8b c2 bd e3 4b 8d 3d
       0.09040964 0.08146884 -0.0949917 0.0689924
0002c0 9a 46 3d be f5 93 d0 3d 75 2e 12 3e 37 b1 ba b9
       -0.18483964 0.101844706 0.14275534 -0.0003560872
0002d0 95 ff 86 bc 0d fe 3c bd 41 dc 0f 3e a3 f0 18 be
       -0.016479293 -0.04614072 0.14048864 -0.14935546
0002e0 24 d4 c1 3d 7d f0 48 3d 0e 0d 96 bc 29 e3 bc 3d
       0.09464291 0.049057472 -0.018316772 0.09223015
0002f0 92 85 c1 3d 50 57 b5 3d a4 3b 02 bb 4a b4 ab 3d
       0.09449305 0.08854544 -0.0019871974 0.08383997
000300 27 75 93 3d 82 35 88 3c 45 e4 3e 3e 31 d5 88 3d
       0.072000794 0.016627077 0.18641765 0.06681288
000310 64 12 fe bd 1a a2 22 bd fa 70 e6 3d 7f b8 c9 bd
       -0.124058515 -0.039705373 0.11252017 -0.09849643
000320 5b f3 c8 bc ed 76 00 bd 35 51 28 3e eb 4e cc 39
       -0.024530103 -0.031363416 0.16437228 0.0003896871
000330 36 7e 62 3e b2 69 1b bd 92 2f db 3c 1f e5 1e 3e
       0.22118458 -0.037942596 0.026756082 0.1551709
000340 67 2f d1 3d 14 a0 67 3e b9 20 0d 3e df 52 00 bd
       0.102141194 0.22619659 0.13782014 -0.031329032
000350 61 72 67 3d fb 1a a6 3c 9f 57 18 3d 6e fe a0 bc
       0.056505565 0.020276537 0.037192937 -0.019652572
000360 b2 53 dc 3d 99 f5 83 3d 6b 3b 1f 3e 1b b8 cb bb
       0.10758151 0.064433284 0.1555001 -0.0062170154
000370 0e 05 90 3d 7c 01 35 bd 9b 56 2b bd 6f 60 59 3d
       0.07032214 -0.04419087 -0.04183064 0.053070482
000380 c0 28 ab 3d 58 fb ab 3c 1a c5 a1 3d 93 5c e1 3d
       0.08357382 0.020993873 0.07898922 0.11003985
000390 9a 8c 41 3d e6 18 c5 3d ec ba cd bd 9e 8d 3a 3e
       0.04725323 0.096238896 -0.10045418 0.18218085
0003a0 36 89 b0 bd 6e 65 0e 3e 59 6e 14 3d 4a 19 f1 3d
       -0.08619921 0.1390588 0.03623805 0.11772402
0003b0 97 a2 e1 bd 5c a1 d9 3d 6e f5 50 3e ea 9f 05 3d
       -0.1101734 0.1062648 0.20406124 0.03262321
0003c0 4e 1e 29 3e 89 3d 9c bd 17 f8 b0 3d 60 a0 78 bd
       0.16515467 -0.076289244 0.086410694 -0.06069982
0003d0 59 9d 99 bd fd a9 fb 39 e9 eb d5 3d c7 00 75 3d
       -0.07500715 0.00048001102 0.10445387 0.059815194
0003e0 b8 6e ba bd 09 40 16 3e d2 94 dc 3d d8 da ec 3b
       -0.09103149 0.14672865 0.10770573 0.0072282366
0003f0 ea 4c cf 3d 3e 32 d3 bd 4f 1b a4 bc ff 16 83 bd
       0.10122092 -0.10312317 -0.020032553 -0.064008705

stacks.0.blocks.0.fc2.bias f4 [50]
000000 1c 70 6c bd 20 da 0c be 03 03 f2 bc a1 99 47 be
       -0.057724103 -0.13755083 -0.029542452 -0.19492199
000010 80 b9 3c 3d c2 a9 e3 bd 22 a0 9d 3d 89 2b 20 bd
       0.046075344 -0.11116363 0.076965585 -0.03910402
000020 72 d6 bc bd 37 6f 8b 3d d5 07 17 be b5 b5 23 3d
       -0.0922059 0.06808322 -0.14749081 0.03996821
000030 59 43 21 bd 93 f8 ae bd b2 f8 cb 3d bd a0 ce bd
       -0.03937087 -0.085435055 0.09959544 -0.10089252
000040 b3 86 27 3e 89 93 38 be 79 3a 11 bd 7d 21 fa 3d
       0.16359977 -0.1802503 -0.035456154 0.12213419
000050 3f 54 97 bd 0c f9 00 be a6 b9 b6 bc 58 16 01 be
       -0.073891155 -0.12595004 -0.022305321 -0.1260618
000060 fc 15 59 bd 2e 5d 80 bd 31 8d ef bc f0 67 e3 bd
       -0.05299948 -0.062677726 -0.02924213 -0.11103809
000070 e2 e3 0a 3d 58 e6 ab 3d ed 16 1e be cd 21 0d be
       0.033908732 0.08393544 -0.15438433 -0.13782425
000080 57 fc 4f bc 07 cd a5 bd 4c fc 00 be 4b 13 fd 3d
       -0.01269444 -0.080957465 -0.12596244 0.123571955
000090 f7 7c c9 bc cc a1 34 be 19 2f 9a 3d bf 5d 83 3d
       -0.02459572 -0.17639846 0.075285144 0.06414365
0000a0 5b c1 0f bd 32 10 cb 3d 9f c7 b4 bd ac ac fc bd
       -0.035096508 0.099151984 -0.08827137 -0.12337622
0000b0 17 a4 0a 3d 88 6a d2 bd 78 26 92 bc cb 52 75 3d
       0.033847895 -0.102742255 -0.017840609 0.05989341
0000c0 37 91 89 3d 20 60 fe bd
       0.06717151 -0.12420678

stacks.0.blocks.0.fc3.weight f4 [50, 50]
000000 88 ff a7 3d ce 33 fa bc 1c 70 0e 3d bf d0 13 3e
       0.082030356 -0.03054228 0.034774885 0.14435099
000010 90 29 2e 3e cd f0 a6 bd 89 3b 19 be 91 47 d8 bc
       0.17008042 -0.08151398 -0.14964117 -0.026401313
000020 96 10 c4 3b 0e 8d 8e 3d 4e 2c b8 bb 2b 3c 89 3c
       0.0059834225 0.06960498 -0.005620516 0.016752323
000030 ca c4 4c 3e 26 6f ad bd 2b cf 84 bc d4 05 dd 3d
       0.19996944 -0.084684655 -0.016212067 0.10792127
000040 8a 09 d8 bd 08 cd b5 3d dc 2a b5 3d db f8 67 3d
       -0.105486944 0.08876997 0.088460654 0.05663381
000050 7e d1 93 3d 0c 8f 91 3d 9a 1b d0 3d c2 e2 0e be
       0.07217692 0.07107362 0.101615146 -0.13953689
000060 f8 e8 05 3d 56 c2 86 bd a8 f8 50 3e 64 d5 c8 bd
       0.03269288 -0.065800354 0.20407355 -0.09806326
000070 56 43 11 be 6d 28 bf ba 91 85 ec 3c 89 c9 07 bd
       -0.14185843 -0.0014584191 0.028872283 -0.033151183
000080 9e eb 6d 3b f7 a9 da bd 79 ba f6 3d 0c 4a f6 bd
       0.003630377 -0.106769495 0.120472856 -0.12025842
000090 d1 e7 9f bd 9a 96 a2 bc 60 56 13 3c 06 66 cf 3c
       -0.07807887 -0.019847203 0.008992761 0.025317203
0000a0 c4 41 13 3e 1d b1 9b 3d a9 c5 c8 bd 9b 2c e9 3d
       0.14380556 0.07602141 -0.09803326 0.11385461
0000b0 32 0a 0a 3d e3 20 49 bd 8c 45 f3 bb a6 6d 14 be
       0.03370113 -0.04910363 -0.007424062 -0.14494953
0000c0 d5 e3 a7 bd 2d 64 98 3d 3d 7f f7 bd 8f b5 8e bd
       -0.081977524 0.07440982 -0.12084816 -0.06968223
0000d0 f4 21 dd bd 7d d2 3a 3d 97 33 9c 3d 43 0d bf 3c
       -0.10797492 0.045610894 0.076270275 0.023321753
0000e0 9f 9d 83 3d 63 a8 0a 3e 49 ee fe 3c d0 dd cd 3d
       0.06426548 0.13540797 0.031119483 0.10052073
0000f0 dc eb 05 3d 85 39 18 3e 0f f5 97 3d d4 78 8f 3d
       0.032695636 0.14865692 0.07419788 0.07005468
000100 da 19 8b bd 3c 64 1f 3e ed cc aa 3d b1 96 a8 3d
       -0.0679204 0.1556558 0.08339868 0.08231867
000110 45 e8 a2 3d 61 35 b4 3d d8 4c 09 3e bc 9f d5 bd
       0.07954458 0.08799244 0.1340822 -0.104308575
000120 cf fd b9 3b f5 f8 c1 3c fe 70 0b be 3a a1 4a bd
       0.0056760083 0.023678282 -0.13617322 -0.049470164
000130 e2 69 28 be 97 04 2f 3e 9f de 06 3e 33 16 fd bd
       -0.16446641 0.17091595 0.1317086 -0.1235775
000140 00 c5 f2 3d 2b 8d 15 3e 88 48 1e 3e 18 ba 27 3e
       0.11853981 0.14604633 0.15457356 0.16379583
000150 d4 e9 eb 3d a0 8d 23 3e 59 f5 9e 3d b8 67 67 bb
       0.115192086 0.15971994 0.0776164 -0.0035309624
000160 ea fc d3 3d b9 69 c3 bd 67 cf 93 bd 29 e5 9a 3c
       0.10350974 -0.09541649 -0.07217293 0.0189081
000170 3d 5a 1c be 92 93 72 3c b2 08 cb bd 3b c2 18 3d
       -0.15268798 0.014805691 -0.09913768 0.037294608
000180 e8 d3 16 3e 45 88 ad bd 97 6e 60 bd 09 8b 40 bd
       0.14729273 -0.08473257 -0.054792967 -0.047007594
000190 9e d8 bf 3d ac 6d 51 be 80 d0 d8 3d c4 9b f7 3c
       0.09367488 -0.20451993 0.10586643 0.030225642
0001a0 26 9f 02 3e 14 f7 7d 3d 00 c4 fe 3d 5f 47 4a 3c
       0.12756023 0.06200321 0.12439728 0.012346118
0001b0 2b 25 4f 3d 77 3b c9 bd de 5b d1 bd 86 20 7a bd
       0.050572556 -0.09825795 -0.102226004 -0.061066173
0001c0 91 12 07 3d ab b6 c5 bd 28 4a aa bd 20 8e 68 bd
       0.03297669 -0.09653982 -0.083149254 -0.056776166
0001d0 ea 33 9d bc 30 67 6a 3c b5 18 0a 3e b9 37 9f bd
       -0.019189794 0.014306828 0.13485987 -0.077743
0001e0 6a ee 5c 3d 91 1e 0e bd 91 87 3b bc 59 a7 9e 3c
       0.053938307 -0.03469712 -0.011445896 0.019366907
0001f0 1a a0 eb 3d e7 a6 bf 3c 52 61 b6 bb e1 f9 dd bd
       0.11505146 0.023395015 -0.0055658007 -0.10838676
000200 6e a0 21 3e 42 ae 44 3d 83 47 d6 bd a4 c7 24 3c
       0.15783855 0.048017748 -0.104628585 0.010057364
000210 94 96 06 be ec d7 1a 3e 56 b4 9f bd 9f bb 85 bd
       -0.13143378 0.1512143 -0.07798068 -0.065299265
000220 42 37 8a 3d 08 a8 ed b9 b3 d8 44 bd 97 f7 3a 3d
       0.06748821 -0.00045329356 -0.048058223 0.045646276
000230 9e d1 1f bd 77 82 14 3e 6a 2d d0 3d f9 bb 5e 3c
       -0.039018266 0.14502893 0.10164912 0.013594621
000240 69 4d e2 3d 24 5a bb 3d 02 e3 04 3c 26 ff a9 bd
       0.11049921 0.09148052 0.0081107635 -0.08300619
000250 3a 7b 66 3d ed 2f c2 bd d5 e3 6a bd eb b3 47 bd
       0.05626986 -0.09481797 -0.057346184 -0.048755568
000260 21 53 ba bd 6c ef 11 3e b3 fd f1 bd e5 73 0c 3d
       -0.09097887 0.14251488 -0.118159674 0.034290213
000270 dd 98 c4 bd c4 d9 ee bd 59 7c 9d 3c 0b 5f f4 3d
       -0.09599469 -0.11662629 0.019224333 0.119321905
000280 e5 6d 99 bd 50 8e 07 3e e1 e4 0c be 5c 48 98 bd
       -0.07491664 0.13237882 -0.13759185 -0.074356765
000290 f3 e2 d9 3d 82 e5 4c 3e 6c 59 1c 3e f1 b1 06 be
       0.1063899 0.20009425 0.15268487 -0.13153817
0002a0 90 6a f8 bd dc b0 ab 3d 13 2b 20 bd 43 e8 8a bc
       -0.121297 0.083833426 -0.03910358 -0.016956454
0002b0 99 2e 49 3b b0 ce 06 3e 7c 02 da bd 85 c6 84 3d
       0.003069794 0.13164783 -0.10645005 0.06483177
0002c0 42 89 e1 3c 51 81 9f 3d 97 85 d2 bc 75 54 a1 bd
       0.02753127 0.07788337 -0.025698466 -0.07877437
0002d0 46 a6 07 3d 43 cc 51 bd a8 87 2c bd 87 b1 01 3e
       0.033117555 -0.05122019 -0.04212156 0.12665378
0002e0 66 ed 82 3d 33 ea a6 3d ab 6f 16 3e 72 0a 0d be
       0.063929364 0.08150139 0.14691035 -0.13773516
0002f0 f9 c7 e6 3d 89 62 34 bd 0e 00 1a 3d 0d ff 0f 3e
       0.112686105 -0.044039283 0.03759771 0.14062138
000300 7b 7f cd 3d 91 f4 19 be b7 23 10 be 76 7a 2e 3c
       0.100340806 -0.15034701 -0.14076124 0.010649314
000310 b4 04 c5 3d ff 92 cb 3d ef b7 8a bc 6f d7 b1 bb
       0.09620038 0.09940147 -0.01693341 -0.005427293
000320 8a 22 e1 bd 6c f9 61 bd 1f 06 f4 bb 12 96 e1 3d
       -0.10992916 -0.055169508 -0.0074470188 0.11014952
000330 c6 c7 09 3d 79 f7 55 3d 7c 57 87 3d 1f 8b ee bd
       0.033637784 0.05223796 0.06608483 -0.11647629
000340 2e 84 b3 3d 9d c7 ea bd 18 36 6d 3b b1 97 ab 3d
       0.08765446 -0.114638545 0.0036195572 0.08378542
000350 1b 6e c0 bb 9b 3b 06 be 66 34 aa 3d 43 15 e7 3d
       -0.0058725006 -0.13108675 0.083107755 0.11283352
000360 8d c3 9e bd 58 5d 05 3e 4e ed df 3d a3 e7 ea 3c
       -0.07752142 0.13023889 0.10933934 0.028674906
000370 bc ae a1 bd d3 c5 ca bd 30 d0 12 bd 0b 47 43 3d
       -0.07894656 -0.09901013 -0.035843074 0.047675174
000380 7a bf 98 bd d5 e8 1d be 88 09 1c be 35 86 0f 3d
       -0.07458396 -0.1542085 -0.15238011 0.0350401
000390 bc cc e9 3d b0 5c fe 3c 2e 48 8d bc 28 a8 cd 3b
       0.11416003 0.031050056 -0.017246332 0.0062761493
0003a0 04 b6 01 3e 8b 13 d2 bd bf b1 b6 3d 75 04 ab 3d
       0.1266709 -0.10257634 0.08920621 0.083504595
0003b0 8c 5a 10 bd d8 62 00 3e 47 a9 21 3d a2 89 5a bd
       -0.035242602 0.12537706 0.039468076 -0.053353913
0003c0 7a e2 5b 3d 58 81 38 bd 3e 99 57 3c f1 f6 e0 3d
       0.05368278 -0.045045227 0.013159094 0.109846
0003d0 6e 1e 0c bd 67 6d b1 bd 6e 66 dc 3c b5 92 41 3d
       -0.034208708 -0.08663445 0.026904311 0.04725905
0003e0 50 53 c7 3c 99 dd b6 bd 53 57 48 3c 21 f8 1a 3d
       0.024331719 -0.08928985 0.012227851 0.03783429
0003f0 40 56 80 bd 8b cf 44 bb 8b 96 26 3e 20 6e e1 bd
       -0.06266451 -0.0030030932 0.16268365 -0.11007333

stacks.0.blocks.0.fc3.bias f4 [50]
000000 ea 65 65 bc ba 92 a0 3c 73 46 dc 3d f5 17 85 bd
       -0.014001349 0.019601215 0.107556246 -0.0649871
000010 7e 0c 44 3d 91 94 c3 bb 04 d6 e8 3c f4 ab d6 3d
       0.047863476 -0.005968638 0.028422363 0.10482016
000020 ef 70 a8 bd d0 15 69 bd 54 b0 40 3c 55 75 e4 3d
       -0.082246654 -0.056905568 0.01176079 0.11155192
000030 d9 25 bf 3b 83 a6 1f be e7 6c 56 3d 0b f0 61 3d
       0.005833369 -0.15590863 0.05234995 0.055160563
000040 38 63 77 3d 70 2b c6 bc ad 75 ae 3d 07 a5 0c be
       0.060397357 -0.024190634 0.085185386 -0.13734828
000050 5e 12 92 3d 70 97 d4 bd 9e 19 e2 3b b7 2c a9 bd
       0.071324095 -0.10380447 0.0069000265 -0.08260482
000060 6e 18 35 3d b1 63 f8 bd c9 95 1b bd 5e 84 9e bd
       0.04421275 -0.121283896 -0.037984643 -0.07740091
000070 38 3a bc bd ee 9f be 3c ce d8 fb bd 80 ea a6 bd
       -0.09190792 0.02326962 -0.122972116 -0.08150196
000080 ad 05 2d be b0 5f bf 3c 36 9a b7 bd 0c b6 c4 3c
       -0.16896696 0.023361057 -0.0896496 0.024012588
000090 b7 85 18 bc 92 dc db bd 04 c5 10 3e 03 2d d4 bd
       -0.009309224 -0.1073543 0.14137655 -0.10360148
0000a0 ba dc c1 bd c9 51 c6 3d 90 f3 53 3d d6 6d 0f be
       -0.094659284 0.09683568 0.05174595 -0.14006743
0000b0 08 cb 01 3e a6 28 1a be 6d 24 bb 3c 50 0a eb bd
       0.12675107 -0.15054569 0.022844518 -0.11476576
0000c0 f7 76 db bd 3e c2 ea 3d
       -0.1071605 0.1146283

stacks.0.blocks.0.fc4.weight f4 [50, 50]
000000 0f 79 47 bd 20 b6 1b 3d 65 21 99 3c 67 0b 24 3d
       -0.048699435 0.038015485 0.018692682 0.040049937
000010 b0 ac c0 bb fe f5 05 be be f5 14 3e ea f5 92 3b
       -0.005879961 -0.1308212 0.14546868 0.0044848816
000020 70 2f 83 3d 81 ec 3f bd 0c 33 dd 3c c6 f1 48 3c
       0.06405532 -0.046856407 0.02700188 0.0122646745
000030 16 0f db bc 82 31 8d 3d ac 94 32 be c0 e6 1c be
       -0.026740592 0.068942085 -0.17439526 -0.15322399
000040 75 de c9 bb ea dd 32 3d 3f c3 09 bd 4e f3 a7 bb
       -0.006160552 0.043668665 -0.033633467 -0.0051254397
000050 b1 e1 a3 bd e1 75 11 be 76 20 24 3c 1f 45 96 3c
       -0.080020316 -0.14205123 0.010017505 0.018343506
000060 90 32 3d bd 53 21 91 bd 23 a5 b3 3d ef f7 21 3e
       -0.0461908 -0.07086434 0.08771732 0.15817235
000070 5b 1d 0a 3d ae 18 27 bc a7 73 eb bb 0c 5e 0e 3e
       0.0337194 -0.010198755 -0.0071854177 0.13903064
000080 d2 49 b4 bd 63 83 7d bc c0 fa 17 bd 2e ad 71 bd
       -0.088031426 -0.01547322 -0.03710437 -0.059003048
000090 f4 55 d3 bd 64 14 83 bd 33 5c 1c bd 00 73 f0 3d
       -0.10319129 -0.064003736 -0.038173866 0.117406845
0000a0 e0 46 f9 3c 8a 0e b9 3d 6f 67 75 bc 94 e6 c0 3d
       0.030429304 0.09035976 -0.014978274 0.09418979
0000b0 b4 99 9b bd 35 03 af bd e2 19 0b 3e aa 3b cb bd
       -0.07597676 -0.085455336 0.13584092 -0.099234894
0000c0 3c 1b 36 3d b6 f3 3f 3d a6 c6 a1 bd 2f 39 6c 3d
       0.044459566 0.04686328 -0.07899217 0.057671722
0000d0 ef 11 f1 bd 9b f7 7c 3d 63 dd a7 3d b7 05 92 bd
       -0.11770999 0.061759572 0.08196523 -0.07129996
0000e0 2b a2 84 bd 55 3a c0 bd 00 f2 8c bb 8d 75 89 bd
       -0.064762436 -0.09386126 -0.0043013096 -0.06711874
0000f0 ef 3d 7a bd de ac 04 be 17 0f 9d bd 50 a9 69 bd
       -0.06109422 -0.12956569 -0.07668894 -0.057046235
000100 a5 e8 06 be 63 d3 15 be cc ef 71 3d a0 98 b8 3d
       -0.13174684 -0.14631419 0.05906658 0.09013486
000110 f1 bb 59 3d 29 d4 09 be c6 7b 8d bc 73 82 e6 3c
       0.05315775 -0.13459839 -0.017270934 0.028138375
000120 0b fc eb bd c7 ca da 3b 86 2f b2 bd 10 c8 bc bd
       -0.11522683 0.006677005 -0.087004706 -0.092178464
000130 93 59 5f 3d 2f be 99 bc 56 b8 de 3d a2 4e 46 bd
       0.054528784 -0.018767444 0.10875003 -0.048414834
000140 d8 34 c0 bc 53 43 8a 3d 67 c8 06 be 46 ec 1b 3d
       -0.023462698 0.06751122 -0.13162385 0.038067125
000150 d0 ec 49 3d 64 05 74 bd 39 86 4b 3d 50 77 ce 3c
       0.049298108 -0.059575453 0.04968855 0.025203377
000160 de 2d c5 bd b3 2b f8 bd 3c cc 6a 3d 0c cd a7 3d
       -0.09627889 -0.1211771 0.05732368 0.081934065
000170 81 00 d0 bd e0 11 81 3c 09 bd 1c bd bc 58 d6 bd
       -0.10156346 0.015755594 -0.038266215 -0.104661435
000180 cd 6c 38 bb 20 4a fe bc 44 d6 cb 3d b0 bf 9b 3d
       -0.0028141022 -0.031041205 0.09952977 0.07604921
000190 24 b3 fc 3d ba 2c 97 bc 20 09 2e 3e 3a 9d 82 3c
       0.12338856 -0.018453944 0.16995668 0.015944112
0001a0 30 2b ed 3d 65 e7 66 bd e7 65 d4 bd 3b cc 49 3d
       0.11580503 -0.05637302 -0.10370999 0.049267035
0001b0 6e 29 17 be 3d c9 c6 ba 4c 81 17 3e c0 23 8d 3d
       -0.14761898 -0.0015166175 0.14795417 0.068915844
0001c0 ba e4 9b bd 4f 5b 94 3d f5 7d 23 bd 11 4f c2 3d
       -0.076119855 0.07243978 -0.039915044 0.09487737
0001d0 94 96 e9 3c c5 b6 f2 3d 73 57 04 3d 6d 2b 20 3e
       0.028514184 0.11851267 0.03230996 0.15641566
0001e0 82 bf f5 3d bd 57 a8 3d b8 f3 c6 3d ab ee 80 3d
       0.11999418 0.0821986 0.097144544 0.06295522
0001f0 97 55 08 3e 8d 66 1d be b5 9f 4a 3e f9 37 b5 bc
       0.133139 -0.15371151 0.19787486 -0.022121416
000200 7c f5 b1 bd 1d f9 82 bd 25 84 58 bd 6f 0c 02 3e
       -0.086894006 -0.06395171 -0.052860398 0.12700056
000210 19 60 b1 bc 35 25 96 bd 68 e1 cf bc e0 2d 94 3d
       -0.021652268 -0.073313154 -0.025376037 0.072353125
000220 68 d8 ae bd 07 32 f9 bd 36 ae 28 bd aa 30 da 3d
       -0.0853737 -0.12167745 -0.041181765 0.10653813
000230 f4 cc 32 3d 60 b5 6d bc d8 5a e8 3a e1 b2 90 bd
       0.04365249 -0.014508575 0.0017727269 -0.070653684
000240 b1 ce 9e bd 4a 2b f3 3d 59 bb 9c 3d 1e 4c 8a 3c
       -0.07754267 0.11873491 0.07652921 0.016881999
000250 c4 74 1e 3d 63 60 35 3e d9 9d f5 bd 6a e3 05 bd
       0.038685575 0.1771255 -0.11992998 -0.032687582
000260 a1 86 03 be 0c 7e 86 bd cb 70 05 be c0 5d 45 bd
       -0.12844326 -0.0656701 -0.13031308 -0.04818511
000270 1f 5b 0d be 1c 3a b6 bd ca 84 d2 3d 80 29 21 bc
       -0.13804291 -0.08897802 0.10279234 -0.0098365545
000280 98 d3 b5 3c e8 e6 aa 3d f0 ce 1d 3c bb 97 0f 3e
       0.022195622 0.08344823 0.009631857 0.14022724
000290 f0 7e ec 3c 7a bc e1 3d 54 25 aa 3d 09 34 0f 3e
       0.028869122 0.11022277 0.08307901 0.13984694
0002a0 80 38 93 bd d9 93 80 bd 9a ea cb bd aa 61 f6 3d
       -0.07188511 -0.062782 -0.09956856 0.12030347
0002b0 a5 bb fe bd 64 cd 05 3d 88 f2 96 bc 50 f7 b9 bd
       -0.12438134 0.03266658 -0.018426195 -0.09080374
0002c0 20 80 dd bd 60 af f4 3b c7 ae 03 3e 68 87 c8 3d
       -0.108154535 0.0074671954 0.12859641 0.09791452
0002d0 20 ad c4 bb 40 d4 27 bd d2 5e a8 bd 90 52 b8 bd
       -0.0060020834 -0.0409739 -0.082212105 -0.090001225
0002e0 8e 83 e4 bd da 76 06 be 56 0a 8c 3d 94 fa 09 be
       -0.111579046 -0.13131276 0.06837909 -0.13474494
0002f0 70 43 bf bc b8 d9 95 3d 30 bb 08 3c 9c ea 49 3d
       -0.023347586 0.07316917 0.00834541 0.049296007
000300 98 c4 1d 3d ea 2e 4a bd 00 90 c7 3b 7a 06 fd bd
       0.038517565 -0.049361147 0.006090164 -0.12354751
000310 b1 7b 09 3e 3c 01 ff bc 6e 81 b6 bd 30 bb 06 bc
       0.13426091 -0.031128518 -0.089114055 -0.00822334
000320 b2 33 ac 3c 08 06 63 3b 6c 54 f5 3c 8d 21 d7 bd
       0.021020744 0.0034641046 0.029947482 -0.10504446
000330 e7 8e e5 3d f2 22 61 bd 04 41 b3 bc 7e f8 8d bd
       0.11208897 -0.054964967 -0.021881588 -0.06932162
000340 27 dd ed bc 21 3e fb bb 8b 30 92 bd bb 9d 8a bc
       -0.029036118 -0.0076673185 -0.07138165 -0.016920915
000350 25 34 ba bd 03 da 06 be e2 39 7a bd 72 7b 81 3d
       -0.09091977 -0.13169102 -0.061090358 0.063223734
000360 4d 4b e7 bd 64 d1 a4 3d 8a a8 d0 ba ae a7 bd 3d
       -0.11293659 0.080477506 -0.0015919369 0.09260498
000370 f8 2f 9e bc 55 f0 bd bb 30 1c 85 bd 68 1e 24 be
       -0.019309983 -0.005796472 -0.06499517 -0.16027224
000380 09 37 d2 bd 41 f1 b3 3d 93 15 0c 3e 66 c9 94 3d
       -0.102644034 0.0878625 0.13680105 0.07264976
000390 f3 99 c1 bd 1e 21 03 3e 86 bc 0b be 0a 4d 9b bd
       -0.094531916 0.12805602 -0.13646135 -0.075830534
0003a0 26 4b ce bd 86 32 15 3e e4 03 be bd 88 b4 07 3e
       -0.10072927 0.14570054 -0.09278086 0.13252461
0003b0 e4 68 26 3e 52 ca 80 3d 5e eb 0b 3d 06 70 04 be
       0.1625095 0.062885895 0.03416001 -0.12933359
0003c0 54 e9 08 3d ba cf 30 3e ea a0 d2 3c 19 35 13 bc
       0.033425644 0.17266741 0.025711495 -0.008984827
0003d0 90 b8 01 3e bc 84 44 be f4 89 b3 3d 4d 31 2d bd
       0.12668061 -0.19191259 0.08766547 -0.042283345
0003e0 7c fa d4 bd ea 6c 41 3d df 0b 0d 3d bc 78 43 3e
       -0.103993386 0.04722301 0.03443515 0.19089025
0003f0 70 a3 b6 bd f2 21 33 bd 00 8c 17 3e e1 d7 7f bd
       -0.08917892 -0.043733545 0.147995 -0.062461738

stacks.0.blocks.0.fc4.bias f4 [50]
000000 64 2f bc 3c f7 19 1c be 01 48 0c 3e a0 bb bf bb
       0.022971816 -0.1524428 0.13699342 -0.005851224
000010 9a 9e 1e bc 5b be 9a 3d a4 bd 2b 3e f9 60 0d 3e
       -0.009681368 0.07555839 0.16771561 0.13806523
000020 7f 07 dd bd 8b 4d 12 be f8 2a 77 3d 6e 3b 4d bd
       -0.107924454 -0.14287393 0.060343713 -0.050105505
000030 30 b9 b4 bc 15 b9 bd 3d 1d 3b 09 be af e8 e8 3d
       -0.02206096 0.09263817 -0.13401456 0.11372506
000040 3f 97 45 bd bf db 99 bd 82 40 57 3d f7 08 13 be
       -0.048239943 -0.07512616 0.052551754 -0.14358889
000050 1f 15 57 bd 05 98 67 3d 25 9a db bd d9 70 cc bd
       -0.052510377 0.05654146 -0.1072276 -0.099824615
000060 f5 1d e6 bd 3a e8 a3 3d 68 cf 47 bd d6 64 3e 3d
       -0.112361826 0.08003278 -0.048781782 0.046482883
000070 16 e6 96 bd a9 c7 e9 3d 9a 68 0d 3d b3 1b d1 bd
       -0.07368104 0.11415035 0.034523584 -0.10210361
000080 7a b0 1f be 0f 91 d1 bd a0 c3 6f 3d 1a 2e fd bd
       -0.15594664 -0.10232746 0.058536172 -0.12362309
000090 85 e8 a9 bd b1 74 9c 3d 39 b8 07 be 96 ef 38 3d
       -0.08296303 0.076394446 -0.13253869 0.045150362
0000a0 49 ef 93 3d 88 b1 df 3d 4a 0c 8d bc ad e0 fb 3c
       0.072233744 0.10922533 -0.017217774 0.030746782
0000b0 24 0b bb bd 6e 49 a0 bd 09 8b b0 3d ec 91 94 bd
       -0.09132984 -0.078265056 0.08620269 -0.07254395
0000c0 56 cb 2c be 23 a8 cb 3d
       -0.16874442 0.09944179

stacks.0.blocks.0.theta_layer.weight f4 [43, 50]
000000 d0 8a 65 bd 8e fd 92 3d 68 ce f8 bc a0 40 13 3d
       -0.056040585 0.07177268 -0.03037186 0.035950303
000010 3f 55 41 3d c8 f1 a3 3d 97 b2 1d be 5d 05 46 3e
       0.047200438 0.080051005 -0.15400158 0.19337983
000020 db 06 99 3d 11 63 12 3e 7a 79 aa 3d 02 a5 e0 bd
       0.07472011 0.14295603 0.08323951 -0.10968973
000030 96 c3 fd 3d c7 33 a4 bc cc 2b fb bc 61 a3 2d be
       0.12390821 -0.02004422 -0.030660532 -0.16956855
000040 54 55 b7 3d c4 1f c6 bd e1 5a 88 bc 1d 49 88 bc
       0.08951822 -0.096740276 -0.016644897 -0.016636426
000050 e7 5b b1 bd 14 af 4d bd b6 e8 b7 3d fc 73 f4 bd
       -0.08660107 -0.050215796 0.08979933 -0.11936185
000060 09 fb 63 3d 72 35 85 3b 24 f0 f1 bd c4 92 fa 3d
       0.055659328 0.004065209 -0.11813381 0.122350246
000070 c9 96 cf bd 88 be 34 3d 8a f2 af 3d d0 37 11 be
       -0.10136182 0.044127017 0.085911825 -0.14181447
000080 71 56 12 3d 08 e2 fe 3d c9 d5 23 be 26 21 be bd
       0.03572697 0.12445456 -0.15999521 -0.09283666
000090 a0 10 7a bd cf b4 df 3d be 97 18 be 7f 6e 53 3d
       -0.06105101 0.109231584 -0.14901635 0.05161905
0000a0 d5 42 00 be 43 9d 17 be e4 da 80 bd 0c b0 a9 3d
       -0.12525494 -0.14806084 -0.0629175 0.082855314
0000b0 57 00 42 be d6 e5 c9 bd 68 43 d4 3d c0 fd 99 3b
       -0.18945442 -0.09858291 0.10364419 0.004699439
0000c0 47 91 46 bc a7 64 60 3d a2 23 ab bd 42 6f fa bd
       -0.012119598 0.05478349 -0.08356406 -0.12228252
0000d0 4b a1 b3 3d d0 be 0a bc bd 04 21 3e f8 ea 24 3e
       0.087709986 -0.008468345 0.15724464 0.16105258
0000e0 60 37 74 3c cb d2 0c 3e 47 17 80 3d 1e d5 fa 3b
       0.014905781 0.13752286 0.0625444 0.0076548
0000f0 ff 4a 28 3e a4 bf 69 3d c4 2d 07 be 48 b1 c2 3d
       0.16434859 0.05706753 -0.13201052 0.0950647
000100 d8 04 d8 3d 67 69 1f bb 09 bd 93 bd 1a 7d 11 be
       0.10547799 -0.00243243 -0.0721379 -0.14207879
000110 6f 2d 3e 3e 91 8c e1 bc 48 61 bf bd 13 30 b7 bc
       0.18572019 -0.027532848 -0.09344727 -0.02236179
000120 05 6c a8 3d a9 ca 36 3d 1f 0e fa 3d 44 29 f3 3b
       0.08223728 0.044626866 0.12209725 0.0074206907
000130 b4 4c 03 3e d2 c5 d1 bd d2 38 09 3e 0c 8a bc 3d
       0.12822229 -0.10242809 0.13400581 0.09206018
000140 29 fd 07 bb 47 46 1f 3d a9 b1 00 3e 8c c9 8e 3d
       -0.002075026 0.03888538 0.12567772 0.06972036
000150 c4 93 c5 3d c2 8a ba 3d 52 66 82 3c 45 fe ef 3c
       0.09647325 0.09108497 0.01591793 0.02929605
000160 59 51 2f bd 6d 65 9d bd 26 5d 5e bc 0e b1 3a 3a
       -0.04280219 -0.07685361 -0.013572013 0.000712172
000170 3f 50 2d bd e8 66 2b 3e 54 50 dc bd a3 fa d8 bc
       -0.042312857 0.16738474 -0.10757509 -0.0264867
000180 f5 9b 09 3e 6f 7a db bd db da d8 3a 97 e7 cf bd
       0.13438399 -0.10716712 0.0016544716 -0.10151594
000190 ad f0 5c 3d 08 5a f5 3d e7 ad 1a 3d 4a 17 c1 3d
       0.053940464 0.11980063 0.037763502 0.0942827
0001a0 e5 d3 ce 3c c9 96 e3 3c 7b dd c4 bd 05 87 01 be
       0.025247524 0.02778186 -0.096125565 -0.12649162
0001b0 58 bc 83 3d b1 16 a0 3d 22 34 49 bc b0 ea 42 bc
       0.06432408 0.07816828 -0.012280496 -0.011896774
0001c0 40 dd f7 3b 2d ea 7f 3d 08 ca de 3c 5a 96 56 bd
       0.007564217 0.062479187 0.027195945 -0.05238948
0001d0 96 e2 17 3e 18 8d 94 3d 89 76 e0 3d 56 41 40 bd
       0.1483253 0.07253474 0.10960109 -0.04693731
0001e0 14 47 03 bd 0a 1f 82 3c 7c 89 4c 3d 65 84 f8 bd
       -0.032050207 0.015883941 0.049935803 -0.12134627
0001f0 20 1d 5c bd a8 db 8b 3d 4a b6 25 bd 64 41 ba 3c
       -0.053738713 0.068290055 -0.040457048 0.022736259
000200 81 ce ae bc a8 bb b9 3d 12 d6 11 be c4 ce 01 bd
       -0.021338703 0.09068996 -0.14241818 -0.031691328
000210 20 4f a9 3b 9b 2b a9 3d e4 12 03 be 5f 6a bd bd
       0.005166903 0.0826027 -0.12800175 -0.09248804
000220 62 ba f8 3d e4 6d 81 3d 8f ac ef 3c 56 6a 9e bd
       0.12144925 0.06319788 0.029257087 -0.07735126
000230 5a fb 38 3d 4f a6 32 bd e7 5c 4b 3b 3e a6 22 bd
       0.045161583 -0.043615635 0.0031030716 -0.039709322
000240 c2 43 0f be 2c 7c f1 bd 1a f7 0d bd 60 a6 d3 3b
       -0.13990691 -0.11791262 -0.034659483 0.0064590424
000250 2b f8 d3 bd 84 40 ea bd c3 f3 3c bd a1 3f 94 3d
       -0.10350069 -0.11438087 -0.046130907 0.07238699
000260 81 c3 e5 bd 68 87 a9 3d fa 96 b7 ba 35 3a 39 3d
       -0.1121893 0.0827778 -0.0014006787 0.045221526
000270 f0 70 bc 3c 8e 53 c9 bd 13 e8 3d 3d b2 3f 45 bd
       0.023003072 -0.0983039 0.0463639 -0.048156448
000280 83 ff 91 bc 64 ea d7 bd ed 37 88 bd 8c 36 2e bd
       -0.017822033 -0.10542753 -0.06651292 -0.04253249
000290 48 c2 19 3d 9c 06 8c bd 04 31 bc 3d 37 ed 83 bd
       0.037538797 -0.06837198 0.091890365 -0.064417295
0002a0 2b e8 7a bd d3 3d cf bd 2f 16 f3 bd b7 db 3d bd
       -0.06125657 -0.10119214 -0.118694656 -0.046352115
0002b0 45 5b 91 bc 5a e1 f6 bd 07 84 4c bc f1 f9 32 be
       -0.017743716 -0.12054701 -0.01248265 -0.17478158
0002c0 92 7e 6b bd 1a f3 f4 bc ce 3b 01 3e b3 70 8b bc
       -0.057493754 -0.029901076 0.1262047 -0.017021513
0002d0 ae 28 e0 bd 11 e8 f2 38 e5 d6 43 3c d5 f9 ae 3d
       -0.10945259 0.00011582685 0.01195309 0.085437454
0002e0 a2 6c 07 bd 1f c7 8e bd 0e af a5 bb 01 04 1c 3d
       -0.033062585 -0.06971573 -0.0050562685 0.038089756
0002f0 4d 64 82 bd f5 6a 09 bd 17 a6 28 3e ed 5e 62 3d
       -0.06366787 -0.033549268 0.16469608 0.05526631
000300 63 86 fb 3d 9f 1f c6 bd cf b6 83 bb f7 a7 83 3d
       0.122814916 -0.09674 -0.004019595 0.06428521
000310 74 a6 12 bd 58 b8 8c 3c 31 1f 2e bd ab f2 99 bc
       -0.035803273 0.017177746 -0.042510215 -0.01879247
000320 ca b0 20 3d ad 7f e0 3c 53 ad f1 3c d1 8b 03 be
       0.0392311 0.02740463 0.029501593 -0.12846304
000330 54 82 77 bc fa a4 04 bd 7f 4b ec 3c 22 ca 9c 3b
       -0.015106756 -0.032383896 0.028844593 0.0047848383
000340 1e 75 d3 3d e3 ef 44 3b c0 1d 4f 3c 58 7f 5e 3d
       0.10325073 0.003005021 0.01264137 0.054320663
000350 f4 22 8a 3d 02 44 05 3b 38 8c 8a 3d ad 23 05 3e
       0.06744948 0.0020334725 0.06765026 0.1300189
000360 68 9e 34 3d 1c fa a6 3b cc f3 90 bd bd 9c a5 3d
       0.04409638 0.0050957333 -0.070777506 0.08086536
000370 ae f8 ea bc e6 63 1c 3e 39 9d 82 bd 88 03 55 bd
       -0.028683033 0.15272483 -0.06377644 -0.05200532
000380 06 ce 90 bd e6 35 ee 3d 20 b4 2e 3b 68 a3 d6 bd
       -0.07070546 0.11631374 0.0026657656 -0.10480386
000390 8c 70 84 bd 83 49 a6 bc 43 cf 3d bd 55 e0 f5 3d
       -0.06466779 -0.020298725 -0.04634024 0.120056786
0003a0 53 e4 2f 3d ad 99 a0 bd 09 7d 24 3e 05 ab 04 3e
       0.042942356 -0.07841811 0.16063322 0.12955864
0003b0 05 89 81 bd 8a 98 61 3d 65 42 4c 3e 9d 9f e0 bc
       -0.063249625 0.055077113 0.19947203 -0.02741986
0003c0 f2 bf 87 3d f6 c7 86 3c bd 00 9c 3d 4e db d2 3d
       0.066284075 0.01645277 0.07617328 0.10295735
0003d0 fe 35 2d 3e 8c fc 03 be fa 72 9e 3d a8 01 8b 3d
       0.16915128 -0.12889308 0.07736774 0.06787425
0003e0 f3 1d d2 3d 78 bc ee 3d 51 b9 3f bd c7 b6 ff 3d
       0.102596186 0.11657041 -0.04680759 0.12486034
0003f0 e3 66 b4 bc 0a 8f ec 3d 8b 17 b6 3d c4 22 49 3e
       -0.022021716 0.1155072 0.08891209 0.19642168

stacks.0.blocks.0.theta_layer.bias f4 [43]
000000 d2 a9 96 bd 19 22 7b 3d 92 4b 96 3c 47 0f 44 3d
       -0.073566094 0.061311815 0.018346582 0.047866132
000010 09 24 e3 3d 6a 5a d1 3d fc 5c c2 bc 30 10 9a 3d
       0.110908575 0.10222323 -0.023725979 0.07522619
000020 a8 10 a6 3d 39 a2 d4 bd 77 58 a9 3c 67 82 e7 3c
       0.08108646 -0.10382504 0.020672066 0.028260423
000030 2d e1 d5 bd aa 20 06 be fc 89 b3 bd 7b 4a 6f bd
       -0.104433395 -0.13098398 -0.08766553 -0.05842064
000040 1c 3c b1 bd 1c e9 78 bd 52 50 cb 3d b4 ae 83 bd
       -0.08654043 -0.060769185 0.09927429 -0.06429806
000050 5b d5 52 3c a4 80 78 bd 7e ed 9a bc b9 a2 9c bd
       0.012868251 -0.060669556 -0.018912073 -0.076482244
000060 df 7f c8 3d b9 d1 86 bd b7 5b dd ba 28 ac 7c bd
       0.097900145 -0.0658297 -0.0016888295 -0.06168762
000070 90 4c db 3d 27 b9 c8 bd 49 f5 a2 bd 09 7a 15 be
       0.107079625 -0.0980094 -0.07956941 -0.14597334
000080 4e 40 34 bd 80 d7 09 be e6 5b 43 3d 99 a6 42 3d
       -0.04400664 -0.13461113 0.047695063 0.04752216
000090 29 77 88 bd b8 5d 75 bc 17 ae b3 bd e2 db 39 bc
       -0.06663353 -0.014975958 -0.087734394 -0.011343928
0000a0 d8 b1 fc bd 68 14 5d 3d 4b b2 ca bd
       -0.123386085 0.05397454 -0.09897288

stacks.0.blocks.1.fc1.weight f4 [50, 42]
000000 15 53 00 3c d0 8c 49 bd 49 13 a7 3d 87 7f 10 3e
       0.007832308 -0.049206555 0.08157975 0.14111148
000010 06 d4 c6 bc 22 76 1f bd e7 3b 95 ba 28 c0 af 3d
       -0.024271023 -0.03893102 -0.001138565 0.08581573
000020 4e f4 db 3d 82 47 71 3d 98 cd 55 3d c5 11 e2 3d
       0.10739957 0.058906086 0.052198023 0.110385455
000030 c0 53 73 bc 0e 84 eb bd f6 44 22 3d 30 fc 09 bd
       -0.0148515105 -0.11499797 0.039616548 -0.03368777
000040 24 1e dd 3d f7 8f 28 3e f0 ef 4a 3d 78 4d d0 3d
       0.107967645 0.16461168 0.04954523 0.10171026
000050 8f ba 91 3d 63 be c7 bd f6 aa d8 bc 72 f6 10 bb
       0.07115661 -0.0975311 -0.026448708 -0.002211955
000060 11 94 bb 3c e5 5e b8 bd 60 90 30 3d 5d c1 f1 bd
       0.022897752 -0.09002475 0.043106437 -0.11804459
000070 d5 b3 4a bd f2 a1 10 bc 91 c2 17 3e 93 ae a7 bc
       -0.049487907 -0.008827673 0.14820315 -0.020468986
000080 4e eb 6e bd f8 0d 2f be c8 78 2e 3d b3 23 9b 3d
       -0.058329873 -0.17095172 0.042595655 0.075751685
000090 2d 76 0a 3e 50 cb 32 be bd f4 47 3d cc fa a8 bd
       0.13521643 -0.1746037 0.048817385 -0.08250961
0000a0 a5 c6 2d 3e c0 49 e8 bc fb 5e c2 3d 36 4a d2 3d
       0.16970308 -0.02835548 0.09490772 0.10268061
0000b0 45 ea ce 3d 67 2d 2e 3c 3b 7b 0a 3e 1d 04 ed 3c
       0.10103277 0.010630942 0.13523571 0.028932625
0000c0 f8 15 12 bd f9 6a c5 bd 84 73 1b be 59 55 ab 3d
       -0.035665482 -0.09639544 -0.15180784 0.08365888
0000d0 67 15 4f 3d 19 e3 13 3e 15 d5 8b 3d 58 a5 cb 3c
       0.05055752 0.144421 0.068277515 0.024859115
0000e0 38 ad 26 be 13 5c c3 bc e5 8b 74 3d 5d f7 da bb
       -0.16277015 -0.023847615 0.059703726 -0.00668232
0000f0 db b7 d2 bc 7c 9d b0 bc 14 a0 29 be 98 0d fa bd
       -0.025722435 -0.02155947 -0.16564971 -0.12209624
000100 dc 32 05 bd 56 4a 13 3e ac 40 8e 3b 3e 8e 15 bd
       -0.032519206 0.14383826 0.0043412056 -0.036512606
000110 08 4d e7 bd 93 89 9c bd 85 be 0c 3e cc 00 fc bd
       -0.112939894 -0.07643428 0.13744552 -0.123048395
000120 ca d6 c6 bd 35 82 21 be 37 ed 99 3b 18 a3 60 bc
       -0.097089365 -0.15772326 0.0046974677 -0.01371076
000130 40 94 e5 bd 29 4f 04 bd b5 0b d3 3c 45 75 d7 bd
       -0.11209917 -0.032302056 0.025762418 -0.10520414
000140 93 98 29 3d d8 af 55 3d 81 56 73 bd 95 96 89 bc
       0.04140527 0.05216965 -0.05940867 -0.016795436
000150 1e 0a 7a 3d dd e2 9f bd 77 69 1e 3d 22 85 1a 3d
       0.061044805 -0.078069426 0.038674798 0.03772462
000160 83 dc 95 bc d0 58 07 3e af 36 39 3d 34 f9 15 3e
       -0.018293625 0.13217473 0.045218166 0.14645845
000170 fc 5b c9 3b dd 71 25 bd 59 10 a7 bd da 82 7b 3c
       0.0061449986 -0.04039179 -0.08157415 0.015351022
000180 42 20 04 3d 67 10 cf 3b 7f a7 20 bd 6f 3c b5 3a
       0.032257326 0.006319094 -0.039222237 0.0013827215
000190 2b 0f 0e be c6 c4 12 bd d8 40 ed 3d a8 56 3a be
       -0.13872974 -0.03583219 0.115846336 -0.18197119
0001a0 1f e1 e9 bc c1 c1 48 3c 61 35 b0 3d bf 6e 64 3d
       -0.028549729 0.012253226 0.08603931 0.05576968
0001b0 68 8f 75 bc 29 6a 0f bc 53 42 9c bd 91 57 c6 bd
       -0.014987804 -0.008753338 -0.07629838 -0.09684671
0001c0 bc 33 65 3d 89 45 61 bd 5a 8f 1f be 9d 1f 30 be
       0.05595754 -0.054997955 -0.15582028 -0.1719956
0001d0 c7 3b 10 bd ff 43 1d bd 14 bb 3d bd 0e 1b 5d bd
       -0.035213258 -0.038394924 -0.04632099 -0.05398088
0001e0 6c 6a 6a bd d9 88 1f 3e 4e 1f cd bc f9 3e 1b 3d
       -0.057230398 0.15579547 -0.025039341 0.037901852
0001f0 03 b1 a5 3d 11 5f 4c 3e c0 4d 96 bc 94 27 98 3b
       0.08090403 0.1995814 -0.018347621 0.00464339
000200 c8 dd f1 3d fb 32 32 be ce 92 06 3e 26 d2 f0 3b
       0.118098795 -0.1740226 0.13141939 0.0073492704
000210 62 57 4b 3c 00 c0 c3 bd d1 a6 ac 3d 3e c4 b0 3d
       0.01241097 -0.095581055 0.08430255 0.0863118
000220 e0 10 89 3b 81 1d bf bd 7c be 18 bd c0 67 05 3e
       0.00418292 -0.09331799 -0.037291035 0.13027859
000230 5f bd 3d 3b 44 3c 59 3d 04 42 07 3e 70 dc 1c bc
       0.0028951985 0.05303599 0.13208777 -0.009574041
000240 21 46 fc 3c d9 0c e4 bd 9f 4e 10 3e fd f7 a5 3d
       0.030795159 -0.11135263 0.14092492 0.08103941
000250 3f 37 df 3d 44 90 1f be 1a 11 25 3c ae 62 25 bd
       0.10899209 -0.15582377 0.010074878 -0.04037731
000260 4a 79 07 3d e3 b2 6b bd a8 db 03 be f2 06 fe 3d
       0.033074655 -0.057543647 -0.12876761 0.124036685
000270 c7 15 0d bd b4 71 26 3d 7d 6b ea bd b0 9d db bd
       -0.034444597 0.04063578 -0.11446283 -0.10723436
000280 b5 75 74 3d bc cb f0 3d af e9 b3 bd ad c9 c4 3c
       0.059682567 0.11757609 -0.08784806 0.024021948
000290 b8 e1 48 bd ae 57 34 3e 83 29 81 bd 44 6b 97 3d
       -0.049043387 0.17611572 -0.06306746 0.07393506
0002a0 63 df af 3c 31 84 d9 3c 5a f4 e4 3c de ca 20 3e
       0.021468824 0.026552292 0.027948547 0.15702388
0002b0 f9 f2 55 be c3 d0 04 be 7e 74 54 3d f8 f7 70 bd
       -0.20893468 -0.12970261 0.051868908 -0.05883023
0002c0 13 82 37 3d 80 21 08 be 46 0f c0 bd b6 83 89 bd
       0.044801783 -0.13294029 -0.09377913 -0.06714575
0002d0 15 a0 b8 bc d5 7d aa bd 31 8d b0 3d 0b bb e9 3d
       -0.02253727 -0.08324782 0.0862068 0.11412629
0002e0 2f bc bd bc 4c 49 01 be ec 59 f1 3d 2e a6 a9 3d
       -0.023161022 -0.12625617 0.11784729 0.082836494
0002f0 f7 12 ad 3d e6 f5 0c be f2 b4 e7 3d 33 0e 13 3e
       0.08450883 -0.13765678 0.113138095 0.14360885
000300 8d 5a a8 bd cf 0f dc bc 01 22 09 3c 4d 9d 22 3e
       -0.08220396 -0.026863007 0.008369924 0.15880318
000310 12 eb 39 be f6 23 53 3d 36 e4 95 bd 05 3c d9 bc
       -0.18156078 0.051547967 -0.073189184 -0.026517877
000320 8a 11 d8 3d f2 07 40 be 89 84 1c bb 9d 8e bd 3c
       0.1055022 -0.18753031 -0.0023882708 0.023139292
000330 3b 5b 0b 3d 08 11 05 be 33 ca 12 3e b1 5e 42 bd
       0.03402255 -0.12994778 0.14334945 -0.047453586
000340 aa bd c4 bd 44 9e 87 3c f4 2d 6b bd 9b 66 cc 3d
       -0.09606488 0.01655496 -0.05741687 0.09980508
000350 28 88 ce bc 7f 09 e8 bd e4 c1 b7 3d 25 b4 4b 3d
       -0.025211409 -0.11329936 0.089725286 0.049732346
000360 19 23 4a 3d ac c5 29 3e 29 0e db bc 49 3d 4d 3d
       0.049349878 0.16579312 -0.02674015 0.050107274
000370 fe 51 91 bd 34 f1 82 bb 87 29 b9 3c 3d 70 d9 bd
       -0.07095717 -0.003996039 0.02260281 -0.10617111
000380 2a b7 0e bd b6 a4 d3 bd 71 41 c5 3c 6e de 0d 3d
       -0.034842648 -0.103341505 0.024079056 0.034635954
000390 6a bd 36 bd c9 83 8c bd 75 2c 31 bc a6 29 a6 bb
       -0.044614233 -0.068610735 -0.010813822 -0.005070883
0003a0 06 3d 3d 3e 0e 3e df 3d 13 6b 44 3b d4 1a 5e bd
       0.1848031 0.10900508 0.0029971048 -0.054224804
0003b0 8d da 56 3d 04 ae 4d be 5a 7e 23 bd b3 c8 1e be
       0.05245452 -0.20085913 -0.03991542 -0.15506248
0003c0 4d 41 eb bc 6c 85 35 be 36 93 4d bd 99 50 2f 3e
       -0.028717661 -0.17726678 -0.05018922 0.1712059
0003d0 62 10 01 bd c8 9a c7 bd c6 c2 c7 3d 48 8b d2 3d
       -0.031509764 -0.09746319 0.09753947 0.10280472
0003e0 d2 ec 31 3d d5 0e 4c bb 54 14 27 bd 51 4c 3a bd
       0.04343874 -0.003113677 -0.04079087 -0.045482937
0003f0 81 3f 15 3e 02 dc 4a bd e6 fa f6 bd cf d8 ed 3d
       0.14575006 -0.049526222 -0.12059574 0.116136186
