RNN_models/sqz_momentum_slope_30_15min_t2.pth (torch, 103618 bytes, 20 tensors)

stacks.0.blocks.0.fc1.weight f4 [50, 42]
0.09136302 -0.106137484 0.005869852 -0.0734759 -0.15944315 0.073935576 0.08666753 0.15251026
0.10915955 -0.11823504 -0.041061096 0.03159801 -0.072781466 -0.12506336 0.009973288 -0.06828408
0.060343828 -0.031914026 -0.043659195 -0.0430797 0.003223238 0.116701916 0.12903428 -0.068983585
0.02067839 -0.009158159 0.08113076 -0.013140616 -0.09245593 0.08589253 0.09942227 0.06341643
-0.044345092 0.12688226 0.02096283 -0.13569027 -0.15714985 -0.048663232 0.061110966 0.060901437
-0.13515513 0.12175301 0.026132103 -0.13888368 -0.16439497 -0.0225222 0.115706876 0.16309667
-0.20300475 0.06784166 -0.01980999 -0.12219194 -0.038934637 0.10605952 0.049833454 0.12027009
-0.10564837 -0.29001114 0.04769313 0.1583538 -0.039608326 -0.015333286 -0.008384239 -0.27404532
-0.011625289 0.1439035 0.062022295 0.20632094 0.031243887 -0.106861725 0.0077662766 0.21147352
-0.064248346 0.14205132 -0.09725867 -0.037602045 0.15325937 0.118592195 -0.14360172 0.20222688
-0.20925464 -0.19642913 -0.053572237 0.079455785 -0.15535879 0.012198096 0.030719807 -0.0462078
-0.032557078 -0.043288708 0.101857744 -0.05112714 -0.14064743 0.015992664 0.07725238 0.027766455
0.07837202 0.1175734 0.13913043 -0.061029203 0.12631269 -0.06051706 -0.03100297 0.07617516
-0.064925335 0.028342959 0.072465114 0.16103454 0.13401456 0.010146338 -0.05435746 -0.13713618
-0.09162846 0.14707837 0.0062068114 -0.08788292 0.057022907 -0.02867863 -0.05600622 0.11945906
-0.08812693 -0.10765841 0.071491174 -0.029409634 -0.11164047 0.076422766 -0.018813785 -0.10010929
0.0075344834 0.15098302 0.06709789 -0.06895978 0.11363834 -0.033123877 -0.12462651 0.1587772
0.023841627 -0.15060338 0.05465402 -0.008074378 0.14421843 -0.002883605 0.10546359 0.08522366
0.13737541 -0.05240461 -0.11577357 0.12737906 0.06570595 -0.015139602 0.0875201 -0.036647577
-0.060760774 0.0684117 -0.1251472 0.12413283 -0.123213544 -0.1977213 0.08770608 0.16788925
-0.12011221 -0.05518745 0.014268301 0.027953675 0.088148974 0.04810759 -0.061881002 -0.020139158
0.12792993 0.0126144625 -0.08511113 -0.04662124 0.016236376 0.15013427 -0.049126502 -0.09676066
0.0024155607 0.07228151 0.081019 -0.10430089 -0.09066493 -0.049924985 0.039550252 -0.12040464
-0.055706125 -0.08570561 -0.053349115 0.0099209575 -0.057974067 0.038397945 -0.034334615 0.05142715
-0.10288688 0.041354593 0.13198432 0.0016988922 -0.054608244 -0.100463346 0.12971586 -0.12902507
0.13042623 0.16238934 0.0010924956 0.046271194 0.05484254 0.12649518 -0.02161717 0.06626481
0.0080883065 0.12925808 0.05202858 0.0957276 0.08681129 0.022149421 0.07610764 0.065971255
0.008639023 0.14223886 -0.17729296 -0.20993881 0.14839219 0.12410956 -0.050651845 0.07703354
-0.14865622 0.026338132 0.12915713 0.1388539 0.0763906 -0.10102692 -0.17198394 -0.14676471
-0.09994993 0.02207637 -0.060470335 0.1265284 -0.05085054 -0.119392514 0.040172346 -0.096044
-0.008073217 -0.063785 0.0019666369 -0.24152015 0.08119909 -0.06793271 0.04414771 -0.017807215
0.021651452 -0.2520897 0.014139247 -0.05392032 -0.017603328 0.0036883124 0.071099944 0.21651877
00000000: 891c bb3d 9c5e d9bd e357 c03b 887a 96bd
00000010: 1145 23be 896b 973d bf7e b13d a62b 1c3e
00000020: 0b8f df3d 3625 f2bd ae2f 28bd ea6c 013d
00000030: 730e 95bd 9c10 00be 0067 233c 86d8 8bbd
00000040: 172b 773d 48b8 02bd fcd3 32bd 5774 30bd
00000050: f63c 533b 6a01 ef3d 9021 043e 4447 8dbd
00000060: ba65 a93c 1a0c 16bc e227 a63d bd4b 57bc
00000070: 8959 bdbd 6ce8 af3d e79d cb3d 79e0 813d
00000080: 33a3 35bd 6ced 013e 3eba ab3c 64f2 0abe
00000090: e4eb 20be 1953 47bd 7e4f 7a3d c973 793d
000000a0: 1b66 0abe a459 f93d fe12 d63c 8637 0ebe
000000b0: 2857 28be 7a80 b8bc baf7 ec3d d002 273e
000000c0: 7ae0 4fbe 91f0 8a3d 8f48 a2bc c53f fabd
000000d0: ed79 1fbd bc35 d93d 2a1e 4c3d 2a50 f63d
000000e0: 2c5e d8bd 577c 94be df59 433d 8027 223e
000000f0: 573c 22bd 7638 7bbc 0c5e 09bc ab4f 8cbe
00000100: ff77 3ebc 705b 133e 170b 7e3d cc45 533e
00000110: 2ef3 ff3c 52da dabd 407c fe3b 848c 583e
00000120: a394 83bd e775 113e 8e2f c7bd 9a04 1abd
00000130: 06f0 1c3e 77e0 f23d 540c 13be 9014 4f3e
00000140: d946 56be b824 49be 906e 5bbd b7b9 a23d
00000150: 6016 1fbe 86da 473c 1ba8 fb3c 6444 3dbd
00000160: 925a 05bd 804f 31bd cb9a d03d b16a 51bd
00000170: e105 10be 0c03 833c 7f36 9e3d 7a76 e33c
00000180: 8281 a03d 53ca f03d 3578 0e3e c2f9 79bd
00000190: 1d58 013e bde0 77bd f1f9 fdbc b901 9c3d
000001a0: 93f7 84bd 7e2f e83c 9768 943d 3de6 243e
000001b0: 1d3b 093e d33c 263c eea5 5ebd 6d6d 0cbe
000001c0: b4a7 bbbd b69b 163e 8262 cb3b f6fb b3bd
000001d0: da90 693d 72ef eabc c766 65bd f4a6 f43d
000001e0: e47b b4bd 037c dcbd f769 923d 79ec f0bc
000001f0: c2a3 e4bd 8a83 9c3d 5e1f 9abc 1906 cdbd
00000200: d4e3 f63b 4b9b 1a3e 9e6a 893d c93a 8dbd
00000210: 38bb e83d e7ac 07bd 2f3c ffbd 7e96 223e
00000220: 844f c33c c637 1abe e5dc 5f3d 654a 04bc
00000230: ffad 133e ddfa 3cbb 4bfd d73d be89 ae3d
00000240: 24ac 0c3e 37a6 56bd b21a edbd a86f 023e
00000250: d790 863d 180c 78bc bd3d b33d c51b 16bd
00000260: 4ae0 78bd 6f1b 8c3d 9626 00be 5a39 fe3d
00000270: 6257 fcbd 7477 4abe 3f9f b33d 29eb 2b3e
00000280: 64fd f5bd 3c0c 62bd 98c5 693c 1bff e43c
00000290: 7387 b43d 770c 453d ef76 7dbd e0fa a4bc
000002a0: 1000 033e e4ac 4e3c be4e aebd eaf5 3ebd
000002b0: 2602 853c ccbc 193e df38 49bd 742a c6bd
000002c0: 624e 1e3b 5408 943d 4aed a53d b49b d5bd
000002d0: 89ae b9bd 247e 4cbd 72ff 213d b596 f6bd
000002e0: 1b2c 64bd 6c86 afbd 9a84 5abd 838b 223c
000002f0: 3776 6dbd 2a47 1d3d 74a2 0cbd 46a5 523d
00000300: 5bb6 d2bd 6f63 293d e626 073e 5dad de3a
00000310: e5ac 5fbd babf cdbd 3cd4 043e 261f 04be
00000320: 748e 053e 6449 263e 1232 8f3a dd86 3d3d
00000330: 92a2 603d f487 013e 7e16 b1bc d8b5 873d
00000340: d184 043c 3b5c 043e ec1b 553d d50c c43d
00000350: 1eca b13d b472 b53c 53de 9b3d f01b 873d
00000360: b08a 0d3c 10a7 113e 498c 35be 33fa 56be
00000370: 1ff4 173e 272d fe3d 4f78 4fbd c3c3 9d3d
00000380: 5639 18be 11c3 d73c c441 043e b72f 0e3e
00000390: ad72 9c3d 34e7 cebd 8f1c 30be 7d49 16be
000003a0: 8db2 ccbd 81d9 b43c beaf 77bd a990 013e
000003b0: a848 50bd 1084 f4bd c28b 243d b7b2 c4bd
000003c0: 8745 04bc b6a1 82bd b1e2 003b 0f51 77be
000003d0: b54b a63d 4e20 8bbd 3bd4 343d 70e0 91bc
000003e0: 635e b13c e711 81be 4da8 673c 8edb 5cbd
000003f0: db34 90bc 9db7 713b d99c 913d 19b7 5d3e

stacks.0.blocks.0.fc1.bias f4 [50]
-0.13957518 0.011291825 -0.2134173 0.11212478 -0.15604477 -0.038063712 0.1328053 -0.122927025
0.07658973 0.06851267 0.049762517 0.05639045 -0.037038013 -0.2694704 -0.25439572 -0.191929
0.0125088245 -0.22843355 0.054290995 0.1465455 -0.08846481 0.116570935 -0.14658812 0.035602577
-0.068781175 -0.10040686 -0.19887234 -0.21314795 -0.22289665 0.019959379 0.115913585 -0.22096512
-0.17437184 -0.021453941 -0.15216418 -0.18442698 -0.060644496 -0.22548729 0.12381566 -0.13581528
0.076435626 -0.0247602 0.09867443 0.0835563 0.009626194 0.06660723 -0.11833301 -0.16235435
0.020805301 -0.057113297
00000000: ccec 0ebe 5901 393c 118a 5abe ada1 e53d
00000010: 33ca 1fbe b2e8 1bbd 1dfe 073e 2ac1 fbbd
00000020: 14db 9c3d 5f50 8c3d c8d3 4b3d acf9 663d
00000030: 2cb5 17bd 06f8 89be 2840 82be 0989 44be
00000040: d0f1 4c3c 7cea 69be 3c60 5e3d 0610 163e
00000050: 0a2d b5bd bebc ee3d 321b 16be 02d4 113d
00000060: 25dd 8cbd 1da2 cdbd 31a5 4bbe 7543 5abe
00000070: 053f 64be da81 a33c 1a64 ed3d ae44 62be
00000080: 888e 32be 2dc0 afbc edd0 1bbe 6dda 3cbe
00000090: 5d66 78bd 24e6 66be 1193 fd3d 2913 0bbe
000000a0: 488a 9c3d e7d5 cabc d215 ca3d 911f ab3d
000000b0: 2fb7 1d3c 5f69 883d 9458 f2bd 3840 26be
000000c0: e16f aa3c a2ef 69bd

stacks.0.blocks.0.fc2.weight f4 [50, 50]
-0.08919692 0.009720766 0.017210238 -0.04496927 -0.12092151 0.11271329 -0.046151426 0.107017696
-0.057074685 0.033590112 -0.14123471 0.12377429 -0.022566373 -0.1130378 -2.5463793e-05 0.046691634
0.0016538589 0.010744021 -0.15552229 -0.1943086 0.075984225 0.10143757 0.10728401 0.066537924
0.03267373 -0.06332354 -0.0034205795 0.053758908 -0.06184193 -0.046853043 0.07638217 0.0050043473
-0.12365861 0.026319062 -0.027509749 -0.076058075 0.13337499 0.081291564 -0.14639668 0.062337272
-0.18066593 -0.10189532 -0.1427756 -0.079961374 0.044602666 -0.11017775 -0.01969775 0.033847142
-0.14293288 0.0064858347 -0.02695499 0.054058965 0.019401656 -0.0216271 -0.035644468 -0.07060518
0.14038272 -0.014575421 0.16460073 0.15050952 0.05117811 -0.11499781 -0.01749152 0.100229956
-0.039964147 0.034740508 -0.06509809 0.044352785 0.14674847 -0.07877803 -0.101323806 0.082898825
0.01605252 -0.13467436 0.00021938451 0.0018976554 -0.057204444 0.10848483 -0.010400149 0.069983445
0.031598493 -0.06581542 -0.101835966 0.08424287 -0.0849611 -0.03250752 -0.0263739 0.076113425
0.0077079106 -0.08027905 0.11485507 0.024530739 -0.065070495 0.10307873 -0.104683496 -0.123664826
-0.02472675 -0.050118946 0.052033614 0.054950096 -0.07956512 0.095883995 -0.0472751 -0.09330971
-0.023094824 0.08788448 0.0069112848 -0.07428593 -0.027069684 -0.036209043 -0.045684192 -0.18227261
-0.06556204 0.12143076 -0.15403382 -0.012151526 0.12079579 -0.02551332 0.053116366 -0.13962756
-0.03473832 -0.16142595 0.062919125 0.05153233 -0.056480117 0.08349807 -0.040259443 -0.13150784
-0.026420651 0.13827246 0.056057647 0.00568926 -0.07635679 0.1012098 -0.08219642 0.062494595
-0.03738224 0.07164482 -0.1364547 0.06583454 -0.05552308 -0.08667788 -0.09959508 -0.14507183
-0.06353014 -0.06323917 -0.10169626 0.0072476165 0.11156756 -0.13059507 -0.08642672 -0.07293332
0.08161092 -0.13725075 0.06655806 0.115500286 -0.02982638 -0.08940603 -0.0057144314 -0.06682169
0.12895246 0.13302274 0.08274235 0.050897613 -0.011645719 -0.13381861 -0.098972656 0.081954956
-0.08959544 0.021553606 -0.03271447 -0.13740614 0.12968524 -0.12270068 -0.13630165 0.08114448
-0.037919305 0.0601151 -0.06504832 -0.10438065 0.08270532 0.022242025 -0.09920436 0.060768157
-0.038335122 -0.053010166 0.024850875 -0.043789834 -0.11436199 0.024338603 -0.13830125 0.08579816
-0.08051859 0.007287517 0.0107834935 0.050251365 0.12704863 -0.12938432 0.030441537 -0.028149784
-0.010921413 -0.092989445 -0.080797404 0.08368728 0.093673535 -0.11266261 0.130931 -0.12779635
0.06585286 0.11787817 0.010423514 -0.091575414 0.06708392 0.12220833 0.0117338225 0.069702774
-0.100280635 -0.1127921 0.11024865 0.085295804 -0.12818526 -0.12594986 0.058347564 0.04739493
-0.022650268 -0.04640216 -0.09507331 0.025318323 0.07413566 0.017967824 0.0020528713 0.0866298
-0.07450281 0.08411086 0.037778437 -0.11331912 -0.16723023 0.15457366 -0.044463884 -0.031864952
-0.092822075 -0.078086965 0.13039453 0.12562564 0.007070109 -0.082936876 -0.11379416 0.0837029
0.117475115 0.14983432 -0.083062425 0.1196679 0.100339174 0.037500348 -0.05260221 0.041859683
00000000: e0ac b6bd d943 1f3c 7cfc 8c3c b231 38bd
00000010: b2a5 f7bd 3ad6 e63d 4709 3dbd 182c db3d
00000020: 25c7 69bd c995 093d d59f 10be 607d fd3d
00000030: 1ddd b8bc 5d80 e7bd 149b d5b7 ba3f 3f3d
00000040: 4cc6 d83a b107 303c 3c41 1fbe d5f8 46be
00000050: 9e9d 9b3d 80be cf3d b8b7 db3d 0945 883d
00000060: e4d4 053d c6af 81bd cd2b 60bb 4d32 5c3d
00000070: f74d 7dbd fae8 3fbd 416e 9c3d 82fb a33b
00000080: ba40 fdbd 139b d73c 205c e1bc 56c4 9bbd
00000090: 7493 083e 317c a63d 03e9 15be 5e55 7f3d
000000a0: 7d00 39be 7eae d0bd c433 12be cac2 a3bd
000000b0: 49b1 363d dfa4 e1bd 2d5d a1bc 4da3 0a3d
000000c0: ff5c 12be 2087 d43b b6d0 dcbc ef6c 5d3d
000000d0: 39f0 9e3c 512b b1bc efff 11bd 7399 90bd
000000e0: 7dc0 0f3e bfcd 6ebc 188d 283e 2b1f 1a3e
000000f0: 23a0 513d f983 ebbd 604a 8fbc 5d45 cd3d
00000100: 72b1 23bd 104c 0e3d 2652 85bd 44ab 353d
00000110: 3b45 163e 6056 a1bd db82 cfbd dcc6 a93d
00000120: 9380 833c 13e8 09be 950a 6639 c0ba f83a
00000130: 354f 6abd 4b2d de3d 6365 2abc 7b53 8f3d
00000140: 6c6d 013d 3cca 86bd 608f d0bd 8787 ac3d
00000150: 1600 aebd 9b26 05bd 140e d8bc 5be1 9b3d
00000160: a492 fc3b 5869 a4bd 2339 eb3d b0f4 c83c
00000170: ae43 85bd f11a d33d 4d64 d6bd fc43 fdbd
00000180: c18f cabc 8649 4dbd 3321 553d 5a13 613d
00000190: 0af3 a2bd d45e c43d 89a3 41bd 2919 bfbd
000001a0: 5b31 bdbc c7fc b33d 0f78 e23b 3923 98bd
000001b0: 3ec1 ddbc ef4f 14bd 591f 3bbd aca5 3abe
000001c0: 6445 86bd b1b0 f83d 0bbb 1dbe 3217 47bc
000001d0: c863 f73d 4f01 d1bc 8c90 593d 87fa 0ebe
000001e0: c549 0ebd d84c 25be bedb 803d 9113 533d
000001f0: b257 67bd 0901 ab3d 16e7 24bd fea9 06be
00000200: 1f70 d8bc 4c97 0d3e b49c 653d f96c ba3b
00000210: f360 9cbd 1547 cf3d 9956 a8bd 55fa 7f3d
00000220: 1f1e 19bd 85ba 923d c8ba 0bbe 42d4 863d
00000230: 2b6c 63bd 2c84 b1bd 81f8 cbbd b68d 14be
00000240: 171c 82bd 8a83 81bd 2146 d0bd 6a7d ed3b
00000250: 887d e43d b7ba 05be 7e00 b1bd 115e 95bd
00000260: a023 a73d 768b 0cbe 984f 883d 6a8b ec3d
00000270: 7456 f4bc 821a b7bd 2040 bbbb cfd9 88bd
00000280: 1d0c 043e 1d37 083e d274 a93d 047a 503d
00000290: b0cd 3ebc bf07 09be 2db2 cabd 00d8 a73d
000002a0: d07d b7bd 3091 b03c 9cff 05bd 32b4 0cbe
000002b0: 35cc 043e 7e4a fbbd a992 0bbe 142f a63d
000002c0: 4651 1bbd 403b 763d 0e38 85bd 86c5 d5bd
000002d0: 6861 a93d e834 b63c a82b cbbd 08e8 783d
000002e0: 4a05 1dbd 3021 59bd 1094 cb3c f85c 33bd
000002f0: 9e36 eabd c061 c73c d89e 0dbe f2b6 af3d
00000300: eee6 a4bd 20cc ee3b 40ad 303c 60d4 4d3d
00000310: 0919 023e 537d 04be 8860 f93c 609a e6bc
00000320: baef 32bc 4071 bebd 1c79 a5bd 3d64 ab3d
00000330: e9d7 bf3d a8bb e6bd c712 063e 0cdd 02be
00000340: dddd 863d 1c6a f13d 63c7 2a3c e48b bbbd
00000350: 4b63 893d 5c48 fa3d 383f 403c 54c0 8e3d
00000360: ef5f cdbd 8bff e6bd 0bca e13d 91af ae3d
00000370: ff42 03be 00f9 00be dbfd 6e3d 3021 423d
00000380: 0e8d b9bc 3110 3ebd ccb5 c2bd 5f68 cf3c
00000390: 70d4 973d 4231 933c 7789 063b f76a b13d
000003a0: ee94 98bd 5142 ac3d 90bd 1a3d db13 e8bd
000003b0: 673e 2bbe 8f48 1e3e c31f 36bd d384 02bd
000003c0: 8019 bebd 0fec 9fbd 2586 053e 02a4 003e
000003d0: 5fac e73b cfda a9bd ea0c e9bd 6d6c ab3d
000003e0: cb96 f03d 2b6e 193e a21c aabd 7214 f53d
000003f0: a07e cd3d f799 193d 6a75 57bd 0f75 2b3d

stacks.0.blocks.0.fc2.bias f4 [50]
-0.02642842 -0.0021976396 -0.06490228 -0.09914234 0.065407775 0.105261914 0.0021145414 -0.14611013
0.04213523 -0.12188016 -0.06913563 -0.012894645 -0.1546859 0.043172903 -0.15370506 -0.13185234
-0.0076982845 -0.12139515 0.07391764 0.023328416 -0.08990238 -0.0368019 -0.07430771 0.04451312
-0.13650268 0.08101472 -0.17100745 0.036165576 0.15034667 -0.052815266 -0.16678756 0.02763328
-0.059538174 -0.12234636 -0.14085321 0.026315523 -0.14629592 0.14088546 -0.10168339 -0.07164387
0.059998076 -0.12589858 0.06506402 -0.09701559 0.09974442 -0.05635526 0.030275248 -0.024168702
-0.010713557 -0.18319441
00000000: 6a80 d8bc 4606 10bb 7deb 84bd 240b cbbd
00000010: 83f4 853d 8f93 d73d 1e94 0a3b e59d 15be
00000020: fe95 2c3d 4e9c f9bd fb96 8dbd 1044 53bc
00000030: fb65 1ebe 12d6 303d dc64 1dbe 4d04 07be
00000040: e441 fcbb 059e f8bd 2262 973d 3c1b bf3c
00000050: bd1e b8bd 97bd 16bd a42e 98bd 6453 363d
00000060: 5cc7 0bbe 0ceb a53d 941c 2fbe 5b22 143d
00000070: 7af4 193e d254 58bd 5cca 2abe 305f e23c
00000080: 4dde 73bd ba90 fabd d33b 10be a793 d73c
00000090: 99ce 15be 4744 103e 623f d0bd 05ba 92bd
000000a0: 8bc0 753d 8feb 00be 4940 853d 1cb0 c6bd
000000b0: cd46 cc3d c6d4 66bd cc03 f83c 71fd c5bc
000000c0: ea87 2fbc 5197 3bbe

stacks.0.blocks.0.fc3.weight f4 [50, 50]
0.025435483 -0.010130803 -0.14811337 -0.066820204 0.124705404 -0.0947743 0.11040059 -0.017688796
-0.12173326 0.10883697 0.16618593 0.039132357 -0.0058449954 -0.13235244 -0.057980217 -0.063498646
-0.08031135 0.14293656 0.112353966 -0.087802894 -0.02932643 -0.12463492 0.07759601 0.0031396926
0.06780366 -0.089268245 0.122779496 -0.12581827 -0.13734965 0.10352105 -0.13430057 0.07328684
0.054754723 -0.056939192 0.07926598 0.022655625 -0.0129731735 -0.12572058 -0.023945892 0.074527636
-0.09232364 -0.10772125 -0.10703643 0.029927555 -0.10873743 -0.086301595 0.06560505 -0.08327629
-0.0015361587 -0.020589592 0.05065469 0.083460264 -0.059128616 0.05772707 0.020151995 -0.07974307
0.005622516 0.065839045 -0.021436319 0.017758764 -0.10155459 0.12581275 0.14408223 0.1283056
0.042160608 -0.09746442 -0.11483493 0.09548658 0.10592549 0.054411087 -0.055319227 0.092531405
0.09717288 0.08695653 0.039646816 0.09511956 -0.13791527 -0.08214851 0.12990741 0.12630707
-0.0027942949 -0.015044021 -0.10053623 -0.103492744 -0.09892463 0.03067655 0.06109383 0.13248478
-0.056602746 -0.098345734 -0.121214606 -0.115841694 0.023301778 0.087541245 0.084552735 -0.020407965
0.11111968 0.08324976 -0.021715663 -0.053835303 -0.071638055 -0.033503808 -0.09105725 0.023908049
0.14361462 -0.093147956 -0.07873279 0.0013907203 0.1414152 -0.03391285 0.025511067 0.026670061
0.12185743 -0.06522464 -0.028052283 0.041883577 -0.009543574 -0.06706735 0.013568721 0.12253214
-0.0780316 0.05245387 0.10197314 -0.11393085 0.04200057 -0.0026822716 0.115339994 0.11228425
-0.01323268 0.114825144 0.025846913 -0.12914921 0.11562517 0.12929775 -0.011794998 0.050841525
0.07582143 -0.122878954 -0.010684503 0.009060717 0.0075185127 0.037906397 0.0069585303 -0.060181517
0.07356075 0.07935179 -0.08912961 0.04202191 0.06247484 -0.12940058 0.01187789 -0.09809581
-0.04024123 0.023594677 0.020439185 0.09342739 -0.0014199166 0.07872511 0.13789038 -0.05128377
0.08356526 0.12641336 -0.058326017 -0.06574127 0.10153582 -0.11094236 0.083706595 0.05837034
-0.010530999 -0.01164604 0.12926175 -0.15189445 -0.120598085 0.052164927 -0.024184948 -0.06232472
-0.15069097 -0.0031424137 -0.075968765 0.020378783 -0.10465103 -0.027610004 0.004203325 0.094352
-0.11042162 -0.11098227 -0.08966965 0.042390335 -0.0021344218 -0.107072555 -0.051427603 0.1227053
0.090380654 0.049021162 0.11728306 0.072611086 -0.09867893 0.04034423 0.031162165 0.041996222
-0.12695436 0.115755334 -0.011952111 -0.096046045 -0.12373718 0.059765864 0.09790533 -0.07738966
-0.035323925 -0.113178216 0.07821632 0.10755265 -0.0765709 -0.0281279 -0.119983554 0.099683225
0.012334345 -0.035082143 0.0939462 0.10960428 0.12754315 0.049491365 0.08016275 -0.0143936835
0.07629064 0.11163481 0.055498973 0.053219024 0.1222989 -0.13756971 -0.04447456 0.13609812
0.10382289 -0.03296688 -0.10598707 0.06613406 -0.0816797 0.050506037 0.05052385 0.143218
0.08659629 -0.057765577 0.022645218 -0.17742547 -0.023095388 -0.0963126 0.019557877 0.094378985
0.07251886 -0.0826225 -0.04499015 0.04707 -0.06580292 -0.057970583 -0.14929774 0.021998918
00000000: 135e d03c abfb 25bc 08ab 17be 08d9 88bd
00000010: 8c65 ff3d 0719 c2bd b419 e23d 18e8 90bc
00000020: 4a4f f9bd ebe5 de3d a52c 2a3e 4049 203d
00000030: 6087 bfbb 6687 07be aa7c 6dbd 940b 82bd
00000040: 477a a4bd f65d 123e d619 e63d 01d2 b3bd
00000050: fb3d f0bc 9840 ffbd a8ea 9e3d 4dc3 4d3b
00000060: a5dc 8a3d 45d2 b6bd d173 fb3d 81d6 00be
00000070: 63a5 0cbe d802 d43d 1786 09be 6917 963d
00000080: 7d46 603d 1239 69bd 3456 a23d 4a98 b93c
00000090: 6f8d 54bc e5bc 00be 2d2a c4bc f2a1 983d
000000a0: 2d14 bdbd f59c dcbd ea35 dbbd a22a f53c
000000b0: bbb1 debd e4be b0bd f15b 863d c28c aabd
000000c0: ef58 c9ba 81ab a8bc 4b7b 4f3d 37ed aa3d
000000d0: d930 72bd 3873 6c3d cc15 a53c 5650 a3bd
000000e0: 153d b83b 9fd6 863d 389b afbc d47a 913c
000000f0: dafb cfbd 0fd5 003e 4b8a 133e 8b62 033e
00000100: 9ab0 2c3d 6d9b c7bd 932e ebbd 788e c33d
00000110: 77ef d83d 29de 5e3d 6a96 62bd 1b81 bd3d
00000120: 9302 c73d 4416 b23d b364 223d 0bce c23d
00000130: a939 0dbe 7a3d a8bd 7306 053e a456 013e
00000140: 7d20 37bb 337b 76bc f0e5 cdbd 01f4 d3bd
00000150: ff98 cabd 634d fb3c 863d 7a3d 17aa 073e
00000160: 48d8 67bd 7d69 c9bd 5d3f f8bd 693e edbd
00000170: 5fe3 be3c d348 b33d fc29 ad3d 9b2e a7bc
00000180: b792 e33d da7e aa3d 0ce5 b1bc 6882 5cbd
00000190: f9b6 92bd 4a3b 09bd 397c babd d0da c33c
000001a0: b60f 133e 5bc4 bebd a83e a1bd d448 b63a
000001b0: 25cf 103e 33e8 0abd 96fc d03c 2c7b da3c
000001c0: 6390 f93d 7f94 85bd e7cd e5bc 1d8e 2b3d
000001d0: a75c 1cbc 9b5a 89bd 574f 5e3c 21f2 fa3d
000001e0: 08cf 9fbd dfd9 563d 4bd7 d03d 9454 e9bd
000001f0: ca08 2c3d 0dc9 2fbb 6037 ec3d 49f5 e53d
00000200: e2cd 58bc 7229 eb3d e8bc d33c b13f 04be
00000210: e4cc ec3d a166 043e cf3f 41bc 343f 503d
00000220: 4448 9b3d f6a7 fbbd 0e0e 2fbc 6773 143c
00000230: db5d f63b bd43 1b3d 6204 e43b e580 76bd
00000240: 05a7 963d 3183 a23d 9689 b6bd 2b1f 2c3d
00000250: 9ee5 7f3d 9681 04be 7b9b 423c 75e6 c8bd
00000260: fdd3 24bd a049 c13c 1470 a73c dc56 bf3d
00000270: 7f1c baba a13a a13d 2333 0d3e ee0e 52bd
00000280: 4324 ab3d 8172 013e 43e7 6ebd 5ca3 86bd
00000290: 03f2 cf3d bf35 e3bd 5d6e ab3d bd15 6f3d
000002a0: 368a 2cbc 08cf 3ebc 315d 043e 388a 1bbe
000002b0: 21fc f6bd e4aa 553d 831f c6bc 3548 7fbd
000002c0: bc4e 1abe f4f0 4dbb 8395 9bbd 68f1 a63c
000002d0: 4753 d6bd 602e e2bc 0cbc 893b 9f3b c13d
000002e0: bb24 e2bd ac4a e3bd b9a4 b7bd 7da1 2d3d
000002f0: a8e1 0bbb db48 dbbd c0a5 52bd eb4c fb3d
00000300: 7e19 b93d 6aca 483d 1a32 f03d 1fb5 943d
00000310: 2e18 cabd fe3f 253d cc47 ff3c 3b04 2c3d
00000320: 5300 02be 2211 ed3d c9d2 43bc cab3 c4bd
00000330: eb69 fdbd 0dcd 743d 9782 c83d 787e 9ebd
00000340: d2af 10bd fbc9 e7bd e12f a03d 9044 dc3d
00000350: 34d1 9cbd 7b6c e6bc f0b9 f5bd b826 cc3d
00000360: fe15 4a3c 4bb2 0fbd de66 c03d 3578 e03d
00000370: ac9a 023e 75b7 4a3d 5e2c a43d 7cd3 6bbc
00000380: 443e 9c3d cba0 e43d e452 633d 31fc 593d
00000390: d877 fa3d 13df 0cbe f52a 36bd 4e5d 0b3e
000003a0: 18a1 d43d 4708 07bd c00f d9bd 4b71 873d
000003b0: b047 a7bd 6bdf 4e3d 19f2 4e3d bda7 123e
000003c0: 6559 b13d 999b 6cbd 7782 b93c 06af 35be
000003d0: 8a32 bdbc 8a3f c5bd d737 a03c c549 c13d
000003e0: c584 943d fc35 a9bd 9747 38bd 79cc 403d
000003f0: aec3 86bd 9072 6dbd 82e1 18be 1337 b43c

stacks.0.blocks.0.fc3.bias f4 [50]
0.112375975 -0.023703342 0.08591128 -0.16536422 0.06032017 -0.10395846 0.10243563 0.07038113
0.12331931 -0.041627705 0.07750053 -0.15988512 0.054283254 -0.046020042 0.02294485 0.11597269
0.13274701 0.00010328976 0.13960384 0.08596282 -0.07523607 -0.060419705 -0.038179535 0.11299254
-0.019904928 0.07701737 -0.15994392 -0.11642777 -0.040277865 0.0993421 0.019683316 -0.086604334
0.11240183 0.13863876 -0.1394407 -0.18644057 -0.10005067 0.070299774 0.05726606 0.10266365
-0.10989731 -0.12729053 -0.16686024 0.11596844 -8.384735e-06 -0.086333275 0.04121991 -0.014513941
0.10101792 -0.11406684
00000000: 6025 e63d 832d c2bc 41f2 af3d 3d55 29be
00000010: 4812 773d 2ce8 d4bd c6c9 d13d fb23 903d
00000020: d68e fc3d d081 2abd 99b8 9e3d edb8 23be
00000030: 1e58 5e3d 837f 3cbd d7f6 bb3c 1783 ed3d
00000040: d5ee 073e 459d d838 4ff4 0e3e 460d b03d
00000050: 5e15 9abd a77a 77bd 2562 1cbd a268 e73d
00000060: a90f a3bc 48bb 9d3d 57c8 23be af71 eebd
00000070: 67fa 24bd df73 cb3d e83e a13c 9d5d b1bd
00000080: ee32 e63d 52f7 0d3e 8bc9 0ebe 47ea 3ebe
00000090: 5ee7 ccbd 54f9 8f3d d18f 6a3d 5241 d23d
000000a0: d711 e1bd 7358 02be 69dd 2abe dd80 ed3d
000000b0: 2aac 0cb7 80cf b0bd 35d6 283d e1cb 6dbc
000000c0: 7ce2 ce3d e09b e9bd

stacks.0.blocks.0.fc4.weight f4 [50, 50]
0.026680738 -0.035508614 0.1336176 -0.112854645 -0.02421492 0.07168169 0.03459099 0.052714154
-0.09539863 -0.04488065 -0.06723559 0.102760896 -0.03846301 0.025211185 0.04910308 0.050692707
-0.07776626 -0.043645944 0.076615974 -0.057559326 -0.07714456 0.05951854 -0.012270257 0.12340589
0.06144712 0.0864467 0.064115204 -0.1214182 -0.10465349 -0.024750113 -0.1393121 -0.07607716
-0.13686468 -0.107189745 0.027026527 -0.07276318 0.010768247 0.094212554 0.068807125 -0.11577336
0.11732016 -0.079635516 -0.12073338 -0.122595705 0.032104265 0.10984887 0.07457989 0.12581845
0.113993645 0.09021458 -0.05531686 0.09008339 0.084453136 -0.06579862 -0.0922496 -0.002851808
-0.004903123 -0.036251362 0.08841637 0.05382614 0.13764155 0.099663235 -0.12530258 -0.13991857
-0.10422117 -0.11512147 0.11852911 0.08536161 0.10709626 -0.060894314 0.058017753 0.026095554
0.027256772 -0.06731626 0.063576855 0.09799459 -0.044806264 0.1475572 0.08118149 0.005993175
0.06942821 0.062340885 -0.0069112317 0.06818109 0.013236701 -0.10638035 0.16200376 0.017479299
-0.122356005 0.07283315 -0.10902178 -0.016690606 -0.14103886 0.02108702 -0.065185346 -0.09348563
-0.13330874 0.00077230507 -0.07843609 -0.08808479 -0.010841774 0.030273477 -0.08389137 -0.0071160304
-0.045232657 -0.11742917 -0.11971629 0.1092245 -0.09303688 -0.10569474 0.056619715 -0.012689308
-0.02730041 -0.085350946 0.11042371 0.07067173 0.051804874 -0.037809633 -0.054065373 -0.06171998
-0.029803738 0.10248748 -0.008255698 0.00044766266 0.10282226 -0.13730563 0.033781387 0.116588674
-0.03657945 0.11312883 0.046469565 -0.09929019 -0.112574115 0.02166712 -0.10785845 0.1067376
-0.11184876 0.06904053 0.039511986 -0.08010948 -0.0080111185 -0.026080364 0.1409309 0.0032029597
0.057944454 -0.03266142 0.020384705 0.046690926 0.09894217 -0.10335899 0.092366755 0.083017945
-0.10186717 -0.051548228 -0.004744068 -0.016103834 0.015255958 -0.049903303 0.13817967 0.015077367
0.063654855 0.06554888 -0.09615053 0.04241307 -0.034038417 -0.10404275 0.072708845 0.10791308
0.13081698 -0.12542701 -0.06669071 0.10714537 0.05772005 -0.06823078 0.08762173 0.0049634725
-0.043623574 -0.060131654 -0.077600256 -0.050128028 -0.053354993 0.10516551 -0.058782972 -0.118422955
0.102153614 0.038337365 0.05278425 0.097880885 -0.04956522 -0.005205527 -0.07135787 -0.08792791
-0.001927644 0.055177405 -0.08929901 -0.13944985 0.057331726 0.11194335 -0.06645181 -0.1315585
0.09739575 -0.03848896 -0.01981546 0.11542322 0.038235903 0.054472104 0.055433378 0.119869694
0.017788827 0.08140151 -0.06173037 -0.007973224 -0.088180825 -0.023166738 -0.0019918233 0.035147637
-0.11044324 -0.12092911 -0.1390215 0.022588968 0.12150301 0.08925879 0.0441166 -0.04787135
8.419156e-05 -0.12173259 -0.11651807 -0.117598936 -0.010109916 -0.09125122 0.042169735 0.02966398
-0.13775605 -0.10491602 0.07979785 0.12533711 0.06380448 -0.027547233 -0.058388628 -0.010380462
-0.12393096 -0.12275232 -0.0883792 -0.024580278 0.06461489 -0.05068007 -0.07191406 -0.09219801
0.05666372 0.025644064 -0.02750044 0.1450397 0.057776228 -0.101976186 -0.006159338 -0.015424076
00000000: 9091 da3c 7b71 11bd 0dd3 083e 5620 e7bd
00000010: 5e5e c6bc dacd 923d 48af 0d3d ccea 573d
00000020: 5b60 c3bd c6d4 37bd d0b2 89bd 4e74 d23d
00000030: 648b 1dbd b087 ce3c 5020 493d 28a3 4f3d
00000040: eb43 9fbd 17c6 32bd d6e8 9c3d 54c3 6bbd
00000050: f8fd 9dbd b6c9 733d 3009 49bc 3abc fc3d
00000060: faaf 7b3d f80a b13d d54e 833d 1baa f8bd
00000070: 9254 d6bd c0c0 cabc d5a7 0ebe 58ce 9bbd
00000080: 4126 0cbe 4c86 dbbd bc66 dd3c dd04 95bd
00000090: 4d6d 303c 83f2 c03d c0ea 8c3d 951a edbd
000000a0: 8d45 f03d f217 a3bd 1043 f7bd 7513 fbbd
000000b0: c37f 033d 72f8 e03d 57bd 983d 8dd6 003e
000000c0: 8075 e93d 6cc2 b83d ef93 62bd a47d b83d
000000d0: c4f5 ac3d 6dc1 86bd 5ced bcbd 66e5 3abb
000000e0: 60aa a0bb 4f7c 14bd a413 b53d cc78 5c3d
000000f0: e8f1 0c3e 3d1c cc3d 524f 00be d046 0fbe
00000100: e971 d5bd cec4 ebbd 64bf f23d 11d2 ae3d
00000110: 4955 db3d 516c 79bd 06a4 6d3d 58c6 d53c
00000120: 9849 df3c 1bdd 89bd 9534 823d 63b1 c83d
00000130: c686 37bd 3c19 173e 7b42 a63d 6562 c43b
00000140: 6130 8e3d 2859 7f3d 9d77 e2bb 87a2 8b3d
00000150: bfde 583c f1dd d9bd 50e4 253e bf30 8f3c
00000160: c995 fabd 8c29 953d d046 dfbd bdba 88bc
00000170: 7e6c 10be b0be ac3c e57f 85bd 6575 bfbd
00000180: 1682 08be 8474 4a3a 1aa3 a0bd cc65 b4bd
00000190: b2a1 31bc 1500 f83c 3dcf abbd 972d e9bb
000001a0: e145 39bd b47e f0bd d02d f5bd 18b1 df3d
000001b0: 1f8a bebd 7c76 d8bd 13ea 673d d1e6 4fbc
000001c0: 1ca5 dfbc 7acc aebd d325 e23d 57bc 903d
000001d0: 5931 543d 46de 1abd a773 5dbd 17ce 7cbd
000001e0: f826 f4bc f5e4 d13d e842 07bc 44b4 ea39
000001f0: 7a94 d23d d999 0cbe 5a5e 0a3d 0bc6 ee3d
00000200: 55d4 15bd 17b0 e73d df56 3e3d a858 cbbd
00000210: 428d e6bd 3e7f b13c e4e4 dcbd 3e99 da3d
00000220: f610 e5bd 1f65 8d3d 52d7 213d 7010 a4bd
00000230: 1141 03bc 7da6 d5bc 3150 103e bfe8 513b
00000240: 2a57 6d3d fbc7 05bd d3fd a63c fc3e 3f3d
00000250: 31a2 ca3d e1ad d3bd c82a bd3d 5005 aa3d
00000260: bc9f d0bd 3c24 53bd 2074 9bbb 30ec 83bc
00000270: 20f4 793c 6867 4cbd f97e 0d3e 1007 773c
00000280: 7a5d 823d 7e3e 863d 92ea c4bd 54b9 2d3d
00000290: de6b 0bbd 5e14 d5bd 60e8 943d 8801 dd3d
000002a0: e3f4 053e f06f 00be 2495 88bd 086f db3d
000002b0: dc6b 6c3d 94bc 8bbd 0673 b33d a0a4 a23b
000002c0: a2ae 32bd 9c4c 76bd e2ec 9ebd 0c53 4dbd
000002d0: c48a 5abd 0461 d73d 6ac6 70bd bc87 f2bd
000002e0: ea35 d13d a407 1d3d 4c34 583d c675 c83d
000002f0: e604 4bbd 2093 aabb 1324 92bd 8c13 b4bd
00000300: 00a9 fcba b401 623d 66e2 b6bd f1cb 0ebe
00000310: acd4 6a3d 8e42 e53d e317 88bd 45b7 06be
00000320: 6c77 c73d 9aa6 1dbd 0854 a2bc 0263 ec3d
00000330: 409d 1c3d 241e 5f3d 1c0e 633d 3e7e f53d
00000340: e0b9 913c d6b5 a63d fcd8 7cbd 20a2 02bc
00000350: 2698 b4bd 2cc8 bdbc 4089 02bb f8f6 0f3d
00000360: 1130 e2bd aea9 f7bd a75b 0ebe 800c b93c
00000370: 92d6 f83d 50cd b63d 9cb3 343d c014 44bd
00000380: 0090 b038 f04e f9bd 07a1 eebd b6d7 f0bd
00000390: 10a4 25bc ebe1 babd 2cba 2c3d e001 f33c
000003a0: ec0f 0dbe 36de d6bd 0e6d a33d 5f58 003e
000003b0: ecab 823d bcaa e1bc ea28 6fbd d012 2abc
000003c0: 84cf fdbd 9165 fbbd 2700 b5bd 945c c9bc
000003d0: d054 843d e895 4fbd ae47 93bd 4fd2 bcbd
000003e0: 3818 683d 8013 d23c 9a48 e1bc 4a85 143e
000003f0: c4a6 6c3d e4d8 d0bd 46d4 c9bb 43b5 7cbc

stacks.0.blocks.0.fc4.bias f4 [50]
-0.15190563 0.0426295 0.061330378 -0.13206375 -0.10745299 0.06248085 -0.04464527 -0.11306403
-0.119031556 0.08394975 -0.122280106 0.13006 0.03868619 0.07229313 0.046828944 -0.033368893
-0.0956351 -0.007686529 -0.1266313 0.026844913 0.0847066 -0.012974917 -0.041764498 -0.09651662
0.054867502 -0.009664968 -0.14592986 0.031662926 -0.06963828 -0.09781636 0.11376162 0.13367411
-0.08763673 0.10869201 -0.14700727 -0.0058763325 -0.025938544 0.005624764 0.0353752 -0.104389764
0.018158369 -0.1354836 -0.03603241 0.0067221653 -0.10259332 -0.08671642 -0.027132962 -0.05909509
0.083277516 0.14289352
00000000: 268d 1bbe 459c 2e3d 9035 7b3d b83b 07be
00000010: 5010 dcbd ebeb 7f3d f5dd 36bd 1d8e e7bd
00000020: d1c6 f3bd d9ed ab3d fe6d fabd 732e 053e
00000030: 6975 1e3d 6c0e 943d b5cf 3f3d d2ad 08bd
00000040: 56dc c3bd 47df fbbb a3ab 01be dde9 db3c
00000050: a77a ad3d bf94 54bc 4011 2bbd 81aa c5bd
00000060: bfbc 603d d059 1ebc a36e 15be fcb0 013d
00000070: 849e 8ebd f253 c8bd dafb e83d dee1 083e
00000080: e37a b3bd eb99 de3d 1389 16be 408e c0bb
00000090: 127d d4bc f14f b83b 96e5 103d 4dca d5bd
000000a0: dcc0 943c 36bc 0abe b896 13bd 9c45 dc3b
000000b0: 721c d2bd 6198 b1bd f245 debc b10d 72bd
000000c0: 678d aa3d ae52 123e

stacks.0.blocks.0.theta_layer.weight f4 [43, 50]
-0.036792763 -0.048842024 -0.09897944 0.07559903 -0.13255398 -0.08187988 -0.095349394 0.033617172
-0.013681874 0.12670355 0.007197385 -0.05679554 0.09470492 -0.1287911 0.119802035 0.038143277
-0.08383438 0.13172993 0.049027935 0.024647793 0.027861753 -0.019794691 -0.021450743 0.015888188
0.0047507207 0.020130595 -0.02958317 0.1157216 -0.072112575 -0.10753 0.061241914 0.026561271
0.09674276 0.12268456 0.044233765 -0.0050766896 -0.14311425 -0.0143773155 -0.15285805 -0.11342023
0.05525662 0.019184574 -0.12604767 -0.077514246 -0.037221108 -0.009376422 -0.035848755 -0.027831908
-0.06777217 0.021572052 -0.1393448 0.07695708 -0.08018122 -0.14070216 0.02435501 -0.01017186
-0.16139126 -0.035788514 -0.023179524 -0.06591164 -0.04172958 -0.062106248 0.06559161 -0.09564867
0.121975124 -0.014878303 -0.08270263 -0.13051262 0.0023083836 -0.114715755 0.11271982 0.15085456
0.11008991 0.053802174 -0.1494139 0.115667075 -0.061355826 0.051186994 0.090460226 0.07078174
0.006455769 -0.13318098 0.03434533 -0.020819237 -0.025661036 0.109259136 0.13090667 -0.00781366
0.13246718 0.08580543 0.13124292 0.12212576 0.053862393 0.122679435 -0.09950525 -0.112774
-0.123210885 0.07771571 -0.041463133 -0.14295678 0.035325967 0.081506625 0.10269184 0.050955445
-0.12209002 0.14553109 -0.09861599 0.025420664 -0.09874012 0.028844036 -0.058388717 -0.09120042
0.07988519 0.08510433 -0.10258023 0.09554532 0.06760928 -0.08965949 0.088511124 0.110278174
0.02614282 0.16525249 0.023279488 -0.07079664 0.05626524 0.100119956 -0.02008168 0.13093035
-0.09750217 -0.05480893 0.15185826 0.05620028 0.084818855 0.10276447 0.025689304 0.11311259
-0.13065042 0.13540694 0.045928776 0.102720685 -0.06163114 0.0045761317 0.09128775 0.045843136
0.13173985 0.13249876 0.05413851 0.100602865 0.08669415 0.023049384 0.12543625 -0.06451919
0.11272788 -0.13043492 -0.017188817 -0.055366267 -0.053001273 0.114305906 -0.0027071089 0.06272808
-0.05332425 -0.049217403 0.05656406 -0.07684552 0.06630416 -0.0546923 0.10383449 0.16553439
-0.05381888 -0.071769156 -0.08108487 -0.10194055 -0.11917357 -0.0009817448 -0.023976473 -0.05182744
-0.045361236 0.004309505 0.12215953 0.059700966 0.087131806 -0.06597523 0.13573022 0.049836706
-0.000648376 -0.02812515 -0.024827525 0.04036533 -0.038266428 0.008594296 -0.01667925 -0.0643284
-0.08668058 0.07843257 -0.09284243 -0.05312836 0.12802319 -0.06944849 0.002048379 0.06761709
0.010485528 -0.01079252 -0.03984392 -0.023549788 0.037294388 0.10530422 0.016511073 -0.1569865
-0.065500356 0.05880249 -0.1123635 0.07713711 0.09014752 -0.07284151 0.18857372 0.0028543174
0.029721476 -0.11095313 -0.08415202 0.019270282 -0.0062057045 -0.10854506 0.10664481 0.03155857
-0.015259878 -0.11355314 -0.17560284 0.12023096 0.112585105 0.06707248 0.10389215 0.07355035
0.15391941 -0.025832264 0.056479014 -0.07564471 -0.11679243 0.041608393 0.0435732 0.110349044
-0.027972054 -0.0057732016 0.007189021 0.083821476 0.06751919 0.13169445 -0.01327267 0.10789609
-0.016063148 -0.042737268 0.07814418 -0.12760438 0.121919006 0.05975552 -0.10893068 0.045699533
00000000: 02b4 16bd 930e 48bd bcb5 cabd aad3 9a3d
00000010: 3bbc 07be a3b0 a7bd 8b46 c3bd 29b2 093d
00000020: f029 60bc 93be 013e 0bd8 eb3b 71a2 68bd
00000030: a7f4 c13d d0e1 03be c55a f53d 203c 1c3d
00000040: 5cb1 abbd 36e4 063e 84d1 483d 2bea c93c
00000050: 553e e43c 7a28 a2bc 78b9 afbc f227 823c
00000060: efab 9b3b ebe8 a43c 6758 f2bc 72ff ec3d
00000070: c2af 93bd b038 dcbd cdd8 7a3d 0697 d93c
00000080: 1121 c63d 0b42 fb3d 772e 353d 5c5a a6bb
00000090: 8b8c 12be d58e 6bbc d286 1cbe de48 e8bd
000000a0: c454 623d f828 9d3c a412 01be cabf 9ebd
000000b0: 2975 18bd 909f 19bc 25d6 12bd beff e3bc
000000c0: 23cc 8abd dfb7 b03c 67b0 0ebe ac9b 9d3d
000000d0: 0d36 a4bd 3a14 10be 2884 c73c e0a7 26bc
000000e0: c043 25be fa96 12bd fce2 bdbc affc 86bd
000000f0: a3ec 2abd 1f63 7ebd e554 863d 73e3 c3bd
00000100: 18ce f93d 20c4 73bc ff5f a9bd 1aa5 05be
00000110: 4048 173b 18f0 eabd a6d9 e63d 9e79 1a3e
00000120: d276 e13d ab5f 5c3d f5ff 18be dce2 ec3d
00000130: 3f50 7bbd 74a9 513d 3643 b93d 04f6 903d
00000140: ea8a d33b 9860 08be b0ad 0c3d 1b8d aabc
00000150: 1837 d2bc 41c3 df3d 660c 063e de04 00bc
00000160: 7aa5 073e c2ba af3d 8b64 063e 121d fa3d
00000170: d09e 5c3d 5b3f fb3d 69c9 cbbd 0ef6 e6bd
00000180: fd55 fcbd 6a29 9f3d 3fd5 29bd 4363 12be
00000190: f6b1 103d f2ec a63d 1950 d23d a8b6 503d
000001a0: 550a fabd 1a06 153e 2ef7 c9bd ff3e d03c
000001b0: 4338 cabd 544a ec3c 0229 6fbd 49c7 babd
000001c0: d99a a33d 2e4b ae3d 9515 d2bd 44ad c33d
000001d0: bc76 8a3d 659f b7bd 5245 b53d 86d9 e13d
000001e0: 7829 d63c f337 293e a0b4 be3c d4fd 90bd
000001f0: 6176 663d b10b cd3d 5682 a4bc 9b12 063e
00000200: 38af c7bd 547f 60bd bb80 1b3e 4432 663d
00000210: 82b5 ad3d 2e76 d23d 6072 d23c 93a7 e73d
00000220: 39c9 05be 1ea8 0a3e d01f 3c3d 395f d23d
00000230: ef70 7cbd 60f3 953b 12f5 ba3d 03c6 3b3d
00000240: d0e6 063e c1ad 073e 58c0 5d3d e008 ce3d
00000250: b48c b13d 10d2 bc3c 5c72 003e a322 84bd
00000260: e0dd e63d bb90 05be 90cf 8cbc bdc7 62bd
00000270: dd17 59bd 3719 ea3d c069 31bb 9477 803d
00000280: 876a 5abd 3098 49bd b7af 673d 2f61 9dbd
00000290: 7aca 873d 0805 60bd 2da7 d43d d981 293e
000002a0: 3071 5cbd b5fb 92bd d30f a6bd 35c6 d0bd
000002b0: 4611 f4bd e4ad 80ba 4f6a c4bc 0249 54bd
000002c0: b4cc 39bd c036 8d3b c72e fa3d 0089 743d
000002d0: 2972 b23d 051e 87bd ddfc 0a3e 9321 4c3d
000002e0: c7f7 29ba b766 e6bc 1863 cbbc 1e56 253d
000002f0: 42bd 1cbd 17cf 0c3c eca2 88bc 9cbe 83bd
00000300: 9785 b1bd 41a1 a03d 2c24 bebd 209d 59bd
00000310: 8318 033e 033b 8ebd 193e 063b d47a 8a3d
00000320: 7ecb 2b3c 1cd3 30bc 6133 23bd 7ceb c0bc
00000330: 00c2 183d bda9 d73d 3b42 873c 12c1 20be
00000340: 0d25 86bd e1da 703d d61e e6bd 10fa 9d3d
00000350: 439f b83d ee2d 95bd 7819 413e 800f 3b3b
00000360: 747a f33c 653b e3bd e557 acbd b6dc 9d3c
00000370: 3959 cbbb df4c debd 9868 da3d 8f43 013d
00000380: 9104 7abc 8c8e e8bd 3bd1 33be a63b f63d
00000390: 0593 e63d 4c5d 893d 68c5 d43d 91a1 963d
000003a0: 0d9d 1d3e 2f9e d3bc 8a56 673d 9deb 9abd
000003b0: df30 efbd 906d 2a3d d079 323d aefe e13d
000003c0: a625 e5bc 202d bdbb e191 eb3b 98aa ab3d
000003d0: 8047 8a3d e9da 063e 9d75 59bc a0f8 dc3d
000003e0: dd96 83bc 460d 2fbd 0e0a a03d b9aa 02be
000003f0: acb0 f93d 34c2 743d 0c17 dfbd 6f2f 3b3d

stacks.0.blocks.0.theta_layer.bias f4 [43]
0.069029205 0.10126387 0.08878019 -0.1219571 0.048257675 -0.11349895 -0.009552307 0.08333599
0.055744726 -0.058032148 -0.021228831 0.12977535 -0.034796584 0.11457728 -0.055074405 0.07131761
-0.094880946 -0.008856543 -0.03530828 -0.10336761 -0.03952975 -0.1574631 0.08688085 0.14704289
-0.10477551 -0.07004184 0.04328771 -0.04295017 0.13502587 -0.05874141 0.06368913 -0.048036795
0.042914987 0.031782597 0.009669555 0.070508584 0.093102366 0.018516619 0.09313649 0.124516554
0.0038324243 -0.10111584 0.045062568
00000000: 2f5f 8d3d 6f63 cf3d 63d2 b53d a5c4 f9bd
00000010: d7a9 453d 2372 e8bd 4881 1cbc 0fac aa3d
00000020: 9554 643d 1eb3 6dbd 16e8 adbc d4e3 043e
00000030: dd86 0ebd 7ea7 ea3d b395 61bd f80e 923d
00000040: f150 c2bd 091b 11bc 6a9f 10bd 66b2 d3bd
00000050: f2e9 21bd 023e 21be 96ee b13d 6992 163e
00000060: 8b94 d6bd 1972 8fbd 744e 313d 84ec 2fbd
00000070: 3944 0a3e d59a 70bd 726f 823d 3bc2 44bd
00000080: a0c7 2f3d 782e 023d 0e6d 1e3c ce66 903d
00000090: 74ac be3d 2ab0 973c 58be be3d 8902 ff3d
000000a0: 6929 7b3b d215 cfbd 8793 383d

stacks.0.blocks.1.fc1.weight f4 [50, 42]
0.114052564 0.11000475 -0.11608193 0.065427855 -0.01607467 0.057181638 -0.073169746 0.18238951
-0.038359027 -0.10418046 0.0041218637 -0.048632175 0.11966301 0.017900996 -0.093975596 -0.052175637
-0.108911596 -0.09892711 -0.11352932 -0.08755879 -0.119760975 0.072414055 0.010770285 -0.072522745
0.013440922 0.02039564 0.13267298 0.040613785 0.10497487 -0.095600516 -0.070660435 -0.017873066
-0.044125557 -0.09383597 0.15419269 0.10201389 -0.12084275 -0.15614636 0.051096253 0.1284428
0.0220513 -0.051081017 0.16237359 0.09187184 -0.0002259197 0.0015850936 -0.114676826 0.13791172
0.094415784 0.13070907 -0.0862008 0.11010925 0.08552083 -0.08967321 -0.037751578 0.028794173
0.1452493 0.011396156 -0.106295116 0.051841516 0.023501255 -0.14614166 0.020155689 0.056887005
-0.05290753 -0.16437563 0.1954635 0.037469443 -0.1017562 0.2199208 -0.07573321 0.09237862
-0.06659178 -0.13935517 0.036007438 0.12134733 0.13033153 -0.039368853 -0.03986027 0.022399237
0.10462868 0.10688506 -0.09127446 0.04441404 -0.09849045 -0.022008652 -0.08829012 0.04720293
0.07679959 -4.353102e-05 -0.0497863 -0.09906666 0.04646687 0.0017937738 -0.13451998 0.010045101
-0.036230948 -0.01096765 0.14473474 0.017782114 0.024548516 -0.15445843 0.050344437 -0.10648755
0.13429041 -0.1429138 0.016768526 0.20726632 -0.08370857 0.16458268 0.09324494 0.020879127
-0.06627061 -0.09354758 0.003386903 -0.033827957 -0.03602368 -0.081832476 -0.110450946 -0.031357143
0.17164159 -0.09710344 0.062048174 0.1370616 0.106650434 -0.1349317 -0.05080003 -0.115080185
0.1337375 -0.06420597 -0.06254805 0.04210047 -0.04174609 0.04353558 -0.11508032 -0.11551329
0.06566588 0.123041004 0.04307607 0.008818346 -0.12053642 -0.11896027 -0.07761277 -0.01613148
-0.07925444 -0.09649587 0.13179243 -0.14124553 -0.12847057 0.007140009 0.12945744 -0.024496647
-0.01539621 0.07334609 -0.05761348 -0.11779671 0.096958384 0.10012756 0.02285738 -0.09065246
-0.049732666 0.020809988 0.102328114 -0.13110298 -0.10511171 0.0565269 -0.024096645 -0.048242215
0.0917947 0.11734253 -0.07650204 0.052803818 -0.03576382 -0.08347913 -0.08819591 -0.13707381
-0.11743339 -0.14087507 -0.14200881 0.1492698 -0.09393365 -0.117396116 -0.09536406 0.09605383
0.111274846 0.0021557 0.028253015 0.10895703 -0.06627852 0.14966533 0.0859514 -0.14783944
-0.05646018 0.105843276 0.09371547 0.13020366 -0.07581168 0.12580965 -0.012166586 0.00790133
0.064178094 -0.12770425 0.09910813 0.07903369 0.014842321 0.087194756 -0.079404846 0.085300885
0.091604285 -0.016184071 -0.10170423 -0.051565375 -0.055773135 -0.09527209 0.00975676 -0.066369586
0.12257025 0.028174361 0.011818481 0.10887032 -0.13010286 0.052456107 -0.04726176 -0.03621371
-0.10837964 -0.06092562 0.0020777863 0.13003483 -0.13644665 -0.11761783 -0.06222887 0.021593226
-0.06322012 0.1228457 -0.0066910563 0.1061303 -0.12487895 -0.055358823 0.0811141 -0.09385696
0.16314313 0.04831106 0.026513232 0.051315673 0.07633198 0.05195588 -0.010064507 -0.0142756095
-0.032914545 0.059565473 0.1140201 0.12460503 -0.06604958 0.068451196 0.14557664 -0.013803333
00000000: 6494 e93d 2c4a e13d 5dbc edbd 0aff 853d
00000010: 07af 83bc 4b37 6a3d 05da 95bd 51c4 3a3e
00000020: 5b1e 1dbd 915c d5bd b310 873b 8832 47bd
00000030: e111 f53d 1ca5 923c 4776 c0bd 1fb6 55bd
00000040: 0b0d dfbd 4c9a cabd 0f82 e8bd 0652 b3bd
00000050: 3e45 f5bd d24d 943d d975 303c ce86 94bd
00000060: 5037 5c3c c214 a73c 6ddb 073e a45a 263d
00000070: 11fd d63d 34ca c3bd 6bb6 90bd 896a 92bc
00000080: 00bd 34bd 132d c0bd b0e4 1d3e a9ec d03d
00000090: 677c f7bd d5e4 1fbe 4e4a 513d 8286 033e
000000a0: eea4 b43c 543a 51bd 4345 263e 4e27 bc3d
000000b0: dce4 6cb9 eac2 cf3a afdb eabd bb38 0d3e
000000c0: 105d c13d 99d8 053e 0c8a b0bd f580 e13d
000000d0: 8b25 af3d 97a6 b7bd 66a1 1abd c2e1 eb3c
000000e0: 3cbc 143e f1b6 3a3c 41b1 d9bd c557 543d
000000f0: b485 c03c 29a6 15be 8b1d a53c 5902 693d
00000100: 91b5 58bd 1652 28be 9527 483e 8f79 193d
00000110: 8e65 d0bd eb32 613e 031a 9bbd 0031 bd3d
00000120: 4561 88bd 1fb3 0ebe 897c 133d f384 f83d
00000130: a175 053e 3c41 21bd 8644 23bd 9b7e b73c
00000140: 9047 d63d 8ee6 da3d 1bee babd 7feb 353d
00000150: 5cb5 c9bd 7d4b b4bc 73d1 b4bd dc57 413d
00000160: 1a49 9d3d 1495 36b8 b8ec 4bbd 76e3 cabd
00000170: 0b54 3e3d 101d eb3a 9bbf 09be 3594 243c
00000180: e766 14bd a9b1 33bc 5835 143e ccab 913c
00000190: f819 c93c 5a2a 1ebe f835 4e3d 2516 dabd
000001a0: 6d83 093e ff57 12be 265e 893c 9f3d 543e
000001b0: 666f abbd 5d88 283e 34f7 be3d b40a ab3c
000001c0: e3b8 87bd e095 bfbd cef6 5d3b 2f8f 0abd
000001d0: 918d 13bd c997 a7bd 1b34 e2bd 5970 00bd
000001e0: d0c2 2f3e 2bde c6bd 3a26 7e3d e059 0c3e
000001f0: 8b6b da3d 892b 0abe b113 50bd 29af ebbd
00000200: 7cf2 083e 6b7e 83bd 3119 80bd 8b71 2c3d
00000210: f3fd 2abd 5d52 323d 3baf ebbd 3b92 ecbd
00000220: d57b 863d ecfc fb3d 8870 303d d37a 103c
00000230: ccdb f6bd 71a1 f3bd 72f3 9ebd 2a26 84bc
00000240: 2750 a2bd a09f c5bd 98f4 063e aba2 10be
00000250: ca8d 03be bdf6 e93b 7e90 043e 31ad c8bc
00000260: 6340 7cbc 7a36 963d 1dfc 6bbd 673f f1bd
00000270: 1e92 c63d ae0f cd3d 663f bb3c ffa7 b9bd
00000280: 7bb4 4bbd b579 aa3c 6791 d13d dc3f 06be
00000290: cf44 d7bd c088 673d 5466 c5bc a199 45bd
000002a0: dcfe bb3d 4851 f03d 1aad 9cbd d148 583d
000002b0: 157d 12bd 1bf7 aabd 0fa0 b4bd 145d 0cbe
000002c0: eb80 f0bd 8e41 10be c26a 11be 2fda 183e
000002d0: 4960 c0bd 606d f0bd 3b4e c3bd dfb7 c43d
000002e0: 11e4 e33d a546 0d3b de72 e73c dd24 df3d
000002f0: 08bd 87bd de41 193e 4a07 b03d 3963 17be
00000300: ca42 67bd 5cc4 d83d e5ed bf3d 1c54 053e
00000310: 2743 9bbd 3fd4 003e 5c56 47bc 9474 013c
00000320: ce6f 833d e7c4 02be 34f9 ca3d 6adc a13d
00000330: 352d 733c 2a93 b23d 029f a2bd 3bb2 ae3d
00000340: 079b bb3d 7594 84bc 4f4a d0bd 3736 53bd
00000350: 5f72 64bd 031e c3bd d1da 1f3c c7ec 87bd
00000360: 1c06 fb3d ebcd e63c 4da2 413c 67f7 de3d
00000370: af39 05be 37dc 563d 8c95 41bd d454 14bd
00000380: 25f6 ddbd 258d 79bd 782b 083b da27 053e
00000390: acb8 0bbe 9ee1 f0bd b3e3 7ebd 47e4 b03c
000003a0: 8d79 81bd 8796 fb3d a640 dbbb d85a d93d
000003b0: 89c0 ffbd efbf 62bd 261f a63d 1438 c0bd
000003c0: fe0e 273e d1e1 453d 4732 d93c 6230 523d
000003d0: f153 9c3d b0cf 543d 9ae5 24bc 3fe4 69bc
000003e0: 67d1 06bd edfa 733d 5f83 e93d ec30 ff3d
000003f0: 0145 87bd 2430 8c3d 0b12 153e 6027 62bc

stacks.0.blocks.1.fc1.bias f4 [50]
-0.12055484 0.07020905 -0.19757737 0.118732385 0.06304436 0.09401505 0.09450508 0.10222426
-0.00557052 -0.2107527 -0.085302986 -0.18148486 -0.21042703 -0.23546934 -0.07143492 -0.17277598
-0.13660483 0.12881634 -0.17212531 -0.08727726 -0.17048027 0.04253888 -0.13204777 -0.089981735
-0.18363032 -0.09893441 0.05501376 0.07850643 -0.21664354 0.021695202 -0.11752041 0.09829772
-0.16653116 0.003623891 0.1035151 0.11088947 0.13136278 -0.053381596 -0.20452099 -0.001046101
-0.058801472 -0.06329591 -0.17714533 -0.20835663 -0.14762607 0.112371124 -0.2277447 -0.15114568
0.03139894 -0.05964605
00000000: 75e5 f6bd c3c9 8f3d b951 4abe f729 f33d
00000010: 671d 813d f68a c03d e18b c13d f45a d13d
00000020: e988 b6bb 8ecf 57be 55b3 aebd 2bd7 39be
00000030: 2f7a 57be e01e 71be 794c 92bd 30ec 30be
00000040: 23e2 0bbe 6ee8 033e 9e41 30be 6cbe b2bd
00000050: 6192 2ebe 403d 2e3d 8837 07be 5848 b8bd
00000060: 9609 3cbe 209e cabd 1c56 613d fbc7 a03d
00000070: ced7 5dbe 23ba b13c 8aae f0bd 5150 c93d
00000080: 2587 2abe cd7e 6d3b baff d33d 051a e33d
00000090: f783 063e a9a6 5abd f36d 51be 531d 89ba
000000a0: d0d9 70bd 49a1 81bd 9665 35be 715b 55be
000000b0: 4a2b 17be d522 e63d e835 69be efc5 1abe
000000c0: 2d9c 003d 6b4f 74bd
