RNN_models/sqz_momentum_slope_30_15min_t4.pth (torch, 103618 bytes, 20 tensors)

stacks.0.blocks.0.fc1.weight f4 [50, 42]
-0.012174056 -0.014175927 -0.0074872565 0.037505306 -0.14675973 -0.16660115 -0.058598544 0.15326752
0.09466237 0.085884914 -0.06769237 -0.10095572 0.10930138 -0.08703096 -0.054180246 0.13106465
0.09744329 -0.21831857 -0.09176852 -0.043350685 -0.013283405 -0.008898223 -0.1360682 -0.036612827
-0.105005756 0.1261459 0.17120317 0.2353425 -0.1353707 0.052885547 0.019500056 -0.16473104
0.052221864 0.035108462 0.029327454 -0.12615266 -0.029632583 0.100127324 0.04943551 0.089596
0.06591089 -0.06448051 -0.03856366 -0.10677419 -0.03944351 -0.17858572 0.17332621 0.076030254
-0.08828976 0.1398699 0.11966807 0.014107842 0.17479528 0.034969117 0.099241056 0.16671968
-0.04367423 -0.061410278 0.12208402 0.20795737 0.05951405 -0.008558789 -0.14293328 -0.057206023
0.13957684 0.12289464 0.007401757 0.19231059 -0.17320518 -0.24902466 0.030054063 0.009459954
0.11628784 0.08444718 -0.1482939 -0.28484502 0.09474964 -0.062675096 -0.16599753 0.11115841
-0.18663922 -0.07212653 0.0706262 -0.0039459085 0.21639536 0.10920253 -0.07651815 -0.020012103
-0.19445367 -0.21824282 0.08793438 -0.0911419 0.14016008 0.22044037 -0.0111401975 -0.11789425
0.050909556 -0.03354736 -0.044468425 0.1929293 -0.11700797 -0.18396378 -0.038047135 -0.14389937
0.09800605 0.26440603 -0.039471556 -0.021845024 -0.018962087 -0.13036482 -0.06174996 0.07969973
-0.17209211 -0.05120734 -0.024714569 -0.08518479 0.1941059 0.12279149 0.08731407 -0.20588697
-0.019955391 -0.05893344 0.024868157 0.061046466 -0.071122855 -0.24431154 -0.113238394 0.17242326
0.11740374 0.10167363 0.10290597 0.08591055 -0.1058669 -0.12187599 0.038523 0.14747839
-0.108265415 0.03229293 -0.0035238185 0.13604972 -0.12066429 -0.048393756 0.07604534 0.060138993
-0.03452857 0.057498645 -0.08342254 -0.028284417 -0.14934629 -0.123832636 0.1634642 -0.114666544
0.09427654 0.081536494 -0.08119543 0.03303887 0.009235503 -0.09020268 0.074513026 -0.0017051359
0.1090148 -0.048709847 0.09087952 -0.06660732 -0.024388032 0.15704103 -0.045346893 0.13970786
0.08632707 -0.051603604 -0.09585517 0.059055764 0.041595787 -0.23747668 -0.1361762 0.062054884
-0.061674647 0.06331854 0.02952931 -0.18997008 -0.074053966 -0.095376104 0.079169616 -0.042091
-0.03833007 -0.22433223 0.010035578 -0.18607931 -0.007346459 0.024770916 0.045056384 -0.15085398
-0.038078386 -0.074014366 -0.012390599 0.25250813 0.03633084 0.020755034 0.07935932 -0.09704258
0.19427206 0.037653722 -0.12762097 -0.025645327 0.14032328 -0.19527687 0.20559649 0.27207175
-0.070102364 0.06166077 -0.058817506 -0.02561859 0.101701766 -0.19474068 0.2201623 0.002015762
0.044185925 0.17585245 0.01613343 -0.17034046 -0.057465322 0.22276202 0.112529956 0.13725394
0.010005958 -0.19499505 0.07168132 0.01023093 0.10896507 0.23394509 -0.073348224 -0.21416968
0.13091464 -0.062443182 0.057871673 0.16881248 -0.049719505 -0.07091129 0.038229235 0.14100438
0.07350061 0.1472506 0.021640614 -0.12446185 -0.036120653 0.1887515 -0.065010026 0.17117745
-0.16373745 -0.08057395 0.055272497 0.02514561 0.13281919 0.15230684 0.059511848 -0.101269536
00000000: b175 47bc 2642 68bc a957 f5bb 2a9f 193d
00000010: 2f48 16be 7e99 2abe 0705 70bd 29f2 1c3e
00000020: 58de c13d 6ee4 af3d 4ca2 8abd dfc1 cebd
00000030: 67d9 df3d 4a3d b2bd 1bec 5dbd d035 063e
00000040: 5990 c73d e78e 5fbe 22f1 bbbd 7d90 31bd
00000050: a4a2 59bc dac9 11bc 7655 0bbe 55f7 15bd
00000060: 420d d7bd 642c 013e e24f 2f3e a0fd 703e
00000070: 9e9e 0abe 849e 583d 95be 9f3c 41af 28be
00000080: 98e6 553d e4cd 0f3d 2140 f03c 2a2e 01be
00000090: 08c0 f2bc 8e0f cd3d e47c 4a3d 1c7e b73d
000000a0: 4afc 863d 5c0e 84bd eef4 1dbd 6dac dabd
000000b0: 858f 21bd 2ddf 36be 6d7c 313e c0b5 9b3d
000000c0: 43d1 b4bd 0e3a 0f3e 8814 f53d 9424 673c
000000d0: 89fd 323e c73b 0f3d e53e cb3d 90b8 2a3e
000000e0: c0e3 32bd 5889 7bbd 3007 fa3d c7f2 543e
000000f0: 01c5 733d 2a3a 0cbc 1a5d 12be dd50 6abd
00000100: 3bed 0e3e 2fb0 fb3d 708a f23b 11ed 443e
00000110: b35c 31be 5200 7fbe f033 f63c ecfd 1a3c
00000120: 5228 ee3d a5f2 ac3d 5bda 17be 35d7 91be
00000130: 190c c23d cd5b 80bd 42fb 29be 05a7 e33d
00000140: 5a1e 3fbe 13b7 93bd 78a4 903d ae4c 81bb
00000150: bf96 5d3e 93a5 df3d 8cb5 9cbd 6cf0 a3bc
00000160: dd1e 47be 0c7b 5fbe f116 b43d 9ba8 babd
00000170: 2086 0f3e 1fbb 613e 6085 36bc 8a72 f1bd
00000180: 8a86 503d f568 09bd 8624 36bd 428f 453e
00000190: e0a1 efbd 0061 3cbe 50d7 1bbd 5b5a 13be
000001a0: 65b7 c83d 3a60 873e edac 21bd 56f4 b2bc
000001b0: 6156 9bbc 5b7e 05be 87ed 7cbd 9d39 a33d
000001c0: ea38 30be cabe 51bd 3576 cabc 5d75 aebd
000001d0: b2c3 463e 1b7a fb3d b8d1 b23d 09d4 52be
000001e0: 7d79 a3bc 3164 71bd 4eb8 cb3c dc0b 7a3d
000001f0: dca8 91bd ce2c 7abe 88e9 e7bd b98f 303e
00000200: 5f71 f03d 443a d03d 5dc0 d23d dff1 af3d
00000210: bfd0 d8bd 1e9a f9bd 4bca 1d3d 9304 173e
00000220: 42ba ddbd 9745 043d ddef 66bb 9e50 0b3e
00000230: d71e f7bd 8838 46bd a9bd 9b3d 4e54 763d
00000240: d46d 0dbd b383 6b3d 70d9 aabd b9b4 e7bc
00000250: 3cee 18be f79b fdbd 2963 273e 4bd6 eabd
00000260: 0f14 c13d 9bfc a63d ca49 a6bd c453 073d
00000270: 8250 173c 2fbc b8bd 499a 983d de7e dfba
00000280: 2743 df3d fa83 47bd 0b1f ba3d 6b69 88bd
00000290: 69c9 c7bc 5dcf 203e aabd 39bd 940f 0f3e
000002a0: 3fcc b03d 4d5e 53bd b74f c4bd 75e4 713d
000002b0: 5860 2a3d 162d 73be c671 0bbe 432d 7e3d
000002c0: 8e9e 7cbd 27ad 813d 74e7 f13c 8487 42be
000002d0: 9ba9 97bd 8c54 c3bd ae23 a23d 9d67 2cbd
000002e0: feff 1cbd 59b7 65be 446c 243c 938b 3ebe
000002f0: 91ba f0bb 60ec ca3c 0b8d 383d 7779 1abe
00000300: 15f8 1bbd d894 97bd f001 4bbc bf48 813e
00000310: a6cf 143d 7606 aa3c 2487 a23d 43be c6bd
00000320: 41ef 463e ca3a 1a3d 12af 02be 2616 d2bc
00000330: e8b0 0f3e a9f6 47be e387 523e fd4c 8b3e
00000340: d491 8fbd 0190 7c3d a0ea 70bd 14de d1bc
00000350: 0449 d03d 1a6a 47be 3a72 613e e01a 043b
00000360: 4dfc 343d aa12 343e 412a 843c bb6d 2ebe
00000370: c260 6bbd ba1b 643e 1b76 e63d 4c8c 0c3e
00000380: 08f0 233c c8ac 47be a8cd 923d a19f 273c
00000390: 1429 df3d 4d8f 6f3e 9837 96bd 4c4f 5bbe
000003a0: 7d0e 063e 6cc4 7fbd d90a 6d3d 2edd 2c3e
000003b0: aea6 4bbd f039 91bd 4296 1c3d 7463 103e
000003c0: 7d87 963d dcc8 163e a847 b13c dbe5 febd
000003d0: 40f3 13bd 1348 413e fa23 85bd 2449 2f3e
000003e0: caaa 27be f503 a5bd 6a65 623d 2bfe cd3c
000003f0: c101 083e 53f6 1b3e b2c2 733d 6766 cfbd

stacks.0.blocks.0.fc1.bias f4 [50]
0.12704411 -0.07777437 0.088647634 -0.11662547 0.028846018 0.114310354 -0.0059248745 -0.113395534
0.002097927 0.05986389 -0.19466782 -0.08845848 -0.13755801 -0.12735294 -0.19720826 -0.16762461
-0.11871946 0.118670054 0.056012694 -0.10294745 -0.0066145463 0.011534034 0.023552507 -0.08556536
-0.15394501 0.10939795 0.050814725 -0.10586038 0.028795503 -0.094777025 0.04865241 -0.06628844
0.0714449 0.07777647 -0.20833899 -0.15545988 0.07244643 0.042950746 0.037746426 0.1331279
-0.23243712 0.13258128 -0.19032514 0.07590042 0.07862626 -0.011870255 -0.082616046 0.06615954
0.08968029 -0.13384275
00000000: da17 023e 2b48 9fbd e48c b53d 56d9 eebd
00000010: 7c4e ec3c 8c1b ea3d 7325 c2bb eb3b e8bd
00000020: 607d 093b d733 753d 0057 47be b829 b5bd
00000030: 02dc 0cbe cf68 02be f6f0 49be c9a5 2bbe
00000040: 3023 f3bd 4909 f33d 916d 653d 1dd6 d2bd
00000050: d6be d8bb 3ff9 3c3c 30f1 c03c e43c afbd
00000060: c3a3 1dbe 080c e03d 1a23 503d 54cd d8bd
00000070: 8ce4 eb3c 751a c2bd c047 473d 3cc2 87bd
00000080: b451 923d 4549 9f3d d156 55be e030 1fbe
00000090: cb5e 943d 1fed 2f3d ff9b 1a3d ae52 083e
000000a0: ff03 6ebe 63c3 073e 98e4 42be ae71 9b3d
000000b0: ce06 a13d 757b 42bc 9a32 a9bd a77e 873d
000000c0: 4daa b73d 130e 09be

stacks.0.blocks.0.fc2.weight f4 [50, 50]
0.0034291816 -0.030387612 0.07965165 -0.14677267 -0.010347456 -0.12549861 0.0320902 -0.111512676
-0.042217076 0.1295577 -0.081079826 0.09661388 -0.13578261 0.035828024 -0.06732023 -0.12046622
0.13444473 0.0153232245 0.08496072 0.07944514 0.051777672 -0.106999464 -0.038050957 0.11178062
-0.06644491 0.12910059 0.14599028 -0.0446987 -0.008622909 -0.18739718 0.16602455 0.074753806
0.021799525 -0.13910708 0.053505473 0.052259523 -0.04748863 0.073432125 -0.10119061 0.15505582
-0.041450515 0.12887408 0.048191275 -0.13464613 -0.11384718 -0.03849123 0.08056666 -0.02902694
-0.015487311 -0.04870791 0.029118905 -0.000987583 0.093693405 -0.053610902 0.12368421 0.042334694
-0.022075463 -0.08530418 -0.0944374 -0.02613912 -0.039961614 -0.08686023 -0.06713294 0.051705632
0.10577967 0.06990353 -0.11637508 -0.006741223 0.08170243 -0.18165568 -0.023370583 -0.15334804
0.034992907 -0.03805302 -0.05851724 -0.07483791 0.08742199 0.038642295 0.10230986 0.10408745
0.22546412 0.10112368 0.09271567 0.032822613 0.17487146 0.05178786 0.0074268705 0.07553223
-0.16111253 0.06689243 -0.0028641669 -0.13906363 0.117229305 0.12551144 -0.034193806 -0.084149
0.061206076 0.015023848 -0.021317258 0.107122004 0.014382132 0.04661435 -0.043000326 0.014404294
-0.09215826 0.030700045 0.08627975 0.17364177 -0.09790671 -0.043984648 -0.059488278 -0.12922868
0.1018621 -0.024165802 0.09169671 -0.025990734 -0.14333162 -0.015415346 0.01998546 0.023243517
-0.019924639 -0.1452875 0.07043314 0.024713797 -0.00044287866 -0.09738943 -0.009193186 -0.097318895
-0.11313927 0.060012884 -0.0012033683 0.09071387 -0.037873108 0.091995776 0.0139513025 -0.10418419
-0.038853683 -0.14975484 -0.11585867 0.025858609 0.047815416 0.013086433 -0.005567769 0.04266627
-0.014891464 -0.058157396 -0.0638677 -0.018666927 -0.060471192 0.05779601 -0.05389259 0.16263798
-0.07893976 -0.014883785 -0.050229613 0.015892077 0.024806606 0.11955556 0.08850201 0.053399023
-0.06881166 0.12589127 -0.05764416 0.00066017493 0.011466743 -0.08863861 -0.12105722 -0.11460557
-0.07723069 0.081261806 -0.05161607 -0.1275885 -0.044957362 0.15526499 -0.07492041 -0.11185459
0.0181161 0.14086732 -0.051948212 0.02959624 0.01874229 0.05635506 -0.029536964 0.089272566
0.022596268 0.053289313 0.08825014 -0.07728025 0.09977597 0.037771363 -0.05358817 -0.07705704
0.12645204 0.058042612 -0.06627718 -0.00069745164 0.011619162 -0.15856364 0.09796018 0.115749896
-0.040381175 -0.0793231 0.029967641 -0.1415671 0.090441726 -0.075978525 0.026533447 -0.035624687
-0.01577618 0.030671472 -0.051265128 0.039149858 0.031747703 -0.037794866 0.10365217 0.12803109
0.14498407 0.07656378 -0.05387696 0.069662005 -0.07950715 -0.081884235 0.04722837 -0.12101444
0.15128481 0.09628427 0.12600634 0.028849928 -0.14966351 -0.023555176 0.17091672 0.047718946
0.08435871 -0.07732803 0.14159541 -0.09879592 0.017950783 0.054542333 0.11473449 0.03923637
-0.058921736 0.05468808 0.03802088 -0.15115757 0.11959124 -0.05545198 0.043981496 -0.047105994
-0.023939628 0.031136297 0.16794734 -0.10251824 -0.1338637 0.18294042 0.07286245 0.063061245
00000000: 1fbc 603b 71ef f8bc 6720 a33d 934b 16be
00000010: 6088 29bc b582 00be 0371 033d c260 e4bd
00000020: d0eb 2cbd c6aa 043e 2e0d a6bd 7fdd c53d
00000030: 990a 0bbe 68c0 123d 30df 89bd feb6 f6bd
00000040: e1ab 093e 430e 7b3c e3ff ad3d 22b4 a23d
00000050: d314 543d 8922 dbbd 52db 1bbd 3ded e43d
00000060: 4514 88bd f232 043e 7a7e 153e fc15 37bd
00000070: 1a47 0dbc 0ce5 3fbe 5702 2a3e 8618 993d
00000080: eb94 b23c 1672 0ebe 8e28 5b3d 150e 563d
00000090: 7083 42bd 9563 963d 063d cfbd f4c6 1e3e
000000a0: 04c8 29bd 91f7 033e 3764 453d ade0 09be
000000b0: b628 e9bd fba8 1dbd 2200 a53d e8c9 edbc
000000c0: 7ebe 7dbc f281 47bd c58a ee3c c971 81ba
000000d0: 54e2 bf3d 1b97 5bbd 264e fd3d 2567 2d3d
000000e0: 9ad7 b4bc f5b3 aebd 6568 c1bd b521 d6bc
000000f0: caae 23bd c7e3 b1bd ff7c 89bd 49c9 533d
00000100: 03a3 d83d 9529 8f3d 0f56 eebd 7ae5 dcbb
00000110: 9b53 a73d f203 3abe aa73 bfbc 4507 1dbe
00000120: b954 0f3d 7cdd 1bbd c6af 6fbd 9e44 99bd
00000130: 4d0a b33d 6247 1e3d d587 d13d cd2b d53d
00000140: 11e0 663e ef19 cf3d b7e1 bd3d 0171 063d
00000150: 8111 333e 821f 543d 1b5d f33b a4b0 9a3d
00000160: affa 24be e6fe 883d bfb4 3bbb b266 0ebe
00000170: eb15 f03d 1286 003e ce0e 0cbd 5056 acbd
00000180: 39b3 7a3d 9626 763c 88a1 aebc c862 db3d
00000190: 09a3 6b3c b0ee 3e3d 1c21 30bd fdff 6b3c
000001a0: 78bd bcbd a97e fb3c 70b3 b03d 26cf 313e
000001b0: 5083 c8bd 3f29 34bd fba9 73bd 8654 04be
000001c0: 149d d03d 5cf7 c5bc 7ccb bb3d 85ea d4bc
000001d0: 86c5 12be a690 7cbc 8cb8 a33c 3069 be3c
000001e0: ff38 a3bc 3fc6 14be 403f 903d 9774 ca3c
000001f0: 2b32 e8b9 1c74 c7bd 049f 16bc 214f c7bd
00000200: 90b5 e7bd 12d0 753d 57ba 9dba 32c8 b93d
00000210: d520 1bbd 4868 bc3d 0194 643c 855e d5bd
00000220: 0a25 1fbd 5559 19be 4f47 edbd 6fd5 d33c
00000230: 19da 433d 7a68 563c d571 b6bb d4c2 2e3d
00000240: 54fb 73bc 7336 6ebd 12cd 82bd 62eb 98bc
00000250: a4b0 77bd 82bb 6c3d 7abe 5cbd 928a 263e
00000260: 2bab a1bd 1edb 73bc 91bd 4dbd 1a30 823c
00000270: 3937 cb3c 8cd9 f43d 8b40 b53d efb8 5a3d
00000280: 21ed 8cbd a4e9 003e 481c 6cbd 970f 2d3a
00000290: 02df 3b3c 2988 b5bd d9ec f7bd 53b6 eabd
000002a0: 202b 9ebd 976c a63d 5f6b 53bd 8fa6 02be
000002b0: 3625 38bd c9fd 1e3e df6f 99bd 0514 e5bd
000002c0: 3768 943c 863f 103e a6c7 54bd d073 f23c
000002d0: 6e89 993c 90d4 663d 81f7 f1bc 89d4 b63d
000002e0: cf1b b93c e545 5a3d 7dbc b43d 1c45 9ebd
000002f0: 5857 cc3d 25b6 1a3d 457f 5bbd 15d0 9dbd
00000300: a57c 013e 17be 6d3d 55bc 87bd 30d5 36ba
00000310: 4c5e 3e3c 825e 22be 599f c83d 480e ed3d
00000320: bb66 25bd 2674 a2bd b37e f53c f7f6 10be
00000330: 8339 b93d a19a 9bbd ac5c d93c 31eb 11bd
00000340: 0c3d 81bc bd42 fb3c 62fb 51bd 9a5b 203d
00000350: e109 023d cace 1abd 9747 d43d 951a 033e
00000360: b476 143e 79cd 9c3d 16ae 5cbd f4aa 8e3d
00000370: a5d4 a2bd ecb2 a7bd 8972 413d 6bd6 f7bd
00000380: 68ea 1a3e b030 c53d ce07 013e af56 ec3c
00000390: 6441 19be c9f6 c0bc cb04 2f3e f174 433d
000003a0: 42c4 ac3d 285e 9ebd 63fe 103e 8455 cabd
000003b0: 850d 933c c867 5f3d ebf9 ea3d 51b6 203d
000003c0: eb57 71bd 9c00 603d c8bb 1b3d 0dc9 1abe
000003d0: 41ec f43d 9e21 63bd f125 343d 37f2 40bd
000003e0: 0a1d c4bc 8c11 ff3c 63fa 2b3e 15f5 d1bd
000003f0: 9113 09be bc54 3b3e e838 953d 4126 813d

stacks.0.blocks.0.fc2.bias f4 [50]
-0.09406118 -0.006093651 -0.08666877 0.017188834 0.10762603 -0.059176464 0.07089925 -0.022469018
-0.16162606 0.012501724 -0.11387993 -0.049634524 -0.014015995 -0.0029415041 0.090191506 0.03898628
-0.04520387 0.11640967 0.10210636 -0.06479854 -0.15546425 -0.05997414 0.113422014 0.0182077
0.0019228961 0.024979023 0.07121503 -0.13649994 -0.0364923 0.081527844 -0.14717196 0.10961215
0.057032276 0.11508923 -0.022629522 -0.08768108 0.09601348 -0.11621101 -0.03145978 -0.12470304
-0.1524188 -0.06215659 0.0753481 0.07725407 0.04511629 0.12580892 -0.0014757729 0.05237751
0.13414954 -0.0075834207
00000000: 26a3 c0bd 40ad c7bb 657f b1bd 99cf 8c3c
00000010: 096b dc3d 0563 72bd a033 913d f210 b8bc
00000020: 4d81 25be 08d4 4c3c e139 e9bd 924d 4bbd
00000030: 58a3 65bc 40c6 40bb 53b6 b83d 14b0 1f3d
00000040: b127 39bd 3168 ee3d 241d d13d 19b5 84bd
00000050: 0532 1fbe 72a7 75bd cd49 e83d 5128 953c
00000060: b009 fc3a cfa0 cc3c 30d9 913d a4c6 0bbe
00000070: f378 15bd 12f8 a63d 3fb4 16be 567c e03d
00000080: ad9a 693d e7b3 eb3d 8c61 b9bc 2392 b3bd
00000090: b7a2 c43d 0a00 eebd f8db 00bd 4f64 ffbd
000000a0: ad13 1cbe e997 7ebd 1b50 9a3d 6237 9e3d
000000b0: dccb 383d 0ed4 003e b96e c1ba cd89 563d
000000c0: 7f5e 093e 587e f8bb

stacks.0.blocks.0.fc3.weight f4 [50, 50]
0.16504551 0.14268814 -0.003913963 -0.0915411 -0.046954494 -0.0025160569 0.066942 0.034632135
0.02794193 0.055646934 0.061870564 0.093938924 -0.097901195 0.14358568 0.009602149 0.060111202
-0.016043575 -0.054232277 -0.11152783 -0.031732418 -0.067256935 -0.12339412 -0.11660152 0.06444264
0.15333945 0.09909966 0.017386617 0.0038460451 -0.093002304 0.0037674361 -0.058526985 -0.016375225
-0.08408679 0.078269266 -0.07035414 0.06934235 -0.056287482 -0.12102689 0.04604676 -0.06654698
0.07568149 -0.018031072 0.058829963 -0.07152722 -0.12356735 -0.028667519 0.020926526 0.01150254
0.118745916 -0.12412401 -0.053325683 0.036388762 0.010491528 -0.05553212 -0.058857333 -0.09528085
-0.082662664 0.027686056 0.0032509617 0.012852444 -0.0030853818 0.06905868 -0.10869082 0.08079928
-0.014235604 -0.038029023 0.15503748 -0.12999982 0.012005599 0.049928125 -0.13252851 0.042491127
-0.063317776 0.12431546 0.048926163 -0.10216877 0.10920421 -0.1221046 -0.023365691 0.041311763
-0.0027489197 -0.116322696 0.052162465 0.07382506 0.12826629 0.088870406 -0.1287297 -0.069175996
0.09326628 -0.0968053 -0.08506322 -0.018714443 -0.0139642 -0.023606228 0.16141643 -0.017014539
-0.040485173 -0.07738875 0.13101318 -0.11653868 0.035765104 0.010036314 0.07812282 0.12304121
0.10348378 -0.035067696 -0.10937114 0.06693662 -0.0564562 -0.12749644 0.03551876 0.088465914
0.13554487 0.04885165 -0.04853376 -0.08287298 0.12726338 -0.14838639 0.115944594 -0.064390205
-0.14557102 0.07181959 0.017309152 0.05843417 0.073248506 -0.058198486 -0.011004941 -0.15703842
0.059041068 0.081418596 -0.05620834 0.020363342 -0.033245455 0.015343333 -0.07615153 0.019034024
0.0062363837 -0.19142641 -0.13237458 0.07496718 -0.039228942 0.12557027 -0.0771022 -0.1258595
-0.12476566 0.04282928 0.07147118 -0.14743 -0.110041365 0.0381181 0.10556502 0.063939065
0.013910187 0.09796564 -0.1259658 -0.013675559 -0.016262263 -0.01864053 -0.060288403 -0.107886106
-0.11101543 -0.105113804 0.09606134 0.013165416 0.0825958 0.11326375 0.0118184835 0.014899428
-0.0016774423 -0.007111476 0.07393498 0.0686286 0.062983334 0.01681638 -0.15703812 0.046923168
0.040045936 -0.13030821 0.05568301 -0.049368493 0.03441764 0.049390763 -0.12026606 0.1381682
-0.086741365 -0.051871292 0.018582538 -0.06361657 -0.10829318 0.00206644 0.12026813 -0.016712064
0.11373075 0.088051766 -0.08244968 -0.098671846 -0.10384732 0.09445388 -0.06848505 -0.022239154
0.061051324 -0.008961173 -0.07364332 -0.10536404 -0.019846335 0.098684594 -0.07556627 -0.011845405
-0.01774037 0.045466706 -0.02331783 -0.12556374 -0.014610234 -0.13534136 0.07517116 0.0973149
0.03241089 -0.15552464 -0.046688545 0.024499785 -0.06900019 0.08522488 -0.0026584931 -0.042499136
0.009190771 -0.19095957 0.03279867 -0.010967434 0.10695143 0.04280558 0.09777909 -0.069396004
0.095500685 -0.09542103 0.051509544 -0.11908831 -0.05652797 0.06863298 0.1126851 0.0028920923
-0.10741484 0.040251646 -0.014642817 -0.06428361 0.011777396 0.045759983 0.06687546 0.09610731
0.08953116 -0.12270502 -0.12729247 0.00451681 -0.062163718 -0.10486083 -0.056614973 0.11387725
00000000: b101 293e d71c 123e b440 80bb e679 bbbd
00000010: 5b53 40bd 6ee4 24bb e318 893d 6dda 0d3d
00000020: 79e6 e43c 0aee 633d fd6b 7d3d 0d63 c03d
00000030: 6c80 c8bd 2008 133e 5552 1d3c 2a37 763d
00000040: d16d 83bc aa22 5ebd b468 e4bd daf9 01bd
00000050: 01be 89bd 0eb6 fcbd c7cc eebd 81fa 833d
00000060: 0405 1d3e c3f4 ca3d 616e 8e3c ee0d 7c3b
00000070: fe77 bebd 17e7 763b feb9 6fbd 5625 86bc
00000080: b235 acbd a34b a03d d515 90bd 5d03 8e3d
00000090: b48d 66bd f2dc f7bd 879b 3c3d c849 88bd
000000a0: e6fe 9a3d e6b5 93bc b0f7 703d dd7c 92bd
000000b0: e110 fdbd 25d8 eabc 1b6e ab3c 2675 3c3c
000000c0: 0f31 f33d bb34 febd 086c 5abd 620c 153d
000000d0: a8e4 2b3c a675 63bd 6314 71bd 9b22 c3bd
000000e0: 0b4b a9bd decd e23c 160e 553b 0f93 523c
000000f0: 1e34 4abb a36e 8d3d 4b99 debd 187a a53d
00000100: 733c 69bc 52c4 1bbd 25c2 1e3e ac1e 05be
00000110: 22b3 443c 6f81 4c3d 8eb5 07be 2d0b 2e3d
00000120: c0ac 81bd 1b99 fe3d cd66 483d dc3d d1bd
00000130: 75a6 df3d fa11 fabd 6869 bfbc 8636 293d
00000140: 3827 34bb 983a eebd 4fa8 553d 9831 973d
00000150: 3d58 033e b001 b63d b8d1 03be 25ac 8dbd
00000160: 6402 bf3d db41 c6bd a035 aebd 084f 99bc
00000170: 1aca 64bc d961 c1bc 594a 253e 1362 8bbc
00000180: c8d3 25bd fe7d 9ebd 5228 063e d5ab eebd
00000190: 6e7e 123d 5a6f 243c dbfe 9f3d 08fd fb3d
000001a0: 4eef d33d 25a3 0fbd fafd dfbd 1116 893d
000001b0: 9e3e 67bd 6d8e 02be 1f7c 113d 9e2d b53d
000001c0: 46cc 0a3e ab18 483d 56cb 46bd 4fb9 a9bd
000001d0: 5551 023e 9af2 17be 5c74 ed3d 03df 83bd
000001e0: 9210 15be 2616 933d eccb 8d3c ab58 6f3d
000001f0: 5003 963d 8961 6ebd 114e 34bc aece 20be
00000200: 0cd5 713d cbbe a63d b73a 66bd 06d1 a63c
00000210: 632c 08bd 9a62 7b3c 55f5 9bbd 3eed 9b3c
00000220: 945a cc3b 4905 44be 348d 07be 6588 993d
00000230: 87ae 20bd 7e95 003e c2e7 9dbd 50e1 00be
00000240: 2385 ffbd c16d 2f3d 7b5f 923d e4f7 16be
00000250: 5e5d e1bd ba21 1c3d 7932 d83d 7cf2 823d
00000260: 8ee7 633c 36a2 c83d 2efd 00be 740f 60bc
00000270: 7038 85bc 06b4 98bc f9f0 76bd 64f3 dcbd
00000280: 0f5c e3bd e845 d7bd cfbb c43d c2b3 573c
00000290: fd27 a93d d3f6 e73d 50a2 413c bb1c 743c
000002a0: a0dd dbba 6207 e9bb 396b 973d 278d 8c3d
000002b0: 68fd 803d 81c2 893c 9ace 20be 8232 403d
000002c0: 3507 243d 846f 05be de13 643d 9e36 4abd
000002d0: 83f9 0c3d f84d 4a3d 0d4e f6bd f77b 0d3e
000002e0: 75a5 b1bd fe76 54bd 683a 983c 6749 82bd
000002f0: d1c8 ddbd 1c6d 073b 234f f63d bde7 88bc
00000300: abeb e83d 7c54 b43d 61db a8bd 7714 cabd
00000310: e7ad d4bd 0971 c13d e441 8cbd e32e b6bc
00000320: f410 7a3d e2d1 12bc 4fd2 96bd 1ac9 d7bd
00000330: c894 a2bc 261b ca3d 7dc2 9abd 3b13 42bc
00000340: 4154 91bc 4c3b 3a3d 0905 bfbc c893 00be
00000350: c35f 6fbc ed96 0abe 56f3 993d 094d c73d
00000360: 48c1 043d da41 1fbe 7d3c 3fbd c6b3 c83c
00000370: f94f 8dbd 628a ae3d 1d3a 2ebb 9313 2ebd
00000380: e394 163c e88a 43be e657 063d c1b0 33bc
00000390: 5a09 db3d e754 2f3d 6740 c83d 7e1f 8ebd
000003a0: dd95 c33d 1a6c c3bd acfb 523d 92e4 f3bd
000003b0: df89 67bd 738f 8c3d 72c7 e63d 4289 3d3b
000003c0: 50fc dbbd e9de 243d 6de8 6fbc 20a7 83bd
000003d0: fbf5 403c d26e 3b3d 00f6 883d e9d3 c43d
000003e0: 1d5c b73d c54c fbbd f558 02be c001 943b
000003f0: 629f 7ebd 46c1 d6bd 1ae5 67bd 7a38 e93d

stacks.0.blocks.0.fc3.bias f4 [50]
0.12159033 0.14306742 0.050802104 -0.14711703 -0.12063154 -0.0008774698 -0.050046764 -0.044496015
0.024002716 -0.022389188 -0.09400062 -0.015503471 0.07531511 -0.06391099 0.09358147 0.106511496
-0.078653984 0.08721841 0.15021485 -0.11162024 0.07732918 -0.08144768 0.022419088 0.010080898
0.06943533 0.0006243545 0.11763287 -0.05231501 -0.12204126 0.07010562 -0.058410686 -0.09546079
0.0033566344 0.0576171 -0.14222237 -0.12117882 0.063376956 0.002794719 -0.018253483 -0.13972822
0.09714188 0.05214157 -0.101053834 -0.13129891 -0.07161056 -0.13108484 -0.023113469 0.07790397
-0.13791664 -0.111028135
00000000: 5a04 f93d 4480 123e de15 503d d9a5 16be
00000010: ab0d f7bd 0006 66ba d6fd 4cbd 7441 36bd
00000020: 58a1 c43c 8869 b7bc 6683 c0bd 4502 7ebc
00000030: cf3e 9a3d c4e3 82bd a4a7 bf3d b322 da3d
00000040: 5715 a1bd 919f b23d ecd1 193e 2799 e4bd
00000050: c35e 9e3d 0bce a6bd 3ca8 b73c 5a2a 253c
00000060: 1c34 8e3d b9ab 233a 81e9 f03d 4448 56bd
00000070: c5f0 f9bd 8993 8f3d 0b40 6fbd f280 c3bd
00000080: fbfa 5b3b e9ff 6b3d bea2 11be 9a2c f8bd
00000090: c7cb 813d 9b27 373b 5488 95bc ea14 0fbe
000000a0: 52f2 c63d 6692 553d 50f5 cebd 3973 06be
000000b0: 8fa8 92bd 1b3b 06be 7558 bdbc 1e8c 9f3d
000000c0: 053a 0dbe b862 e3bd

stacks.0.blocks.0.fc4.weight f4 [50, 50]
0.003168555 -0.043544665 -0.010468279 0.10325721 0.09688587 0.12754114 -0.018027073 -0.050608642
-0.03007862 -0.12375316 0.10435376 0.12678954 0.08826183 0.11788982 0.021212857 -0.06710439
0.010978714 0.02775681 0.019488335 -0.01826179 0.008692027 -0.04596045 0.06961277 0.024375573
0.1006346 0.017504696 0.02837794 0.014259994 -0.12581679 -0.018335234 0.072549306 -0.09431302
0.031420473 0.061962545 0.085482836 -0.119989574 -0.009099071 -0.10341107 0.01518257 0.1004047
-0.09961767 -0.019755581 -0.058905877 -0.014473751 -0.030399337 -0.033280388 0.048920117 0.020542705
-0.116184846 0.07221953 -0.108298436 -0.0062785447 -0.003329143 0.069048226 0.08372317 -0.020033225
-0.027673624 -0.13063768 0.015119001 -0.13356723 0.12300737 0.10152601 -0.10251303 -0.09770931
0.01672092 0.041167513 0.106542826 0.12983648 -0.08612159 -0.10480988 0.04485683 -0.05073613
0.03497529 0.0033376068 -0.024038337 -0.048393704 -0.03426394 -0.06347026 -0.02504342 0.062359273
-0.015681043 0.09178379 0.031658575 0.052653953 0.0553914 0.05019705 -0.090625726 0.034525454
0.017717063 -0.03703297 0.0198351 -0.059603572 -0.09075021 -0.023376316 0.064799726 -0.12383365
-0.025448658 -0.1280668 -0.08294856 0.03233847 0.09229089 -0.024525218 0.087824225 0.026383325
0.06002453 0.042849824 -0.04634437 -0.10940559 -0.056136064 -0.121263586 0.1368673 -0.033618607
0.05617249 0.09124701 0.011193678 -0.061524272 -0.09173358 -0.097808965 -0.052339748 0.03594269
-0.104776576 -0.072769046 0.046568826 0.051975325 0.088353574 -0.13361524 -0.11522642 -0.0048439056
0.1400363 0.025511697 0.12909035 0.006640926 -0.050286606 -0.109103054 0.074251235 -0.12909001
-0.09855528 -0.0174625 0.09860474 -0.098211266 -0.122382365 0.057426244 -0.064468734 -0.076497965
0.08450277 -0.06756017 0.005726412 -0.13438095 -0.114158854 -0.05450712 -0.09199651 -0.049862497
0.034613624 0.121650584 -0.1179247 -0.12673499 -0.035832256 -0.047306314 -0.07045607 0.08136324
-0.11824441 -0.00836207 -0.0075410157 -0.05388893 -0.07939874 0.15312034 -0.118864015 0.042531565
0.10018963 -0.15791449 -0.0050162734 0.0882884 0.11057918 -0.014692051 0.0069144964 -0.12295234
-0.10581004 -0.010499418 -0.030214975 -0.062477376 -0.05479032 -0.06333192 -0.087668374 0.03631703
-0.079310715 0.11904548 0.011989194 0.08954422 -0.053070366 -0.011269808 -0.12226901 -0.065965265
0.15492417 0.06712072 0.091301575 -0.043472387 -0.013851881 -0.028171023 -0.11286621 0.070172645
-0.11829427 0.09066321 0.1233616 -0.1296673 -0.041187607 -0.061738662 -0.13349399 0.11121239
-0.1263321 0.11237578 -0.07960875 0.1116568 0.084365085 -0.12934344 -0.005425766 -0.016979448
-0.10454942 0.038682953 0.07270537 -0.05630344 -0.12817429 0.04617916 0.06253509 0.11072259
-0.023777872 -0.011142075 -0.11362241 -0.01409474 0.09391242 0.04498315 -0.009944364 -0.042921945
0.079016656 -0.12089111 -0.12363315 -0.08393124 -0.08679448 -0.121713474 0.12144838 -0.12303448
-0.13205807 0.09131187 0.07221943 0.083021194 -0.040510185 -0.12170483 -0.13156542 -0.09831387
-0.019649416 -0.14111263 0.06872448 0.13439685 0.038089037 0.07581481 -0.034184907 0.110501215
00000000: 88a7 4f3b e45b 32bd 2583 2bbc 8478 d33d
00000010: 196c c63d 259a 023e 83ad 93bc 024b 4fbd
00000020: 7067 f6bc 4c72 fdbd 6db7 d53d 1ed5 013e
00000030: 9ec2 b43d 3870 f13d 96c6 ad3c 076e 89bd
00000040: 10e0 333c 4062 e33c 00a6 9f3c c099 95bc
00000050: 0169 0e3c 0641 3cbd 2491 8e3d 48af c73c
00000060: 8319 ce3d 0266 8f3c db78 e83c c0a2 693c
00000070: 1ed6 00be c633 96bc bb94 943d 2f27 c1bd
00000080: c1b2 003d 70cc 7d3d a011 af3d 18bd f5bd
00000090: 4514 15bc 2fc9 d3bd 50c0 783c fba0 cd3d
000000a0: 5904 ccbd 75d6 a1bc 4a47 71bd 5023 6dbc
000000b0: 0808 f9bc 0451 08bd 7660 483d 2d49 a83c
000000c0: 52f2 edbd d5e7 933d 92cb ddbd 40bc cdbb
000000d0: c02d 5abb 2869 8d3d 0e77 ab3d b81c a4bc
000000e0: ccb3 e2bc e2c5 05be b0b5 773c d9c5 08be
000000f0: 4aeb fb3d deec cf3d 5af2 d1bd d21b c8bd
00000100: 50fa 883c 449f 283d 2033 da3d dbf3 043e
00000110: 8460 b0bd 90a6 d6bd ccbb 373d b0d0 4fbd
00000120: 4042 0f3d c0bb 5a3b 0cec c4bc 7a38 46bd
00000130: 5858 0cbd b2fc 81bd dc27 cdbc 706c 7f3d
00000140: 8875 80bc 24f9 bb3d 6cac 013d acab 573d
00000150: 18e2 623d 6c9b 4d3d fb99 b9bd 906a 0d3d
00000160: 6023 913c e2af 17bd 387d a23c e022 74bd
00000170: 3fdb b9bd b07f bfbc b8b5 843d 7f9c fdbd
00000180: b479 d0bc f123 03be efe0 a9bd 5875 043d
00000190: 0203 bd3d 1ce9 c8bc 30dd b33d d821 d83c
000001a0: 48dc 753d 4c83 2f3d 98d3 3dbd 0a10 e0bd
000001b0: eeee 65bd 0b59 f8bd f126 0c3e aab3 09bd
000001c0: 2015 663d b6df ba3d b065 373c e000 7cbd
000001d0: d1de bbbd 1150 c8bd 3462 56bd a438 133d
000001e0: 1a95 d6bd f007 95bd f4be 3e3d 14e4 543d
000001f0: b8f2 b43d 6fd2 08be d4fb ebbd a0b9 9ebb
00000200: ad65 0f3e e8fd d03c 4330 043e 209c d93b
00000210: 54f9 4dbd 6c71 dfbd 0811 983d 2c30 04be
00000220: 5ad7 c9bd 840d 8fbc 48f1 c93d fd22 c9bd
00000230: 9ba3 fabd c837 6b3d 2f08 84bd f7aa 9cbd
00000240: ca0f ad3d fd5c 8abd a0a4 bb3b 299b 09be
00000250: 1ecc e9bd dc42 5fbd ab68 bcbd 9e3c 4cbd
00000260: 04c7 0d3d f123 f93d 8182 f1bd d1c6 01be
00000270: d8c4 12bd 44c4 41bd 464b 90bd c5a1 a63d
00000280: 202a f2bd 1001 09bc a01a f7bb a3ba 5cbd
00000290: ce9b a2bd 94cb 1c3e fa6e f3bd 9435 2e3d
000002a0: 3930 cd3d 56b4 21be 8d5f a4bb 8cd0 b43d
000002b0: 5677 e23d eeb6 70bc 0093 e23b 70ce fbbd
000002c0: efb2 d8bd c005 2cbc 6585 f7bc 47e8 7fbd
000002d0: d16b 60bd 2ab4 81bd 7a8b b3bd 2bc1 143d
000002e0: a86d a2bd 1ece f33d 536e 443c f662 b73d
000002f0: 5060 59bd 00a5 38bc 2d68 fabd cc18 87bd
00000300: 71a4 1e3e 9776 893d 52fc ba3d 1a10 32bd
00000310: 00f3 62bc ebc6 e6bc 6626 e7bd adb6 8f3d
00000320: 4444 f2bd a2ad b93d 02a5 fc3d 81c7 04be
00000330: 56b4 28bd aee1 7cbd a6b2 08be 52c3 e33d
00000340: 345d 01be 4625 e63d ea09 a3bd 52ac e43d
00000350: 9ac7 ac3d 9b72 04be a0ca b1bb 7c18 8bbc
00000360: 021e d6bd 0472 1e3d 8ee6 943d 709e 66bd
00000370: 1f40 03be 5c26 3d3d 6612 803d 86c2 e23d
00000380: d0c9 c2bc 408d 36bc deb2 e8bd a0ed 66bc
00000390: 2855 c03d 4040 383d b0ed 22bc ecce 2fbd
000003a0: 7cd3 a13d c295 f7bd 6033 fdbd 24e4 abbd
000003b0: 4ec1 b1bd ea44 f9bd eeb9 f83d 80f9 fbbd
000003c0: 3b3a 07be b801 bb3d c8e7 933d 0407 aa3d
000003d0: 02ee 25bd 6240 f9bd 16b9 06be c858 c9bd
000003e0: d0f7 a0bc d47f 10be 6cbf 8c3d 549f 093e
000003f0: 4003 1c3d cc44 9b3d 7905 0cbd 764e e23d

stacks.0.blocks.0.fc4.bias f4 [50]
-0.10675611 -0.11852589 -0.027878605 -0.09467828 -0.11442352 0.099733315 0.03953551 0.113398634
-0.071961366 0.052107 -0.022375004 0.11374735 0.075819336 -0.08519218 -0.12744561 0.1345541
0.02427023 -0.044800397 0.05477234 0.1444634 0.1486298 -0.1330451 0.01403826 0.11918563
0.05066966 0.07597088 -0.054617036 0.021497386 -0.06498985 0.011917742 -0.023279903 -0.05858493
-0.1089884 -0.05747436 -0.044009887 -0.0012695227 -0.0026520125 -0.03987117 -0.03204331 0.007484419
0.04879113 0.1154687 0.059435114 -0.05174327 0.020866042 0.0499194 -0.1296846 -0.07158736
0.13578008 -0.12410511
00000000: f3a2 dabd b4bd f2bd ac61 e4bc b0e6 c1bd
00000010: e156 eabd fb40 cc3d fdef 213d 8b3d e83d
00000020: 7b60 93bd 266e 553d c94b b7bc 5ff4 e83d
00000030: 2b47 9b3d 3d79 aebd 1a81 02be 8dc8 093e
00000040: 5dd2 c63c 9f80 37bd f658 603d 37ee 133e
00000050: 6932 183e fa3c 08be bb00 663c 9817 f43d
00000060: fd8a 4f3d 9f96 9b3d 1db6 5fbd 491b b03c
00000070: 6619 85bd a242 433c 7fb5 bebc c0f6 6fbd
00000080: 4f35 dfbd 3c6a 6bbd b643 34bd 1d66 a6ba
00000090: 63cd 2dbb f44f 23bd d93f 03bd db3f f53b
000000a0: 35d9 473d db7a ec3d 3c72 733d c0f0 53bd
000000b0: 43ef aa3c 4978 4c3d 0acc 04be 659c 92bd
000000c0: ef09 0b3e d22a febd

stacks.0.blocks.0.theta_layer.weight f4 [43, 50]
-0.07337493 0.14098994 -0.022983015 -0.10411283 0.07496293 -0.09195437 -0.031409442 -0.099244
-0.096844465 0.08463749 -0.005265465 0.04193921 -0.010519463 -0.034431867 0.08379211 0.021304723
-0.007859074 -0.11781759 0.032695208 -0.04708838 -0.10732671 -0.13425073 -0.06678538 -0.10150684
0.07185301 0.021553943 0.086110316 0.02011923 0.022753904 -0.012187532 -0.064041145 0.11401959
0.052880395 0.042104665 0.04858417 -0.090838104 -0.03921802 0.008347265 0.031104246 0.013711508
0.047899142 0.043871332 0.092617676 -0.09032768 -0.018288994 -0.11895536 -0.026578508 0.014672579
-0.10241562 0.03872523 0.09031367 -0.07459981 -0.041114002 0.07184381 -0.110692434 -0.0858736
-0.05119386 -0.079780504 0.13646431 -0.024798324 -0.06983458 0.1309921 0.14366762 -0.061014447
-0.010093852 0.12762171 -0.09968628 0.11838479 -0.0068554822 0.015342056 0.11400941 -0.034297504
-0.0970452 -0.034080654 -0.054942306 0.11804931 -0.15302937 0.0989928 -0.08904687 -0.12078895
-0.04856818 0.12910144 -0.13494582 0.018193088 0.052058388 -0.07490982 -0.08167472 -0.09122389
0.066524155 0.082474634 0.03500059 0.10103614 0.15531835 0.1335818 0.10878468 0.020316862
0.044215664 0.05026894 -0.006873449 0.041169524 0.048414774 -0.0973818 -0.06604362 0.10616999
-0.05379106 -0.051281493 -0.06322589 -0.06763318 0.09292279 0.112087294 0.12758671 -0.08176385
0.090034045 0.0997879 -0.016677879 -0.064515315 0.11860599 0.056741893 0.051683094 0.13479723
-0.006391618 0.101743594 -0.06322398 0.07483443 0.019692095 -0.0014070439 0.10308846 0.14959456
0.014636055 0.018592855 -0.077760294 -0.15269017 -0.020267585 0.0801105 0.065221004 -0.101538785
0.036346637 0.11686203 0.055563536 -0.1386882 0.033208568 0.056780245 0.15114027 0.028369397
-0.02164731 0.09053851 -0.09202905 -0.11742846 0.022264382 -0.025922405 0.09840461 0.122827545
0.052033603 0.13735642 0.0011133105 -0.098756514 0.12184174 0.042999446 -0.052215427 0.0046302294
-0.0909232 -0.10127918 0.008085541 0.10767951 0.13351896 0.12917085 0.008946957 0.06362891
0.0445699 -0.022290453 -0.029475022 -0.067051 -0.0013884291 -0.08612642 -0.032223877 -0.041308656
0.031520374 0.10643501 -0.07241071 0.12237779 -0.022678854 0.07208252 0.096362874 -0.04058435
0.07955922 -0.02475122 -0.05249872 0.08601747 0.009498313 -0.020093763 -0.026608966 0.055089686
0.01450566 0.02350074 -0.09763514 0.04918749 0.12533943 0.033820886 -0.060072917 0.08643892
0.15167423 -0.087253034 -0.12199886 0.025643088 0.09343162 0.13621806 -0.026509248 0.025044449
-0.0068041086 0.0034660765 -0.03054019 -0.08909946 0.12788141 0.13029003 -0.036022425 0.056858562
0.13332924 0.10602949 0.044206455 0.058650855 -0.036173616 -0.124498054 0.10927131 -0.09938374
-0.04309524 0.091694474 -0.060003333 -0.0848062 -0.055152215 -0.027028272 0.086977944 0.02428112
-0.15258864 0.051681988 0.021094937 0.05699859 -0.026782399 0.112633094 -0.117713995 -0.07457877
0.056095313 0.15456998 0.12320393 0.038268015 -0.088256285 0.015689706 0.09806605 0.102589756
0.047888514 -0.007035057 -0.07437108 0.042647853 0.04189734 -0.026840711 0.0021741837 -0.013965626
00000000: 9845 96bd ab5f 103e e046 bcbc 1b39 d5bd
00000010: 2a86 993d 9352 bcbd 30a7 00bd 7040 cbbd
00000020: 6456 c6bd 6c56 ad3d ec89 acbb 73c8 2b3d
00000030: d359 2cbc 6e08 0dbd 339b ab3d 3e87 ae3c
00000040: 58c3 00bc 594a f1bd 69eb 053d bfdf 40bd
00000050: 1bce dbbd 0679 09be c6c6 88bd d1e2 cfbd
00000060: ac27 933d e591 b03c 9b5a b03d 15d1 a43c
00000070: 6566 ba3c 37ae 47bc 0128 83bd 1a83 e93d
00000080: 1d99 583d f175 2c3d 3200 473d 5409 babd
00000090: 13a3 20bd f8c2 083c 55ce fe3c 3ca6 603c
000000a0: e431 443d 6db2 333d 56ae bd3d b8fd b8bd
000000b0: cdd2 95bc de9e f3bd 2cbb d9bc 4265 703c
000000c0: 48bf d1bd 599e 1e3d 60f6 b83d c9c7 98bd
000000d0: 2867 28bd d922 933d b7b2 e2bd 7fde afbd
000000e0: a7b0 51bd f663 a3bd 4dbd 0b3e db25 cbbc
000000f0: 6f05 8fbd cb22 063e 9b1d 133e 49ea 79bd
00000100: af60 25bc 44af 023e 5228 ccbd ba73 f23d
00000110: f4a3 e0bb 3f5d 7b3c c47d e93d 8a7b 0cbd
00000120: a2bf c6bd 2898 0bbd 2f0b 61bd d6c3 f13d
00000130: bbb3 1cbe bdbc ca3d 355e b6bd 3260 f7bd
00000140: 6eef 46bd 2b33 043e 3d2f 0abe ac09 953c
00000150: 2d3b 553d 526a 99bd 1345 a7bd 97d3 babd
00000160: d13d 883d 76e8 a83d c75c 0f3d 09ec ce3d
00000170: c60b 1f3e abc9 083e 81ca de3d 8c6f a63c
00000180: 7c1b 353d cee6 4d3d ab3a e1bb 60a1 283d
00000190: 924e 463d 1c70 c7bd e141 87bd a76f d93d
000001a0: 0454 5cbd 8b0c 52bd 937c 81bd 4483 8abd
000001b0: 4e4e be3d 068e e53d 17a6 023e ce73 a7bd
000001c0: c563 b83d 995d cc3d 0ca0 88bc 9b20 84bd
000001d0: b3e7 f23d 306a 683d a7b1 533d 4908 0a3e
000001e0: c770 d1bb f25e d03d 937b 81bd cb42 993d
000001f0: 5151 a13c 8f6c b8ba 0b20 d33d 512f 193e
00000200: 10cc 6f3c 0b50 983c ca40 9fbd d05a 1cbe
00000210: 3508 a6bc f910 a43d 9792 853d 91f3 cfbd
00000220: 36e0 143d 5c55 ef3d 9796 633d 4804 0ebe
00000230: b505 083d 6792 683d 84c4 1a3e f066 e83c
00000240: b355 b1bc 416c b93d ba79 bcbd 557e f0bd
00000250: cb63 b63c 395b d4bc 5b88 c93d 028d fb3d
00000260: 3021 553d 29a7 0c3e 80ec 913a db40 cabd
00000270: 2a88 f93d 3020 303d d8df 55bd 2eb9 973b
00000280: f135 babd 756b cfbd 3879 043c 1387 dc3d
00000290: 32b9 083e 5d45 043e 4296 123c e04f 823d
000002a0: ed8e 363d 789a b6bc 9a75 f1bc 0952 89bd
000002b0: f3fb b5ba 0c63 b0bd 2ffd 03bd 4433 29bd
000002c0: 821b 013d 99fa d93d 114c 94bd 35a1 fa3d
000002d0: 01c9 b9bc 00a0 933d e659 c53d c63b 26bd
000002e0: f2ef a23d 12c3 cabc e608 57bd ed29 b03d
000002f0: d09e 1b3c ad9b a4bc 0cfb d9bc b9a5 613d
00000300: 26a9 6d3c a084 c03c eff4 c7bd d278 493d
00000310: fb58 003e c587 0a3d 050f 76bd e306 b13d
00000320: 7d50 1b3e b8b1 b2bd 8ada f9bd 7411 d23c
00000330: 1459 bf3d bf7c 0b3e ec29 d9bc 042a cd3c
00000340: 00f5 debb 1d27 633b 6c2f fabc c779 b6bd
00000350: 58f3 023e c06a 053e 408c 13bd 86e4 683d
00000360: 7687 083e fd25 d93d d411 353d e13b 703d
00000370: c92a 14bd d6f8 febd a3c9 df3d b489 cbbd
00000380: a284 30bd 50ca bb3d 0ec6 75bd dfae adbd
00000390: 4ae7 61bd 656a ddbc 7e21 b23d 33e9 c63c
000003a0: 3240 1cbe 7eb0 533d 4acf ac3c 5a77 693d
000003b0: c366 dbbc 2eac e63d 0914 f1bd c1bc 98bd
000003c0: 33c4 653d 9847 1e3e 5852 fc3d ecbe 1c3d
000003d0: b6bf b4bd b387 803c dad6 c83d 941a d23d
000003e0: bf26 443d 5686 e6bb dd4f 98bd 84af 2e3d
000003f0: 8c9c 2b3d 0de1 dbbc c07c 0e3b 15d0 64bc

stacks.0.blocks.0.theta_layer.bias f4 [43]
0.049271356 -0.07503268 0.06018046 -0.08509716 -0.12368406 0.113179035 -0.06562002 0.06043147
-0.10197023 -0.033922095 -0.014941199 -0.044785555 -0.10638932 0.064199984 0.09550391 -0.08845812
0.09342747 -0.08153226 0.13765141 -0.08182957 0.12813915 0.107464716 -0.0038075233 -0.0931781
-0.0035194429 0.13774048 0.011108906 -0.020630155 -0.12069421 -0.098279916 0.122736886 0.0024078724
0.00792796 -0.026124403 -0.11002564 -0.058000073 -0.04092237 0.11046803 0.073417254 -0.08529737
-0.08676008 -0.03508346 -0.06107062
00000000: c3d0 493d bcaa 99bd c97f 763d 6b47 aebd
00000010: 124e fdbd 69ca e73d ca63 86bd fd86 773d
00000020: c5d5 d0bd e5f1 0abd eecb 74bc 0f71 37bd
00000030: a5e2 d9bd 487b 833d 8e97 c33d 8829 b5bd
00000040: e756 bf3d 63fa a6bd 7ef4 0c3e 4396 a7bd
00000050: e936 033e 7616 dc3d a487 79bb 29d4 bebd
00000060: 74a6 66bb d70b 0d3e 2102 363c 9200 a9bc
00000070: 872e f7bd fb46 c9bd 7a5d fb3d 65cd 1d3b
00000080: 46e4 013c d802 d6bc 1f55 e1bd 7c91 6dbd
00000090: 379e 27bd 103d e23d c95b 963d 63b0 aebd
000000a0: 45af b1bd adb3 0fbd 3025 7abd

stacks.0.blocks.1.fc1.weight f4 [50, 42]
0.004403732 -0.07285809 -0.009757493 0.10128302 0.12528284 -0.056378167 0.10882584 0.068145886
-0.12400803 0.02382479 -0.05428915 -0.11089134 -0.105133966 -0.09007343 0.10217312 -0.13569967
-0.07071722 0.14054322 -0.0018273563 -0.0009318987 0.081241004 0.15938649 -0.07078594 -0.139877
0.062321115 -0.1112151 -0.088192746 -0.101766266 -0.15889119 -0.1096892 0.042930204 0.17343919
0.02494959 -0.16768357 -0.04964679 0.07009655 -0.14531067 -0.03441734 0.08069446 0.060878888
0.119762376 0.14225318 -0.02833942 -0.086272664 -0.008337901 -0.07496498 0.0026225536 0.14940739
-0.17584713 0.015286919 -0.011207932 -0.03980676 0.12924045 0.1288396 0.12017334 -0.0070559583
0.09311065 0.047496974 0.11970896 -0.15557198 -0.002078333 -0.018383376 -0.09722555 0.1618894
0.005376548 0.087805234 -0.07037183 0.17150582 -0.16488512 -0.15294306 0.046288073 0.020941662
-0.10872258 -0.06429671 -0.01614168 0.009238434 -0.031674504 -0.104469635 -0.016088922 0.18947832
-0.09496422 0.0805476 -0.091279164 -0.036622893 0.11821145 -0.097931124 0.12379371 0.07894152
0.028612101 -0.09729454 -0.039978378 0.11193658 0.056066368 -0.10963867 0.01849618 -0.07553478
0.090736285 0.136269 0.07190366 -0.11979016 -0.06251573 0.044520695 -0.12414952 0.06746041
0.13279781 -0.03846684 -0.17461208 0.13645205 -0.08636252 -0.12273985 0.035918437 -0.15215093
-0.033762813 -0.14892018 0.1312111 0.1036429 -0.08068082 -0.038199753 -0.15634759 -0.10218289
-0.025602082 0.057239357 -0.12762332 -0.096679576 -0.12799048 0.03368406 -0.019532459 0.07443658
0.06042353 -0.035375133 0.07051584 -0.10628402 0.15773542 -0.022591041 -0.054819964 0.15796283
0.029862786 -0.010532108 0.032933477 0.061827097 0.04038896 0.10558644 0.010692451 -0.067109525
0.113513514 -0.06530725 -0.036088966 -0.0661195 0.12129629 0.1300547 0.027592508 -0.06160593
0.11000131 0.058093406 -0.002977744 -0.12365029 0.10018182 0.056094375 -0.15013584 -0.030680537
-0.11458606 0.15641981 0.12865789 -0.006505377 0.09536525 -0.08045986 -0.0095385555 0.13980296
-0.104142874 -0.0449281 -0.011003827 0.124974266 0.04260591 -0.12712443 -0.08647197 0.0033703877
0.018712698 -0.15061009 0.036665607 0.06524922 0.09399285 -0.07555927 -0.12645245 -0.16102089
0.090984665 0.11793653 0.104638636 0.0038131592 -0.10882866 -0.13708991 -0.090634756 -0.026296807
0.041473072 0.02847876 0.1297066 -0.035171956 0.02393657 0.10849066 -0.014247785 0.10938813
0.09752225 -0.15982479 -0.027994571 -0.111298256 0.009620594 -0.016994214 -0.1304216 -0.08120066
-0.032289807 0.13536288 0.033820543 -0.010089774 -0.0031739192 -0.08693979 -0.032084186 -0.07240804
0.04279301 -0.15247905 0.11858322 -0.05827929 0.073753424 -0.052239463 -0.13179684 0.12363289
0.034597248 -0.023860408 -0.03378924 0.074184984 -0.053467397 -0.028205419 -0.04335595 -0.0032124254
0.13011643 -0.14086485 -0.109582104 -0.14484149 0.05846025 0.10973105 -0.08484101 0.060583524
0.12372355 -0.107023284 -0.07882504 0.0629186 -0.047704987 -0.15220495 -0.12254147 0.13559991
0.10805858 -0.13554148 0.08243797 -0.07321616 0.08293751 0.01855819 -0.05749911 -0.011734594
00000000: 2e4d 903b 9f36 95bd e4dd 1fbc 796d cf3d
00000010: 254a 003e cbec 66bd 15e0 de3d 1290 8b3d
00000020: ecf7 fdbd 352c c33c 4d5e 5ebd 001b e3bd
00000030: 7a50 d7bd 6b78 b8bd 2440 d13d dbf4 0abe
00000040: 31d4 90bd 90ea 0f3e e783 efba aa4a 74ba
00000050: af61 a63d 3636 233e 38f8 90bd eb3b 0fbe
00000060: 6d44 7f3d bec4 e3bd 669e b4bd d56a d0bd
00000070: 5fb4 22be bba4 e0bd 95d7 2f3d 0b9a 313e
00000080: 1563 cc3c 3eb5 2bbe 6f5a 4bbd c88e 8f3d
00000090: 52cc 14be 32f9 0cbd 2343 a53d 245c 793d
000000a0: fa45 f53d d1aa 113e 1228 e8bc b9af b0bd
000000b0: b19b 08bc 3d87 99bd 26df 2b3b 40fe 183e
000000c0: 4511 34be fc75 7a3c 79a1 37bc 6a0c 23bd
000000d0: 9c57 043e 87ee 033e 711d f63d ab35 e7bb
000000e0: ccb0 be3d 308c 423d f929 f53d 434e 1fbe
000000f0: a434 08bb bc98 96bc 301e c7bd 56c6 253e
00000100: c12d b03b 3bd3 b33d 1b1f 90bd 399f 2f3e
00000110: a5d7 28be 1b9d 1cbe 9098 3d3d d98d ab3c
00000120: f2a9 debd fead 83bd 8e3b 84bc cd5c 173c
00000130: 20bd 01bd 2df4 d5bd eacc 83bc 9b06 423e
00000140: 9a7c c2bd 24f6 a43d 92f0 babd e301 16bd
00000150: d818 f23d 1d90 c8bd 8e87 fd3d 17ac a13d
00000160: ed63 ea3c 5c42 c7bd 5ec0 23bd 013f e53d
00000170: d9a5 653d 3d8a e0bd 4d85 973c fbb1 9abd
00000180: f2d3 b93d 1a8a 0b3e 3a42 933d 8b54 f5bd
00000190: 3f08 80bd 555b 363d 1b42 febd af28 8a3d
000001a0: 26fc 073e 688f 1dbd 82cd 32be 16ba 0b3e
000001b0: d5de b0bd 085f fbbd 361f 133d 74cd 1bbe
000001c0: e04a 0abd 887e 18be 345c 063e bb42 d43d
000001d0: fc3b a5bd 5877 1cbd 9519 20be 4345 d1bd
000001e0: 75bb d1bc d173 6a3d b0af 02be f1ff c5bd
000001f0: f00f 03be 4cf8 093d 8902 a0bc 3572 983d
00000200: aa7e 773d 84e5 10bd 9c6a 903d 70ab d9bd
00000210: 6585 213e d910 b9bc e68a 60bd 02c1 213e
00000220: cda2 f43c dd8e 2cbc 41e5 063d 693e 7d3d
00000230: e56e 253d b43d d83d 642f 2f3c b870 89bd
00000240: c679 e83d cfbf 85bd 06d2 13bd a969 87bd
00000250: 306a f83d 0f2d 053e af09 e23c 8056 7cbd
00000260: 5e48 e13d 5af3 6d3d 4126 43bb 5d3c fdbd
00000270: 202c cd3d 37c3 653d 36bd 19be c055 fbbc
00000280: 19ac eabd 842c 203e e5be 033e 0f2b d5bb
00000290: db4e c33d 24c8 a4bd 9a47 1cbc 8228 0f3e
000002a0: dc48 d5bd 8706 38bd 6549 34bc 82f2 ff3d
000002b0: 8983 2e3d e82c 02be 3718 b1bd b9e1 5c3b
000002c0: 5f4b 993c 8839 1abe ad2e 163d 62a1 853d
000002d0: 537f c03d d2be 9abd c07c 01be a9e2 24be
000002e0: 2b56 ba3d b588 f13d c84c d63d 32e6 793b
000002f0: 8fe1 debd 4c61 0cbe b79e b9bd 676c d7bc
00000300: abdf 293d 4a4c e93c cfd1 043e 7810 10bd
00000310: a016 c43c 5a30 de3d 8b6f 69bc e206 e03d
00000320: bfb9 c73d 1ca9 23be df54 e5bc 57f0 e3bd
00000330: b29f 1d3c 7337 8bbc 3d8d 05be 884c a6bd
00000340: 5142 04bd 919c 0a3e 6987 0a3d 944f 25bc
00000350: 8701 50bb 7d0d b2bd b56a 03bd ab4a 94bd
00000360: b947 2f3d 7823 1cbe c2db f23d 44b6 6ebd
00000370: 090c 973d 0cf9 55bd c0f5 06be 3e33 fd3d
00000380: d8b5 0d3d e776 c3bc 9666 0abd 4cee 973d
00000390: a100 5bbd 0d0f e7bc 0296 31bd 8e87 52bb
000003a0: 3e3d 053e e03e 10be 956c e0bd 5451 14be
000003b0: 0474 6f3d acba e03d 20c1 adbd 6e26 783d
000003c0: c662 fd3d 062f dbbd 066f a1bd 78db 803d
000003d0: 4e66 43bd 9ddb 1bbe 06f7 fabd b4da 0a3e
000003e0: d14d dd3d 63cb 0abe 3dd5 a83d 5bf2 95bd
000003f0: 24db a93d 5807 983c 3084 6bbd 7442 40bc

stacks.0.blocks.1.fc1.bias f4 [50]
-0.1013936 -0.12537542 0.13521604 0.034000985 0.088586286 0.0624321 -0.10222398 -0.17925976
-0.14433207 0.08624854 -0.07717354 -0.11655473 -0.106037155 0.100027494 -0.075333335 -0.062979564
-0.09561406 0.15126447 0.05928772 0.046545714 -0.1688477 -0.15929061 0.12069788 -0.21862997
-0.11286417 -0.10647802 0.1307691 0.15022512 0.11442919 -0.071739465 0.083314046 -0.1462904
0.02419909 -0.09818141 0.07052927 0.04796807 -0.08493822 0.12200914 0.09943039 -0.20075122
0.025358979 0.059776258 0.05736466 -0.11885632 -0.05046687 0.10194705 0.09187061 -0.071004204
0.04500242 0.049273033
00000000: 73a7 cfbd 6a62 00be 1376 0a3e 9e44 0b3d
00000010: ba6c b53d cdb8 7f3d ce5a d1bd df8f 37be
00000020: c9cb 13be 13a3 b03d 290d 9ebd 3fb4 eebd
00000030: 022a d9bd 37db cc3d 5d48 9abd 6efb 80bd
00000040: 4ed1 c3bd 13e5 1a3e aed7 723d b8a6 3e3d
00000050: 69e6 2cbe 141d 23be 7330 f73d 89e0 5fbe
00000060: 5425 e7bd 2611 dabd 56e8 053e 9dd4 193e
00000070: da59 ea3d 24ec 92bd 8ea0 aa3d 27cd 15be
00000080: 2c3d c63c 5613 c9bd a671 903d 2b7a 443d
00000090: 17f4 adbd eedf f93d 29a2 cb3d ba91 4dbe
000000a0: a2bd cf3c f3d7 743d 35f7 6a3d f16a f3bd
000000b0: 59b6 4ebd 9dc9 d03d a926 bc3d a76a 91bd
000000c0: 7554 383d 85d2 493d
