RNN_models/trained_rnn_model_t1.pth (torch, 47919 bytes, 5 tensors)

weight_ih_l0 f4 [99, 10]
000000 7b 5c d6 3d a8 ac ed 3d 7e 43 f5 3d 19 b3 1f 3e
       0.10466858 0.11605197 0.11975764 0.15595664
000010 af 89 81 3c 5f 34 bc 3b 97 e7 a0 3d f0 10 88 3d
       0.015812723 0.005743548 0.07856672 0.066438556
000020 bb 66 f7 3d 42 71 88 bd 84 f2 b3 3d 31 a3 9e bb
       0.12080141 -0.06662227 0.087864906 -0.0048412313
000030 91 6c b4 3d 6a 1d c0 3d 7e 17 96 bc 76 ed d6 3d
       0.0880977 0.0938061 -0.018321749 0.10494511
000040 8d d3 0b 3e 4d 56 1f 3e 31 80 c1 3d 57 83 a6 bd
       0.13654919 0.15560265 0.09448279 -0.0813052
000050 91 6e ec bd 66 6c 6d bc 29 fe e5 bc 68 33 81 bd
       -0.11544526 -0.014491176 -0.028075295 -0.06308633
000060 a1 f1 4f 3d 63 e5 71 bd de a0 da bd 7b 4c 8b bd
       0.050767545 -0.05905665 -0.10675214 -0.06801697
000070 62 ae d5 bd ef 23 9b bc 56 36 25 3c 12 e7 02 3e
       -0.104336515 -0.018938033 0.0100837555 0.12783459
000080 68 fa ae 3d 41 a2 d1 3d ac cb 22 3c db db 8c 3d
       0.08543855 0.102360256 0.0099362545 0.068778716
000090 2c 38 3d 3d 97 52 89 3d 7f fc ab 3d 4e 03 00 3c
       0.046196148 0.06705206 0.08397769 0.007813288
0000a0 a2 d6 0b 3e 74 d2 f4 3d 9c 74 13 3c 1e 0e b0 3d
       0.13656095 0.11954203 0.00899997 0.08596443
0000b0 8e be dc bc 05 cb 82 3c 87 c6 15 bd 2f 19 b5 bd
       -0.026946332 0.015965948 -0.036566284 -0.08842694
0000c0 f7 bd b4 3d 15 28 b1 bd 46 0b aa 3b 30 39 3f 3e
       0.088252954 -0.08650223 0.005189332 0.18674159
0000d0 4b 67 87 3d 0b 56 b2 3d e5 8a 03 bc 8c da f9 37
       0.066114984 0.08707818 -0.0080287205 2.9784882e-05
0000e0 57 5b 43 3c 12 58 22 3e 98 57 35 3e 9d 36 78 bd
       0.011923633 0.15853909 0.17709196 -0.06059896
0000f0 9e 01 2d 3e c2 7b 81 3d 2e fe 3d 3e a6 d8 f2 bb
       0.16895148 0.06322433 0.18553993 -0.0074110804
000100 52 62 a6 3c 26 e7 2e bd 38 11 ca 3d 14 5b db 3d
       0.020310555 -0.04270091 0.098665655 0.10710731
000110 c0 b8 0b 3e 90 c4 06 3d 32 12 f0 3d 03 32 db 3c
       0.13644695 0.0329023 0.117222205 0.026757246
000120 2d a0 f1 3d fe cb 9a 3d bf 43 b1 3d d8 4c d4 3c
       0.11798129 0.0755844 0.086555 0.025915548
000130 19 28 a5 3d 07 8c 73 3d fd f7 d9 3d d8 2a 14 3d
       0.08064289 0.059459712 0.10643003 0.03617367
000140 a3 b9 ec 3d ca 2f de 3d d3 23 a2 3c bb bc 81 3d
       0.11558845 0.10848959 0.019792473 0.063348256
000150 d5 dd 7e bd 90 8a eb 3d 4b 5e 24 3e 32 8e 2e 3e
       -0.062223274 0.11501038 0.16051595 0.1704643
000160 3e 2d da 3d 08 32 3d 3d 03 0f d9 bd 26 44 0d 3c
       0.106531605 0.04619029 -0.105985664 0.008622205
000170 09 28 85 3d c8 1a a1 bd 6b d5 b5 3c 93 c7 5e 3d
       0.06501777 -0.07866436 0.022196492 0.054389548
000180 be 50 7e 3b 74 27 ef 3d 5a 8d 0c bd 2b ca 7c bd
       0.003880545 0.11677447 -0.03431449 -0.06171624
000190 18 fb 10 3e dc 22 dd 3d 9e ca 1a 3d 3b 08 8a 3d
       0.14158285 0.107976645 0.037790887 0.06739851
0001a0 68 fd c8 3b 6b 29 f9 3d b2 da 47 3d 70 1c 7f 3d
       0.006133724 0.12166103 0.04879255 0.06228298
0001b0 d1 cf bf 3d 55 37 2a 3d 9f 62 3a 3e 7e 75 b9 3d
       0.0936581 0.041556675 0.18201683 0.09055613
0001c0 bd 1f ad 3d 31 12 41 3e 0c e8 8a bd a9 94 d9 3d
       0.08453319 0.18854596 -0.06782541 0.10624058
0001d0 70 6b 45 3d 60 64 f5 bc 7c b8 b7 3d 9e 5d 82 bd
       0.048198164 -0.02995509 0.089707345 -0.06365512
0001e0 82 4f 5f be 28 ae 47 be e0 b5 b2 bd 32 c4 96 bd
       -0.21807674 -0.19500029 -0.08726096 -0.0736164
0001f0 1e 7d 4f 3b 32 f9 b7 3c 38 99 dd bd 8c 4e fe bd
       0.003166027 0.022457693 -0.1082024 -0.124173254
000200 0a b1 39 be b1 20 54 bd 71 9b de 3d 27 9a 81 bd
       -0.18133941 -0.05178899 0.10869492 -0.0632823
000210 27 db 92 bd 4a 62 1e 3d 69 c3 d4 3d aa 4e ed 3d
       -0.07170706 0.038667955 0.10388834 0.115872696
000220 ec c4 ac 3d 12 ae d6 3d 16 da cd bc 18 01 6a bb
       0.08435997 0.1048242 -0.025128406 -0.0035706218
000230 cf 61 b7 bc 66 4a 87 bc a6 a3 42 bd d2 13 19 bd
       -0.022385506 -0.016514968 -0.04751935 -0.037372418
000240 0e 9a d6 3d df a0 60 be 0a ad 32 be 6b 6f 1b be
       0.10478602 -0.21936367 -0.17448822 -0.15179221
000250 e3 38 7d bd 59 99 d3 bc dd a6 3f 3c 4a 5a d7 3d
       -0.06182183 -0.025829958 0.011697498 0.10515268
000260 ea db 24 3e 50 dd 20 3e 43 6f 93 3d 9c a9 25 be
       0.16099516 0.15709424 0.07198956 -0.16177982
000270 22 da 7e bd 40 11 32 3c 92 14 0b 3e 3c 28 cc 3d
       -0.062219746 0.0108683705 0.13582066 0.099686116
000280 cc 1d fb 3b 26 d2 01 3e de fd f2 3d d4 04 3b 3e
       0.007663464 0.12677822 0.118648276 0.1826356
000290 6d 2d 25 3c 4c af 86 3d 22 72 05 3e 6f 49 af 3b
       0.010081631 0.06576404 0.1303182 0.00534933
0002a0 df 50 62 3d 40 a7 d0 3d 99 bf 44 bc 70 23 61 3c
       0.055252906 0.101881504 -0.012008571 0.013741359
0002b0 86 db 44 bd 89 23 b3 bd 41 5a 46 3d 38 d2 23 3d
       -0.048060916 -0.08747012 0.048425917 0.039995402
0002c0 14 92 bd 3d 37 12 87 3d 7f 1d d8 ba 00 ac 4a 3c
       0.09256378 0.06595271 -0.0016488283 0.01237011
0002d0 f8 bc f0 bd 39 10 66 b9 26 bb 11 be 4c 5f 0c bd
       -0.11754793 -0.00021940553 -0.14231548 -0.03427057
0002e0 fd bb b3 3d c7 f9 90 bd 37 d7 c1 bd fa 93 b1 bd
       0.0877609 -0.07078891 -0.09464877 -0.086708024
0002f0 bf bb 74 bd 0c ac 26 bd 62 b2 17 3d 66 2d 16 3d
       -0.05974936 -0.04069142 0.037035353 0.03666439
000300 f3 02 9c bd a7 dd e1 bc d7 60 7c 3d e0 62 79 bd
       -0.0761775 -0.027571512 0.06161579 -0.06088531
000310 88 f3 d7 bd de 02 e0 3c 7c 77 bb bd 49 09 d3 3d
       -0.10544497 0.027345117 -0.09153649 0.103045054
000320 aa 44 c9 3d ed 73 07 3e 09 5e b3 3d cb 9a 10 3e
       0.0982755 0.13227816 0.0875817 0.14121549
000330 ac 11 16 bd ba 5b 9e 3d 18 c8 59 3d 4c 34 38 bc
       -0.036637947 0.07732339 0.05316934 -0.011242937
000340 47 8f 57 3d e5 92 67 bd 36 28 2a 3c af d5 a7 bd
       0.052626874 -0.056536574 0.010385564 -0.08195054
000350 ee bb 2a bd 8c 5a ff bd ff 7d af ba a1 00 87 bd
       -0.04168313 -0.12468442 -0.001338899 -0.06591917
000360 66 ab bd 3b ee 86 06 be eb c4 21 be 6e 09 78 3d
       0.0057882546 -0.13137409 -0.15797774 0.060555868
000370 4a 4b 13 3e eb 8c 17 3e d0 43 47 3e 3c 3e 0a 3d
       0.14384189 0.1479985 0.19459462 0.033750758
000380 34 01 db bd 9b 4d 92 3d 44 eb b1 bc c6 5a a8 3d
       -0.10693589 0.07143708 -0.021718629 0.08220439
000390 d6 e8 37 3c c7 44 4b bd 7f ee 13 bd c0 e2 e4 3c
       0.011224946 -0.049626138 -0.03611612 0.027940154
0003a0 e1 10 9f 3c 82 68 b1 3c c2 4f ae 3a 47 b9 83 3c
       0.019417228 0.021656279 0.0013298916 0.016079558
0003b0 71 4f b3 bd f4 b4 d7 3d 0f cb f3 3d d3 28 b0 3c
       -0.087553866 0.10532561 0.11903965 0.021503842
0003c0 b9 cd ce bd 34 89 5e be 09 80 1b be bc f7 20 be
       -0.10097832 -0.21732026 -0.1518556 -0.15719503
0003d0 ba ed c2 bd 2b f3 d7 3d f0 56 90 bd 22 a7 d5 bd
       -0.09517999 0.105444275 -0.07047832 -0.10432269
0003e0 f9 06 04 be 9c 08 21 3d e4 f9 52 3d ca 2c a7 bc
       -0.12893285 0.03931485 0.051507846 -0.0204071
0003f0 65 eb 9a bd 45 4c 99 bd d2 1f a3 3d a1 90 c2 3c
       -0.07564429 -0.074852504 0.079650536 0.023750605

weight_hh_l0 f4 [99, 99]
000000 6a 69 c0 bd a0 91 b8 bd e8 f1 3a 39 03 5a 99 bd
       -0.09395106 -0.09012151 0.0001782846 -0.074878715
000010 e3 d6 8c bd 8e 36 b1 bd e0 e1 af bd 76 16 01 bd
       -0.06876924 -0.086529836 -0.08588004 -0.03151556
000020 a0 3a 10 3d ac 9d a9 bd 76 21 ef 3c c9 c5 8a 3c
       0.03521216 -0.08282027 0.02919076 0.016940014
000030 40 2a 39 bc 2a e2 6e 3d b0 bd 82 bc c7 9b d3 bd
       -0.011301577 0.058321156 -0.01595959 -0.103324465
000040 a3 d0 f3 bc 92 53 8c bd 49 06 9c bd 13 15 8c 3d
       -0.029762572 -0.06851877 -0.07618386 0.06839957
000050 eb d4 a7 bd 8b b9 c7 3d 64 52 6c 3d 6a 0b 06 bd
       -0.08194908 0.097521864 0.05769576 -0.03272573
000060 44 c6 05 bd f3 5d 93 bc ed c6 a6 3c 2b 7d b6 bc
       -0.032659784 -0.017989134 0.020358527 -0.022276482
000070 62 65 ce bd b0 f2 01 bd 34 3b 02 bc f8 2f 8f 3d
       -0.10077931 -0.031725585 -0.007948685 0.06991571
000080 e7 cf 3e 3d 64 b3 b5 3d 46 e7 58 3d ca 7d 67 bd
       0.04658499 0.08872107 0.052954935 -0.056516446
000090 6e cb 4d bd e6 f5 d6 bc 65 22 fb 3c 0d 0f 9f bd
       -0.050242834 -0.0262403 0.030656049 -0.077665426
0000a0 9a 57 cd 3c c4 c9 01 be c1 2e 0c be 11 4d b3 3d
       0.025066186 -0.12674624 -0.1368971 0.087549336
0000b0 9c 8d f2 3d 78 37 93 bd 68 e5 43 bd 87 1b 96 bd
       0.11843416 -0.07188314 -0.0478262 -0.07329469
0000c0 4f f0 b4 3c b5 ec c0 3b 5f ec fc 3b 65 90 60 bc
       0.022087244 0.0058875927 0.0077186073 -0.013706301
0000d0 07 9c 86 bd 41 2e e8 bc c4 7d dd bd eb ac e5 ba
       -0.065727286 -0.028342368 -0.108150035 -0.0017522847
0000e0 9e f9 ab bd ac 46 80 3d 8e 35 07 3d 02 49 a2 3d
       -0.0839722 0.062634796 0.033010058 0.079240814
0000f0 e0 d1 71 3d 10 8c cb 3c 9b 12 68 3d 14 aa 6c bd
       0.059038043 0.02484706 0.05665837 -0.057779387
000100 86 36 c3 3d 62 78 e3 bc 01 37 9d 3d 8a 00 81 bd
       0.09531884 -0.027767364 0.07676507 -0.06298931
000110 8e 2e 4e 3d 3e ee ba bc 5e bc 18 3d c7 fa 19 bd
       0.050337367 -0.02281868 0.037289016 -0.037592676
000120 ef 7b 17 bc 72 e3 dc bd 3c 5a ca 3d 0a 25 09 3d
       -0.009245857 -0.10785569 0.09880492 0.03348259
000130 80 fe 03 be 6d 68 99 3d da 59 ff bd aa ae 40 3d
       -0.12890053 0.07490621 -0.1246831 0.047041573
000140 6d b5 70 bd 51 51 60 bd 13 74 d9 bd 59 68 b1 bd
       -0.05876677 -0.05476505 -0.106178425 -0.08662481
000150 ea f8 42 3d 0f eb da bd 4d 1a 0b 3d 14 29 ba 3c
       0.047600664 -0.10689365 0.03396063 0.022724666
000160 c5 a7 84 bd 58 3b fb bc 9a 6a e4 3c 0c 9e d7 3d
       -0.06477312 -0.030667946 0.027882863 0.10528192
000170 5c d6 2b 3d 3a 36 e3 3d 6b 74 f9 bc 15 91 b5 3b
       0.041952476 0.11094327 -0.03045102 0.0055409768
000180 ef af 1b 3c 4e fa 1c bd ca 81 8d 3d ad f2 33 bd
       0.009502395 -0.038324647 0.06909521 -0.043932606
000190 73 54 9c bc b7 62 b6 3d ba 46 78 3d 44 a3 69 3d
       -0.019083237 0.08905547 0.060614325 0.057040468
0001a0 5a 72 9e bd e4 f9 6b bd a9 6a 91 bd 57 1b 2d 3d
       -0.077366546 -0.05761136 -0.07100422 0.0422624
0001b0 f9 49 78 3d cc 3e 6f 3d 01 a5 05 bd 50 82 fd bd
       0.06061742 0.058409497 -0.032628063 -0.12378371
0001c0 ef bd a0 bd de 6c a1 bc 58 26 a6 bd b1 db 2f 3d
       -0.07848727 -0.019705232 -0.08112782 0.042934123
0001d0 15 c2 b6 bc 8d 2e e8 bd fa 45 c0 3c 48 c2 e2 bc
       -0.022309342 -0.11337004 0.023470867 -0.027680531
0001e0 47 53 66 bd 62 41 90 3d ff f0 89 bb a5 37 9c 3d
       -0.056231763 0.07043721 -0.004209637 0.07627801
0001f0 2d 72 dd bd a3 64 08 be b8 b5 bc bd 2e a6 05 3d
       -0.10812793 -0.1331964 -0.092143476 0.032629184
000200 e1 75 cd bd 21 ef ae bb 3a 94 07 3e 99 a9 b5 bc
       -0.10032249 -0.005338565 0.13240138 -0.022175597
000210 bd 9b c8 3d e5 17 c9 3c db a0 6c bd fa 85 54 bd
       0.0979533 0.024547527 -0.05777059 -0.051885583
000220 c1 1a 86 3c c2 ca e3 bd b9 2a a0 b9 68 42 0a bb
       0.01637018 -0.11122657 -0.0003054941 -0.002109671
000230 63 fe ab bc 2a f1 3f bd 87 a7 47 3d 9d 76 1f bd
       -0.020995324 -0.04686085 0.04874375 -0.038931478
000240 57 d8 74 3d 51 ff a7 bd 60 67 b7 bd 28 2f b2 bc
       0.05977663 -0.082029946 -0.08955264 -0.021751001
000250 1d 3f 87 bc 51 77 2d bc 00 46 a7 bd f9 8c 19 bd
       -0.016509587 -0.010587529 -0.08167648 -0.037487958
000260 4a 80 fc 3c a1 f5 c3 bd e3 ff 95 bc e3 cd 62 3c
       0.030822892 -0.09568334 -0.018310493 0.0138430325
000270 f4 02 28 3d eb cb a5 3d f7 2a 7b 3d 04 3a 00 3c
       0.04101844 0.08095535 0.06132027 0.007826332
000280 95 db 86 bc 3f e3 f9 3d 04 38 ca 3c 5c d0 5c bd
       -0.016462127 0.12201547 0.024684913 -0.053909644
000290 4d 60 4c 3d 66 fa 4b bd 1d c3 88 3c 84 dc de 3c
       0.049896527 -0.049799345 0.0166946 0.02720476
0002a0 b8 17 69 3c f3 7b ef 3d 8d 18 85 bd 55 c7 69 bd
       0.014226846 0.11693563 -0.06498823 -0.057074863
0002b0 05 87 10 bd 1b ee 25 bd 43 16 23 3c 9c 3a 45 3b
       -0.035285015 -0.04051028 0.009954038 0.0030094748
0002c0 c1 20 3c 3c 46 5b fe bd fe 0c 65 bd 73 a8 bc bd
       0.0114824185 -0.12419753 -0.055920593 -0.09211817
0002d0 92 f2 b6 bd 42 08 ec bd c0 32 52 3d 40 0e 01 bd
       -0.08932985 -0.115250126 0.05131793 -0.03150773
0002e0 f3 8a 2b 3d 81 98 2d 3d 59 23 03 3d 45 14 21 bd
       0.04188056 0.042381767 0.032016132 -0.03932597
0002f0 16 62 f7 3c ba 9c a8 bd 69 12 05 3d 95 67 b0 bc
       0.030198138 -0.08233018 0.03248826 -0.021533767
000300 5a 1a 90 3c ea e6 18 be 0e 2b ab bd 3f 20 bd 3c
       0.01759069 -0.14931837 -0.083578214 0.023086665
000310 f6 e4 d2 3c eb b0 b9 ba e7 2c 15 bc af 4e f5 3d
       0.025743943 -0.0014167106 -0.009104944 0.11977898
000320 a4 fd 0b 3d 0e ba aa 3d aa b1 f4 3d 51 b0 a8 bc
       0.034177437 0.08336268 0.11947949 -0.020591887
000330 71 17 7b bd 71 83 9f bc 0a e1 54 3d cc a0 8c bd
       -0.061301652 -0.019471856 0.051972426 -0.06866607
000340 7b 2d 8a 3d 2f 6c 4b 3d c3 fe 02 bd 35 41 d5 bd
       0.06746956 0.04966372 -0.03198124 -0.10412828
000350 0c c0 29 bd 5d 69 92 bd e2 77 fa 3d 72 50 d9 bb
       -0.041442916 -0.07149003 0.12229897 -0.0066319043
000360 b4 91 01 bd e9 62 22 3d 30 d6 d1 bc 77 55 bf bd
       -0.031633094 0.03964511 -0.025614828 -0.09342473
000370 95 44 10 bc 3d b1 c6 3a ab 29 fa bd ee 20 d0 bc
       -0.008805414 0.0015159022 -0.12214979 -0.025406327
000380 ea a6 c2 3d ba ce 82 bd 99 eb 83 3d 7c 24 ef bc
       0.095044926 -0.06387086 0.06441421 -0.029192202
000390 85 e2 59 3d bf 92 e4 bd 14 85 d0 bc 6e 75 18 3d
       0.05319454 -0.11160802 -0.025454082 0.037221365
0003a0 fd c5 ba 3b 2e e1 5d bd 60 28 11 bd 63 5b 09 bd
       0.0056998716 -0.054169826 -0.035438895 -0.03353442
0003b0 d9 de 11 bd 64 e4 67 3d 2f ac b0 3c b5 b3 0c 3e
       -0.035612915 0.056614295 0.021566479 0.13740428
0003c0 dd c2 74 3c 12 f9 9a bd c0 d4 90 3d 4e 63 81 bd
       0.014939037 -0.07567038 0.07071829 -0.06317769
0003d0 d8 97 78 3d 3a cf e7 bc 62 e5 3f 3c e6 16 95 bd
       0.060691684 -0.028297056 0.011712404 -0.07279758
0003e0 8c 40 c4 bd 04 35 44 bd 66 53 48 bd 88 72 e4 3d
       -0.09582624 -0.047902122 -0.04890766 0.111546576
0003f0 27 fd b0 3d e3 30 1c 3d 75 43 80 bd cf 81 19 3d
       0.08642035 0.03813256 -0.062628664 0.03747731

bias_ih_l0 f4 [99]
000000 f9 f6 95 bd 63 de 10 bd 1e ad a3 3d 3d a7 ba bd
       -0.07322497 -0.035368335 0.07992004 -0.091139294
000010 fe 01 97 bd 7d 32 3f bd 0e 9f 7c bd 2e 52 80 bd
       -0.07373427 -0.04667901 -0.061675124 -0.062656745
000020 f2 f7 a4 bd 85 de 63 3d ee 03 7d bc be 9e 1f 3d
       -0.08055104 0.055632133 -0.015442831 0.038969748
000030 8a 50 57 3b 2f 8e d5 3b d0 87 86 3d d8 a0 ed bc
       0.0032854402 0.0065171937 0.06568873 -0.02900736
000040 98 21 52 3c ed 55 22 bd 6a e8 5d bd 13 f0 76 bd
       0.012825392 -0.039632726 -0.054176725 -0.060287546
000050 df b6 f3 3b 13 dc 88 3c 39 68 3b 3d 7e 88 52 bd
       0.0074375714 0.016706502 0.04575369 -0.0513997
000060 a1 00 c3 bd 98 41 e6 3b f8 4b 20 3d 9e b8 a1 bd
       -0.09521604 0.0070268624 0.03913495 -0.07896541
000070 01 b4 ad 3c 31 aa 8d bd 00 47 55 bd 54 9e 80 bd
       0.021203997 -0.06917227 -0.052069664 -0.06280199
000080 b6 ea 51 bd 2d ae 74 3d 28 db 97 bc 47 ed 7c 3c
       -0.05124923 0.05973642 -0.018537119 0.015437431
000090 3d 20 a6 3c d1 32 aa 3c ab cc 1d bd 6b f7 11 bd
       0.020279044 0.020776184 -0.038525265 -0.035636347
0000a0 e6 88 43 3d 1e c5 f3 3c bb 18 3a 3d 25 8e 8e bd
       0.04773798 0.029757079 0.04543374 -0.06960706
0000b0 20 ad be bc fa b8 22 3d 2f ce 55 bd a7 69 6f 3d
       -0.023275912 0.03972719 -0.052198585 0.058450367
0000c0 d0 5c 07 3d e6 30 a7 bd 67 5a cd 3c 7c 64 23 3d
       0.033047497 -0.081636235 0.025067521 0.03989075
0000d0 b1 67 fa bc c8 9a 58 bd be bd 79 bd 95 b7 27 3d
       -0.030567022 -0.052881986 -0.060971968 0.04094656
0000e0 c7 05 bd bc ba c8 a2 3c dd e5 59 bd 44 e9 9e 3d
       -0.023074044 0.019871105 -0.05319773 0.07759336
0000f0 4d 0c b2 3d 73 08 8d bd e7 a1 7f bd c0 cb 7f 3c
       0.086937524 -0.06886377 -0.06241026 0.015612543
000100 85 bf 58 3d 03 38 bd 3d a0 9e 39 3d 7a e3 af bd
       0.052917022 0.09239199 0.045317292 -0.085883096
000110 f4 d8 3a bd 3e 93 29 3c 8f 35 8b bd 15 f3 37 bd
       -0.04561706 0.010350047 -0.06797325 -0.044909555
000120 d7 d1 1f 3c 84 f8 cf 3c b9 93 54 3d d4 53 dd bc
       0.00975462 0.025387056 0.05189869 -0.027017511
000130 c2 f4 0c 3d 2b 0d 9c 3a 3d 67 3d bd fe 01 2a 3d
       0.034413107 0.001190578 -0.046241034 0.041505806
000140 54 ef 51 bc f8 3e cc bb 0d ec b8 3d fc cf 3a 3d
       -0.012813408 -0.0062330924 0.09029398 0.045608506
000150 94 ac 60 3c 1c 86 9a bc 9e 7e 9b 3c 04 84 32 bd
       0.013713021 -0.018862776 0.018981274 -0.04358293
000160 05 d5 48 3d eb c1 4b bd 25 fc 3d bd 38 ac 34 3d
       0.049031276 -0.04974548 -0.046383042 0.044109553
000170 91 3c b6 3d f5 f8 af 3b e4 df 84 3c bb fa e7 3c
       0.08898271 0.005370254 0.01622004 0.0283178
000180 19 c0 2b bc 93 5d 82 3d 61 32 5a bc
       -0.010482811 0.06365504 -0.013317675

bias_hh_l0 f4 [99]
000000 a9 5f 98 3d 45 a8 a0 3d 5c e6 98 bd ee e5 98 3d
       0.07440121 0.07844595 -0.074658126 0.074657306
000010 fd 6d b1 bb 00 24 09 bb cc 46 29 bd ff c8 dd 3d
       -0.005414723 -0.0020925999 -0.041327283 0.108293526
000020 e7 6a 8a 3b d1 c5 4a 3d a2 68 87 bd cb 5a 83 bd
       0.0042241695 0.04950506 -0.06611754 -0.06413802
000030 2e 8e 9b 3c 12 f3 81 3d fd b0 36 bd 23 51 35 3c
       0.018988695 0.0634519 -0.044602383 0.011066708
000040 14 fb 8d bd c0 ac 89 3d e6 ae d0 3d 60 7c 6e bc
       -0.06932655 0.067224026 0.10189609 -0.0145560205
000050 1e a7 8c 3c 17 7a 1f bd c3 73 fa bd 3c 63 5c bd
       0.017169531 -0.038934793 -0.12229111 -0.053805575
000060 6d da 91 3d 97 e2 14 bd 19 13 97 3d 76 3a 8f 3d
       0.071217395 -0.036348905 0.073766895 0.069935724
000070 e1 88 92 bd e6 02 54 3c d2 7b 19 bd 1c e3 73 bd
       -0.07155014 0.012940144 -0.0374716 -0.05954276
000080 73 a4 5f bd 47 8a cb bd da 18 be 3c d2 b6 7f bc
       -0.05460019 -0.09938484 0.02320521 -0.015607553
000090 bf 11 23 bd 9c 3f 6f 3d 1e 6c e0 3c be ca 88 bd
       -0.039811846 0.058410272 0.027395304 -0.06679295
0000a0 7b 68 89 3c 06 2d 97 3d c8 86 ba bc 3e e2 cc bd
       0.016773453 0.073816344 -0.022769347 -0.1000409
0000b0 0b 1a 85 bc 4a bf d9 bc 00 37 a1 bd 91 f1 c2 3d
       -0.01624777 -0.026580472 -0.078718185 0.095187314
0000c0 64 4a 0c 3d a0 4b 47 3c 97 04 b7 bd fd 4e 2e bd
       0.034250632 0.0121640265 -0.08936422 -0.042555798
0000d0 f1 b9 f9 bc 4f 0f a1 bc 6f 6c b0 3c c5 ff 9a 3d
       -0.030484172 -0.01966062 0.02153608 0.075683154
0000e0 77 85 ad 3b 03 bf 73 bd 67 ed 9e 3d 70 aa a0 3d
       0.0052954513 -0.059508335 0.07760125 0.078450084
0000f0 cd c2 aa bd 3a 41 b5 3d da a0 a1 3d 92 65 b5 bc
       -0.083379366 0.088503316 0.07892008 -0.022143159
000100 0e 69 3d 3d fb e4 8c 3d 96 40 8f 3c cd 4d bc 3c
       0.046242766 0.06879612 0.017486852 0.022986317
000110 de 4a dd 3d 27 df ad bb 59 a3 d0 bd 00 d4 4f bd
       0.108052954 -0.005306143 -0.10187406 -0.05073929
000120 29 a6 55 bc b7 bc d4 bd e6 f2 0f bd e5 d7 6f bc
       -0.013040104 -0.10387557 -0.035143755 -0.014638876
000130 de 92 b8 bb af 44 c8 bc 0c ab 9e bd af 80 b5 bd
       -0.0056327423 -0.024446813 -0.07747468 -0.08862435
000140 68 2d a2 bd 14 79 ad 3d 6b 58 2a bd 0e 7b 69 3d
       -0.07918817 0.084703594 -0.04158823 0.05700212
000150 eb f7 0a bd 85 af a0 3d bc 23 3a 3d 69 9f 13 bd
       -0.03392784 0.07845978 0.045444235 -0.036040697
000160 69 9d 35 3d a0 e1 5f 3d 8d 14 ab bc a3 a3 c4 bc
       0.04433957 0.054658532 -0.020883823 -0.02400381
000170 f6 9c d7 3c 91 3e 84 bd f8 28 3b 3d 57 09 07 3c
       0.026319962 -0.06457246 0.045693368 0.008241973
000180 00 4a 6c bd a2 ae 2a bd 32 ae 90 3d
       -0.05768776 -0.04167045 0.07064475

weight f4 [1, 99]
000000 87 ee 1e 3d fc 45 e8 3c 9d b6 38 bd 66 c8 5e 3d
       0.038801696 0.028353684 -0.04509603 0.054390334
000010 ce ce 04 3d 8a d8 e5 3c 31 45 54 3d 23 6b 13 3d
       0.032423787 0.028057355 0.0518238 0.035990845
000020 80 34 66 3d 9e 15 87 bd 75 04 bc 3c 3c f0 9a 3d
       0.05620241 -0.0659592 0.022951344 0.07565352
000030 a2 83 6a bd 08 74 da bc 9d e8 91 ba 5a a7 9c 3c
       -0.05725444 -0.026666656 -0.0011131946 0.019122768
000040 28 3a 6c 3c c3 72 83 bc f0 8f be bc c4 27 23 bd
       0.014418162 -0.016045934 -0.023261994 -0.039832845
000050 78 d0 5d 3d 25 5c 17 3c 42 5e 44 3d b9 0d 8c 3c
       0.05415389 0.009238278 0.047941454 0.017096387
000060 15 07 c0 bc f4 23 1a bd 1a d4 29 3d 02 b5 3e 3d
       -0.023440877 -0.037631944 0.04146204 0.04655934
000070 d1 96 ab 3d 19 41 01 bd 2e bb 44 bd 24 c9 6b 3c
       0.08378375 -0.031556223 -0.04803007 0.014391217
000080 e8 56 c5 bc 8a 02 46 bd d2 f5 4d bc 5d 08 60 3c
       -0.024089292 -0.048342265 -0.012570815 0.013673869
000090 8e 8e 7f bd 8c df 52 bd c5 4e 4d bc 24 c9 91 bd
       -0.06239181 -0.051482722 -0.012530987 -0.07118443
0000a0 ac 8a 77 bd 47 e9 03 3d 75 02 d9 3b 5b 02 2e 3d
       -0.060434982 0.032204892 0.0066226074 0.042482715
0000b0 63 f1 29 bd 1c b0 45 3d 78 78 31 3d b8 e5 70 3d
       -0.04148997 0.048263654 0.04332778 0.058812827
0000c0 78 a1 8b 3d b7 7c fe 3c 72 1d 41 bd 59 12 8b bd
       0.06817907 0.031065328 -0.047147222 -0.06790609
0000d0 69 24 01 3c ec c2 3d 3d 61 2f 21 3d bb 02 5f 3b
       0.007882216 0.04632847 0.039351825 0.0034028727
0000e0 16 1e 2d bc f1 8e 0a bc 31 0d 44 bd 52 f4 ba bc
       -0.010566255 -0.008456931 -0.047864143 -0.02282158
0000f0 c3 00 06 bd 96 da e9 bc 90 82 63 bd 56 a2 49 3c
       -0.03271557 -0.028546613 -0.055544436 0.01230677
000100 3f 00 53 bd fd d5 b1 3c 17 94 0d 3b 85 4c 8e bd
       -0.051513907 0.021708483 0.002160316 -0.06948189
000110 b6 fb b1 bd b9 c7 88 3c c0 38 25 3a 92 94 78 bd
       -0.08690588 0.016696798 0.0006302707 -0.060688563
000120 e7 ba 88 3c 44 3d f5 3c 6a ad 41 bd e7 98 fd 3c
       0.016690684 0.02993644 -0.04728452 0.030956699
000130 90 44 31 3a 6a 54 98 3d 7a f0 80 3d 73 da 12 3d
       0.0006762231 0.07437976 0.06295867 0.03585286
000140 5c e5 33 bd fa da 15 bc 51 93 4c 3d b8 aa 5e 3c
       -0.043919906 -0.009146446 0.04994518 0.013590507
000150 d7 f3 86 bc cc f1 06 3c ac ce 50 bc 32 18 84 3d
       -0.016473694 0.00823636 -0.012744587 0.064499274
000160 99 db e2 3c 8b 3c e9 bb 65 fa 56 bd e8 ee 53 bd
       0.027692603 -0.007117813 -0.05248489 -0.05174151
000170 6b dd 07 bd f6 69 89 bd fd f9 2d 3c db b4 07 3d
       -0.033170145 -0.067096636 0.010618684 0.03313146
000180 2b e9 28 bd 03 96 6c 3d c4 f3 49 3b
       -0.04123799 0.05776025 0.0030815462
