RNN_models/trained_rnn_model_trend_buy_t9.pth (torch, 16885 bytes, 5 tensors)

weight_ih_l0 f4 [50, 13]
0	0xbe0ec4b2	-0.13942221
1	0x3ce794d7	0.028269215
2	0xbcec6713	-0.028857743
3	0x3d8d5878	0.0690164
4	0xbe0240e8	-0.12720072
5	0xbeda99b7	-0.426954
6	0xbbb4bc35	-0.0055156
7	0x3d782cbf	0.06058955
8	0x3ce26870	0.02763769
9	0x3dc58d9e	0.09646152
10	0xbd98d76d	-0.07462964
11	0x3d5a262b	0.053259056
12	0xbe3dec1c	-0.185471
13	0x3dd56359	0.1041934
14	0xbd75de6e	-0.06002658
15	0x3d87db8c	0.06633672
16	0xbd793ded	-0.060850073
17	0xbe323537	-0.17403112
18	0xbd4b8d1a	-0.04969511
19	0x3bbd6ae4	0.0057805646
20	0x3dd4821a	0.103763774
21	0xbc27d36f	-0.010243281
22	0x3d9652b6	0.073399946
23	0x3d61ba74	0.055109456
24	0xbe0ba1a2	-0.13635877
25	0xbd95f8ef	-0.07322871
26	0xbc7b2aa6	-0.015329992
27	0xbda3eb16	-0.080038235
28	0x3d1407ec	0.036140367
29	0x3ddfaa71	0.10921181
30	0x3dbd468f	0.092419736
31	0xbed4751c	-0.41495597
32	0xbdd2f2c0	-0.10300207
33	0xbd130e4d	-0.03590231
34	0xbcc786b0	-0.024356216
35	0x3dcc1070	0.09964073
36	0x3da76259	0.08173055
37	0xbbfabf40	-0.0076521933
38	0xbd6a9fe8	-0.057281405
39	0x3d612f6b	0.054976862
40	0xbda15231	-0.07877005
41	0x3d7b4512	0.061345167
42	0x3d81f0b5	0.06344739
43	0x3dd22ebb	0.102628194
44	0xbee3e1d5	-0.44508234
45	0x3e0c466b	0.13698737
46	0x3db2d284	0.08731559
47	0xbc633838	-0.013868384
48	0x3d4f8ffc	0.050674424
49	0x3d8b7306	0.06809048
50	0x3d90cc2f	0.07070195
51	0xbe402cee	-0.1876714
52	0x3d09bc87	0.03362706
53	0x3dd415e3	0.10355737
54	0x3e250d48	0.16118348
55	0x3bc1043b	0.005890397
56	0x3d7769cb	0.060403626
57	0xbea519c9	-0.32246235
58	0x3c4848be	0.012224374
59	0x3d4dbbf3	0.05022807
60	0x3d38b03b	0.04508994
61	0xbb8cfb91	-0.00430245
62	0x3cf7e824	0.03026206
63	0xbdc3f90b	-0.095689856
64	0x3c8ace90	0.0169442
65	0x3e07d49e	0.13264701
66	0xbe133972	-0.14377382
67	0x3e53b3cb	0.20674054
68	0x3db6e439	0.08930249
69	0xbdd28bc0	-0.102805614
70	0xbef28450	-0.4736657
71	0x3dc75aca	0.097341135
72	0x3dfa9bfb	0.12236782
73	0x3be8a190	0.007099338
74	0xbd600183	-0.05468894
75	0x3d40d77e	0.04708051
76	0xbe046d4f	-0.12932323
77	0x3d12337f	0.03569364
78	0xbe0fce5a	-0.1404356
79	0x3e11e46d	0.14247294
80	0x3e424007	0.18969737
81	0x3d5a29df	0.053262588
82	0x3cbed568	0.02329512
83	0xbdb8e955	-0.090288796
84	0x3c47472c	0.012162965
85	0x3dcbb8ba	0.09947343
86	0xbd7cb8d7	-0.061699715
87	0x3d9154c5	0.07096247
88	0x3d4afbd2	0.04955656
89	0x3da542b5	0.08069364
90	0xbc5f2af7	-0.013621083
91	0x3e15ee63	0.14641719
92	0x3d8fa368	0.07013589
93	0xbdc0786a	-0.09397967
94	0xbd420626	-0.047369145
95	0x3ca5ffe2	0.020263616
96	0x3eb4ca3c	0.35310543
97	0x3d018b46	0.031626962
98	0x3df52618	0.119701564
99	0x3dd2a32d	0.102850296
100	0xbd3cf768	-0.046134382
101	0x3d925a31	0.07146109
102	0x3bf2ff12	0.0074156607
103	0x3e1fc775	0.1560343
104	0xbdb16a1a	-0.086628154
105	0xbc8cf3c5	-0.017206082
106	0xbde4be68	-0.111691296
107	0x3c21fd87	0.009887106
108	0x3e0d9feb	0.13830535
109	0x3d42d470	0.047565877
110	0x3cc2cdb0	0.02377972
111	0xbd3c21a2	-0.045930512
112	0xbc9fbc8a	-0.019499082
113	0x3d7c9eda	0.06167493
114	0xbca8770b	-0.020564577
115	0x3d8515f0	0.06498325
116	0xbcd528fd	-0.026020521
117	0xbe0b1e7a	-0.13585845
118	0xbd9d6bbe	-0.07686566
119	0xbd65a68b	-0.05606703
120	0xbd0cb3cb	-0.03435115
121	0xbdfcfb47	-0.12352615
122	0xbe9cd4cf	-0.3063111
123	0x3cbd2243	0.023087626
124	0x3da21528	0.079141915
125	0x3cc6837e	0.024232622
126	0x3ce55365	0.027993867
127	0x3d44a5a9	0.04800955
128	0xbcb7b4b4	-0.022425033
129	0x3c3520a3	0.0110551445
130	0xbdcb4f4c	-0.09927234
131	0x3abcd635	0.00144071
132	0xbe380a29	-0.17972626
133	0xbe19263b	-0.1495599
134	0x3d98db11	0.074636586
135	0x3e23610d	0.1595499
136	0xbe35457b	-0.17702286
137	0x3d94cbe1	0.07265449
138	0x3d93425d	0.07190392
139	0x3d4c08fe	0.049813263
140	0x3df5309d	0.11972163
141	0xbe5107e9	-0.20413174
142	0xbc891f93	-0.016738689
143	0xbca8da73	-0.020611977
144	0x3e25e706	0.1620141
145	0x3c4a922b	0.012363951
146	0x3e1e75bb	0.15474598
147	0xbde3ba28	-0.11119491
148	0xbf1109b1	-0.5665541
149	0x3e13f8dd	0.14450403
150	0xbe05ba52	-0.13059357
151	0x3de6eb6c	0.11275372
152	0xbdb9b23a	-0.09067197
153	0x3d2a42c8	0.041567594
154	0xbcaad369	-0.020852761
155	0x3daec0b6	0.085328504
156	0x3e0ac677	0.13552271
157	0xbe831f8c	-0.25610006
158	0xbe6fcf65	-0.23418958
159	0xbe469382	-0.19392207
160	0x3dca6042	0.09881641
161	0x3f2c8b2e	0.6739987
162	0xbe31006a	-0.17285314
163	0x3c44b826	0.012006795
164	0x3d49713c	0.049180254
165	0x3cb6cd5f	0.022314725
166	0x3d8e0e91	0.06936372
167	0xbd9d2776	-0.07673542
168	0xbda7b759	-0.08189268
169	0xbdcc7d66	-0.09984855
170	0x3e24aba3	0.16081099
171	0xbd76d2ec	-0.060259745
172	0xbb1264fe	-0.0022338028
173	0xbd8d6939	-0.06904835
174	0xbf0e586a	-0.5560366
175	0xbdda562f	-0.106609695
176	0xbde0be29	-0.1097377
177	0xbce21636	-0.027598482
178	0x3d9152d7	0.070958786
179	0x3d4e476b	0.05036108
180	0x3d97893d	0.07399223
181	0xbe241846	-0.16024885
182	0x3c4e2c90	0.012583867
183	0x3c00f499	0.007870817
184	0xbda55c44	-0.08074239
185	0x3be784b4	0.00706538
186	0xbdf291bf	-0.11844205
187	0xbe71d326	-0.23615703
188	0xbe16ed53	-0.1473897
189	0x3deab755	0.11460749
190	0xbdd756c8	-0.10514599
191	0xbd780d2e	-0.060559444
192	0x3dae5001	0.08511353
193	0x3dd914ac	0.10599646
194	0xbdd254fc	-0.10270116
195	0xbdb3d96e	-0.08781706
196	0x3e61fd8c	0.22069377
197	0x3e915d5a	0.28391534
198	0xbbe87f0f	-0.0070952247
199	0xbdff9fe7	-0.12481671
200	0x3d9fcbf3	0.07802572
201	0x3e242f85	0.16033752
202	0xbdc5a805	-0.09651188
203	0xbd2832d0	-0.041064084
204	0xbd750dd3	-0.059827637
205	0xbd7fb0fb	-0.06242464
206	0xbc5d3294	-0.013500828
207	0xbe079e1f	-0.13243912
208	0xbc5a009c	-0.013305809
209	0xbdb1a2c4	-0.08673623
210	0x3dfea49f	0.12433743
211	0x3d527b3d	0.05138706
212	0x3debdb89	0.115164824
213	0x3d1712b8	0.036883086
214	0x3dcb5c7b	0.099297486
215	0x3da00022	0.07812525
216	0xbcaa206c	-0.020767413
217	0xbd7dc34b	-0.061953824
218	0xbdad866a	-0.08472903
219	0x3d030811	0.031990115
220	0xbc022af6	-0.007944813
221	0xbcab93fd	-0.02094459
222	0x3e06646b	0.13124244
223	0x3d627794	0.05528982
224	0x3b1674b7	0.002295775
225	0x3d2c3eaa	0.04205195
226	0xbeba20fc	-0.3635329
227	0xbca4a369	-0.020097451
228	0x3dd41d26	0.10357122
229	0x3e02e40c	0.12782305
230	0x3d75aece	0.05998116
231	0x3db68459	0.08911962
232	0x3d2ed1d0	0.04268056
233	0xbb77a362	-0.0037786593
234	0x3da684c5	0.081307925
235	0x3dc9e603	0.098583244
236	0xbda14425	-0.07874326
237	0x3cee053a	0.029055227
238	0xbddcb04c	-0.107758135
239	0xbea68c3e	-0.3252887
240	0x3c65729a	0.014004374
241	0xbdd418eb	-0.10356315
242	0x3d19fba6	0.037593506
243	0x3caeddf7	0.021346075
244	0x3d4f118e	0.05055385
245	0x3db4ac1f	0.08821892
246	0xbd60d329	-0.054888878
247	0x3da6f751	0.081526406
248	0xbccc8acd	-0.02496853
249	0xbda71356	-0.08157985
250	0xbd622e5f	-0.055220004
251	0x3e0b78e7	0.1362034
252	0xbe8cfbb2	-0.27535778
253	0xba772951	-0.0009428459
254	0xbdfb9c74	-0.122857004
255	0x3cbc6711	0.022998365

weight_hh_l0 f4 [50, 50]
0	0xbdafd9a3	-0.08586433
1	0xbdc259cf	-0.09489786
2	0x3da0e9c2	0.07857086
3	0xbd4e1577	-0.05031344
4	0x3c1f3bbd	0.009718833
5	0xbce98f88	-0.028510824
6	0x3d74787f	0.059685227
7	0xbceb5c99	-0.028730677
8	0x3e28aeef	0.16472982
9	0xbcc39ce0	-0.023878515
10	0xbbee045a	-0.0072637023
11	0xbd854546	-0.065073535
12	0x3dd1b86f	0.10240256
13	0x3db5ebd5	0.08882872
14	0xbc0ba68a	-0.008523593
15	0xbd9f5f36	-0.07781832
16	0x3d880847	0.06642204
17	0xbe1169fd	-0.14200588
18	0xbd99a550	-0.07502234
19	0x3d1a3e57	0.03765711
20	0xbda02c38	-0.07820934
21	0xbe16ae0c	-0.14714831
22	0xbe11c11f	-0.14233826
23	0xbd89e30d	-0.067327596
24	0x3c464e8e	0.01210369
25	0x3d52af8c	0.051436946
26	0xbe02b4b4	-0.12764245
27	0xbe3b9c13	-0.18321256
28	0x3d80fcf4	0.06298247
29	0x3e0a6b9f	0.13517617
30	0x3e251bb9	0.16123857
31	0xbd3750c1	-0.044754747
32	0xbda97abb	-0.08275362
33	0xbd462df3	-0.048383664
34	0xbe04c1ba	-0.12964526
35	0x3c8edeb3	0.017440176
36	0xbd5bb14b	-0.053635877
37	0xbdea2ba3	-0.11434104
38	0x3c8d78fc	0.017269604
39	0xbe3a0bd0	-0.18168569
40	0x3b057ff8	0.0020370465
41	0xbd0038c8	-0.03130415
42	0x3ca9a13f	0.020706771
43	0x3d07ed2d	0.033185173
44	0x3d21dab9	0.03951523
45	0xbc02216f	-0.0079425415
46	0x3d329af3	0.043604802
47	0xbe0149ae	-0.12625763
48	0xbdab5482	-0.08365728
49	0xbdabef01	-0.08395196
50	0xbd90f8ae	-0.07078682
51	0x3e07f01e	0.13275191
52	0xbd6bbbbe	-0.05755209
53	0xbcda8d11	-0.026678594
54	0x3d1e9809	0.03871921
55	0xbddd2e64	-0.10799864
56	0x3e06603a	0.13122645
57	0x3d2cfaff	0.042231556
58	0xbe5ed7f0	-0.21762061
59	0x3db6334a	0.08896501
60	0xbdb4e7f3	-0.08833303
61	0xbd327383	-0.04356719
62	0xbc8398e0	-0.016064107
63	0x3e4094d8	0.1880678
64	0xbdcfaa9c	-0.10139963
65	0x3e197904	0.1498757
66	0xbe2e1256	-0.16999182
67	0x3b780e45	0.0037850302
68	0x3cb2ec91	0.02184132
69	0xbde0e134	-0.10980454
70	0xbc7933ad	-0.015210074
71	0xbc4ada40	-0.012381136
72	0x3d71927a	0.05897758
73	0x3e190569	0.1494347
74	0xbda80a4f	-0.08205091
75	0x3d048db6	0.03236171
76	0x3e0dc590	0.13844895
77	0x3dd952e7	0.106115155
78	0xbde31209	-0.11087424
79	0x3d4a6363	0.04941119
80	0xbdf3d594	-0.11905971
81	0xbd41d6d3	-0.047324013
82	0x3db09e5d	0.086239554
83	0xbc3aa9f4	-0.011393059
84	0xbb7a38fa	-0.0038180933
85	0xbd48b295	-0.048998434
86	0xbd1b17fe	-0.037864678
87	0x3de9e0d7	0.11419838
88	0xbdd316bc	-0.103070706
89	0xbc367845	-0.011137073
90	0x3e197c31	0.14988782
91	0x3ce27c11	0.02764705
92	0x3d131c20	0.035915494
93	0xbd9f9428	-0.077919304
94	0x3d9eeddd	0.077602126
95	0xbd705eab	-0.058684032
96	0x3e21d4c8	0.15803826
97	0xbdd802fb	-0.105474435
98	0xbc4202c8	-0.011841483
99	0x3c9cce5e	0.019141372
100	0x3e031abb	0.12803166
101	0x3ce1ab93	0.027547633
102	0xbe036975	-0.12833197
103	0x3de2fdc8	0.11083561
104	0x3dfe0d63	0.12404897
105	0xbe13b4a6	-0.1442438
106	0x3cfa627a	0.030564535
107	0x3c8ae68c	0.016955636
108	0xb9c38b1f	-0.00037296952
109	0xbc94717d	-0.018120522
110	0x3dbbf268	0.09177095
111	0x3ca4ecd6	0.020132463
112	0xbe016239	-0.12635125
113	0xbd67c707	-0.05658629
114	0xbd3f965b	-0.04677425
115	0xbb5ce72f	-0.0033707132
116	0xbd32493b	-0.04352687
117	0x3cc8c88b	0.024509689
118	0x3c9ccf31	0.019141765
119	0xbd88e724	-0.066847116
120	0x3d4b8e5c	0.04969631
121	0xbd182c81	-0.037151817
122	0xbd7619d3	-0.06008322
123	0x3da1627e	0.07880114
124	0xbe00063d	-0.1250238
125	0xbdde0991	-0.108416684
126	0x3ded10f0	0.11575496
127	0x3d44e3c8	0.04806879
128	0x3d9cec9d	0.07662318
129	0x3d769293	0.060198378
130	0x3c589349	0.013218709
131	0xbc7a925c	-0.015293684
132	0xbd5d4866	-0.054024123
133	0xbda77e74	-0.08178416
134	0xbe2b3e94	-0.1672309
135	0xbe013089	-0.12616171
136	0xbe3c1bb2	-0.1836994
137	0x3db1aaf3	0.08675184
138	0xbdaac7f4	-0.08338919
139	0x3d64d5ef	0.055868085
140	0xbdcfa28f	-0.101384275
141	0xbd516824	-0.051124707
142	0x3e116f7e	0.14202687
143	0x3d1bb786	0.03801682
144	0x3d954ab4	0.07289639
145	0xbc24b4cd	-0.010052872
146	0xbda087eb	-0.07838424
147	0xbe005ff9	-0.1253661
148	0x3ce2c20b	0.027680418
149	0x3e2cf553	0.16890459
150	0x3df5d24b	0.12003001
151	0x3dc01617	0.09379213
152	0x3cafb6df	0.021449504
153	0x3bf91626	0.0076015173
154	0x3db4ef70	0.088347316
155	0x3d98bd1c	0.07457945
156	0xbcbd2e38	-0.023093328
157	0xbc305154	-0.010761578
158	0x3d779402	0.060443886
159	0x3cb672f4	0.02227161
160	0xbd18d89c	-0.03731595
161	0x3c96a1f9	0.018387781
162	0xbd6a5681	-0.057211403
163	0x3d724306	0.05914595
164	0x3d0c277f	0.034217354
165	0x3c78dc7a	0.015189284
166	0xbd604059	-0.054748867
167	0xbbc7e36b	-0.0061001084
168	0x3d81f097	0.06344717
169	0xbc6de490	-0.014519826
170	0x3c47748d	0.012173784
171	0x3d99cd4d	0.07509861
172	0x3d56b1dc	0.052415714
173	0xbdb40231	-0.087894805
174	0x3b96dedf	0.004604205
175	0xbc02d785	-0.007985954
176	0x3dcd7478	0.1003198
177	0xbd130288	-0.035891086
178	0x3e0be21b	0.13660471
179	0x3d464cb4	0.048412994
180	0xbe166874	-0.14688283
181	0xbe2f6f3a	-0.17132273
182	0x3d42ce8c	0.04756026
183	0xbdd1d626	-0.10245924
184	0x3d1cf667	0.038320925
185	0xbdedf165	-0.11618308
186	0x3d9d7963	0.07689168
187	0x3de15441	0.11002398
188	0xbd7ec888	-0.06220296
189	0xbe2f02aa	-0.1709086
190	0xbe2b696f	-0.16739438
191	0xbde24e3f	-0.110500805
192	0x3da02aec	0.07820687
193	0xbd6f2c31	-0.058391754
194	0x3dd86328	0.105657876
195	0x3d990a6f	0.07472693
196	0x3ddc8a26	0.10768537
197	0xbdcf1fb3	-0.10113468
198	0x3d241c08	0.040065795
199	0x3d5323a8	0.051547676
200	0x3d99ce32	0.07510032
201	0x3d3f2265	0.04666366
202	0xbceb513e	-0.028725263
203	0xbd981950	-0.07426703
204	0xbd834632	-0.06409873
205	0xbe56c5a5	-0.20973833
206	0x3dda8920	0.10670686
207	0xbe0d327d	-0.13788791
208	0xbd8f65e6	-0.070018575
209	0x3db17c62	0.08666302
210	0x3e1d3a2c	0.15354222
211	0x3d6d46d5	0.05792888
212	0x3caed99c	0.021343999
213	0x3c5c0dd0	0.0134310275
214	0xbc93b902	-0.018032555
215	0x3dba0c0c	0.09084329
216	0xbdee74ec	-0.11643395
217	0x3d848458	0.06470555
218	0x3cadf589	0.021235244
219	0x3db7a48d	0.089669324
220	0x3e07b8b2	0.1325405
221	0xbba9dd7d	-0.005183874
222	0xbd9e145c	-0.07718727
223	0xbd3afcf1	-0.04565138
224	0xbdcdd451	-0.10050262
225	0x3dd48569	0.103770085
226	0x3dc59b1d	0.09648726
227	0x3cfc12ca	0.030770678
228	0xbcb8ef2e	-0.022574987
229	0xbbab001c	-0.005218519
230	0xbdb572c8	-0.088597834
231	0x3d9ca279	0.07648177
232	0xbd2c4d59	-0.042065952
233	0x3c5544ae	0.013016863
234	0xbdb7ff7c	-0.08984277
235	0x3ddb07a3	0.10694816
236	0xbdbde74b	-0.09272631
237	0xbd804f31	-0.062651046
238	0xbde08990	-0.10963738
239	0x3d26ebd6	0.040752254
240	0xbd5d49b3	-0.054025363
241	0xbcd68856	-0.026188057
242	0xbd4e939c	-0.05043374
243	0xbdbbef4a	-0.091765
244	0x3e0dab45	0.13834865
245	0xbb0bac84	-0.0021312544
246	0xbe219d65	-0.15782697
247	0x3e1f63a9	0.15565361
248	0x3d369ff6	0.044586144
249	0xbdafc358	-0.08582181
250	0xbdab56cb	-0.08366164
251	0xbcf64892	-0.030063901
252	0x3cdcfb56	0.026975315
253	0xbdd628e6	-0.104570195
254	0x3dd97381	0.10617734
255	0x3c882564	0.016619392

bias_ih_l0 f4 [50]
0	0xbdf16cd2	-0.11788334
1	0x3d691c4e	0.05691176
2	0x3de63cd6	0.11242072
3	0xbe068650	-0.13137174
4	0x3da734ef	0.08164393
5	0xbc694030	-0.014236495
6	0xbdb1344a	-0.086525515
7	0xbc01ff9a	-0.007934475
8	0xbd8bd6d5	-0.06828085
9	0x3ddfde68	0.109310925
10	0xbd411bb6	-0.047145568
11	0x3d71bbd2	0.05901701
12	0x3dff9cce	0.1248108
13	0xbda374ad	-0.079812385
14	0x3cdd2551	0.026995333
15	0xbe3b35f4	-0.182823
16	0x3de5020d	0.11182032
17	0xbd188d95	-0.0372444
18	0xbdd6feb2	-0.10497798
19	0x3b77dc08	0.0037820358
20	0x3dc891d8	0.097934425
21	0xbcd3644f	-0.025804667
22	0xbdbb6ceb	-0.09151634
23	0xbdeac45a	-0.11463232
24	0x399f0414	0.00030329882
25	0x3d81b88a	0.06334026
26	0xbd8b5622	-0.06803538
27	0xbd390b60	-0.045176864
28	0x3dc0d95a	0.094164565
29	0x3e1139ff	0.1418228
30	0xbba55a56	-0.0050461693
31	0xbc9b3af5	-0.018949011
32	0x3de0a9a0	0.109698534
33	0x3dbf87a8	0.09352046
34	0x3d8690e3	0.06570604
35	0xbd7b8aab	-0.06141154
36	0x3df52dea	0.11971648
37	0x3c8b1fde	0.016982969
38	0xbda8c640	-0.08240938
39	0x3d44488f	0.04792076
40	0x3baf3cb4	0.0053478125
41	0xbd58f1ee	-0.052965097
42	0xbc6a09a2	-0.014284523
43	0xbdc788f2	-0.09742917
44	0xbd59f309	-0.053210292
45	0xbdd23bc2	-0.10265304
46	0x3b790f24	0.003800341
47	0x3c629661	0.013829798
48	0x3dcf35fc	0.101177186
49	0x3d922570	0.07136047

bias_hh_l0 f4 [50]
0	0x3d6622df	0.0561856
1	0x3cb5ee9d	0.022208506
2	0x3c241077	0.010013691
3	0xbe004ab3	-0.12528495
4	0xbd90037d	-0.07031915
5	0xbd92fbcf	-0.07176935
6	0xbdf8514e	-0.12124883
7	0x3dc1687d	0.09443758
8	0xbcf01216	-0.029305499
9	0x3e12a8bc	0.1432218
10	0xbddb4034	-0.10705605
11	0xbdfb9fc7	-0.122863345
12	0xbdd7b8d1	-0.10533298
13	0x3cfc6d28	0.030813769
14	0xbd882f03	-0.06649592
15	0xbe386fc5	-0.18011387
16	0x3dce7517	0.10080927
17	0x3e0fa6d8	0.1402849
18	0x3c6f11cb	0.0145916445
19	0x3c6c774e	0.014432741
20	0x3d8486e6	0.06471042
21	0x3e08e99e	0.13370368
22	0x3da4f7eb	0.08055099
23	0x3db9fdc5	0.09081606
24	0xbe12311b	-0.14276545
25	0xbc28ac54	-0.0102949925
26	0xbda993a3	-0.082801126
27	0x3e49c23b	0.19703
28	0x3e00ad1a	0.12566033
29	0xbd995f3c	-0.07488868
30	0xbd4c7a34	-0.04992123
31	0xbddc6947	-0.107622676
32	0x3e038ffe	0.12847897
33	0xbde4049e	-0.11133693
34	0xbb776fdc	-0.0037755882
35	0xbd2421d3	-0.04007132
36	0x3d958856	0.07301395
37	0xbdbd683a	-0.09248395
38	0x3d2e4976	0.042550527
39	0xbd9055df	-0.070476286
40	0xbc69597d	-0.014242527
41	0xbc9f187c	-0.019420855
42	0xbd085c4b	-0.033291142
43	0x3da08ce4	0.07839373
44	0xbd471af5	-0.048609693
45	0xba8617a9	-0.001023044
46	0xbc69055d	-0.01422247
47	0x3db1920f	0.086704366
48	0x3d6d7e1a	0.057981588
49	0xbda70cf3	-0.08156767

weight f4 [1, 50]
0	0xbe0831aa	-0.13300195
1	0x3c94a4d6	0.018145006
2	0xbdfa539b	-0.12222978
3	0x3dfa70f9	0.12228579
4	0x3dd1285b	0.10212775
5	0xbda89282	-0.08231069
6	0x3e295174	0.16534978
7	0x3dc1bd49	0.094599314
8	0xbdb9eb0d	-0.090780355
9	0x3db8ace5	0.09017352
10	0x3c017e77	0.007903687
11	0x3d676ebe	0.056502096
12	0xbe42e677	-0.19033228
13	0x3d157212	0.03648574
14	0xbd8a58cd	-0.06755219
15	0x3d977e49	0.07397134
16	0x3dfa8d65	0.12234
17	0x3a955a3f	0.0011394693
18	0xbe0baef0	-0.13640952
19	0xbd6e26f8	-0.058142632
20	0xbe108ded	-0.1411664
21	0x3e207e9c	0.15673298
22	0x3aea62b6	0.0017882201
23	0xbdee3b89	-0.11632449
24	0xbaee8246	-0.0018196783
25	0xbd593879	-0.053032372
26	0x3dd3d9b6	0.103442594
27	0xbe21654d	-0.157613
28	0x3dbaf595	0.09128872
29	0x3d5a4e7c	0.053297505
30	0x3d9045bd	0.070445515
31	0x3dc18e08	0.094509184
32	0x3e11f21c	0.14252514
33	0x3dbc4a16	0.09193818
34	0x3dc2db7a	0.09514518
35	0x3deb6af2	0.114950076
36	0x3e139618	0.14412725
37	0xbde60801	-0.112319954
38	0x3ca69bc4	0.020337947
39	0x3da4c9fd	0.08046339
40	0x3d2f9199	0.042863462
41	0xbe1935ad	-0.14961882
42	0xbdb720a6	-0.08941774
43	0xbdc3b2c3	-0.095555805
44	0x3de314b6	0.11087935
45	0x3e202f0c	0.15642947
46	0x3d85f555	0.06540934
47	0xbd73f6fb	-0.05956171
48	0x3dcd64a9	0.10028965
49	0xbda0a077	-0.07843106
