RNN_models/vwap_zscore_10_15min_t6.pth (torch, 171740 bytes, 30 tensors)

stacks.0.blocks.0.fc1.weight f4 [50, 56]
-0.116775945 -0.0263535 0.056907363 0.071225114 -0.055055182 -0.00585323 -0.09786979 0.20660149
0.056801237 -0.06477695 -0.08162085 0.10753489 -0.04992904 -0.08373025 0.061170537 0.04012553
0.021378929 -0.05414254 -0.11021918 0.07971238 -0.06387735 0.0067854444 -0.0032779193 -0.15716256
-0.11114272 -0.0030447592 -0.057490256 -0.035240944 -0.009890337 -0.14975233 0.037502564 -0.11672482
-0.08865536 0.10394276 -0.043162197 0.042003524 0.12595642 0.012313995 -0.039716575 -0.028608821
0.018725667 -0.04205408 0.12454664 -0.15578628 0.027369441 -0.16021466 -0.015011221 -0.074224964
0.03744498 0.61949235 0.041202698 0.21383429 0.08284234 0.2903944 0.13334134 0.11642463
0.12662399 0.09414777 -0.12145777 0.17914751 0.11756603 -0.04019545 -0.11462355 0.10383312
-0.009095327 0.16865414 -0.01076025 0.05032041 0.082497254 0.2214123 0.040727 0.11444974
-0.07870491 0.049874917 -0.08661525 0.2111187 -0.014413181 0.13367097 -0.04552848 0.059211798
0.035237633 0.2072413 0.09088102 0.101707384 0.09756011 0.06578563 -0.046133995 0.1405504
0.078718334 0.29811653 0.13281983 0.31603244 -0.102282 0.24595058 0.0034373505 0.118477285
0.030960863 -0.015513717 0.12917443 0.15106678 0.11763154 0.1458075 -0.028337097 -0.07096254
-0.07433417 0.52604604 0.088946894 0.26754773 -0.101961106 0.29858544 0.060230058 0.30054477
-0.045467593 0.020680297 0.031624712 -0.14134967 -0.0028886758 0.012032487 0.09331644 0.1849272
0.031233972 -0.14017381 -0.053098705 -0.011354112 0.101063244 -0.03190009 -0.03444585 0.10765867
-0.033734385 -0.16568121 -0.0635125 -0.06344189 -0.041358855 -0.07510359 -0.05516904 -0.0815383
-0.10298902 -0.2890973 -0.0035053475 -0.19115166 0.13779895 -0.081900634 -0.009714246 -0.12709512
-0.005591769 -0.02753294 0.0099799605 -0.21742763 -0.026189966 -0.23709725 0.08975136 -0.061134513
0.10426502 -0.11920109 -0.0414241 -0.19709852 0.0009429647 -0.04579763 -0.06718899 -0.28045717
0.07372523 0.5023129 -0.08835761 0.31433055 -0.005926069 0.16258694 -0.017961565 0.14979625
-0.07332988 -0.2221397 -0.10763204 -0.1157204 -0.108922236 -0.21375073 -0.06831871 -0.0061091436
-0.1276594 -0.1682165 0.12796178 -0.027929498 0.047888674 -0.28853184 -0.09174121 -0.09165261
-0.11623457 -0.18576801 0.1189621 -0.22696199 0.008147782 -0.10086804 -0.0036744413 -0.15463492
-0.12488457 -0.23555364 0.0907024 -0.04955869 -0.08649938 -0.2785222 -0.08613591 -0.058538973
0.01864972 0.0650179 -0.0655218 -0.13430065 -0.043201685 -0.13539125 0.023821639 -0.25588223
0.05853526 -0.17375617 -0.08478854 -0.17831656 -0.00094527705 -0.2342734 0.071706094 -0.21752077
-0.046784066 0.5174548 0.09724645 0.16654888 0.08931939 0.14574613 0.1186869 -0.056874838
0.07095583 -0.13639753 -0.08514614 0.021991976 -0.10953725 0.16845007 0.09818337 -0.17845477
-0.1238414 -0.08324619 -0.08920718 -0.05126444 -0.03160187 0.11816929 -0.034871362 -0.07662068
0.13592239 0.051953893 0.047774423 -0.09513381 0.055957686 -0.003227499 -0.07638842 -0.09372349
0.038287066 -0.07275209 0.049874406 0.027424606 0.014509395 -0.090023935 0.043091748 0.015798552
00000000: 3a28 efbd 4ce3 d7bc b217 693d 79de 913d
00000010: 8b81 61bd 74cc bfbb f56f c8bd 578f 533e
00000020: 6aa8 683d c7a9 84bd d528 a7bd 413b dc3d
00000030: 6582 4cbd c47a abbd f58d 7a3d ab5a 243d
00000040: dd22 af3c 91c4 5dbd 98ba e1bd 3f40 a33d
00000050: 21d2 82bd 6f58 de3b 5cd2 56bb 39ef 20be
00000060: cb9e e3bd 958a 47bb e77a 6bbd cf58 10bd
00000070: 140b 22bc ad58 19be 4a9c 193d 6c0d efbd
00000080: f190 b5bd f1df d43d d8ca 30bd e30b 2c3d
00000090: b8fa 003e a3c0 493c d9ad 22bd 0c5d eabc
000000a0: 9266 993c e640 2cbd 4f12 ff3d 7086 1fbe
000000b0: e135 e03c 500f 24be a0f1 75bc 4203 98bd
000000c0: e85f 193d 0d97 1e3f 29c4 283d 60f7 5a3e
000000d0: 3fa9 a93d 93ae 943e a28a 083e 0970 ee3d
000000e0: b8a9 013e 8cd0 c03d dabe f8bd 7272 373e
000000f0: 75c6 f03d fca3 24bd c0bf eabd 75a6 d43d
00000100: 9104 15bc acb3 2c3e c24b 30bc c61c 4e3d
00000110: 52f4 a83d e8b9 623e 5bd1 263d a064 ea3d
00000120: 0a30 a1bd a449 4c3d 5663 b1bd 802f 583e
00000130: 4325 6cbc 0be1 083e 127c 3abd 1288 723d
00000140: 5655 103d 1037 543e d41f ba3d f64b d03d
00000150: 98cd c73d 9eba 863d 00f7 3cbd 72ec 0f3e
00000160: 1437 a13d bba2 983e ec01 083e 01cf a13e
00000170: 3a79 d1bd 78da 7b3e 2c45 613b 38a4 f23d
00000180: a3a1 fd3c 3f2d 7ebc 4d46 043e 40b1 1a3e
00000190: cee8 f03d 904e 153e 3323 e8bc cf54 91bd
000001a0: 833c 98bd f4aa 063f ca29 b63d 04fc 883e
000001b0: fcd0 d0bd 31e0 983e cbb3 763d 01e1 993e
000001c0: 3a3c 3abd ba69 a93c ea88 013d f8bd 10be
000001d0: f04f 3dbb e923 453c b11c bf3d 8e5d 3d3e
000001e0: 63de ff3c b989 0fbe 077e 59bd 9906 3abc
000001f0: 3ffa ce3d aba9 02bd 1717 0dbd 267c dc3d
00000200: 112d 0abd 56a8 29be d712 82bd d2ed 81bd
00000210: e767 29bd e9cf 99bd eef8 61bd 8dfd a6bd
00000220: e8eb d2bd 9004 94be f9b9 65bb 43bd 43be
00000230: 2b1b 0d3e 85bb a7bd 8028 1fbc 3925 02be
00000240: 283b b7bb c38c e1bc fd82 233c 59a5 5ebe
00000250: 578c d6bc 9fc9 72be 90cf b73d 2f68 7abd
00000260: e688 d53d b31f f4bd 51ac 29bd 32d4 49be
00000270: 4a31 773a 4c96 3bbd 629a 89bd 1598 8fbe
00000280: 41fd 963d 9497 003f d6f4 b4bd efef a03e
00000290: 782f c2bb 317d 263e 2224 93bc 3064 193e
000002a0: fa2d 96bd 9778 63be 306e dcbd d1fe ecbd
000002b0: 9f12 dfbd 79e1 5abe aeea 8bbd 362f c8bb
000002c0: 25b9 02be f240 2cbe 6a08 033e 67cc e4bc
000002d0: ea26 443d 72ba 93be d1e2 bbbd 5db4 bbbd
000002e0: 640c eebd f839 3ebe 67a2 f33d b968 68be
000002f0: 467e 053c e793 cebd e5ce 70bb 9e58 1ebe
00000300: 7bc3 ffbd f934 71be 2ec2 b93d 0efe 4abd
00000310: 9626 b1bd 769a 8ebe 0668 b0bd 90c6 6fbd
00000320: 4cc7 983c 1b28 853d 4b30 86bd 1c86 09be
00000330: 40f4 30bd 01a4 0abe 9925 c33c ff02 83be
00000340: abc2 6f3d 23ed 31be 9da5 adbd 9e98 36be
00000350: 78cc 77ba 5ee5 6fbe a5da 923d c4bd 5ebe
00000360: a6a0 3fbd eb77 043f 2629 c73d ca8b 2a3e
00000370: 16ed b63d 793e 153e 1e12 f33d 97f5 68bd
00000380: 4a51 913d cbab 0bbe 1961 aebd 8428 b43c
00000390: 1155 e0bd 2d7e 2c3e 5d14 c93d d9bc 36be
000003a0: 8fa0 fdbd fa7c aabd 41b2 b6bd a9fa 51bd
000003b0: f670 01bd be02 f23d 46d5 0ebd 4eeb 9cbd
000003c0: 3d2f 0b3e 9bcd 543d 1daf 433d 84d5 c2bd
000003d0: e333 653d 7384 53bb 8871 9cbd 1af2 bfbd
000003e0: e6d2 1c3d 0cff 94bd 1b49 4c3d 91a9 e03c
000003f0: d0b8 6d3c 785e b8bd f980 303d f76b 813c

stacks.0.blocks.0.fc1.bias f4 [50]
0.13543665 0.03811996 -0.08757743 0.027246414 0.07124966 0.04155397 -0.14274763 -0.08959025
0.1287478 0.11280878 -0.09461488 0.02595386 -0.1299786 -0.0146721015 -0.06732191 0.023734096
0.14976738 -0.12645355 0.13992786 0.10177559 -0.096121036 0.0695016 0.079291135 0.06409063
0.052462906 -0.080841556 -0.06813411 0.094076216 0.02065404 -0.045307264 0.076442845 0.0042175264
-0.121321276 0.07937441 0.052642196 0.16129941 0.13957483 -0.06990978 -0.1408888 0.05605785
0.017515955 -0.07879355 0.0621838 0.10841514 -0.023784205 -0.14056303 -0.027440507 -0.15248984
-0.06360527 -0.084230945
00000000: e8af 0a3e ad23 1c3d cc5b b3bd df33 df3c
00000010: 57eb 913d 7f34 2a3d 6f2c 12be 187b b7bd
00000020: 77d6 033e 4a08 e73d 72c5 c1bd 309d d43c
00000030: 1c19 05be 4163 70bc 12e0 89bd 026e c23c
00000040: 9f5c 193e 0a7d 01be 4049 0f3e b86f d03d
00000050: 1bdb c4bd db56 8e3d 6463 a23d f341 833d
00000060: 58e3 563d 4290 a5bd e589 8bbd 08ab c03d
00000070: a932 a93c 1c94 39bd 118e 9c3d 2d33 8a3b
00000080: 4a77 f8bd 0d8f a23d 589f 573d ac2b 253e
00000090: b4ec 0e3e dc2c 8fbd 2745 10be eb9c 653d
000000a0: 9f7d 8f3c 835e a1bd 71b4 7e3d c208 de3d
000000b0: 18d7 c2bc c1ef 0fbe eaca e0bc 4c26 1cbe
000000c0: 7b43 82bd 4681 acbd

stacks.0.blocks.0.fc2.weight f4 [50, 50]
0.044125896 -0.011854306 0.055278778 0.15271777 0.008959648 -0.054281842 0.009316025 -0.061216883
0.11526855 0.042632803 0.07751054 -0.004835986 0.026930103 0.14214475 0.09601254 -0.06345902
0.1421269 0.051727824 0.10589251 0.068211325 -0.022532135 0.0060107415 -0.053319365 0.105549216
-0.07537699 0.022979273 -0.056799356 -0.09259921 0.06091083 -0.07492514 -0.04200627 0.0073031522
0.14108948 0.075960875 -0.089633785 -0.115828186 0.15563168 -0.12532428 0.07463911 -0.062062368
-0.08604247 0.1911123 -0.028120264 0.14168881 0.09493944 -0.11331076 0.004001642 0.049125575
0.006971365 0.079312734 -0.0061862012 -0.04393933 -0.11847104 0.09789102 0.12848283 -0.02677128
-0.083402425 -0.017556379 -0.011270427 -0.003304335 0.024933757 -0.013266766 -0.004058846 0.028889174
-0.028335415 0.06973372 0.06449981 -0.038942553 0.09415277 -0.06879612 0.05067404 -0.054435164
0.08210778 0.14037716 0.07846665 -0.0638309 7.3115866e-06 -0.10277162 -0.12010959 0.014004217
-0.053024154 -0.19265366 -0.07892655 -0.0020890974 0.028395258 0.028615788 -0.011312331 -0.04758218
0.11000424 -0.011039977 -0.11371935 -0.006565179 0.14876436 0.05289909 -0.041840535 -0.026567
-0.12020392 -0.11122742 -0.080892816 0.04534414 0.014641326 0.03756094 0.14563058 0.0037677777
-0.08340173 -0.014754658 -0.18962193 -0.1279671 0.15152009 -0.16041005 0.22965685 0.016063247
0.08887611 -0.18643847 0.009722784 0.035302293 -0.16454251 0.049373943 -0.19917816 0.19707213
-0.0804967 0.04046775 0.009669476 -0.03220147 0.008993981 0.04122067 -0.0018610613 0.14171737
0.049340934 -0.08334564 -0.06267728 -0.14186549 0.054962948 -0.12640461 0.068897754 -0.01564768
-0.1984987 -0.017590068 -0.17269613 0.16468713 -0.07204156 0.18784323 -0.04646023 0.1870181
0.08722195 -0.026645511 0.17099729 0.15073882 -0.01775316 -0.049950596 -0.12645605 -0.06475199
-0.10858171 -0.010670246 0.044666715 -0.0009290129 0.03621619 0.080380216 -0.12266225 -0.033478
0.08186816 -0.122969665 0.027180707 -0.100421555 0.04387974 -0.0969986 0.12454294 0.11996598
-0.03560575 0.1186319 -0.08059092 0.041759953 -0.15130268 -0.10010315 -0.02200242 0.006546619
-0.09499674 -0.14070189 -0.027214758 0.046337035 -0.051160917 0.04659857 -0.03633193 0.07189587
-0.13579997 -0.12294964 -0.018242305 0.022140888 -0.039895352 -0.04806021 0.028414777 -0.11412274
0.023172868 0.10962018 0.005151853 0.02595657 -0.02568069 0.12742303 0.098481305 0.0073929634
0.0064380015 0.15399358 0.06196603 0.17426957 -0.026703136 0.031646132 -0.1308668 0.07219148
-0.015314234 0.001244706 0.04146294 -0.094708085 -0.100571215 0.05778921 -0.08379627 0.06551568
-0.08858317 0.15287639 0.046831824 -0.016868196 0.03893857 0.08781133 -0.08712235 -0.09730171
0.10332366 -0.076170675 0.1473988 0.017278858 0.019262072 -0.055396777 -0.069731355 0.029714724
-0.05274103 -0.10803583 0.015497408 0.17746226 -0.15631717 0.12904327 -0.058399927 0.092424825
0.1239566 -0.031480294 -0.07784336 -0.010004452 0.114901505 0.12186504 -0.00042602865 0.02118735
0.15485057 0.15322617 -0.07143986 -0.1334131 -0.067083575 0.0668516 -0.028207166 -0.16031602
00000000: 5bbd 343d 9038 42bc 006c 623d 0c62 1c3e
00000010: 7dcb 123c a356 5ebd 3ea2 183c 8ebe 7abd
00000020: eb11 ec3d bc9f 2e3d d9bd 9e3d 3177 9ebb
00000030: 859c dc3c 658e 113e 39a2 c43d cdf6 81bd
00000040: b789 113e 8ee0 533d 2cde d83d 61b2 8b3d
00000050: 5095 b8bc c1f5 c43b 6865 5abd 302a d83d
00000060: 405f 9abd 073f bc3c 71a6 68bd a8a4 bdbd
00000070: a27d 793d 5a72 99bd c40e 2cbd 484f ef3b
00000080: c379 103e 6091 9b3d eb91 b7bd 5437 edbd
00000090: e95d 1f3e 0255 00be 64dc 983d 1c35 7ebd
000000a0: 0937 b0bd f1b2 433e 785c e6bc df16 113e
000000b0: 9c6f c23d 790f e8bd 3520 833b e637 493d
000000c0: 0c70 e43b b76e a23d 9eb5 cabb baf9 33bd
000000d0: f2a0 f2bd 167b c83d 0191 033e 724f dbbc
000000e0: e4ce aabd 65d2 8fbc 99a7 38bc 8b8d 58bb
000000f0: e141 cc3c da5c 59bc 1100 85bb fda8 ec3c
00000100: ac1f e8bc 8dd0 8e3d 7a18 843d 3a82 1fbd
00000110: 2bd3 c03d fbe4 8cbd 958f 4f3d 68f7 5ebd
00000120: 2028 a83d 08bf 0f3e 1fb3 a03d c6b9 82bd
00000130: 0d56 f536 ed79 d2bd 04fc f5bd f271 653c
00000140: db2f 59bd 0047 45be 3ea4 a1bd 3de9 08bb
00000150: 2c9d e83c a86b ea3c 5b57 39bc 88e5 42bd
00000160: e749 e13d 05e1 34bc b1e5 e8bd b720 d7bb
00000170: af55 183e b7ac 583d fb60 2bbd 0aa3 d9bc
00000180: 792d f6bd 34cb e3bd 22ab a5bd c7ba 393d
00000190: 2ce2 6f3c 80d9 193d 2f20 153e d2ec 763b
000001a0: 87ce aabd 85bd 71bc 402c 42be cf09 03be
000001b0: 1528 1b3e 8842 24be 2a2b 6b3e 1297 833c
000001c0: ae04 b63d bae9 3ebe 504c 1f3c 2399 103d
000001d0: d57d 28be 553c 4a3d 5cf5 4bbe 47cd 493e
000001e0: 74db a4bd 83c1 253d b96c 1e3c b0e5 03bd
000001f0: 7e5b 133c 01d7 283d dbee f3ba 5c1e 113e
00000200: b819 4a3d 1eb1 aabd f25c 80bd 3045 11be
00000210: d420 613d 3670 01be 441a 8d3d 902f 80bc
00000220: 3e43 4bbe 0c19 90bc 41d7 30be bea3 283e
00000230: 878a 93bd fa59 403e 154d 3ebd ac81 3f3e
00000240: 6ca1 b23d b047 dabc ea19 2f3e 475b 1a3e
00000250: 136f 91bc ff98 4cbd b27d 01be b19c 84bd
00000260: 1660 debd 41d2 2ebc 72f4 363d 0089 73ba
00000270: 6d57 143d 629e a43d 5936 fbbd 3a20 09bd
00000280: 7eaa a73d 85d7 fbbd 13aa de3c d1a9 cdbd
00000290: 3ebb 333d 34a7 c6bd 5e10 ff3d b9b0 f53d
000002a0: 56d7 11bd 48f5 f23d da0c a5bd 7c0c 2b3d
000002b0: 17ef 1abe e102 cdbd 6b3e b4bc 0585 d63b
000002c0: a78d c2bd 2814 10be 7cf1 debc e7cb 3d3d
000002d0: 1c8e 51bd 24de 3e3d cad0 14bd 243e 933d
000002e0: 260f 0bbe 05cd fbbd e370 95bc cf60 b53c
000002f0: 4f69 23bd c8da 44bd 1bc6 e83c 2fb9 e9bd
00000300: 07d5 bd3c 8c80 e03d e0d0 a83b dfa2 d43c
00000310: 4f60 d2bc 2f7b 023e 91b0 c93d ac40 f23b
00000320: dff5 d23b 7eb0 1d3e 18d0 7d3d b973 323e
00000330: 89c0 dabc 609f 013d f201 06be 20d9 933d
00000340: 8ee8 7abc 6725 a33a 0bd5 293d 50f6 c1bd
00000350: 48f8 cdbd 61b4 6c3d 619d abbd 162d 863d
00000360: 186b b5bd a18b 1c3e bad2 3f3d 2c2f 8abc
00000370: 0d7e 1f3d 6dd6 b33d 346d b2bd 1e46 c7bd
00000380: 5b9b d33d 5fff 9bbd b6ef 163e 648c 8d3c
00000390: 7ecb 9d3c bbe7 62bd 50cf 8ebd 4b6c f33c
000003a0: fa06 58bd e441 ddbd d7e8 7d3c abb8 353e
000003b0: 9c11 20be eb23 043e c334 6fbd 3a49 bd3d
000003c0: f5dc fd3d 7bf1 00bd 576c 9fbd b7e9 23bc
000003d0: 7b51 eb3d 6194 f93d 995c dfb9 1891 ad3c
000003e0: 2691 1e3e 52e7 1c3e 104f 92bd 729d 08be
000003f0: 1d63 89bd 7ee9 883d b712 e7bc e229 24be

stacks.0.blocks.0.fc2.bias f4 [50]
0.16950123 -0.026617533 0.041193407 -0.108720265 0.12866044 -0.015319204 -0.087741345 0.16315198
0.11583836 -0.1209549 -0.072079405 0.08510859 0.08900347 0.0690327 0.11042308 0.17272761
0.071185514 0.027310973 0.0666979 -0.038393024 0.067885935 0.09584639 0.12990305 -0.020182036
-0.019678202 -0.12833452 0.039503314 -0.030447967 -0.1243713 -0.17174914 0.054413393 -0.040064413
-0.03561541 0.055519402 0.091600046 -0.040211145 0.10319008 0.10226034 0.10159066 0.11817582
0.175759 0.14727794 0.04286976 0.03925656 0.093671605 -0.003692633 -0.090121 0.103703365
-0.06294581 0.06556599
00000000: bb91 2d3e 030d dabc 6bba 283d bba8 debd
00000010: 90bf 033e 66fd 7abc bcb1 b3bd 5011 273e
00000020: a93c ed3d 34b7 f7bd 5e9e 93bd 6a4d ae3d
00000030: 7447 b63d 0461 8d3d 7f25 e23d 82df 303e
00000040: b6c9 913d 43bb df3c e998 883d 0142 1dbd
00000050: c807 8b3d 1d4b c43d 4e05 053e cc54 a5bc
00000060: 2e34 a1bc 206a 03be 3ace 213d 046e f9bc
00000070: 61b6 febd 02df 2fbe 94e0 5e3d 951a 24bd
00000080: 77e1 11bd 5068 633d ce98 bb3d 71b4 24bd
00000090: 5255 d33d de6d d13d c40e d03d 2a06 f23d
000000a0: 2bfa 333e 07d0 163e 3498 2f3d 7dcb 203d
000000b0: e6d6 bf3d 1a00 72bb 5c91 b8bd 6e62 d43d
000000c0: bce9 80bd 7647 863d

stacks.0.blocks.0.fc3.weight f4 [50, 50]
0.10512928 -0.085842855 0.005952274 -0.09996183 0.15419427 0.020057604 -0.11489331 -0.11500795
-0.049265888 0.07036027 -0.05980004 0.016355654 -0.086939864 0.22718014 0.1259731 -0.12449243
-0.015342152 0.08301521 -0.026393706 -0.08170678 -0.037435744 -0.16010168 0.12549408 0.083791345
-0.023541719 -0.099591725 0.004431581 -0.12393174 0.015311814 0.10199731 0.070050076 -0.04886908
0.031870905 0.11043219 -0.13706332 -0.010431005 -0.046454817 0.099363856 -0.12607332 0.09733384
0.037302513 0.1888045 0.11611691 0.044547252 -0.049736347 0.009042037 -0.009040367 -0.14620166
-0.107433125 0.05691841 -0.05858516 0.014255535 0.014294119 0.06043297 0.085069075 0.078646176
-0.09311654 -0.03226222 -0.0068425494 -0.011870831 0.09744726 0.026238525 0.15162385 -0.14637695
-0.071520954 0.024243657 0.03632882 0.1576322 0.03488616 -0.13513614 -0.04409982 0.01493709
-0.06238831 -0.12598592 0.018621083 -0.0664743 0.044917908 0.030337788 0.07776271 -0.13587648
-0.0029975537 -0.00921165 -0.0016438703 0.026370553 0.0719443 -0.011839552 0.11445265 0.074957006
0.20231664 0.08111104 -0.17286807 0.022560254 0.03341614 -0.013320072 -0.060119953 0.062085096
0.16538464 0.16660006 0.102770545 0.08017599 0.07015665 -0.07804934 0.09008517 -0.00638455
-0.1284409 0.10792526 -0.111046076 0.018574392 -0.07525166 0.032066345 0.07617888 0.010971283
0.10137254 0.02857658 -0.14933445 -0.107361324 -0.031994194 0.074803405 -0.026063804 0.0860292
0.04125526 -0.016490445 -0.14244626 -0.09365131 0.056442656 0.00606086 -0.060797 0.09792035
-0.071470805 0.04735473 0.013164869 0.054153517 -0.024072899 -0.08724982 0.09165822 0.0069438135
-0.051795557 -0.025177117 0.09641254 -0.07412467 0.089468665 0.05319364 -0.049572326 -0.1340729
-0.104689024 0.071124256 -0.035738703 0.023655271 0.14661585 -0.09933205 0.14659962 0.06299005
-0.0099773845 0.060422506 -0.13454579 -0.07368185 -0.1470421 0.21876806 0.10459157 0.09153806
0.019158937 0.11202301 0.115727775 -0.11777574 0.11303668 -0.07970306 -0.002023154 -0.06655362
-0.017087586 0.055127073 -0.05496881 0.19534741 0.1194286 -0.090565145 0.069458306 0.0584529
0.030054387 0.16036503 0.006901171 -0.056645345 -0.009911947 -0.07288247 0.2112366 -0.0030519895
-0.07568208 -0.020956395 0.112461686 0.017474627 -0.071146116 -0.05508443 -0.15056264 -0.12461738
0.060650907 -0.058625832 -0.042035513 -0.0697565 0.0037677342 0.023604589 0.11489716 0.15746719
-0.008889621 -0.00071110704 0.04490786 0.08404502 0.0055435565 -0.06406156 0.098850116 0.027131705
0.11044617 -0.011685833 0.042597763 0.009511093 -0.055487934 -0.06967701 0.10533898 0.0649984
0.016918523 -0.10353712 -0.14720024 0.0011553983 -0.00062878407 -0.10928336 0.06580729 -0.09459981
0.14495103 0.071074225 0.10235983 0.09582621 -0.16986835 -0.011528943 0.1383667 -0.049161457
-0.108167 0.08217898 -0.09707782 0.11741137 -0.09788145 0.06585009 -0.008148538 -0.012855092
-0.12595658 0.12032429 0.06413251 0.033910166 -0.048924766 0.045073643 0.022128468 -0.032136057
0.10845015 -0.12605524 -0.036369313 -0.12467582 0.094823316 0.084980205 0.018389182 0.03227179
00000000: 054e d73d 61ce afbd 4b0b c33b cab8 ccbd
00000010: 1ae5 1d3e d84f a43c 2f4d ebbd 4a89 ebbd
00000020: 07cb 49bd 0c19 903d e3f0 74bd 4bfc 853c
00000030: 870d b2bd e9a1 683e 18ff 003e e3f5 febd
00000040: a65d 7bbc e103 aa3d 9d37 d8bc e255 a7bd
00000050: 3956 19bd b2f1 23be 8581 003e cc9a ab3d
00000060: 90da c0bc bff6 cbbd cc36 913b edcf fdbd
00000070: 67de 7a3c f7e3 d03d 6a76 8f3d f22a 48bd
00000080: 118b 023d 462a e23d 545a 0cbe cee6 2abc
00000090: 6847 3ebd 477f cb3d 5d19 01be f756 c73d
000000a0: 85ca 183d f855 413e b4ce ed3d 2e77 363d
000000b0: 57b8 4bbd 0d25 143c 0c1e 14bc e3b5 15be
000000c0: e605 dcbd 4723 693d fef6 6fbd 0c90 693c
000000d0: e131 6a3c 9088 773d b238 ae3d 3f11 a13d
000000e0: e2b3 bebd 6425 04bd 7737 e0bb e07d 42bc
000000f0: 6e92 c73d 2df2 d63c 4843 1b3e d7e3 15be
00000100: 9479 92bd a29a c63c 87cd 143d 566a 213e
00000110: cae4 0e3d 2161 0abe 03a2 34bd b2ba 743c
00000120: e28a 7fbd 7402 01be 3e8b 983c ae23 88bd
00000130: d7fb 373d f486 f83c 0e42 9f3d 3423 0bbe
00000140: 9b72 44bb 76ec 16bc 2277 d7ba 0f07 d83c
00000150: 8857 933d aefa 41bc 2766 ea3d 0f83 993d
00000160: 182c 4f3e 8c1d a63d 5404 31be 48d0 b83c
00000170: 5ddf 083d 6e3c 5abc 5740 76bd f14c 7e3d
00000180: 975a 293e 3599 2a3e 5d79 d23d 4f33 a43d
00000190: 4aae 8f3d 55d8 9fbd 937e b83d 7d35 d1bb
000001a0: 0386 03be eb07 dd3d 206c e3bd 5329 983c
000001b0: 8b1d 9abd 0058 033d ac03 9c3d e5c0 333c
000001c0: 689c cf3d 6f19 ea3c 21eb 18be 41e0 dbbd
000001d0: 580c 03bd 8732 993d c283 d5bc 1430 b03d
000001e0: 47fb 283d f816 87bc 6fdd 11be 42cc bfbd
000001f0: 6a30 673d 2e9a c63b 4606 79bd 778a c83d
00000200: 495f 92bd 09f7 413d 76b1 573c 14d0 5d3d
00000210: 8734 c5bc 09b0 b2bd 4eb7 bb3d ee88 e33b
00000220: 9427 54bd 3e40 cebc f073 c53d adce 97bd
00000230: 593b b73d 93e1 593d 5a0c 4bbd 684a 09be
00000240: 3367 d6bd 98a9 913d bf62 12bd b3c8 c13c
00000250: 7722 163e 9a6e cbbd 361e 163e ed00 813d
00000260: 2f78 23bc 977d 773d 5fc6 09be 83e6 96bd
00000270: 3492 16be bc04 603e 1b34 d63d 4e78 bb3d
00000280: 34f3 9c3c 526c e53d af02 ed3d 6834 f1bd
00000290: c67f e73d 5c3b a3bd e496 04bb 444d 88bd
000002a0: 44fb 8bbc edcc 613d fa26 61bd 2709 483e
000002b0: fb96 f43d 387a b9bd 2840 8e3d 4f6c 6f3d
000002c0: 9e34 f63c bb36 243e 3823 e23b f304 68bd
000002d0: b865 22bc 6843 95bd 684e 583e e303 48bb
000002e0: 35ff 9abd bfac abbc 5052 e63d f326 8f3c
000002f0: 0eb5 91bd 36a0 61bd 182d 1abe 6637 ffbd
00000300: 166d 783d a421 70bd 6e2d 2cbd 7fdc 8ebd
00000310: 17ec 763b 695e c13c 344f eb3d 143f 213e
00000320: c6a5 11bc 9669 3aba 4ef1 373d cc1f ac3d
00000330: b9a6 b53b b532 83bd ee71 ca3d 4f43 de3c
00000340: 9a31 e23d f075 3fbc fe7a 2e3d 6ad4 1b3c
00000350: 5147 63bd d2b2 8ebd f7bb d73d e21d 853d
00000360: b798 8a3c 450b d4bd a9bb 16be bc70 973a
00000370: fcd4 24ba f4cf dfbd f9c5 863d 8cbd c1bd
00000380: 0b6e 143e 5d8f 913d 08a2 d13d 8840 c43d
00000390: f8f1 2dbe e4e3 3cbc 00b0 0d3e 865d 49bd
000003a0: a986 ddbd 744d a83d bcd0 c6bd 5f75 f03d
000003b0: 1276 c8bd 69dc 863d 7281 05bc 2a9e 52bc
000003c0: c3fa 00be 956c f63d e857 833d 63e5 0a3d
000003d0: 5665 48bd 249f 383d c346 b53c 19a1 03bd
000003e0: 1d1b de3d a014 01be fdf7 14bd 0956 ffbd
000003f0: ba32 c23d 1a0a ae3d e9a4 963c 6d2f 043d

stacks.0.blocks.0.fc3.bias f4 [50]
0.16488212 -0.0634913 -0.030325025 0.11129944 -0.14422286 -0.09866785 0.13331293 0.091548525
0.084560774 -0.075604275 -0.112325184 0.14187452 -0.06276016 -0.08228756 -0.028036678 -0.040852316
-0.10147127 0.0689309 0.16491385 -0.19492327 0.13645242 -0.04990996 0.038317062 -0.053861625
-0.13866705 -0.10818264 0.14843644 0.0599638 0.022630442 -0.13837402 -0.25339597 -0.018519502
-0.04013139 0.073583215 0.08133581 0.024617054 0.03247559 -0.13175713 -0.1176441 -0.11016398
0.16289894 0.04096299 0.08950778 0.04888818 0.039481837 -0.09760614 -0.074542455 -0.1412459
-0.119806066 0.03430298
00000000: dcd6 283e ba07 82bd 306c f8bc f6f0 e33d
00000010: 28af 13be 5f12 cabd 2f83 083e cb7d bb3d
00000020: 332e ad3d 6ad6 9abd bf0a e6bd 8e47 113e
00000030: 6688 80bd 6186 a8bd 2dad e5bc c254 27bd
00000040: 2bd0 cfbd a52b 8d3d 2ddf 283e f799 47be
00000050: 2fba 0b3e 636e 4cbd 5af2 1c3d 029e 5cbd
00000060: bcfe 0dbe dc8e ddbd b9ff 173e 9a9c 753d
00000070: 7a63 b93c ebb1 0dbe 1ebd 81be 36b6 97bc
00000080: d060 24bd ccb2 963d 6493 a63d b4a9 c93c
00000090: 2005 053d 57eb 06be 64ef f0bd a79d e1bd
000000a0: fbce 263e cfc8 273d db4f b73d f93e 483d
000000b0: b5b7 213d bae5 c7bd b7a9 98bd c4a2 10be
000000c0: e25c f5bd 4881 0c3d

stacks.0.blocks.0.fc4.weight f4 [50, 50]
0.06772377 0.035018492 0.0077163465 -0.011884271 -0.12126186 0.06665 0.0076343203 -0.123192385
0.09997901 -0.07799429 0.060679913 0.087242216 -0.0012264885 0.011673528 -0.029997485 -0.051398683
0.019516066 0.123232245 -0.053488556 -0.15839547 0.09362352 0.13027184 0.12553029 -0.10679187
-0.14375181 0.07461596 0.1308428 0.11285223 -0.06682986 0.120483175 -0.18307795 0.062649086
0.092391476 -0.06984547 0.092504226 0.018898219 -0.15272373 0.013533726 -0.08374439 -0.067174725
0.14121044 -0.12104239 0.070894666 -0.022751871 -0.05572494 0.08359259 -0.15038908 -0.08649728
-0.04588286 0.08568629 -0.029956993 -0.10039333 -0.10294952 0.1288384 -0.16192931 -0.058833763
-0.07708875 0.04948249 0.1270906 0.07587529 0.027509674 0.1536755 0.036719393 -0.16125295
0.12023264 0.12942205 0.10819764 -0.0014287353 0.05566399 -0.040196937 0.0043694214 -0.15144804
-0.012705286 0.11034052 0.09006158 0.037210483 0.026417723 -0.06681387 0.103708535 -0.088760346
-0.09014014 -0.090118095 0.009172305 -0.13188073 -0.064822964 -0.07256043 0.102049656 0.042467847
0.029493466 0.063032836 0.114796445 -0.13355653 0.12848511 -0.0051425085 0.047269594 0.07100014
-0.042993907 -0.12479329 -0.062819995 0.091849945 0.12023051 0.10634221 -0.03110797 -0.101861626
0.10273558 -0.13676113 -0.02498728 0.102339536 -0.13836443 -0.098197326 0.07510543 -0.07364055
0.061727017 -0.09245387 -0.10000847 0.019562349 0.03315635 -0.08899945 -0.057286926 0.023607686
-0.058100678 -0.10951264 -0.10759241 -0.009625435 0.06360525 -0.05248195 0.07751788 -0.023343638
-0.1357152 -0.058928728 0.027621657 -0.0015773922 -0.118654765 -0.14089626 -0.13034283 -0.07546227
0.020034745 -0.11277482 0.005888 -0.078345075 -0.06986418 0.10624829 -0.030675404 0.018760905
-0.089923605 -0.043168455 -0.13278805 -0.10584016 0.13664465 0.08404231 0.052840475 -0.17364006
0.110041276 -0.09006351 -0.06709179 -0.060697746 -0.012331535 -0.082874164 -0.039990712 0.08400627
0.13132907 0.0055200653 0.037849564 0.1426212 -0.16407135 -0.04616095 0.040741738 -0.06602747
-0.061331306 0.13937357 0.02383829 0.066670455 -0.082204 0.07990831 0.008028299 0.060671825
0.014848985 0.042223528 -0.00017303806 0.048620895 -0.08819366 0.11740248 -0.12871806 0.063186124
0.0932031 -0.10249465 -0.11626188 -0.023132399 -0.09593128 -0.022536218 -0.14579554 -0.046651326
-0.14828008 -0.11881775 -0.09737493 0.022264902 0.08026496 0.14017914 0.06583333 0.09433207
0.012923156 0.09924508 0.06162902 0.109979205 -0.1309322 -0.119043134 -0.031471867 -0.043308076
0.16269922 -0.019996103 0.0650627 0.114602365 0.105677806 0.04413663 -0.11113357 0.09613269
0.093852654 -0.040584866 0.053918306 -0.14846796 0.047519345 -0.0075041703 0.15776557 -0.032962926
0.1182702 -0.023518521 -0.0072505544 0.11661434 -0.0778068 -0.007869933 -0.104292125 0.0031050544
0.016629398 -0.018319944 0.12917067 -0.099361666 -0.087753326 0.08684121 -0.12067825 -0.067691274
0.090413556 0.045995597 -0.04242953 0.033852894 0.09184369 0.037183613 -0.04727479 -0.01679847
0.046275765 -0.086199656 -0.1364381 -0.076061025 0.016962565 -0.095863365 -0.04041874 -0.1013469
00000000: c3b2 8a3d 8d6f 0f3d 68d9 fc3b 3fb6 42bc
00000010: 2358 f8bd cc7f 883d 5229 fa3b 4a4c fcbd
00000020: ccc1 cc3d 78bb 9fbd 808b 783d 0cac b23d
00000030: 20c2 a0ba 5342 3f3c 49bd f5bc 6d87 52bd
00000040: 28e0 9f3c 3061 fc3d d116 5bbd 6c32 22be
00000050: b0bd bf3d fb65 053e 038b 003e b2b5 dabd
00000060: ad33 13be 41d0 983d a8fb 053e 121f e73d
00000070: 18de 88bd e2bf f63d c978 3bbe 2a4e 803d
00000080: be37 bd3d 240b 8fbd db72 bd3d 70d0 9a3c
00000090: 9c63 1cbe 90bc 5d3c 2e82 abbd e792 89bd
000000a0: 7899 103e 13e5 f7bd 3931 913d 2262 babc
000000b0: d63f 64bd 9832 ab3d 98ff 19be 7c25 b1bd
000000c0: aaef 3bbd 4b7c af3d 5e68 f5bc 059b cdbd
000000d0: 33d7 d2bd 37ee 033e ccd0 25be acfb 70bd
000000e0: b5e0 9dbd 27ae 4a3d 0a24 023e 8164 9b3d
000000f0: f85b e13c 1c5d 1d3e 1367 163d 7e1f 25be
00000100: 883c f63d 3787 043e b996 dd3d 6744 bbba
00000110: edff 633d 8ba5 24bd 5d2d 8f3b 3215 1bbe
00000120: d529 50bc 36fa e13d 3572 b83d 056a 183d
00000130: fb69 d83c b6d5 88bd 2465 d43d fcc7 b5bd
00000140: 659b b8bd d68f b8bd 7047 163c be0b 07be
00000150: e7c1 84bd 909a 94bd 69ff d03d c4f2 2d3d
00000160: 489c f13c 5c17 813d 661a eb3d 0bc3 08be
00000170: 9a91 033e 7d82 a8bb c39d 413d 8568 913d
00000180: 611a 30bd a093 ffbd c5a7 80bd d31b bc3d
00000190: 6a3b f63d f2c9 d93d 24d6 febc d49c d0bd
000001a0: 0867 d23d 1c0b 0cbe 20b2 ccbc 6497 d13d
000001b0: 68af 0dbe ae1b c9bd e0d0 993d dbd0 96bd
000001c0: 78d5 7c3d 7458 bdbd 3ed1 ccbd 3841 a03c
000001d0: f4ce 073d 5845 b6bd b2a5 6abd e864 c13c
000001e0: fafa 6dbd 2a48 e0bd 6959 dcbd 00b4 1dbc
000001f0: 7843 823d 50f7 56bd b2c1 9e3d 283b bfbc
00000200: edf8 0abe 405f 71bd d046 e23c 80c0 ceba
00000210: 4501 f3bd 1c47 10be 9778 05be f68b 9abd
00000220: e81f a43c 7cf6 e6bd 20f0 c03b 6273 a0bd
00000230: f414 8fbd b498 d93d fc4a fbbc 78b0 993c
00000240: de29 b8bd 68d1 30bd 97f9 07be bac2 d8bd
00000250: 93ec 0b3e 601e ac3d 416f 583d b3ce 31be
00000260: 525d e13d 3873 b8bd 6c67 89bd 339e 78bd
00000270: 350a 4abc eeb9 a9bd 4dcd 23bd 7b0b ac3d
00000280: 217b 063e aae1 b43b 2508 1b3d 4b0b 123e
00000290: 5202 28be 4413 3dbd cfe0 263d 6939 87bd
000002a0: 8936 7bbd f2b7 0e3e 8448 c33c 858a 883d
000002b0: 925a a8bd f8a6 a33d 2089 033c 0583 783d
000002c0: 2849 733c 94f2 2c3d 8d71 35b9 b426 473d
000002d0: e19e b4bd b670 f03d abce 03be ba67 813d
000002e0: 44e1 be3d b7e8 d1bd b51a eebd 2880 bdbc
000002f0: 9e77 c4bd e09d b8bc 6d4b 15be 7615 3fbd
00000300: bcd6 17be b856 f3bd 826c c7bd e264 b63c
00000310: f561 a43d 1f8b 0f3e a0d3 863d 2c31 c13d
00000320: a5bb 533c 0141 cb3d b66e 7c3d c73c e13d
00000330: 1713 06be e3cc f3bd a5e8 00bd cf63 31bd
00000340: a09a 263e dece a3bc 983f 853d a5b4 ea3d
00000350: 9b6d d83d 9cc8 343d ff99 e3bd 37e1 c43d
00000360: d235 c03d 513c 26bd 71d9 5c3d fc07 18be
00000370: a5a3 423d 8be5 f5bb 4c8d 213e 2204 07bd
00000380: a637 f23d eaa9 c0bc 0f96 edbb 80d3 ee3d
00000390: 2c59 9fbd e4f0 00bc 1c97 d5bd 2b7e 4b3b
000003a0: 603a 883c b513 96bc 5145 043e 217e cbbd
000003b0: 04b8 b3bd ced9 b13d 2926 f7bd b9a1 8abd
000003c0: be2a b93d e165 3c3d 96ca 2dbd 55a9 0a3d
000003d0: 8b18 bc3d d84d 183d 36a3 41bd f29c 89bc
000003e0: a88b 3d3d 7289 b0bd 6eb6 0bbe e2c5 9bbd
000003f0: 14f5 8a3c 0354 c4bd 1f8e 25bd f78e cfbd

stacks.0.blocks.0.fc4.bias f4 [50]
0.09852064 0.08175554 -0.10593977 -0.115021326 0.043023508 0.002593625 0.078242265 0.116882876
0.07309612 -0.00083706103 0.079351775 0.08055243 -0.38087827 0.050224602 -0.06072235 -0.13434637
0.014280551 0.048688013 0.07672851 0.039811194 0.13757347 -0.14450565 -0.086249456 -0.1336719
0.11978756 -0.04555781 0.07582173 -0.0041025435 0.018171277 0.16141096 0.039621502 -0.1505686
0.16108733 0.09445762 -0.013681655 0.06843947 -0.05491832 -0.014314798 0.023772975 -0.12149981
0.1537267 -0.12940575 -0.11586454 -0.42064407 0.032417756 -0.027617548 0.032399375 0.022700353
0.0031386726 0.13771613
00000000: 30c5 c93d 736f a73d f3f6 d8bd 4d90 ebbd
00000010: 6b39 303d cff9 293b 7b3d a03d 4a60 ef3d
00000020: 6bb3 953d 376e 5bba 2f83 a23d acf8 a43d
00000030: 7a02 c3be 50b8 4d3d 00b8 78bd 1892 09be
00000040: f9f8 693c 156d 473d d623 9d3d 1011 233d
00000050: 0fe0 0c3e 4af9 13be 8ea3 b0bd 49e1 08be
00000060: 2e53 f53d d49a 3abd 6c48 9b3d a16e 86bb
00000070: eedb 943c ea48 253e 284a 223d a82e 1abe
00000080: 14f4 243e ff72 c13d 0529 60bc fe29 8c3d
00000090: 08f2 60bd 9d88 6abc 8bbf c23c e4d4 f8bd
000000a0: 886a 1d3e f182 04be 634a edbd a95e d7be
000000b0: 7bc8 043d 323e e2bc 35b5 043d 17f6 b93c
000000c0: 30b2 4d3b 7505 0d3e

stacks.0.blocks.0.theta_layer.weight f4 [57, 50]
0.039451815 -0.012618704 -0.006709069 0.10073461 0.14713414 -0.037501298 -0.13312034 -0.14515306
-0.13055316 -0.09417293 -0.044604305 -0.004682216 -0.009062377 0.12354981 0.041442275 0.1414317
0.036637817 -0.07055009 -0.01434085 0.052019432 0.11682467 -0.022228263 0.18311857 -0.04533736
-0.017474595 -0.12282356 0.0956278 0.061776157 0.11396716 -0.05144546 -0.07368522 0.11264297
-0.0418911 0.10717926 -0.040193755 -0.10483445 -0.09922836 -0.1081745 -0.073844634 0.10310596
-0.14497174 -0.101594314 -0.012520911 0.19189948 -0.028777095 0.022251483 0.031843048 -0.026952384
0.116020516 0.02199896 -0.105590895 0.06463367 0.051022753 -0.07506618 -0.10556728 0.092234775
-0.078908086 -0.10107218 -0.11707668 -0.11428766 0.05082113 0.14056548 0.18612413 0.038599115
0.12624943 0.12954359 0.08709451 -0.097003035 0.1362517 -0.08832655 0.11790414 0.14016548
0.10000757 0.11501886 0.027242182 -0.05052755 0.12803113 -0.007897998 0.066788085 0.04592881
0.08036185 0.021151885 0.028102316 0.040508244 0.0708091 0.07772134 0.1311099 -0.083328515
0.10345771 -0.07801429 0.07642771 -0.021441504 -0.02966089 0.18752684 -0.09268164 0.053586062
0.054941855 -0.087456614 -0.098831125 0.12234353 -0.06269587 0.11455664 0.02168116 0.12288263
0.04975018 0.107030205 0.026239093 -0.09166526 -0.13421947 -0.09431506 0.085625045 0.04408911
-0.045259938 -0.058809273 0.13853638 0.016091445 0.0045215576 0.010433167 -0.082375936 -0.05645957
0.13320231 -0.08083805 -0.08843491 0.06634065 -0.169567 0.080982134 -0.08728665 -0.049866393
-0.031117283 -0.109695755 0.11819189 0.15101667 0.11926707 0.116647676 -0.012258928 0.10305837
0.08147331 0.09562307 0.1008478 0.13458563 0.044072647 0.09450849 -0.02176044 -0.09846762
-0.21746776 0.09579357 0.12162571 0.06651022 0.073669076 -0.13833359 0.09836674 -0.110785544
0.13239376 -0.075873554 0.09241919 0.091243826 -0.000111475616 -0.111663975 -0.070507675 -0.033954013
0.020795766 0.15823087 0.06590487 -0.16501828 -0.06633052 0.1168952 -0.07370033 0.027118891
-0.05764738 -0.06467856 -0.08571859 -0.026633602 0.036051717 0.085111156 0.14804181 -0.019243091
-0.0077844393 -0.081145056 0.06336434 0.11723386 0.0046580504 0.17544748 0.12246373 0.10641888
-0.017100792 0.14139144 0.095381714 0.07749065 0.13167417 -0.027032249 -0.025789173 0.0726363
0.060045734 0.034572665 0.24829796 -0.0751523 -0.02843135 -0.049953245 -0.13917935 -0.08047674
-0.03154027 -0.083684705 0.12964799 -0.028778484 0.040130656 0.10341423 0.0035930455 0.13637814
0.062078368 -0.13990755 0.09354643 -0.10671159 -0.29931378 0.0021472832 -0.09672879 0.07462
-0.059865654 -0.113714986 0.04052373 0.13007854 0.09829845 -0.044531506 -0.10694245 -0.13324626
-0.22236475 -0.009931684 -0.014122765 0.048603218 0.039158683 0.13573185 -0.09461757 -0.16013531
0.16546339 0.11845315 -0.06499232 0.12690848 0.018851476 0.058722686 0.10752496 0.05796942
0.065147266 0.0077008265 -0.019350715 -0.3408582 -0.10217364 -0.028255297 -0.065842204 0.14226572
0.11883475 0.08302803 -0.109542504 -0.09704831 -0.002756983 -0.005079154 0.100846365 0.14113307
00000000: 3a98 213d aebe 4ebc c0d7 dbbb f24d ce3d
00000010: 55aa 163e f69a 19bd b350 08be 01a3 14be
00000020: baaf 05be bddd c0bd 01b3 36bd 466d 99bb
00000030: 5d7a 14bc af07 fd3d 60bf 293d 79d3 103e
00000040: 8911 163d 917c 90bd e2f5 6abc 5412 553d
00000050: c641 ef3d 0c18 b6bc 6f83 3b3e abb3 39bd
00000060: e226 8fbc eb8a fbbd 82d8 c33d ff08 7d3d
00000070: 9d67 e93d 7ab8 52bd 47e8 96bd 5cb1 e63d
00000080: 0196 2bbd cd80 db3d 35a2 24bd 72b3 d6bd
00000090: 3d38 cbbd 988a ddbd db3b 97bd 3829 d33d
000000a0: 7973 14be ae10 d0bd 8224 4dbc 4c81 443e
000000b0: f1bd ebbc be48 b63c db6d 023d 3fcb dcbc
000000c0: 2a9c ed3d 2a37 b43c 0a40 d8bd a85e 843d
000000d0: 3cfd 503d 4cbc 99bd a833 d8bd 96e5 bc3d
000000e0: 909a a1bd eefe cebd e6c5 efbd a60f eabd
000000f0: d129 503d 66f0 0f3e 5397 3e3e 1b1a 1e3d
00000100: 8847 013e 13a7 043e 9b5e b23d 87a9 c6bd
00000110: 9185 0b3e 8de4 b4bd ba77 f13d 8a87 0f3e
00000120: c5d0 cc3d 028f eb3d ff2a df3c faf5 4ebd
00000130: 981a 033e 9b66 01bc 31c8 883d d91f 3c3d
00000140: c194 a43d b846 ad3c d436 e63c f9eb 253d
00000150: 5d04 913d 5e2c 9f3d ac41 063e 24a8 aabd
00000160: a3e1 d33d f5c5 9fbd 2286 9c3d 18a6 afbc
00000170: 65fb f2bc 0907 403e dfcf bdbd 0f7d 5b3d
00000180: b60a 613d 741c b3bd f967 cabd 3f8f fa3d
00000190: b166 80bd ac9c ea3d b09c b13c e3a9 fb3d
000001a0: d8c6 4b3d a732 db3d 5ef3 d63c ffba bbbd
000001b0: d470 09be 4128 c1bd 2f5c af3d c896 343d
000001c0: 7c62 39bd fee1 70bd 7bdc 0d3e 35d2 833c
000001d0: 9329 943b e0ef 2a3c b7b4 a8bd 2642 67bd
000001e0: 3066 083e 6b8e a5bd 5d1d b5bd 9bdd 873d
000001f0: f9a2 2dbe f6d9 a53d 58c3 b2bd b440 4cbd
00000200: ace9 febc 2ba8 e0bd 970e f23d 1da4 1a3e
00000210: 4b42 f43d fae4 ee3d acd9 48bc 4410 d33d
00000220: 7bdb a63d 07d6 c33d 4b89 ce3d d1d0 093e
00000230: 8585 343d ab8d c13d f342 b2bc 64a9 c9bd
00000240: deaf 5ebe 6b2f c43d e616 f93d 8336 883d
00000250: d0df 963d 52a7 0dbe 8074 c93d 88e3 e2bd
00000260: 3b92 073e 9863 9bbd 4646 bd3d 0bde ba3d
00000270: 04c8 e9b8 15b0 e4bd 5466 90bd 5d13 0bbd
00000280: e25b aa3c 4607 223e 22f9 863d 8dfa 28be
00000290: 4cd8 87bd c066 ef3d 33f0 96bd 7028 de3c
000002a0: a91f 6cbd 3176 84bd 3a8d afbd b62e dabc
000002b0: f7aa 133d c24e ae3d 4698 173e b0a3 9dbc
000002c0: 9c14 ffbb 612f a6bd 2ac5 813d 4e18 f03d
000002d0: 8fa2 983b 81a8 333e 44ce fa3d 24f2 d93d
000002e0: f616 8cbc ebc8 103e 7d57 c33d 6bb3 9e3d
000002f0: 98d5 063e bc72 ddbc d143 d3bc 57c2 943d
00000300: 84f2 753d 119c 0d3d d241 7e3e 73e9 99bd
00000310: dde8 e8bc c69b 4cbd 0885 0ebe fdd0 a4bd
00000320: 5f30 01bd e362 abbd 71c2 043e dbc0 ebbc
00000330: 0b60 243d d7ca d33d 4d79 6b3b b6a6 0b3e
00000340: e345 7e3d ed43 0fbe 4595 bf3d 9b8b dabd
00000350: a83f 99be 6fb9 0c3b be19 c6bd 5fd2 983d
00000360: b035 75bd 67e3 e8bd 36fc 253d 4f33 053e
00000370: b350 c93d ab66 36bd a504 dbbd b571 08be
00000380: 96b3 63be 80b8 22bc 2b63 67bc 2b14 473d
00000390: db64 203d 4afd 0a3e dbc6 c1bd 83fa 23be
000003a0: 3c6f 293e 9197 f23d b21a 85bd 4cf4 013e
000003b0: 696e 9a3c 3387 703d 0c36 dc3d 5871 6d3d
000003c0: ee6b 853d 3757 fc3b 6485 9ebc f784 aebe
000003d0: 6a40 d1bd a777 e7bc 47d8 86bd 1bae 113e
000003e0: a25f f33d 9a0a aa3d d257 e0bd 44c1 c6bd
000003f0: 80ae 34bb 086f a6bb 8a88 ce3d 3085 103e

stacks.0.blocks.0.theta_layer.bias f4 [57]
0.060768656 -0.1233694 -0.04815754 -0.056309987 0.032776643 -0.13724895 -0.06314293 -0.122560054
-0.054221444 -0.0078569995 0.09108791 -0.045382816 0.047114395 -0.14104806 -0.11283992 -0.07042954
-0.0036102836 -0.04563655 -0.035084814 0.031908456 -0.005524736 -0.1265405 0.009158548 0.07660921
-0.11082551 -0.11100912 -0.07282992 -0.103180274 0.049133 0.023290671 0.1379388 0.010041017
-0.048703577 -0.0064137923 -0.062175963 -0.080233 0.08220941 -0.06537294 -0.081327654 0.010960233
-0.060852613 -0.068965346 0.08386597 0.062340457 -0.12172505 0.07834112 -0.065136775 0.071543016
-0.059407823 -0.11207141 -0.046536494 0.044452824 -0.12745087 0.028109765 0.12015828 0.09198529
-0.033479724
00000000: 8ee8 783d 19a9 fcbd d740 45bd 4da5 66bd
00000010: cd40 063d fd8a 0cbe 1551 81bd c400 fbbd
00000020: 4e17 5ebd a5ba 00bc 4c8c ba3d 55e3 39bd
00000030: 06fb 403d e76e 10be 9e18 e7bd 5d3d 90bd
00000040: 829a 6cbb 64ed 3abd 18b5 0fbd 71b2 023d
00000050: d808 b5bb d593 01be bc0d 163c 4ae5 9c3d
00000060: 7cf8 e2bd c058 e3bd da27 95bd 2e50 d3bd
00000070: af3f 493d 14cc be3c d43f 0d3e 1483 243c
00000080: 677d 47bd ca2a d2bb 39ac 7ebd 3351 a4bd
00000090: 685d a83d 3fe2 85bd 1d8f a6bd 8d92 333c
000000a0: 9740 79bd b43d 8dbd ecc1 ab3d b558 7f3d
000000b0: fc4a f9bd 4f71 a03d 6e66 85bd 2585 923d
000000c0: 9e55 73bd b285 e5bd 0d9d 3ebd 2a14 363d
000000d0: 7b82 02be 7346 e63c 8b15 f63d c962 bc3d
000000e0: 0922 09bd

stacks.0.blocks.1.fc1.weight f4 [50, 56]
0.03425916 0.08680451 -0.020033687 -0.046521973 -0.0729429 -0.057910472 0.10329709 0.110269085
0.0063991724 -0.028465234 0.07785598 -0.016782653 0.05296676 0.10316544 -0.13791345 -0.0533256
-0.09305158 -0.044099964 0.055074062 -0.16536693 -0.043510426 -0.09744377 0.078339964 -0.0380809
-0.12386047 0.06640776 0.043834105 0.10580717 -0.12850375 0.08420387 0.0041180095 -0.071240075
-0.015928615 -0.1685125 -0.07250931 -0.035992626 -0.061941933 0.02564216 0.07158199 -0.01112402
0.058448035 -0.0542007 -0.15115693 0.095212005 -0.11011428 -0.06801321 0.07117408 -0.10982157
-0.004135395 -0.1690421 0.012280039 -0.13454656 -0.12364168 -0.02368441 -0.11451198 0.011120097
0.059928622 -0.06378508 -0.11782475 -0.05251657 0.101136334 0.07289248 -0.07145283 0.048636198
-0.014170189 -0.0064133303 -0.10119641 0.03739483 0.08019291 0.036448635 0.105942845 -0.11287311
-0.13498048 -0.08449162 -0.14235301 0.06918365 0.011425946 0.018321285 -0.042715833 -0.04447952
-0.025784368 0.044484742 -0.07660362 -0.083517015 0.043220226 0.08862835 0.010325816 0.059122138
-0.09452574 -0.057984896 -0.095660366 -0.0713975 0.083914064 -0.14593537 0.062440123 -0.1283523
0.09076843 0.1087663 -0.045193426 0.07573351 -0.076822564 0.011281885 -0.12659357 -0.04129368
-0.1792483 -0.34247062 -0.15494181 -0.026392063 -0.095064536 -0.15129696 0.02455904 -0.18236117
-0.095013775 0.019897161 -0.08662556 -0.021068068 -0.10590121 0.063503675 0.008778726 0.07860925
-0.10682849 0.025695512 0.07295357 -0.08909357 0.04724017 -0.010902854 -0.09230994 -0.038745843
-0.072696954 -0.118821375 -0.09256832 0.008123089 0.09927548 0.061080147 -0.06076022 -0.11776762
-0.08218981 0.0035065562 -0.029833842 -0.10466776 -0.058686886 -0.116022356 -0.111861445 0.090080746
0.027222352 -0.1382401 0.10981573 0.09328287 0.015975375 -0.13314915 -0.13925168 -0.14107011
0.027618807 0.054001756 -0.070128016 -0.1122288 -0.14789678 0.07316424 0.11396198 -0.12096223
-0.11810864 -0.37459335 0.07095886 -0.15195063 -0.071190014 -0.10975276 0.0142239155 -0.18653487
-0.06841388 -0.065802895 -0.08068328 -0.068289325 -0.035969906 -0.03706582 -0.08862018 -0.10174129
0.087016955 -0.0613574 -0.112688094 -0.021092447 -0.102010936 -0.06908665 0.044325497 0.06708615
-0.044334024 -0.03874693 0.05666981 -0.019286338 -0.03807848 0.074436724 0.009071784 0.12211102
0.12353056 0.0696294 0.12216765 0.16627921 0.03826505 0.111387834 0.10659935 0.1590699
0.0468864 0.14778678 -0.08184903 0.08321773 0.0055936286 0.07387858 -0.13682042 0.021963872
-0.07984107 -0.018174278 0.113210425 0.05384391 -0.12036125 0.20547986 0.05495354 0.08002834
-0.034756698 0.23382254 0.13087776 0.12350519 0.07727145 0.17011864 0.038401634 0.059774898
0.12103513 0.038150042 -0.053786173 0.11523117 -0.02862864 0.038090687 -0.074310414 -0.008904704
0.075143605 -0.049188536 0.069517724 -0.057734203 -0.10695881 -0.022819562 0.12825781 0.12436835
0.1030085 -0.06540966 -0.106821574 0.04250459 -0.061319407 0.055769756 0.11234146 -0.07176962
0.012026389 0.14494824 -0.03837506 0.04186188 0.09943898 -0.026569277 0.03962598 0.07349612
00000000: 5553 0c3d 90c6 b13d b01d a4bc d38d 3ebd
00000010: 1663 95bd 8833 6dbd 6d8d d33d c2d4 e13d
00000020: 26b0 d13b ec2f e9bc f572 9f3d c67b 89bc
00000030: acf3 583d 6748 d33d 2f39 0dbe f26b 5abd
00000040: d491 bebd 2aa2 34bd 5795 613d f355 29be
00000050: fd37 32bd 9990 c7bd b470 a03d b8fa 1bbd
00000060: 8faa fdbd cb00 883d 648b 333d 6eb1 d83d
00000070: 7d96 03be 1473 ac3d 5ef0 863b 51e6 91bd
00000080: ba7c 82bc 8a8e 2cbe c37f 94bd 016d 13bd
00000090: d3b6 7dbd 820f d23c 9499 923d 8641 36bc
000000a0: 3567 6f3d 8e01 5ebd e2c8 1abe 83fe c23d
000000b0: 9883 e1bd 834a 8bbd b7c3 913d 22ea e0bd
000000c0: 3582 87bb 5f19 2dbe 3732 493c 93c6 09be
000000d0: d937 fdbd cf05 c2bc 4285 eabd 1131 363c
000000e0: b777 753d c1a1 82bd 1a4e f1bd 9d1b 57bd
000000f0: 9120 cf3d a748 953d dd55 92bd c036 473d
00000100: 152a 68bc ea26 d2bb 1040 cfbd 522b 193d
00000110: 2e3c a43d 2a4b 153d 90f8 d83d 042a e7bd
00000120: 5338 0abe f109 adbd fdc4 11be 28b0 8d3d
00000130: e433 3b3c 8516 963c ccf6 2ebd 2830 36bd
00000140: bd39 d3bc a235 363d 5ce2 9cbd f80a abbd
00000150: b107 313d c882 b53d 9d2d 293c 0e2a 723d
00000160: b696 c1bd 9281 6dbd 95e9 c3bd da38 92bd
00000170: 23db ab3d 1570 15be 37c1 7f3d c96e 03be
00000180: cce4 b93d dec0 de3d be1c 39bd 2c1a 9b3d
00000190: 2655 9dbd a8d7 383c bfa1 01be 9023 29bd
000001a0: de8c 37be 4f58 afbe 11a9 1ebe 2b34 d8bc
000001b0: 32b1 c2bd 97ed 1abe 0a30 c93c e3bc 3abe
000001c0: 9596 c2bd 5fff a23c be68 b1bd f196 acbc
000001d0: bce2 d8bd 370e 823d a5d4 0f3c e3fd a03d
000001e0: e5c8 dabd 657f d23c ae68 953d b176 b6bd
000001f0: e97e 413d e2a1 32bc fe0c bdbd f6b3 1ebd
00000200: 24e2 94bd 9f58 f3bd 7694 bdbd b416 053c
00000210: f150 cb3d 2d2f 7a3d b5df 78bd 2630 f1bd
00000220: 2253 a8bd 40ce 653b 1a66 f4bc 0d5c d6bd
00000230: a961 70bd 219d edbd 9d17 e5bd 417c b83d
00000240: 6901 df3c d08e 0dbe 12e7 e03d 170b bf3d
00000250: cade 823c 4058 08be fe97 0ebe af74 10be
00000260: d640 e23c f230 5d3d 479f 8fbd 37d8 e5bd
00000270: 4172 17be 22d7 953d e664 e93d 0cbb f7bd
00000280: f1e2 f1bd b3ca bfbe e152 913d f298 1bbe
00000290: 12cc 91bd 0ec6 e0bd 6d0b 693c ff02 3fbe
000002a0: 941c 8cbd abc3 86bd 473d a5bd 46db 8bbd
000002b0: 2e55 13bd 54d2 17bd 7f7e b5bd bd5d d0bd
000002c0: f235 b23d e651 7bbd 04c9 e6bd 11ca acbc
000002d0: 1ceb d0bd 4d7d 8dbd a78e 353d 7764 893d
000002e0: 9897 35bd 1ab5 1ebd 9a1e 683d 62fe 9dbc
000002f0: 2ef8 1bbd 4872 983d d2a1 143c 5815 fa3d
00000300: 97fd fc3d dc99 8e3d 0833 fa3d 1945 2a3e
00000310: d0bb 1c3d 4e1f e43d c350 da3d 38e3 223e
00000320: f40b 403d 6b55 173e 77a0 a7bd 0f6e aa3d
00000330: c24a b73b a74d 973d a71a 0cbe 94ed b33c
00000340: b783 a3bd 39e2 94bc deda e73d 6f8b 5c3d
00000350: f67f f6bd 5069 523e f716 613d e6e5 a33d
00000360: 0a5d 0ebd 2d6f 6f3e d204 063e 4af0 fc3d
00000370: 7e40 9e3d 9533 2e3e 084b 1d3d 86d6 743d
00000380: 44e1 f73d 3843 1c3d e44e 5cbd 52fe eb3d
00000390: 9c86 eabc fb04 1c3d 0f30 98bd 09e5 11bc
000003a0: e4e4 993d eb79 49bd 4f5f 8e3d b37a 6cbd
000003b0: 380d dbbd 17f0 babc 0456 033e d5b4 fe3d
000003c0: 1ff6 d23d 80f5 85bd 45c5 dabd 4b19 2e3d
000003d0: 0f2a 7bbd d46e 643d 4813 e63d f3fb 92bd
000003e0: 550a 453c 506d 143e 2b2f 1dbd 5d77 2b3d
000003f0: aaa6 cb3d d0a7 d9bc da4e 223d 2285 963d

stacks.0.blocks.1.fc1.bias f4 [50]
0.12682426 -0.09781884 0.0068634544 0.090308905 0.0974417 -0.023302298 -0.012378668 -0.051868897
-0.099565074 0.0013033395 0.11478076 0.13057534 0.068274535 -0.12137816 -0.00043224823 -0.09023113
0.1201408 -0.12657066 0.009125451 -0.009170559 -0.09519531 -0.0075269234 -0.22978172 -0.096741214
0.000120708144 0.060073856 -0.078615 0.05445823 -0.13224508 -0.04457305 -0.10048278 -0.13876295
-0.13284504 -0.08811835 0.048110314 -0.14757498 0.1407541 0.00436564 -0.071402915 -0.057212874
-0.10752309 -0.025700167 0.07446893 0.033134364 0.020612482 -0.18167762 0.07061719 -0.021851577
0.109326266 0.054701034
00000000: 38de 013e 3e55 c8bd d4e6 e03b e0f3 b83d
00000010: 848f c73d 76e4 bebc e6cf 4abc 7b74 54bd
00000020: c6e8 cbbd d1d4 aa3a 2d12 eb3d 8bb5 053e
00000030: 85d3 8b3d 1d95 f8bd 609f e2b9 19cb b8bd
00000040: 610c f63d bd9b 01be ea82 153c 1d40 16bc
00000050: c2f5 c2bd 69a4 f6bb e64b 6bbe 4220 c6bd
00000060: b124 fd38 0110 763d e700 a1bd 980f 5f3d
00000070: 416b 07be 3b92 36bd eac9 cdbd e017 0ebe
00000080: 8808 08be 6577 b4bd 520f 453d e51d 17be
00000090: d821 103e a50d 8f3b b13b 92bd 0c58 6abd
000000a0: 1135 dcbd 2889 d2bc 2b83 983d e6b7 073d
000000b0: 82db a83c b309 3abe bf9f 903d 1402 b3bc
000000c0: 73e6 df3d 310e 603d
