RNN_models/vwap_zscore_10_15min_t9.pth (torch, 171740 bytes, 30 tensors)

stacks.0.blocks.0.fc1.weight f4 [50, 56]
0.057323903 -0.1718197 0.050834592 -0.043166347 0.14193796 -0.101509 0.058645293 0.11803531
-0.013549478 0.06482009 -0.08961415 -0.16771685 0.017381294 -0.036439966 -0.0028256765 -0.105008505
0.12751848 0.096696466 -0.07540052 -0.18231519 -0.10410449 -0.20411608 -0.091368556 0.04262743
-0.093474105 0.09103754 -0.04936363 0.05357594 0.048961055 -0.18906717 -0.0015230118 0.032571103
-0.08104105 -0.11452794 0.084952295 -0.046602767 0.03977185 -0.15175898 -0.11169324 -0.067467935
-0.042379368 0.003402381 -0.11030645 0.06427469 0.046030737 -0.06600844 -0.055033162 -0.05555149
0.13832515 0.1474391 0.06361796 -0.020294776 -0.011974971 0.116416685 -0.09028569 0.16371463
-0.11716126 0.20311654 0.033425644 0.30246162 -0.10627454 0.111405075 -0.03517546 0.068025164
-0.08324585 0.22245352 0.12183187 0.1472641 -0.110551596 0.19591129 0.047599964 0.0052554985
-0.12973596 0.15877563 -0.070308894 0.04037587 -0.01994229 0.30296764 0.037877068 -0.013571092
0.08354753 0.01957783 0.104095265 0.093628034 -0.023292854 0.21107848 -0.10664415 0.22900549
-0.102535576 0.11651084 -0.09918182 0.06574671 0.029064482 0.22265807 0.091784336 0.20138068
-0.009827007 0.2676718 0.10659425 0.09938463 0.053935397 0.07300125 0.026137492 0.059961002
0.11571955 -0.6609655 -0.099795006 -0.077916756 0.012233239 0.0606793 0.04568719 0.035649046
-0.02908731 0.047582515 0.0150713995 0.027371192 -0.016848415 -0.002163335 -0.10179997 -0.28401405
-0.11596633 0.07829763 0.07703804 -0.07645284 0.02255393 0.07228704 -0.041946813 -0.15949334
-0.09034385 0.04556293 -0.061311748 -0.09515545 0.05822413 -0.07438667 0.020565795 -0.05300763
-0.13616693 -0.003577314 0.014118923 -0.19028342 -0.022316648 -0.11940429 0.11071122 -0.116763555
0.067434795 0.029038804 0.12236673 -0.13789123 0.10268236 -0.16091116 -0.09767923 0.0208448
-0.088389955 0.3918887 0.04900873 0.0068396437 -0.06974775 -0.012418201 -0.064822726 -0.12495837
-0.13780716 -0.933625 -0.06305974 -0.44186848 0.004586858 -0.48331237 -0.10659114 -0.19071522
0.03778214 0.10499796 0.060084604 0.080394685 0.05669149 -0.06532518 0.0692996 -0.023758274
0.0072286585 0.10036353 -0.022222321 0.050701804 0.056664765 -0.116447106 0.10512069 -0.08359416
-0.080659874 0.22786546 -0.039616924 0.06431717 -0.0022778567 0.10814298 0.12838434 0.005779183
-0.07698981 0.21955079 -0.14787191 0.21570611 -0.06549757 -0.044377647 0.03634915 0.014443369
0.09274921 -0.061202615 0.05751378 -0.04494628 -0.11717803 0.041329253 0.10262105 -0.015314549
0.053688865 0.05569646 0.09836358 0.08001145 -0.018785244 -0.10868245 -0.099152386 -0.018492466
0.05249009 0.32224697 -0.11612616 0.17937438 -0.14555472 -0.048308097 0.007774079 -0.08282467
0.13904195 -0.005295698 -0.065303996 -0.06227834 -0.07547745 -0.16074443 -0.06575189 0.22358204
0.05496991 -0.01871954 -0.027583392 0.09178672 0.04488954 0.081247665 -0.027272403 0.12440512
0.13410443 -0.03526522 -0.05864389 0.110248365 0.025690043 0.12088599 -0.048629396 0.017945632
0.114743404 0.1497788 0.07544051 0.17580701 0.10806959 0.085624896 -0.023352426 0.11011013
00000000: 78cc 6a3d 81f1 2fbe ef37 503d 32cf 30bd
00000010: 2f58 113e f3e3 cfbd 0c36 703d 7fbc f13d
00000020: a1fe 5dbc 65c0 843d a087 b7bd f7bd 2bbe
00000030: 3763 8e3c 1342 15bd fc2e 39bb b30e d7bd
00000040: 3494 023e cc08 c63d 966b 9abd d5b0 3abe
00000050: bc34 d5bd ce03 51be 701f bbbd 1a9a 2e3d
00000060: 5a6f bfbd e471 ba3d 8531 4abd 7272 5b3d
00000070: 638b 483d d39a 41be cc9f c7ba 4769 053d
00000080: daf8 a5bd a08d eabd 78fb ad3d 8be2 3ebd
00000090: cfe7 223d b566 1bbe 6dbf e4bd a12c 8abd
000000a0: fd95 2dbd 7bfa 5e3b 59e8 e1bd 73a2 833d
000000b0: ba8a 3c3d 6f2f 87bd 746a 61bd f689 63bd
000000c0: 1ca5 0d3e 47fa 163e 224a 823d 3b41 a6bc
000000d0: ab32 44bc df6b ee3d b4e7 b8bd cfa4 273e
000000e0: 3ef2 efbd c8fd 4f3e 54e9 083d 40dc 9a3e
000000f0: 77a6 d9bd 5828 e43d 2514 10bd c750 8b3d
00000100: cd7c aabd dbca 633e fd82 f93d 66cc 163e
00000110: e068 e2bd f89c 483e 2ef8 423d 5136 ac3b
00000120: 81d9 04be 1496 223e 1cfe 8fbd 2b61 253d
00000130: 035e a3bc 931e 9b3e fc24 1b3d 4959 5ebc
00000140: f81a ab3d af61 a03c e62f d53d 0ec0 bf3d
00000150: a8d0 bebc f524 583e 4068 dabd 6a80 6a3e
00000160: 2cfe d1bd 3c9d ee3d d71f cbbd 36a6 863d
00000170: a318 ee3c 7a00 643e 6df9 bb3d bd36 4e3e
00000180: 7401 21bc 470c 893e 164e da3d 2b8a cb3d
00000190: 5deb 5c3d ae81 953d 4b1e d63c ab99 753d
000001a0: 5ffe ec3d 0935 29bf 5361 ccbd d292 9fbd
000001b0: ec6d 483c dc8a 783d 7e22 3b3d bc04 123d
000001c0: 8348 eebc e2e5 423d 08ee 763c 8d39 e03c
000001d0: b005 8abc bdc6 0dbb 817c d0bd 4a6a 91be
000001e0: c17f edbd 825a a03d 1fc6 9d3d 4e93 9cbd
000001f0: 05c3 b83c 3a0b 943d 6cd0 2bbd 3952 23be
00000200: 3206 b9bd 32a0 3a3d 0722 7bbd dce0 c2bd
00000210: 6d7c 6e3d 0a58 98bd 9979 a83c 871e 59bd
00000220: 586f 0bbe 5f71 6abb 0e53 673c a8d9 42be
00000230: 67d1 b6bc 3d8a f4bd 90bc e23d bb21 efbd
00000240: 411b 8a3d c9e2 ed3c 689b fa3d 5c33 0dbe
00000250: 214b d23d e5c5 24be 0c0c c8bd b7c2 aa3c
00000260: cb05 b5bd a3a5 c83e 61bd 483d 171f e03b
00000270: e9d7 8ebd b675 4bbc c7c1 84bd 2dea ffbd
00000280: 521d 0dbe 0c02 6fbf 7725 81bd 963c e2be
00000290: 5b4d 963b b874 f7be 754c dabd da4a 43be
000002a0: 72c1 1a3d 2c09 d73d 461b 763d f8a5 a43d
000002b0: 5635 683d 35c9 85bd f3ec 8d3d b6a0 c2bc
000002c0: 62de ec3b 658b cd3d 960b b6bc b2ac 4f3d
000002d0: 5019 683d d27b eebd 8449 d73d 6a33 abbd
000002e0: 0131 a5bd 9055 693e 5b45 22bd b8b8 833d
000002f0: 1848 15bb 117a dd3d 2f77 033e 4d5f bd3b
00000300: d5ac 9dbd ecd1 603e bc6b 17be 10e2 5c3e
00000310: 9723 86bd 56c5 35bd d9e2 143d e1a3 6c3c
00000320: 4cf3 bd3d 98af 7abd 9293 6b3d 9719 38bd
00000330: 09fb efbd dd48 293d fc2a d23d e0e9 7abc
00000340: dbe8 5b3d f921 643d d872 c93d 0bdd a33d
00000350: 83e3 99bc e894 debd 6810 cbbd 837d 97bc
00000360: d9ff 563d 8efd a43e 8dd3 edbd ebad 373e
00000370: 4c0c 15be b6de 45bd b4bd fe3b fb9f a9bd
00000380: 0361 0e3e 8987 adbb 1abe 85bd 9317 7fbd
00000390: ec93 9abd 309a 24be eda8 86bd b1f2 643e
000003a0: 2128 613d b959 99bc 91f6 e1bc adfa bb3d
000003b0: 18de 373d 2d65 a63d 606a dfbc 1dc8 fe3d
000003c0: ac52 093e 4372 10bd 9334 70bd e5c9 e13d
000003d0: ed73 d23c 1393 f73d 9e2f 47bd b802 933c
000003e0: 97fe ea3d 9d5f 193e 8e80 9a3d c106 343e
000003f0: 9753 dd3d 1b5c af3d 964d bfbc 6b81 e13d

stacks.0.blocks.0.fc1.bias f4 [50]
-0.22182949 -0.07396271 0.058751166 -0.034985352 -0.016210647 -0.10191391 0.13845822 -0.033720583
0.03194215 0.12689023 0.0074794875 0.0053540245 -0.048240464 0.14261375 0.02324149 0.006589691
-0.10170273 -0.10223433 0.11316874 -0.14313631 0.028385421 0.11552583 -0.017500207 -0.04941145
-0.1782528 -0.117728814 0.015381251 0.06353104 -0.03657518 0.09744825 -0.03439284 -0.014764395
-0.13418399 0.1228716 -0.04198863 0.12778533 -0.003434415 -0.11905213 0.06257595 -0.07194845
0.0041672066 -0.08255866 -0.019341603 0.086340494 -0.00770444 -0.07692656 0.06255996 0.09223716
-0.02153319 0.14110638
00000000: 4527 63be c379 97bd 10a5 703d cd4c 0fbd
00000010: 31cc 84bc 3db8 d0bd fec7 0d3e 981e 0abd
00000020: c6d5 023d 83ef 013e 7d16 f53b d070 af3b
00000030: cb97 45bd 5709 123e f064 be3c 56ee d73b
00000040: 8549 d0bd 3b60 d1bd 03c5 e73d 5392 12be
00000050: 8b88 e83c ce98 ec3d 985c 8fbc a963 4abd
00000060: e787 36be ce1b f1bd a501 7c3c 901c 823d
00000070: dbcf 15bd f392 c73d 82df 0cbd 5ce6 71bc
00000080: 8767 09be 1ba4 fb3d 45fc 2bbd 28da 023e
00000090: ec13 61bb 9ad1 f3bd d227 803d b559 93bd
000000a0: 108d 883b 8414 a9bd 4872 9ebc 49d3 b03d
000000b0: 8775 fcbb ac8b 9dbd 701f 803d d6e6 bc3d
000000c0: 5f66 b0bc 317e 103e

stacks.0.blocks.0.fc2.weight f4 [50, 50]
0.016161405 -0.23589596 0.116583236 -0.029001445 0.049385257 0.015037376 -0.095317185 -0.032135874
0.08714915 -0.0419748 -0.087107085 0.02627378 0.09444348 -0.045624 -0.07785467 -0.13412434
0.18445913 0.09107024 0.12655926 -0.0060591586 0.055932384 -0.1181174 -0.035532508 -0.051533893
0.14157829 -0.07189803 0.06466111 0.10969368 -0.14781755 0.09012716 0.13523316 -0.10681437
0.116911426 -0.13146448 0.1829622 0.0020618876 -0.0257451 0.11356523 -0.0136368815 0.16769424
0.0074764364 -0.055094842 -0.01621507 -0.23987323 0.064831644 -0.14209615 0.18950838 0.06146111
0.1498871 -0.07524779 -0.03347407 0.12657236 0.076270506 0.15525872 0.15344769 0.09857342
-0.3572412 0.03983944 0.030142864 0.08055875 0.020526864 0.12575631 -0.1435493 0.099080734
0.11722479 -0.04736229 0.12786344 -0.087420896 0.051742163 0.071881145 -0.083283655 0.011465459
-0.025407946 -0.06465852 -0.10592118 0.07629756 -0.10582361 -0.015082271 0.061515816 -0.21379066
0.15556063 -0.12330246 0.048203364 -0.18909729 0.034233764 0.098429985 0.035550203 0.017833719
0.029308517 -0.09881912 0.07983548 0.03963515 -0.05773967 -0.018164411 0.012224946 0.15084493
0.12511149 0.05180509 0.10705534 -0.14899166 0.035875138 -0.13954036 -0.120500475 -0.011010001
0.056084972 -0.065955214 -0.23952581 -0.06341827 0.122037604 0.0603194 -0.074500285 -0.022481373
0.12095405 0.055914972 0.053912874 -0.029282827 0.16259456 -0.024967475 0.2238497 0.104991905
0.06690221 0.008371383 0.03079034 -0.1215778 0.024492197 -0.039620325 0.10985672 0.011312991
0.019850843 -0.1971582 0.01138779 -0.09559391 -0.02619821 -0.19894446 -0.03530503 -0.09131937
-0.07350409 0.110313416 -0.003845406 0.113264345 0.11377982 0.008084874 -0.03116895 -0.24412465
0.12974215 -0.099763036 0.15082721 -0.08276355 -0.046754915 0.12548299 -0.06432394 0.07674862
-0.10193753 0.0712435 0.13443145 0.13745576 -0.2346463 -0.023484511 -0.05577463 0.1358969
-0.00636227 0.088589914 -0.04276131 0.24338588 0.056321967 0.009125685 0.11387435 0.057861425
0.049195196 0.06311318 0.16454239 -0.05116039 -0.03230389 -0.10164108 0.12562892 0.087360896
-0.0712364 0.14641488 0.054277513 -0.1384191 0.020194165 0.08982696 0.030144636 -0.11936215
-0.057854433 0.12255945 -0.019405367 0.12565066 -0.04760573 -0.0119431205 0.1352219 -0.015431096
0.056674525 -0.23712856 0.14671832 -0.0020445634 0.1716734 -0.009561758 -0.041178763 -0.119207084
0.08209188 -0.041573565 0.11135047 0.057848256 -0.07603361 -0.15140593 0.08237841 -0.072629124
0.14827047 -0.15978682 0.025976181 0.14739548 0.12600215 -0.09835898 -0.13075776 -0.17544712
-0.09830147 -0.07987882 0.07915495 -0.12980254 -0.08668528 -0.21119568 -0.05275354 -0.09623218
-0.04397181 -0.048678108 0.10076527 0.012081517 -0.08594259 -0.03429024 -0.2754067 0.04708616
-0.12200774 0.12192572 0.01938905 0.055565227 -0.07960754 -0.114755385 0.10395961 -0.15683466
-0.06257926 -0.046294954 -0.05237033 0.10513794 -0.121413834 -0.052379947 0.11931851 0.05003468
-0.034249585 -0.10949721 0.048878033 0.13636877 -0.06847466 -0.07369657 0.06533812 0.17156614
00000000: ec64 843c b68e 71be 31c3 ee3d 7094 edbc
00000010: 3248 4a3d 545f 763c a835 c3bd e8a0 03bd
00000020: 417b b23d c5ed 2bbd 3365 b2bd 1c3c d73c
00000030: 956b c13d 3be0 3abd 4572 9fbd e457 09be
00000040: dbe2 3c3e 0983 ba3d c098 013e e88b c6bb
00000050: 5b19 653d 89e7 f1bd 898a 11bd 3415 53bd
00000060: e6f9 103e 463f 93bd 0b6d 843d 15a7 e03d
00000070: 7c5d 17be 9794 b83d 907a 0a3e 7ec1 dabd
00000080: 426f ef3d a09e 06be 715a 3b3e bc20 073b
00000090: 63e7 d2bc e394 e83d 3a6d 5fbc 0ab8 2b3e
000000a0: e5fc f43b 21ab 61bd 77d5 84bc 54a1 75be
000000b0: 74c6 843d a781 11be 7c0e 423e a5be 7b3d
000000c0: 017c 193e 831b 9abd 1b1c 09bd 2f9c 013e
000000d0: b633 9c3d 24fc 1e3e 6421 1d3e dce0 c93d
000000e0: 52e8 b6be ae2e 233d 2bee f63c fcfb a43d
000000f0: f427 a83c 43c6 003e 96fe 12be d7ea ca3d
00000100: 8d13 f03d f6fe 41bd a2ee 023e ba09 b3bd
00000110: 97ef 533d 6c36 933d 9f90 aabd 9fd9 3b3c
00000120: 5324 d0bc b06b 84bd 34ed d8bd e541 9c3d
00000130: 0dba d8bd a11b 77bc 02f8 7b3d f0eb 5abe
00000140: 494b 1f3e 0086 fcbd e470 453d b8a2 41be
00000150: b438 0c3d a995 c93d 179d 113d 0518 923c
00000160: 6a18 f03c ae61 cabd c980 a33d 7858 223d
00000170: 6f80 6cbd 88cd 94bc 244b 483c 1877 1a3e
00000180: 3a1d 003e 9331 543d d53f db3d 4591 18be
00000190: cff1 123d abe3 0ebe f4c8 f6bd 4b63 34bc
000001a0: 5bb9 653d 8713 87bd 4146 75be 70e1 81bd
000001b0: daee f93d 7a11 773d 9b93 98bd db2a b8bc
000001c0: c2b6 f73d 1907 653d bfd3 5c3d 8ae2 efbc
000001d0: 307f 263e 9788 ccbc db38 653e ff05 d73d
000001e0: 0704 893d 2028 093c 063c fc3c c8fd f8bd
000001f0: dca3 c83c ec48 22bd 8ffc e03d 205a 393c
00000200: 3c9e a23c d7e3 49be da93 3a3c bdc6 c3bd
00000210: a19d d6bc 19b8 4bbe 029c 10bd a605 bbbd
00000220: 5089 96bd 00ec e13d 3503 7cbb 23f7 e73d
00000230: 6505 e93d 6b76 043c 0756 ffbc d0fb 79be
00000240: 20db 043e 9050 ccbd 7372 1a3e f07f a9bd
00000250: 1582 3fbd 9d7e 003e 45bc 83bd 612e 9d3d
00000260: a0c4 d0bd 1de8 913d 66a8 093e 34c1 0c3e
00000270: 1f47 70be 9762 c0bc f073 64bd 8f28 0b3e
00000280: 977a d0bb a16e b53d 7c26 2fbd 263a 793e
00000290: ddb1 663d e683 153c f536 e93d 1a00 6d3d
000002a0: e780 493d 7c41 813d cd7d 283e 8f8d 51bd
000002b0: 1551 04bd 3329 d0bd dea4 003e 45ea b23d
000002c0: 64e4 91bd c8ed 153e 1952 5e3d bdbd 0dbe
000002d0: 3c6e a53c 32f7 b73d e2f1 f63c 2574 f4bd
000002e0: c5f8 6cbd 7300 fb3d 01f8 9ebc 91aa 003e
000002f0: 3afe 42bd 14ad 43bc 9c77 0a3e b5d2 7cbc
00000300: 8c23 683d d4d1 72be 543d 163e 15fe 05bb
00000310: 27cb 2f3e eba8 1cbc 10ab 28bd d822 f4bd
00000320: ca1f a83d 0b49 2abd b70b e43d 4bf2 6c3d
00000330: 82b7 9bbd 280a 1bbe 03b6 a83d 94be 94bd
00000340: 37d4 173e 289f 23be 00cc d43c d7ee 163e
00000350: b506 013e 6f70 c9bd 5de5 05be 69a8 33be
00000360: 4852 c9bd 8297 a3bd fe1b a23d f5ea 04be
00000370: 0d88 b1bd ae43 58be 1914 58bd 6115 c5bd
00000380: c91b 34bd b262 47bd 065e ce3d 8ef1 453c
00000390: ab02 b0bd ec73 0cbd 1b02 8dbe 6bdd 403d
000003a0: 32df f9bd 31b4 f93d c9d5 9e3c 5d98 633d
000003b0: 4709 a3bd df04 ebbd c7e8 d43d 4499 20be
000003c0: 8e29 80bd c79f 3dbd 4582 56bd 8f52 d73d
000003d0: d1a7 f8bd 5b8c 56bd 435d f43d 2af1 4c3d
000003e0: 4b49 0cbd 1340 e0bd 5534 483d 41a4 0b3e
000003f0: 713c 8cbd 3aee 96bd fecf 853d 09af 2f3e

stacks.0.blocks.0.fc2.bias f4 [50]
0.113290146 0.14526324 0.1621311 0.10065764 -0.14027345 0.113659374 0.10433339 0.13695295
0.05475139 0.17862861 0.1293615 -0.1348934 0.008042965 0.03858306 0.00841283 0.0153982015
-0.029402014 0.040469978 -0.18083566 -0.11453299 0.16394015 -0.13210665 -0.58873945 -0.033664353
-0.083258286 0.00066167646 -0.10746211 0.015918387 -0.0064620706 0.007865281 -0.050833568 0.0069440478
0.056442253 0.07296581 0.00986274 -0.029727936 0.025496263 0.00468161 0.04248389 -0.15422745
-0.06336929 -0.059612166 0.104354806 0.06934754 0.023227083 -0.016368803 0.034580093 0.11495623
0.05562882 -0.029968178
00000000: aa04 e83d e3bf 143e b205 263e 9825 ce3d
00000010: d8a3 0fbe 3fc6 e83d bfac d53d 653d 0c3e
00000020: fe42 603d 6bea 363e 5777 043e 7f21 0abe
00000030: a4c6 033c 4509 1e3d f7d5 093c bd48 7c3c
00000040: 7edc f0bc d9c3 253d fc2c 39be 4690 eabd
00000050: eddf 273e f746 07be a1b7 16bf a2e3 09bd
00000060: 5283 aabd 5b74 2d3a 1815 dcbd 4767 823c
00000070: c7bf d3bb 61dd 003c dc36 50bd e58a e33b
00000080: fe2f 673d 196f 953d 5497 213c 0088 f3bc
00000090: 8add d03c 3168 993b 9603 2e3d cded 1dbe
000000a0: c2c7 81bd e32b 74bd f9b7 d53d 1506 8e3d
000000b0: b946 be3c de17 86bc dba3 0d3d 2c6e eb3d
000000c0: 0cdb 633d d37f f5bc

stacks.0.blocks.0.fc3.weight f4 [50, 50]
0.09658634 -0.0747971 -0.15257706 -0.0021195118 -0.12694304 0.108480684 0.06615938 0.038971845
0.06947798 -0.10752251 -0.12852861 0.039152265 0.0056634774 0.086254686 -0.08812063 0.05362949
0.11661285 -0.06793866 0.009214148 0.116594985 -0.13888237 -0.03974217 -0.07990286 0.09206112
-0.06902533 -0.11785564 0.07813744 0.09396842 -0.04563644 -0.0036963338 0.13321377 0.040435333
-0.10235233 -0.04026282 0.07828159 0.11765391 0.03532371 -0.07336077 -0.06900507 0.0775365
-0.037930414 -0.032538373 -0.13863412 0.0058333394 -0.14026567 -0.0076139406 0.1072178 -0.055900585
-0.11903303 -0.1007501 -0.0021761688 -0.11166847 0.16650388 -0.078385584 -0.12873843 -0.09094369
0.08115663 -0.06374644 0.05104094 0.015109696 -0.04397385 0.012083264 -0.15417399 0.06591092
-0.010263614 0.12881906 0.013463776 0.028732374 0.05782997 -0.007491184 0.09024656 -0.11349119
-0.029062737 -0.06537001 -0.047910232 -0.083056375 -0.036638197 -0.06183069 0.00878516 0.08671402
0.012229279 0.09170052 -0.10113056 -0.06881048 -0.09987141 -0.06836849 0.18688706 0.01829341
-0.014138778 -0.009480918 0.123832256 0.08512538 -0.059304804 0.02122542 -0.1453134 -0.059341982
0.07830767 -0.03306255 -0.10284274 -0.03632053 -0.14492768 0.021734418 -0.08221336 -0.072391346
0.13859065 -0.09491899 -0.104269534 0.04037087 -0.051682256 0.058270413 0.03856917 -0.04927968
-0.11430688 0.11494591 0.1302182 -0.055243682 0.20758651 -0.12872769 -0.14861706 0.0702609
-0.039461352 0.16837452 -0.15656835 -0.068932764 0.100026004 -0.01687061 0.10343964 0.014947524
-0.20642819 0.06594432 -0.093672834 -0.08685149 -0.052139714 -0.12988666 0.25058112 0.0021075385
-0.36243397 0.0029362303 0.057062525 -0.035805702 0.13021995 -0.09756805 0.07659605 0.064508855
0.008786372 0.13556239 0.088702895 0.031064995 0.082638755 0.086711794 -0.0038526556 0.16433237
0.052878268 -0.09114669 0.09246777 0.139833 0.014683612 0.122982986 -0.035055123 0.07398715
-0.093478255 -0.1103341 -0.054334693 -0.06567288 0.11902998 0.16711764 -0.16750643 -0.09482908
-0.025266161 0.009713753 0.017076358 -0.08334612 -0.15062936 0.057211928 -0.019944938 -0.04159995
-0.1078344 -0.041800562 0.12878394 -0.05741562 -0.037979573 0.11192462 0.045904063 0.03646248
0.0067658187 0.008633406 0.11479153 -0.08999294 0.065518275 -0.05962724 -0.14368276 -0.04510109
-0.08302898 0.056117572 0.012258751 0.027372107 -0.0075624823 0.024001772 0.10191671 -0.04647564
0.059216116 0.0060921423 -0.034020673 -0.13126694 0.09110741 0.0074277646 0.046959475 0.106154665
0.013807089 0.04059567 -0.041676987 -0.048210867 0.10506843 -0.043198735 0.025903028 -0.011961844
0.055933915 -0.03864029 -0.11900911 0.061874047 0.08341729 0.110054955 0.10628058 -0.109879486
-0.0049417024 0.12415963 0.13329464 0.061241854 -0.1130432 0.06984665 -0.12037487 0.04420925
0.037479535 0.10335996 0.13512075 0.032958012 -0.066628166 0.1142522 -0.04701494 -0.05485099
0.24866696 -0.019761017 0.11376795 0.24393679 0.1589891 0.09772082 0.16901103 0.110182755
-0.027811348 -0.028070927 0.055904977 0.10337723 0.15179305 0.16722535 0.120825864 0.016154394
00000000: 0fcf c53d 392f 99bd 293d 1cbe 82e7 0abb
00000010: 5bfd 01be 1f2b de3d 927e 873d f1a0 1f3d
00000020: 794a 8e3d c334 dcbd 019d 03be 205e 203d
00000030: b194 b93b 4ca6 b03d 9778 b4bd 99aa 5b3d
00000040: b8d2 ee3d 6d23 8bbd f0f6 163c 5ac9 ee3d
00000050: 2e37 0ebe b0c8 22bd 1ca4 a3bd 8a8a bc3d
00000060: 275d 8dbd 4c5e f1bd 8606 a03d 8472 c03d
00000070: 47ed 3abd 313e 72bb 3169 083e 859f 253d
00000080: 199e d1bd a0ea 24bd 1952 a03d 88f4 f03d
00000090: 98af 103d 2c3e 96bd 8852 8dbd 75cb 9e3d
000000a0: ec5c 1bbd f546 05bd 1af6 0dbe 9925 bf3b
000000b0: cea1 0fbe 5d7e f9bb 0295 db3d 03f8 64bd
000000c0: 97c7 f3bd 1256 cebd 0e9e 0ebb 70b2 e4bd
000000d0: fe7f 2a3e 9f88 a0bd 02d4 03be af40 babd
000000e0: 7235 a63d 7e8d 82bd 4e10 513d a98e 773c
000000f0: ec1d 34bd e2f8 453c c9df 1dbe 4efc 863d
00000100: b828 28bc 25e9 033e 2b97 5c3c 2860 eb3c
00000110: 1edf 6c3d 9b78 f5bb 30d3 b83d 126e e8bd
00000120: fa14 eebc b6e0 85bd 853d 44bd 7619 aabd
00000130: ef11 16bd 2d42 7dbd a2ef 0f3c 1f97 b13d
00000140: 505d 483c 7bcd bb3d 8a1d cfbd 82ec 8cbd
00000150: 6289 ccbd c704 8cbd 525f 3f3e 10dc 953c
00000160: 55a6 67bc da55 1bbc c49b fd3d 3756 ae3d
00000170: 98e9 72bd efe0 ad3c 09cd 14be 9410 73bd
00000180: c65f a03d 996c 07bd 379f d2bd d6c4 14bd
00000190: ec67 14be 610c b23c 7a5f a8bd ea41 94bd
000001a0: b5ea 0d3e e364 c2bd 448b d5bd ed5b 253d
000001b0: c6b0 53bd f5ac 6e3d b5fa 1d3d 7dd9 49bd
000001c0: ba19 eabd c368 eb3d eb57 053e 3347 62bd
000001d0: 8f91 543e 31d1 03be 122f 18be f2e4 8f3d
000001e0: 3aa2 21bd 5f6a 2c3e 7453 20be 9f2c 8dbd
000001f0: 6fda cc3d 3c34 8abc 29d8 d33d 76e6 743c
00000200: e961 53be d10d 873d 8bd7 bfbd 32df b1bd
00000210: 7490 55bd 0201 05be 2b4c 803e a11e 0a3b
00000220: f290 b9be c56d 403b 65ba 693d 00a9 12bd
00000230: 6158 053e c2d1 c7bd 64de 9c3d 381d 843d
00000240: b7f4 0f3c ded0 0a3e dda9 b53d 047c fe3c
00000250: 823e a93d f495 b13d d67c 7cbb bf46 283e
00000260: e296 583d 1eab babd be5f bd3d 6230 0f3e
00000270: 8893 703c 81de fb3d f695 0fbd 9386 973d
00000280: 8771 bfbd d8f6 e1bd 0e8e 5ebd 817f 86bd
00000290: fdc5 f33d e320 2b3e ce86 2bbe c035 c2bd
000002a0: fbfa cebc 6f26 1f3c b8e3 8b3c 5fb1 aabd
000002b0: 953e 1abe 0e57 6a3d 9163 a3bc b664 2abd
000002c0: 48d8 dcbd 1137 2bbd f0df 033e a42c 6bbd
000002d0: 7890 1bbd bc38 e53d e605 3c3d ae59 153d
000002e0: cdb3 dd3b 2173 0d3c d217 eb3d 384e b8bd
000002f0: 722e 863d b13b 74bd 9321 13be ecbb 38bd
00000300: 190b aabd 8adb 653d eed8 483c 783b e03c
00000310: b3ce f7bb 5d9f c43c b5b9 d03d 3e5d 3ebd
00000320: 998c 723d 98a0 c73b 4359 0bbd d76a 06be
00000330: 8696 ba3d 9b64 f33b 9458 403d 9e67 d93d
00000340: 2137 623c a547 263d 7db5 2abd c278 45bd
00000350: 1e2e d73d 28f1 30bd 9632 d43c 9cfb 43bc
00000360: f61a 653d 4845 1ebd 0cbb f3bd a46f 7d3d
00000370: afd6 aa3d 7e64 e13d a2a9 d93d 7f08 e1bd
00000380: 01ee a1bb 6747 fe3d 647e 083e bdd8 7a3d
00000390: 3183 e7bd c30b 8f3d 1a87 f6bd c214 353d
000003a0: 2484 193d 63ae d33d 185d 0a3e fbfe 063d
000003b0: 5974 88bd 0ffd e93d bd92 40bd 6fab 60bd
000003c0: 8da2 7e3e dbe1 a1bc 2cff e83d 91ca 793e
000003d0: 0ace 223e da21 c83d 3a11 2d3e 7fa7 e13d
000003e0: a0d4 e3bc 00f5 e5bc 9efc 643d 71b7 d33d
000003f0: a36f 1b3e 1f3d 2b3e 8d73 f73d 3856 843c

stacks.0.blocks.0.fc3.bias f4 [50]
-0.14392824 0.13929868 0.028640533 0.10213766 0.10287748 0.110172726 -0.14982049 0.06413142
-0.112546235 0.04102055 -0.021114133 -0.032599054 -0.0947741 -0.10739805 0.013001918 0.12515114
0.055897642 -0.04235138 0.12964478 -0.0586024 0.12909119 0.052458044 -0.07624419 0.119449474
0.08485047 -0.08819427 0.022359317 -0.02252272 0.00249178 0.013619553 0.04147478 -0.19036564
-0.008470563 0.13795702 0.025258856 -0.047181446 -0.15960228 0.11494914 0.064750984 0.06988724
0.0052974066 -0.039261613 -0.2648949 0.07678101 0.069443166 0.12830569 -0.15165341 -0.08994258
0.051932182 0.0071968697
00000000: ed61 13be 50a4 0e3e 8d9f ea3c 8d2d d13d
00000010: 6eb1 d23d 3da2 e13d 8b6a 19be 5557 833d
00000020: a47e e6bd 2a05 283d 8cf7 acbc 9686 05bd
00000030: ec18 c2bd 82f3 dbbd ff05 553c 9f27 003e
00000040: edf4 643d a478 2dbd 9ac1 043e 1209 70bd
00000050: 7b30 043e 3fde 563d ea25 9cbd eda1 f43d
00000060: 15c6 ad3d 339f b4bd e32a b73c 9181 b8bc
00000070: 224d 233b 8c24 5f3c 75e1 293d 36ef 42be
00000080: 1ec8 0abc 9b44 0d3e a9eb ce3c 5541 41bd
00000090: c86e 23be 746a eb3d 2a9c 843d 0b21 8f3d
000000a0: de95 ad3b c9d0 20bd 4ea0 87be 5d3f 9d3d
000000b0: 3838 8e3d 9162 033e 084b 1bbe d133 b8bd
000000c0: d7b6 543d b8d3 eb3b

stacks.0.blocks.0.fc4.weight f4 [50, 50]
0.10281119 0.14143054 -0.07095792 0.0065165316 -0.19442026 -0.14121091 -0.08800301 -0.01978735
0.17557962 0.13902223 0.03592536 -0.042060353 0.048877686 0.03584817 0.068931326 0.12381361
-0.19682387 -0.12100752 -0.09422654 0.17986807 -0.1987103 0.040189333 0.11665094 -0.23510408
-0.2160634 0.1299219 -0.024225486 0.04893091 0.17434223 0.054942463 -0.13304022 -0.13466384
-0.12215029 0.12471041 -0.1310855 0.03279031 -0.05663954 0.047994357 -0.15448034 0.11195347
-0.13521966 0.094740294 0.19421168 -0.0015406559 -0.100193396 -0.09013483 -0.08592987 0.024215251
-0.06921262 0.09023716 0.09989459 0.06579216 -0.1208508 -0.06629684 -0.0007942502 0.14373098
-0.13030855 0.12026551 0.16251491 -0.08233153 -0.075946085 0.16486432 0.013775422 0.076967046
0.13964202 0.09838062 -0.023853293 0.084168725 -0.11200428 0.0785716 0.02339626 -0.11355548
0.15791936 0.058818463 -0.047380015 -0.055636406 -0.108381666 0.08711283 0.06231656 0.06277512
-0.030237675 0.09519322 0.007503922 0.050742917 -0.02325707 0.0709626 0.056051936 -0.04025961
-0.087469175 0.08267721 -0.018475916 -0.17152718 0.019473948 0.12792742 0.14171061 0.13987932
0.10140287 0.13243026 0.11166695 0.02985529 -0.027866468 0.10230857 0.051463034 0.07150553
-0.00928322 -0.09555067 -0.11673219 0.0909531 0.08236586 0.09699641 0.12548457 -0.0871558
-0.13218987 -0.13537906 -0.1624569 0.020193096 -0.015326097 -0.14013714 -0.009135433 -0.05898441
0.040770363 -0.043147214 0.09156206 0.01376834 -0.023723353 -0.14045659 0.09900006 -0.086573206
0.09131273 0.08336573 -0.14877844 -0.1046626 0.05494868 -0.04626969 -0.0917412 -0.01639309
0.05074179 0.14365867 -0.08807953 -0.062505566 0.08744164 -0.106507234 0.012206573 -0.082998924
-0.03568608 -0.11534076 0.040192146 -0.11811471 -0.033656027 0.03940675 -0.09317921 0.03594339
-0.040240396 0.16002758 -0.14183109 -0.15013453 0.008398362 -0.08823311 -0.006032655 -0.047915496
0.079355866 -0.08816431 0.08755566 0.05899662 0.10470937 -0.09884434 0.076554015 -0.03815045
-0.18457241 -0.1637197 -0.055321857 -0.03647186 -0.0038847937 0.10144633 0.1208728 0.039861545
-0.14912945 -0.09781636 -0.1052046 0.009154417 0.05004919 0.15548238 -0.020597426 0.009728029
-0.02123688 -0.22574435 0.066655815 -0.22199574 0.120767936 0.05640024 -0.10586056 -0.0031506673
0.3052382 0.10800601 -0.055478327 0.08172242 -0.08950086 -0.06484216 -0.110947594 0.11997897
0.032746434 0.06510786 0.12581185 -0.024034297 -0.121216 0.14429626 0.07133724 0.1140852
0.10467406 0.11699605 -0.09876308 0.074290104 0.047372494 0.11847438 -0.12584658 0.09652791
-0.058726925 0.021113796 -0.108160704 0.049321186 -0.04007323 0.12015947 -0.0060285646 -0.11845955
-0.010293446 0.13988195 -0.078622915 -0.11213995 -0.08131614 0.01921856 -0.091344826 0.088364944
0.102814615 0.15337485 -0.09496037 0.08255624 0.04342564 -0.014333502 -0.064879484 -0.1316681
-0.13861856 0.102796525 0.002226229 0.15926057 -0.11252496 -0.124964364 -0.072733104 0.12981759
0.08144859 0.12219696 0.015725896 0.14638163 0.05680933 -0.1289392 -0.23905568 0.020233458
00000000: ac8e d23d 2bd3 103e 6352 91bd a188 d53b
00000010: 1b16 47be 9899 10be ec3a b4bd 1519 a2bc
00000020: 25cb 333e d85b 0e3e 7826 133d 7a47 2cbd
00000030: f833 483d 88d5 123d de2b 8d3d fd91 fd3d
00000040: 328c 49be cad2 f7bd d8f9 c0bd 562f 383e
00000050: b67a 4bbe 929d 243d b0e6 ee3d 20bf 70be
00000060: b93f 5dbe 3f0a 053e 8774 c6bc c76b 483d
00000070: c586 323e 590b 613d b23b 08be 51e5 09be
00000080: ee29 fabd 2c68 ff3d 473b 06be 224f 063d
00000090: ddfe 67bd bb95 443d 1830 1ebe dc47 e53d
000000a0: 0677 0abe 3307 c23d 6ddf 463e d5ef c9ba
000000b0: 3232 cdbd 9c98 b8bd 00fc afbd 105f c63c
000000c0: 59bf 8dbd 43ce b83d 8995 cc3d 0abe 863d
000000d0: a080 f7bd a3c6 87bd 3b35 50ba 372e 133e
000000e0: 9b6f 05be c44d f63d 4f6a 263e 6f9d a8bd
000000f0: 9f89 9bbd 31d2 283e 4fb2 613c e6a0 9d3d
00000100: 51fe 0e3e c77b c93d fb67 c3bc a760 ac3d
00000110: 8062 e5bd 26ea a03d 83a9 bf3c c78f e8bd
00000120: 9db5 213e a1eb 703d 8c11 42bd 00e3 63bd
00000130: 35f7 ddbd 3668 b23d a63f 7f3d 3e90 803d
00000140: 00b5 f7bc aaf4 c23d 76e3 f53b ced7 4f3d
00000150: 9c85 bebc d754 913d b796 653d 43e7 24bd
00000160: 0a23 b3bd ab52 a93d ce5a 97bc d2a4 2fbe
00000170: d487 9f3c 68ff 023e 961c 113e 863c 0f3e
00000180: 4fac cf3d cc9b 073e a4b1 e43d 1593 f43c
00000190: 3848 e4bc 2887 d13d e7ca 523d 7e71 923d
000001a0: a618 18bc 12b0 c3bd 4911 efbd 9e45 ba3d
000001b0: 6faf a83d 0ea6 c63d 077f 003e bd7e b2bd
000001c0: c85c 07be cfa0 0abe 1a5b 26be fe6b a53c
000001d0: 4f1a 7bbc 1c80 0fbe c8ac 15bc a399 71bd
000001e0: d3fe 263d 22bb 30bd e484 bb3d 9b94 613c
000001f0: 7a57 c2bc dad3 0fbe 8bc0 ca3d 4b4d b1bd
00000200: 2b02 bb3d a7bb aa3d 6059 18be 5859 d6bd
00000210: de11 613d 4985 3dbd cfe2 bbbd cd4a 86bc
00000220: a0d6 4f3d 421b 133e 0a63 b4bd eb02 80bd
00000230: 9a14 b33d 7720 dabd 14fe 473c 57fb a9bd
00000240: 912b 12bd c737 ecbd 85a0 243d 20e6 f1bd
00000250: e7da 09bd f968 213d bed4 bebd 6039 133d
00000260: 1dd3 24bd 45de 233e 2b3c 11be debc 19be
00000270: 4999 093c 90b3 b4bd 94ad c5bb 0a43 44bd
00000280: 5485 a23d 7d8f b4bd 6250 b33d 71a6 713d
00000290: de71 d63d e76e cabd 5ac8 9c3d a543 1cbd
000002a0: 8d00 3dbe 23a6 27be 2c99 62bd 8463 15bd
000002b0: 0698 7ebb 18c3 cf3d 298c f73d dc45 233d
000002c0: 64b5 18be f253 c8bd 8275 d7bd 68fc 153c
000002d0: 6100 4d3d c636 1f3e efbb a8bc 5062 1f3c
000002e0: f7f8 adbc 8729 67be d882 883d da52 63be
000002f0: 2e55 f73d f003 673d 6ccd d8bd 6d7b 4ebb
00000300: 2e48 9c3e 4132 dd3d 3e3d 63bd 165e a73d
00000310: 3a4c b7bd f7cb 84bd 7e38 e3bd 89b7 f53d
00000320: 2021 063d 4557 853d d2d4 003e 93e3 c4bc
00000330: 1840 f8bd 66c2 133e 4219 923d 80a5 e93d
00000340: 5b5f d63d a09b ef3d 4c44 cabd 6925 983d
00000350: a909 423d b2a2 f23d eddd 00be 6db0 c53d
00000360: a58b 70bd d7f6 ac3c 5c83 ddbd 0305 4a3d
00000370: d423 24bd 2b16 f63d 448b c5bb ec9a f2bd
00000380: d7a5 28bc 373d 0f3e 0d05 a1bd a1a9 e5bd
00000390: 1489 a6bd 3e70 9d3c ff12 bbbd aef8 b43d
000003a0: 7890 d23d 4c0e 1d3e 957a c2bd 3f13 a93d
000003b0: 15df 313d 11d7 6abc 89df 84bd 01d4 06be
000003c0: 06f2 0dbe fc86 d23d ede5 113b 3415 233e
000003d0: 7c73 e6bd 51ed ffbd 18f5 94bd e7ee 043e
000003e0: 85ce a63d 6642 fa3d 98d3 803c 11e5 153e
000003f0: e6b0 683d a308 04be 03cb 74be a3c0 a53c

stacks.0.blocks.0.fc4.bias f4 [50]
-0.03267685 0.08473919 0.1174342 -0.26626688 0.04846251 0.021268573 -0.032860734 0.043627232
0.14717764 0.027596481 0.014747297 -0.07323163 -0.17092784 -0.042325396 0.0049441704 -0.019499008
-0.2184499 0.06852509 -0.060757913 0.099561945 -0.11526567 -0.083760425 0.12905325 0.07977386
-0.018932508 0.09999221 -0.01875513 0.15187404 -0.0005135236 0.12500083 -0.12105092 0.026967406
0.1358934 0.1471233 0.15634969 0.12704834 -0.089123294 -0.11751757 0.068947665 -0.025564143
-0.12476585 0.11179473 0.17710917 0.08456988 0.014534934 0.07155118 0.10800283 0.025855782
0.06885222 -0.08980689
00000000: 29d8 05bd be8b ad3d 5881 f03d 2254 88be
00000010: a080 463d 6e3b ae3c fa98 06bd 78b2 323d
00000020: bcb5 163e 0412 e23c a69e 713c 77fa 95bd
00000030: b507 2fbe 655d 2dbd b502 a23b 62bc 9fbc
00000040: 55b1 5fbe e256 8c3d 4add 78bd 22e7 cb3d
00000050: 6810 ecbd 968a abbd 8926 043e 7a60 a33d
00000060: 5918 9bbc b7c8 cc3d 5ca4 99bc de84 1b3e
00000070: fc9d 06ba 3800 003e 8be9 f7bd c0ea dc3c
00000080: a427 0b3e 7ea7 163e 221a 203e f618 023e
00000090: 4686 b6bd 0dad f0bd 6f34 8d3d e56b d1bc
000000a0: 3d85 ffbd a3f4 e43d 1b5c 353e f932 ad3d
000000b0: ef23 6e3c 6d89 923d 9630 dd3d 81cf d33c
000000c0: 6502 8d3d adec b7bd

stacks.0.blocks.0.theta_layer.weight f4 [57, 50]
0.1937133 0.11688235 0.019766357 0.15601993 0.12160178 0.26413757 0.017888563 -0.019703887
0.03924479 0.05998779 -0.13236535 -0.039420623 -0.0027021628 0.101399936 0.06521436 -0.13868846
0.07268744 -0.17682292 0.09000922 -0.15989901 -0.022338824 0.08510773 -0.04158151 -0.009087089
0.09459797 -0.068296984 -0.11561245 -0.112660654 0.037772156 -0.009421053 -0.07016478 -0.0010375442
-0.15352961 -0.01629889 -0.1534502 0.108077936 -0.0028542578 0.12817284 0.096448354 0.03515256
0.07795835 -0.1347225 -0.18659629 -0.06361604 0.03634114 0.08722623 0.009558742 -0.118349075
0.05003647 0.044427685 -0.24849634 0.057386152 0.13460585 0.21034694 -0.040339276 -0.1477203
-0.018687004 -0.06915799 0.00016677157 -0.025702244 0.07588072 0.071402855 0.106441066 -0.10943211
0.0649736 0.03341298 0.12273602 0.009484888 -0.074887335 0.0126720965 0.007506429 0.009054725
0.09134368 -0.14350773 -0.18014073 0.1032268 0.090920575 -0.088078916 0.012031841 -0.025788616
-0.03808734 -0.039449297 0.052315135 -0.06283381 0.16542235 -0.064721204 -0.119271174 0.03910693
0.0510867 -0.04883339 0.03850426 0.023229318 0.013622173 0.09085322 0.0058560357 -0.017439459
-0.1868102 -0.02666534 0.09623536 0.057686105 0.064160794 0.016637472 0.0033665306 -0.22962357
-0.05043138 0.098066956 0.10943917 0.03312406 -0.12441091 0.03310006 -0.052265216 -0.051393624
0.038469277 0.17839053 0.017913979 0.13698156 0.007099926 0.053149253 -0.014816725 -0.06760026
0.10533947 0.13631569 0.12543227 0.11913847 -0.06322803 -0.10154726 0.0064218435 0.12138034
-0.09380037 0.14784925 -0.09763584 -0.09286297 -0.0063385013 0.14764397 -0.06324218 -0.1672763
-0.13514626 -0.08071051 -0.08940133 0.15632929 -0.008355622 0.013500008 -0.061762106 -0.11712543
-0.07223498 -0.19579118 -0.0066563035 -0.073565505 0.010707708 0.14543429 -0.14143884 -0.08795297
-0.0040132347 -0.018674755 -0.0335072 -0.069144785 -0.07352384 -0.010992994 0.13609943 0.010970567
0.039372995 0.07433497 -0.060749132 0.102304265 -0.04021298 0.11992772 -0.018643955 0.07766637
-0.055635843 -0.0858949 0.028772794 0.08266172 0.00094222743 0.09668164 -0.10397016 -0.14960784
-0.08727163 0.058549855 0.05104582 0.11963821 0.048237063 0.059093762 0.07372086 -0.022636114
0.1493083 -0.022647936 0.12865274 0.1237905 -0.15216477 0.12865183 -0.004912922 0.04843849
-0.11345598 0.04114127 -0.043383747 -0.05463224 -0.07341357 -0.051536378 0.0356657 0.07154582
0.0060484954 -0.07362576 -0.08304738 -0.1535246 0.10291144 0.04993474 0.119902335 0.047981597
-0.04858838 -0.06986984 0.097327225 -0.09787648 -0.056610104 0.027004352 0.056186713 -0.032848027
-0.36513445 -0.028396852 0.10013232 0.012806999 -0.041208893 -0.0653779 0.044476643 -0.042145554
0.1520504 0.07610548 0.14389819 -0.031375874 0.070496194 -0.006198014 -0.14110105 0.14171779
-0.15430064 0.12144605 0.13126491 -0.10604421 0.080776274 -0.079811454 -0.021400947 -0.03958058
-0.106702775 -0.09365375 0.10297437 0.11841633 0.15062323 0.00835416 -0.10465297 0.07772819
-0.0008288262 -0.03693023 -0.13496079 0.033614513 0.106640965 0.24636912 -0.08166067 -0.0021406133
00000000: c85c 463e 0360 ef3d 0eed a13c b0c3 1f3e
00000010: 5b0a f93d 0a3d 873e 098b 923c 0c6a a1bc
00000020: 25bf 203d c2b5 753d c88a 07be 8577 21bd
00000030: c516 31bb c5aa cf3d 1b8f 853d 5904 0ebe
00000040: 27dd 943d 1111 35be c156 b83d 91bc 23be
00000050: e9ff b6bc f64c ae3d 6051 2abd 04e2 14bc
00000060: 95bc c13d 4adf 8bbd 38c6 ecbd a1ba e6bd
00000070: fab6 1a3d c35a 1abc 8db2 8fbd 35fe 87ba
00000080: de36 1dbe 4085 85bc 0d22 1dbe f757 dd3d
00000090: 800e 3bbb be3f 033e b786 c53d 21fc 0f3d
000000a0: a1a8 9f3d b2f4 09be 1913 3fbe 2049 82bd
000000b0: 72da 143d aaa3 b23d 459c 1c3c 0061 f2bd
000000c0: 0bf3 4c3d cef9 353d d375 7ebe be0d 6b3d
000000d0: 1ed6 093e 3065 573e cc3a 25bd fe43 17be
000000e0: 7d15 99bc b4a2 8dbd 67df 2e39 838d d2bc
000000f0: 5a67 9b3d a93b 923d c6fd d93d f11d e0bd
00000100: e110 853d 0ddc 083d 065d fb3d 8166 1b3c
00000110: 885e 99bd a09e 4f3c 7ef8 f53b 455a 143c
00000120: 6512 bb3d b1f3 12be d076 38be 9368 d33d
00000130: 9134 ba3d b862 b4bd 3321 453c a642 d3bc
00000140: 7801 1cbd 9695 21bd 6548 563d 03af 80bd
00000150: 7a64 293e 8d8c 84bd 7244 f4bd 972e 203d
00000160: 4a40 513d 8505 48bd a5b6 1d3d 694b be3c
00000170: 892f 5f3c 4111 ba3d fde3 bf3b 32dd 8ebc
00000180: 2c4b 3fbe 4571 dabc 0b17 c53d 4448 6c3d
00000190: bc66 833d 4f4b 883c 03a1 5c3b 7122 6bbe
000001a0: 2291 4ebd 54d7 c83d a521 e03d 18ad 073d
000001b0: 26cb febd ee93 073d 0d14 56bd 1f82 52bd
000001c0: f691 1d3d 02ac 363e 56c0 923c e544 0c3e
000001d0: 7fa6 e83b 08b3 593d d9c1 72bc 0172 8abd
000001e0: 38bc d73d 5796 0b3e 5171 003e dffe f33d
000001f0: b37d 81bd 03f8 cfbd 546e d23b 4196 f83d
00000200: 691a c0bd cb65 173e 4df5 c7bd f12e bebd
00000210: 34b3 cfbb fb2f 173e 1e85 81bd 7a4a 2bbe
00000220: c863 0abe 8d4b a5bd 0b18 b7bd c914 203e
00000230: 05e6 08bc 232f 5d3c 43fa 7cbd 75df efbd
00000240: efef 93bd 7c7d 48be 1f1d dabb 83a9 96bd
00000250: 626f 2f3c baec 143e 58d5 10be b020 b4bd
00000260: 7481 83bb cdfb 98bc d93e 09bd c89b 8dbd
00000270: ab93 96bd f51b 34bc a65d 0b3e e5bd 333c
00000280: 9445 213d ef3c 983d 15d4 78bd e684 d13d
00000290: 5eb6 24bd aa9c f53d 35bb 98bc 8c0f 9f3d
000002a0: 69e2 63bd aae9 afbd ecb4 eb3c 8c4a a93d
000002b0: d0ff 763a 0601 c63d 4fee d4bd cc32 19be
000002c0: 78bb b2bd f9d1 6f3d 6c15 513d e104 f53d
000002d0: 3a94 453d 4d0c 723d f6fa 963d 5f6f b9bc
000002e0: 46e4 183e 2a88 b9bc 8bbd 033e e085 fd3d
000002f0: 15d1 1bbe 4ebd 033e 94fc a0bb 7067 463d
00000300: 9c5b e8bd c083 283d 28b3 31bd 0ec6 5fbd
00000310: db59 96bd cf17 53bd 3216 123d 9d86 923d
00000320: 7532 c63b 1ac9 96bd bf14 aabd 8e35 1dbe
00000330: 3cc3 d23d 5f88 4c3d 5b8f f53d 5a88 443d
00000340: 9c04 47bd eb17 8fbd 7f53 c73d 7773 c8bd
00000350: ffdf 67bd 3b38 dd3c 0a24 663d a78b 06bd
00000360: e7f2 babe 84a0 e8bc 2c12 cd3d 72d4 513c
00000370: a8ca 28bd d9e4 85bd 242d 363d d1a0 2cbd
00000380: 1ab3 1b3e 31dd 9b3d 0c5a 133e fd83 00bd
00000390: 4f60 903d b618 cbbb cb7c 10be 781e 113e
000003a0: fd00 1ebe b5b8 f83d 4f6a 063e b52d d9bd
000003b0: 086e a53d 3074 a3bd 0a51 afbc 3f1f 22bd
000003c0: fc86 dabd 8acd bfbd 3ae4 d23d 4384 f23d
000003d0: fa3c 1a3e e3df 083c 4c54 d6bd f52f 9f3d
000003e0: 9645 59ba 2744 17bd 2933 0abe 5faf 093d
000003f0: 9466 da3d 3048 7c3e b63d a7bd 8849 0cbb

stacks.0.blocks.0.theta_layer.bias f4 [57]
0.08769589 -0.098470956 -0.017702827 0.05974509 -0.09807123 -0.14708395 -0.1270915 0.09762629
0.039846268 -0.09288591 0.10805612 0.06562426 0.07773107 0.06597079 0.0139981285 0.093836226
0.050104808 -0.07654122 -0.05909259 -0.02862832 -0.14228043 -0.027069027 0.06564922 -0.08516623
-0.050871942 0.05520409 -0.008702322 0.050775774 0.09431149 0.014327774 -0.048116192 0.047302887
-0.018971434 0.06192976 -0.11588727 -0.07073209 -0.023895608 -0.007207864 0.028521251 -0.08676426
-0.029892048 -0.075567044 -0.08328955 -0.09468421 -0.123373725 0.011349161 0.08967505 0.16022797
0.10329235 -0.026553718 0.0824729 0.0067602457 -0.029471649 -0.025702672 -0.0011208113 -0.10634276
0.105887495
00000000: e799 b33d 24ab c9bd 8505 91bc 44b7 743d
00000010: 92d9 c8bd 2d9d 16be 4624 02be 4bf0 c73d
00000020: d735 233d f83a bebd 874c dd3d 0366 863d
00000030: 7831 9f3d b21b 873d 6858 653c 352d c03d
00000040: b33a 4d3d a5c1 9cbd 120b 72bd f085 eabc
00000050: f6b1 11be ddbf ddbc 1973 863d a26b aebd
00000060: 195f 50bd af1d 623d 2f94 0ebc 42fa 4f3d
00000070: 6226 c13d 0abf 6a3c 7c15 45bd acc0 413d
00000080: fb69 9bbc 0faa 7d3d 4e56 edbd fcdb 90bd
00000090: b9c0 c3bc f22f ecbb 66a5 e93c 76b1 b1bd
000000a0: 2be0 f4bc e5c2 9abd b693 aabd cce9 c1bd
000000b0: 5dab fcbd d5f1 393c 8da7 b73d cd12 243e
000000c0: f18a d33d 2f87 d9bc 8de7 a83d 0d85 dd3b
000000d0: 876e f1bc 698e d2bc 30e8 92ba 3cca d9bd
000000e0: 8bdb d83d

stacks.0.blocks.1.fc1.weight f4 [50, 56]
-0.032757837 0.0896806 -0.024247084 0.04353446 -0.009153692 0.028401373 -0.10543931 0.080207504
-0.10111447 0.02161763 0.066473424 0.093916774 -0.013890441 -0.13622053 -0.086950794 -0.12113406
0.028813144 -0.026151389 -0.12429342 0.03423232 -0.0017308753 0.059125222 -0.13202493 -0.04744741
-0.07482191 0.061938576 -0.047168005 0.027583066 0.02952555 0.12551165 0.11621108 0.015719177
0.07194985 -0.0066612805 -0.13682655 0.025747545 0.0993992 -0.13163204 0.09779401 0.13009964
0.08662679 -0.026712844 -0.047838382 0.040911112 0.034675095 0.09063136 0.032119665 -0.002527084
0.02875698 -0.05704355 -0.036214564 -0.06555576 0.008794738 -0.032470156 -0.061680228 0.04758772
-0.083280034 0.13778003 -0.05324491 -0.038045187 -0.074581906 -0.057874963 -0.09775551 -0.0013221469
0.05100763 -0.07867882 -0.094691135 -0.11721279 0.066149585 0.016151713 0.12701492 -0.03595793
-0.10758705 0.0602461 -0.11684979 0.008611946 -0.018110666 -0.09881976 -0.0635602 -0.04738281
0.0292232 -0.030066703 -0.07619337 -0.1321711 0.06465643 0.071196474 0.068833515 0.039789308
0.0073374533 -0.1526224 0.008377015 0.035287835 -0.002530392 -0.11328856 0.08533501 -0.074314095
0.05109464 0.013368371 0.10730443 -0.004864475 -0.10434337 -0.042880755 0.070000574 0.02869128
-0.11897894 -0.18398502 -0.06114603 -0.26284954 -0.106379755 -0.19686608 0.094188176 0.01730442
0.011525294 0.009608118 -0.070174396 -0.00025363947 -0.0299709 -0.071025595 -0.0966709 -0.030337838
-0.041427635 -0.077039815 0.12033026 0.16476555 0.059458606 -0.13604698 0.106400385 0.103449084
-0.06400544 -0.037668448 0.0692863 -0.108863056 0.06063476 0.030948091 0.12805854 0.067693636
0.075780675 0.0026485196 0.00382775 0.17628029 0.002956672 0.17353314 0.005245218 0.036957894
-0.064128555 -0.036655582 0.07933488 0.05344949 -0.062753424 -0.07966022 -0.0006202777 -0.11981077
-0.09906309 -0.20203492 0.09218971 -0.099588476 0.043887362 0.05824748 -0.08810837 -0.011981411
0.04474234 -0.075559735 0.008587834 -0.09951459 0.028961407 0.034178343 0.0769366 0.08366148
0.06906377 -0.11879139 -0.057429254 0.029743345 -0.098000154 -0.12967846 -0.06979172 0.07898018
-0.018887011 -0.040594045 -0.02730225 -0.03069187 -0.0065325857 -0.09559062 -0.03928184 0.023791632
0.014153301 -0.029463401 0.0150385685 -0.051754884 0.08498764 0.0980092 -0.010595216 -0.03468945
-0.049181893 -0.10192336 0.12114535 -0.10338332 0.12688561 0.086860076 -0.12254446 0.046553116
-0.07368854 -0.16165899 -0.07268734 -0.1639463 -0.0726254 -0.13484028 0.1143525 0.06738644
0.06963946 0.08979201 -0.09500991 -0.003931494 0.0978778 0.060335282 0.010958263 -0.0071211797
-0.015086488 -0.21876174 -0.07752931 -0.22074667 -0.050639383 -0.043246835 0.075624175 0.064390816
-0.117610835 0.014854518 0.015699942 0.11492743 0.07195662 0.07425663 0.0034780928 -0.019555276
-0.096395895 0.08960559 0.04746322 -0.10912718 0.09964841 0.06779824 -0.028078808 -0.031259056
-0.02666451 0.13286838 0.03442383 -0.013558736 -0.082300596 0.017292487 -0.022887582 -0.084111154
-0.11655724 0.17770985 -0.10473765 0.0199272 -0.085442156 -0.042509306 0.0055183014 0.11207588
00000000: 152d 06bd 76aa b73d d2a1 c6bc 3151 323d
00000010: 5ef9 15bc ffa9 e83c 91f0 d7bd d543 a43d
00000020: 1a15 cfbd 7517 b13c 3823 883d 7057 c03d
00000030: bb94 63bc 657d 0bbe 4213 b2bd 2215 f8bd
00000040: 8b09 ec3c 703b d6bc 8c8d febd 3037 0c3d
00000050: 8ade e2ba 4a2d 723d 8b31 07be 3758 42bd
00000060: 3b3c 99bd 4eb3 7d3d 3d33 41bd e2f5 e13c
00000070: 91df f13c 2086 003e 1300 ee3d 81c5 803c
00000080: 715a 933d df46 dabb 421c 0cbe 84ec d23c
00000090: cf91 cb3d 8dca 06be 3a48 c83d d738 053e
000000a0: 6369 b13d e5d4 dabc 2ef2 43bd 6992 273d
000000b0: 7907 0e3d ef9c b93d e98f 033d 6f9d 25bb
000000c0: c293 eb3c 7fa6 69bd b955 14bd 1942 86bd
000000d0: ce17 103c 6dff 04bd 68a4 7cbd 57eb 423d
000000e0: b98e aabd 3516 0d3e 5617 5abd 45d5 1bbd
000000f0: 66be 98bd 4c0e 6dbd 0a34 c8bd e34b adba
00000100: 60ed 503d 5c22 a1bd 6ded c1bd 420d f0bd
00000110: 6f79 873d 9950 843c 3310 023e 9f48 13bd
00000120: 9956 dcbd 9dc4 763d f14e efbd 1f19 0d3c
00000130: d25c 94bc 0462 cabd da2b 82bd 7a14 42bd
00000140: 7e65 ef3c 724e f6bc 450b 9cbd dc57 07be
00000150: 976a 843d 75cf 913d 96f8 8c3d 1dfa 223d
00000160: 056f f03b 0c49 1cbe bf3f 093c fa89 103d
00000170: efd4 25bb d503 e8bd 1fc4 ae3d fd31 98bd
00000180: 9d48 513d 0307 5b3c 6dc2 db3d 2d66 9fbb
00000190: fab1 d5bd bba3 2fbd 765c 8f3d fa09 eb3c
000001a0: 3bab f3bd 9266 3cbe 4274 7abd 3794 86be
000001b0: a1dd d9bd 4397 49be bbe5 c03d 00c2 8d3c
000001c0: 96d4 3c3c 5e6b 1d3c 98b7 8fbd eafa 84b9
000001d0: 8885 f5bc de75 91bd 65fb c5bd 0f87 f8bc
000001e0: 06b0 29bd 0dc7 9dbd b66f f63d 4db8 283e
000001f0: de8a 733d e64f 0bbe 72e8 d93d 1ddd d33d
00000200: 4915 83bd 3b4a 1abd fae5 8d3d 98f3 debd
00000210: 275c 783d da86 fd3c c721 033e f6a2 8a3d
00000220: e632 9b3d c992 2d3b fdda 7a3b d282 343e
00000230: bac4 413b acb2 313e 14e0 ab3b 2961 173d
00000240: d555 83bd 2a24 16bd 537a a23d daed 5a3d
00000250: de84 80bd e624 a3bd 229a 22ba 595f f5bd
00000260: 97e1 cabd 3ee2 4ebe f5cd bc3d 0bf5 cbbd
00000270: 3cc3 333d e994 6e3d 2972 b4bd ae4d 44bc
00000280: be43 373d 10bf 9abd fdb3 0c3c 4ece cbbd
00000290: 7940 ed3c 97fe 0b3d f090 9d3d b656 ab3d
000002a0: 4e71 8d3d e648 f3bd f03a 6bbd 51a8 f33c
000002b0: 4eb4 c8bd 6eca 04be f6ee 8ebd 5cc0 a13d
000002c0: efb8 9abc f145 26bd f8a8 dfbc 846d fbbc
000002d0: 4d0f d6bb 04c5 c3bd ffe5 20bd abe6 c23c
000002e0: 3fe3 673c 3b5d f1bc 5464 763c eefc 53bd
000002f0: 000e ae3d 0cb9 c83d 8f97 2dbc 8616 0ebd
00000300: f472 49bd 32bd d0bd 0e1b f83d a2ba d3bd
00000310: 4dee 013e b2e3 b13d 97f8 fabd 7bae 3e3d
00000320: 04ea 96bd ef89 25be 1add 94bd 8ae1 27be
00000330: a0bc 94bd 9213 0abe a531 ea3d e701 8a3d
00000340: 229f 8e3d e0e4 b73d 8e94 c2bd c3d3 80bb
00000350: 2874 c83d 2122 773d 498a 333c c958 e9bb
00000360: 512d 77bc 1403 60be b0c7 9ebd 6a0b 62be
00000370: 3e6b 4fbd 9823 31bd d9e0 9a3d 55df 833d
00000380: f3dd f0bd 5d60 733c 2a9d 803c 135f eb3d
00000390: fe5d 933d dc13 983d b7f0 633b 6332 a0bc
000003a0: 366b c5bd 2383 b73d cb68 423d 127e dfbd
000003b0: 7714 cc3d ced9 8a3d 8705 e6bc 7f09 00bd
000003c0: 886f dabc a60e 083e 0100 0d3d 7625 5ebc
000003d0: 378d a8bd f9a8 8d3c bd7e bbbc 7842 acbd
000003e0: 90b5 eebd 92f9 353e b180 d6bd 5e3e a33c
000003f0: 4cfc aebd 3d1e 2ebd ded2 b43b 0a88 e53d

stacks.0.blocks.1.fc1.bias f4 [50]
-0.12960297 0.003276399 -0.08011242 -0.01876386 -0.06205963 0.118220255 0.12647504 0.077056475
0.0765005 0.04551367 -0.06757995 0.032641917 0.077077016 -0.069069974 0.09801434 -0.10594146
-0.16113564 -0.05543803 -0.14136392 -0.07545269 -0.095047966 -0.08357582 0.04043748 0.107992284
-0.052206773 -0.08237559 0.043451108 -0.087789305 -0.09826918 -0.043809466 -0.07485452 0.048595842
0.031382255 0.13414061 -0.2926937 -0.054953057 -0.03485877 -0.06248115 -0.07498827 0.037913226
0.010415254 -0.10395901 0.008313651 0.14644489 0.08624783 0.05079643 0.119112164 0.087880224
-0.091542654 0.063371755
00000000: a4b6 04be dbb8 563b fb11 a4bd abb6 99bc
00000010: 3d32 7ebd 761d f23d ac82 013e c9cf 9d3d
00000020: 4bac 9c3d 8b6c 3a3d 5b67 8abd 88b3 053d
00000030: 8eda 9d3d 8f74 8dbd bebb c83d d6f7 d8bd
00000040: be00 25be fd12 63bd b4c1 10be f186 9abd
00000050: 82a8 c2bd cd29 abbd c5a1 253d 0f2b dd3d
00000060: c5d6 55bd 89b4 a8bd caf9 313d e1ca b3bd
00000070: 5a41 c9bd 8e71 33bd 544d 99bd 6f0c 473d
00000080: ae8a 003d 285c 093e f3db 95be 7516 61bd
00000090: 12c8 0ebd 3cec 7fbd 7393 99bd e64a 1b3d
000000a0: bea4 2a3c 76e8 d4bd fb35 083c a6f5 153e
000000b0: b4a2 b03d eb0f 503d 14f1 f33d 8cfa b33d
000000c0: b77a bbbd 0dc9 813d
